src/src_learner/java_finetuning_model.pt (torch, 103364 bytes, 11 tensors)

word_embeddings.weight f4 [109, 128]
0	0xbfad69ff	-1.3547972
1	0xbf5f0b8b	-0.8712699
2	0xbf14fc5d	-0.58197576
3	0xbfd2ff1c	-1.6484103
4	0xbe9998a3	-0.29999265
5	0xbf299557	-0.662435
6	0xbf60e505	-0.87849456
7	0xbfbf5a70	-1.4949474
8	0xbf58b9d6	-0.84658563
9	0x3e9937a3	0.2992526
10	0xbf295983	-0.6615221
11	0xbed30ba1	-0.4121981
12	0xbec66749	-0.38750675
13	0x3fdcaa8f	1.723955
14	0x3e52fb36	0.20603642
15	0x3ef73201	0.48280337
16	0xbf09f4d2	-0.5388919
17	0xbf950a91	-1.164385
18	0x3f4e787b	0.8065259
19	0x3df29e37	0.11846583
20	0x3f61540b	0.88018864
21	0x3e0505d3	0.12990503
22	0xbf30c1d2	-0.69045746
23	0x3f227773	0.63463515
24	0x3f699404	0.9124148
25	0xbe57599e	-0.2103028
26	0xc0153e8d	-2.3319428
27	0xbfc9f529	-1.5777942
28	0x3e0af488	0.13569844
29	0xbf1bf54f	-0.60921186
30	0xbf845c21	-1.0340616
31	0xbdf61b1d	-0.1201689
32	0x3feeb58b	1.8649153
33	0x3c8bb975	0.017056206
34	0xbc31adbd	-0.010844645
35	0xbf2e6aa7	-0.6813149
36	0x3ee68e42	0.4503041
37	0x3de0f053	0.10983338
38	0x3e0c7337	0.13715826
39	0xbf0f4b3c	-0.55974174
40	0xbbd645f9	-0.006539103
41	0x3e012471	0.12611558
42	0xbe9d21a2	-0.30689722
43	0x3d27f2d2	0.041003056
44	0x40168f75	2.352506
45	0xbf547588	-0.8299184
46	0x3fd7a891	1.6848317
47	0xbf1ba343	-0.6079599
48	0xbf83f02a	-1.0307667
49	0x3f52b9a5	0.8231452
50	0xbe33c05f	-0.17553852
51	0xbf22e389	-0.6362844
52	0x3f504523	0.81355494
53	0x3f2d1519	0.6761032
54	0x3f9f6024	1.2451215
55	0x3fec17d6	1.8444774
56	0x3c0fdcdc	0.008780684
57	0x3f69963f	0.9124488
58	0xbec36a69	-0.38167122
59	0xbf27436f	-0.6533727
60	0x3fc439b9	1.5330116
61	0xbf192ae3	-0.59831065
62	0xc05a178e	-3.4076877
63	0xbf48e0cc	-0.7846801
64	0xbde33473	-0.11093988
65	0xbf8ff30c	-1.1246047
66	0xbf3e9257	-0.74442047
67	0xbf91cab4	-1.1389985
68	0xbd5b0c99	-0.05347881
69	0xbd36c0ba	-0.044617392
70	0x3fd0a742	1.6301043
71	0xbdf5909c	-0.11990473
72	0xbf426e63	-0.75949687
73	0xbdc98ee1	-0.09841705
74	0xbf871b14	-1.0555139
75	0xbf6afb61	-0.91789824
76	0xbebce9ae	-0.36897033
77	0xbf243d16	-0.6415571
78	0x3f10e6ab	0.5660197
79	0xbf8f0748	-1.1174097
80	0xbe82b0a0	-0.2552538
81	0x3e8c88d1	0.27448133
82	0xbefa6f51	-0.48913053
83	0x3f43ebd4	0.7653172
84	0xbfb3361d	-1.4000889
85	0xbef1ba0a	-0.4721225
86	0x3e2f8f6b	0.17144553
87	0xbe9f1cd8	-0.31076694
88	0x3e355dbd	0.1771154
89	0xbed1bb95	-0.40963426
90	0xbf8da499	-1.1065856
91	0x3f28621f	0.6577472
92	0xbf7ffffe	-0.9999999
93	0xbf150e00	-0.5822449
94	0x3f15212a	0.5825373
95	0x3ffed89a	1.9909852
96	0x3f2412d3	0.64091223
97	0x3fa6bada	1.3025773
98	0x3f687c4a	0.9081465
99	0xbf6ba13c	-0.920429
100	0x3fc0446a	1.5020878
101	0xbf509c22	-0.8148824
102	0xbf91f7f1	-1.1403791
103	0x3f8e5944	1.1120992
104	0x3fb2c1e5	1.3965422
105	0x3eb60d0e	0.35556835
106	0xbe6540e7	-0.2238804
107	0x3d110375	0.035403688
108	0xc0093c7f	-2.1443174
109	0xbefeaa70	-0.49739408
110	0xbfd4b21a	-1.6616852
111	0xbf8c2237	-1.0947942
112	0x3f56232a	0.83647406
113	0xbf0deb95	-0.55437595
114	0x3f9f82d0	1.2461796
115	0x3f1bc6f5	0.6085046
116	0x3e9defec	0.30847108
117	0x3eb7cae5	0.35896984
118	0x3f00578b	0.5013358
119	0xbf15b511	-0.5847941
120	0x4025df63	2.5917594
121	0xbe3b2ca0	-0.18278742
122	0xbd98a654	-0.074535996
123	0x3ffd3fd8	1.9785109
124	0xbff4fa9a	-1.9138978
125	0x3fd0b7a6	1.6306045
126	0xbcd5e8f8	-0.026112065
127	0x3ed6eb19	0.4197624
128	0x3f365d86	0.71236455
129	0xbfe36497	-1.7765073
130	0x3eb52dbd	0.35386458
131	0x3f998ced	1.1996132
132	0xbe9b227a	-0.3029974
133	0xbfe18407	-1.7618417
134	0x3f22852d	0.6348446
135	0xbf4dea7a	-0.8043591
136	0xbfce38e9	-1.6111118
137	0xbfef9103	-1.8716129
138	0x3f0b0787	0.5430836
139	0x3f29223c	0.6606786
140	0x4012e4bf	2.2952116
141	0x3f2cc6a3	0.67490596
142	0x3fdb4e1f	1.7133216
143	0xbfe5aac0	-1.7942734
144	0xbfae7f8a	-1.3632672
145	0xbf7bb448	-0.9832196
146	0x3fc17130	1.5112667
147	0x3f2451a4	0.64187074
148	0x3ef22850	0.4729638
149	0xbedb7029	-0.4285901
150	0x3f0d26a2	0.55137074
151	0xbfc61040	-1.5473709
152	0x3f04a2ff	0.5181121
153	0x3dda2f35	0.10653535
154	0x3e89d9ed	0.26924077
155	0x3fa991ff	1.324768
156	0x3fdf7d8e	1.7460191
157	0x3fed6fa0	1.854969
158	0xbf34d49b	-0.7063691
159	0x4023a74d	2.5570862
160	0x3ed5c70e	0.4175343
161	0xbe59d2e8	-0.2127186
162	0xbf57077d	-0.839958
163	0xbed70c95	-0.42001787
164	0xbf1fc0d8	-0.6240363
165	0xbf7a3014	-0.9772961
166	0x3f5ff5b3	0.8748428
167	0x3f7cbe79	0.9872814
168	0x3e9e80ca	0.30957633
169	0x3fc2a5f8	1.52069
170	0x3f9a451b	1.2052339
171	0xbfe86549	-1.815591
172	0xbece9283	-0.40346155
173	0xbf758a8a	-0.9591452
174	0xbbaaa563	-0.005207704
175	0xbda182ff	-0.07886314
176	0x3f57f9ba	0.8436543
177	0x3f9535b3	1.1657013
178	0x3f06e507	0.5269322
179	0x3fcf43b1	1.6192533
180	0xbf76c726	-0.96397626
181	0x3e10eab8	0.14152038
182	0xbe2796bd	-0.16366096
183	0xbeb768f3	-0.35822257
184	0x3fdc73a6	1.7222793
185	0xbe9b6e43	-0.3035756
186	0x3e749b70	0.2388742
187	0x3fac083b	1.3440012
188	0x3dd367fe	0.10322569
189	0x3f8cd868	1.1003542
190	0xbeaef0b5	-0.3416802
191	0x3f7284cd	0.9473389
192	0xbf118a43	-0.56851596
193	0x3f566cb4	0.8375962
194	0x3fe44efe	1.7836607
195	0xbe481d67	-0.19542466
196	0x3f03d18b	0.5149161
197	0xbfec7a25	-1.8474776
198	0xc03aabe9	-2.9167426
199	0xbf113c88	-0.5673299
200	0xbf0a9157	-0.5412802
201	0x3f652a20	0.895174
202	0xbf61ebfb	-0.882507
203	0x3f0824c8	0.53181124
204	0xbfc5dc07	-1.5457772
205	0xbe317582	-0.17329982
206	0x3f3a6e5a	0.72824633
207	0x3d69b8d1	0.05706102
208	0x3f67cffa	0.9055172
209	0x3f85ecfd	1.0462948
210	0xbf0545d8	-0.520597
211	0x3fad698e	1.3547838
212	0x3e70d678	0.23519313
213	0x3ff505ed	1.9142433
214	0x3feb0f85	1.8364111
215	0x3fa98a47	1.3245324
216	0xbf7810fc	-0.96900916
217	0x3fa0359f	1.2516364
218	0x3f9aebe7	1.2103242
219	0xbf0725ce	-0.5279206
220	0x3e5fcfce	0.21856615
221	0xbf1305cd	-0.57430726
222	0x3fba8313	1.4571251
223	0x3fe2aead	1.7709557
224	0x3fd33060	1.6499138
225	0xbedd2fb4	-0.43200457
226	0xbe8ac40a	-0.2710269
227	0xbfb8367b	-1.4391626
228	0x3f9f9f05	1.2470404
229	0x3fa30d8e	1.2738512
230	0x3ec82a80	0.39094925
231	0x3ec64074	0.3872105
232	0xbda37d3d	-0.07982872
233	0x3eaef67d	0.3417243
234	0x3f72e659	0.9488273
235	0xbfb124d0	-1.3839359
236	0x3fdcaedc	1.7240863
237	0xc0175850	-2.3647652
238	0xbf6df31e	-0.9294909
239	0x3e96560e	0.2936253
240	0x3e5c4b92	0.21513203
241	0x3f703f28	0.9384637
242	0x3fbb9c4f	1.4657077
243	0xbf0e751b	-0.5564744
244	0xbf3eade3	-0.7448408
245	0xbe4f024d	-0.20215721
246	0xbe6b2e10	-0.2296679
247	0x3aae803e	0.0013313366
248	0x3ec0242a	0.3752759
249	0xbf14c0de	-0.5810679
250	0xbf1282d5	-0.57230884
251	0x3f813e6c	1.0097175
252	0xbdd85eb5	-0.10564939
253	0xbf970047	-1.179696
254	0xbdb9eaa7	-0.090779595
255	0x3f102843	0.56311435

rnn.weight_ih_l0 f4 [32, 128]
0	0xbe02b62e	-0.12764809
1	0xbe1f4b70	-0.15556121
2	0xbd54179a	-0.05178032
3	0x3e378f28	0.17925704
4	0xbd912fc8	-0.07089192
5	0x3d43b47b	0.04777954
6	0x3d70e84b	0.05881528
7	0x3e69cc32	0.228318
8	0x3d52a17e	0.051423542
9	0x3ded98e0	0.11601424
10	0x3d4de3af	0.050265964
11	0x3d11fbed	0.035640646
12	0xbdb64f41	-0.08901835
13	0x3db8a956	0.09016673
14	0x3e2b2f7e	0.16717336
15	0xbaac8484	-0.0013162051
16	0x3c9e53f0	0.019327134
17	0x3e278265	0.16358335
18	0xbd2fdf2c	-0.042937443
19	0x3e5c6605	0.21523292
20	0x3dc240a9	0.09484989
21	0xbca04eed	-0.019568885
22	0x3d99a7ac	0.07502684
23	0x3e2366bc	0.15957159
24	0xbe5e201a	-0.21691933
25	0x3e202ac8	0.1564132
26	0x3d4e2353	0.050326657
27	0xbe25657d	-0.16151996
28	0x3deb8a3f	0.11500978
29	0x3dec65b3	0.11542835
30	0xbe3b4bf2	-0.1829069
31	0xbd555622	-0.052084096
32	0xbc92baf1	-0.017911406
33	0x3aea4d79	0.0017875872
34	0x3deeaad8	0.116536796
35	0xbdd32053	-0.103089
36	0xbdf659d5	-0.12028853
37	0xbd7976ae	-0.060904197
38	0x3df2e20a	0.1185952
39	0x3c046896	0.008081576
40	0xbd8fae02	-0.07015611
41	0x3e80d8dc	0.2516545
42	0x3d691ef8	0.0569143
43	0xbe084806	-0.13308725
44	0xbe3f1193	-0.18659048
45	0xbe12974f	-0.14315532
46	0xbeb1328e	-0.34608883
47	0xbe0c6d7c	-0.1371364
48	0xbe31b23b	-0.17353146
49	0xbe680d46	-0.22661313
50	0x3ea7f64a	0.3280509
51	0x3df239b0	0.11827409
52	0x3dafd889	0.08586223
53	0xbe1c82ef	-0.15284322
54	0xbd2675ef	-0.040639814
55	0x3d9ab0bc	0.07553241
56	0x3e30d4e8	0.17268717
57	0x3d3d746e	0.046253614
58	0xbc3802fe	-0.011231182
59	0xbe5711d0	-0.21002889
60	0xbc91b613	-0.017787015
61	0xbd64a0e9	-0.05581752
62	0x3dd9a45c	0.10627052
63	0xbdfc7e95	-0.12328831
64	0xbdb52c21	-0.088463075
65	0xbcccc061	-0.024994077
66	0xbc8259bb	-0.015911927
67	0xbda70300	-0.08154869
68	0x3d65d69a	0.056112863
69	0x3e092b5a	0.13395444
70	0x3e3570e3	0.17718844
71	0xbd43576e	-0.0476908
72	0x3d9001d2	0.07031597
73	0x3d9a2f25	0.07528523
74	0xbe34f9cd	-0.17673416
75	0x3db5ff6c	0.088866085
76	0xbd17d4f1	-0.03706831
77	0xbd3e8331	-0.046511833
78	0xbd4eb1d4	-0.05046256
79	0xbdd1da50	-0.10246718
80	0x3d9348fd	0.07191656
81	0x3e43d4ab	0.19124095
82	0xbdf9c05d	-0.121948935
83	0xbcac17cf	-0.021007447
84	0x3e1112c7	0.14167319
85	0x3e475d0e	0.19469091
86	0xbe383293	-0.17988043
87	0xbb61328a	-0.00343624
88	0xbccd3025	-0.025047371
89	0xbe215803	-0.1575623
90	0xbdbe3054	-0.092865616
91	0x3dca7e16	0.0988733
92	0xbaf40ca4	-0.001861949
93	0xbe1f4347	-0.15553008
94	0xbd917bc2	-0.07103683
95	0x3dd97a50	0.106190324
96	0xbd2c6de0	-0.042096972
97	0xbda3a86f	-0.079911105
98	0xbdf8e198	-0.121524036
99	0x3e785bdf	0.24253796
100	0x3dfef45c	0.124489516
101	0xbe2b361e	-0.16719863
102	0xbe0c3507	-0.13692103
103	0xbd916f8b	-0.07101353
104	0x3e20ed2b	0.15715472
105	0xbc100f70	-0.008792743
106	0xbd1906bc	-0.037359938
107	0x3da2114e	0.07913457
108	0xbd2cb871	-0.042168085
109	0x3e0d6374	0.1380747
110	0xbd847c28	-0.064689934
111	0xbd3a18a1	-0.045433644
112	0xbdaf3875	-0.0855569
113	0xbbd6bf6e	-0.006553582
114	0x3d237a43	0.03991152
115	0x3cfe205f	0.031021295
116	0x3ddf8c41	0.10915423
117	0x3dca3cf5	0.09874908
118	0xbe3d659e	-0.18495795
119	0xbdc1add1	-0.09456981
120	0xbc5db67c	-0.013532277
121	0x3e3abfd7	0.18237244
122	0xbde7c924	-0.113176614
123	0x3caf3677	0.021388276
124	0x3c50acac	0.012736481
125	0x3db9d757	0.09074276
126	0x3d3946df	0.045233604
127	0xbdf756db	-0.12077113
128	0x3d2e633c	0.042575106
129	0xbe00226b	-0.1251313
130	0xbc0cb0ae	-0.008587046
131	0xbde364c1	-0.11103202
132	0x3de8640e	0.11347209
133	0x3dcce3de	0.100044
134	0xbb7231e9	-0.0036956018
135	0x3bea91eb	0.007158508
136	0x3d698ee5	0.05702104
137	0xbe4e6a25	-0.20157678
138	0x3ce2548d	0.027628208
139	0x3de611dd	0.11233876
140	0x3e2bf512	0.16792706
141	0x3dac182b	0.08403047
142	0xbdae43a6	-0.08508997
143	0x3e298b34	0.16557008
144	0x3da0e1fd	0.07855604
145	0xbe155eeb	-0.1458699
146	0x3d88b4fd	0.06675146
147	0x3c5cb304	0.013470415
148	0x3e581cd3	0.21104746
149	0xbe44f775	-0.19235022
150	0x3e1016fb	0.14071266
151	0x3e50d460	0.20393515
152	0x3db471dc	0.088107795
153	0xbd033d6e	-0.032041006
154	0x3da5ac05	0.08089451
155	0x3dea48a0	0.11439633
156	0xbde6bc92	-0.11266436
157	0x3e0c38e1	0.13693573
158	0x3d832021	0.064026125
159	0x3d0f9e81	0.03506327
160	0xbdf167a2	-0.117873445
161	0xbcd56024	-0.02604682
162	0xbd9a58fc	-0.07536504
163	0x3dd4da7f	0.10393237
164	0x3e25790d	0.16159458
165	0xbe83ff05	-0.25780502
166	0x3d3a1c02	0.045436867
167	0xbd3e0e22	-0.046400197
168	0xbc0dff62	-0.008666845
169	0x3da70b1e	0.08156417
170	0xbd2d06fb	-0.042242985
171	0x3d64e077	0.05587813
172	0x3c69c874	0.014268983
173	0xbcb156fc	-0.021647923
174	0x3e085dad	0.13316984
175	0xbe2db926	-0.1696516
176	0x3e568779	0.20950116
177	0x3d5b41e8	0.05352965
178	0x3dc5b284	0.0965319
179	0xbd57345b	-0.052540164
180	0xbe0de469	-0.13856663
181	0xbe014beb	-0.12626617
182	0x3d3e7b9d	0.046504606
183	0xbde114e1	-0.109903105
184	0xbe1f57b8	-0.15560806
185	0x3d05406e	0.032532148
186	0x3dfce077	0.12347501
187	0x3e268d4b	0.16264836
188	0x3c97bae5	0.018521735
189	0xbe5670b3	-0.20941429
190	0x3e07aef5	0.13250335
191	0x3dbab624	0.09116772
192	0x3e658150	0.2241261
193	0xbd7bb0a2	-0.061447747
194	0x3caf5eba	0.021407474
195	0x3dc6559e	0.09684299
196	0x3d981753	0.07426324
197	0xbe0330e0	-0.12811613
198	0xbe03e52c	-0.12880391
199	0xbc24b7ef	-0.010053619
200	0x3dffff3e	0.124998555
201	0xbc671359	-0.014103734
202	0x3debb52d	0.11509166
203	0x3e3f5fb4	0.18688852
204	0x3b91b097	0.0044461
205	0xbe163ac8	-0.14670861
206	0xbd572424	-0.0525247
207	0x3dd8c469	0.10584337
208	0x3cf3167f	0.029673813
209	0xbe2d6a42	-0.16935065
210	0x3a04b1dd	0.0005061904
211	0xbe8dba3e	-0.27681154
212	0xbe57aee1	-0.21062805
213	0xbdda9655	-0.10673205
214	0xbda7021e	-0.08154701
215	0x3e200989	0.15628637
216	0x3e5a94b6	0.21345791
217	0xbd8f48c7	-0.06996303
218	0xbc7519e3	-0.014959785
219	0x3dfc3498	0.12314719
220	0x3d93430d	0.07190523
221	0xbd8529d3	-0.06502118
222	0xbcf96830	-0.030445188
223	0xbdcc669f	-0.09980511
224	0xbd01544f	-0.031574544
225	0xbc820cd4	-0.015875258
226	0x3e473de2	0.194572
227	0x3e83a9f7	0.2571561
228	0x3debd232	0.11514701
229	0x3dae93d2	0.08524288
230	0xbd637653	-0.055532765
231	0x3d39b74a	0.045340814
232	0xbd0ff4d2	-0.03514559
233	0x3e2d0428	0.16896117
234	0x3db857b7	0.09001105
235	0xbe927ddf	-0.28611657
236	0x3d80ce19	0.0628931
237	0xbd0cc006	-0.034362815
238	0x3cb5355a	0.022120167
239	0xbddbcda7	-0.107325844
240	0xbca1eba3	-0.01976568
241	0xbe06a655	-0.13149388
242	0x3d8cc824	0.06874111
243	0x3db4f946	0.08836608
244	0x3d88fe3c	0.06689116
245	0xbd183efd	-0.037169445
246	0x3ce57349	0.028009074
247	0xbe4b80eb	-0.19873397
248	0xbdabe13c	-0.083925694
249	0xbd9fc4dd	-0.078012206
250	0x3e0c9c70	0.13731551
251	0x3d9d8a5f	0.07692408
252	0xbb7acebb	-0.0038270194
253	0x3e2ce3b5	0.16883738
254	0x3b1e180b	0.0024123217
255	0x3e2cbc93	0.1686881

rnn.weight_hh_l0 f4 [32, 32]
0	0xbe43e043	-0.19128518
1	0x3e1d451a	0.15358391
2	0xbda1c98c	-0.0789977
3	0x3e134610	0.14382195
4	0xbc833671	-0.01601717
5	0xbdb0f687	-0.08640771
6	0x3e8bc92b	0.27301916
7	0x3de0cef9	0.10976977
8	0xbe5a31be	-0.21308038
9	0x3d3956ea	0.045248903
10	0x3e8169b8	0.2527597
11	0x3cb594ab	0.022165617
12	0x3cc5b16f	0.024132458
13	0x3edc97a3	0.4308444
14	0xbe165bf6	-0.14683518
15	0xbcc5aaa0	-0.024129212
16	0xbdd48a4d	-0.10377941
17	0xbe47d719	-0.19515647
18	0xbd649bda	-0.055812694
19	0x3c3aba27	0.011396921
20	0xbe41bf3c	-0.18920606
21	0x3e19d397	0.15022121
22	0xbebd896d	-0.3701891
23	0x3ba3467b	0.004982767
24	0x3e4f0535	0.2021683
25	0x3d613d3c	0.05499004
26	0xbde9719d	-0.11398623
27	0x3da1c6f1	0.07899273
28	0x3e26aea1	0.16277553
29	0x3e3b7b20	0.18308687
30	0xbe131e25	-0.14366968
31	0xbdcb79e1	-0.09935356
32	0x3d74a1cb	0.05972461
33	0x3dcbedeb	0.099574886
34	0x3c0fb67e	0.008771537
35	0xbe3f7e8c	-0.18700618
36	0xbd174da6	-0.036939286
37	0xbd8dd0ef	-0.069246165
38	0xba1716a0	-0.0005763564
39	0x3e319c4d	0.1734478
40	0xbe575b87	-0.21031009
41	0x3def5999	0.11687011
42	0xbe8b78b3	-0.27240524
43	0xbe2be43c	-0.16786283
44	0x3c655f7a	0.013999814
45	0x3e48d555	0.1961263
46	0x3d430e99	0.047621343
47	0x3e78e38a	0.2430555
48	0x3ec1a858	0.3782375
49	0xbd0fdf1a	-0.035124876
50	0xbead4a25	-0.3384563
51	0xbd650f7c	-0.05592297
52	0x3e9ebff9	0.3100584
53	0xbdb5175a	-0.088423446
54	0x3c9e9751	0.019359263
55	0xbcd0f23f	-0.025506137
56	0x3e66b3c4	0.22529513
57	0xbcebbdc8	-0.028777018
58	0xbd73d0b6	-0.059525214
59	0xbe49df2c	-0.1971404
60	0xbe79377b	-0.2433757
61	0xbce548e6	-0.027988862
62	0x3d255358	0.040362686
63	0x3eaf5d30	0.34250784
64	0xbdac8482	-0.08423711
65	0xbd96c4b9	-0.073617406
66	0x3d678e4b	0.056532186
67	0xbd75fd7f	-0.060056206
68	0x3d950f7b	0.07278343
69	0x3cab786a	0.020931441
70	0xbdff2b34	-0.12459412
71	0xbeb4c9a8	-0.35310102
72	0x3e5c78f8	0.21530521
73	0x3e2e4898	0.1701988
74	0xbe268652	-0.16262177
75	0x3c737d0c	0.0148613565
76	0x3e1e3f65	0.1545387
77	0xbededbb0	-0.43526983
78	0xbeada059	-0.33911398
79	0x3e72676f	0.2367227
80	0xbe7f709b	-0.249453
81	0x3d2a5f93	0.041595053
82	0x3e5b768e	0.21431944
83	0xbe037cf4	-0.12840635
84	0x3d545a4e	0.051843934
85	0x3e54ecaf	0.20793413
86	0xbe9a626a	-0.3015321
87	0x3e9335bf	0.28751943
88	0xbe1e0780	-0.15432549
89	0x3ee09aeb	0.43868193
90	0x3e9b9af6	0.30391663
91	0x3e808aa2	0.25105768
92	0xbecb5b96	-0.39718312
93	0xbe76680b	-0.24063127
94	0x3d54ffd5	0.052001793
95	0xbe8d03a9	-0.27541855
96	0x3eb2fd63	0.34958944
97	0xbedf932e	-0.43666977
98	0x3daf04f4	0.085458666
99	0x3d901c7d	0.07036684
100	0xbc1a2290	-0.009407654
101	0x3ea62e39	0.3245714
102	0xbdd77a21	-0.10521341
103	0xbd841f63	-0.06451299
104	0xbda19eb5	-0.07891599
105	0x3e84e9af	0.25959536
106	0x3e781007	0.24224864
107	0x3e33dff4	0.175659
108	0xbe91ee3c	-0.2850207
109	0x3df29b21	0.11845995
110	0xbe24301d	-0.16033979
111	0xbc8b0332	-0.016969297
112	0xbe325747	-0.17416106
113	0xbdce03a9	-0.10059292
114	0x3c7d66ed	0.015466434
115	0x3c81efaf	0.01586136
116	0x3dc23794	0.09483257
117	0xbe01ae79	-0.12664212
118	0x3e7b4382	0.24537471
119	0x3e39fd7b	0.18163101
120	0xbeb0aab9	-0.3450525
121	0x3e9a4c8f	0.30136535
122	0x3ec92b9e	0.3929109
123	0x3e8a76c1	0.27043727
124	0xbd28961f	-0.04115879
125	0x3d53ba4b	0.051691335
126	0xbe111dd5	-0.14171536
127	0xbd159adb	-0.036524635
128	0x3e98ddf2	0.2985683
129	0x3c9edbad	0.019391859
130	0x3ec087d8	0.3760364
131	0xbd864c00	-0.065574646
132	0x3e35cbaf	0.1775348
133	0xbdbff574	-0.09372988
134	0xbe9d7f8d	-0.30761376
135	0xbeaa7d70	-0.33298826
136	0x3dd9ce19	0.10635013
137	0xbe8326d8	-0.25615573
138	0xbdad9b51	-0.0847689
139	0xbd0e51a0	-0.034745812
140	0x3e0a1795	0.13485558
141	0xbed4f601	-0.41593936
142	0xbe203a7a	-0.15647307
143	0x3d076220	0.033052564
144	0x3d85bc9f	0.06530117
145	0x3d7e153e	0.062031977
146	0x3e2d0c8e	0.1689932
147	0x3d1eba42	0.038751848
148	0x3e3dfc51	0.18553282
149	0x3e88ddd3	0.26731738
150	0x3e82e5aa	0.25565845
151	0x3e88d344	0.26723683
152	0xbeb75358	-0.35805774
153	0x3dd88266	0.105717465
154	0xbda1fe05	-0.079097785
155	0x3c80cbb1	0.015722128
156	0xbead5de7	-0.33860704
157	0xbe82c2f0	-0.2553935
158	0xbd849d45	-0.06475309
159	0xbe88b26f	-0.26698634
160	0xbe95fe73	-0.29295692
161	0xbe4de652	-0.20107391
162	0x3e8cf4a7	0.27530405
163	0xbe28e65b	-0.16494124
164	0xbd84c0d5	-0.06482092
165	0xbe07b1ec	-0.13251466
166	0x3d73b6db	0.059500556
167	0x3eb8a9c9	0.36067036
168	0xbeae9778	-0.34099936
169	0xbe4af0ef	-0.19818471
170	0x3ebb82ed	0.36623326
171	0x3d8b18e7	0.06791859
172	0xbe4749aa	-0.19461694
173	0x3d56fa3b	0.052484732
174	0x3e6cf4a8	0.23140204
175	0xbe558705	-0.20852287
176	0x3d78d235	0.060747344
177	0xbe12859a	-0.14308777
178	0xbda8fbdf	-0.082511656
179	0x3ed89ad0	0.42305613
180	0xbe4a2e0b	-0.19744126
181	0xbe08f2c7	-0.13373862
182	0x3eb7cc97	0.35898277
183	0xbde07bbc	-0.109611005
184	0xbe9b6536	-0.30350655
185	0xbe7e9857	-0.248628
186	0xbe74951d	-0.23885007
187	0xbd992da6	-0.0747941
188	0x3ddde2d0	0.10834277
189	0x3e34c31f	0.17652558
190	0xbea3bd8f	-0.3198056
191	0xbcc7ba14	-0.024380721
192	0x3e900794	0.28130782
193	0x3e1eda69	0.15513004
194	0xbe360d45	-0.177785
195	0xbe009415	-0.12556489
196	0xbd840ea2	-0.064481035
197	0x3df9f9b0	0.12205827
198	0xbdf377d3	-0.11888089
199	0x3d87db5c	0.06633636
200	0xbd860ab3	-0.065450095
201	0x3e905492	0.28189522
202	0x3dfd7404	0.12375644
203	0xbd42b9a4	-0.047540322
204	0x3e6bcec3	0.23028092
205	0x3eb0433f	0.34426305
206	0x3e59f7a2	0.2128587
207	0xbe22e4e5	-0.15907629
208	0xbcfe5ffc	-0.031051628
209	0xbe4ef37e	-0.20210072
210	0x3e554473	0.20826893
211	0xbea3f66b	-0.3202394
212	0xbe9626e9	-0.2932656
213	0x3ec41e24	0.38304245
214	0xbe264459	-0.1623701
215	0xbe7c8d9e	-0.24663398
216	0x3dd5785a	0.10423346
217	0xbe73cf71	-0.23809601
218	0xbc4040c7	-0.011734194
219	0xbec4dc4c	-0.38449323
220	0x3e8b50bb	0.2721003
221	0x3d15e645	0.036596555
222	0xbd2e482c	-0.042549297
223	0x3d1a3448	0.037647516
224	0x3cc0e49b	0.023546508
225	0xbda23388	-0.07919985
226	0xbe44b99c	-0.1921143
227	0xbe572071	-0.21008469
228	0xbe406fd6	-0.18792662
229	0x3ed0e7cd	0.4080185
230	0xbdc9e7e4	-0.09858683
231	0x3c8e171b	0.017345002
232	0xbe39b194	-0.18134147
233	0x3cd959d2	0.026532087
234	0x3e6933ab	0.22773616
235	0x3d001bd1	0.031276528
236	0xbb8cdd2b	-0.004298826
237	0xbd70e93d	-0.058816183
238	0x3dc73fd1	0.09728969
239	0xbe8b609d	-0.27222148
240	0xbd084c4e	-0.033275895
241	0x3d50fdd7	0.05102333
242	0x3e864605	0.26225296
243	0xbe8e6758	-0.2781322
244	0xbe61ecd7	-0.22063003
245	0x3d9c5f4c	0.07635364
246	0xbea7a5cf	-0.3274369
247	0xbe6e0dff	-0.23247527
248	0x3e0cf4a3	0.13765197
249	0x3dc0bac5	0.094106235
250	0xbe90c65e	-0.28276342
251	0xbe8d6684	-0.27617276
252	0xbbde2a5b	-0.0067799515
253	0xbe1e4619	-0.15456428
254	0x3babc7a9	0.005242307
255	0x3e462131	0.19348599

rnn.bias_ih_l0 f4 [32]
0	0x380b4cdb	3.321176e-05
1	0xbe2a8cf5	-0.16655333
2	0xbddbd058	-0.10733098
3	0xbc969b77	-0.018384678
4	0x3de441d3	0.111453675
5	0x3e54a88f	0.20767425
6	0xbe0eb6f5	-0.1393698
7	0x3dcd5b98	0.10027236
8	0xbc945113	-0.018105065
9	0x3d40848c	0.047001407
10	0x3da6bb39	0.08141179
11	0xbdac57e2	-0.084152
12	0xbdabddcc	-0.08391914
13	0x3e56426d	0.20923777
14	0x3e5a43a3	0.21314864
15	0x39fad3d4	0.0004784154
16	0xbe2f65ba	-0.1712865
17	0x3d92f490	0.07175553
18	0x3de5388d	0.11192427
19	0x3caba1d9	0.020951198
20	0xbb6418f1	-0.0034804905
21	0xbc589c26	-0.013220822
22	0xbd518909	-0.051156078
23	0x3d5913f1	0.052997533
24	0xbd086db6	-0.033307754
25	0xbd110cef	-0.035412725
26	0x3e017421	0.12641956
27	0xbd5d0764	-0.053962126
28	0xbe046009	-0.1292726
29	0x3c11f522	0.008908542
30	0xbdac1d90	-0.08404076
31	0xbca6a8b6	-0.02034412

rnn.bias_hh_l0 f4 [32]
0	0x3e21f9de	0.15817973
1	0xbe240e8b	-0.16021173
2	0xbe0dbb41	-0.13840963
3	0xbe068a8c	-0.13138789
4	0xbe46cbb9	-0.19413652
5	0x3cbdbc2b	0.023161015
6	0xbe047241	-0.1293421
7	0x3c13c652	0.009019451
8	0x3c49e10f	0.012321725
9	0xbbb3053b	-0.00546327
10	0x3db8f111	0.09030355
11	0xbda52b7c	-0.080649346
12	0xbdc7eb00	-0.097616196
13	0x3e886d89	0.2664607
14	0x3e55edca	0.2089149
15	0xbc696264	-0.01424465
16	0xbe5e3102	-0.21698382
17	0xbdc28375	-0.0949773
18	0x3cb785ab	0.022402605
19	0xbdf52199	-0.11969299
20	0x3cc5f0a0	0.02416259
21	0xbe1fe66b	-0.15615241
22	0xbe35e25b	-0.17762129
23	0xbd5dffc3	-0.05419899
24	0xbc3088b6	-0.010774782
25	0xbb9121af	-0.004429064
26	0xbe11a9fe	-0.14225003
27	0xbe2de0d2	-0.16980293
28	0x3d93ed29	0.07222969
29	0x3dfee9c9	0.12446935
30	0xbdc39cfc	-0.09551427
31	0xbcb4961f	-0.02204424

rnn.weight_ih_l0_reverse f4 [32, 128]
0	0x3dcc2984	0.09968856
1	0xbd13e0d2	-0.036103077
2	0x3c308b7f	0.010775446
3	0x3b8d10b4	0.0043049697
4	0x3a598ef2	0.00082991936
5	0x3cbdb955	0.023159662
6	0x3d659750	0.056052506
7	0xbdc85825	-0.09782437
8	0xbd75a635	-0.05997296
9	0xbdfa23b3	-0.1221384
10	0x3db807d2	0.089858666
11	0xbdf1f2bc	-0.11813876
12	0xbdbe6aa0	-0.09297681
13	0xbdbf0ea7	-0.093289666
14	0x3e474727	0.19460736
15	0x3e065fea	0.13122526
16	0x3dbe23fa	0.09284206
17	0xbcef17db	-0.02918618
18	0x3dac9f70	0.08428848
19	0x3c54612c	0.012962621
20	0x3db9eb8c	0.0907813
21	0x3d857853	0.06517091
22	0xbd3011e8	-0.042985827
23	0xbd3847a5	-0.0449902
24	0xbd14c7b0	-0.03632325
25	0xbe6934a5	-0.22773989
26	0x3c9c2ec7	0.019065274
27	0x3e32ab60	0.17448187
28	0x3dcdafcf	0.100432985
29	0xbd937ed1	-0.07201923
30	0xbe2e7cb1	-0.17039753
31	0xbe165246	-0.14679822
32	0x3e132707	0.14370357
33	0x3dbab09c	0.09115717
34	0xbe0f73d4	-0.14009029
35	0xbe93aa06	-0.28840655
36	0xbcdb7d46	-0.026793133
37	0x3d7a26f5	0.06107231
38	0xbce81c3f	-0.028333781
39	0xbe0e47ac	-0.13894528
40	0x3b80eb8b	0.003934329
41	0xbd9dec20	-0.07711053
42	0x3da461df	0.0802648
43	0x3c4eccfc	0.012622114
44	0x3bf06c0c	0.007337099
45	0x3e205644	0.15657908
46	0x3d5bb2d5	0.053637344
47	0xbc662456	-0.014046749
48	0xbe1ee395	-0.15516503
49	0xbd853079	-0.06503386
50	0x3d815b1a	0.06316204
51	0xbe1abcd8	-0.151111
52	0x3e51f2a7	0.20502721
53	0xbd5e3a8a	-0.054255046
54	0x3dcde709	0.10053832
55	0xbe23f892	-0.16012791
56	0xbe70927b	-0.23493378
57	0xbacb6423	-0.0015517514
58	0x3a151fe8	0.00056886533
59	0x3decaa32	0.115559
60	0xbd60791b	-0.054802995
61	0x3db60988	0.08888537
62	0xbe049a78	-0.1294955
63	0x37df419a	2.661422e-05
64	0xbdb9d714	-0.09074226
65	0x3c936e6b	0.017996987
66	0xbe00e4b6	-0.12587246
67	0x3a09233a	0.00052313844
68	0xbdaf7648	-0.08567482
69	0xbe205046	-0.15655622
70	0x3dbfbffd	0.09362791
71	0x3db416cf	0.08793413
72	0x3cd66cb5	0.026174882
73	0xbd8d3b39	-0.068960615
74	0x3d91fa48	0.071278155
75	0xbdc51dc1	-0.09624816
76	0xbd658b1c	-0.05604087
77	0x3c6cb975	0.014448513
78	0x3e19c970	0.15018249
79	0xbe01b945	-0.12668331
80	0xbe2fb68b	-0.17159478
81	0x3df45ed3	0.11932149
82	0xbe19c28d	-0.15015621
83	0xbe350a32	-0.1767967
84	0xbd64b0bc	-0.05583261
85	0x3bfb3cf6	0.007667179
86	0xbd4d1d45	-0.05007674
87	0x3c426957	0.011865935
88	0x3e0b5ffc	0.13610834
89	0xbd2f329c	-0.042772874
90	0x3da18982	0.07887556
91	0xbe4a39a7	-0.19748555
92	0x3dc8e2d4	0.09808889
93	0xbdc03078	-0.09384245
94	0x3d1d86c5	0.038458604
95	0x3dabe34a	0.08392961
96	0x3d62a156	0.055329643
97	0x3d2e5638	0.042562693
98	0xbcedaf1d	-0.029014165
99	0x3d8eb5ff	0.06968307
100	0x3d61c2c4	0.055117384
101	0xbe3ffe6a	-0.18749395
102	0x3dbfed86	0.09371476
103	0x3d8301b1	0.06396807
104	0x3d930fe8	0.07180768
105	0x3ae4e540	0.0017463341
106	0x3d3a5b7f	0.045497414
107	0xbddc6ffa	-0.10763545
108	0xbd18b8df	-0.03728568
109	0x3e321cec	0.17393845
110	0xbe71f249	-0.2362758
111	0xbd898663	-0.06715085
112	0x3df5619c	0.11981508
113	0xbdbcb2dc	-0.09213802
114	0xbd88b719	-0.06675548
115	0x3d8bb695	0.06821934
116	0x3e237e8d	0.15966244
117	0x3e46b720	0.19405794
118	0x3e49fc84	0.19725233
119	0xbd0e90c3	-0.034806024
120	0xbd9baeea	-0.076017216
121	0xbd2e3bfd	-0.042537678
122	0xbde27acf	-0.1105858
123	0x3d686a06	0.056741737
124	0x3de3422a	0.11096604
125	0xbe1d7521	-0.15376712
126	0xbe8e4a7a	-0.27791196
127	0xbd85a9ae	-0.065265045
128	0xbce0b3ac	-0.027429424
129	0x3da42d23	0.08016422
130	0xbd46dacd	-0.04854851
131	0x3cf2560d	0.029582048
132	0x3ded29c4	0.11580232
133	0xbde0a1fd	-0.10968397
134	0x3d0ba54f	0.034093197
135	0xbd1ad147	-0.03779724
136	0x3e6fa6a4	0.23403412
137	0xbda827ed	-0.0821074
138	0xbe0aa409	-0.13539137
139	0x3db02f26	0.08602743
140	0xbdffe68c	-0.12495145
141	0x3e106232	0.14099959
142	0x3d9f016d	0.07763944
143	0x3cb6aa9e	0.022298153
144	0xbca3478f	-0.019931583
145	0x3e1d675d	0.15371461
146	0xbd529f81	-0.051421646
147	0x3e4a34ad	0.19746657
148	0xbe3e3626	-0.18575343
149	0xbc5beac2	-0.01342267
150	0xba85e275	-0.0010214584
151	0xbccdcd12	-0.0251222
152	0x3e14464b	0.1447994
153	0xbdfe3e99	-0.12414283
154	0x3ddceb6e	0.10787092
155	0x3d67cfe7	0.056594756
156	0xbe3d9469	-0.18513645
157	0xbc4f46a7	-0.012651122
158	0x3d172a4c	0.03690557
159	0xbdaa7a3c	-0.083240956
160	0x3d948621	0.072521456
161	0xbe39c22a	-0.18140474
162	0x3d4ab63c	0.0494902
163	0x3d728bf5	0.059215505
164	0xbe10eaa4	-0.14152008
165	0x3dd045f9	0.10169596
166	0xbe09d00b	-0.13458268
167	0xbc93453b	-0.017977348
168	0xbe21dd80	-0.15807152
169	0x3d5870ee	0.052842073
170	0x3b3daf0c	0.0028943447
171	0xbc904b19	-0.017613934
172	0xbe09c73b	-0.13454907
173	0xbccf903b	-0.02533733
174	0xbdf7f50b	-0.12107285
175	0x3e27e7e8	0.16397059
176	0xbe833b84	-0.25631344
177	0xbd93d34f	-0.07218038
178	0x3e1698ba	0.14706698
179	0xbe0904d5	-0.1338075
180	0xbde22d7d	-0.110438325
181	0xbdbf9f3d	-0.09356544
182	0x3c27d570	0.010243759
183	0x3e915b95	0.28390184
184	0x3e8f9e79	0.28050593
185	0x3d004bf7	0.031322446
186	0x3e87adf7	0.26499912
187	0xbdb148c6	-0.086564586
188	0x3d53f0fe	0.0517435
189	0xbe2e9990	-0.17050767
190	0xbd6180a4	-0.055054322
191	0xbd9e3c08	-0.07726294
192	0x3de37a23	0.1110728
193	0x3e7354c5	0.23762806
194	0x3dba9679	0.09110732
195	0x3cf1f433	0.029535389
196	0xbe81212a	-0.25220615
197	0x3d1f5a2d	0.038904358
198	0xbd5d7da7	-0.05407491
199	0x3e258991	0.16165759
200	0xbe0ae723	-0.13564734
201	0x3d96e890	0.073685765
202	0xbda49bef	-0.080375545
203	0xbdfad1bf	-0.12247037
204	0x3da2ea8c	0.079548925
205	0xbe716032	-0.23571852
206	0x3d57572a	0.05257336
207	0x3d863501	0.065530784
208	0xbde9ed0d	-0.11422167
209	0xbdb7c77a	-0.08973594
210	0xbda4006c	-0.08007893
211	0x3ce3382e	0.02773675
212	0x3c41e97d	0.011835453
213	0xbd2579db	-0.040399414
214	0x3e0297a1	0.12753154
215	0xbdbd5802	-0.09245302
216	0xbc370147	-0.011169738
217	0x3d76d447	0.060261037
218	0x3c953836	0.01821528
219	0xbd085099	-0.03327999
220	0xbe22b031	-0.15887524
221	0x3d7a90ed	0.06117337
222	0xbdf05faa	-0.117369965
223	0xbd820037	-0.06347697
224	0x3d9e15f9	0.07719035
225	0xbe41d687	-0.18929492
226	0xbe2550e0	-0.16144133
227	0x3d347d2a	0.04406468
228	0x3e01ab97	0.12663113
229	0xbd9b751f	-0.075906985
230	0x3df4a528	0.119455636
231	0x3b9d03df	0.0047917212
232	0xbb2bfc47	-0.0026242898
233	0x3e3bb8d3	0.18332224
234	0x3e148ded	0.14507265
235	0xbd9523b9	-0.07282204
236	0xbe0c89d5	-0.13724454
237	0xbe8215fa	-0.25407392
238	0x3e06cde5	0.1316448
239	0x3db12866	0.086502835
240	0x3e0e3d99	0.13890685
241	0x3da273bd	0.079322316
242	0x3e5f27e1	0.21792556
243	0x3e096625	0.13417871
244	0x3d691120	0.056901097
245	0x3b5e43f0	0.0033915006
246	0xba88e96d	-0.0010445543
247	0x3e09804b	0.13427846
248	0xbd3f656e	-0.04672759
249	0xbc3a5b2c	-0.011374276
250	0x3c3a68db	0.011377539
251	0xbd141a8f	-0.03615814
252	0x3dc64a52	0.09682144
253	0x3c29fe68	0.010375597
254	0x3e92a10a	0.28638488
255	0x3d7475dc	0.059682712

rnn.weight_hh_l0_reverse f4 [32, 32]
0	0x3df79092	0.120881215
1	0xbd5b852a	-0.053593792
2	0xbedaf76b	-0.4276689
3	0x3e572762	0.21011117
4	0x3e34d3d1	0.17658927
5	0xbdef2b99	-0.116782375
6	0xbef20663	-0.47270498
7	0xbeae00f8	-0.33985114
8	0xbe8828a2	-0.265935
9	0xbc6247eb	-0.013811092
10	0xbd198269	-0.037477884
11	0xbda07fee	-0.07836901
12	0x3db5b6fe	0.088727936
13	0xbd82a3c7	-0.06378894
14	0x3e23b23d	0.15985961
15	0x3c4c4d1d	0.012469557
16	0xbe66677d	-0.22500415
17	0x3e1366ab	0.14394633
18	0x3e803e13	0.2504736
19	0x3ccc1c8e	0.02491596
20	0xbcfa7734	-0.030574419
21	0x3e30ad54	0.1725362
22	0x3d3713a9	0.044696484
23	0x3e8a9476	0.27066392
24	0xbcde8eb2	-0.027167652
25	0x3d314241	0.043276075
26	0x3d6f8440	0.058475733
27	0x3df31847	0.11869865
28	0x3edda1b5	0.43287435
29	0x3e8a672b	0.27031836
30	0xbe2c8038	-0.16845787
31	0x3d887de9	0.066646405
32	0x3d76b565	0.060231585
33	0x3ea371d1	0.31922773
34	0x3e0ad2aa	0.13556924
35	0x3e3726c7	0.17885886
36	0xbd6a5fcd	-0.05722027
37	0x3d758183	0.059937965
38	0xbd477374	-0.04869409
39	0x3e6fcc70	0.2341783
40	0x3e348755	0.1762975
41	0xbe090fb4	-0.13384897
42	0x3dd3aa0a	0.10335167
43	0x3df7f289	0.12106807
44	0x3d203741	0.039115194
45	0x3d96017c	0.07324502
46	0xbe604ca6	-0.21904239
47	0xbeafc0e9	-0.34326866
48	0x3e94713b	0.28992638
49	0xbdab3da4	-0.083613664
50	0xbe823404	-0.2543031
51	0x3c61398d	0.013746631
52	0xbe0186ee	-0.12649128
53	0xbea5f5cc	-0.3241409
54	0x3d89f8fb	0.067369424
55	0xbe8c897f	-0.2744865
56	0x3c8ff0f3	0.017570948
57	0xbe2ea999	-0.17056884
58	0x3e716c87	0.23576556
59	0x3ec24f2c	0.37951028
60	0x3bad938c	0.00529713
61	0x3de9b501	0.11411477
62	0xbe313cfe	-0.17308423
63	0x3b72d82d	0.003705512
64	0x3e3541b5	0.17700846
65	0xbab7ac4e	-0.0014013143
66	0x3daad001	0.08340455
67	0xbc27503b	-0.0102119995
68	0xbe26bf54	-0.16283923
69	0xbcdb46e1	-0.026767196
70	0xbe99c970	-0.30036497
71	0xbdf8f87d	-0.121567704
72	0xbe75f795	-0.24020226
73	0x3e056e0c	0.13030261
74	0x3dab8df3	0.08376684
75	0xbe41b07c	-0.1891498
76	0xbe1cb71b	-0.15304224
77	0xbe316371	-0.1732309
78	0xbde689f2	-0.1125678
79	0xbc527df6	-0.012847414
80	0x3d60daf9	0.05489633
81	0x3d2a1549	0.041524205
82	0xbe5d468e	-0.21608946
83	0xbe0d52c5	-0.13801105
84	0x3e44d8d5	0.1922334
85	0x3dbc73b5	0.09201757
86	0xbda2360d	-0.079204656
87	0xbcd1339f	-0.02553731
88	0xbd54af93	-0.051925253
89	0x3e4bf78d	0.19918652
90	0xbda17d37	-0.07885211
91	0xbd08608a	-0.03329519
92	0x3d71eedb	0.05906568
93	0xbda73442	-0.08164264
94	0x3d5529f5	0.052041966
95	0xbdac12ed	-0.08402047
96	0xbd6be4fd	-0.057591427
97	0xbe5920e4	-0.21203953
98	0x3eae1b1b	0.34005055
99	0x3e935151	0.28772977
100	0x3e2d8b15	0.16947587
101	0xbe2ddee7	-0.16979562
102	0x3e6d9768	0.23202288
103	0x3dd41d5e	0.10357164
104	0xbdde7c64	-0.108635694
105	0x3d944819	0.07240314
106	0xbd9f2488	-0.0777064
107	0x3e5d075a	0.21584836
108	0x3a8a9a86	0.0010574616
109	0x3e0d3e58	0.13793314
110	0xbdc13713	-0.09434333
111	0x3c403f70	0.011733875
112	0xbe77fa01	-0.24216463
113	0x3e95cc63	0.29257497
114	0xbe8870a7	-0.26648447
115	0xbea3ad69	-0.3196824
116	0x3d2bb650	0.041921914
117	0xbe767d46	-0.24071226
118	0xbd901d47	-0.07036834
119	0x3da9fa3d	0.08299682
120	0x3d1a004c	0.03759794
121	0xbe815b8d	-0.2526516
122	0x3d20b2c1	0.039232973
123	0x3df98531	0.12183607
124	0x3e0b981a	0.13632241
125	0xbd27f5d0	-0.04100591
126	0xbd25a977	-0.040444817
127	0x3c8769b5	0.016529897
128	0x3db713e7	0.08939343
129	0xbe2c0229	-0.16797699
130	0x3f0afee7	0.542952
131	0x3e31fd1e	0.17381713
132	0x3d99d786	0.07511811
133	0xbdf49035	-0.11941568
134	0x3ebf6f6d	0.373897
135	0x3cb10755	0.021609941
136	0x3e0cfed5	0.13769086
137	0xbe16054f	-0.14650463
138	0x3e124799	0.14285125
139	0x3e67bed4	0.22631389
140	0x3d8d1a86	0.068898246
141	0xbeab6bb5	-0.3348061
142	0xbe767816	-0.24069247
143	0xbd85d078	-0.06533903
144	0xbde8609a	-0.1134655
145	0xbe2246cf	-0.15847324
146	0xbdfb521c	-0.122715205
147	0xbe9ffe70	-0.31248808
148	0x3d041c14	0.03225334
149	0x3d2ee1b9	0.042695735
150	0xbe301337	-0.1719483
151	0x3d94a0ed	0.07257257
152	0x3eb7ace1	0.35874084
153	0xbf200fba	-0.62523997
154	0x3dbab270	0.091160655
155	0x3d43131b	0.047625642
156	0xbd80eefb	-0.06295582
157	0xbe4f433f	-0.20240496
158	0xbe8943b0	-0.26809454
159	0xbbe6a222	-0.0070383707
160	0x3d58857e	0.052861683
161	0xbd58c5ff	-0.0529232
162	0x3dac835a	0.08423491
163	0xbdab2c6b	-0.083580814
164	0x3e850abb	0.2598475
165	0xbdf52ed1	-0.1197182
166	0x3da66b64	0.08125952
167	0x3be1d74c	0.0068921205
168	0x3e1c9985	0.15292938
169	0x3d74d54f	0.05977374
170	0x3ae726ec	0.0017635501
171	0x3dd301a2	0.10303046
172	0xbd1b2acd	-0.037882615
173	0x3e6e42b1	0.23267628
174	0xbb3d67bb	-0.002890094
175	0xbe9532bb	-0.29140267
176	0x3e4c9e45	0.1998225
177	0xbe24e139	-0.1610154
178	0xbeb699be	-0.3566417
179	0x3d59dad4	0.053187206
180	0x3935a55e	0.00017323109
181	0xbe155c0f	-0.14585899
182	0x3e35a796	0.1773971
183	0xbe9283cb	-0.28616175
184	0xbd2ca6cd	-0.04215126
185	0x3e89f54a	0.26944953
186	0x3e637e62	0.2221618
187	0x3e52dbf6	0.20591721
188	0xbe74d8e1	-0.23910858
189	0x3e5c8335	0.21534427
190	0xbbafa23e	-0.005359917
191	0xbea2bcaa	-0.31784564
192	0xbe1bd74d	-0.1521885
193	0xbe271c50	-0.16319394
194	0xbde67291	-0.112523206
195	0xbcc9279c	-0.02455502
196	0xbd8970f2	-0.06710996
197	0xbea05b4e	-0.3131966
198	0x3ea706bd	0.32622328
199	0xbd1f4e4e	-0.038893037
200	0xbdd86672	-0.10566415
201	0xbe8d55e2	-0.27604586
202	0xbdaa51b3	-0.08316364
203	0xbdb3c5fa	-0.087779954
204	0xbd867230	-0.06564748
205	0xbd56e580	-0.052464962
206	0xbe1a89c0	-0.1509161
207	0xbb7b56e4	-0.0038351351
208	0xbe8807ff	-0.265686
209	0xbe0f2ebb	-0.1398267
210	0x3ea6b893	0.32562694
211	0x3dfb00c9	0.12256009
212	0x3d662a54	0.05619271
213	0x3e42aa3d	0.19010253
214	0xbe3f559b	-0.18685
215	0x3d4ace80	0.04951334
216	0x3ec8b251	0.39198545
217	0xbed714df	-0.4200811
218	0xbe94e817	-0.2908332
219	0x3ca245c0	0.01980865
220	0x3d76bdf0	0.060239732
221	0x3b763bdd	0.0037572302
222	0x3eb78f80	0.3585167
223	0x3eacfa51	0.33784726
224	0xbe3f320e	-0.18671438
225	0xbcfa599e	-0.03056031
226	0xbe395bab	-0.18101375
227	0x3e045973	0.12924747
228	0xbe395b94	-0.1810134
229	0xbd8c939f	-0.06864094
230	0xbdcf214f	-0.10113775
231	0xbdabfeea	-0.083982304
232	0xbe332c74	-0.17497426
233	0x3d7cfae1	0.061762694
234	0xbd013bdb	-0.031551223
235	0xbdaa2362	-0.0830753
236	0xbda498e6	-0.080369756
237	0x3cec2c01	0.028829576
238	0xbc7523a8	-0.014962114
239	0xbe4e8d34	-0.20171052
240	0x3e748784	0.2387982
241	0xbdcba314	-0.09943214
242	0x3d5d1e64	0.05398406
243	0xbb936a06	-0.004498723
244	0x3d584c49	0.052807126
245	0xbd8ac361	-0.06775547
246	0x3db454f0	0.08805263
247	0x3daffc43	0.08593037
248	0xbe21d394	-0.15803367
249	0xbe1ba52b	-0.15199725
250	0x3e8f3476	0.27969712
251	0xbda74b19	-0.081686206
252	0x3ddeaeb9	0.108731695
253	0xbe242dee	-0.16033146
254	0xbe07b02a	-0.13250795
255	0x3e634244	0.22193247

rnn.bias_ih_l0_reverse f4 [32]
0	0x3c97afd3	0.018516457
1	0x3d18319c	0.037156686
2	0x3d957377	0.07297414
3	0xbe3b531a	-0.1829342
4	0xbdeb4fa8	-0.114898026
5	0x3de9d3c5	0.11417345
6	0x3e0eabf2	0.1393278
7	0xbcc21e68	-0.02369614
8	0xbe2a3d2a	-0.16624895
9	0xbe77309e	-0.2413964
10	0x3deae950	0.11470282
11	0x3c94b47d	0.01815247
12	0x3e505d5d	0.20348115
13	0x3d39c662	0.04535521
14	0x3ce23379	0.027612435
15	0x3e27b6bc	0.16378301
16	0xbe694fe7	-0.22784387
17	0xbcb129eb	-0.021626433
18	0x3c73e10a	0.014885196
19	0x3c3db512	0.011578815
20	0xbb8596aa	-0.0040767984
21	0x3d8d924a	0.06912668
22	0xbb505f12	-0.0031794948
23	0xbd1dcbd8	-0.03852448
24	0x3e2bcc97	0.16777264
25	0xbe1355d5	-0.14388211
26	0x3dca182f	0.09867894
27	0xbe452877	-0.19253717
28	0x3d1e0e60	0.038587928
29	0xbe81e053	-0.25366458
30	0xbcacd724	-0.02109868
31	0x3d193d75	0.037412126

rnn.bias_hh_l0_reverse f4 [32]
0	0x3d9f9547	0.07792144
1	0xbe6c6374	-0.23084813
2	0xbd7fc344	-0.06244208
3	0x3c58a9d4	0.013224084
4	0x3da57513	0.08078971
5	0xbe02edbb	-0.12786
6	0xbccf81cc	-0.025330447
7	0xbdab82db	-0.08374568
8	0x3dad9a3c	0.084766835
9	0xbce5b5c2	-0.02804077
10	0xbdc4d947	-0.09611755
11	0xbd01aebe	-0.031660788
12	0xbde7e91c	-0.11323759
13	0xbe3ab5af	-0.1823337
14	0xbe51c69b	-0.20485918
15	0x3dfe48d9	0.12416238
16	0xbc613f8e	-0.013748063
17	0x3e48a767	0.19595109
18	0x3d0b0bcf	0.03394681
19	0x3cfe9b06	0.03107978
20	0x3dd848c3	0.10560753
21	0x3e3ee669	0.18642582
22	0xbe189977	-0.14902292
23	0xbd572967	-0.05252972
24	0x3e1fb9b7	0.15598188
25	0xbe08fbfb	-0.13377373
26	0x3d92fffe	0.07177733
27	0x3d926032	0.07147254
28	0xbe3325bd	-0.17494865
29	0xbda0051c	-0.078134745
30	0x3e04d8b1	0.12973286
31	0x3e3a580b	0.18197648

fc1.weight f4 [12, 64]
0	0xbdaa714a	-0.083223894
1	0xbe3becdd	-0.18352075
2	0x3ea17b18	0.31539226
3	0x3e936a91	0.2879224
4	0x3eab7138	0.33484817
5	0x3be9e848	0.007138286
6	0xbdbfc167	-0.093630604
7	0x3e6b0012	0.22949246
8	0x3d84f5aa	0.06492169
9	0x3e7abb00	0.24485397
10	0x3dd09d97	0.10186308
11	0x3e67ee66	0.22649536
12	0x3eb27fa8	0.3486302
13	0xbe7120e2	-0.235477
14	0xbed8e6e8	-0.42363667
15	0xbe7f3d12	-0.2492564
16	0xbd80a7cf	-0.06282007
17	0x3daf50dd	0.08560345
18	0xbde6cde0	-0.11269736
19	0x3d9e1961	0.077196844
20	0x3f1ce87e	0.61292255
21	0xbed80386	-0.42190188
22	0x3ee81f33	0.45336303
23	0xbebf60c6	-0.3737852
24	0xbd8ef02e	-0.069794044
25	0xbda0460d	-0.07825861
26	0x3e4c25ef	0.19936346
27	0x3eea6a1b	0.45784077
28	0xbf1eebc9	-0.6207853
29	0xbec37ffe	-0.38183588
30	0x3ec019e1	0.37519744
31	0x3ec74928	0.38923
32	0x3eaa6056	0.33276623
33	0xbeb93ad0	-0.36177683
34	0xbe0811fe	-0.13288113
35	0xbec6faea	-0.38863307
36	0xbef32c88	-0.47494912
37	0xbe922db6	-0.285505
38	0x3b639c38	0.0034730565
39	0xbe57988b	-0.21054284
40	0xbea12e5e	-0.31480688
41	0x3ead75db	0.3387898
42	0x3ef50fb2	0.47863537
43	0xbea2cafb	-0.31795487
44	0x3ed32911	0.4124227
45	0xbdab1cc8	-0.08355099
46	0x3e2b8786	0.16750917
47	0xbdbadaee	-0.09123789
48	0xbd90f8b7	-0.070786886
49	0x3ee662d6	0.4499728
50	0xbdbee0bc	-0.093202084
51	0x3e1f343d	0.15547271
52	0x3eb3c87e	0.351139
53	0x3d502384	0.05081512
54	0xbe7f3bd2	-0.24925163
55	0x3e804988	0.250561
56	0xbe69ffb6	-0.22851452
57	0x3e578f3d	0.21050735
58	0xbe07cdff	-0.13262175
59	0xbe7a3270	-0.24433303
60	0x3e86dbc1	0.26339534
61	0xbe9e5126	-0.30921286
62	0x3e98afff	0.29821774
63	0x3eb77e04	0.3583833
64	0xbf58e7d8	-0.84728765
65	0xbe424c4b	-0.18974416
66	0xbf6c1d07	-0.9223179
67	0xbf94a865	-1.161389
68	0xbe81d035	-0.25354162
69	0x3f0c2eb2	0.5475875
70	0xbe77a026	-0.24182186
71	0x3da996b5	0.08280698
72	0xbf81db24	-1.0145001
73	0xbf945b07	-1.1590279
74	0xbd6bb2db	-0.057543617
75	0x3df0b3ce	0.11753045
76	0xbfa84d7b	-1.3148645
77	0x3ec5f8b8	0.3866632
78	0x3f1cfb17	0.6132063
79	0x3edc6376	0.43044633
80	0x3f24d2ad	0.64383966
81	0x3f1eb4f3	0.61994857
82	0x3f506e19	0.81417996
83	0x3ebda151	0.37037137
84	0xbf588714	-0.8458111
85	0xbe7a5694	-0.2444709
86	0xbe5f1500	-0.21785355
87	0x3dc7aa4a	0.09749277
88	0x3e9f8d3a	0.31162435
89	0x3e65a5ff	0.22426604
90	0xbebb2438	-0.3655107
91	0xbf6e298e	-0.9303216
92	0x3e63a63a	0.22231379
93	0xbed27ac5	-0.4110929
94	0xbf763f2d	-0.9619015
95	0x3f0ae133	0.54249877
96	0x3e2f748b	0.17134301
97	0x3f3da343	0.7407724
98	0x3f24d840	0.6439247
99	0xbecff1b8	-0.40614104
100	0xbf0b0f2f	-0.54320043
101	0xbf3f7657	-0.7478995
102	0xbeb9ac7a	-0.36264402
103	0x3faff8f4	1.374785
104	0xbe8e484d	-0.27789536
105	0xbf178b11	-0.59196573
106	0x3eb63b45	0.35592094
107	0xbedd5fd3	-0.4323717
108	0x3eaacacd	0.3335785
109	0xbf0083f6	-0.50201356
110	0xbf0e8f57	-0.5568747
111	0xbf288b10	-0.6583719
112	0xbe99475b	-0.29937252
113	0xbf296517	-0.66169876
114	0xbf449154	-0.76784253
115	0xbde79696	-0.11308019
116	0xbf8c033c	-1.0938487
117	0x3f755de2	0.9584638
118	0xbe11038d	-0.14161511
119	0x3ed5f93f	0.41791722
120	0xbd857937	-0.065172605
121	0x3f18d674	0.5970223
122	0xbf34024f	-0.7031602
123	0xbdf329c7	-0.11873203
124	0xbeee6735	-0.46563116
125	0xbe26a2e9	-0.16273083
126	0x3f5f307f	0.87183374
127	0x3ea5e15c	0.32398498
128	0x3f465588	0.7747426
129	0x3c1c2b1a	0.009531761
130	0x3f706846	0.9390911
131	0xbf6a5039	-0.9152866
132	0x3ee471e3	0.4461814
133	0x3e8c396a	0.27387553
134	0x3b94ba26	0.004538792
135	0xbeadca6d	-0.339435
136	0xbf7edd71	-0.9955664
137	0x3d9e027e	0.07715319
138	0xbf4953a7	-0.7864327
139	0xbf92787e	-1.1443021
140	0xbf7274cd	-0.94709474
141	0x3db88846	0.09010367
142	0x3ed0d486	0.40787143
143	0x3dbef5fc	0.093242615
144	0x3ec4fbb7	0.38473293
145	0xbceffe4d	-0.029296065
146	0x3e5871b9	0.21137132
147	0x3f67fff4	0.9062493
148	0xbe92664b	-0.28593668
149	0xbedae50a	-0.42752868
150	0xbf5494ac	-0.83039355
151	0x3eb9d549	0.36295536
152	0x3e86a058	0.26294208
153	0x3e84ae15	0.25914064
154	0x3eca663f	0.39531133
155	0xbf836c8e	-1.0267503
156	0x3e838feb	0.25695738
157	0xbea11b8e	-0.31466335
158	0xbefac87b	-0.4898108
159	0x3e905002	0.2818604
160	0x3ca49e64	0.020095058
161	0xbef3d848	-0.47625947
162	0x3f23c231	0.6396819
163	0xbd8389ba	-0.06422754
164	0x3f1116d5	0.56675464
165	0x3f27f366	0.6560577
166	0x3c835472	0.016031478
167	0x3f88fff6	1.0703113
168	0x3ef83368	0.4847672
169	0x3e981883	0.297062
170	0xbd96a160	-0.073549986
171	0x3f89c72e	1.076391
172	0xbbbdc9e9	-0.005791892
173	0x3d8bbec1	0.06823493
174	0xbedfbe93	-0.43700084
175	0x3f85032d	1.0391594
176	0xbe625096	-0.22101054
177	0x3e561466	0.20906219
178	0x3db18308	0.0866757
179	0xbd8762e7	-0.06610661
180	0x3ecbfe6b	0.39842543
181	0x3d310aa4	0.04322304
182	0x3f848fa6	1.0356338
183	0x3ec3c4b6	0.38236016
184	0x3fb9053e	1.4454725
185	0xbf6b8313	-0.9199688
186	0x3f289f71	0.6586829
187	0xbe9dc7a3	-0.30816373
188	0xbe17d728	-0.1482817
189	0x3f250f2b	0.6447627
190	0x3f15f31a	0.5857407
191	0x3e555471	0.20832993
192	0xbf34e553	-0.7066242
193	0x3f88cddc	1.0687823
194	0x3ed79b64	0.4211074
195	0x3cd6a3af	0.026201097
196	0xbe96ae6b	-0.29429945
197	0x3f3a66b2	0.7281295
198	0x3e413049	0.18866076
199	0x3f731c40	0.9496498
200	0xbf3a874c	-0.72862697
201	0xbf1ab1ae	-0.6042737
202	0x3ea83402	0.3285218
203	0xbe4032dc	-0.18769401
204	0xbf3f300c	-0.7468269
205	0xbeaaf61c	-0.33390892
206	0xbda8fd69	-0.08251459
207	0x3f57f717	0.84361404
208	0xbf018e56	-0.5060781
209	0x3d374499	0.044743154
210	0x3e43dafe	0.19126508
211	0xbd46dc1d	-0.04854976
212	0xbee741ad	-0.45167294
213	0x3f3060fe	0.68898
214	0xbf24623e	-0.64212406
215	0x3ebe0110	0.37110186
216	0x3f2f19f7	0.68398994
217	0x3e6c9073	0.23101978
218	0x3ea177f5	0.31536832
219	0x3e5335f0	0.20626044
220	0xbd42521b	-0.047441583
221	0x3f844ab9	1.0335304
222	0x3e19a788	0.15005314
223	0xbecafbc5	-0.3964521
224	0x3df278fd	0.11839483
225	0xbef7690d	-0.48322335
226	0x3f3ff8f4	0.7498925
227	0x3f4e789c	0.80652785
228	0x3f241731	0.6409789
229	0xbed596be	-0.4171657
230	0xbe0556c8	-0.13021386
231	0x3f8dbd9f	1.1073493
232	0x3f24d193	0.64382285
233	0x3d92bc49	0.07164819
234	0xbf449e07	-0.7680363
235	0x3f376089	0.71631676
236	0x3e0a1263	0.13483576
237	0x3f2e8497	0.68171066
238	0xbe2b8710	-0.16750741
239	0x3f1a8e06	0.6037296
240	0xbe7a23e1	-0.24427749
241	0x3eaeb8f5	0.34125486
242	0xbdc69d20	-0.09697938
243	0xbf321593	-0.6956417
244	0xbeafa125	-0.3430263
245	0xbe42878c	-0.1899702
246	0xbd6dfe40	-0.0581038
247	0xbd8ea10a	-0.069643095
248	0x3eb242af	0.348165
249	0xbf32a4e4	-0.69782853
250	0x3c444a14	0.011980552
251	0x3edc7ace	0.43062443
252	0x3e72f82e	0.23727486
253	0x3f243509	0.64143425
254	0x3e93f281	0.28895953
255	0xbeecfba0	-0.46285725

fc1.bias f4 [12]
0	0xbd3b9c22	-0.045803197
1	0x3c5ae35b	0.01335987
2	0xbf006742	-0.5015756
3	0xbf018d7d	-0.5060652
4	0xbe8dfc1e	-0.27731413
5	0x3d454f3c	0.048171267
6	0xbe57bf1b	-0.21068995
7	0xbedf8903	-0.4365922
8	0x3da0e6da	0.078565314
9	0xbe26d50d	-0.1629221
10	0x3d7fd7fe	0.062461846
11	0xbe0320c4	-0.12805468
