src/src_learner/java_finetuning_model.pt (torch, 103364 bytes, 11 tensors)

word_embeddings.weight f4 [109, 128]
-1.3547972 -0.8712699 -0.58197576 -1.6484103 -0.29999265 -0.662435 -0.87849456 -1.4949474
-0.84658563 0.2992526 -0.6615221 -0.4121981 -0.38750675 1.723955 0.20603642 0.48280337
-0.5388919 -1.164385 0.8065259 0.11846583 0.88018864 0.12990503 -0.69045746 0.63463515
0.9124148 -0.2103028 -2.3319428 -1.5777942 0.13569844 -0.60921186 -1.0340616 -0.1201689
1.8649153 0.017056206 -0.010844645 -0.6813149 0.4503041 0.10983338 0.13715826 -0.55974174
-0.006539103 0.12611558 -0.30689722 0.041003056 2.352506 -0.8299184 1.6848317 -0.6079599
-1.0307667 0.8231452 -0.17553852 -0.6362844 0.81355494 0.6761032 1.2451215 1.8444774
0.008780684 0.9124488 -0.38167122 -0.6533727 1.5330116 -0.59831065 -3.4076877 -0.7846801
-0.11093988 -1.1246047 -0.74442047 -1.1389985 -0.05347881 -0.044617392 1.6301043 -0.11990473
-0.75949687 -0.09841705 -1.0555139 -0.91789824 -0.36897033 -0.6415571 0.5660197 -1.1174097
-0.2552538 0.27448133 -0.48913053 0.7653172 -1.4000889 -0.4721225 0.17144553 -0.31076694
0.1771154 -0.40963426 -1.1065856 0.6577472 -0.9999999 -0.5822449 0.5825373 1.9909852
0.64091223 1.3025773 0.9081465 -0.920429 1.5020878 -0.8148824 -1.1403791 1.1120992
1.3965422 0.35556835 -0.2238804 0.035403688 -2.1443174 -0.49739408 -1.6616852 -1.0947942
0.83647406 -0.55437595 1.2461796 0.6085046 0.30847108 0.35896984 0.5013358 -0.5847941
2.5917594 -0.18278742 -0.074535996 1.9785109 -1.9138978 1.6306045 -0.026112065 0.4197624
0.71236455 -1.7765073 0.35386458 1.1996132 -0.3029974 -1.7618417 0.6348446 -0.8043591
-1.6111118 -1.8716129 0.5430836 0.6606786 2.2952116 0.67490596 1.7133216 -1.7942734
-1.3632672 -0.9832196 1.5112667 0.64187074 0.4729638 -0.4285901 0.55137074 -1.5473709
0.5181121 0.10653535 0.26924077 1.324768 1.7460191 1.854969 -0.7063691 2.5570862
0.4175343 -0.2127186 -0.839958 -0.42001787 -0.6240363 -0.9772961 0.8748428 0.9872814
0.30957633 1.52069 1.2052339 -1.815591 -0.40346155 -0.9591452 -0.005207704 -0.07886314
0.8436543 1.1657013 0.5269322 1.6192533 -0.96397626 0.14152038 -0.16366096 -0.35822257
1.7222793 -0.3035756 0.2388742 1.3440012 0.10322569 1.1003542 -0.3416802 0.9473389
-0.56851596 0.8375962 1.7836607 -0.19542466 0.5149161 -1.8474776 -2.9167426 -0.5673299
-0.5412802 0.895174 -0.882507 0.53181124 -1.5457772 -0.17329982 0.72824633 0.05706102
0.9055172 1.0462948 -0.520597 1.3547838 0.23519313 1.9142433 1.8364111 1.3245324
-0.96900916 1.2516364 1.2103242 -0.5279206 0.21856615 -0.57430726 1.4571251 1.7709557
1.6499138 -0.43200457 -0.2710269 -1.4391626 1.2470404 1.2738512 0.39094925 0.3872105
-0.07982872 0.3417243 0.9488273 -1.3839359 1.7240863 -2.3647652 -0.9294909 0.2936253
0.21513203 0.9384637 1.4657077 -0.5564744 -0.7448408 -0.20215721 -0.2296679 0.0013313366
0.3752759 -0.5810679 -0.57230884 1.0097175 -0.10564939 -1.179696 -0.090779595 0.56311435
00000000: ff69 adbf 8b0b 5fbf 5dfc 14bf 1cff d2bf
00000010: a398 99be 5795 29bf 05e5 60bf 705a bfbf
00000020: d6b9 58bf a337 993e 8359 29bf a10b d3be
00000030: 4967 c6be 8faa dc3f 36fb 523e 0132 f73e
00000040: d2f4 09bf 910a 95bf 7b78 4e3f 379e f23d
00000050: 0b54 613f d305 053e d2c1 30bf 7377 223f
00000060: 0494 693f 9e59 57be 8d3e 15c0 29f5 c9bf
00000070: 88f4 0a3e 4ff5 1bbf 215c 84bf 1d1b f6bd
00000080: 8bb5 ee3f 75b9 8b3c bdad 31bc a76a 2ebf
00000090: 428e e63e 53f0 e03d 3773 0c3e 3c4b 0fbf
000000a0: f945 d6bb 7124 013e a221 9dbe d2f2 273d
000000b0: 758f 1640 8875 54bf 91a8 d73f 43a3 1bbf
000000c0: 2af0 83bf a5b9 523f 5fc0 33be 89e3 22bf
000000d0: 2345 503f 1915 2d3f 2460 9f3f d617 ec3f
000000e0: dcdc 0f3c 3f96 693f 696a c3be 6f43 27bf
000000f0: b939 c43f e32a 19bf 8e17 5ac0 cce0 48bf
00000100: 7334 e3bd 0cf3 8fbf 5792 3ebf b4ca 91bf
00000110: 990c 5bbd bac0 36bd 42a7 d03f 9c90 f5bd
00000120: 636e 42bf e18e c9bd 141b 87bf 61fb 6abf
00000130: aee9 bcbe 163d 24bf abe6 103f 4807 8fbf
00000140: a0b0 82be d188 8c3e 516f fabe d4eb 433f
00000150: 1d36 b3bf 0aba f1be 6b8f 2f3e d81c 9fbe
00000160: bd5d 353e 95bb d1be 99a4 8dbf 1f62 283f
00000170: feff 7fbf 000e 15bf 2a21 153f 9ad8 fe3f
00000180: d312 243f daba a63f 4a7c 683f 3ca1 6bbf
00000190: 6a44 c03f 229c 50bf f1f7 91bf 4459 8e3f
000001a0: e5c1 b23f 0e0d b63e e740 65be 7503 113d
000001b0: 7f3c 09c0 70aa febe 1ab2 d4bf 3722 8cbf
000001c0: 2a23 563f 95eb 0dbf d082 9f3f f5c6 1b3f
000001d0: ecef 9d3e e5ca b73e 8b57 003f 11b5 15bf
000001e0: 63df 2540 a02c 3bbe 54a6 98bd d83f fd3f
000001f0: 9afa f4bf a6b7 d03f f8e8 d5bc 19eb d63e
00000200: 865d 363f 9764 e3bf bd2d b53e ed8c 993f
00000210: 7a22 9bbe 0784 e1bf 2d85 223f 7aea 4dbf
00000220: e938 cebf 0391 efbf 8707 0b3f 3c22 293f
00000230: bfe4 1240 a3c6 2c3f 1f4e db3f c0aa e5bf
00000240: 8a7f aebf 48b4 7bbf 3071 c13f a451 243f
00000250: 5028 f23e 2970 dbbe a226 0d3f 4010 c6bf
00000260: ffa2 043f 352f da3d edd9 893e ff91 a93f
00000270: 8e7d df3f a06f ed3f 9bd4 34bf 4da7 2340
00000280: 0ec7 d53e e8d2 59be 7d07 57bf 950c d7be
00000290: d8c0 1fbf 1430 7abf b3f5 5f3f 79be 7c3f
000002a0: ca80 9e3e f8a5 c23f 1b45 9a3f 4965 e8bf
000002b0: 8392 cebe 8a8a 75bf 63a5 aabb ff82 a1bd
000002c0: baf9 573f b335 953f 07e5 063f b143 cf3f
000002d0: 26c7 76bf b8ea 103e bd96 27be f368 b7be
000002e0: a673 dc3f 436e 9bbe 709b 743e 3b08 ac3f
000002f0: fe67 d33d 68d8 8c3f b5f0 aebe cd84 723f
00000300: 438a 11bf b46c 563f fe4e e43f 671d 48be
00000310: 8bd1 033f 257a ecbf e9ab 3ac0 883c 11bf
00000320: 5791 0abf 202a 653f fbeb 61bf c824 083f
00000330: 07dc c5bf 8275 31be 5a6e 3a3f d1b8 693d
00000340: facf 673f fdec 853f d845 05bf 8e69 ad3f
00000350: 78d6 703e ed05 f53f 850f eb3f 478a a93f
00000360: fc10 78bf 9f35 a03f e7eb 9a3f ce25 07bf
00000370: cecf 5f3e cd05 13bf 1383 ba3f adae e23f
00000380: 6030 d33f b42f ddbe 0ac4 8abe 7b36 b8bf
00000390: 059f 9f3f 8e0d a33f 802a c83e 7440 c63e
000003a0: 3d7d a3bd 7df6 ae3e 59e6 723f d024 b1bf
000003b0: dcae dc3f 5058 17c0 1ef3 6dbf 0e56 963e
000003c0: 924b 5c3e 283f 703f 4f9c bb3f 1b75 0ebf
000003d0: e3ad 3ebf 4d02 4fbe 102e 6bbe 3e80 ae3a
000003e0: 2a24 c03e dec0 14bf d582 12bf 6c3e 813f
000003f0: b55e d8bd 4700 97bf a7ea b9bd 4328 103f

rnn.weight_ih_l0 f4 [32, 128]
-0.13163729 -0.15410545 -0.053566728 0.1828457 -0.06914226 0.04697385 0.06164448 0.22861786
0.052121 0.12703387 0.04663799 0.049423795 -0.095856205 0.08249861 0.17603357 0.00095525593
0.013123526 0.17299382 -0.045716807 0.22157833 0.09129732 -0.018362343 0.07129632 0.16352433
-0.2240528 0.15898812 0.04896912 -0.15745266 0.1143864 0.118382074 -0.18220177 -0.05717182
-0.017423848 0.004140731 0.118162304 -0.10934015 -0.12153184 -0.06245253 0.12209985 0.007881171
-0.06531919 0.25917333 0.0559562 -0.13657758 -0.1876034 -0.14949597 -0.33894646 -0.1448239
-0.17135383 -0.228114 0.32728106 0.12642553 0.087381095 -0.15648532 -0.037768956 0.07907572
0.18290147 0.05304688 -0.007273835 -0.21025723 -0.007181436 -0.058873795 0.100574255 -0.116193295
-0.09821297 -0.027588325 -0.0126856575 -0.08214029 0.05666251 0.13845044 0.17794071 -0.04531893
0.059760354 0.07615021 -0.18134429 0.10018901 -0.042347115 -0.049662706 -0.05352622 -0.107549116
0.07410865 0.19409955 -0.121423185 -0.015388935 0.13974261 0.20109804 -0.1853004 0.0060170973
-0.023573363 -0.1580889 -0.09365721 0.10119248 0.0067697032 -0.16366693 -0.07274064 0.104418464
-0.040724427 -0.08070422 -0.11679699 0.24847163 0.12123857 -0.17507601 -0.13276519 -0.073986866
0.15815572 -0.014557251 -0.0476809 0.084836155 -0.042677023 0.14042027 -0.062129032 -0.055227086
-0.08833773 0.0016534551 0.031147 0.03354058 0.11659882 0.09726556 -0.18516754 -0.097353525
-0.011854592 0.17220725 -0.121301115 0.01708628 0.009953239 0.093862355 0.041427515 -0.11814396
0.04589611 -0.13570802 -0.014524176 -0.10977122 0.11264834 0.10118769 0.0044883722 0.0044091423
0.0584269 -0.2064926 0.030382067 0.10495529 0.16484863 0.09225358 -0.089801684 0.16831733
0.08402352 -0.15189739 0.06590602 0.0069466587 0.2103229 -0.1906634 0.13963735 0.20768331
0.092215486 -0.037082996 0.083825335 0.11740771 -0.11097868 0.13647057 0.055907764 0.03958517
-0.11641969 -0.023810223 -0.07001537 0.10362842 0.15728736 -0.25262195 0.039428983 -0.04540068
-0.0073924037 0.07192971 -0.040692866 0.06100666 0.020455705 -0.023367224 0.1294797 -0.16382813
0.2106027 0.05037104 0.09393642 -0.05482177 -0.1405687 -0.120123364 0.045620654 -0.11332801
-0.16407052 0.031477954 0.124911584 0.16185144 0.019943666 -0.20605567 0.13401106 0.09125831
0.22502978 -0.058852915 0.022212405 0.09220992 0.07631862 -0.13130368 -0.12462163 -0.017890327
0.12512852 -0.021344047 0.11301621 0.19687706 0.011396719 -0.1442967 -0.05174404 0.11275954
0.029015169 -0.17244516 0.0040019737 -0.27697042 -0.21103857 -0.11468047 -0.08199757 0.15180504
0.21017638 -0.06760757 -0.010382741 0.12479655 0.0692934 -0.06374356 -0.033184014 -0.10700798
-0.02110898 -0.006515333 0.1890679 0.25598374 0.113359354 0.090717845 -0.04989338 0.04359385
-0.04177649 0.17472789 0.09527847 -0.28772402 0.06367734 -0.03560933 0.020808266 -0.10814093
-0.017566467 -0.13578205 0.065246634 0.08507472 0.058954 -0.03978603 0.028323608 -0.20014665
-0.07892054 -0.06901865 0.13788038 0.077760875 -0.0039926055 0.16490504 0.00040835593 0.1659858
00000000: edcb 06be d2cd 1dbe c968 5bbd e73b 3b3e
00000010: 759a 8dbd a767 403d ec7e 7c3d cd1a 6a3e
00000020: d47c 553d 2b15 023e 7a07 3f3d 9b70 4a3d
00000030: 4250 c4bd 08f5 a83d 2542 343e 246a 7a3a
00000040: 0f04 573c 4b25 313e 8c41 3bbd 6ee5 623e
00000050: 17fa ba3d a06c 96bc ce03 923d ec72 273e
00000060: 196e 65be c8cd 223e d893 483d 453b 21be
00000070: 6b43 ea3d 4d72 f23d 1a93 3abe 002d 6abd
00000080: 75bc 8ebc f8ae 873b 14ff f13d bbed dfbd
00000090: afe5 f8bd 39ce 7fbd 7c0f fa3d 0720 013c
000000a0: 11c6 85bd 5eb2 843e 5432 653d feda 0bbe
000000b0: 1b1b 40be 7915 19be 648a adbe b74c 14be
000000c0: 6177 2fbe b796 69be 6291 a73e b275 013e
000000d0: dcf4 b23d b03d 20be 9fb3 1abd 73f2 a13d
000000e0: 864a 3b3e af47 593d 5a59 eebb ac4d 57be
000000f0: 4052 ebbb a625 71bd e0f9 cd3d c0f6 edbd
00000100: e223 c9bd e900 e2bc 81d7 4fbc 2b39 a8bd
00000110: f316 683d f4c5 0d3e 1736 363e 58a0 39bd
00000120: 46c7 743d a4f4 9b3d 51b2 39be e52f cd3d
00000130: 2b74 2dbd 1f6b 4bbd 4f3e 5bbd b642 dcbd
00000140: 47c6 973d 08c2 463e b8ac f8bd df21 7cbc
00000150: b018 0f3e a5ec 4d3e 63bf 3dbe 122b c53b
00000160: ed1c c1bc 0ee2 21be 5acf bfbd 013e cf3d
00000170: 63d4 dd3b 4e98 27be 0bf9 94bd 59d9 d53d
00000180: a8ce 26bd 4148 a5bd 4333 efbd 596f 7e3e
00000190: ed4b f83d 2047 33be 99f3 07be 6d86 97bd
000001a0: 93f3 213e 8981 6ebc 0c4d 43bd 94be ad3d
000001b0: 1ace 2ebd 55ca 0f3e 037b 7ebd cc35 62bd
000001c0: 69ea b4bd bfb8 d83a fe27 ff3c d961 093d
000001d0: 5dcb ee3d 2a33 c73d 8f9c 3dbe 4961 c7bd
000001e0: c339 42bc 1957 303e b86c f8bd 87f8 8b3c
000001f0: e912 233c e83a c03d e6af 293d 76f5 f1bd
00000200: 8ffd 3b3d 0bf7 0abe cff6 6dbc bccf e0bd
00000210: 2cb4 e63d 7e3b cf3d 3213 933b 917a 903b
00000220: 0c51 6f3d cc72 53be d0e3 f83c cdf2 d63d
00000230: 14ce 283e 72ef bc3d f2e9 b7bd 615b 2c3e
00000240: 8614 ac3d fd8a 1bbe bcf9 863d cca0 e33b
00000250: e35e 573e 443d 43be 18fd 0e3e efaa 543e
00000260: 79db bc3d 57e4 17bd 9eac ab3d 7473 f03d
00000270: ca48 e3bd f1be 0b3e 8aff 643d 0f24 223d
00000280: 726d eebd a80d c3bc 3864 8fbd 233b d43d
00000290: f00f 213e aa57 81be 4980 213d 10f6 39bd
000002a0: fa3b f2bb e24f 933d 90ad 26bd 1fe2 793d
000002b0: b992 a73c 9f6c bfbc 5496 043e 90c2 27be
000002c0: 3ca8 573e dd51 4e3d bd61 c03d cb8c 60bd
000002d0: 3ef1 0fbe 3d03 f6bd b9dc 3a3d 8418 e8bd
000002e0: 1a02 28be 07ef 003d a5d1 ff3d 62bc 253e
000002f0: e660 a33c 4200 53be 323a 093e a3e5 ba3d
00000300: 356e 663e c10f 71bd caf6 b53c 8ed8 bc3d
00000310: f04c 9c3d 7974 06be a039 ffbd bc8e 92bc
00000320: b121 003e b6d9 aebc 0b75 e73d 249a 493e
00000330: 4eb9 3a3c 84c2 13be 8ff1 53bd 79ee e63d
00000340: 38b1 ed3c 7795 30be fd22 833b 11cf 8dbe
00000350: 7f1a 58be 98dd eabd 58ee a7bd c872 1b3e
00000360: 7a38 573e d675 8abd 5f1c 2abc 5595 ff3d
00000370: b3e9 8d3d fc8b 82bd f6eb 07bd 0027 dbbd
00000380: bdec acbc 937e d5bb 049b 413e 4d10 833e
00000390: f328 e83d 47ca b93d 005d 4cbd 778f 323d
000003a0: d31d 2bbd deeb 323e 5c21 c33d 9050 93be
000003b0: 4469 823d 17db 11bd 1976 aa3c fe78 ddbd
000003c0: 8de7 8fbc 730a 0bbe 07a0 853d a83b ae3d
000003d0: c079 713d adf6 22bd e906 e83c 3ef3 4cbe
000003e0: 18a1 a1bd a659 8dbd 8430 0d3e 1841 9f3d
000003f0: 67d4 82bb dedc 283e 9b18 d639 2ef8 293e

rnn.weight_hh_l0 f4 [32, 32]
-0.1993975 0.15836729 -0.065271944 0.14985393 -0.0024790103 -0.08551246 0.26481578 0.096230626
-0.20585476 0.03558421 0.24581893 0.02640538 0.017453851 0.42005944 -0.16038162 -0.016998317
-0.09676436 -0.1868582 -0.0410233 0.012569621 -0.17834188 0.14243911 -0.35649943 0.013843339
0.18675709 0.06425737 -0.11334559 0.09564417 0.15096506 0.17086646 -0.13861002 -0.10119773
0.06400823 0.103943646 0.0057428526 -0.19241877 -0.039355088 -0.07251469 0.0012406567 0.17801276
-0.20995797 0.12130939 -0.27625823 -0.17097357 0.013459791 0.19810066 0.056252137 0.24579349
0.37661105 -0.036875512 -0.3444735 -0.0604219 0.30736732 -0.087051615 0.013467987 -0.03037776
0.22897086 -0.02433476 -0.058944166 -0.20272958 -0.24126305 -0.025441317 0.040274676 0.34273973
-0.079640016 -0.066585205 0.049075544 -0.065973565 0.06486576 0.023713954 -0.11684297 -0.35716197
0.21251927 0.17172529 -0.1681274 0.01137177 0.15536024 -0.42739144 -0.33474004 0.24162552
-0.25217223 0.03673712 0.21043614 -0.13163264 0.049351886 0.21594478 -0.31016853 0.29250973
-0.1443812 0.44389543 0.29958224 0.2411982 -0.390438 -0.22932068 0.044717886 -0.2802292
0.35635713 -0.4499308 0.079425596 0.07443521 -0.014462584 0.34008348 -0.09807818 -0.0678005
-0.08338879 0.26552737 0.24680328 0.17353848 -0.28757608 0.12774126 -0.15721372 -0.026174936
-0.17768876 -0.10797602 0.01324834 0.008666979 0.089346945 -0.12397659 0.24090968 0.17490442
-0.33766294 0.31044906 0.3891459 0.26316884 -0.030506814 0.05964865 -0.14906657 -0.036622316
0.31036836 0.012222606 0.366672 -0.073503114 0.16813734 -0.08484267 -0.29868722 -0.33884653
0.09762017 -0.25300956 -0.08253768 -0.03606701 0.13609256 -0.40486708 -0.14935857 0.027458355
0.057195064 0.054093964 0.16449319 0.034563545 0.17950438 0.27592283 0.24541597 0.26889363
-0.34756273 0.10844747 -0.08685313 0.0026464774 -0.32753503 -0.24102671 -0.07457988 -0.27249917
-0.3039427 -0.20438418 0.2851516 -0.1525985 -0.05660326 -0.14083734 0.05171833 0.36415234
-0.33477756 -0.19935927 0.37786695 0.06803781 -0.20084858 0.042974964 0.22736353 -0.21373329
0.06171893 -0.13600539 -0.07705953 0.43059453 -0.19337757 -0.14389265 0.36735612 -0.11153214
-0.31172207 -0.24757536 -0.23224653 -0.06676343 0.10291765 0.16705789 -0.31259495 -0.015972674
0.2829571 0.15992819 -0.17556189 -0.12790771 -0.06443525 0.12635739 -0.12004657 0.060524803
-0.06879663 0.28051707 0.11988658 -0.04397816 0.23111689 0.33997634 0.20773803 -0.15518229
-0.026245901 -0.20851776 0.21135217 -0.33136836 -0.2911909 0.3903755 -0.16043925 -0.24458021
0.10433716 -0.2371049 -0.01640489 -0.38308468 0.27038068 0.03215954 -0.046696674 0.033399437
0.014851302 -0.08775948 -0.18254143 -0.20616294 -0.17832509 0.39990735 -0.108970836 0.0109039275
-0.17264129 0.018367201 0.22172503 0.0297006 -0.010109475 -0.06902102 0.09000555 -0.2708033
-0.027280932 0.062008232 0.268429 -0.2769833 -0.20788595 0.06584206 -0.3179418 -0.23672633
0.13015707 0.09853533 -0.2739844 -0.26540554 -0.018102717 -0.16461639 0.015351702 0.20276585
00000000: dc2e 4cbe 092b 223e 4cad 85bd 4f73 193e
00000010: e476 22bb 2821 afbd ef95 873e 9014 c53d
00000020: 97cb 52be c0c0 113d f5b7 7b3e 1850 d83c
00000030: 61fb 8e3c 0812 d73e 143b 24be 0e40 8bbc
00000040: 652c c6bd c257 3fbe 0c08 28bd d0f0 4d3c
00000050: 419f 36be 8fdb 113e 1887 b6be 2ccf 623c
00000060: 403d 3f3e 5e99 833d bc21 e8bd 17e1 c33d
00000070: 9696 1a3e 9ef7 2e3e c9ef 0dbe c140 cfbd
00000080: bf16 833d 68e0 d43d 8a2e bc3b 6d09 45be
00000090: cd32 21bd 9582 94bd 889d a23a fa48 363e
000000a0: 39ff 56be 0f71 f83d b871 8dbe b213 2fbe
000000b0: 7586 5c3c e6da 4a3e a468 663d 4ab1 7b3e
000000c0: 2ad3 c03e c70a 17bd d55e b0be f47c 77bd
000000d0: 405f 9d3e 1e48 b2bd d5a8 5c3c c8da f8bc
000000e0: 5677 6a3e b159 c7bc 706f 71bd 5898 4fbe
000000f0: a90d 77be 4f6a d0bc 0ff7 243d 957b af3e
00000100: 4e1a a3bd d35d 88bd 7003 493d 261d 87bd
00000110: 57d8 843d c443 c23c 5e4b efbd efdd b6be
00000120: a79e 593e c1d8 2f3e 9729 2cbe a950 3a3c
00000130: c116 1f3e 0dd3 dabe 0c63 abbe ae6c 773e
00000140: b81c 81be aa79 163d 927c 573e b5ca 06be
00000150: 3425 4a3d a120 5d3e 69ce 9ebe d6c3 953e
00000160: aad8 13be 4346 e33e d862 993e a9fc 763e
00000170: 7de7 c7be 0ad3 6abe 1a2a 373d 347a 8fbe
00000180: 7174 b63e 545d e6be e3a9 a23d 7d71 983d
00000190: 79f4 6cbc 6c1f ae3e 36dd c8bd fdda 8abd
000001a0: bec7 aabd 34f3 873e 00ba 7c3e 12b4 313e
000001b0: 2c3d 93be 9bce 023e a2fc 20be d26c d6bc
000001c0: 0bf4 35be 8822 ddbd 910f 593c f2ff 0d3c
000001d0: 88fb b63d 70e7 fdbd 07b1 763e 251a 333e
000001e0: 28e2 acbe 2ef3 9e3e 223e c73e 11be 863e
000001f0: 6de9 f9bc 2552 743d e8a4 18be 4801 16bd
00000200: 9ae8 9e3e 5341 483c 6fbc bb3e cd88 96bd
00000210: 322c 2c3e fec1 adbd 88ed 98be 4b7d adbe
00000220: 15ed c73d 788a 81be 8409 a9bd 00bb 13bd
00000230: d95b 0b3e bd4a cfbe 74f1 18be 58f0 e03c
00000240: 5f45 6a3d a291 5d3d e770 283e 8192 0d3d
00000250: ffcf 373e c245 8d3e 534e 7b3e 6dac 893e
00000260: bef3 b1be b519 de3d 0ee0 b1bd 8670 2d3b
00000270: acb2 a7be b5cf 76be 56bd 98bd 0385 8bbe
00000280: 619e 9bbe 164a 51be 64ff 913e c842 1cbe
00000290: d2d8 67bd aa37 10be 99d6 533d 2d72 ba3e
000002a0: f767 abbe d624 4cbe c777 c13e 6857 8b3d
000002b0: 40ab 4dbe 8406 303d fcd1 683e e6dc 5abe
000002c0: fdcc 7c3d ff44 0bbe 63d1 9dbd e376 dc3e
000002d0: c504 46be 9858 13be 1a16 bc3e f66a e4bd
000002e0: 099a 9fbe 6584 7dbe 09d2 6dbe 44bb 88bd
000002f0: 7dc6 d23d 3911 2b3e 720c a0be 20d9 82bc
00000300: c1df 903e 37c4 233e 7fc6 33be 3dfa 02be
00000310: a1f6 83bd d563 013e fada f5bd dbe8 773d
00000320: 3fe5 8cbd ef9f 8f3e 1887 f53d 7122 34bd
00000330: e8a9 6c3e 6111 ae3e 47b9 543e 1be8 1ebe
00000340: a501 d7bc ae85 55be b46c 583e 1da9 a9be
00000350: f916 95be 4cdf c73e 304a 24be 3c73 7abe
00000360: b9ae d53d a0cb 72be 8c63 86bc ad23 c4be
00000370: 566f 8a3e b9b9 033d 0345 3fbd d9cd 083d
00000380: e052 733c 3ebb b3bd 24ec 3abe 611c 53be
00000390: da9a 36be a8c0 cc3e 1a2c dfbd 63a6 323c
000003a0: e1c8 30be d076 963c e30b 633e ac4e f33c
000003b0: 36a2 25bc e45a 8dbd d454 b83d bba6 8abe
000003c0: 437c dfbc 58fc 7d3d 876f 893e c1d0 8dbe
000003d0: 0ee0 54be 34d8 863d 45c9 a2be 6368 72be
000003e0: e547 053e e4cc c93d af47 8cbe 3ce3 87be
000003f0: 264c 94bc 3391 28be b585 7b3c daa1 4f3e

rnn.bias_ih_l0 f4 [32]
-0.012937447 -0.16431516 -0.09752243 -0.014644886 0.12639311 0.19963631 -0.14832151 0.08922667
-0.010951218 0.042850588 0.06881215 -0.0829736 -0.082207605 0.19579443 0.19717404 0.0019352707
-0.156575 0.07466928 0.12766144 0.02782178 0.00465323 -0.02426705 -0.038265027 0.060546275
-0.046542414 -0.036335193 0.12131673 -0.040889617 -0.13995966 -0.0063444786 -0.08071152 -0.021927176
00000000: 96f7 53bc 3c42 28be d7b9 c7bd 1bf1 6fbc
00000010: 326d 013e 766d 4c3e 98e1 17be 79bc b63d
00000020: bd6c 33bc 1984 2f3d 62ed 8c3d 10ee a9bd
00000030: 765c a8bd 567e 483e fee7 493e e9a8 fd3a
00000040: 3255 20be 35ec 983d aeb9 023e 80ea e33c
00000050: 1f7a 983b b1cb c6bc cabb 1cbd 5fff 773d
00000060: 42a3 3ebd 36d4 14bd e874 f83d df7b 27bd
00000070: 9651 0fbe 58e5 cfbb 154c a5bd 9fa0 b3bc

rnn.bias_hh_l0 f4 [32]
0.14520904 -0.15797356 -0.12860098 -0.1276482 -0.17919697 0.015123151 -0.1382938 -0.0020262345
0.019475564 -0.009614086 0.07770391 -0.07947095 -0.09590466 0.25301737 0.19294031 -0.012787798
-0.20227233 -0.09206354 0.038139734 -0.11282238 0.03229632 -0.1671987 -0.16473013 -0.04665025
-0.024009487 -0.0053515146 -0.14735276 -0.15673047 0.06154282 0.10921638 -0.09218503 -0.023627296
00000000: aeb1 143e d2c3 21be faaf 03be 36b6 02be
00000010: 697f 37be 18c7 773c e49c 0dbe 93ca 04bb
00000020: 388b 9f3c 6684 1dbc 3a23 9f3d aac1 a2bd
00000030: aa69 c4bd 7e8b 813e 2592 453e ea83 51bc
00000040: 7a20 4fbe cf8b bcbd 6938 1c3d 6c0f e7bd
00000050: 2549 043d 2336 2bbe 04af 28be 5514 3fbd
00000060: 8baf c4bc c25b afbb a4e3 16be f47d 20be
00000070: 5314 7c3d d6ac df3d 81cb bcbd 088e c1bc

rnn.weight_ih_l0_reverse f4 [32, 128]
0.1019969 -0.041388802 0.010960667 0.010514843 -0.0037303271 0.016970305 0.05554643 -0.09852895
-0.06144267 -0.12732047 0.084977046 -0.11632601 -0.092105456 -0.09395314 0.18883638 0.13100542
0.08619276 -0.02179991 0.07815403 0.008821068 0.09432233 0.0570387 -0.03403946 -0.04920585
-0.027651709 -0.2231943 0.021013584 0.1669993 0.08797569 -0.08065252 -0.16679423 -0.138883
0.1460093 0.08237941 -0.13141102 -0.28752506 -0.027533032 0.061646942 -0.031534065 -0.1323965
0.004022717 -0.06708583 0.06716593 0.019052329 0.004155203 0.15754169 0.051286664 -0.01378571
-0.15335491 -0.07542529 0.071471356 -0.15042031 0.2054555 -0.061898418 0.10544659 -0.15749067
-0.24145246 -0.004246172 0.009056147 0.11432361 -0.053172875 0.078592405 -0.13028255 0.010654394
-0.08602595 0.018509412 -0.12566514 0.009440263 -0.084331684 -0.15354866 0.09982856 0.08258889
0.026249094 -0.06936563 0.06902073 -0.09380897 -0.062274132 0.016013118 0.15087476 -0.12862973
-0.16649854 0.11687829 -0.15215546 -0.17726701 -0.057524346 0.014808717 -0.05217898 0.005184574
0.14382827 -0.05152067 0.081775256 -0.19214444 0.09194633 -0.09673136 0.03839524 0.08444718
0.044776727 0.040949583 -0.030835204 0.06691493 0.05618788 -0.18162754 0.090739585 0.064506866
0.07209032 -0.00048525655 0.052325644 -0.1149374 -0.03050778 0.17748055 -0.2363375 -0.07384059
0.116857454 -0.09426173 -0.06072081 0.062354714 0.1566909 0.18666694 0.19936422 -0.028451065
-0.07829056 -0.03447536 -0.114602625 0.05815516 0.10613234 -0.15161842 -0.27582303 -0.05608
-0.021349339 0.08253034 -0.050005678 0.034459688 0.11294822 -0.11123955 0.03619825 -0.032177705
0.23506021 -0.08239943 -0.13468635 0.089286596 -0.12802337 0.14200069 0.07445932 0.026236331
-0.028109351 0.15925512 -0.05957936 0.19113787 -0.18387021 -0.013957167 -0.0006304349 -0.031824455
0.13740537 -0.120827734 0.106200345 0.061800484 -0.19089118 -0.009615874 0.04055174 -0.08872854
0.07302646 -0.1812944 0.042473927 0.054490086 -0.13852698 0.10283673 -0.13482739 -0.023263086
-0.15519588 0.0594522 -0.0052367924 -0.0140577415 -0.13627438 -0.021636987 -0.114848934 0.15659712
-0.2548819 -0.07006969 0.1478031 -0.13356587 -0.11360825 -0.10173228 0.008072173 0.28290161
0.2794665 0.036025874 0.26328298 -0.08641983 0.05272373 -0.17027307 -0.05891911 -0.07785349
0.11211329 0.24746114 0.09390484 0.03486083 -0.25260818 0.03940409 -0.06362228 0.15847556
-0.13309018 0.064947575 -0.08143722 -0.12734212 0.08185107 -0.23299049 0.04632204 0.06472836
-0.11501904 -0.09067311 -0.07640077 0.030332113 0.0061938507 -0.032547183 0.118675984 -0.08840242
-0.012398761 0.05941283 0.014798761 -0.040518496 -0.15452243 0.06039814 -0.12108397 -0.051704213
0.07301087 -0.19495171 -0.16287698 0.040827874 0.1240645 -0.078940265 0.112984076 0.0110044675
0.0009858935 0.18410224 0.15054555 -0.07197741 -0.13733551 -0.24943037 0.13351122 0.09042355
0.13134524 0.08038349 0.2123258 0.13439816 0.06380669 0.009271559 -0.0024238473 0.1394228
-0.04600261 -0.01765502 0.013748941 -0.038496517 0.09477336 0.01551195 0.283143 0.06314342
00000000: c0e3 d03d 4e87 29bd 5f94 333c 7346 2c3c
00000010: 8178 74bb 4f05 8b3c a784 633d 8cc9 c9bd
00000020: 4fab 7bbd 4c60 02be 7208 ae3d 553c eebd
00000030: c9a1 bcbd 816a c0bd 535e 413e 4926 063e
00000040: d485 b03d ba95 b2bc 380f a03d 3e86 103c
00000050: 112c c13d 69a1 693d f66c 0bbd 138c 49bd
00000060: d685 e2bc 0c8d 64be ae24 ac3c dd01 2b3e
00000070: 992c b43d 262d a5bd 1bcc 2abe 5837 0ebe
00000080: 7683 153e 89b6 a83d 9c90 06be 7c36 93be
00000090: f48c e1bc 8181 7c3d dd29 01bd f392 07be
000000a0: ffd0 833b 4c64 89bd 4b8e 893d a113 9c3c
000000b0: 5e28 883b 9c52 213e f711 523d 75dd 61bc
000000c0: 1209 1dbe 9378 9abd 935f 923d c807 1abe
000000d0: ed62 523e 3289 7dbd 62f4 d73d 3c45 21be
000000e0: 503f 77be 7923 8bbb 3c60 143c 7f22 ea3d
000000f0: cdcb 59bd 0ef5 a03d ca68 05be c48f 2e3c
00000100: 602e b0bd 0da1 973c 5dae 00be 55ab 1a3c
00000110: 17b6 acbd dc3b 1dbe eb72 cc3d 5d24 a93d
00000120: 5708 d73c 910f 8ebd be5a 8d3d eb1e c0bd
00000130: 2913 7fbd f12d 833c ea7e 1a3e 83b7 03be
00000140: 987e 2abe e35d ef3d a4ce 1bbe 7c85 35be
00000150: a69e 6bbd 43a0 723c a0b9 55bd 5ce3 a93b
00000160: b847 133e 5707 53bd c979 a73d 83c1 44be
00000170: 5c4e bc3d 171b c6bd 5444 1d3d a5f2 ac3d
00000180: cd67 373d c0ba 273d 1c9a fcbc b20a 893d
00000190: 4325 663d 92fc 39be add5 b93d 2d1c 843d
000001a0: 17a4 933d 086a feb9 6a53 563d 4d64 ebbd
000001b0: 74eb f9bc 76bd 353e 7502 72be bc39 97bd
000001c0: f652 ef3d 4b0c c1bd 62b6 78bd a867 7f3d
000001d0: 9473 203e 9e25 3f3e 2226 4c3e 3512 e9bc
000001e0: cd56 a0bd 0936 0dbd c8b4 eabd 1b34 6e3d
000001f0: ea5b d93d dc41 1bbe ad38 8dbe 24b4 65bd
00000200: cfe4 aebc ab05 a93d c1d2 4cbd 9a25 0d3d
00000210: 6551 e73d 90d1 e3bd 9e44 143d c5cc 03bd
00000220: a0b3 703e 08c1 a8bd 38eb 09be e4db b63d
00000230: 8f18 03be a168 113e 217e 983d 93ed d63c
00000240: 9545 e6bc c613 233e 7d09 74bd a5b9 433e
00000250: 7948 3cbe 9aac 64bc c543 25ba 5c5a 02bd
00000260: feb3 0c3e 8874 f7bd 917f d93d 8122 7d3d
00000270: fa78 43be e68b 1dbc 9519 263d 4fb7 b5bd
00000280: e68e 953d 3da5 39be 24f9 2d3d ff30 5f3d
00000290: 04da 0dbe 109c d23d 3110 0abe 3a92 bebc
000002a0: abeb 1ebe 2684 733d 6699 abbb 7152 66bc
000002b0: 838b 0bbe 0d40 b1bc eb35 ebbd ff5a 203e
000002c0: e17f 82be b380 8fbd b259 173e 7ec5 08be
000002d0: 71ab e8bd 0359 d0bd 2641 043c 7bd8 903e
000002e0: 3c16 8f3e de8f 133d 07cd 863e e1fc b0bd
000002f0: d7f4 573d 105c 2ebe 2a55 71bd a771 9fbd
00000300: a79b e53d 7466 7d3e 2e51 c03d 3bca 0e3d
00000310: dc55 81be 2f66 213d 664c 82bd 6b47 223e
00000320: cb48 08be 3c03 853d 8fc8 a6bd f965 02be
00000330: 89a1 a73d 0f95 6ebe 2ebc 3d3d 4d90 843d
00000340: 1a8f ebbd d3b2 b9bd 0278 9cbd 0d7b f83c
00000350: c9f5 ca3b 3250 05bd 650c f33d 540c b5bd
00000360: 2c24 4bbc de5a 733d 8176 723c b9f6 25bd
00000370: 213b 1ebe 0a64 773d dffa f7bd ccc7 53bd
00000380: b986 953d 6ca1 47be 39c9 26be 213b 273d
00000390: 8715 fe3d 6fab a1bd 3264 e73d 154c 343c
000003a0: 1939 813a 4c85 3c3e 9d28 1a3e e468 93bd
000003b0: aea1 0cbe ad6a 7fbe 2ab7 083e fb2f b93d
000003c0: 5e7f 063e 19a0 a43d ef6b 593e ac9f 093e
000003d0: 15ad 823d bde7 173c 69d9 1ebb dac4 0e3e
000003e0: 3c6d 3cbd 43a1 90bc 3d43 613c 86ae 1dbd
000003f0: 8918 c23d d525 7e3c 1ff8 903e 5651 813d

rnn.weight_hh_l0_reverse f4 [32, 32]
0.122086845 -0.060679633 -0.43623295 0.21693532 0.17559205 -0.11587789 -0.47748736 -0.34846756
-0.26849273 -0.017282525 -0.03001998 -0.073896185 0.09249453 -0.06677384 0.16162819 0.01576044
-0.23610662 0.14534032 0.26104113 0.030696841 -0.027140625 0.17438397 0.03659123 0.27678388
-0.02665219 0.038695488 0.06338044 0.11695021 0.44278148 0.26624396 -0.17471121 0.06680133
0.05125286 0.3198317 0.12282562 0.18259141 -0.05525958 0.067292616 -0.05442189 0.2369286
0.18476577 -0.13822182 0.099032365 0.12571174 0.035305765 0.07246558 -0.21590441 -0.3439217
0.29200134 -0.09087783 -0.25328842 0.014721913 -0.13250746 -0.33086187 0.0656976 -0.2732551
0.014564637 -0.16310309 0.23574215 0.3839585 0.0075743855 0.12140541 -0.17606135 0.003487993
0.17880407 -0.0020593663 0.08912699 -0.005694021 -0.16318235 -0.031374317 -0.29913646 -0.12935518
-0.24511608 0.13337252 0.0860853 -0.18866616 -0.14843222 -0.17346016 -0.11350459 -0.009059297
0.055017997 0.049292106 -0.21261236 -0.13776162 0.19638234 0.097849205 -0.07834725 -0.029260417
-0.049152117 0.19254072 -0.08277489 -0.040358648 0.057294223 -0.08460662 0.050296098 -0.078587234
-0.05683144 -0.22342418 0.35435498 0.29078043 0.16791297 -0.17470355 0.23567514 0.09892224
-0.109198354 0.07149502 -0.072687164 0.22208764 -2.2101809e-05 0.12920271 -0.10302314 0.0055060727
-0.23964699 0.29947746 -0.26416686 -0.3198953 0.045512423 -0.22821236 -0.07802005 0.08880471
0.039756548 -0.26424557 0.034551695 0.124084614 0.13358991 -0.053548582 -0.042141493 0.022205457
0.09683596 -0.18172526 0.5602626 0.16626525 0.06176035 -0.12842627 0.37477586 0.017092435
0.12916383 -0.14164889 0.15575705 0.23020928 0.074846424 -0.34583408 -0.24006088 -0.062028766
-0.12033695 -0.14622001 -0.12756278 -0.3028555 0.042601395 0.049847327 -0.16968027 0.079463184
0.34834397 -0.6258558 0.080706894 0.044151526 -0.056490157 -0.2137969 -0.26759315 -0.0057243546
0.05354817 -0.055017628 0.08629101 -0.09481586 0.2586398 -0.11292533 0.07923901 0.007960239
0.15743226 0.060677152 0.0023313782 0.09945625 -0.036141135 0.22980669 -0.004331051 -0.29042983
0.20573004 -0.1602847 -0.3614465 0.04734183 0.0010526045 -0.1445185 0.17844522 -0.28197083
-0.043379832 0.28000662 0.22383992 0.20548414 -0.2389673 0.2137559 -0.009374516 -0.31934246
-0.15109254 -0.16246791 -0.10497235 -0.025816604 -0.07478009 -0.31443653 0.3228807 -0.042349193
-0.1112738 -0.2772758 -0.077628486 -0.07726431 -0.0679771 -0.05606973 -0.15041965 -0.008233784
-0.26421735 -0.13980442 0.3250192 0.12372349 0.053375162 0.19434096 -0.18284412 0.05236202
0.38606054 -0.42086133 -0.2950106 0.021176074 0.064647734 0.0020765509 0.35452682 0.3323396
-0.18259323 -0.033439986 -0.18303423 0.12572652 -0.18186568 -0.06485152 -0.10904153 -0.08434381
-0.17433865 0.068678536 -0.02504051 -0.0784539 -0.0722342 0.021003706 -0.010102973 -0.19787318
0.23497164 -0.095105365 0.058825087 0.0015013093 0.057244133 -0.06609843 0.0857001 0.08714097
-0.16298804 -0.14485808 0.27095294 -0.086615875 0.11534825 -0.16277762 -0.1350558 0.22320145
00000000: ab08 fa3d 358b 78bd ed59 dfbe 4b24 5e3e
00000010: 67ce 333e 6351 edbd 3979 f4be 576a b2be
00000020: e177 89be 1594 8dbc 76ec f5bc e256 97bd
00000030: c66d bd3d b9c0 88bd dc81 253e 0a1c 813c
00000040: efc5 71be 18d4 143e 2fa7 853e f177 fb3c
00000050: 0456 debc b691 323e b0e0 153d 9eb6 8d3e
00000060: b255 dabc 297f 1e3d 9bcd 813d 9783 ef3d
00000070: 41b4 e23e 2151 883e 7fe7 32be 23cf 883d
00000080: 85ee 513d fbc0 a33e 008c fb3d 3ef9 3a3e
00000090: df57 62bd b6d0 893d 7de9 5ebd 699d 723e
000000a0: 3d33 3d3e 058a 0dbe 7bd1 ca3d 94ba 003e
000000b0: c79c 103d d668 943d 0c16 5dbe 8116 b0be
000000c0: 3381 953e 281e babd 05af 81be 2e34 713c
000000d0: 09b0 07be ba66 a9be 778c 863d 18e8 8bbe
000000e0: 84a0 6e3c 7f04 27be 6466 713e 3596 c43e
000000f0: 8d32 f83b 66a3 f83d 6d49 34be d096 643b
00000100: 6a18 373e 6ff6 06bb 3688 b63d e994 babb
00000110: 4619 27be 5b82 00bd 6a28 99be af75 04be
00000120: b6ff 7abe ce92 083e 7d4d b03d b431 41be
00000130: 9efe 17be 8a9f 31be 1875 e8bd 726d 14bc
00000140: 8d5a 613d 85e6 493d 0eb7 59be 6211 0dbe
00000150: 7418 493e 2a65 c83d 8674 a0bd 8bb3 efbc
00000160: bb53 49bd 6529 453e e285 a9bd 1c4f 25bd
00000170: 59ad 6a3d 3c46 adbd 4803 4e3d 58f2 a0bd
00000180: 16c8 68bd 4fc9 64be 046e b53e 2ce1 943e
00000190: 61f1 2b3e 7de5 32be d354 713e be97 ca3d
000001a0: 63a3 dfbd fb6b 923d 02dd 94bd f16a 633e
000001b0: 4667 b9b7 b74d 043e ccfd d2bd 496c b43b
000001c0: 0566 75be 1c55 993e e140 87be 51c9 a3be
000001d0: 3c6b 3a3d 80b0 69be fac8 9fbd 3edf b53d
000001e0: c3d7 223d 324b 87be 1486 0d3d 1320 fe3d
000001f0: cbcb 083e c255 5bbd 8f9c 2cbd 38e8 b53c
00000200: ef51 c63d 3016 3abe 5f6d 0f3f 7041 2a3e
00000210: 6cf8 7c3d 2d82 03be 9fe2 bf3e 6f05 8c3c
00000220: 8643 043e 680c 11be c77e 1f3e fbbb 6b3e
00000230: 1549 993d 2a11 b1be 85d2 75be e011 7ebd
00000240: 3873 f6bd b3ba 15be d19f 02be e00f 9bbe
00000250: cd7e 2e3d b62c 4c3d aac0 2dbe 98bd a23d
00000260: 245a b23e 1638 20bf a849 a53d 3bd8 343d
00000270: 3962 67bd 93ed 5abe f801 89be 5e93 bbbb
00000280: 5355 5b3d 2a5a 61bd 57b9 b03d d12e c2bd
00000290: 706c 843e 6545 e7bd 1048 a23d aa6b 023c
000002a0: ec35 213e 9b88 783d 09ca 183b b8af cb3d
000002b0: ba08 14bd 7252 6b3e 7deb 8dbb 38b3 94be
000002c0: e5aa 523e ac21 24be 840f b9be 82e9 413d
000002d0: 8cf7 893a a8fc 13be 58ba 363e 7b5e 90be
000002e0: 0daf 31bd 075d 8f3e 4b36 653e 6f6a 523e
000002f0: d8b3 74be d4e2 5a3e 9297 19bc db80 a3be
00000300: 01b8 1abe fd5d 26be befb d6bd 587d d3bc
00000310: 4e26 99bd d3fd a0be 9e50 a53e 5976 2dbd
00000320: 85e3 e3bd 18f7 8dbe affb 9ebd c03c 9ebd
00000330: 9437 8bbd 60a9 65bd 9c07 1abe fee6 06bc
00000340: 7f47 87be e428 0fbe eb68 a63e be62 fd3d
00000350: ea9f 5a3d 5101 473e 7d3b 3bbe 8f79 563d
00000360: baa9 c53e 237b d7be a10b 97be 7279 ad3c
00000370: 0866 843d be16 083b 8a84 b53e 6b28 aa3e
00000380: b8f9 3abe 5ef8 08bd 536d 3bbe 74be 003e
00000390: ff3a 3abe e0d0 84bd 2a51 dfbd 73bc acbd
000003a0: d585 32be 55a7 8c3d c121 cdbc 70ac a0bd
000003b0: 86ef 93bd f70f ac3c f186 25bc 449f 4abe
000003c0: 689c 703e 9ac6 c2bd 93f2 703d 95c7 c43a
000003d0: d378 6a3d 9d5e 87bd 8983 af3d f776 b23d
000003e0: 56e6 26be ad55 14be 58ba 8a3e aa63 b1bd
000003f0: b43b ec3d 2daf 26be 114c 0abe ec8e 643e

rnn.bias_ih_l0_reverse f4 [32]
0.023522044 0.04045564 0.074661046 -0.18555903 -0.12697777 0.11116991 0.12883957 -0.030611293
-0.16157416 -0.23618399 0.12780719 0.027221974 0.21342102 0.0502456 0.03154207 0.16564147
-0.22528052 -0.024958633 0.011329223 0.015419517 -0.00062195794 0.06385509 -0.0006408748 -0.042222872
0.15446526 -0.1349995 0.105583906 -0.18543679 0.0543906 -0.25176322 -0.030768827 0.026803587
00000000: 4db1 c03c d0b4 253d e4e7 983d 3003 3ebe
00000010: 7606 02be 0dad e33d 85ee 033e 89c4 fabc
00000020: b273 25be 37da 71be e3df 023e 9e00 df3c
00000030: 0a8b 5a3e 55ce 4d3d 4232 013d eb9d 293e
00000040: f0af 66be 0c76 ccbc 359e 393c 24a2 7c3c
00000050: e40a 23ba 75c6 823d 6100 28ba e4f1 2cbd
00000060: 242c 1e3e 4f3d 0abe 603c d83d 24e3 3dbe
00000070: aec8 5e3d 1ce7 80be e80e fcbc 3293 db3c

rnn.bias_hh_l0_reverse f4 [32]
0.082927026 -0.22754925 -0.060755182 0.010599312 0.06870996 -0.13086341 -0.03581869 -0.090660855
0.089441545 -0.022828443 -0.083013214 -0.02259128 -0.10329784 -0.1774432 -0.20092945 0.12602088
-0.011184798 0.1926189 0.030390829 0.034920465 0.10906224 0.18115416 -0.14648439 -0.056228112
0.1426745 -0.12489112 0.078682296 0.078573 -0.15914592 -0.07623341 0.12006273 0.1713678
00000000: a5d5 a93d ac02 69be 6dda 78bd bda8 2d3c
00000010: cfb7 8c3d 0f01 06be 9eb6 12bd 66ac b9bd
00000020: 212d b73d b702 bbbc d502 aabd 5911 b9bc
00000030: d18d d3bd acb3 35be 73c0 4dbe 9e0b 013e
00000040: 7140 37bc e43d 453e 30f6 f83c c308 0f3d
00000050: 065c df3d 7a80 393e 0100 16be 734f 66bd
00000060: 4419 123e eac6 ffbd 2f24 a13d e2ea a03d
00000070: 26f7 22be 4320 9cbd 73e3 f53d 0a7b 2f3e

fc1.weight f4 [12, 64]
-0.07282228 -0.19525552 0.31156793 0.30387545 0.32068855 0.014107499 -0.098752365 0.24764012
0.07562385 0.25845194 0.12042943 0.22724977 0.35805747 -0.22422226 -0.4114363 -0.2656429
-0.07966827 0.093469284 -0.12776224 0.09022103 0.61623603 -0.42526594 0.4429765 -0.39004683
-0.06031792 -0.095481366 0.21100493 0.45239022 -0.6175043 -0.37584648 0.3889418 0.3984257
0.34393936 -0.37937036 -0.11737554 -0.38802657 -0.48760244 -0.29349843 0.016340291 -0.22251017
-0.3229514 0.34749568 0.4936651 -0.3133762 0.42537913 -0.095265724 0.1712438 -0.07957012
-0.08475699 0.46703294 -0.10107885 0.15444976 0.36524075 0.050622553 -0.26431763 0.24830349
-0.22116993 0.19835432 -0.13257733 -0.25522673 0.26838946 -0.32452595 0.3020911 0.37002888
-0.8560962 -0.19496061 -0.92353743 -1.1570612 -0.24606884 0.55390143 -0.24347298 0.07514774
-1.022911 -1.1717303 -0.06297789 0.12371406 -1.3283441 0.38792908 0.6105041 0.43527833
0.6585085 0.6253347 0.8271352 0.3746146 -0.84227675 -0.25448185 -0.21272539 0.09599597
0.30790687 0.23267435 -0.35987958 -0.9241716 0.22141108 -0.41473317 -0.96305126 0.55044156
0.17375861 0.74236035 0.6445746 -0.41459844 -0.5560307 -0.7478641 -0.36580688 1.3872308
-0.269744 -0.6006804 0.36219946 -0.43652797 0.33623084 -0.5113148 -0.56284326 -0.6766916
-0.2937869 -0.66800153 -0.77536494 -0.11356527 -1.1106832 0.9695858 -0.14442551 0.42962316
-0.06741668 0.59467876 -0.7111991 -0.11694352 -0.4668752 -0.17594707 0.8812285 0.31858715
0.7782991 0.0045103305 0.9489341 -0.9258354 0.45580393 0.27062184 0.0011775164 -0.3523279
-1.0035028 0.077768095 -0.7994768 -1.153746 -0.9590129 0.08929334 0.4081442 0.09398518
0.39119163 -0.029150266 0.21846113 0.9051326 -0.28930345 -0.42731664 -0.8372953 0.37517375
0.2571755 0.27600455 0.39924273 -1.0281568 0.25659236 -0.31402764 -0.49149677 0.29366496
0.020319548 -0.47785103 0.6350984 -0.060310636 0.5796819 0.6698211 0.0028547547 1.0828028
0.48406217 0.2959172 -0.07990541 1.0756085 -0.002392176 0.073003925 -0.4378698 1.0510137
-0.22753584 0.20700394 0.09942849 -0.06779781 0.39977753 0.048585374 1.0487764 0.37745327
1.4547373 -0.9230239 0.66378796 -0.3001819 -0.15412195 0.6616999 0.58638394 0.20865254
-0.71673894 1.0806035 0.41838264 0.036634088 -0.29651484 0.73444176 0.18897308 0.9491231
-0.7336278 -0.6133691 0.32910573 -0.18943162 -0.76362294 -0.33689705 -0.08016126 0.85861284
-0.5044384 0.044237096 0.20164749 -0.05094133 -0.45415595 0.6956734 -0.64368385 0.38741106
0.68324554 0.24334598 0.32457784 0.2088542 -0.04887443 1.0308367 0.14872698 -0.40684974
0.1108747 -0.4776201 0.74075454 0.820506 0.65646785 -0.41975856 -0.13909537 1.1241412
0.6522271 0.07217095 -0.78188044 0.72854114 0.12560591 0.68059903 -0.17299625 0.61499465
-0.24086334 0.33138964 -0.08608106 -0.69697547 -0.3550987 -0.19616447 -0.061586082 -0.06635334
0.34387776 -0.70258343 0.0037842079 0.44522375 0.23321863 0.6547579 0.29095373 -0.47625178
00000000: d923 95bd 10f1 47be d585 9f3e 9095 9b3e
00000010: 4a31 a43e 2423 673c ae3e cabd 5f95 7d3e
00000020: ade0 9a3d d053 843e b4a3 f63d 2ab4 683e
00000030: 4f53 b73e 859a 65be c7a7 d2be 5902 88be
00000040: 1e29 a3bd d36c bf3d 1bd4 02be cec5 b83d
00000050: a5c1 1d3f 75bc d9be d1cd e23e 38b4 c7be
00000060: ec0f 77bd bc8b c3bd ad11 583e b19f e73e
00000070: c314 1ebf f36e c0be 6123 c73e 74fe cb3e
00000080: d218 b03e d53c c2be 9662 f0bd 6bab c6be
00000090: 07a7 f9be 6d45 96be 13dc 853c b5d9 63be
000000a0: e359 a5be f4ea b13e acc1 fc3e d872 a0be
000000b0: 4bcb d93e ad1a c3bd 895a 2f3e a9f5 a2bd
000000c0: 1395 adbd f11e ef3e 6e02 cfbd 1428 1e3e
000000d0: d600 bb3e 9859 4f3d a454 87be 4543 7e3e
000000e0: 5f7a 62be 651d 4b3e 5ac2 07be 14ad 82be
000000f0: 586a 893e 4428 a6be afab 9a3e 6d74 bd3e
00000100: 1f29 5bbf c1a3 47be f36c 6cbf 951a 94bf
00000110: 78f9 7bbe 7ccc 0d3f fb50 79be 0fe7 993d
00000120: bfee 82bf 42fb 95bf 8dfa 80bd cc5d fd3d
00000130: 2e07 aabf a49e c63e ff49 1c3f cddc de3e
00000140: 0394 283f ef15 203f 22bf 533f 7ccd bf3e
00000150: 739f 57bf 724b 82be afd4 59be 8999 c43d
00000160: f8a5 9d3e 2f42 6e3e 2342 b8be 8396 6cbf
00000170: 96b9 623e e857 d4be 878a 76bf bde9 0c3f
00000180: c7ed 313e 540b 3e3f d702 253f 3f46 d4be
00000190: 0758 0ebf 0674 3fbf 0a4b bbbe c790 b13f
000001a0: e31b 8abe 31c6 19bf 3572 b93e 9880 dfbe
000001b0: 7326 ac3e 87e5 02bf 7f16 10bf a93b 2dbf
000001c0: 3d6b 96be 2602 2bbf 517e 46bf e994 e8bd
000001d0: de2a 8ebf c636 783f 48e4 13be 91f7 db3e
000001e0: c211 8abd de3c 183f 2511 36bf 1680 efbd
000001f0: 440a efbe 782b 34be 3198 613f db1d a33e
00000200: 9c3e 473f 65cb 933b 58ed 723f 8c03 6dbf
00000210: 225f e93e f28e 8a3e e556 9a3a 5364 b4be
00000220: c872 80bf e144 9f3d 83aa 4cbf f3ad 93bf
00000230: df81 75bf 6ddf b63d 47f8 d03e 4d7b c03d
00000240: 454a c83e 8acc eebc 46b4 5f3e c5b6 673f
00000250: 951f 94be 3fc9 dabe fc58 56bf c616 c03e
00000260: 82ac 833e 7850 8d3e 8b69 cc3e a49a 83bf
00000270: 1360 833e 3bc8 a0be 77a5 fbbe 415b 963e
00000280: 2e75 a63c e4a8 f4be cf95 223f 4908 77bd
00000290: 0866 143f 6579 2b3f d616 3b3b 4899 8a3f
000002a0: ffd6 f73e 7682 973e 73a5 a3bd 8aad 893f
000002b0: 0ec6 1cbb 1583 953d 7830 e0be 9e87 863f
000002c0: 28ff 68be d7f8 533e 2aa1 cb3d 94d9 8abd
000002d0: a4af cc3e 7501 473d 4e3e 863f 8e41 c13e
000002e0: d534 ba3f 4b4b 6cbf 02ee 293f 71b1 99be
000002f0: 25d2 1dbe 2a65 293f 421d 163f 03a9 553e
00000300: 347c 37bf 3751 8a3f 4036 d63e a00d 163d
00000310: cbd0 97be 6004 3c3f 2982 413e bbf9 723f
00000320: 08cf 3bbf c205 1dbf 8c80 a83e 5dfa 41be
00000330: cb7c 43bf c57d acbe 962b a4bd 0dce 5b3f
00000340: e022 01bf f531 353d ae7c 4e3e dba7 50bd
00000350: 2187 e8be a717 323f 77c8 24bf be5a c63e
00000360: 2ee9 2e3f b02f 793e 112f a63e e0dd 553e
00000370: 8e30 48bd 75f2 833f e34b 183e 9c4e d0be
00000380: 4612 e33d 9f8a f4be 17a2 3d3f ae0c 523f
00000390: 470e 283f 98ea d6be 046f 0ebe dce3 8f3f
000003a0: 5bf8 263f 5dce 933d 5129 48bf ac81 3a3f
000003b0: d69e 003e bd3b 2e3f ee25 31be 4a70 1d3f
000003c0: e1a4 76be e7ab a93e 444b b0bd fc6c 32bf
000003d0: 7fcf b5be 57df 48be b041 7cbd 43e4 87bd
000003e0: bf10 b03e 82dc 33bf 7900 783b 5ef4 e33e
000003f0: ddd0 6e3e 379e 273f e3f7 943e 46d7 f3be

fc1.bias f4 [12]
-0.028631857 0.013064635 -0.49983665 -0.50887877 -0.27137974 0.051529706 -0.19214045 -0.4360475
0.08154083 -0.18724447 0.0534476 -0.11449285
00000000: 5b8d eabc 0d0d 563c 97ea ffbe e145 02bf
00000010: 49f2 8abe d010 533d 77c0 44be 9e41 dfbe
00000020: e1fe a63d 04bd 3fbe dfeb 5a3d 3a7b eabd
