src/src_learner/java_finetuning_model.pt (torch, 103364 bytes, 11 tensors)

word_embeddings.weight f4 [109, 128]
0	0xbfad7692	-1.355181
1	0xbf5ef340	-0.8708992
2	0xbf14e2d1	-0.58158594
3	0xbfd30bb3	-1.6487945
4	0xbe9966e1	-0.29961303
5	0xbf297def	-0.66207784
6	0xbf60fe1c	-0.8788774
7	0xbfbf4f37	-1.494605
8	0xbf58a0ff	-0.8462066
9	0x3e990496	0.2988631
10	0xbf29408f	-0.66114134
11	0xbed2d814	-0.4118048
12	0xbec638cc	-0.38715208
13	0x3fdca51e	1.723789
14	0x3e5297b7	0.20565687
15	0x3ef7073b	0.48247704
16	0xbf0a0d9f	-0.53927034
17	0xbf9515eb	-1.1647314
18	0x3f4e91c5	0.80691177
19	0x3df36b77	0.11885732
20	0x3f613a4d	0.87979585
21	0x3e04a0a8	0.1295191
22	0xbf30d5a3	-0.69075984
23	0x3f2262c7	0.6343197
24	0x3f69ab79	0.9127727
25	0xbe56f515	-0.20991929
26	0xc0153812	-2.3315473
27	0xbfca0178	-1.5781698
28	0x3e0a92f2	0.13532618
29	0xbf1c0ea8	-0.60959864
30	0xbf844f5e	-1.0336721
31	0xbdf55807	-0.119796805
32	0x3feea8fe	1.8645322
33	0x3c8888d0	0.0166668
34	0xbc2bd629	-0.0104880715
35	0xbf2e510c	-0.6809242
36	0x3ee6beb9	0.45067385
37	0x3de04931	0.1095146
38	0x3e0c0c4c	0.13676566
39	0xbf0f319c	-0.5593507
40	0xbbe328aa	-0.006932338
41	0x3e018bae	0.1265094
42	0xbe9ceef8	-0.3065107
43	0x3d2656a6	0.04060998
44	0x4016892c	2.3521223
45	0xbf548ead	-0.83030206
46	0x3fd79bd6	1.6844432
47	0xbf1b89d5	-0.6075719
48	0xbf83fa32	-1.0310729
49	0x3f52ceb5	0.8234666
50	0xbe335e9a	-0.17516556
51	0xbf22fce8	-0.63667154
52	0x3f502bb0	0.8131666
53	0x3f2d2eb1	0.6764937
54	0x3f9f5361	1.244732
55	0x3fec24bb	1.8448709
56	0x3c164f09	0.009174117
57	0x3f697dc5	0.91207534
58	0xbec398f9	-0.38202646
59	0xbf272a2f	-0.6529874
60	0x3fc42ce5	1.5326201
61	0xbf194476	-0.5987009
62	0xc05a1dad	-3.4080613
63	0xbf48f77f	-0.7850265
64	0xbde3ecfd	-0.11129186
65	0xbf8fe7fd	-1.1242672
66	0xbf3e78d7	-0.74403137
67	0xbf91bdda	-1.1386063
68	0xbd5c9e88	-0.053862125
69	0xbd354c49	-0.044262204
70	0x3fd09b99	1.6297485
71	0xbdf4d64a	-0.11954935
72	0xbf42873a	-0.7598759
73	0xbdca32f4	-0.09873
74	0xbf870e79	-1.0551292
75	0xbf6b13e6	-0.9182724
76	0xbebd1aad	-0.36934415
77	0xbf2455ae	-0.64193237
78	0x3f10d103	0.56568927
79	0xbf8efb81	-1.1170503
80	0xbe82b20c	-0.25526464
81	0x3e8c5b83	0.27413568
82	0xbefaa27d	-0.48952094
83	0x3f43d2d6	0.76493585
84	0xbfb32b9a	-1.3997681
85	0xbef1ea0e	-0.47248882
86	0x3e2ff64f	0.17183803
87	0xbe9eed43	-0.3104039
88	0x3e34f883	0.17672925
89	0xbed18b94	-0.40926802
90	0xbf8db159	-1.1069747
91	0x3f28798b	0.6581046
92	0xbf800be7	-1.0003632
93	0xbf14f4b1	-0.5818587
94	0x3f1536b5	0.582866
95	0x3ffee562	1.9913752
96	0x3f242c03	0.64129657
97	0x3fa6ae26	1.3021896
98	0x3f686422	0.9077779
99	0xbf6b876c	-0.9200351
100	0x3fc039c3	1.5017627
101	0xbf508461	-0.81451994
102	0xbf9202d3	-1.1407112
103	0x3f8e6489	1.1124431
104	0x3fb2ccfd	1.3968807
105	0x3eb635a0	0.35587788
106	0xbe64fb88	-0.22361577
107	0x3d0f681f	0.035011407
108	0xc00942ba	-2.1446977
109	0xbefede42	-0.49778944
110	0xbfd4bd81	-1.6620332
111	0xbf8c2eb8	-1.0951757
112	0x3f563cbf	0.8368644
113	0xbf0dd227	-0.5539879
114	0x3f9f8f9c	1.2465701
115	0x3f1be0bf	0.6088981
116	0x3e9dbca7	0.30807993
117	0x3eb79847	0.35858366
118	0x3f003ef1	0.5009604
119	0xbf15cdbc	-0.5851705
120	0x4025da93	2.5914657
121	0xbe3b8bb4	-0.18315011
122	0xbd97d9b7	-0.07414573
123	0x3ffd3302	1.9781191
124	0xbff4eddf	-1.9135092
125	0x3fd0c3db	1.630977
126	0xbcd2afbf	-0.025718568
127	0x3ed71c45	0.42013755
128	0x3f365d86	0.71236455
129	0xbfe36497	-1.7765073
130	0x3eb52dbd	0.35386458
131	0x3f998ced	1.1996132
132	0xbe9b227a	-0.3029974
133	0xbfe18407	-1.7618417
134	0x3f22852d	0.6348446
135	0xbf4dea7a	-0.8043591
136	0xbfce38e9	-1.6111118
137	0xbfef9103	-1.8716129
138	0x3f0b0787	0.5430836
139	0x3f29223c	0.6606786
140	0x4012e4bf	2.2952116
141	0x3f2cc6a3	0.67490596
142	0x3fdb4e1f	1.7133216
143	0xbfe5aac0	-1.7942734
144	0xbfae7f8a	-1.3632672
145	0xbf7bb448	-0.9832196
146	0x3fc17130	1.5112667
147	0x3f2451a4	0.64187074
148	0x3ef22850	0.4729638
149	0xbedb7029	-0.4285901
150	0x3f0d26a2	0.55137074
151	0xbfc61040	-1.5473709
152	0x3f04a2ff	0.5181121
153	0x3dda2f35	0.10653535
154	0x3e89d9ed	0.26924077
155	0x3fa991ff	1.324768
156	0x3fdf7d8e	1.7460191
157	0x3fed6fa0	1.854969
158	0xbf34d49b	-0.7063691
159	0x4023a74d	2.5570862
160	0x3ed5c70e	0.4175343
161	0xbe59d2e8	-0.2127186
162	0xbf57077d	-0.839958
163	0xbed70c95	-0.42001787
164	0xbf1fc0d8	-0.6240363
165	0xbf7a3014	-0.9772961
166	0x3f5ff5b3	0.8748428
167	0x3f7cbe79	0.9872814
168	0x3e9e80ca	0.30957633
169	0x3fc2a5f8	1.52069
170	0x3f9a451b	1.2052339
171	0xbfe86549	-1.815591
172	0xbece9283	-0.40346155
173	0xbf758a8a	-0.9591452
174	0xbbaaa563	-0.005207704
175	0xbda182ff	-0.07886314
176	0x3f57f9ba	0.8436543
177	0x3f9535b3	1.1657013
178	0x3f06e507	0.5269322
179	0x3fcf43b1	1.6192533
180	0xbf76c726	-0.96397626
181	0x3e10eab8	0.14152038
182	0xbe2796bd	-0.16366096
183	0xbeb768f3	-0.35822257
184	0x3fdc73a6	1.7222793
185	0xbe9b6e43	-0.3035756
186	0x3e749b70	0.2388742
187	0x3fac083b	1.3440012
188	0x3dd367fe	0.10322569
189	0x3f8cd868	1.1003542
190	0xbeaef0b5	-0.3416802
191	0x3f7284cd	0.9473389
192	0xbf118a43	-0.56851596
193	0x3f566cb4	0.8375962
194	0x3fe44efe	1.7836607
195	0xbe481d67	-0.19542466
196	0x3f03d18b	0.5149161
197	0xbfec7a25	-1.8474776
198	0xc03aabe9	-2.9167426
199	0xbf113c88	-0.5673299
200	0xbf0a9157	-0.5412802
201	0x3f652a20	0.895174
202	0xbf61ebfb	-0.882507
203	0x3f0824c8	0.53181124
204	0xbfc5dc07	-1.5457772
205	0xbe317582	-0.17329982
206	0x3f3a6e5a	0.72824633
207	0x3d69b8d1	0.05706102
208	0x3f67cffa	0.9055172
209	0x3f85ecfd	1.0462948
210	0xbf0545d8	-0.520597
211	0x3fad698e	1.3547838
212	0x3e70d678	0.23519313
213	0x3ff505ed	1.9142433
214	0x3feb0f85	1.8364111
215	0x3fa98a47	1.3245324
216	0xbf7810fc	-0.96900916
217	0x3fa0359f	1.2516364
218	0x3f9aebe7	1.2103242
219	0xbf0725ce	-0.5279206
220	0x3e5fcfce	0.21856615
221	0xbf1305cd	-0.57430726
222	0x3fba8313	1.4571251
223	0x3fe2aead	1.7709557
224	0x3fd33060	1.6499138
225	0xbedd2fb4	-0.43200457
226	0xbe8ac40a	-0.2710269
227	0xbfb8367b	-1.4391626
228	0x3f9f9f05	1.2470404
229	0x3fa30d8e	1.2738512
230	0x3ec82a80	0.39094925
231	0x3ec64074	0.3872105
232	0xbda37d3d	-0.07982872
233	0x3eaef67d	0.3417243
234	0x3f72e659	0.9488273
235	0xbfb124d0	-1.3839359
236	0x3fdcaedc	1.7240863
237	0xc0175850	-2.3647652
238	0xbf6df31e	-0.9294909
239	0x3e96560e	0.2936253
240	0x3e5c4b92	0.21513203
241	0x3f703f28	0.9384637
242	0x3fbb9c4f	1.4657077
243	0xbf0e751b	-0.5564744
244	0xbf3eade3	-0.7448408
245	0xbe4f024d	-0.20215721
246	0xbe6b2e10	-0.2296679
247	0x3aae803e	0.0013313366
248	0x3ec0242a	0.3752759
249	0xbf14c0de	-0.5810679
250	0xbf1282d5	-0.57230884
251	0x3f813e6c	1.0097175
252	0xbdd85eb5	-0.10564939
253	0xbf970047	-1.179696
254	0xbdb9eaa7	-0.090779595
255	0x3f102843	0.56311435

rnn.weight_ih_l0 f4 [32, 128]
0	0xbe123e8a	-0.1428167
1	0xbe0d9448	-0.13826096
2	0xbd91bec3	-0.07116463
3	0x3e4e8963	0.20169596
4	0xbdd6e1e0	-0.10492301
5	0x3d10b965	0.035333056
6	0x3de46ffe	0.11154173
7	0x3e53a631	0.20668866
8	0x3d6ed724	0.058310643
9	0x3e2c79c8	0.16843331
10	0x3d70941e	0.058735006
11	0x3dd0be60	0.10192561
12	0xbe054126	-0.13013133
13	0x3d886ebc	0.06661746
14	0x3e4e6415	0.20155366
15	0x3b361857	0.0027785504
16	0x3c6fcde3	0.01463649
17	0x3e3a4074	0.1818865
18	0xbd651ef7	-0.055937734
19	0x3e61e01c	0.22058147
20	0x3daad2ba	0.08340974
21	0xbd0bf930	-0.03417319
22	0x3de1445d	0.109993674
23	0x3e3c1e6b	0.18370979
24	0xbe52160c	-0.20516223
25	0x3e308269	0.17237248
26	0x3ae5480c	0.0017492785
27	0xbe09e5c9	-0.13466562
28	0x3dbec45d	0.09314797
29	0x3e028f40	0.12749958
30	0xbe617005	-0.22015388
31	0xbd833e80	-0.06408405
32	0x3aef6c03	0.0018266443
33	0xbc0d541c	-0.00862601
34	0x3e276e08	0.16350567
35	0xbe04bf66	-0.12963638
36	0xbe11ff7f	-0.1425762
37	0xbd6203b6	-0.05517932
38	0x3e243d7b	0.16039078
39	0x3c8e51ba	0.017372955
40	0xbcc03640	-0.023463368
41	0x3e85dd44	0.26145375
42	0x3d982a9f	0.07430004
43	0xbe356e7f	-0.17717932
44	0xbe4fb880	-0.20285225
45	0xbe280f4d	-0.16412087
46	0xbea16784	-0.3152429
47	0xbe36ba0d	-0.1784441
48	0xbe20c809	-0.15701307
49	0xbe5abd29	-0.21361221
50	0x3ea151df	0.31507775
51	0x3e0847d8	0.13308656
52	0x3dc3e6a8	0.095654786
53	0xbe05ec65	-0.13078459
54	0xbcb9c271	-0.022675725
55	0x3ded0834	0.1157383
56	0x3e3dcf82	0.18536189
57	0x3d8dff71	0.06933487
58	0x3cdd52d1	0.027017029
59	0xbe2e52ea	-0.17023817
60	0x3d6e58d9	0.0581902
61	0xbd82d454	-0.063881546
62	0x3df4680d	0.119339086
63	0xbdd373fa	-0.10324855
64	0xbdfd31db	-0.12363025
65	0xbd82720d	-0.0636941
66	0xbcf73456	-0.030176323
67	0xbdd00026	-0.10156278
68	0x3d7b3078	0.06132552
69	0x3e238df8	0.15972126
70	0x3e63c671	0.22243668
71	0xbbdac34f	-0.0066761146
72	0x3caf5d70	0.02140686
73	0x3dc04d25	0.09389714
74	0xbe5458b9	-0.2073697
75	0x3e080a8c	0.13285273
76	0xbd66258c	-0.05618815
77	0xbd99ed78	-0.07515997
78	0xbd4bebec	-0.04978554
79	0xbda2b657	-0.07944935
80	0x3dad6c0d	0.08467875
81	0x3e734015	0.23754914
82	0xbe0c3e76	-0.13695702
83	0x3c4c1282	0.0124555845
84	0x3e167b32	0.14695433
85	0x3e6b8eb8	0.23003662
86	0xbe5e57a4	-0.2171312
87	0x3c557e3a	0.013030583
88	0xbd01fdc9	-0.03173617
89	0xbe2d3259	-0.16913737
90	0xbd963fb8	-0.07336372
91	0x3d958e81	0.07302571
92	0x3c074750	0.008256748
93	0xbe45d619	-0.19319953
94	0xbd62ebb1	-0.055400554
95	0x3d7bec90	0.0615049
96	0x3beb44e5	0.0071798437
97	0xbda430df	-0.08017134
98	0xbe12dd9f	-0.14342354
99	0x3e949a89	0.2902415
100	0x3dd64944	0.10463193
101	0xbe4c8f4e	-0.19976541
102	0xbe0b1222	-0.13581136
103	0xbda58fff	-0.08084106
104	0x3dfc9207	0.1233254
105	0xbd0d2693	-0.034460615
106	0xbdae8fcf	-0.08523523
107	0x3ddda6a7	0.10822802
108	0xbc73fa82	-0.014891269
109	0x3e19b605	0.15010841
110	0xbd59333a	-0.05302737
111	0xbdeba389	-0.11505801
112	0xbd985ad8	-0.07439202
113	0xbc90b205	-0.017663011
114	0x3cda5fec	0.026657067
115	0x3c904781	0.01761222
116	0x3e0755d8	0.1321634
117	0x3dbba8d8	0.09163064
118	0xbe45b4de	-0.19307277
119	0xbdc54e9d	-0.09634135
120	0x3b06790d	0.002051893
121	0x3e0274b3	0.1273983
122	0xbe28319f	-0.16425179
123	0xbc77d06f	-0.015125378
124	0xbc8b0be6	-0.016973447
125	0x3d9392f3	0.07205763
126	0x3d490261	0.049074534
127	0xbdf99f9d	-0.12188647
128	0x3d0ef0e9	0.03489772
129	0xbe0b2820	-0.13589525
130	0xbd33df67	-0.043914225
131	0xbdfd84bf	-0.12378835
132	0x3dcdf3b2	0.10056247
133	0x3dd0a4c9	0.1018768
134	0x3ca52e4f	0.020163683
135	0xba1b8de1	-0.00059339224
136	0x3d1dc6a9	0.038519535
137	0xbe627d2f	-0.22118066
138	0x3cfeb156	0.03109042
139	0x3ddea83a	0.108719304
140	0x3e1cae4e	0.15300867
141	0x3de15c05	0.110038795
142	0xbdddd5dc	-0.10831806
143	0x3e1df399	0.15424956
144	0x3dc2dd33	0.09514847
145	0xbe2ee004	-0.17077643
146	0x3d9c932a	0.07645257
147	0x3c3010ed	0.010746223
148	0x3e438d0c	0.19096774
149	0xbe4e666e	-0.20156261
150	0x3e105e57	0.14098488
151	0x3e643285	0.22284897
152	0x3dcc6e47	0.09981971
153	0xbd645e4d	-0.055753995
154	0x3d8b3724	0.067976266
155	0x3e0bda72	0.13657549
156	0xbdd61e77	-0.104550295
157	0x3dd3aa3b	0.10335203
158	0x3d174085	0.036926765
159	0x3d42675d	0.047461856
160	0xbdcdac3b	-0.10042616
161	0xbd24731f	-0.04014885
162	0xbd5918b7	-0.053002086
163	0x3df8d073	0.121491335
164	0x3e19b9d3	0.15012293
165	0xbe6ff84a	-0.23434559
166	0x3d6460b1	0.055756275
167	0xbcfecb49	-0.031102793
168	0xbc8baec5	-0.01705111
169	0x3d62e483	0.055393707
170	0xbc99e4a4	-0.018785782
171	0x3d147748	0.036246568
172	0x3d2d521f	0.042314645
173	0xbc2ec61f	-0.010667353
174	0x3e0e1fcf	0.13879322
175	0xbe20a488	-0.15687764
176	0x3e65a9d5	0.22428067
177	0x3cc42e64	0.023947902
178	0x3d86ad81	0.06576062
179	0xbd4ac342	-0.04950262
180	0xbe103cc6	-0.14085683
181	0xbdb5a522	-0.08869387
182	0x3d674aaf	0.05646771
183	0xbdc07860	-0.0939796
184	0xbe28ee93	-0.16497259
185	0x3d06a936	0.032876216
186	0x3e0c6a5c	0.13712448
187	0x3e16277f	0.14663504
188	0x3d0befc5	0.03416421
189	0xbe47934c	-0.19489783
190	0x3e253f3d	0.16137405
191	0x3dd8c73d	0.10584877
192	0x3e4a836f	0.197767
193	0xbd9db06c	-0.076996654
194	0x3c87b445	0.016565451
195	0x3db3d70f	0.087812535
196	0x3dc06f8b	0.09396275
197	0xbe0a1828	-0.13485777
198	0xbdea8fb2	-0.11453189
199	0xba987c81	-0.0011633785
200	0x3e15a0e6	0.14612159
201	0xbcba6e25	-0.0227576
202	0x3dcd3ecf	0.100217454
203	0x3e528c84	0.20561415
204	0x3b1efa8c	0.0024258224
205	0xbe16dba4	-0.14732224
206	0xbd21e448	-0.039524347
207	0x3e0e96b6	0.13924679
208	0x3cb5cbc5	0.022191891
209	0xbe24c58f	-0.16090988
210	0xbccb8674	-0.024844386
211	0xbe8a41e0	-0.27003384
212	0xbe4ae304	-0.19813162
213	0xbe1c57a7	-0.15267812
214	0xbda20f18	-0.07913035
215	0x3e054090	0.1301291
216	0x3e3edcd1	0.18638922
217	0xbd8b8b49	-0.06813676
218	0x3aec62ba	0.0018034794
219	0x3e03be15	0.1286548
220	0x3d5238a0	0.051323533
221	0xbda03353	-0.07822289
222	0xbc785130	-0.015156075
223	0xbe0e08e4	-0.13870579
224	0x3c900fe7	0.017585708
225	0x3cbf6e3c	0.023367994
226	0x3e2b6750	0.1673863
227	0x3e876a80	0.2644844
228	0x3dd80917	0.10548609
229	0x3deca558	0.11554974
230	0xbd41a062	-0.047272094
231	0x3cd9df68	0.026595786
232	0xbd86ae03	-0.06576159
233	0x3e2d21f6	0.16907486
234	0x3d998d6c	0.07497677
235	0xbe8fa0a2	-0.2805224
236	0x3d807f45	0.06274275
237	0xbd405bef	-0.046962675
238	0x3c62683a	0.013818795
239	0xbe040919	-0.12894095
240	0xbbef12fd	-0.0072959648
241	0xbe1a4c9d	-0.15068288
242	0x3d84ba8f	0.06480896
243	0x3db39742	0.087690845
244	0x3d5f9d7c	0.05459355
245	0xbd8ba4fd	-0.068185784
246	0x3b800b48	0.003907595
247	0xbe5f70bb	-0.21820347
248	0xbdab06cf	-0.08350908
249	0xbd8c24c2	-0.068429485
250	0x3df27da8	0.11840373
251	0x3d9192a0	0.071080446
252	0xbbf9bdf9	-0.0076215235
253	0x3e2c3294	0.16816169
254	0xbc842082	-0.016128782
255	0x3e179380	0.1480236

rnn.weight_hh_l0 f4 [32, 32]
0	0xbe449921	-0.19199039
1	0x3e38e2d2	0.18055275
2	0xbb103592	-0.0022004587
3	0x3e34a960	0.17642736
4	0x3cc74b0e	0.024327781
5	0xbddba9d9	-0.10725755
6	0x3e6d2f48	0.23162568
7	0x3d3f6ada	0.04673276
8	0xbe28dc07	-0.16490184
9	0x3c8c0a60	0.017094791
10	0x3e5dce26	0.2166067
11	0x3b812e73	0.0039423048
12	0x3c4137f6	0.011793127
13	0x3ebac93d	0.36481658
14	0xbe2db8d3	-0.16965036
15	0x3c743e16	0.014907381
16	0xbdaf47f0	-0.08558643
17	0xbe37f095	-0.17962869
18	0xbd12a3ff	-0.03580093
19	0xbc3684eb	-0.011140089
20	0xbdf3f3ec	-0.11911759
21	0x3dff0713	0.12452521
22	0xbe95e7c7	-0.29278395
23	0x3d3e7638	0.04649946
24	0x3e0fdeb7	0.14049803
25	0x3d9da30a	0.07697113
26	0xbdd1d8bc	-0.10246417
27	0x3e0de41d	0.1385655
28	0x3dd940aa	0.10608037
29	0x3e147af8	0.14500034
30	0xbdbda4c1	-0.0925994
31	0xbdd2d3ee	-0.10294329
32	0x3d86567b	0.065594636
33	0x3dfa36c7	0.12217479
34	0x3c86e41f	0.016466198
35	0xbe3f2f59	-0.18670405
36	0xbd2a0e96	-0.041517816
37	0xbdb30d46	-0.08742766
38	0xbbac92dd	-0.005266531
39	0x3e27bd5e	0.16380832
40	0xbe388b25	-0.1802183
41	0x3e057968	0.13034594
42	0xbe9666f7	-0.2937543
43	0xbe4326af	-0.19057725
44	0x3cdce1b1	0.026963087
45	0x3e3449c1	0.1760626
46	0x3d879d0f	0.066217534
47	0x3e8940ff	0.268074
48	0x3ec31530	0.38102102
49	0xbd29b2ac	-0.04143016
50	0xbeb72332	-0.3576904
51	0xbdb515b3	-0.088420294
52	0x3ea35065	0.31897274
53	0xbd8c54d5	-0.06852118
54	0x3cd64117	0.026154084
55	0xbd06a8cd	-0.032875825
56	0x3e642ec5	0.22283466
57	0xbc87a92d	-0.016560161
58	0xbd7fe6dd	-0.062476028
59	0xbe4d1765	-0.20028456
60	0xbe7a579b	-0.24447481
61	0xbcc32db1	-0.023825498
62	0x3d6012c2	0.05470539
63	0x3ea0f36a	0.3143571
64	0xbd4f2360	-0.050570846
65	0xbd70c325	-0.058779854
66	0x3c4f2edf	0.012645452
67	0xbda6ef2a	-0.08151086
68	0x3cf185b3	0.029482698
69	0x3d1b5c05	0.037929554
70	0xbd838b77	-0.06423085
71	0xbeb9a85f	-0.3626127
72	0x3e411dc5	0.18859012
73	0x3e3efc9f	0.18651055
74	0xbe307691	-0.1723273
75	0xb9dc617e	-0.00042034307
76	0x3e2a6818	0.16641271
77	0xbec0240f	-0.3752751
78	0xbea151c3	-0.31507692
79	0x3e6b5ea3	0.2298532
80	0xbe7da1ae	-0.24768707
81	0xbb3f0966	-0.002914989
82	0x3e4e8e75	0.2017153
83	0xbe14d3d7	-0.14533935
84	0x3cc2cd09	0.023779409
85	0x3e7d00d1	0.24707343
86	0xbeabb90b	-0.33539614
87	0x3e8de1c8	0.2771132
88	0xbdd56332	-0.10419311
89	0x3ede7f79	0.4345663
90	0x3e838db7	0.25694057
91	0x3e558250	0.20850492
92	0xbea958bb	-0.33075508
93	0xbe3094ca	-0.17244259
94	0x3b3a1ce1	0.002839856
95	0xbe9a27d3	-0.30108508
96	0x3ec221f2	0.37916523
97	0xbed809d0	-0.42194986
98	0x3d9f6abd	0.077840306
99	0x3d761fd5	0.06008895
100	0xbd0d90e5	-0.03456201
101	0x3eb0e8e9	0.34552696
102	0xbd886eaf	-0.06661736
103	0xbde9917e	-0.114047036
104	0xbd9574ad	-0.07297645
105	0x3e88d02d	0.26721326
106	0x3e55c96e	0.2087762
107	0x3e1e3a56	0.15451941
108	0xbe89aaf2	-0.26888233
109	0x3e04bf7b	0.12963669
110	0xbe198b69	-0.14994587
111	0xbbe2b5bd	-0.0069186375
112	0xbe207e6e	-0.15673229
113	0xbe109375	-0.1411875
114	0x3c8ad0c1	0.016945245
115	0xbd2984a1	-0.04138625
116	0x3daeb14b	0.0852991
117	0xbdba3a8c	-0.09093198
118	0x3e742ff6	0.2384642
119	0x3e427cd6	0.18992934
120	0xbe9f75dd	-0.3114461
121	0x3ea834c1	0.32852748
122	0x3eb55829	0.35418823
123	0x3e7628ca	0.24038997
124	0xbbbbfd2b	-0.005736967
125	0x3dbc65f7	0.09199136
126	0xbe25fd70	-0.1620996
127	0xbd975754	-0.073897034
128	0x3eaf7345	0.3426763
129	0xbd0e907c	-0.03480576
130	0x3e99db08	0.3004992
131	0xbdd661bb	-0.10467859
132	0x3dfa68f2	0.12227048
133	0xbc7c65eb	-0.0154051585
134	0xbe890379	-0.26760462
135	0xbea6caf5	-0.3257672
136	0x3d1bf676	0.03807684
137	0xbe6cc7e0	-0.23123121
138	0xbd3a9808	-0.045555145
139	0xbcad7a0c	-0.02117636
140	0x3e02dca8	0.12779486
141	0xbea7f886	-0.32806796
142	0xbe1be2f3	-0.15223293
143	0xbca2e19a	-0.019882966
144	0x3cbcb119	0.023033665
145	0x3d013401	0.031543735
146	0x3e3c5102	0.18390277
147	0x3d03b4bd	0.032154787
148	0x3deef21c	0.116672724
149	0x3e99cba5	0.3003818
150	0x3e2ddf66	0.16979751
151	0x3e78c689	0.24294485
152	0xbe952318	-0.29128337
153	0x3dea02ec	0.114263386
154	0xbde3265d	-0.110913016
155	0xbd5bb95c	-0.05364357
156	0xbe88ecb1	-0.2674308
157	0xbe408aed	-0.18802996
158	0xbe1bcf27	-0.15215741
159	0xbe9256ce	-0.28581852
160	0xbeb408ca	-0.35162956
161	0xbe4ffc9b	-0.20311205
162	0x3ea5cbb9	0.3238199
163	0xbdf5d32a	-0.12003167
164	0xbcb10b2b	-0.02161177
165	0xbe32f6a1	-0.17476894
166	0x3cd8e075	0.026474217
167	0x3ec98350	0.39357996
168	0xbe9d2c71	-0.3069797
169	0xbe5170cf	-0.2045319
170	0x3eca7a3c	0.39546382
171	0x3d865e68	0.06560975
172	0xbe597baa	-0.2123858
173	0x3c129a48	0.008947916
174	0x3e6e90ca	0.2329742
175	0xbe5f704e	-0.21820185
176	0x3d8da1c1	0.06915618
177	0xbdcf0fed	-0.101104595
178	0xbd99dbc7	-0.07512622
179	0x3eeec103	0.4663163
180	0xbe2ad777	-0.16683756
181	0xbe455927	-0.1927229
182	0x3ecb7b27	0.39742395
183	0xbdef37e3	-0.116805814
184	0xbeb4fbd0	-0.35348368
185	0xbe812dd0	-0.25230265
186	0xbe467422	-0.19380239
187	0xbd1ede46	-0.038786195
188	0x3d8765d1	0.06611217
189	0x3ded24d0	0.11579287
190	0xbe88d125	-0.26722065
191	0x3cdf6b7e	0.027272936
192	0x3e9c759d	0.30558482
193	0x3e51f4f5	0.205036
194	0xbe0815ca	-0.13289562
195	0xbe0a895c	-0.13528961
196	0xbd6786ea	-0.05652515
197	0x3ddab8c3	0.10679772
198	0xbe0b6c2a	-0.1361548
199	0x3c30534e	0.010762049
200	0xbce476ce	-0.027888682
201	0x3e8a75e5	0.2704307
202	0x3d9809b2	0.07423724
203	0xbd9766f3	-0.07392683
204	0x3e7f7dc1	0.24950315
205	0x3e8bd667	0.27312014
206	0x3e50d608	0.20394146
207	0xbdf2f674	-0.118634135
208	0xbc438949	-0.011934587
209	0xbe6a6f43	-0.22894005
210	0x3e5b8e4e	0.21441004
211	0xbec735c6	-0.38908213
212	0xbe7510cc	-0.23932189
213	0x3edf6cc9	0.43637684
214	0xbdf87712	-0.12132086
215	0xbe5f9f3a	-0.21838084
216	0x3da6c03a	0.08142133
217	0xbe6f3421	-0.2335973
218	0xbd2f795c	-0.042840347
219	0xbeb6c8b7	-0.35700008
220	0x3e78ad3f	0.24284838
221	0x3b9e60bb	0.0048333085
222	0xbc82a57d	-0.015948052
223	0x3b2ae6fb	0.0026077616
224	0xbc00bb4c	-0.007857155
225	0xbdabed10	-0.083948255
226	0xbe25b8a0	-0.1618371
227	0xbe450720	-0.19240999
228	0xbe18320f	-0.14862846
229	0x3ebd7baf	0.37008426
230	0xbe0ae81d	-0.13565107
231	0xbbddd94d	-0.006770289
232	0xbe1418e6	-0.14462623
233	0xbba9834e	-0.0051731234
234	0x3e4f7d21	0.20262577
235	0x3cfa3b75	0.03054593
236	0xbcabbdb2	-0.020964477
237	0xbdcfe3b7	-0.10150855
238	0x3d9ae7d4	0.07563749
239	0xbe7ccfa0	-0.24688578
240	0xbbdb947b	-0.00670105
241	0x3db27fa3	0.08715751
242	0x3e8e0324	0.2773677
243	0xbe8a9b62	-0.27071673
244	0xbe3493f7	-0.17634569
245	0x3d467950	0.048455536
246	0xbe95fcea	-0.2929452
247	0xbe712b30	-0.23551631
248	0x3de728a0	0.112870455
249	0x3dece0d2	0.115663186
250	0xbe81ab53	-0.25326023
251	0xbe70dbb2	-0.23521307
252	0xbd46da4e	-0.048548035
253	0xbe48d78b	-0.19613473
254	0x3d158991	0.036508147
255	0x3e55c786	0.20876893

rnn.bias_ih_l0 f4 [32]
0	0xbdaddd13	-0.08489432
1	0xbe4c340c	-0.1994173
2	0xbd9cc534	-0.07654801
3	0xbd53c858	-0.051704735
4	0x3e60521b	0.21906321
5	0x3e36d44e	0.17854425
6	0xbe6bd3e5	-0.2303005
7	0x3d5b7e39	0.053587172
8	0xbc55d921	-0.013052256
9	0xbd06c96f	-0.032906946
10	0x3d34a180	0.04409933
11	0xbcb7fb98	-0.022458836
12	0xbdc4de95	-0.09612767
13	0x3de4d3c9	0.11173207
14	0x3e180d95	0.14848931
15	0x3d37edc4	0.044904485
16	0xbd9685c9	-0.07349736
17	0x3e156977	0.14591013
18	0x3e5b1310	0.2139399
19	0x3dc2f4f2	0.09519376
20	0x3d6a5baa	0.057216324
21	0xbdccb3a3	-0.099952005
22	0x3d4a4f17	0.049391832
23	0x3db87f68	0.09008676
24	0xbe034aca	-0.12821499
25	0x3a22bdb6	0.00062080787
26	0x3de09e62	0.10967709
27	0x3c40e9ea	0.011774519
28	0xbe5e8516	-0.21730456
29	0xbdc52adc	-0.096273154
30	0xbd92a512	-0.07160391
31	0x3c15291e	0.009104041

rnn.bias_hh_l0 f4 [32]
0	0x3d960536	0.07325213
1	0xbe45b5a2	-0.19307569
2	0xbddc6b58	-0.10762662
3	0xbe28a92a	-0.16470781
4	0xbdb1350a	-0.086526945
5	0xbbc3957d	-0.005968748
6	0xbe618f32	-0.22027281
7	0xbd1a4748	-0.037665635
8	0x3c8e54ff	0.017374514
9	0xbdaed750	-0.08537161
10	0x3d590d1d	0.05299102
11	0xbc9b4a00	-0.018956184
12	0xbde0ebca	-0.10982473
13	0x3e2d0289	0.16895498
14	0x3e13b7bc	0.14425558
15	0x3cf73f06	0.03018142
16	0xbdf41c66	-0.11919479
17	0xbcaa9454	-0.020822681
18	0x3dfecf08	0.12441832
19	0xbd3a2a38	-0.04545042
20	0x3dadcacb	0.08485945
21	0xbe78b677	-0.24288355
22	0xbd9dd8b3	-0.07707348
23	0xbc8c29dd	-0.017109806
24	0xbdd86fcf	-0.10568201
25	0x3d0173bb	0.03160451
26	0xbe22cedd	-0.15899225
27	0xbdd520b8	-0.10406631
28	0xbc8173ba	-0.015802253
29	0x3c9e010a	0.019287605
30	0xbdaa247b	-0.08307739
31	0x3bf29ca4	0.007403927

rnn.weight_ih_l0_reverse f4 [32, 128]
0	0x3ddbb542	0.107279316
1	0xbd7fe5ce	-0.06247502
2	0x3c34fd70	0.011046752
3	0x3d1edf83	0.038787376
4	0xbc83339d	-0.016015822
5	0xbcbf8696	-0.023379605
6	0x3d048e02	0.03236199
7	0xbdde6dc5	-0.108607806
8	0xbd7fb8a6	-0.062431954
9	0xbdf342bd	-0.11877964
10	0x3d831b46	0.06401686
11	0xbe1723d6	-0.14759764
12	0xbd8c6f3f	-0.06857156
13	0xbdb7a05d	-0.08966134
14	0x3e2fd343	0.17170434
15	0x3dea8bf4	0.11452475
16	0x3da06098	0.07830924
17	0xbc3cbd81	-0.011519791
18	0x3d4462bf	0.047945734
19	0xbc5552f2	-0.013020264
20	0x3df5a519	0.119943805
21	0x3d6a7082	0.057236202
22	0xbc367b43	-0.011137786
23	0xbd991f5f	-0.07476687
24	0xbc9a7cbc	-0.018858306
25	0xbe6a4590	-0.22878098
26	0x3d3384e8	0.04382792
27	0x3df35215	0.1188089
28	0x3d51a9d8	0.051187366
29	0xbdae9458	-0.08524388
30	0xbe28d575	-0.16487677
31	0xbdd578b8	-0.10423416
32	0x3e18a171	0.14905335
33	0x3d9f3e6b	0.07775577
34	0xbe2721c6	-0.16321477
35	0xbe971c77	-0.29513904
36	0xbc804efc	-0.015662663
37	0x3d47bd57	0.048764553
38	0xbd8fb364	-0.07016638
39	0xbe148020	-0.14502001
40	0x3cb681a6	0.022278618
41	0xbd55202d	-0.05203264
42	0x3c9b45bb	0.018954149
43	0x3d79f13a	0.061021067
44	0x3c243c4c	0.0100241415
45	0x3e209de0	0.15685225
46	0x3c9f76a0	0.019465744
47	0xbc40b452	-0.011761742
48	0xbe3a6815	-0.18203767
49	0xbdb58d8d	-0.08864889
50	0x3df69a79	0.12041182
51	0xbe26293c	-0.16226667
52	0x3e535c2a	0.20640627
53	0xbddb9ff5	-0.10723869
54	0x3dc78ded	0.09743867
55	0xbe3b751f	-0.18306397
56	0xbe83c5d4	-0.25736868
57	0xbc68bc4f	-0.0142050525
58	0x3cc4e0ec	0.024033032
59	0x3dde848a	0.108651236
60	0xbd8977f2	-0.06712331
61	0x3d6e722a	0.058214344
62	0xbe2e4a2b	-0.1702048
63	0x3b946c22	0.004529492
64	0xbd1fe884	-0.039040104
65	0x3bac84f0	0.005264871
66	0xbdef6af4	-0.116903216
67	0xbc25e8b5	-0.010126282
68	0xbdcf370f	-0.101179235
69	0xbe158b00	-0.14603806
70	0x3dec3bba	0.115348294
71	0x3d26c0ea	0.04071132
72	0x3c236e86	0.009975081
73	0xbda26b7e	-0.07930659
74	0x3d6027ad	0.054725338
75	0xbdcb5966	-0.09929161
76	0xbd8cad58	-0.06869
77	0x3d1b4748	0.037909776
78	0x3e115313	0.14191847
79	0xbe19409a	-0.1496605
80	0xbdf5ebf1	-0.12007893
81	0x3db15f8e	0.08660804
82	0xbde3e818	-0.11128253
83	0xbe1fce6c	-0.15606087
84	0xbd764d4c	-0.06013231
85	0x3d4abdfe	0.049497597
86	0xbd8a1d2a	-0.06743844
87	0xbc8745db	-0.016512802
88	0x3e41351c	0.18867916
89	0xbd6b73ba	-0.057483412
90	0x3daa9d2e	0.08330761
91	0xbe44fcdf	-0.19237088
92	0x3daa6422	0.0831988
93	0xbdbc7590	-0.09202111
94	0x3cb7bc1f	0.02242857
95	0x3da05af7	0.0782985
96	0xbc16fdb0	-0.009215757
97	0x3cea6491	0.028612407
98	0xbcd3b3b5	-0.025842527
99	0x3d01cb75	0.031688172
100	0x3d9a48fd	0.07533453
101	0xbe1bc3d3	-0.1521142
102	0x3d80d8fd	0.06291387
103	0x3dc9b23d	0.098484494
104	0x3dd848ff	0.10560798
105	0xba697227	-0.00089052547
106	0x3dba83c1	0.09107161
107	0xbe08c218	-0.13355291
108	0xbd6438dc	-0.055718288
109	0x3e56558f	0.20931076
110	0xbe81e625	-0.253709
111	0xbd5cfb4d	-0.053950597
112	0x3dab51be	0.083652005
113	0xbdb54d7f	-0.08852672
114	0xbd268f8c	-0.04066424
115	0x3d2da143	0.04239012
116	0x3e1a9bdc	0.15098518
117	0x3e42ef4a	0.19036594
118	0x3e5c0267	0.21485291
119	0xbcaa1ffc	-0.020767204
120	0xbd9dee66	-0.077114865
121	0x3cc27b64	0.023740478
122	0xbdd1c381	-0.102423675
123	0x3d742bbf	0.059612032
124	0x3daf5f4f	0.085631005
125	0xbe284d53	-0.16435747
126	0xbe829429	-0.25503662
127	0xbbf431b2	-0.007452213
128	0xbbfa91d6	-0.0076467795
129	0x3d82db86	0.06389527
130	0xbd8854ac	-0.06656775
131	0x3bcf6888	0.0063296
132	0x3e0b3e44	0.13597971
133	0xbde03c4d	-0.109490015
134	0xba1ee99c	-0.0006062032
135	0xbc99fa66	-0.018796157
136	0x3e80cc6d	0.25155964
137	0xbdd6abf3	-0.104820155
138	0xbdf28f39	-0.11843724
139	0x3d96d96c	0.07365689
140	0xbe04d539	-0.12971963
141	0x3e1c165e	0.15242907
142	0x3d85b56c	0.06528744
143	0x3d0a8ae4	0.033823863
144	0xbd9c62ad	-0.076360084
145	0x3e31de4c	0.17369956
146	0xbdaa13e6	-0.083045766
147	0x3e1bbec0	0.15209484
148	0xbe47efb9	-0.1952504
149	0x3c5b1cbe	0.013373552
150	0xbd3a873c	-0.045539126
151	0xbda099ad	-0.07841811
152	0x3dae3d77	0.08507817
153	0xbdf54597	-0.11976164
154	0x3e1260e6	0.14294776
155	0x3d0f086e	0.03492015
156	0xbe2b39e9	-0.1672131
157	0xbc949d33	-0.018141365
158	0x3da9608f	0.0827037
159	0xbde77260	-0.11301112
160	0x3d621cf3	0.05520339
161	0xbe1eeb26	-0.1551939
162	0xbcba4059	-0.022735761
163	0x3d7c16e7	0.06154528
164	0xbdf88e85	-0.121365584
165	0x3dd56911	0.104204305
166	0xbe14cad6	-0.14530501
167	0xbce28700	-0.027652264
168	0xbe3943ee	-0.1809232
169	0x3dad229e	0.08453868
170	0xbd0e57d6	-0.034751736
171	0x3c9d489d	0.019199664
172	0xbde00415	-0.109382786
173	0xbc45658b	-0.0120481355
174	0xbdfd30d9	-0.123628326
175	0x3e3b2c5f	0.18278645
176	0xbe8b9c54	-0.27267706
177	0xbdac1354	-0.08402124
178	0x3df5c597	0.12000578
179	0xbdde0a4e	-0.10841809
180	0xbdea162f	-0.114300124
181	0xbe2631bb	-0.16229908
182	0xbc4dcd0d	-0.012561095
183	0x3e7bd322	0.2459226
184	0x3e9e6c2f	0.30941913
185	0x3cbb4371	0.022859307
186	0x3e6f017b	0.23340409
187	0xbe0c978d	-0.13729687
188	0x3c692f5f	0.014232486
189	0xbe33a3c7	-0.17542945
190	0xbdea83a0	-0.11450887
191	0xbd9c3621	-0.07627512
192	0x3e1208fa	0.14261237
193	0x3e9f668d	0.31132928
194	0x3e1f24da	0.15541402
195	0x3dbc3699	0.09190101
196	0xbe878fcd	-0.264769
197	0x3d7d8b21	0.06190026
198	0xbdf717f2	-0.12065114
199	0x3dd0f9ea	0.10203917
200	0xbe07a564	-0.13246685
201	0x3cb8a11f	0.022537766
202	0xbd2491a1	-0.040177945
203	0xbe27be46	-0.16381177
204	0x3daf6030	0.08563268
205	0xbe5c3686	-0.21505174
206	0x3c643988	0.013929732
207	0x3d125c93	0.035732817
208	0xbdc85b28	-0.09783012
209	0xbddced39	-0.10787434
210	0xbd442483	-0.047886383
211	0x3c02dc8e	0.007987155
212	0xbd26b782	-0.04070235
213	0xbceeab0d	-0.029134298
214	0x3dce45e2	0.10071923
215	0xbd34087e	-0.04395341
216	0xbd1dffb2	-0.03857393
217	0x3d893f21	0.06701494
218	0x3c7984cb	0.015229414
219	0xbccfe73b	-0.025378814
220	0xbdff717c	-0.12472817
221	0x3dcb2cbc	0.09920642
222	0xbe244a8b	-0.16044061
223	0x3cb24511	0.021761449
224	0x3c9bf618	0.019038245
225	0xbe62a236	-0.22132191
226	0xbe37088d	-0.17874356
227	0x3c31fb38	0.010863118
228	0x3dfb2ba2	0.12264182
229	0xbdd24145	-0.102663554
230	0x3e10c5b0	0.14137912
231	0x3ca0ad4e	0.019613888
232	0x3d590a81	0.052988533
233	0x3e542ea5	0.20720918
234	0x3e414df1	0.18877389
235	0xbd96b956	-0.07359569
236	0xbe23f80e	-0.16012594
237	0xbe879bd0	-0.26486063
238	0x3e28eaed	0.16495867
239	0x3e1ef8f6	0.15524659
240	0x3da36ab0	0.079793334
241	0x3e072437	0.13197409
242	0x3e3a0e35	0.18169482
243	0x3e0167aa	0.12637201
244	0x3d58ebab	0.052959125
245	0x3d301973	0.04299302
246	0x3d193b71	0.037410203
247	0x3e34eab0	0.17667651
248	0xbd5ef34e	-0.054431252
249	0xbc1d64c5	-0.009606545
250	0x3d734be9	0.059398565
251	0xbccb0fcc	-0.024787806
252	0x3dd101d3	0.10205426
253	0x3d5fe345	0.0546601
254	0x3e7f7dbd	0.24950309
255	0x3dd842a4	0.10559586

rnn.weight_hh_l0_reverse f4 [32, 32]
0	0x3e14ee1d	0.14543958
1	0xbdba0d53	-0.09084573
2	0xbed7ca3e	-0.42146486
3	0x3e440ba4	0.19145066
4	0x3e1abb21	0.15110447
5	0xbe2145a6	-0.15749225
6	0xbedd7bed	-0.4325861
7	0xbeb4043a	-0.35159475
8	0xbe994b2a	-0.29940158
9	0xbd7e2dfa	-0.062055565
10	0x3b4ab13f	0.00309284
11	0xbde3f3ee	-0.1113051
12	0x3e07f40b	0.13276689
13	0xbdb0734e	-0.086157426
14	0x3e3881f6	0.18018326
15	0x3c2ad3f6	0.010426512
16	0xbe9982d4	-0.29982626
17	0x3e30f163	0.17279582
18	0x3e9d609f	0.3073778
19	0x3d889767	0.06669503
20	0xbd14851b	-0.03625975
21	0x3e53cafa	0.20682898
22	0xbc4fe0c1	-0.012687863
23	0x3e8ef33e	0.27919954
24	0x3b85a670	0.004078679
25	0x3ce3299d	0.027729804
26	0x3d7765a8	0.06039968
27	0x3d97e365	0.07416419
28	0x3ed6bd91	0.41941503
29	0x3e75bf9d	0.23998876
30	0xbe0b33af	-0.13593934
31	0x3dd87d1c	0.10570738
32	0x3d732196	0.059358202
33	0x3e9a97bf	0.30193898
34	0x3dce509b	0.10073968
35	0x3e1a9ff2	0.15100077
36	0xbd9e4ebe	-0.07729863
37	0x3d53049b	0.051518064
38	0xbd3b6b69	-0.04575673
39	0x3e719ee9	0.23595776
40	0x3e2dd512	0.16975811
41	0xbe24df0d	-0.16100712
42	0x3dcfba85	0.10142998
43	0x3ddb8142	0.10718013
44	0x3d5b8db9	0.053601954
45	0x3d929fc4	0.07159379
46	0xbe3dd56f	-0.1853845
47	0xbeb17c81	-0.346653
48	0x3e82702b	0.25476202
49	0xbd9c7bcf	-0.07640802
50	0xbe6601b1	-0.22461583
51	0x3d3c3bf5	0.045955617
52	0xbe10c784	-0.14138609
53	0xbea7906e	-0.3272738
54	0x3d2511f2	0.040300317
55	0xbe8d86d8	-0.2764194
56	0x3a8af94d	0.0010602862
57	0xbe09ec32	-0.13469008
58	0x3e5a3793	0.21310262
59	0x3eb18196	0.3466918
60	0xbca0557d	-0.019572014
61	0x3dedb400	0.11606598
62	0xbe0fa794	-0.1402877
63	0x3d033d96	0.032041155
64	0x3e288180	0.1645565
65	0x3cb85184	0.022499807
66	0x3d982288	0.07428461
67	0x3ce211de	0.02759641
68	0xbe26131e	-0.1621823
69	0x3a983ca9	0.0011614758
70	0xbeb54f96	-0.35412282
71	0xbe205dcb	-0.15660779
72	0xbe6659bd	-0.2249517
73	0x3e338183	0.17529874
74	0x3dc33ced	0.09533105
75	0xbe1849cb	-0.148719
76	0xbe30d472	-0.17268541
77	0xbe2fbe16	-0.17162356
78	0xbe07229d	-0.13196798
79	0xbc13d908	-0.009023912
80	0x3de5e39f	0.11225056
81	0x3d0141e4	0.03155698
82	0xbe6ef693	-0.23336248
83	0xbe1faa70	-0.1559236
84	0x3e546cdf	0.20744656
85	0x3d9f208a	0.07769878
86	0xbd2babfa	-0.041912057
87	0xbc9ba66c	-0.019000255
88	0xbdbc9a9e	-0.092091784
89	0x3e47d445	0.19514568
90	0xbd93e984	-0.07222274
91	0xbc82c2fb	-0.015962115
92	0x3dd1eb46	0.10249953
93	0xbda8d915	-0.0824453
94	0xbbaa3dfb	-0.005195377
95	0xbddbe409	-0.10736854
96	0xbdad8d6a	-0.08474238
97	0xbe530b03	-0.2060967
98	0x3eaba99c	0.3352784
99	0x3ea4954e	0.3214516
100	0x3e3c89c4	0.18411928
101	0xbe08f506	-0.13374719
102	0x3e39d71c	0.18148464
103	0x3da25d8c	0.07927999
104	0xbd8d9668	-0.06913453
105	0x3dbc2a53	0.0918776
106	0xbd8ee678	-0.06977552
107	0x3e8aa2c7	0.27077314
108	0xbd0f82af	-0.03503674
109	0x3df8ea04	0.1215401
110	0xbdff167e	-0.12455462
111	0xbc4e8101	-0.012603999
112	0xbe3e0166	-0.18555221
113	0x3e883810	0.26605272
114	0xbe93ab33	-0.28841552
115	0xbeb045c8	-0.3442824
116	0x3d4aea5f	0.04953992
117	0xbe787a85	-0.24265487
118	0xbd2cebc7	-0.042217042
119	0x3de3e661	0.11127926
120	0xbaa8f007	-0.0012888917
121	0xbe85ed68	-0.2615769
122	0x3d26cb0a	0.040720977
123	0x3e3076ec	0.17232865
124	0x3e3dd796	0.18539271
125	0xbd4bf8cd	-0.04979782
126	0xbdc6307f	-0.09677219
127	0xbca644de	-0.02029651
128	0x3d95c3fc	0.07312772
129	0xbe2fc9ac	-0.17166775
130	0x3f0a4713	0.540147
131	0x3e3bf4c0	0.18355083
132	0x3d8ed2ea	0.069738224
133	0xbdca349d	-0.098733164
134	0x3ea6c998	0.3257568
135	0x3bb32d47	0.005468044
136	0x3e0ea3f3	0.13929729
137	0xbdbb3149	-0.0914026
138	0x3e1c7cc8	0.15281975
139	0x3e8a612e	0.27027267
140	0x3d4d36a1	0.050100926
141	0xbeaa0c06	-0.33212298
142	0xbe77ef32	-0.2421234
143	0xbd27e00c	-0.040985152
144	0xbd94a299	-0.072575755
145	0xbe19c250	-0.1501553
146	0xbe1f5c39	-0.15562524
147	0xbea2b96c	-0.3178209
148	0x3da1a533	0.078928374
149	0x3c5bfa00	0.013426304
150	0xbdfc7357	-0.12326687
151	0x3dd18311	0.10230077
152	0x3e94ae5b	0.29039273
153	0xbf18123f	-0.5940284
154	0x3da8160f	0.08207332
155	0x3daeebd1	0.08541072
156	0x39af17ee	0.0003339643
157	0xbe4104b3	-0.18849449
158	0xbe9d71f6	-0.30751008
159	0xbd4a2059	-0.049347255
160	0x3d4df57f	0.05028295
161	0xbd66c9fb	-0.056344967
162	0x3dc58292	0.09644045
163	0xbdf6cfb9	-0.12051339
164	0x3e820d79	0.25400904
165	0xbdb0e45f	-0.08637308
166	0x3db6bb32	0.089224234
167	0x3c29a8e9	0.010355213
168	0x3e227bf8	0.15867603
169	0x3d7d19c1	0.06179214
170	0xbbb96748	-0.005658064
171	0x3dd32360	0.103094816
172	0xbd1b4149	-0.037904058
173	0x3e710f45	0.23540981
174	0xbc77bf8e	-0.015121354
175	0xbe918d6b	-0.28428206
176	0x3e6313c5	0.2217551
177	0xbe1d2a4b	-0.15348165
178	0xbec39e56	-0.38206738
179	0x3cc14277	0.023591263
180	0x3c892993	0.016743457
181	0xbe1a3fc9	-0.15063395
182	0x3e410b1b	0.18851893
183	0xbe89b7e5	-0.26898113
184	0xbcf76b13	-0.030202424
185	0x3e97afca	0.29626304
186	0x3e690960	0.22757483
187	0x3e544a1d	0.20731397
188	0xbe6bab71	-0.23014618
189	0x3e50f5f7	0.20406328
190	0xbc885a88	-0.016644731
191	0xbea7dc64	-0.32785332
192	0xbe31a793	-0.1734908
193	0xbe1e5fba	-0.15466204
194	0xbdc5a8d1	-0.0965134
195	0x3c1e1a3b	0.0096498085
196	0xbd83f947	-0.0644403
197	0xbe95b079	-0.292362
198	0x3e8b6454	0.27224982
199	0xbda0d4e6	-0.07853107
200	0xbde52bb9	-0.1118998
201	0xbe7eb22f	-0.24872659
202	0xbda47026	-0.08029203
203	0xbcdd6bea	-0.027028996
204	0xbdd66566	-0.10468559
205	0xbd82ca02	-0.06386186
206	0xbe2f21e5	-0.17102773
207	0xbb01dc50	-0.0019815154
208	0xbe5b4c6b	-0.2141587
209	0xbe1c64c8	-0.1527282
210	0x3ea0ec6e	0.31430382
211	0x3ddfb7a0	0.109236956
212	0x3d85e082	0.06536962
213	0x3e353306	0.17695245
214	0xbe15b1de	-0.14618632
215	0x3d8839cd	0.066516496
216	0x3eb54cbd	0.3541011
217	0xbeded71f	-0.435235
218	0xbe9705c8	-0.29496598
219	0x3d868826	0.06568937
220	0x3df14027	0.11779814
221	0x3c0be286	0.008537894
222	0x3e9b61be	0.3034801
223	0x3e96ec0a	0.2947696
224	0xbe2b804b	-0.16748159
225	0xbd40efad	-0.047103573
226	0xbe39b9c6	-0.18137273
227	0x3dc70dc2	0.09719421
228	0xbe46527b	-0.19367401
229	0xbdad29ae	-0.084552154
230	0xbdc93ea6	-0.09826402
231	0xbd8a4b40	-0.06752634
232	0xbe384020	-0.17993212
233	0x3d6bb3f5	0.057544667
234	0xbb6461f8	-0.0034848433
235	0xbdda6324	-0.10663441
236	0xbd22cb90	-0.039744914
237	0xbb71d655	-0.0036901433
238	0x3c864220	0.016388953
239	0xbe41b523	-0.18916754
240	0x3e4b3efd	0.19848247
241	0xbd962d50	-0.073328614
242	0x3daefe8b	0.08544644
243	0x3d1e2cc9	0.03861693
244	0x3d346b0a	0.044047393
245	0xbd25ba2e	-0.040460758
246	0x3d70a458	0.05875048
247	0x3dafb4e3	0.08579423
248	0xbe1f9966	-0.1558586
249	0xbdfc6086	-0.12323098
250	0x3e7d20ed	0.24719591
251	0xbe04e2b6	-0.12977108
252	0x3dbdce0e	0.092678174
253	0xbe398b97	-0.18119656
254	0xbdd7954b	-0.10526522
255	0x3e825d16	0.25461644

rnn.bias_ih_l0_reverse f4 [32]
0	0x3dcb44d7	0.099252395
1	0x3dc22309	0.09479339
2	0xb9952e17	-0.00028453834
3	0xbe86d07c	-0.26330936
4	0xbe5c1e49	-0.21495928
5	0x3dd744bf	0.10511159
6	0x3d45a983	0.048257362
7	0x3c4e3462	0.012585731
8	0xbe232030	-0.15930247
9	0xbe4fa7fa	-0.20278922
10	0x3e5835d9	0.21114291
11	0xbc95f099	-0.018303202
12	0x3e9558fd	0.29169455
13	0xbc8beb9c	-0.01708012
14	0x3dd89b03	0.10576441
15	0x3db390f3	0.08767881
16	0xbe7f09da	-0.24906102
17	0xbd9b6da2	-0.0758927
18	0x3c37d621	0.011220486
19	0x3daa53bd	0.08316753
20	0xbd6a0943	-0.05713774
21	0x3dfd8315	0.123785175
22	0xbd2c4dfa	-0.04206655
23	0x3c94b906	0.018154632
24	0x3d81414e	0.06311284
25	0xbd35c26b	-0.044374865
26	0x3d0c5cf3	0.03426833
27	0xbe6bd999	-0.23032226
28	0x3d8dde39	0.06927151
29	0xbe8c6073	-0.27417335
30	0x3cb330f3	0.021873927
31	0x3d96cec3	0.073636554

rnn.bias_hh_l0_reverse f4 [32]
0	0x3e227713	0.15865736
1	0xbe315e68	-0.1732117
2	0xbe0af52a	-0.13570085
3	0xbd898670	-0.06715095
4	0xbc9ddfcf	-0.01927176
5	0xbe0c352c	-0.13692158
6	0xbdee6383	-0.11640074
7	0xbd426975	-0.047463853
8	0x3dbbd436	0.091713354
9	0x3c2d1efa	0.010566467
10	0x39a9273c	0.00032263424
11	0xbd8b80a3	-0.06811645
12	0xbcccff02	-0.025023941
13	0xbe7aa4c6	-0.24476919
14	0xbe01bf8a	-0.12670723
15	0x3d44d8f4	0.048058465
16	0xbd0f37b8	-0.034965247
17	0x3e1115df	0.141685
18	0x3cf8122d	0.030282104
19	0x3dd243d5	0.10266844
20	0x3d573adf	0.05254638
21	0x3e76decf	0.24108432
22	0xbe406b81	-0.1879101
23	0x3b87f7aa	0.004149397
24	0x3d523733	0.051322173
25	0xbd0c5af1	-0.034266416
26	0x3bf16505	0.007366779
27	0x3d09fbf3	0.033687543
28	0xbe13ba31	-0.14426495
29	0xbdca05d5	-0.098643936
30	0x3e30d9b7	0.17270552
31	0x3e5f7009	0.21820082

fc1.weight f4 [12, 64]
0	0xbd5b3578	-0.05351779
1	0xbe8c2ff7	-0.27380344
2	0x3eab1520	0.33414555
3	0x3ec56a24	0.3855754
4	0x3ea50149	0.32227543
5	0x3cfb2707	0.030658258
6	0xbe20bc36	-0.15696797
7	0x3eae42cb	0.34035334
8	0x3e2013ea	0.15632597
9	0x3ead2f00	0.3382492
10	0x3e597a5b	0.21238081
11	0x3e904318	0.28176188
12	0x3edbf891	0.4296308
13	0xbe3cce12	-0.18437985
14	0xbedb03b3	-0.4277626
15	0xbeb43589	-0.35197094
16	0xbe295d75	-0.16539557
17	0x3e25d949	0.16196169
18	0xbe5a9a61	-0.21347953
19	0x3e372b98	0.17887723
20	0x3f2e8b7f	0.68181604
21	0xbefd7263	-0.49501333
22	0x3eef0371	0.46682313
23	0xbef32fb3	-0.4749733
24	0xbdbc3965	-0.09190635
25	0xbe345d4d	-0.17613716
26	0x3e922ce9	0.2854989
27	0x3f035439	0.5130039
28	0xbf2a6a9d	-0.6656893
29	0xbed0d6e1	-0.4078894
30	0x3ef0042a	0.46878177
31	0x3eea9f82	0.4582482
32	0x3ed5a5a2	0.4172793
33	0xbef07a93	-0.46968517
34	0xbd2c59b7	-0.042077746
35	0xbecea961	-0.403636
36	0xbf123401	-0.571106
37	0xbeb5077f	-0.35357282
38	0x3dbf8242	0.093510166
39	0xbe99d8be	-0.30048174
40	0xbecc1a7c	-0.39863956
41	0x3ec5a143	0.38599595
42	0x3f132210	0.5747385
43	0xbea5977e	-0.32342142
44	0x3eff8324	0.4990474
45	0xbe2af742	-0.16695884
46	0x3e70ef2c	0.23528737
47	0xbc750e29	-0.014956989
48	0xbe2d2ddf	-0.1691203
49	0x3f0e5b3d	0.5560797
50	0xbda6a9e6	-0.08137874
51	0x3e528340	0.2055788
52	0x3ee9ec95	0.4568831
53	0x3d9ae9f8	0.07564157
54	0xbeb1bd0a	-0.34714538
55	0x3e88aa57	0.2669246
56	0xbe4e00f0	-0.20117545
57	0x3e134bdf	0.14384411
58	0xbe1b0948	-0.1514026
59	0xbea9b517	-0.33145973
60	0x3ea6323b	0.32460198
61	0xbed0b703	-0.40764627
62	0x3eae4d07	0.34043142
63	0x3ee55820	0.44793797
64	0xbf65e93f	-0.8980903
65	0xbe80cc32	-0.2515579
66	0xbf80875b	-1.0041307
67	0xbf98c1e5	-1.1934172
68	0xbe8ced2b	-0.27524695
69	0x3f24283d	0.641239
70	0xbe60a35b	-0.21937315
71	0x3d453d5a	0.048154213
72	0xbf8e8926	-1.1135604
73	0xbf9ffbf9	-1.2498771
74	0xbd4b8126	-0.049683712
75	0x3e345ea0	0.17614222
76	0xbfb3f692	-1.4059622
77	0x3eeabe4d	0.45848313
78	0x3f17fe29	0.5937219
79	0x3edf598c	0.43623006
80	0x3f39170a	0.7230078
81	0x3f209201	0.62722784
82	0x3f68574f	0.9075822
83	0x3ecfa66c	0.40556657
84	0xbf6856e5	-0.9075759
85	0xbe8f81e4	-0.28028786
86	0xbe8b0777	-0.27154133
87	0x3d858d66	0.0652111
88	0x3eb9a24b	0.36256632
89	0x3e91e145	0.2849218
90	0xbec2a93c	-0.3801974
91	0xbf7d9386	-0.9905323
92	0x3e8a894c	0.27057874
93	0xbec4f6e6	-0.3846962
94	0xbf84bb60	-1.0369682
95	0x3f19e850	0.60120106
96	0x3e36b08b	0.17840783
97	0x3f46d59a	0.7766968
98	0x3f33340c	0.7000129
99	0xbef6a288	-0.48170877
100	0xbf1f6917	-0.6226973
101	0xbf4b92ac	-0.7952068
102	0xbea19560	-0.31559277
103	0x3fbaffd9	1.4609329
104	0xbe8d4bd1	-0.27596906
105	0xbf2d67da	-0.6773659
106	0x3ec40bd3	0.3829027
107	0xbf036ca6	-0.5133766
108	0x3ec06ef0	0.3758464
109	0xbf0ded34	-0.5544007
110	0xbf192bcf	-0.5983247
111	0xbf419dab	-0.7563121
112	0xbea937d8	-0.33050418
113	0xbf358ea6	-0.7092079
114	0xbf4e84dc	-0.8067148
115	0xbdf4f15d	-0.11960099
116	0xbf995373	-1.1978592
117	0x3f857ff6	1.0429676
118	0xbe49aecd	-0.19695587
119	0x3ee58c14	0.44833434
120	0xbd26af73	-0.040694665
121	0x3f193eb1	0.59861284
122	0xbf460adc	-0.7736032
123	0xbe231758	-0.15926874
124	0xbf0957ab	-0.53649396
125	0xbe740d62	-0.2383323
126	0x3f7790f1	0.9670554
127	0x3eafb374	0.343166
128	0x3f5618dd	0.8363169
129	0xbbc9b587	-0.006155673
130	0x3f82e053	1.0224708
131	0xbf7c4b1c	-0.9855211
132	0x3f02c68b	0.510842
133	0x3e8265d0	0.25468302
134	0xbb5cb97e	-0.0033679898
135	0xbed38602	-0.41313177
136	0xbf86426c	-1.048902
137	0x3dd97675	0.10618297
138	0xbf615ab8	-0.8802905
139	0xbf9cc315	-1.2247034
140	0xbf80fb21	-1.0076638
141	0x3d5e3fa2	0.054259904
142	0x3ee3fa81	0.44527057
143	0x3dc47813	0.09593215
144	0x3ed33894	0.41254103
145	0xbd6b33f8	-0.057422608
146	0x3e76b3b2	0.24091986
147	0x3f645764	0.8919585
148	0xbea05094	-0.31311476
149	0xbed74239	-0.4204271
150	0xbf630b3a	-0.88689005
151	0x3ee69698	0.4503677
152	0x3e54add5	0.20769437
153	0x3eb1a45d	0.34695712
154	0x3ee1cf67	0.44103548
155	0xbf88998e	-1.0671861
156	0x3e83cc99	0.25742033
157	0xbe9d0fb2	-0.30676037
158	0xbefdfcd7	-0.49606964
159	0x3ea74133	0.3266693
160	0x3ba0b41b	0.0049042827
161	0xbef398e4	-0.47577584
162	0x3f161851	0.58630854
163	0xbc96736f	-0.01836559
164	0x3f2824ba	0.6568104
165	0x3f3f14d5	0.7464116
166	0xbd8cd6df	-0.06876921
167	0x3f92f9bc	1.1482463
168	0x3f0433bb	0.51641434
169	0x3ea63dbc	0.32468975
170	0xbe0a0625	-0.13478906
171	0x3f90f995	1.1326166
172	0x3aa3a798	0.001248586
173	0x3ddaf6a1	0.10691572
174	0xbeda7066	-0.42663878
175	0x3f903a16	1.1267726
176	0xbe76f36f	-0.241163
177	0x3e58526a	0.21125188
178	0x3e265ba8	0.16245902
179	0xbd5453d4	-0.051837757
180	0x3eda1467	0.4259369
181	0x3c90a117	0.017654939
182	0x3f8e3834	1.1110902
183	0x3eb9973c	0.36248195
184	0x3fc139b0	1.509573
185	0xbf72da17	-0.9486403
186	0x3f36d3cb	0.7141692
187	0xbe8dcd54	-0.27695715
188	0xbe23d430	-0.15998912
189	0x3f3f3b27	0.74699634
190	0x3f0dad5c	0.5534265
191	0x3e4a9170	0.19782043
192	0xbf453c5f	-0.77045244
193	0x3f930abe	1.1487653
194	0x3ee23de2	0.44187838
195	0x3d570fee	0.052505426
196	0xbe9b00cf	-0.30274054
197	0x3f3dfd32	0.7421447
198	0x3e4b9738	0.19881904
199	0x3f72aa6d	0.947913
200	0xbf3fe634	-0.7496064
201	0xbf297919	-0.66200405
202	0x3ea677f1	0.32513383
203	0xbe5b4656	-0.2141355
204	0xbf4fdd93	-0.8119747
205	0xbec878aa	-0.3915456
206	0xbdc2eb2f	-0.09517514
207	0x3f6e6d1e	0.9313525
208	0xbf02f956	-0.51161706
209	0x3d207719	0.03917608
210	0x3e700d1d	0.23442502
211	0xbda1e90d	-0.07905779
212	0xbee8498a	-0.45368606
213	0x3f3d4d61	0.73946196
214	0xbf23a740	-0.6392708
215	0x3eec5068	0.46155095
216	0x3f30edfd	0.6911314
217	0x3e8f9e54	0.28050482
218	0x3eb6d446	0.35708827
219	0x3e7ab1cc	0.24481887
220	0xbd9beef5	-0.07613937
221	0x3f82fd50	1.0233555
222	0x3e2fb4f7	0.17158876
223	0xbee7b9ee	-0.4525904
224	0x3db2b7fb	0.08726498
225	0xbee99120	-0.45618534
226	0x3f315048	0.69263124
227	0x3f621ff4	0.88330007
228	0x3f3a3254	0.72733045
229	0xbecd41ad	-0.4008917
230	0xbe4ca6ad	-0.19985457
231	0x3f96b523	1.1774029
232	0x3f34bc48	0.70599794
233	0x3dd0ab63	0.101889394
234	0xbf58ca72	-0.8468391
235	0x3f4afe24	0.7929404
236	0x3d9ff5f8	0.07810587
237	0x3f371efc	0.71531653
238	0xbe321b9f	-0.17393349
239	0x3f2ce8c1	0.67542654
240	0xbe64ac31	-0.22331311
241	0x3e91d9f4	0.28486598
242	0xbd5f7ee1	-0.05456436
243	0xbf36f11e	-0.71461666
244	0xbec26bfc	-0.3797301
245	0xbe6a7336	-0.22895512
246	0xbd52a496	-0.051426493
247	0xbd597322	-0.053088315
248	0x3e9aa97d	0.30207434
249	0xbf3b600c	-0.7319343
250	0xbbc94095	-0.006141732
251	0x3f04e2a0	0.519083
252	0x3e7eb274	0.24872762
253	0x3f36f6ef	0.7147054
254	0x3e84d2b0	0.25941992
255	0xbf0a3764	-0.5399077

fc1.bias f4 [12]
0	0x3d77f0e2	0.060532458
1	0x3dbcaf4e	0.09213124
2	0xbf03ea0d	-0.5152901
3	0xbf10c4d3	-0.5655033
4	0xbe9f41af	-0.311048
5	0xbb716b2c	-0.003683756
6	0xbe4734a7	-0.19453679
7	0xbeea5dfd	-0.45774832
8	0x3cee1fa3	0.02906782
9	0xbe9183a5	-0.2842075
10	0xbc9442e7	-0.018098308
11	0xbd4f88e2	-0.05066765
