src/src_learner/java_finetuning_model.pt (torch, 103364 bytes, 11 tensors)

word_embeddings.weight f4 [109, 128]
-1.3556234 -0.8722498 -0.58145374 -1.6493645 -0.30093318 -0.6614611 -0.87947077 -1.4939878
-0.8475686 0.29826966 -0.66145897 -0.4131741 -0.3865399 1.7230531 0.20504706 0.48181283
-0.5379189 -1.1653719 0.8055544 0.11749214 0.8810962 0.12891519 -0.68953425 0.63364816
0.9114323 -0.21122758 -2.332915 -1.5787822 0.1366756 -0.6082805 -1.0350448 -0.11919229
1.8656985 0.018028157 -0.011838676 -0.68218476 0.45129797 0.10885046 0.13616201 -0.5606923
-0.0055798716 0.12520781 -0.3078747 0.041498397 2.3534937 -0.8308692 1.6858065 -0.6069716
-1.0297995 0.8241361 -0.17653075 -0.6372745 0.8125658 0.67549366 1.2441953 1.8434998
0.007812203 0.9134231 -0.3826594 -0.65267324 1.5320174 -0.5973248 -3.4086826 -0.7836986
-0.11187801 -1.1255745 -0.74538743 -1.1399605 -0.052497726 -0.043662388 1.6291206 -0.120895214
-0.7585222 -0.09939573 -1.054523 -0.91889286 -0.36799023 -0.64058006 0.565085 -1.116441
-0.25478548 0.2735773 -0.4881269 0.76630217 -1.4010582 -0.47308874 0.17047217 -0.3098011
0.17802715 -0.41058886 -1.1056896 0.6586822 -0.9990295 -0.5832135 0.58352226 1.9919133
0.63992673 1.3034916 0.90909636 -0.91944104 1.5012096 -0.81389916 -1.1413618 1.1111196
1.3975224 0.35458556 -0.22485967 0.03638007 -2.14338 -0.49642348 -1.6607121 -1.0937965
0.8374586 -0.5533823 1.2452536 0.6075317 0.30942366 0.35799327 0.5022839 -0.58577293
2.5907876 -0.1818075 -0.07548815 1.9794772 -1.9129081 1.6315655 -0.027072728 0.4187992
0.71236455 -1.7765073 0.35386458 1.1996132 -0.3029974 -1.7618417 0.6348446 -0.8043591
-1.6111118 -1.8716129 0.5430836 0.6606786 2.2952116 0.67490596 1.7133216 -1.7942734
-1.3632672 -0.9832196 1.5112667 0.64187074 0.4729638 -0.4285901 0.55137074 -1.5473709
0.5181121 0.10653535 0.26924077 1.324768 1.7460191 1.854969 -0.7063691 2.5570862
0.4175343 -0.2127186 -0.839958 -0.42001787 -0.6240363 -0.9772961 0.8748428 0.9872814
0.30957633 1.52069 1.2052339 -1.815591 -0.40346155 -0.9591452 -0.005207704 -0.07886314
0.8436543 1.1657013 0.5269322 1.6192533 -0.96397626 0.14152038 -0.16366096 -0.35822257
1.7222793 -0.3035756 0.2388742 1.3440012 0.10322569 1.1003542 -0.3416802 0.9473389
-0.56851596 0.8375962 1.7836607 -0.19542466 0.5149161 -1.8474776 -2.9167426 -0.5673299
-0.5412802 0.895174 -0.882507 0.53181124 -1.5457772 -0.17329982 0.72824633 0.05706102
0.9055172 1.0462948 -0.520597 1.3547838 0.23519313 1.9142433 1.8364111 1.3245324
-0.96900916 1.2516364 1.2103242 -0.5279206 0.21856615 -0.57430726 1.4571251 1.7709557
1.6499138 -0.43200457 -0.2710269 -1.4391626 1.2470404 1.2738512 0.39094925 0.3872105
-0.07982872 0.3417243 0.9488273 -1.3839359 1.7240863 -2.3647652 -0.9294909 0.2936253
0.21513203 0.9384637 1.4657077 -0.5564744 -0.7448408 -0.20215721 -0.2296679 0.0013313366
0.3752759 -0.5810679 -0.57230884 1.0097175 -0.10564939 -1.179696 -0.090779595 0.56311435
00000000: 1185 adbf c34b 5fbf 27da 14bf 601e d3bf
00000010: ea13 9abe 8455 29bf ff24 61bf fe3a bfbf
00000020: 41fa 58bf cdb6 983e 6055 29bf 8e8b d3be
00000030: 8fe8 c5be 018d dc3f dbf7 513e 2cb0 f63e
00000040: 0eb5 09bf e82a 95bf d038 4e3f b89f f03d
00000050: 858f 613f 5802 043e 5185 30bf c436 223f
00000060: a153 693f 0b4c 58be 7b4e 15c0 8915 cabf
00000070: b0f4 0b3e 45b8 1bbf 597c 84bf 161b f4bd
00000080: 35cf ee3f c9af 933c 02f7 41bc a9a3 2ebf
00000090: 8710 e73e fdec de3d 0e6e 0b3e 8889 0fbf
000000a0: 5bd7 b6bb 7a36 003e c1a1 9dbe 39fa 293d
000000b0: a49f 1640 d8b3 54bf 82c8 d73f 7e62 1bbf
000000c0: 78d0 83bf 95fa 523f 7ac4 34be 6c24 23bf
000000d0: 5004 503f 27ed 2c3f cb41 9f3f cdf7 eb3f
000000e0: 82fd ff3b 19d6 693f efeb c3be 9815 27bf
000000f0: 2519 c43f 47ea 18bf db27 5ac0 79a0 48bf
00000100: 4c20 e5bd d312 90bf b6d1 3ebf 3aea 91bf
00000110: db07 57bd 55d7 32bd 0687 d03f e997 f7bd
00000120: 832e 42bf fd8f cbbd 9cfa 86bf 903c 6bbf
00000130: 3769 bcbe 0efd 23bf 69a9 103f 8ae7 8ebf
00000140: 3e73 82be 5312 8c3e c5eb f9be 612c 443f
00000150: e055 b3bf b038 f2be 4290 2e3e 409e 9ebe
00000160: c04c 363e b438 d2be 3d87 8dbf 669f 283f
00000170: 66c0 7fbf 7b4d 15bf b761 153f 04f7 fe3f
00000180: 3dd2 233f d0d8 a63f 8aba 683f 7d60 6bbf
00000190: a327 c03f b25b 50bf 2518 92bf 2b39 8e3f
000001a0: 04e2 b23f 3d8c b53e 9d41 66be 4503 153d
000001b0: 232d 09c0 382b febe 3792 d4bf 8601 8cbf
000001c0: b063 563f 76aa 0dbf 7864 9f3f 3387 1b3f
000001d0: c76c 9e3e e54a b73e ad95 003f 37f5 15bf
000001e0: 77cf 2540 bf2b 3abe 8899 9abd 825f fd3f
000001f0: 2cda f4bf 23d7 d03f a0c7 ddbc d96c d63e
00000200: 865d 363f 9764 e3bf bd2d b53e ed8c 993f
00000210: 7a22 9bbe 0784 e1bf 2d85 223f 7aea 4dbf
00000220: e938 cebf 0391 efbf 8707 0b3f 3c22 293f
00000230: bfe4 1240 a3c6 2c3f 1f4e db3f c0aa e5bf
00000240: 8a7f aebf 48b4 7bbf 3071 c13f a451 243f
00000250: 5028 f23e 2970 dbbe a226 0d3f 4010 c6bf
00000260: ffa2 043f 352f da3d edd9 893e ff91 a93f
00000270: 8e7d df3f a06f ed3f 9bd4 34bf 4da7 2340
00000280: 0ec7 d53e e8d2 59be 7d07 57bf 950c d7be
00000290: d8c0 1fbf 1430 7abf b3f5 5f3f 79be 7c3f
000002a0: ca80 9e3e f8a5 c23f 1b45 9a3f 4965 e8bf
000002b0: 8392 cebe 8a8a 75bf 63a5 aabb ff82 a1bd
000002c0: baf9 573f b335 953f 07e5 063f b143 cf3f
000002d0: 26c7 76bf b8ea 103e bd96 27be f368 b7be
000002e0: a673 dc3f 436e 9bbe 709b 743e 3b08 ac3f
000002f0: fe67 d33d 68d8 8c3f b5f0 aebe cd84 723f
00000300: 438a 11bf b46c 563f fe4e e43f 671d 48be
00000310: 8bd1 033f 257a ecbf e9ab 3ac0 883c 11bf
00000320: 5791 0abf 202a 653f fbeb 61bf c824 083f
00000330: 07dc c5bf 8275 31be 5a6e 3a3f d1b8 693d
00000340: facf 673f fdec 853f d845 05bf 8e69 ad3f
00000350: 78d6 703e ed05 f53f 850f eb3f 478a a93f
00000360: fc10 78bf 9f35 a03f e7eb 9a3f ce25 07bf
00000370: cecf 5f3e cd05 13bf 1383 ba3f adae e23f
00000380: 6030 d33f b42f ddbe 0ac4 8abe 7b36 b8bf
00000390: 059f 9f3f 8e0d a33f 802a c83e 7440 c63e
000003a0: 3d7d a3bd 7df6 ae3e 59e6 723f d024 b1bf
000003b0: dcae dc3f 5058 17c0 1ef3 6dbf 0e56 963e
000003c0: 924b 5c3e 283f 703f 4f9c bb3f 1b75 0ebf
000003d0: e3ad 3ebf 4d02 4fbe 102e 6bbe 3e80 ae3a
000003e0: 2a24 c03e dec0 14bf d582 12bf 6c3e 813f
000003f0: b55e d8bd 4700 97bf a7ea b9bd 4328 103f

rnn.weight_ih_l0 f4 [32, 128]
-0.13728744 -0.1458879 -0.06482761 0.20132722 -0.09808138 0.04207149 0.101328835 0.20902073
0.05527868 0.16162822 0.057534445 0.09482679 -0.12452512 0.06010548 0.19855036 0.0023095456
0.0095216865 0.18648285 -0.0577125 0.21903558 0.08366196 -0.030883357 0.1041252 0.17654726
-0.21400236 0.17450984 0.012349887 -0.1409093 0.09205876 0.12890822 -0.21075511 -0.06608512
-0.003350409 -0.006054186 0.1546586 -0.13195962 -0.14293392 -0.06290875 0.1480892 0.019369505
-0.0317515 0.26903522 0.06712993 -0.17021358 -0.20683007 -0.16299267 -0.31785384 -0.1723847
-0.16257173 -0.21874519 0.31461924 0.13117947 0.09715059 -0.14185931 -0.02938649 0.10899443
0.18805102 0.067963846 0.023324365 -0.17881143 0.045980662 -0.06896151 0.10890845 -0.101544365
-0.11853961 -0.05405529 -0.021112334 -0.093864724 0.05514041 0.15945491 0.21373305 -0.016802942
0.017723937 0.0876472 -0.1973136 0.12820221 -0.05575175 -0.06871237 -0.056799248 -0.08782952
0.081815995 0.22527413 -0.13034014 0.009421505 0.14259487 0.2259303 -0.21575567 0.020055812
-0.029254718 -0.16904537 -0.078347586 0.08103051 0.010564294 -0.18598008 -0.06317177 0.07103136
-0.0040631085 -0.08602896 -0.13787602 0.28296 0.10150742 -0.19989762 -0.12970707 -0.0782456
0.13102657 -0.035289887 -0.07965571 0.102153555 -0.0241166 0.1504449 -0.054407194 -0.10137245
-0.078603655 -0.008330908 0.02442025 0.023341829 0.13425682 0.09244047 -0.18881 -0.09460868
-0.004771417 0.13499638 -0.1579727 -0.013834628 -0.015514741 0.08141202 0.044932686 -0.11383451
0.04270942 -0.13940136 -0.037141114 -0.11732287 0.101959996 0.10901845 0.016823847 0.0041452064
0.043230247 -0.2270503 0.033154473 0.10016654 0.16007398 0.11348073 -0.110769786 0.1579061
0.09577696 -0.17125438 0.07372289 0.006517496 0.19798927 -0.19727695 0.13749011 0.22392175
0.101838276 -0.05214796 0.075596206 0.13575535 -0.107695185 0.11186245 0.04066916 0.051291857
-0.10782382 -0.034090806 -0.055778377 0.114264704 0.14796953 -0.23817071 0.045476165 -0.035444047
-0.01800073 0.055617675 -0.024490234 0.048560522 0.045033466 -0.009698923 0.13520996 -0.15267809
0.21934514 0.02618695 0.074547626 -0.05333463 -0.13898306 -0.0915892 0.05267463 -0.10325242
-0.17205621 0.027080711 0.13427822 0.1494365 0.027717352 -0.2012274 0.15412316 0.10063804
0.20685337 -0.06796489 0.019717155 0.08774216 0.089234576 -0.14131396 -0.1181113 -0.010559962
0.1375205 -0.024760962 0.105136186 0.20794402 0.007537217 -0.14019915 -0.041713875 0.13595466
0.017764993 -0.17000936 -0.014262627 -0.27151632 -0.20347191 -0.14774391 -0.0774077 0.12814891
0.19509773 -0.06664021 -0.0035862233 0.1271783 0.04923576 -0.072201684 -0.025815647 -0.13363658
0.0105060935 0.018439163 0.17694953 0.257608 0.108153395 0.11306301 -0.048140693 0.028725937
-0.060508795 0.1728258 0.08512738 -0.28819188 0.059051298 -0.03832966 0.016399669 -0.118254125
-0.009202802 -0.14815308 0.06369621 0.08644344 0.047011048 -0.06304568 0.0075346325 -0.21553656
-0.077905126 -0.060844116 0.12289635 0.07865919 0.000311522 0.16350158 -0.013719393 0.15322651
00000000: 1495 0cbe a363 15be 57c4 84bd b928 4e3e
00000010: e4de c8bd 2853 2c3d 7e85 cf3d 8809 563e
00000020: e66b 623d de81 253e 3da9 6b3d 8c34 c23d
00000030: 0707 ffbd 2a31 763d c950 4b3e bf5b 173b
00000040: d900 1c3c 5cf5 3e3e f163 6cbd dd4a 603e
00000050: f656 ab3d 18ff fcbc 983f d53d cec8 343e
00000060: 6f23 5bbe b5b2 323e 2e57 4a3c 874a 10be
00000070: 4e89 bc3d 8400 043e 30d0 57be a357 87bd
00000080: 8992 5bbb 3162 c6bb d35e 1e3e 6c20 07be
00000090: 455d 12be 4dd6 80bd b2a4 173e ccac 9e3c
000000a0: dc0d 02bd fcbe 893e 6b7b 893d 784c 2ebe
000000b0: 43cb 53be 8de7 26be bdbd a2be 9d85 30be
000000c0: 3479 26be bdfe 5fbe c615 a13e e953 063e
000000d0: e3f6 c63d 9143 11be f0bb f0bc 7938 df3d
000000e0: 7290 403e a130 8b3d bd12 bf3c 581a 37be
000000f0: 3856 3c3d b13b 8dbd 650b df3d 7ef6 cfbd
00000100: e5c4 f2bd 1469 5dbd c6f3 acbc 263c c0bd
00000110: e9da 613d 2648 233e d6dc 5a3e 53a6 89bc
00000120: ca31 913c 6080 b33d 940c 4abe 7147 033e
00000130: f25b 64bd 12b9 8cbd 54a6 68bd f7df b3bd
00000140: 258f a73d 43ae 663e e377 05be a85c 1a3c
00000150: 6404 123e 465a 673e 0eef 5cbe 164c a43c
00000160: 97a7 efbc 3b1a 2dbe b374 a0bd 53f3 a53d
00000170: dc15 2d3c 9071 3ebe 3360 81bd e478 913d
00000180: d323 85bb f42f b0bd 5f2f 0dbe 22e0 903e
00000190: 1fe3 cf3d f6b1 4cbe eed1 04be 3b3f a0bd
000001a0: d42b 063e 218c 10bd 8822 a3bd e235 d13d
000001b0: 2d90 c5bc 3a0e 1a3e 14da 5ebd 5c9c cfbd
000001c0: f4fa a0bd 5c7e 08bc fa0c c83c 5d37 bf3c
000001d0: 9f7a 093e 6e51 bd3d 6957 41be 32c2 c1bd
000001e0: 8c59 9cbb 7e3c 0a3e 98c3 21be a3aa 62bc
000001f0: 8a31 7ebc 58bb a63d 560b 383d 1122 e9bd
00000200: 13f0 2e3d 3bbf 0ebe 4821 18bd f946 f0bd
00000210: 67d0 d03d 1145 df3d 2ad2 893c 83d4 873b
00000220: 3312 313d e07f 68be fccc 073d 1d24 cd3d
00000230: 6fea 233e 9668 e83d 45db e2bd 23b2 213e
00000240: b626 c43d 4f5d 2fbe 07fc 963d b890 d53b
00000250: b3bd 4a3e f802 4abe 35ca 0c3e be4b 653e
00000260: 9690 d03d 1999 55bd 2fd2 9a3d 7303 0b3e
00000270: 4b8f dcbd 2418 e53d b594 263d 6917 523d
00000280: bcd2 dcbd cda2 0bbd de77 64bd 9d03 ea3d
00000290: 5385 173e 06e3 73be 3745 3a3d c72d 11bd
000002a0: 4476 93bc 5ccf 633d be9f c8bc 66e7 463d
000002b0: 0375 383d 3be8 1ebc 7b74 0a3e a557 1cbe
000002c0: 039c 603e 0486 d63c 6dac 983d 6a75 5abd
000002d0: 9351 0ebe 1e93 bbbd 5ac1 573d 0176 d3bd
000002e0: 812f 30be 5ed8 dd3c 3b80 093e e205 193e
000002f0: 800f e33c 8e0e 4ebe 76d2 1d3e 511b ce3d
00000300: 5fd1 533e 2d31 8bbd df85 a13c 29b2 b33d
00000310: 9ec0 b63d 9bb4 10be 56e4 f1bd b103 2dbc
00000320: 2dd2 0c3e 80d7 cabc a451 d73d 47ef 543e
00000330: c2fa f63b 5e90 0fbe 2bdc 2abd b337 0b3e
00000340: e487 913c ef16 2ebe cbad 69bc 3004 8bbe
00000350: f15a 50be 2e4a 17be ee87 9ebd 7839 033e
00000360: b3c7 473e aa7a 88bd d806 6bbb 073b 023e
00000370: 70ab 493d 7ade 93bd 567b d3bc 07d8 08be
00000380: c021 2c3c ba0d 973c 4232 353e 32e5 833e
00000390: 877f dd3d 948d e73d 2d2f 45bd a852 eb3c
000003a0: 12d8 77bd 3ff9 303e 4457 ae3d e38d 93be
000003b0: c6df 713d 90ff 1cbd 9958 863c 382f f2bd
000003c0: 59c7 16bc 71b5 17be 2973 823d 4209 b13d
000003d0: a88e 403d 181e 81bd 14e5 f63b 9eb5 5cbe
000003e0: b98c 9fbd ae37 79bd 15b1 fb3d 1218 a13d
000003f0: c653 a339 f56c 273e 4ec7 60bc 69e7 1c3e

rnn.weight_hh_l0 f4 [32, 32]
-0.20206372 0.17310093 -0.012156241 0.17076379 0.022726648 -0.09760797 0.23366708 0.053566415
-0.17684297 0.0092372615 0.22453852 0.0140633555 0.00051811914 0.37389466 -0.17454538 0.009870723
-0.085689165 -0.17538671 -0.023517925 -0.0018033471 -0.13170086 0.12110548 -0.30680853 0.0418735
0.14753202 0.08463733 -0.103847235 0.12994899 0.11333054 0.14282456 -0.10483906 -0.0960063
0.06086511 0.11309341 0.010502236 -0.19434702 -0.040850658 -0.07896357 -0.009688143 0.16912553
-0.19015916 0.12546696 -0.29139486 -0.18476152 0.015918093 0.18476105 0.0661741 0.26394358
0.38222554 -0.03300634 -0.34629846 -0.07841029 0.3123665 -0.0780675 0.015290356 -0.03554247
0.22520119 -0.009578623 -0.05776292 -0.20896442 -0.24713093 -0.028493624 0.04732567 0.32556978
-0.052766453 -0.06491913 0.01161836 -0.08333244 0.03291656 0.044063162 -0.075154305 -0.3652723
0.18419369 0.18548112 -0.16971491 0.006329351 0.16049121 -0.37986517 -0.32192722 0.23103106
-0.2558171 0.0037885816 0.20760971 -0.14435154 0.023310293 0.24245605 -0.34439826 0.2804982
-0.10705524 0.44409555 0.26388136 0.21127242 -0.34106794 -0.18076445 0.002815693 -0.29636782
0.37696362 -0.43594503 0.071224764 0.061946724 -0.028009357 0.35748005 -0.07589047 -0.108008154
-0.08293561 0.26666024 0.22208421 0.16556317 -0.27868292 0.13810709 -0.15885009 -0.016708773
-0.16152015 -0.13235794 0.027066719 -0.03202104 0.082425684 -0.10120937 0.2329911 0.18285412
-0.31138748 0.33392262 0.36053717 0.24140806 -0.008663666 0.08612676 -0.168294 -0.06334319
0.3524611 -0.023050614 0.31288078 -0.09968183 0.12577547 -0.029053707 -0.26291975 -0.33351615
0.05003374 -0.22625421 -0.0551735 -0.031212846 0.13962922 -0.34022066 -0.14641418 -0.012847249
0.025531007 0.020465432 0.1696644 0.021250973 0.12649117 0.30871883 0.18211591 0.25160182
-0.30122665 0.107548565 -0.11576804 -0.04587362 -0.27114147 -0.18188404 -0.13985142 -0.29667807
-0.34787953 -0.20092219 0.32307005 -0.119956635 -0.02230988 -0.17629588 0.030296002 0.38900647
-0.30614382 -0.20586681 0.39580652 0.06514306 -0.21056294 0.0071448414 0.22964098 -0.21854733
0.06855935 -0.10658083 -0.07679902 0.4606386 -0.16764244 -0.18679778 0.4009109 -0.11276745
-0.3513209 -0.2539676 -0.1996337 -0.038836163 0.06989416 0.12224217 -0.2697269 0.02013479
0.29642084 0.19317847 -0.14169072 -0.1394977 -0.05622624 0.11561975 -0.1402775 0.020771299
-0.039347563 0.26816478 0.08330195 -0.06421083 0.24021862 0.28443295 0.20260674 -0.12637731
-0.014408198 -0.21798284 0.2252979 -0.3761391 -0.24934492 0.42614385 -0.13133685 -0.2270903
0.08655917 -0.22936411 -0.035828587 -0.36508837 0.24673349 -0.0013362613 -0.027543804 0.012878268
-0.005792044 -0.084022164 -0.16098046 -0.19341716 -0.1524491 0.36995536 -0.13723162 -0.007986007
-0.14316896 -0.00471896 0.2036186 0.031479567 -0.02026524 -0.10138577 0.076226644 -0.24460655
-0.008725906 0.08888759 0.27744958 -0.27329078 -0.17369156 0.048432622 -0.29160193 -0.23682073
0.11241469 0.11532331 -0.25416768 -0.23629987 -0.05063998 -0.1956082 0.038516276 0.21079029
00000000: cbe9 4ebe 5f41 313e f82a 47bc b4dc 2e3e
00000010: 3c2d ba3c b0e6 c7bd 6c46 6f3e 7568 5b3d
00000020: 5316 35be e257 173c 6ded 653e fd69 663c
00000030: 63d2 073a 1f6f bf3e 06bc 32be d0b8 213c
00000040: cd7d afbd 9398 33be aaa8 c0bc 4a5e ecba
00000050: 97dc 06be 2606 f83d 0216 9dbe 8c83 2b3d
00000060: a212 173e 5656 ad3d dcad d4bd 5911 053e
00000070: d819 e83d 9a40 123e dcb5 d6bd f39e c4bd
00000080: b24d 793d 859d e73d 9211 2c3c e802 47be
00000090: 0553 27bd a7b7 a1bd 04bb 1ebc 3e2f 2d3e
000000a0: 15b9 42be 697a 003e b531 95be 2032 3dbe
000000b0: a966 823c 0032 3d3e 4986 873d 9d23 873e
000000c0: 11b3 c33e a831 07bd 084e b1be 9395 a0bd
000000d0: 80ee 9f3e dae1 9fbd 6784 7a3c fb94 11bd
000000e0: 249b 663e a8ef 1cbc d098 6cbd c5fa 55be
000000f0: e40f 7dbe 766b e9bc 90d8 413d 15b1 a63e
00000100: a321 58bd 52f4 84bd ef5a 3e3c 33aa aabd
00000110: 84d3 063d 937b 343d 80ea 99bd f904 bbbe
00000120: 459d 3c3e c3ee 3d3e bfc9 2dbe 7266 cf3b
00000130: cf57 243e b07d c2be a5d3 a4be 6893 6c3e
00000140: 75fa 82be da49 783b a497 543e e4d0 13be
00000150: 3af5 be3c 6646 783e f854 b0be 769d 8f3e
00000160: c73f dbbd 7e60 e33e 751b 873e cc57 583e
00000170: 75a0 aebe 511a 39be 7d87 383b 86bd 97be
00000180: 6001 c13e 3034 dfbe 4ade 913d d9bb 7d3d
00000190: e173 e5bc a007 b73e 766c 9bbd 6133 ddbd
000001a0: 25da a9bd b187 883e 0b6a 633e 6489 293e
000001b0: 87af 8ebe f26b 0d3e 99a9 22be d6e0 88bc
000001c0: 8a65 25be d788 07be 06bb dd3c 7e28 03bd
000001d0: ccce a83d dc46 cfbd 3895 6e3e 1c3e 3b3e
000001e0: 2e6e 9fbe e8f7 aa3e 5498 b83e ad33 773e
000001f0: 0df2 0dbc 3a63 b03d 4355 2cbe 13ba 81bd
00000200: c875 b43e a4d4 bcbc e931 a03e fd25 ccbd
00000210: 49cb 003e 0a02 eebc 6b9d 86be a1c2 aabe
00000220: 2ef0 4c3d 2faf 67be 9cfd 61bd 15b2 ffbc
00000230: f6fa 0e3e 6731 aebe 99ed 15be 457d 52bc
00000240: 6726 d13c 1fa7 a73c 81bc 2d3e 8516 ae3c
00000250: e786 013e 6510 9e3e 987c 3a3e f4d1 803e
00000260: 613a 9abe 6c42 dc3d cb17 edbd fae5 3bbd
00000270: 0ed3 8abe cf3f 3abe 3635 0fbe 30e6 97be
00000280: 441d b2be 8cbe 4dbe 7069 a53e d3ab f5bd
00000290: 36c3 b6bc e886 34be 522f f83c db2b c73e
000002a0: e2be 9cbe c0ce 52be 27a7 ca3e ba69 853d
000002b0: d09d 57be 461f ea3b 0127 6b3e dfca 5fbe
000002c0: d868 8c3d 0d47 dabd ce48 9dbd d3d8 eb3e
000002d0: 76aa 2bbe eb47 3fbe 3244 cd3e 9ff2 e6bd
000002e0: 55e0 b3be 0b08 82be c76c 4cbe ab12 1fbd
000002f0: ab24 8f3d 1a5a fa3d a519 8abe b7f1 a43c
00000300: 79c4 973e 94d0 453e 5f17 11be 7cd8 0ebe
00000310: 7c4d 66bd 0cca ec3d e8a4 0fbe 9228 aa3c
00000320: e92a 21bd e54c 893e 369a aa3d f880 83bd
00000330: dffb 753e 32a1 913e 2478 4f3e 0e69 01be
00000340: 5d10 6cbc e536 5fbe 7eb4 663e 4e95 c0be
00000350: 4654 7fbe 872f da3e 2b7d 06be 5c8a 68be
00000360: ef45 b13d 6dde 6abe ffc0 12bd ddec babe
00000370: b4a7 7c3e 7d25 afba 8ba3 e1bc 5fff 523c
00000380: 30cb bdbb d013 acbd 10d8 24be 260f 46be
00000390: 9e1b 1cbe ca6a bd3e 7286 0cbe bed7 02bc
000003a0: e29a 12be 81a1 9abb 6581 503e b8f0 003d
000003b0: 4a03 a6bc 58a3 cfbd b71c 9c3d 247a 7abe
000003c0: 1af7 0ebc b20a b63d df0d 8e3e c5ec 8bbe
000003d0: 33dc 31be 4961 463d d94c 95be 2281 72be
000003e0: ac39 e63d a12e ec3d 4422 82be 98f8 71be
000003f0: de6b 4fbd 844d 48be 3ec3 1d3d 69d9 573e

rnn.bias_ih_l0 f4 [32]
-0.0711259 -0.18573633 -0.066456884 -0.03722299 0.20337924 0.17317939 -0.21410172 0.05190605
-0.002688458 -0.016691366 0.038326345 -0.037334483 -0.0818791 0.12711543 0.146544 0.034457225
-0.090659946 0.12957391 0.19953303 0.081002936 0.053663068 -0.084990844 0.0350664 0.09207082
-0.11529515 -0.006134399 0.115852356 0.0121108685 -0.20264706 -0.08086182 -0.06216332 -0.00375941
00000000: 75aa 91bd aa31 3ebe 8c1a 88bd 2277 18bd
00000010: a642 503e f055 313e 7b3d 5bbe 709b 543d
00000020: d730 30bb 55bc 88bc 16fc 1c3d 0bec 18bd
00000030: 3bb0 a7bd 8c2a 023e a10f 163e 0523 0d3d
00000040: ecab b9bd 06af 043e 6352 4c3e dee4 a53d
00000050: cecd 5b3d ae0f aebd c9a1 0f3d a08f bc3d
00000060: dd1f ecbd 1203 c9bb 0044 ed3d aa6c 463c
00000070: b682 4fbe e29a a5bd f79e 7ebd 6f60 76bb

rnn.bias_hh_l0 f4 [32]
0.087020546 -0.17939472 -0.09753549 -0.15022598 -0.10221094 -0.011333637 -0.20407401 -0.03934676
0.027738295 -0.069156066 0.047218036 -0.033831827 -0.09557617 0.18433823 0.14231026 0.019734198
-0.13635747 -0.037158977 0.11001136 -0.059641205 0.081306204 -0.22792238 -0.09139895 -0.0151257645
-0.09276218 0.024849305 -0.15281697 -0.10372997 -0.0011448159 0.034698974 -0.07363681 -0.0054595214
00000000: d437 b23d 40b3 37be b0c0 c7bd d7d4 19be
00000010: f853 d1bd b8b0 39bc c7f8 50be 112a 21bd
00000020: 6c3b e33c b2a1 8dbd b367 413d 3e93 0abd
00000030: 70bd c3bd 29c3 3c3e c8b9 113e 9da9 a13c
00000040: 4ba1 0bbe 0334 18bd a34d e13d 564a 74bd
00000050: de83 a63d 7c64 69be 5f2f bbbd 0ed2 77bc
00000060: 19fa bdbd c590 cb3c 0d7c 1cbe 6170 d4bd
00000070: a60d 96ba 8320 0e3d e5ce 96bd c9e5 b2bb

rnn.weight_ih_l0_reverse f4 [32, 128]
0.10542756 -0.054355063 0.011272139 0.03620041 -0.017191218 -0.015975546 0.043204226 -0.1081509
-0.06640174 -0.11801508 0.07036117 -0.1376922 -0.07871134 -0.090527035 0.17201732 0.11714024
0.078075744 -0.00873721 0.051232927 -0.0067723338 0.11202373 0.04605477 -0.008494691 -0.07265856
-0.017025936 -0.22753118 0.03298862 0.12727614 0.052991025 -0.09031576 -0.17085353 -0.111431554
0.14989632 0.076284245 -0.1525539 -0.29232654 -0.015714498 0.051404595 -0.056213107 -0.13796502
0.021038348 -0.052670084 0.022498183 0.04803184 0.007571971 0.15953997 0.026394421 -0.014866265
-0.17776985 -0.086940855 0.109030366 -0.16049649 0.20709752 -0.09933668 0.10776987 -0.17641069
-0.25590816 -0.010016026 0.02418325 0.11324715 -0.061877023 0.061211698 -0.16119091 0.0106339045
-0.047668673 0.004126435 -0.12441091 -0.005682228 -0.09551528 -0.14631887 0.11751412 0.052069623
0.011975794 -0.07484474 0.0539573 -0.0973291 -0.065279864 0.03213092 0.14782703 -0.14223094
-0.12734349 0.097029485 -0.11928027 -0.16107565 -0.055500336 0.04685516 -0.06498582 -0.014405634
0.1791679 -0.05996692 0.086112596 -0.19490504 0.07750831 -0.09662017 0.029586866 0.075551465
0.0017688271 0.029765556 -0.036018327 0.043699455 0.071243845 -0.15932445 0.063470185 0.090233594
0.09800145 -0.0069645434 0.08658229 -0.12828825 -0.045480464 0.20837423 -0.2546997 -0.06347361
0.09064401 -0.0937019 -0.039135095 0.040256023 0.15571766 0.18867046 0.21645568 -0.02115133
-0.07678648 0.010187888 -0.10634784 0.05650304 0.09033724 -0.16520607 -0.2591363 -0.014023928
-0.0076344754 0.06974386 -0.06332391 0.013713199 0.13549836 -0.109770454 0.00791137 -0.018415213
0.24498546 -0.098124415 -0.12157125 0.08253848 -0.13275898 0.146546 0.0652821 0.031335134
-0.06453668 0.17393483 -0.0806683 0.15868333 -0.19501013 0.0027693624 -0.03679732 -0.066224195
0.09237979 -0.11848774 0.13300684 0.04099623 -0.17287599 -0.018682836 0.07538517 -0.11038889
0.061653912 -0.16094495 -0.011380359 0.0562092 -0.124860935 0.103554524 -0.13935366 -0.030542715
-0.17488955 0.08182729 -0.033015758 0.00883216 -0.12103072 -0.0123087065 -0.1161025 0.17747828
-0.27032977 -0.080137745 0.12662376 -0.116162345 -0.11998451 -0.15090764 -0.005824866 0.25482163
0.30030513 0.028421171 0.24397309 -0.12409823 0.023479676 -0.1701519 -0.10079846 -0.0741065
0.13600256 0.30004963 0.14469787 0.07956017 -0.2632599 0.056928582 -0.10947722 0.11423994
-0.13100997 0.030885594 -0.048338063 -0.15599068 0.08851499 -0.21532792 0.018557264 0.04087443
-0.101573154 -0.10478159 -0.053435244 0.01445719 -0.030727692 -0.028784303 0.101462424 -0.050551094
-0.032745242 0.06893419 0.016387606 -0.031875804 -0.13063793 0.088793084 -0.1516212 0.008273359
0.03200218 -0.21817487 -0.17802921 0.017592277 0.11967208 -0.0974394 0.13275196 0.016910316
0.039027434 0.20069915 0.18279949 -0.07171337 -0.15522116 -0.2549031 0.15400462 0.141658
0.08910411 0.122108266 0.18409286 0.12999052 0.0570879 0.035980396 0.02862493 0.16977164
-0.053055976 -0.0152351055 0.05273806 -0.032902442 0.097634576 0.046006437 0.25477263 0.0949431
00000000: 68ea d73d 6aa3 5ebd c7ae 383c e246 143d
00000010: 99d4 8cbc 26df 82bc eaf6 303d 387e ddbd
00000020: a3fd 87bd e4b1 f1bd 8419 903d 2fff 0cbe
00000030: 6933 a1bd 3d66 b9bd 4f25 303e 39e7 ef3d
00000040: 2de6 9f3d 8426 0fbc 9ed9 513d 74ea ddbb
00000050: b36c e53d eda3 3c3d 512d 0bbc 03ce 94bd
00000060: fa79 8bbc effd 68be 131f 073d ad54 023e
00000070: 1e0d 593d 78f7 b8bd 3af4 2ebe 3a36 e4bd
00000080: 6c7e 193e ea3a 9c3d 1737 1cbe d3ab 95be
00000090: b1bb 80bc a08d 523d b73f 66bd b446 0dbe
000000a0: 9d58 ac3c 96bc 57bd 1c4e b83c 09bd 443d
000000b0: 4c1e f83b 725e 233e 1d39 d83c a291 73bc
000000c0: 4d09 36be 0c0e b2bd 504b df3d 3159 24be
000000d0: 5f11 543e 0771 cbbd 73b6 dc3d 01a5 34be
000000e0: 6506 83be 421a 24bc f31b c63c 1fee e73d
000000f0: c372 7dbd 1eb9 7a3d 3b0f 25be d439 2e3c
00000100: 3a40 43bd 0c37 873b 26cb febd fc31 babb
00000110: 849d c3bd 9dd4 15be 3eab f03d f546 553d
00000120: 1f36 443c 3348 99bd 5402 5d3d 7b54 c7bd
00000130: 73b1 85bd b69b 033d f85f 173e fda4 11be
00000140: 5566 02be 65b7 c63d 3749 f4bd 04f1 24be
00000150: 5254 63bd 32eb 3f3d 4917 85bd 9c05 6cbc
00000160: ca77 373e e09f 75bd cd5b b03d 3095 47be
00000170: adbc 9e3d cce0 c5bd 2860 f23c baba 9a3d
00000180: fdd7 e73a e5d6 f33c f487 13bd 33fe 323d
00000190: 4be8 913d f325 23be a8fc 813d 64cc b83d
000001a0: fcb4 c83d d336 e4bb 0e52 b13d ff5d 03be
000001b0: b949 3abd 0e60 553e 0068 82be 74fe 81bd
000001c0: 91a3 b93d c8e6 bfbd 1f4c 20bd 80e3 243d
000001d0: 7374 1f3e d432 413e 8fa6 5d3e 8e45 adbc
000001e0: 3b42 9dbd 19eb 263c e5cc d9bd bb6f 673d
000001f0: bb02 b93d c82b 29be 83ad 84be 9ec4 65bc
00000200: 9f2a fabb ded5 8e3d f7af 81bd 53ad 603c
00000210: 15c0 0a3e 55cf e0bd b19e 013c 80db 96bc
00000220: 78dd 7a3e 74f5 c8bd 59fa f8bd ef09 a93d
00000230: f8f1 07be 2810 163e 9fb2 853d 4559 003d
00000240: cf2b 84bd f91b 323e 6c35 a5bd e27d 223e
00000250: bcb0 47be 317e 353b c9b8 16bd 8da0 87bd
00000260: 9e31 bd3d b3a9 f2bd f232 083e aaeb 273d
00000270: 6706 31be bf0c 99bc 8a63 9a3d 9213 e2bd
00000280: d088 7c3d c1ce 24be af74 3abc 9e3b 663d
00000290: 17b7 ffbd 6514 d43d bab2 0ebe b734 fabc
000002a0: 3f16 33be 1195 a73d 883b 07bd c4b4 103c
000002b0: f4de f7bd 75aa 49bc 26c7 edbd debc 353e
000002c0: aa68 8abe 421f a4bd a9a9 013e 86e6 edbd
000002d0: 70ba f5bd 8887 1abe 84de bebb fb77 823e
000002e0: 98c1 993e 84d3 e83c 15d4 793e 3627 febd
000002f0: 7358 c03c 4d3c 2ebe 6c6f cebd 26c5 97bd
00000300: 4144 0b3e 1ba0 993e ae2b 143e 71f0 a23d
00000310: 00ca 86be f22d 693d 9835 e0bd a1f6 e93d
00000320: 7a27 06be c903 fd3c 22fe 45bd 05bc 1fbe
00000330: 5947 b53d ec7e 5cbe 6705 983c f26b 273d
00000340: 9605 d0bd bb97 d6bd eade 5abd dadd 6c3c
00000350: a4b8 fbbc 0fcd ebbc 88cb cf3d aa0e 4fbd
00000360: e01f 06bd 5e2d 8d3d 4d3f 863c 3490 02bd
00000370: f3c5 05be 26d9 b53d 9642 1bbe fc8c 073c
00000380: b814 033d 3c69 5fbe 4a4d 36be ae1d 903c
00000390: a316 f53d 4f8e c7bd 21f0 073e 8187 8a3c
000003a0: 3bdb 1f3d 1484 4d3e ca2f 3b3e 76de 92bd
000003b0: 4cf2 1ebe a982 82be 63b3 1d3e cb0e 113e
000003c0: 377c b63d e613 fa3d d782 3c3e 3c1c 053e
000003d0: 00d5 693d 2e60 133d d47e ea3c 9ed8 2d3e
000003e0: 3951 59bd aa9c 79bc dd03 583d b6c4 06bd
000003f0: a3f4 c73d 3f71 3c3d 8f71 823e 8771 c23d

rnn.weight_hh_l0_reverse f4 [32, 32]
0.1371484 -0.08522359 -0.43097097 0.20434177 0.16337377 -0.14394093 -0.4489213 -0.3614987
-0.2894367 -0.048072115 -0.0066117058 -0.096481256 0.120609924 -0.073975 0.17124666 0.021077365
-0.28635573 0.16118093 0.29776704 0.054319177 -0.02739472 0.19386841 0.0004086136 0.2725486
-0.0008924045 0.01608199 0.07429847 0.08817167 0.4328625 0.25026748 -0.15102828 0.09174296
0.048222184 0.31357127 0.09746814 0.16008733 -0.065974414 0.06295657 -0.053637426 0.23395035
0.18123336 -0.1566483 0.09288164 0.115047425 0.040935658 0.07971717 -0.1976094 -0.3448124
0.26798132 -0.08712745 -0.23560381 0.0334551 -0.14220308 -0.33617315 0.0513257 -0.28553185
0.005312345 -0.13820791 0.22473323 0.36043823 -0.011641382 0.1251492 -0.15204734 0.019244812
0.17651153 0.009450247 0.078332126 0.014698174 -0.172489 -0.012990763 -0.33745703 -0.1482844
-0.23714535 0.16506466 0.10602933 -0.16238861 -0.15783863 -0.18065634 -0.12032021 -0.017224705
0.09660438 0.045001984 -0.21928991 -0.14341109 0.20520654 0.09093893 -0.05547599 -0.009806627
-0.08549217 0.20088172 -0.08746089 -0.03118457 0.089264825 -0.09057512 0.010769368 -0.093176484
-0.07154652 -0.22089739 0.34834096 0.30909932 0.17131656 -0.15068813 0.19699864 0.084582746
-0.085113764 0.086076 -0.056536198 0.2563214 -0.019880595 0.1082924 -0.11367087 -0.014135532
-0.20370361 0.28091726 -0.27307516 -0.32845226 0.051741816 -0.22586814 -0.05815545 0.12451457
0.006205069 -0.2626484 0.026646947 0.15672317 0.17278334 -0.061924055 -0.08081358 -0.004696014
0.08909156 -0.18493105 0.552948 0.17089505 0.05578291 -0.11544063 0.33950448 0.009695527
0.12489645 -0.10417098 0.1678554 0.25489685 0.0643032 -0.3458402 -0.2327724 -0.048266746
-0.08934735 -0.1384902 -0.142262 -0.30195263 0.072937354 0.030826295 -0.13674796 0.1161344
0.3004532 -0.59763575 0.06871336 0.07054234 -0.011983499 -0.2020214 -0.2929008 -0.034688253
0.05205252 -0.05731473 0.09952822 -0.12325581 0.2525016 -0.09219833 0.08908185 0.0131838
0.15821923 0.059782058 -0.0027378423 0.102236055 -0.033863787 0.23204099 -0.013037836 -0.28739193
0.21636233 -0.15309896 -0.37956247 0.026251469 0.012744229 -0.14814964 0.18623711 -0.27045894
-0.03261558 0.29839772 0.22419694 0.20419669 -0.2355491 0.20271796 -0.012898776 -0.32420906
-0.16167837 -0.16012284 -0.092649385 -0.0042800987 -0.075906955 -0.30460912 0.28676924 -0.06764786
-0.12227234 -0.25875032 -0.06986173 -0.041183922 -0.09123548 -0.07412732 -0.16042443 -0.0118406555
-0.22776411 -0.14470257 0.32281142 0.12214883 0.05794844 0.19085316 -0.15868849 0.07469456
0.3550219 -0.42483506 -0.30885145 0.051735047 0.10346474 -0.00018782451 0.31973928 0.30986628
-0.17747563 -0.040324006 -0.18890378 0.11007265 -0.18354802 -0.07128835 -0.10918664 -0.07828512
-0.17275481 0.06722058 -0.013741201 -0.09512005 -0.052250188 0.0075639356 0.006946098 -0.18559186
0.213505 -0.08129847 0.07740064 0.027872417 0.05268735 -0.05396295 0.070505634 0.07939305
-0.15916324 -0.1301544 0.26076126 -0.115361445 0.105819516 -0.17431694 -0.1189762 0.24303693
00000000: a170 0c3e b589 aebd 3aa8 dcbe f83e 513e
00000010: 744b 273e 4065 13be 03d9 e5be 5c16 b9be
00000020: 0c31 94be 44e7 44bd 02a7 d8bb f797 c5bd
00000030: 5602 f73d 3480 97bd 495b 2f3e 70aa ac3c
00000040: 389d 92be 9d0c 253e ec74 983e c97d 5e3d
00000050: e46a e0bc 7185 463e 303b d639 7d8b 8b3e
00000060: 41f0 69ba 61be 833c cc29 983d 5993 b43d
00000070: 27a0 dd3e 0f23 803e 28a7 1abe bce3 bb3d
00000080: a084 453d 6a8c a03e 609d c73d efed 233e
00000090: 981d 87bd 60ef 803d ebb2 5bbd ae90 6f3e
000000a0: 3d95 393e 6968 20be bb38 be3d fc9d eb3d
000000b0: 26ac 273d c142 a33d 1e5a 4abe 408b b0be
000000c0: d934 893e e06f b2bd 2042 71be 3708 093d
000000d0: af9d 11be e31e acbe e63a 523d 3b31 92be
000000e0: 2e13 ae3b 6086 0dbe 7820 663e 5c8b b83e
000000f0: 7fbb 3ebc 1d27 003e 4cb2 1bbe 4ca7 9d3c
00000100: 70bf 343e 35d5 1a3c 986c a03d 9cd0 703c
00000110: f5a0 30be 36d7 54bc 2bc7 acbe ded7 17be
00000120: 3bd6 72be b606 293e e825 d93d 3349 26be
00000130: 73a0 21be fafd 38be 716a f6bd d31a 8dbc
00000140: 84d8 c53d 0054 383d 898d 60be 5bda 12be
00000150: aa21 523e 313e ba3d cb3a 63bd faab 20bc
00000160: 8516 afbd f0b3 4d3e b21e b3bd c976 ffbc
00000170: 7ad0 b63d 737f b9bd 0172 303c 50d3 bebd
00000180: fb86 92bd ed32 62be bf59 b23e 4442 9e3e
00000190: 9c6d 2f3e fd4d 1abe 03ba 493e b839 ad3d
000001a0: 2050 aebd 9d48 b03d 8092 67bd 8f3c 833e
000001b0: a1dc a2bc 68c8 dd3d 46cc e8bd b898 67bc
000001c0: ae97 50be 63d4 8f3e 82d0 8bbe e52a a8be
000001d0: 3aef 533d fa49 67be 6934 6ebd 7f01 ff3d
000001e0: e453 cb3b da79 86be b34a da3c 0a7c 203e
000001f0: 1eee 303e 14a4 7dbd 9781 a5bd 05e1 99bb
00000200: a375 b63d 915e 3dbe 008e 0d3f 1dff 2e3e
00000210: 9f7c 643d 236c ecbd 88d3 ad3e fdd9 1e3c
00000220: b6c9 ff3d 9857 d5bd 49e2 2b3e d781 823e
00000230: 65b1 833d f711 b1be e35b 6ebe 5ab3 45bd
00000240: befb b6bd 60d0 0dbe 21ad 11be 8999 9abe
00000250: 2e60 953d 6d87 fc3c a807 0cbe dfd7 ed3d
00000260: 00d5 993e a8fe 18bf 97b9 8c3d 8178 903d
00000270: 7056 44bc b3de 4ebe 18f7 95be 4515 0ebd
00000280: 0635 553d dac2 6abd 74d5 cb3d 8b6d fcbd
00000290: e447 813e 7ad2 bcbd 8c70 b63d dd00 583c
000002a0: 3904 223e 08de 743d 5f6d 33bb 2361 d13d
000002b0: c1b4 0abd 279c 6d3e a69c 55bc 0925 93be
000002c0: 168e 5d3e f9c5 1cbe 0356 c2be 520d d73c
000002d0: 2ccd 503c 8ab4 17be f1b4 3e3e 9879 8abe
000002e0: ea97 05bd 96c7 983e e293 653e f018 513e
000002f0: c933 71be 4c95 4f3e 6355 53bc bbfe a5be
00000300: 048f 25be 3ef7 23be f6be bdbd 1240 8cbb
00000310: 1b75 9bbd baf5 9bbe 6bd3 923e f68a 8abd
00000320: ec69 fabd ec7a 84be ab13 8fbd 79b0 28bd
00000330: abd9 babd 10d0 97bd 4d46 24be 4fff 41bc
00000340: ff3a 69be e92c 14be 8a47 a53e 2a29 fa3d
00000350: 585b 6d3d 036f 433e 3c7f 22be 76f9 983d
00000360: 6ec5 b53e fb83 d9be c721 9ebe 21e8 533d
00000370: 52e5 d33d c2f2 44b9 deb4 a33e cba6 9e3e
00000380: 2cbc 35be c92a 25bd fe6f 41be c56d e13d
00000390: 03f4 3bbe a0ff 91bd 3f9d dfbd f353 a0bd
000003a0: a3e6 30be f2aa 893d c622 61bc 4dce c2bd
000003b0: 4b04 56bd e4da f73b 189c e33b cb0b 3ebe
000003c0: 0ea1 5a3e d07f a6bd 3a84 9e3d b254 e43c
000003d0: b1ce 573d 4108 5dbd 4265 903d d398 a23d
000003e0: b0fb 22be 3247 05be 8082 853e 9f42 ecbd
000003f0: e7b7 d83d 2480 32be cba9 f3bd acde 783e

rnn.bias_ih_l0_reverse f4 [32]
0.083394065 0.08044294 0.016471226 -0.2459499 -0.19857638 0.10989671 0.06400423 -0.002082806
-0.14967509 -0.20200977 0.19371204 -0.0039867642 0.2759884 -0.0013804636 0.09058914 0.10520375
-0.23720662 -0.060258616 0.0045156125 0.06814177 -0.04052042 0.10746965 -0.027539399 0.0030250028
0.07928324 -0.061307676 0.05144281 -0.21541195 0.08015932 -0.26376545 0.0064243255 0.05651684
00000000: 82ca aa3d 45bf a43d aaee 863c 4ada 7bbe
00000010: 9b57 4bbe 8711 e13d a614 833d b07f 08bb
00000020: 6d44 19be a6db 4ebe 735c 463e 67a3 82bb
00000030: 5a4e 8d3e acf0 b4ba cd86 b93d 1075 d73d
00000040: 4be6 72be bdd1 76bd b4f7 933b ea8d 8b3d
00000050: bdf8 25bd 0c19 dc3d 4e9a e1bc 203f 463b
00000060: 405f a23d c21d 7bbd b2b5 523d f394 5cbe
00000070: 922a a43d 440c 87be 2683 d23b 347e 673d

rnn.bias_hh_l0_reverse f4 [32]
0.14279905 -0.1875622 -0.11894497 -0.04979148 -0.0028888644 -0.13213645 -0.1006539 -0.06213241
0.10134072 0.01134585 -0.017108256 -0.053800017 -0.040730193 -0.22906955 -0.14188251 0.06558344
-0.023110814 0.15731898 0.023577232 0.087642685 0.069163695 0.22476874 -0.17338279 -0.010980231
0.067492545 -0.051199228 0.024541253 0.04859783 -0.13337713 -0.088236175 0.15725592 0.20108105
00000000: ea39 123e 4e10 40be 6c99 f3bd 27f2 4bbd
00000010: 1a53 3dbb c74e 07be a223 cebd 8e7e 7ebd
00000020: b98b cf3d f2e3 393c 9d26 8cbc 685d 5cbd
00000030: b4d4 26bd 3591 6abe a649 11be 9c50 863d
00000040: e452 bdbc 3a18 213e 0a25 c13c 027e b33d
00000050: b2a5 8d3d c729 663e 428b 31be 6de6 33bc
00000060: 8839 8a3d 48b6 51bd bd0a c93c 850e 473d
00000070: 0494 08be 2bb5 b4bd b207 213e 31e8 4d3e

fc1.weight f4 [12, 64]
-0.05143528 -0.2595714 0.32446885 0.37182665 0.31088683 0.027991416 -0.14229357 0.32512146
0.14261016 0.3239199 0.19672096 0.2695433 0.41609392 -0.18421052 -0.4162392 -0.3376326
-0.14851007 0.14635958 -0.19931097 0.16203126 0.6670628 -0.4798919 0.45619988 -0.4600982
-0.07913318 -0.16375755 0.27044973 0.49877375 -0.6505201 -0.39642057 0.45308363 0.44451123
0.40153283 -0.45239794 -0.053755153 -0.39263824 -0.5543363 -0.3381835 0.07643717 -0.2858374
-0.38398036 0.38098082 0.5580226 -0.3133104 0.4850997 -0.15240216 0.22139862 -0.024800701
-0.15117902 0.5386975 -0.09425075 0.19131401 0.4415498 0.06600074 -0.3304173 0.25656322
-0.2024744 0.14848644 -0.14183037 -0.31643313 0.31357223 -0.3919716 0.32748652 0.432836
-0.8840176 -0.23750935 -0.98879576 -1.1809262 -0.27068207 0.6249966 -0.21490777 0.052254576
-1.09804 -1.235484 -0.055907276 0.16206872 -1.3894264 0.44283253 0.60110974 0.43312326
0.71200144 0.6167051 0.89224035 0.39438888 -0.8933705 -0.27134982 -0.25555468 0.07000189
0.35092092 0.27000636 -0.37636933 -0.9777544 0.26279652 -0.37753898 -1.0225872 0.58805615
0.16735493 0.77463377 0.68775845 -0.46524528 -0.6077549 -0.78079414 -0.3290799 1.4446661
-0.26509392 -0.6631162 0.371994 -0.4961766 0.36046946 -0.5399461 -0.6017248 -0.742352
-0.31528512 -0.70637995 -0.8122842 -0.13363306 -1.1831782 1.0269719 -0.18207808 0.43725199
-0.03864644 0.5854678 -0.758748 -0.14338967 -0.5208215 -0.22495027 0.95096445 0.32950857
0.8235902 -0.006256979 1.0077794 -0.97760284 0.50138 0.2611991 -0.006956766 -0.40486684
-1.0442319 0.09525781 -0.86699224 -1.2123057 -1.0040925 0.063139945 0.4380862 0.09834611
0.41081014 -0.048415583 0.24386257 0.8938009 -0.31121093 -0.4218841 -0.8779572 0.43807113
0.21681993 0.33872816 0.43335372 -1.0601646 0.254248 -0.31275046 -0.49754253 0.32650065
0.01105584 -0.4753338 0.595934 -0.027644716 0.6430722 0.73067254 -0.054564472 1.1382551
0.5051446 0.31378737 -0.123315945 1.1188868 0.0070558414 0.09780484 -0.43102285 1.1113802
-0.24409884 0.20885319 0.15623516 -0.0539499 0.41712588 0.029390004 1.0979474 0.36512446
1.4998177 -0.94048893 0.6996198 -0.2820767 -0.16607629 0.7334562 0.5638663 0.20487688
-0.76872694 1.1366854 0.43227518 0.052373014 -0.2986877 0.7483652 0.1916762 0.9476501
-0.75151443 -0.6598167 0.3249992 -0.20684583 -0.81102806 -0.37953055 -0.09481327 0.9227688
-0.5077704 0.0472837 0.23721787 -0.07000871 -0.4537723 0.7286228 -0.6403687 0.45153186
0.6871285 0.28109086 0.35682914 0.23857781 -0.07497184 1.014912 0.16567446 -0.4432972
0.09456135 -0.46193603 0.6996173 0.8697464 0.71351963 -0.41041434 -0.18655784 1.1771307
0.6946621 0.092539825 -0.8354514 0.7822514 0.09007029 0.70487714 -0.1725261 0.6634377
-0.23316456 0.29036865 -0.0521385 -0.70411104 -0.3826214 -0.22005554 -0.058858126 -0.04973323
0.30725992 -0.722909 -0.01511338 0.50605327 0.24185689 0.703808 0.27222815 -0.52876234
00000000: cdad 52bd 8be6 84be c820 a63e 1060 be3e
00000010: 8f2c 9f3e 414e e53c 68b5 11be 5276 a63e
00000020: 6608 123e d4d8 a53e 3871 493e 9401 8a3e
00000030: 430a d53e afa1 3cbe 4e1d d5be 2ede acbe
00000040: 0613 18be 49df 153e 2d18 4cbe 86eb 253e
00000050: a1c4 2a3f 64b4 f5be 0893 e93e fe91 ebbe
00000060: 9410 a2bd 0fb0 27be 6378 8a3e 465f ff3e
00000070: 7c88 26bf a3f7 cabe 94fa e73e fa96 e33e
00000080: b695 cd3e b4a0 e7be 5d2e 5cbd e107 c9be
00000090: fce8 0dbf 6326 adbe 178b 9c3d 4859 92be
000000a0: 1399 c4be eb0f c33e 92da 0e3f 396a a0be
000000b0: fd5e f83e 500f 1cbe 52b6 623e d72a cbbc
000000c0: acce 1abe 14e8 093f 8a06 c1bd d2e7 433e
000000d0: d112 e23e 652b 873d 752c a9be 415c 833e
000000e0: 7355 4fbe d40c 183e fb3b 11be 8603 a2be
000000f0: 8a8c a03e 80b0 c8be 50ac a73e ae9c dd3e
00000100: fa4e 62bf a735 73be b821 7dbf 9728 97bf
00000110: d796 8abe c7ff 1f3f c810 5cbe e508 563d
00000120: 938c 8cbf 5724 9ebf 07ff 64bd 58f5 253e
00000130: b9d8 b1bf f2ba e23e 54e2 193f 55c2 dd3e
00000140: ba45 363f 63e0 1d3f dd69 643f 57ed c93e
00000150: eeb3 64bf 5dee 8abe 10d8 82be 275d 8f3d
00000160: e8ab b33e 463e 8a3e 7bb3 c0be 1d4e 7abf
00000170: 448d 863e ca4c c1be 23e4 82bf d98a 163f
00000180: 175f 2b3e 664e 463f f010 303f a134 eebe
00000190: d395 1bbf 20e2 47bf 297d a8be d2ea b83f
000001a0: 64ba 87be fcc1 29bf ff75 be3e dc0a febe
000001b0: 748f b83e e839 0abf a30a 1abf c80a 3ebf
000001c0: 0d6d a1be 51d5 34bf dbf1 4fbf 1bd7 08be
000001d0: 6272 97bf d173 833f ad72 3abe 7edf df3e
000001e0: bb4b 1ebd 38e1 153f 4f3d 42bf bed4 12be
000001f0: 8f54 05bf 5d59 66be 6872 733f 59b5 a83e
00000200: cfd6 523f 5807 cdbb eafe 803f 2e44 7abf
00000210: 715a 003f e3bb 853e 95f5 e3bb b54a cfbe
00000220: 64a9 85bf 8716 c33d 34f3 5dbf d52c 9bbf
00000230: 1a86 80bf 844f 813d d64c e03e af69 c93d
00000240: b555 d23e 6b4f 46bd 1cb7 793e 23d0 643f
00000250: 0a57 9fbe 3101 d8be cec1 60bf dc4a e03e
00000260: 0b06 5e3e c76d ad3e 8ae0 dd3e 79b3 87bf
00000270: cb2c 823e d420 a0be e5bd febe 182b a73e
00000280: 8e23 353c f45e f3be 218f 183f 2c77 e2bc
00000290: 61a0 243f 5b0d 3b3f ff7e 5fbd 58b2 913f
000002a0: 2851 013f bda8 a03e 128d fcbd af37 8f3f
000002b0: b034 e73b e74d c83d 07af dcbe b541 8e3f
000002c0: 0cf5 79be 9cdd 553e 1cfc 1f3e 92fa 5cbd
000002d0: 8691 d53e 4ec3 f03c 8a89 8c3f 98f1 ba3e
000002e0: 07fa bf3f e2c3 70bf 491a 333f 5b6c 90be
000002f0: e70f 2abe c9c3 3b3f 8b59 103f 3fcb 513e
00000300: 4acb 44bf e87e 913f 2c53 dd3e 1685 563d
00000310: 98ed 98be dd94 3f3f c446 443e 3299 723f
00000320: 4063 40bf bfe9 28bf 4c66 a63e 65cf 53be
00000330: 899f 4fbf d451 c2be 762d c2bd 933a 6c3f
00000340: 3efd 01bf 8eac 413d 3ee9 723e ba60 8fbd
00000350: d854 e8be 0687 3a3f 34ef 23bf 2f2f e73e
00000360: a7e7 2f3f 24eb 8f3e 4fb2 b63e be4d 743e
00000370: d68a 99bd a3e8 813f 91a6 293e daf7 e2be
00000380: 62a9 c13d e182 ecbe 1f1a 333f b3a7 5e3f
00000390: 39a9 363f d421 d2be 0509 3fbe 38ac 963f
000003a0: 60d5 313f 8585 bd3d 25e0 55bf a141 483f
000003b0: c676 b83d d472 343f afaa 30be 0ed7 293f
000003c0: b1c2 6ebe 33ab 943e 2e8f 55bd 9f40 34bf
000003d0: f4e6 c3be 3d56 61be 3815 71bd 12b5 4bbd
000003e0: 2c51 9d3e 9010 39bf 1c9e 77bc b58c 013f
000003f0: 55a9 773e c32c 343f 7d61 8b3e f85c 07bf

fc1.bias f4 [12]
0.045087803 0.07397306 -0.507393 -0.553167 -0.2964504 0.00938757 -0.17988557 -0.44527262
0.042891525 -0.2700026 -0.006574483 -0.060253695
00000000: fdad 383d 307f 973d 82e4 01bf 5a9c 0dbf
00000010: 59c8 97be 53ce 193c ec33 38be c6fa e3be
00000020: 06af 2f3d c83d 8abe c36e d7bb 94cc 76bd
