src/src_learner/java_finetuning_model.pt (torch, 103364 bytes, 11 tensors)

word_embeddings.weight f4 [109, 128]
-1.3547972 -0.8712699 -0.58197576 -1.6484103 -0.29999265 -0.662435 -0.87849456 -1.4949474
-0.84658563 0.2992526 -0.6615221 -0.4121981 -0.38750675 1.723955 0.20603642 0.48280337
-0.5388919 -1.164385 0.8065259 0.11846583 0.88018864 0.12990503 -0.69045746 0.63463515
0.9124148 -0.2103028 -2.3319428 -1.5777942 0.13569844 -0.60921186 -1.0340616 -0.1201689
1.8649153 0.017056206 -0.010844645 -0.6813149 0.4503041 0.10983338 0.13715826 -0.55974174
-0.006539103 0.12611558 -0.30689722 0.041003056 2.352506 -0.8299184 1.6848317 -0.6079599
-1.0307667 0.8231452 -0.17553852 -0.6362844 0.81355494 0.6761032 1.2451215 1.8444774
0.008780684 0.9124488 -0.38167122 -0.6533727 1.5330116 -0.59831065 -3.4076877 -0.7846801
-0.11093988 -1.1246047 -0.74442047 -1.1389985 -0.05347881 -0.044617392 1.6301043 -0.11990473
-0.75949687 -0.09841705 -1.0555139 -0.91789824 -0.36897033 -0.6415571 0.5660197 -1.1174097
-0.2552538 0.27448133 -0.48913053 0.7653172 -1.4000889 -0.4721225 0.17144553 -0.31076694
0.1771154 -0.40963426 -1.1065856 0.6577472 -0.9999999 -0.5822449 0.5825373 1.9909852
0.64091223 1.3025773 0.9081465 -0.920429 1.5020878 -0.8148824 -1.1403791 1.1120992
1.3965422 0.35556835 -0.2238804 0.035403688 -2.1443174 -0.49739408 -1.6616852 -1.0947942
0.83647406 -0.55437595 1.2461796 0.6085046 0.30847108 0.35896984 0.5013358 -0.5847941
2.5917594 -0.18278742 -0.074535996 1.9785109 -1.9138978 1.6306045 -0.026112065 0.4197624
0.71236455 -1.7765073 0.35386458 1.1996132 -0.3029974 -1.7618417 0.6348446 -0.8043591
-1.6111118 -1.8716129 0.5430836 0.6606786 2.2952116 0.67490596 1.7133216 -1.7942734
-1.3632672 -0.9832196 1.5112667 0.64187074 0.4729638 -0.4285901 0.55137074 -1.5473709
0.5181121 0.10653535 0.26924077 1.324768 1.7460191 1.854969 -0.7063691 2.5570862
0.4175343 -0.2127186 -0.839958 -0.42001787 -0.6240363 -0.9772961 0.8748428 0.9872814
0.30957633 1.52069 1.2052339 -1.815591 -0.40346155 -0.9591452 -0.005207704 -0.07886314
0.8436543 1.1657013 0.5269322 1.6192533 -0.96397626 0.14152038 -0.16366096 -0.35822257
1.7222793 -0.3035756 0.2388742 1.3440012 0.10322569 1.1003542 -0.3416802 0.9473389
-0.56851596 0.8375962 1.7836607 -0.19542466 0.5149161 -1.8474776 -2.9167426 -0.5673299
-0.5412802 0.895174 -0.882507 0.53181124 -1.5457772 -0.17329982 0.72824633 0.05706102
0.9055172 1.0462948 -0.520597 1.3547838 0.23519313 1.9142433 1.8364111 1.3245324
-0.96900916 1.2516364 1.2103242 -0.5279206 0.21856615 -0.57430726 1.4571251 1.7709557
1.6499138 -0.43200457 -0.2710269 -1.4391626 1.2470404 1.2738512 0.39094925 0.3872105
-0.07982872 0.3417243 0.9488273 -1.3839359 1.7240863 -2.3647652 -0.9294909 0.2936253
0.21513203 0.9384637 1.4657077 -0.5564744 -0.7448408 -0.20215721 -0.2296679 0.0013313366
0.3752759 -0.5810679 -0.57230884 1.0097175 -0.10564939 -1.179696 -0.090779595 0.56311435
00000000: ff69 adbf 8b0b 5fbf 5dfc 14bf 1cff d2bf
00000010: a398 99be 5795 29bf 05e5 60bf 705a bfbf
00000020: d6b9 58bf a337 993e 8359 29bf a10b d3be
00000030: 4967 c6be 8faa dc3f 36fb 523e 0132 f73e
00000040: d2f4 09bf 910a 95bf 7b78 4e3f 379e f23d
00000050: 0b54 613f d305 053e d2c1 30bf 7377 223f
00000060: 0494 693f 9e59 57be 8d3e 15c0 29f5 c9bf
00000070: 88f4 0a3e 4ff5 1bbf 215c 84bf 1d1b f6bd
00000080: 8bb5 ee3f 75b9 8b3c bdad 31bc a76a 2ebf
00000090: 428e e63e 53f0 e03d 3773 0c3e 3c4b 0fbf
000000a0: f945 d6bb 7124 013e a221 9dbe d2f2 273d
000000b0: 758f 1640 8875 54bf 91a8 d73f 43a3 1bbf
000000c0: 2af0 83bf a5b9 523f 5fc0 33be 89e3 22bf
000000d0: 2345 503f 1915 2d3f 2460 9f3f d617 ec3f
000000e0: dcdc 0f3c 3f96 693f 696a c3be 6f43 27bf
000000f0: b939 c43f e32a 19bf 8e17 5ac0 cce0 48bf
00000100: 7334 e3bd 0cf3 8fbf 5792 3ebf b4ca 91bf
00000110: 990c 5bbd bac0 36bd 42a7 d03f 9c90 f5bd
00000120: 636e 42bf e18e c9bd 141b 87bf 61fb 6abf
00000130: aee9 bcbe 163d 24bf abe6 103f 4807 8fbf
00000140: a0b0 82be d188 8c3e 516f fabe d4eb 433f
00000150: 1d36 b3bf 0aba f1be 6b8f 2f3e d81c 9fbe
00000160: bd5d 353e 95bb d1be 99a4 8dbf 1f62 283f
00000170: feff 7fbf 000e 15bf 2a21 153f 9ad8 fe3f
00000180: d312 243f daba a63f 4a7c 683f 3ca1 6bbf
00000190: 6a44 c03f 229c 50bf f1f7 91bf 4459 8e3f
000001a0: e5c1 b23f 0e0d b63e e740 65be 7503 113d
000001b0: 7f3c 09c0 70aa febe 1ab2 d4bf 3722 8cbf
000001c0: 2a23 563f 95eb 0dbf d082 9f3f f5c6 1b3f
000001d0: ecef 9d3e e5ca b73e 8b57 003f 11b5 15bf
000001e0: 63df 2540 a02c 3bbe 54a6 98bd d83f fd3f
000001f0: 9afa f4bf a6b7 d03f f8e8 d5bc 19eb d63e
00000200: 865d 363f 9764 e3bf bd2d b53e ed8c 993f
00000210: 7a22 9bbe 0784 e1bf 2d85 223f 7aea 4dbf
00000220: e938 cebf 0391 efbf 8707 0b3f 3c22 293f
00000230: bfe4 1240 a3c6 2c3f 1f4e db3f c0aa e5bf
00000240: 8a7f aebf 48b4 7bbf 3071 c13f a451 243f
00000250: 5028 f23e 2970 dbbe a226 0d3f 4010 c6bf
00000260: ffa2 043f 352f da3d edd9 893e ff91 a93f
00000270: 8e7d df3f a06f ed3f 9bd4 34bf 4da7 2340
00000280: 0ec7 d53e e8d2 59be 7d07 57bf 950c d7be
00000290: d8c0 1fbf 1430 7abf b3f5 5f3f 79be 7c3f
000002a0: ca80 9e3e f8a5 c23f 1b45 9a3f 4965 e8bf
000002b0: 8392 cebe 8a8a 75bf 63a5 aabb ff82 a1bd
000002c0: baf9 573f b335 953f 07e5 063f b143 cf3f
000002d0: 26c7 76bf b8ea 103e bd96 27be f368 b7be
000002e0: a673 dc3f 436e 9bbe 709b 743e 3b08 ac3f
000002f0: fe67 d33d 68d8 8c3f b5f0 aebe cd84 723f
00000300: 438a 11bf b46c 563f fe4e e43f 671d 48be
00000310: 8bd1 033f 257a ecbf e9ab 3ac0 883c 11bf
00000320: 5791 0abf 202a 653f fbeb 61bf c824 083f
00000330: 07dc c5bf 8275 31be 5a6e 3a3f d1b8 693d
00000340: facf 673f fdec 853f d845 05bf 8e69 ad3f
00000350: 78d6 703e ed05 f53f 850f eb3f 478a a93f
00000360: fc10 78bf 9f35 a03f e7eb 9a3f ce25 07bf
00000370: cecf 5f3e cd05 13bf 1383 ba3f adae e23f
00000380: 6030 d33f b42f ddbe 0ac4 8abe 7b36 b8bf
00000390: 059f 9f3f 8e0d a33f 802a c83e 7440 c63e
000003a0: 3d7d a3bd 7df6 ae3e 59e6 723f d024 b1bf
000003b0: dcae dc3f 5058 17c0 1ef3 6dbf 0e56 963e
000003c0: 924b 5c3e 283f 703f 4f9c bb3f 1b75 0ebf
000003d0: e3ad 3ebf 4d02 4fbe 102e 6bbe 3e80 ae3a
000003e0: 2a24 c03e dec0 14bf d582 12bf 6c3e 813f
000003f0: b55e d8bd 4700 97bf a7ea b9bd 4328 103f

rnn.weight_ih_l0 f4 [32, 128]
-0.13216539 -0.15447669 -0.0527035 0.1863199 -0.069191344 0.046844505 0.06555498 0.22730178
0.05101903 0.13425525 0.047128085 0.057779547 -0.10064847 0.076316714 0.18187396 0.0026245266
0.007710703 0.17885317 -0.047601204 0.22391663 0.08935404 -0.01746359 0.073151216 0.16512853
-0.2277965 0.16083133 0.04626328 -0.15375407 0.11240113 0.12134465 -0.18403381 -0.062296342
-0.013326433 0.0053171427 0.12204839 -0.11378773 -0.12551384 -0.065073535 0.1254853 0.00683267
-0.059378207 0.26535192 0.05492977 -0.14161001 -0.19089986 -0.15539707 -0.33235958 -0.1504032
-0.17054313 -0.22892864 0.32365355 0.1297426 0.08914221 -0.15859133 -0.036024302 0.08114575
0.18820456 0.057924207 -0.006242992 -0.20750557 0.0014500093 -0.0620524 0.09661801 -0.112718135
-0.101851866 -0.030453179 -0.009979445 -0.0826341 0.054592263 0.14327805 0.17925562 -0.04276508
0.052236214 0.07711681 -0.18419182 0.10558127 -0.04398049 -0.053231332 -0.05623895 -0.10838926
0.07392456 0.1975312 -0.12227057 -0.011884161 0.13872294 0.20709431 -0.1911619 0.011846621
-0.024776481 -0.15778913 -0.09141118 0.10262189 0.0114779305 -0.16741571 -0.07354092 0.10225341
-0.037440605 -0.08185973 -0.11502476 0.25514162 0.11596417 -0.1781658 -0.13040717 -0.075314134
0.15818806 -0.018205274 -0.05483673 0.089355044 -0.043033823 0.14302447 -0.062007394 -0.06082539
-0.08943129 0.0052910377 0.025996482 0.033927675 0.122009285 0.09858007 -0.18521467 -0.10055025
-0.010695097 0.167044 -0.127601 0.012632834 0.007155326 0.094875745 0.04102031 -0.115018584
0.04754794 -0.14003178 -0.021462973 -0.109795965 0.10966007 0.10163957 0.010934005 0.0041510747
0.059599686 -0.2106782 0.02941533 0.10091423 0.16279182 0.099241994 -0.09443088 0.16891225
0.08745891 -0.1565409 0.06700398 0.0052526738 0.21093509 -0.19110952 0.13683383 0.21077627
0.095987074 -0.040787857 0.08495698 0.11969424 -0.11033294 0.13257574 0.052879207 0.043077733
-0.11637599 -0.02424896 -0.06958693 0.10268035 0.15595992 -0.24778853 0.035443973 -0.04528611
-0.0061086775 0.06362094 -0.036770757 0.062504955 0.026904536 -0.021180391 0.12842256 -0.16094173
0.21134177 0.047644768 0.0921927 -0.053802725 -0.14140835 -0.11358053 0.044814732 -0.11456283
-0.16721344 0.030191535 0.12686147 0.15945978 0.02061794 -0.20384702 0.137547 0.09218032
0.22351986 -0.05826547 0.02185102 0.09067143 0.08055561 -0.13578032 -0.12316231 -0.020368747
0.12741768 -0.025660003 0.11090885 0.20335779 0.013637345 -0.14306012 -0.050955094 0.117728464
0.02949144 -0.17397575 0.0029357863 -0.2752759 -0.21070048 -0.12024513 -0.08088392 0.14769761
0.20712228 -0.06563999 -0.011305936 0.12416861 0.066637166 -0.0648955 -0.03480879 -0.11180732
-0.015349079 0.0009681322 0.1872185 0.25389707 0.113972016 0.09639983 -0.04788117 0.04192336
-0.045317624 0.17756063 0.097234145 -0.29006058 0.06299532 -0.034657747 0.020161204 -0.108895265
-0.01721089 -0.13771056 0.06097891 0.083991475 0.05454851 -0.04287185 0.02650902 -0.2008066
-0.0761966 -0.065147825 0.13854888 0.08034308 -0.0029728175 0.16377687 -0.004252315 0.16213168
00000000: 5d56 07be 232f 1ebe a0df 57bd a5ca 3e3e
00000010: 31b4 8dbd 06e0 3f3d b041 863d ccc1 683e
00000020: 55f9 503d 357a 093e 6109 413d 3faa 6c3d
00000030: c920 cebd f04b 9c3d 2b3d 3a3e 4000 2c3b
00000040: 11aa fc3b 4925 373e 7bf9 42bd 674a 653e
00000050: 40ff b63d cd0f 8fbc 4ed0 953d 7417 293e
00000060: 7c43 69be f8b0 243e 917e 3d3d b571 1dbe
00000070: 9032 e63d 8b83 f83d 5c73 3cbe 732a 7fbd
00000080: 1c57 5abc 6d3b ae3b 82f4 f93d 8b09 e9bd
00000090: b386 00be 4645 85bd 387f 003e 97e4 df3b
000000a0: 9036 73bd 35dc 873e 0afe 603d 3702 11be
000000b0: 417b 43be 6920 1fbe 092b aabe 4c03 1abe
000000c0: dca2 2ebe 456c 6abe ebb5 a53e 3edb 043e
000000d0: 3190 b63d c465 22be 388e 13bd be2f a63d
000000e0: b2b8 403e ef41 6d3d 0392 ccbb 577c 54be
000000f0: 3d0e be3a a82a 7ebd aadf c53d c4d8 e6bd
00000100: b697 d0bd f278 f9bc d380 23bc 113c a9bd
00000110: 239c 5f3d 7bb7 123e c98e 373e 702a 2fbd
00000120: a4f5 553d 6bef 9d3d c89c 3cbe fe3a d83d
00000130: e324 34bd 1909 5abd d05a 66bd 30fb ddbd
00000140: c265 973d 9e45 4a3e fe68 fabd c9b5 42bc
00000150: 630d 0e3e 8810 543e f2bf 43be 5418 423c
00000160: 0cf8 cabc 7993 21be c935 bbbd 6d2b d23d
00000170: ee0d 3c3c 066f 2bbe 9f9c 96bd 3c6a d13d
00000180: 525b 19bd 13a6 a7bd 1a92 ebbd eca1 823e
00000190: 9f7e ed3d 1871 36be 7589 05be 4c3e 9abd
000001a0: 0dfc 213e 3a23 95bc 7b9c 60bd c7ff b63d
000001b0: 3c44 30bd 0275 123e 77fb 7dbd 0b24 79bd
000001c0: c127 b7bd 7160 ad3b 93f6 d43c bff7 0a3d
000001d0: 01e0 f93d 59e4 c93d eaa8 3dbe 4aed cdbd
000001e0: 7d3a 2fbc 950d 2b3e d6a9 02be f2f9 4e3c
000001f0: 3a77 ea3b 374e c23d ea04 283d dd8e ebbd
00000200: a1c1 423d 7e64 0fbe 1ed3 afbc b5dc e0bd
00000210: 7595 e03d 6828 d03d 8a24 333c bd05 883b
00000220: cd1e 743d 07bc 57be 6bf8 f03c 1fac ce3d
00000230: e6b2 263e 633f cb3d fa64 c1bd 55f7 2c3e
00000240: a81d b33d 424c 20be 6239 893d 9f1e ac3b
00000250: 5eff 573e 37b2 43be 2b1e 0c3e bcd5 573e
00000260: df94 c43d 2b11 27bd edfd ad3d 4122 f53d
00000270: 3df6 e1bd efc1 073e de97 583d 4772 303d
00000280: 8956 eebd c1a5 c6bc 9883 8ebd 134a d23d
00000290: f5b3 1f3e 47bc 7dbe b32d 113d ee7d 39bd
000002a0: 4d2b c8bb b24b 823d ef9c 16bd 9902 803d
000002b0: e766 dc3c 8082 adbc 3481 033e e9cd 24be
000002c0: fa69 583e 2927 433d 87cf bc3d 3f60 5cbd
000002d0: 5acd 10be e99c e8bd a78f 373d eb9f eabd
000002e0: 003a 2bbe 3d54 f73c f9e7 013e 6d49 233e
000002f0: f4e6 a83c 46bd 50be 1fd9 0c3e 09c9 bc3d
00000300: 64e2 643e c6a7 6ebd e900 b33c f1b1 b93d
00000310: 57fa a43d ff09 0bbe 853c fcbd 5cdc a6bc
00000320: c879 023e ed34 d2bc 2e24 e33d 063d 503e
00000330: 2c6f 5f3c 5a7e 12be 4ab6 50bd 9f1b f13d
00000340: 0898 f13c b326 32be 5266 403b f6f0 8cbe
00000350: dec1 57be 1443 f6bd 78a6 a5bd 0b3e 173e
00000360: dd17 543e 426e 86bd 883c 39bc 1d4c fe3d
00000370: 1179 883d efe7 84bd a993 0ebd 3cfb e4bd
00000380: b47a 7bbc 41ca 7d3a 35b6 3f3e ccfe 813e
00000390: 296a e93d 466d c53d 0c1f 44bd d4b7 2b3d
000003a0: f99e 39bd 74d2 353e b222 c73d d282 94be
000003b0: b103 813d 48f5 0dbd 1c29 a53c 7b04 dfbd
000003c0: dafd 8cbc ff03 0dbe 06c5 793d b903 ac3d
000003d0: 426e 5f3d 659a 2fbd 7229 d93c 3fa0 4dbe
000003e0: f70c 9cbd 396c 85bd c2df 0d3e ea8a a43d
000003f0: 9ad3 42bb 20b5 273e 0157 8bbb d905 263e

rnn.weight_hh_l0 f4 [32, 32]
-0.2042382 0.15923461 -0.055528123 0.1540614 0.0056165657 -0.08517661 0.25842816 0.08837483
-0.20188649 0.028993724 0.24398537 0.028807024 0.011797853 0.4129855 -0.16967662 -0.013429236
-0.093836635 -0.18128671 -0.031143542 0.015076286 -0.17065431 0.13604876 -0.34625855 0.017709533
0.17825264 0.06968183 -0.11273929 0.10604581 0.14352925 0.1640176 -0.13425595 -0.09866933
0.0652155 0.10689124 0.0044340314 -0.19503513 -0.04226695 -0.07376908 0.00060387375 0.17918433
-0.20776539 0.12285065 -0.2803725 -0.17365849 0.013598529 0.19793877 0.0617529 0.2484053
0.37525842 -0.03659266 -0.34792385 -0.064529985 0.30666295 -0.08659361 0.010790693 -0.031864095
0.23137198 -0.022108419 -0.057707902 -0.20618464 -0.2409478 -0.024555176 0.04085808 0.34238666
-0.07454641 -0.06223331 0.041666698 -0.07117774 0.056627735 0.026533546 -0.108378395 -0.35786882
0.2087575 0.17608805 -0.16983621 0.009264722 0.15763007 -0.41865996 -0.3293197 0.24090941
-0.25455168 0.030271735 0.20663823 -0.13557242 0.044112198 0.22334114 -0.31804937 0.29126245
-0.13637647 0.44481844 0.2946317 0.2349276 -0.38083172 -0.21965751 0.036553007 -0.28606734
0.3626044 -0.45538738 0.07507235 0.075878784 -0.017807184 0.3502162 -0.09355301 -0.07331378
-0.08747154 0.26832253 0.24765642 0.17459457 -0.28984284 0.13428278 -0.15837298 -0.030697007
-0.17894047 -0.11284172 0.015732938 0.001424659 0.08629815 -0.12092438 0.23722498 0.17188421
-0.3318893 0.31555423 0.38471842 0.25899944 -0.023464685 0.06552069 -0.1555434 -0.03883662
0.31863388 0.007864801 0.35863405 -0.07815314 0.16132131 -0.07759304 -0.29169592 -0.3408823
0.09218137 -0.2481178 -0.0804579 -0.0376723 0.13784103 -0.39569277 -0.14325167 0.02138087
0.053469237 0.047228508 0.16136639 0.02876348 0.17320436 0.28298616 0.23828778 0.26853532
-0.3399513 0.10753977 -0.09346904 -0.0068827798 -0.31838912 -0.2303411 -0.08238149 -0.2781801
-0.3130011 -0.2056041 0.29342636 -0.14455834 -0.04930613 -0.14792241 0.0459512 0.3668248
-0.33028305 -0.20178588 0.38416663 0.068541415 -0.20419809 0.034978434 0.2236653 -0.21443093
0.06311883 -0.12963814 -0.07183589 0.4379323 -0.18852274 -0.15247805 0.3743106 -0.11241927
-0.31881595 -0.24700153 -0.22613154 -0.06015482 0.097344 0.1591465 -0.30510998 -0.008456431
0.28582844 0.16389821 -0.17186156 -0.12907165 -0.063950844 0.12899895 -0.12136933 0.05366175
-0.06897986 0.27865162 0.11524841 -0.0439509 0.23012519 0.33492178 0.2047882 -0.151066
-0.024632499 -0.21070568 0.21626736 -0.34053776 -0.28739846 0.3953793 -0.15831316 -0.24339375
0.10567669 -0.23475184 -0.019737313 -0.3815244 0.26922196 0.029082544 -0.048173543 0.030567748
0.008824038 -0.08975869 -0.17615154 -0.20322351 -0.1715988 0.393706 -0.11659073 0.005593378
-0.16655274 0.011943445 0.21622074 0.031129751 -0.013273084 -0.07584273 0.08579444 -0.2668798
-0.022454444 0.06987329 0.2748586 -0.274949 -0.2009929 0.0592279 -0.31148562 -0.23587874
0.124641374 0.101658344 -0.26706544 -0.2586456 -0.025552709 -0.17240123 0.022161206 0.20768325
00000000: d223 51be 660e 233e 7571 63bd 46c2 1d3e
00000010: 2b0b b83b 1371 aebd b250 843e ddfd b43d
00000020: 55bb 4ebe 3f84 ed3c 4dd7 793e b5fc eb3c
00000030: c84b 413c d672 d33e b5bf 2dbe 4c06 5cbc
00000040: 6c2d c0bd 39a3 39be be20 ffbc 8702 773c
00000050: 01c0 2ebe 5e50 0b3e cd48 b1be 9513 913c
00000060: dc87 363e 59b5 8e3d dbe3 e6bd 8c2e d93d
00000070: 55f9 123e 3bf4 273e 647a 09be 2513 cabd
00000080: b48f 853d cbe9 da3d 5a4b 913b 4ab7 47be
00000090: 1c20 2dbd 3e14 97bd 484d 1e3a 197c 373e
000000a0: 73c0 54be 1f99 fb3d fc8c 8fbe 88d3 31be
000000b0: 5dcc 5e3c 76b0 4a3e 9cf0 7c3d f55d 7e3e
000000c0: df21 c03e 2fe2 15bd 1323 b2be 4c28 84bd
000000d0: ed02 9d3e fe57 b1bd 72cb 303c ed83 02bd
000000e0: c7ec 6c3e b71c b5bc 1f5f 6cbd 1122 53be
000000f0: 05bb 76be f027 c9bc cd5a 273d 4e4d af3e
00000100: caab 98bd 5be8 7ebd b3aa 2a3d a3c5 91bd
00000110: 7cf2 673d e15c d93c 7ef5 ddbd 953a b7be
00000120: 87c4 553e 6d50 343e 8be9 2dbe 0fcb 173c
00000130: c769 213e 995a d6be 979c a8be f5b0 763e
00000140: 9954 82be 6efc f73c f998 533e 7fd3 0abe
00000150: feae 343d 8ab3 643e 5ed7 a2be 5a20 953e
00000160: 46a6 0bbe 3ebf e33e f7d9 963e dc90 703e
00000170: 60fc c2be e6ed 60be 9bb8 153d 6b77 92be
00000180: 49a7 b93e 8928 e9be 88bf 993d 5666 9b3d
00000190: 5fe0 91bc 8a4f b33e b898 bfbd 8925 96bd
000001a0: 4724 b3bd 9261 893e a599 7d3e ebc8 323e
000001b0: 4866 94be 6d81 093e 872c 22be 4a78 fbbc
000001c0: 2c3c 37be 8f19 e7bd 5de2 803c a0bb ba3a
000001d0: 16bd b03d 34a7 f7bd 1beb 723e 6a02 303e
000001e0: 65ed a9be 5390 a13e d0f9 c43e 939b 843e
000001f0: 0339 c0bc b62f 863d c546 1fbe 2613 1fbd
00000200: fb23 a33e 5edb 003c e29e b73e c10e a0bd
00000210: 6a31 253e 1ae9 9ebd 2b59 95be 2088 aebe
00000220: 96c9 bc3d 9812 7ebe 1dc7 a4bd 454e 1abd
00000230: 3326 0d3e 3e98 cabe 91b0 12be ef26 af3c
00000240: 8f02 5b3d ae72 413d 3b3d 253e 64a1 eb3c
00000250: 7c5c 313e 90e3 903e b601 743e 767d 893e
00000260: 190e aebe d03d dc3d b26c bfbd f188 e1bb
00000270: e603 a3be 8ade 6bbe a0b7 a8bd 9f6d 8ebe
00000280: ae41 a0be e289 52be fb3b 963e 1a07 14be
00000290: 39f5 49bd f978 17be 5337 3c3d 76d0 bb3e
000002a0: dc1a a9be f5a0 4ebe 7db1 c43e 715f 8c3d
000002b0: 4e19 51be 8c45 0f3d 8408 653e c893 5bbe
000002c0: 7244 813d dcbf 04be b21e 93bd aa38 e03e
000002d0: 1b0c 41be 3523 1cbe a4a5 bf3e 133c e6bd
000002e0: d83b a3be f8ed 7cbe 078f 67be e764 76bd
000002f0: 4b5c c73d 4df7 223e 6037 9cbe d88c 0abc
00000300: 1b58 923e efd4 273e 7afc 2fbe 5c2b 04be
00000310: a9f8 82bd 4d18 043e 7c90 f8bd 6ccc 5b3d
00000320: 5045 8dbd 6dab 8e3e 5c07 ec3d dc05 34bd
00000330: f0a5 6b3e de7a ab3e ffb3 513e 0cb1 1abe
00000340: 18ca c9bc 3bc3 57be 3175 5d3e f75a aebe
00000350: e425 93be 286f ca3e d81c 22be 363c 79be
00000360: 056d d83d c962 70be 25b0 a1bc 2b57 c3be
00000370: 76d7 893e 843e ee3c 9f51 45bd 3769 fa3c
00000380: b392 103c 67d3 b7bd 1261 34be d319 50be
00000390: 99b7 2fbe d593 c93e 1fc7 eebd a848 b73b
000003a0: cd8c 2abe 70ae 433c f868 5d3e d203 ff3c
000003b0: 5977 59bc 6f53 9bbd ffb4 af3d 78a4 88be
000003c0: 62f2 b7bc ba19 8f3d 44ba 8c3e 1ec6 8cbe
000003d0: 15d1 4dbe f498 723d 0b7b 9fbe 328a 71be
000003e0: fa43 ff3d 4032 d03d cdbc 88be 326d 84be
000003f0: ea53 d1bc f389 30be 6b8b b53c ebaa 543e

rnn.bias_ih_l0 f4 [32]
-0.022106376 -0.16415714 -0.089285396 -0.0130827 0.13754965 0.19338527 -0.15670572 0.08111594
-0.0062187263 0.03850839 0.060626082 -0.08149569 -0.07958503 0.18599744 0.18573466 0.003316078
-0.14545704 0.07910657 0.14051841 0.03276623 0.011854114 -0.03248486 -0.02611323 0.065264195
-0.058247093 -0.03472017 0.11864541 -0.029207379 -0.14843525 -0.017414028 -0.07728837 -0.023524059
00000000: 6e18 b5bc cf18 28be 43db b6bd d258 56bc
00000010: d1d9 0c3e ca06 463e 7777 20be 1d20 a63d
00000020: 75c6 cbbb f9ba 1d3d 0e53 783d 36e7 a6bd
00000030: 7afd a2bd 1d76 3e3e 3a31 3e3e 8f52 593b
00000040: b1f2 14be a002 a23d 0fe4 0f3e e235 063d
00000050: c237 423c d80e 05bd 6aeb d5bc 3ca9 853d
00000060: 8194 6ebd bd36 0ebd 5dfc f23d 5044 efbc
00000070: 69ff 17be dda7 8ebc 5d49 9ebd 87b5 c0bc

rnn.bias_hh_l0 f4 [32]
0.13604002 -0.15781553 -0.12036406 -0.12608598 -0.16804042 0.008872186 -0.14667802 -0.010136935
0.024208054 -0.013956283 0.06951783 -0.077993035 -0.093282096 0.24322034 0.18150093 -0.011406985
-0.19115439 -0.08762625 0.050996684 -0.107877925 0.039497204 -0.17541657 -0.15257837 -0.041932326
-0.035714153 -0.0037364834 -0.150024 -0.14504823 0.05306726 0.09814684 -0.08876187 -0.025224179
00000000: 134e 0b3e 659a 21be 6f81 f6bd af1c 01be
00000010: ca12 2cbe a55c 113c c332 16be 6315 26bc
00000020: f84f c63c e5a8 64bc 5d5f 8e3d d0ba 9fbd
00000030: af0a bfbd c10e 793e 61db 393e 5de4 3abc
00000040: fabd 43be 6475 b3bd e6e1 503d 1aef dcbd
00000050: d2c7 213d 67a0 33be 813d 1cbe 3bc1 2bbd
00000060: 0149 12bd cadf 74bb e49f 19be 8687 14be
00000070: 0e5d 593d 3601 c93d c9c8 b5bd f0a2 cebc

rnn.weight_ih_l0_reverse f4 [32, 128]
0.10138675 -0.04519236 0.011564428 0.016155133 -0.005497321 0.011645886 0.056684673 -0.09943884
-0.063024685 -0.12991798 0.08276977 -0.11577123 -0.09130292 -0.09556521 0.18472625 0.12924145
0.08338161 -0.017442208 0.07414757 0.004077976 0.096607484 0.050968427 -0.02695216 -0.052735265
-0.021636339 -0.22133115 0.02011944 0.16004579 0.07834731 -0.085579835 -0.1646641 -0.13399719
0.14890008 0.077533096 -0.12806353 -0.28571478 -0.028043153 0.05930178 -0.03376693 -0.1299519
0.0065285037 -0.06056293 0.057199355 0.021462066 0.0023500272 0.15789944 0.04776657 -0.013798841
-0.15237427 -0.0812271 0.07563763 -0.15122838 0.2037526 -0.06843214 0.11008704 -0.15670736
-0.24457292 -0.00749714 0.015389344 0.11538527 -0.05097879 0.07259682 -0.13147393 0.0178154
-0.081093304 0.017863045 -0.12536119 0.013892817 -0.085357636 -0.1511002 0.105456255 0.078659855
0.026095582 -0.07065853 0.06451112 -0.09240898 -0.06485533 0.0192362 0.15084726 -0.12939626
-0.16188434 0.11686414 -0.15076406 -0.17670749 -0.058383282 0.021415807 -0.055364676 0.00037146133
0.14880903 -0.05569871 0.0847938 -0.1898029 0.08615593 -0.09918749 0.037734803 0.0815103
0.036728375 0.039382286 -0.035345167 0.06522808 0.058545563 -0.1783268 0.08850576 0.06635869
0.07287411 -0.0029470706 0.05658604 -0.1190287 -0.026320742 0.18159547 -0.23782468 -0.07809065
0.11508728 -0.095016345 -0.0549231 0.055880267 0.15563792 0.18227817 0.20223655 -0.024554541
-0.08000743 -0.02844317 -0.11630564 0.05509291 0.10155309 -0.1534651 -0.27328488 -0.047868796
-0.01742275 0.08284656 -0.05205031 0.03621106 0.112961404 -0.11140466 0.035416435 -0.028006028
0.23551111 -0.0824783 -0.13341221 0.091035545 -0.1311392 0.14160375 0.07280963 0.02820597
-0.034183696 0.16370016 -0.064405106 0.18585119 -0.18537903 -0.014591323 -0.002494255 -0.036402926
0.1312479 -0.11896021 0.10591497 0.06400913 -0.19143999 -0.009614024 0.043002553 -0.09369001
0.07185201 -0.1796581 0.036062118 0.052419998 -0.13719164 0.10229082 -0.13453248 -0.027577002
-0.15520601 0.06433996 -0.012409291 -0.012428219 -0.13658611 -0.01955697 -0.11097508 0.15397276
-0.25500304 -0.0702586 0.1454968 -0.13212809 -0.116181456 -0.108345926 0.006927326 0.28183118
0.2792338 0.03891088 0.26264465 -0.08877885 0.052141245 -0.16967952 -0.063536905 -0.077151746
0.11337024 0.2546053 0.099175975 0.040496625 -0.25422952 0.03981156 -0.07063359 0.15475044
-0.13305552 0.058100294 -0.08121036 -0.13000225 0.08479404 -0.23061292 0.04200007 0.063133925
-0.115099296 -0.09170801 -0.072762474 0.032418787 0.0013096492 -0.02856175 0.11150351 -0.08415946
-0.013804029 0.06005982 0.014071024 -0.04507317 -0.15274519 0.060215477 -0.12431326 -0.04266891
0.069354065 -0.19865522 -0.1658658 0.038444582 0.12150822 -0.08237475 0.109966345 0.014634317
0.0045396267 0.18542881 0.15405445 -0.07030752 -0.13837029 -0.24619856 0.13554646 0.09632966
0.12643462 0.08431047 0.20761698 0.13506402 0.06826937 0.014370177 -0.0016137195 0.14258455
-0.047359563 -0.022372158 0.01641693 -0.041797165 0.09352204 0.019429272 0.27903488 0.06735402
00000000: dba3 cf3d a01b 39bd ba78 3d3c c557 843c
00000010: df22 b4bb 63ce 3e3c 302e 683d 97a6 cbbd
00000020: 1613 81bd 3809 05be 3283 a93d 7719 edbd
00000030: 06fd babd b1b7 c3bd e128 3d3e df57 043e
00000040: fac3 aa3d f6e2 8ebc aeda 973d 8ba0 853b
00000050: 25da c53d 45c4 503d c7ca dcbc ef00 58bd
00000060: b13e b1bc a2a4 62be 86d1 a43c 0be3 233e
00000070: 8e74 a03d 7b44 afbd b59d 28be 8f36 09be
00000080: 4379 183e acc9 9e3d 1623 03be 3549 92be
00000090: c1ba e5bc 6ce6 723d 314f 0abd 1c12 05be
000000a0: 0fed d53b d610 78bd df49 6a3d 37d1 af3c
000000b0: ea02 1a3b 64b0 213e e1a6 433d 8914 62bc
000000c0: 0008 1cbe 655a a6bd e7e7 9a3d 9ddb 1abe
000000d0: 86a4 503e 2626 8cbd 5075 e13d e577 20be
000000e0: 5371 7abe 92aa f5bb 9623 7c3c 1d4f ec3d
000000f0: 23cf 50bd a4ad 943d 1aa1 06be 9af1 913c
00000100: 3f14 a6bd 8555 923c af5e 00be b39e 633c
00000110: fccf aebd 03ba 1abe 73f9 d73d 6b18 a13d
00000120: 67c6 d53c 6bb5 90bd 681e 843d eb40 bdbd
00000130: dfd2 84bd 3c95 9d3c b477 1a3e 7480 04be
00000140: 02c5 25be 7756 ef3d e561 1abe cff2 34be
00000150: 4f23 6fbd 3470 af3c 12c6 62bd b2c0 c239
00000160: 6561 183e 5524 64bd 5fa8 ad3d b15b 42be
00000170: 8572 b03d d022 cbbd cf8f 1a3d dfee a63d
00000180: 7e70 163d 524f 213d 18c6 10bd 4d96 853d
00000190: 79cd 6f3d 4d9b 36be 8242 b53d 11e7 873d
000001a0: 053f 953d a423 41bb c3c6 673d 52c5 f3bd
000001b0: 999e d7bc 2af4 393e 5088 73be feed 9fbd
000001c0: e1b2 eb3d ee97 c2bd 0bf7 60bd b5e2 643d
000001d0: 8c5f 1f3e 21a7 3a3e 1917 4f3e 9b26 c9bc
000001e0: efda a3bd a701 e9bc a731 eebd 1aa9 613d
000001f0: 11fb cf3d f525 1dbe ffeb 8bbe 1212 44bd
00000200: 28ba 8ebc 75ab a93d b532 55bd 0c52 143d
00000210: 4f58 e73d 2028 e4bd d310 113d e66c e5bc
00000220: d329 713e 62ea a8bd 369d 08be d870 ba3d
00000230: 5b49 06be 9300 113e 371d 953d 3510 e73c
00000240: 3404 0cbd 04a1 273e d3e6 83bd c64f 3e3e
00000250: 00d4 3dbe 7210 6fbc a876 23bb 3c1b 15bd
00000260: d965 063e 69a1 f3bd f3e9 d83d 3817 833d
00000270: d808 44be 2484 1dbc 7223 303d 8ce0 bfbd
00000280: 2627 933d 4bf8 37be dfb5 133d 5ab6 563d
00000290: f77b 0cbe d97d d13d e2c2 09be 2ae9 e1bc
000002a0: 53ee 1ebe abc4 833d 5750 4bbc bb9f 4bbc
000002b0: 3bdd 0bbe f035 a0bc e746 e3bd 09ab 1d3e
000002c0: c28f 82be bee3 8fbd 1dfd 143e 964c 07be
000002d0: 8bf0 edbd 78e4 ddbd 9ffe e23b 2d4c 903e
000002e0: bcf7 8e3e 0461 1f3d 5c79 863e b0d1 b5bd
000002f0: 0f92 553d 78c0 2dbe a31f 82bd bc01 9ebd
00000300: a82e e83d a05b 823e c61c cb3d cadf 253d
00000310: 5f2a 82be 7211 233d 58a8 90bd e676 1e3e
00000320: b53f 08be 93fa 6d3d 9e51 a6bd 4f1f 05be
00000330: 7fa8 ad3d cb25 6cbe 4408 2c3d 5c4c 813d
00000340: 2eb9 ebbd 69d1 bbbd 7e04 95bd 90c9 043d
00000350: 89a8 ab3a 55fa e9bc f45b e43d cc5b acbd
00000360: 4b2a 62bc 4901 763d 278a 663c a59e 38bd
00000370: 3c69 1cbe 81a4 763d f397 febd 98c5 2ebd
00000380: 8109 8e3d 466c 4bbe b9d8 29be 1178 1d3d
00000390: 4dd9 f83d 18b4 a8bd 0936 e13d c6c4 6f3c
000003a0: 26c1 943b 0de1 3d3e 73c0 1d3e 64fd 8fbd
000003b0: f1b0 0dbe 7a1b 7cbe b1cc 0a3e 7c48 c53d
000003c0: 1478 013e f8aa ac3d 8c99 543e 394e 0a3e
000003d0: d0d0 8b3d e470 6b3c 7183 d3ba af01 123e
000003e0: 1afc 41bd d145 b7bc cc7c 863c 8133 2bbd
000003f0: 7c88 bf3d 232a 9f3c a9dd 8e3e e8f0 893d

rnn.weight_hh_l0_reverse f4 [32, 32]
0.12355607 -0.064742476 -0.4421107 0.22032554 0.17517252 -0.11512019 -0.48089018 -0.35440361
-0.26968113 -0.019218093 -0.024072215 -0.07227815 0.09451377 -0.06798866 0.16290429 0.017136777
-0.24330607 0.14669327 0.26864228 0.033725213 -0.025770117 0.17521748 0.031785596 0.28087568
-0.026946941 0.03607117 0.06712411 0.117191665 0.45081368 0.2642131 -0.17849518 0.06665725
0.046636634 0.32027617 0.11434267 0.18239275 -0.0541665 0.071649924 -0.05819008 0.23768452
0.19004238 -0.1408766 0.096855894 0.12830323 0.032148667 0.07300509 -0.21330212 -0.34450623
0.29231095 -0.09514927 -0.2510807 0.01682637 -0.13638708 -0.3347145 0.06452903 -0.27261516
0.01182522 -0.15771593 0.23551792 0.38654065 0.009772971 0.1250919 -0.17847802 0.0020763385
0.18063682 -0.003008979 0.09179192 -0.0031582762 -0.16519211 -0.033584587 -0.299544 -0.13451158
-0.24734232 0.13556212 0.08927611 -0.1878394 -0.14508793 -0.17434843 -0.11273162 -0.007444607
0.056616362 0.05310981 -0.21117736 -0.1356572 0.1997494 0.1028309 -0.07788267 -0.029884946
-0.04899284 0.18959026 -0.084747426 -0.04620561 0.05712925 -0.08737702 0.048891097 -0.07430035
-0.056738127 -0.23102635 0.36297867 0.2915488 0.16616656 -0.17581823 0.23569846 0.096777156
-0.10924005 0.07132983 -0.06763196 0.2267009 -0.00011677142 0.12151102 -0.10750173 0.0011129346
-0.23818734 0.3031932 -0.262737 -0.31999812 0.046996843 -0.22036335 -0.08145598 0.09359064
0.03935967 -0.2692627 0.030775411 0.12516989 0.13439159 -0.060071077 -0.044021044 0.024653181
0.10071949 -0.1892836 0.57010144 0.16066523 0.05321747 -0.13318312 0.37551194 0.014243753
0.123949245 -0.13707884 0.16314088 0.23156936 0.0789451 -0.3524671 -0.23886687 -0.06002747
-0.121605426 -0.1390135 -0.13064753 -0.29840043 0.0490908 0.053000577 -0.16835201 0.084334075
0.34120196 -0.6245167 0.07408506 0.041063678 -0.052139718 -0.21825276 -0.26594883 -0.00514215
0.052502245 -0.0545107 0.08862303 -0.10180617 0.2565492 -0.108858444 0.07975125 0.00855303
0.15970777 0.060354866 0.0019376286 0.097771525 -0.036485147 0.2301571 -0.0052634627 -0.29121915
0.21016547 -0.1594992 -0.36597934 0.04335971 0.001617081 -0.14539549 0.17925091 -0.2801739
-0.043333307 0.2860997 0.22390285 0.20561305 -0.23991375 0.21172176 -0.010100563 -0.31971082
-0.15088943 -0.16211413 -0.10030995 -0.02536379 -0.078200996 -0.31490523 0.3209244 -0.045671407
-0.114054 -0.27709857 -0.07470609 -0.07194702 -0.06967847 -0.059695035 -0.15028684 -0.010061271
-0.2623076 -0.13895836 0.3250062 0.123531014 0.051941115 0.1969889 -0.18121697 0.05323671
0.3830206 -0.42162028 -0.2978979 0.021958616 0.06705868 0.0008820407 0.35151777 0.3296559
-0.18063557 -0.03529096 -0.18637556 0.12485778 -0.18258 -0.06264913 -0.11490305 -0.084388606
-0.17263117 0.0735286 -0.02103645 -0.0755347 -0.06874792 0.016025389 -0.006071055 -0.19577333
0.23342417 -0.09286397 0.062599115 0.0067676925 0.059591036 -0.06471349 0.08485896 0.08900817
-0.16642243 -0.14078909 0.26586384 -0.089397006 0.119682126 -0.16417654 -0.13678175 0.22448333
00000000: f70a fd3d b497 84bd 555c e2be 059d 613e
00000010: 6d60 333e 22c4 ebbd 3d37 f6be 6474 b5be
00000020: a513 8abe 436f 9dbc 1833 c5bc 9106 94bd
00000030: 6f90 c13d a33d 8bbd 62d0 263e 6d62 8c3c
00000040: 3a25 79be c336 163e 7b8b 893e 7323 0a3d
00000050: da1b d3bc 366c 333e 9d31 023d f0ce 8f3e
00000060: d5bf dcbc 5dbf 133d 5e78 893d 2f02 f03d
00000070: 0dd1 e63e f046 873e 71c7 36be 9983 883d
00000080: 0e06 3f3d 3dfb a33e 7d2c ea3d 2ac5 3a3e
00000090: b1dd 5dbd 32bd 923d b958 6ebd 9263 733e
000000a0: 789a 423e f541 10be 625c c63d ec61 033e
000000b0: 52ae 033d b183 953d df6b 5abe 1f63 b0be
000000c0: c8a9 953e 9fdd c2bd a68d 80be 75d7 893c
000000d0: 0ea9 0bbe b35f abbe cc27 843d 3794 8bbe
000000e0: 91be 413c 4980 21be 9c2b 713e a8e8 c53e
000000f0: d01e 203c 1718 003e f1c2 36be 2e13 083b
00000100: dcf8 383e 4a32 45bb 67fd bb3d 15fb 4ebb
00000110: 1f28 29be fe8f 09bd d55d 99be 67bd 09be
00000120: 4e47 7dbe ccd0 0a3e 65d6 b63d f958 40be
00000130: ee91 14be 6588 32be d6df e6bd e4f1 f3bb
00000140: 8fe6 673d ac89 593d e13e 58be b9e9 0abe
00000150: 1b8b 4c3e 0299 d23d f380 9fbd 46d1 f4bc
00000160: b7ac 48bd f323 423e 0f90 adbd 1842 3dbd
00000170: 5c00 6a3d b9f2 b2bd 0842 483d c82a 98bd
00000180: 3d66 68bd 2c92 6cbe 57d8 b93e e245 953e
00000190: 9127 2a3e b209 34be f05a 713e 1a33 c63d
000001a0: 3fb9 dfbd 6015 923d a082 8abd 4824 683e
000001b0: 2ee3 f4b8 c5da f83d de29 dcbd e3df 913a
000001c0: 62e7 73be 243c 9b3e 7785 86be cbd6 a3be
000001d0: c37f 403d eea6 61be 65d2 a6bd 73ac bf3d
000001e0: 9b37 213d cddc 89be b71c fc3c 892c 003e
000001f0: f39d 093e 170d 76bd 694f 34bd 78f5 c93c
00000200: 0546 ce3d 8fd3 41be 2bf2 113f 6d85 243e
00000210: 90fa 593d 2861 08be 1a43 c03e a15e 693c
00000220: 1ad9 fd3d 655e 0cbe 670e 273e 8520 6d3e
00000230: f8ad a13d 9176 b4be 8499 74be 5ddf 75bd
00000240: 440c f9bd 8e59 0ebe 77c8 05be f1c7 98be
00000250: 6f13 493d 2217 593d 7864 2cbe 58b7 ac3d
00000260: 06b2 ae3e 54e0 1fbf e8b9 973d 6332 283d
00000270: 7590 55bd a77d 5fbe 722a 88be 7b7f a8bb
00000280: 980c 573d 9d46 5fbd fe7f b53d c17f d0bd
00000290: 6b5a 833e 2df1 debd a054 a33d 0222 0c3c
000002a0: 6f8a 233e aa36 773d 07f8 fd3a 703c c83d
000002b0: 7371 15bd 4eae 6b3e 2079 acbb ad1a 95be
000002c0: 9e35 573e c253 23be a561 bbbe f499 313d
000002d0: 3cf4 d33a 8ee2 14be 8d8d 373e f472 8fbe
000002e0: 447e 31bd a97b 923e ca46 653e 3a8c 523e
000002f0: f3ab 75be 97cd 583e d57c 25bc 23b1 a3be
00000300: c282 1abe 3f01 26be 4e6f cdbd b9c7 cfbc
00000310: d827 a0bd 423b a1be 3450 a43e f111 3bbd
00000320: 2595 e9bd dddf 8dbe 82ff 98bd f658 93bd
00000330: 96b3 8ebd c882 74bd cbe4 19be 07d8 24bc
00000340: 2f4d 86be 1a4b 0ebe 3667 a63e d4fd fc3d
00000350: 35c0 543d 75b7 493e f190 39be bd0e 5a3d
00000360: 471b c43e 9dde d7be 1386 98be 8ee2 b33c
00000370: 1056 893d c038 673a 23fa b33e a8c8 a83e
00000380: 88f8 38be 418d 10bd 3cd9 3ebe 70b5 ff3d
00000390: 40f6 3abe 304e 80bd 4a52 ebbd efd3 acbd
000003a0: 3ac6 30be 2a96 963d a254 acbc f0b1 9abd
000003b0: b6cb 8cbd ad47 833c b3ef c6bb ce78 48be
000003c0: bf06 6f3e 772f bebd f733 803d 85c3 dd3b
000003d0: bb15 743d 8288 84bd 89ca ad3d ea49 b63d
000003e0: a46a 2abe 042b 10be 4e1f 883e c715 b7bd
000003f0: e71b f53d e51d 28be 8410 0cbe f5de 653e

rnn.bias_ih_l0_reverse f4 [32]
0.027551586 0.042907152 0.07317447 -0.19068708 -0.1362022 0.11035267 0.12199429 -0.035105012
-0.15835649 -0.23350054 0.13785654 0.03227409 0.220885 0.048074454 0.03617681 0.16248877
-0.2234986 -0.028340528 0.007010035 0.01862484 -0.00087900355 0.062369853 0.0003652075 -0.043947287
0.14402595 -0.12523188 0.1054395 -0.18444085 0.062610656 -0.25297898 -0.03442599 0.021851355
00000000: ddb3 e13c 69bf 2f3d 7fdc 953d 7943 43be
00000010: 9778 0bbe 9500 e23d 24d8 f93d 46ca 0fbd
00000020: 3428 22be c41a 6fbe 442a 0d3e d631 043d
00000030: ad2f 623e b8e9 443d 222e 143d 7563 263e
00000040: d1dc 64be 652a e8bc 70b4 e53b 1f93 983c
00000050: ee6c 66ba 8877 7f3d 5279 bf39 1202 34bd
00000060: 8a7b 133e c93c 00be aaf0 d73d 10de 3cbe
00000070: 043a 803d 7686 81be 4402 0dbd 9d01 b33c

rnn.bias_hh_l0_reverse f4 [32]
0.08695653 -0.22509767 -0.06224172 0.005471267 0.059485525 -0.13168067 -0.042663924 -0.0951546
0.09265921 -0.020144934 -0.072963804 -0.017539179 -0.09583381 -0.17961444 -0.19629471 0.122868195
-0.009402913 0.18923709 0.026071636 0.038125776 0.10880517 0.17966901 -0.14547819 -0.05795253
0.13223518 -0.115123406 0.07853789 0.079569064 -0.15092589 -0.07744933 0.11640557 0.16641551
00000000: 4416 b23d 0180 66be 2cf1 7ebd 5048 b33b
00000010: 18a7 733d 4cd7 06be 5ec0 2ebd 6ae0 c2bd
00000020: 1dc4 bd3d fd06 a5bc 0c6e 95bd 53ae 8fbc
00000030: 8444 c4bd d9ec 37be 7b01 49be 52a2 fb3d
00000040: ad0e 1abc 5ec7 413e 2f94 d53c c629 1c3d
00000050: 3fd5 de3d 27fb 373e 3cf8 14be a25f 6dbd
00000060: a968 073e d2c5 ebbd 79d8 a03d 1bf5 a23d
00000070: 518c 1abe c19d 9ebd 0b66 ee3d d468 2a3e

fc1.weight f4 [12, 64]
-0.06888482 -0.20344876 0.3086112 0.31352964 0.3110481 0.015467302 -0.10344304 0.26082
0.08504927 0.26768917 0.1333143 0.23047933 0.36581567 -0.21638875 -0.40491295 -0.2770156
-0.090439335 0.09965075 -0.13972206 0.10160712 0.6205758 -0.43039787 0.438583 -0.40010333
-0.056034174 -0.10803358 0.22037697 0.45088723 -0.6155746 -0.37447172 0.39865506 0.40420482
0.35207134 -0.3918146 -0.10489349 -0.38656995 -0.49764886 -0.3001936 0.025014276 -0.23135237
-0.330781 0.35197353 0.5033436 -0.30794147 0.4332122 -0.10500735 0.17516743 -0.07024983
-0.09540527 0.47931272 -0.105117455 0.15563598 0.3778615 0.05448351 -0.27469498 0.24778877
-0.21461563 0.18827263 -0.13338716 -0.2634048 0.27287662 -0.33667046 0.30283886 0.3788965
-0.86158776 -0.20040707 -0.9292172 -1.1570704 -0.24494268 0.5632938 -0.24211712 0.07137235
-1.0330563 -1.1819994 -0.06354477 0.12837002 -1.3375679 0.39197442 0.6105539 0.43596628
0.66782206 0.6265464 0.8362115 0.37630656 -0.84455675 -0.25940448 -0.21173508 0.095051296
0.3094074 0.23752815 -0.35646874 -0.9246102 0.22236073 -0.414158 -0.9676199 0.55555
0.1745408 0.7464654 0.6475531 -0.42062357 -0.5647754 -0.74865705 -0.36498445 1.3960289
-0.2640497 -0.60824656 0.36533007 -0.44181296 0.33871222 -0.5168835 -0.56805116 -0.68833464
-0.29001346 -0.6735674 -0.78225523 -0.115987204 -1.1230828 0.97777164 -0.14777687 0.4348326
-0.06678357 0.5917218 -0.71735746 -0.11709433 -0.47084194 -0.1848827 0.89108664 0.3157619
0.7822459 0.0017749709 0.95855784 -0.9335782 0.46360493 0.26872522 -0.0025219722 -0.36230987
-1.0088407 0.07822745 -0.81094754 -1.1615309 -0.968281 0.086924285 0.40864405 0.09561097
0.39440694 -0.027945098 0.2250828 0.9043043 -0.2916682 -0.42767265 -0.84260106 0.3852898
0.25045475 0.28831545 0.40451264 -1.0298557 0.25456432 -0.31507653 -0.49075317 0.30242497
0.020483537 -0.4778798 0.63041455 -0.05696223 0.58966297 0.67940265 -0.008050102 1.0919231
0.48539394 0.2968039 -0.08418869 1.0777792 1.322438e-05 0.07616498 -0.4384697 1.0613164
-0.23118667 0.20577388 0.10910226 -0.06676525 0.40204808 0.04967269 1.0574728 0.37500426
1.46105 -0.9253375 0.66756016 -0.2961575 -0.15653296 0.67433816 0.58403224 0.20745826
-0.7286966 1.0896108 0.41908637 0.04396214 -0.29482237 0.73842144 0.1880932 0.9489454
-0.7368823 -0.6220173 0.32940924 -0.19033387 -0.7746913 -0.34223086 -0.08238353 0.87025696
-0.50266266 0.04708758 0.21120326 -0.051388044 -0.45330885 0.6985574 -0.6417789 0.3989909
0.6804309 0.25281304 0.3332324 0.21507658 -0.05293299 1.0264094 0.14936109 -0.41307908
0.10714443 -0.4749558 0.7330008 0.8292273 0.6665401 -0.4207969 -0.14675361 1.1364641
0.65835774 0.073016465 -0.7914774 0.7374634 0.12039735 0.681016 -0.17291486 0.62335587
-0.24016777 0.32404402 -0.07792115 -0.69722736 -0.3629442 -0.20000653 -0.06347682 -0.06334188
0.3384319 -0.70410687 -0.0029495587 0.4558735 0.23165059 0.6641929 0.29267484 -0.48580876
00000000: 7c13 8dbd df54 50be 4a02 9e3e f586 a03e
00000010: b241 9f3e 916a 7d3c f2d9 d3bd 338a 853e
00000020: 502e ae3d 8e0e 893e 8b83 083e c602 6c3e
00000030: 314c bb3e 0395 5dbe c050 cfbe fdd4 8dbe
00000040: 4238 b9bd b115 cc3d 4d13 0fbe 6517 d03d
00000050: 0ede 1e3f 1c5d dcbe f38d e03e 58da ccbe
00000060: 1784 65bd b640 ddbd 80aa 613e b1da e63e
00000070: 4c96 1dbf c2ba bfbe 841c cc3e eff3 ce3e
00000080: b242 b43e ec9b c8be 66d2 d6bd 7fec c5be
00000090: d5cb febe fab2 99be bdea cc3c a3e7 6cbe
000000a0: 215c a9be e035 b43e 20db 003f 81aa 9dbe
000000b0: fdcd dd3e 180e d7bd 175f 333e 25df 8fbd
000000c0: d763 c3bd 7a68 f53e d247 d7bd 0a5f 1f3e
000000d0: 1077 c13e 1a2a 5f3d d2a4 8cbe 57bc 7d3e
000000e0: 33c4 5bbe 8aca 403e a596 08be fedc 86be
000000f0: 7cb6 8b3e 1260 acbe b20d 9b3e b9fe c13e
00000100: 0491 5cbf 8337 4dbe 2ee1 6dbf e21a 94bf
00000110: 41d2 7abe 0634 103f 8ded 77be ab2b 923d
00000120: 303b 84bf c24b 97bf c323 82bd 6e73 033e
00000130: 6d35 abbf dfb0 c83e 434d 1c3f f936 df3e
00000140: 63f6 2a3f 5865 203f f511 563f 41ab c03e
00000150: df34 58bf aad0 84be 15d1 58be 41aa c23d
00000160: a66a 9e3e 943a 733e 1283 b6be 41b3 6cbf
00000170: 88b2 633e 840c d4be f0b5 77bf 8638 0e3f
00000180: d3ba 323e 5b18 3f3f 0ac6 253f f95b d7be
00000190: 1f95 10bf fda7 3fbf 3edf babe 13b1 b23f
000001a0: 8631 87be 0cb6 1bbf 8b0c bb3e 4f35 e2be
000001b0: b06b ad3e 7a52 04bf cd6b 11bf b336 30bf
000001c0: a57c 94be ea6e 2cbf e141 48bf b38a edbd
000001d0: 2dc1 8fbf 3e4f 7a3f d252 17be 61a2 de3e
000001e0: d3c5 88bd 147b 173f bda4 37bf 27cf efbd
000001f0: 3212 f1be e451 3dbe 411e 643f 8bab a13e
00000200: 4441 483f 24a6 e83a 0c64 753f fbfe 6ebf
00000210: a05d ed3e 5a96 893e ac47 25bb ae80 b9be
00000220: b121 81bf b735 a03d 429a 4fbf 0bad 94bf
00000230: 43e1 77bf 5c05 b23d cb39 d13e afcf c33d
00000240: b5ef c93e 1eed e4bc 1b7c 663e 7d80 673f
00000250: 8955 95be e9f7 dabe b4b4 57bf b444 c53e
00000260: 9b3b 803e 159e 933e 481c cf3e 50d2 83bf
00000270: 4156 823e b651 a1be 0044 fbbe 72d7 9a3e
00000280: 17cd a73c a9ac f4be d962 213f 3a51 69bd
00000290: 27f4 163f 55ed 2d3f 93e4 03bc 23c4 8b3f
000002a0: 8e85 f83e aef6 973e 1f6b acbd abf4 893f
000002b0: 48de 5d37 63fc 9b3d 1a7f e0be 37d9 873f
000002c0: 33bc 6cbe 63b6 523e 0171 df3d 38bc 88bd
000002d0: 3fd9 cd3e 9775 4b3d 455b 873f 8f00 c03e
000002e0: b003 bb3f ebe2 6cbf 39e5 2a3f f5a1 97be
000002f0: 2d4a 20be 6da1 2c3f 2383 153f f06f 543e
00000300: dc8b 3abf 5e78 8b3f 7d92 d63e a511 343d
00000310: f5f2 96be 3009 3d3f 819b 403e 16ee 723f
00000320: 52a4 3cbf 873c 1fbf 54a8 a83e e2e6 42be
00000330: 2b52 46bf e238 afbe b2b8 a8bd 29c9 5e3f
00000340: 80ae 00bf e8de 403d ab45 583e 457c 52bd
00000350: 1918 e8be a8d4 323f 9f4b 24bf 8948 cc3e
00000360: b830 2e3f b670 813e 709d aa3e 093d 5c3e
00000370: 43d0 58bd 6261 833f 1df2 183e 1a7f d3be
00000380: 8a6e db3d 682d f3be f1a5 3b3f 3e48 543f
00000390: 5fa2 2a3f b172 d7be 9446 16be a877 913f
000003a0: 228a 283f a889 953d 439e 4abf 67ca 3c3f
000003b0: e392 f63d 1157 2e3f 9810 31be 4094 1f3f
000003c0: 8aee 75be 19e9 a53e 2095 9fbd 7e7d 32bf
000003d0: d2d3 b9be 83ce 4cbe 2300 82bd 63b9 81bd
000003e0: f246 ad3e 5940 34bf 624d 41bb 4068 e93e
000003f0: d035 6d3e 8c08 2a3f 7ad9 953e edbb f8be

fc1.bias f4 [12]
-0.01711331 0.0173237 -0.50019455 -0.51385194 -0.2675693 0.052844908 -0.1799836 -0.43435118
0.08032913 -0.20359959 0.044196352 -0.1048664
00000000: 3631 8cbc 6fea 8d3c c00c 00bf cd8b 03bf
00000010: d8fe 88be e773 583d 9f4d 38be 4763 debe
00000020: 9983 a43d 697c 50be 3c07 353d 32c4 d6bd
