src/src_learner/java_finetuning_model.pt (torch, 103364 bytes, 11 tensors)

word_embeddings.weight f4 [109, 128]
0	0xbfad69ff	-1.3547972
1	0xbf5f0b8b	-0.8712699
2	0xbf14fc5d	-0.58197576
3	0xbfd2ff1c	-1.6484103
4	0xbe9998a3	-0.29999265
5	0xbf299557	-0.662435
6	0xbf60e505	-0.87849456
7	0xbfbf5a70	-1.4949474
8	0xbf58b9d6	-0.84658563
9	0x3e9937a3	0.2992526
10	0xbf295983	-0.6615221
11	0xbed30ba1	-0.4121981
12	0xbec66749	-0.38750675
13	0x3fdcaa8f	1.723955
14	0x3e52fb36	0.20603642
15	0x3ef73201	0.48280337
16	0xbf09f4d2	-0.5388919
17	0xbf950a91	-1.164385
18	0x3f4e787b	0.8065259
19	0x3df29e37	0.11846583
20	0x3f61540b	0.88018864
21	0x3e0505d3	0.12990503
22	0xbf30c1d2	-0.69045746
23	0x3f227773	0.63463515
24	0x3f699404	0.9124148
25	0xbe57599e	-0.2103028
26	0xc0153e8d	-2.3319428
27	0xbfc9f529	-1.5777942
28	0x3e0af488	0.13569844
29	0xbf1bf54f	-0.60921186
30	0xbf845c21	-1.0340616
31	0xbdf61b1d	-0.1201689
32	0x3feeb58b	1.8649153
33	0x3c8bb975	0.017056206
34	0xbc31adbd	-0.010844645
35	0xbf2e6aa7	-0.6813149
36	0x3ee68e42	0.4503041
37	0x3de0f053	0.10983338
38	0x3e0c7337	0.13715826
39	0xbf0f4b3c	-0.55974174
40	0xbbd645f9	-0.006539103
41	0x3e012471	0.12611558
42	0xbe9d21a2	-0.30689722
43	0x3d27f2d2	0.041003056
44	0x40168f75	2.352506
45	0xbf547588	-0.8299184
46	0x3fd7a891	1.6848317
47	0xbf1ba343	-0.6079599
48	0xbf83f02a	-1.0307667
49	0x3f52b9a5	0.8231452
50	0xbe33c05f	-0.17553852
51	0xbf22e389	-0.6362844
52	0x3f504523	0.81355494
53	0x3f2d1519	0.6761032
54	0x3f9f6024	1.2451215
55	0x3fec17d6	1.8444774
56	0x3c0fdcdc	0.008780684
57	0x3f69963f	0.9124488
58	0xbec36a69	-0.38167122
59	0xbf27436f	-0.6533727
60	0x3fc439b9	1.5330116
61	0xbf192ae3	-0.59831065
62	0xc05a178e	-3.4076877
63	0xbf48e0cc	-0.7846801
64	0xbde33473	-0.11093988
65	0xbf8ff30c	-1.1246047
66	0xbf3e9257	-0.74442047
67	0xbf91cab4	-1.1389985
68	0xbd5b0c99	-0.05347881
69	0xbd36c0ba	-0.044617392
70	0x3fd0a742	1.6301043
71	0xbdf5909c	-0.11990473
72	0xbf426e63	-0.75949687
73	0xbdc98ee1	-0.09841705
74	0xbf871b14	-1.0555139
75	0xbf6afb61	-0.91789824
76	0xbebce9ae	-0.36897033
77	0xbf243d16	-0.6415571
78	0x3f10e6ab	0.5660197
79	0xbf8f0748	-1.1174097
80	0xbe82b0a0	-0.2552538
81	0x3e8c88d1	0.27448133
82	0xbefa6f51	-0.48913053
83	0x3f43ebd4	0.7653172
84	0xbfb3361d	-1.4000889
85	0xbef1ba0a	-0.4721225
86	0x3e2f8f6b	0.17144553
87	0xbe9f1cd8	-0.31076694
88	0x3e355dbd	0.1771154
89	0xbed1bb95	-0.40963426
90	0xbf8da499	-1.1065856
91	0x3f28621f	0.6577472
92	0xbf7ffffe	-0.9999999
93	0xbf150e00	-0.5822449
94	0x3f15212a	0.5825373
95	0x3ffed89a	1.9909852
96	0x3f2412d3	0.64091223
97	0x3fa6bada	1.3025773
98	0x3f687c4a	0.9081465
99	0xbf6ba13c	-0.920429
100	0x3fc0446a	1.5020878
101	0xbf509c22	-0.8148824
102	0xbf91f7f1	-1.1403791
103	0x3f8e5944	1.1120992
104	0x3fb2c1e5	1.3965422
105	0x3eb60d0e	0.35556835
106	0xbe6540e7	-0.2238804
107	0x3d110375	0.035403688
108	0xc0093c7f	-2.1443174
109	0xbefeaa70	-0.49739408
110	0xbfd4b21a	-1.6616852
111	0xbf8c2237	-1.0947942
112	0x3f56232a	0.83647406
113	0xbf0deb95	-0.55437595
114	0x3f9f82d0	1.2461796
115	0x3f1bc6f5	0.6085046
116	0x3e9defec	0.30847108
117	0x3eb7cae5	0.35896984
118	0x3f00578b	0.5013358
119	0xbf15b511	-0.5847941
120	0x4025df63	2.5917594
121	0xbe3b2ca0	-0.18278742
122	0xbd98a654	-0.074535996
123	0x3ffd3fd8	1.9785109
124	0xbff4fa9a	-1.9138978
125	0x3fd0b7a6	1.6306045
126	0xbcd5e8f8	-0.026112065
127	0x3ed6eb19	0.4197624
128	0x3f365d86	0.71236455
129	0xbfe36497	-1.7765073
130	0x3eb52dbd	0.35386458
131	0x3f998ced	1.1996132
132	0xbe9b227a	-0.3029974
133	0xbfe18407	-1.7618417
134	0x3f22852d	0.6348446
135	0xbf4dea7a	-0.8043591
136	0xbfce38e9	-1.6111118
137	0xbfef9103	-1.8716129
138	0x3f0b0787	0.5430836
139	0x3f29223c	0.6606786
140	0x4012e4bf	2.2952116
141	0x3f2cc6a3	0.67490596
142	0x3fdb4e1f	1.7133216
143	0xbfe5aac0	-1.7942734
144	0xbfae7f8a	-1.3632672
145	0xbf7bb448	-0.9832196
146	0x3fc17130	1.5112667
147	0x3f2451a4	0.64187074
148	0x3ef22850	0.4729638
149	0xbedb7029	-0.4285901
150	0x3f0d26a2	0.55137074
151	0xbfc61040	-1.5473709
152	0x3f04a2ff	0.5181121
153	0x3dda2f35	0.10653535
154	0x3e89d9ed	0.26924077
155	0x3fa991ff	1.324768
156	0x3fdf7d8e	1.7460191
157	0x3fed6fa0	1.854969
158	0xbf34d49b	-0.7063691
159	0x4023a74d	2.5570862
160	0x3ed5c70e	0.4175343
161	0xbe59d2e8	-0.2127186
162	0xbf57077d	-0.839958
163	0xbed70c95	-0.42001787
164	0xbf1fc0d8	-0.6240363
165	0xbf7a3014	-0.9772961
166	0x3f5ff5b3	0.8748428
167	0x3f7cbe79	0.9872814
168	0x3e9e80ca	0.30957633
169	0x3fc2a5f8	1.52069
170	0x3f9a451b	1.2052339
171	0xbfe86549	-1.815591
172	0xbece9283	-0.40346155
173	0xbf758a8a	-0.9591452
174	0xbbaaa563	-0.005207704
175	0xbda182ff	-0.07886314
176	0x3f57f9ba	0.8436543
177	0x3f9535b3	1.1657013
178	0x3f06e507	0.5269322
179	0x3fcf43b1	1.6192533
180	0xbf76c726	-0.96397626
181	0x3e10eab8	0.14152038
182	0xbe2796bd	-0.16366096
183	0xbeb768f3	-0.35822257
184	0x3fdc73a6	1.7222793
185	0xbe9b6e43	-0.3035756
186	0x3e749b70	0.2388742
187	0x3fac083b	1.3440012
188	0x3dd367fe	0.10322569
189	0x3f8cd868	1.1003542
190	0xbeaef0b5	-0.3416802
191	0x3f7284cd	0.9473389
192	0xbf118a43	-0.56851596
193	0x3f566cb4	0.8375962
194	0x3fe44efe	1.7836607
195	0xbe481d67	-0.19542466
196	0x3f03d18b	0.5149161
197	0xbfec7a25	-1.8474776
198	0xc03aabe9	-2.9167426
199	0xbf113c88	-0.5673299
200	0xbf0a9157	-0.5412802
201	0x3f652a20	0.895174
202	0xbf61ebfb	-0.882507
203	0x3f0824c8	0.53181124
204	0xbfc5dc07	-1.5457772
205	0xbe317582	-0.17329982
206	0x3f3a6e5a	0.72824633
207	0x3d69b8d1	0.05706102
208	0x3f67cffa	0.9055172
209	0x3f85ecfd	1.0462948
210	0xbf0545d8	-0.520597
211	0x3fad698e	1.3547838
212	0x3e70d678	0.23519313
213	0x3ff505ed	1.9142433
214	0x3feb0f85	1.8364111
215	0x3fa98a47	1.3245324
216	0xbf7810fc	-0.96900916
217	0x3fa0359f	1.2516364
218	0x3f9aebe7	1.2103242
219	0xbf0725ce	-0.5279206
220	0x3e5fcfce	0.21856615
221	0xbf1305cd	-0.57430726
222	0x3fba8313	1.4571251
223	0x3fe2aead	1.7709557
224	0x3fd33060	1.6499138
225	0xbedd2fb4	-0.43200457
226	0xbe8ac40a	-0.2710269
227	0xbfb8367b	-1.4391626
228	0x3f9f9f05	1.2470404
229	0x3fa30d8e	1.2738512
230	0x3ec82a80	0.39094925
231	0x3ec64074	0.3872105
232	0xbda37d3d	-0.07982872
233	0x3eaef67d	0.3417243
234	0x3f72e659	0.9488273
235	0xbfb124d0	-1.3839359
236	0x3fdcaedc	1.7240863
237	0xc0175850	-2.3647652
238	0xbf6df31e	-0.9294909
239	0x3e96560e	0.2936253
240	0x3e5c4b92	0.21513203
241	0x3f703f28	0.9384637
242	0x3fbb9c4f	1.4657077
243	0xbf0e751b	-0.5564744
244	0xbf3eade3	-0.7448408
245	0xbe4f024d	-0.20215721
246	0xbe6b2e10	-0.2296679
247	0x3aae803e	0.0013313366
248	0x3ec0242a	0.3752759
249	0xbf14c0de	-0.5810679
250	0xbf1282d5	-0.57230884
251	0x3f813e6c	1.0097175
252	0xbdd85eb5	-0.10564939
253	0xbf970047	-1.179696
254	0xbdb9eaa7	-0.090779595
255	0x3f102843	0.56311435

rnn.weight_ih_l0 f4 [32, 128]
0	0xbe11db91	-0.14243914
1	0xbe0d344d	-0.13789482
2	0xbd91068d	-0.070813276
3	0x3e4eed5a	0.2020773
4	0xbdd63c8b	-0.104607664
5	0x3d122f56	0.035689674
6	0x3de53018	0.11190814
7	0x3e5409ae	0.20706818
8	0x3d70561c	0.05867587
9	0x3e2c2728	0.16811812
10	0x3d720a00	0.059091568
11	0x3dd16dce	0.10226022
12	0xbe04ea55	-0.12980016
13	0x3d87a664	0.06623533
14	0x3e4e18af	0.20126604
15	0x3b1fa11c	0.0024357503
16	0x3c75818c	0.0149845
17	0x3e3aa286	0.1822606
18	0xbd669c50	-0.056301415
19	0x3e61a18f	0.22034286
20	0x3daa129b	0.0830433
21	0xbd0cfc30	-0.034420192
22	0x3de2002c	0.11035189
23	0x3e3bc160	0.18335485
24	0xbe527666	-0.20552978
25	0x3e30ce3e	0.17266175
26	0x3b0bfa9e	0.0021359096
27	0xbe098205	-0.13428505
28	0x3dbe40b7	0.09289687
29	0x3e02ebdf	0.1278529
30	0xbe610ebf	-0.21978281
31	0xbd82c0e3	-0.063844465
32	0x3abd2a79	0.0014432214
33	0xbc0e778b	-0.008695493
34	0x3e277a54	0.16355258
35	0xbe0461a1	-0.12927867
36	0xbe125874	-0.14291555
37	0xbd62f5d6	-0.05541023
38	0x3e23fb66	0.1601387
39	0x3c912f06	0.017722618
40	0xbcbff47c	-0.023432009
41	0x3e85bd35	0.26120916
42	0x3d98d0be	0.074616894
43	0xbe3591dc	-0.17731422
44	0xbe501de1	-0.20323898
45	0xbe27afb9	-0.16375627
46	0xbea1998d	-0.31562462
47	0xbe365d76	-0.1780909
48	0xbe2066c7	-0.15664206
49	0xbe5b1cac	-0.21397656
50	0x3ea175d2	0.31535202
51	0x3e08a4ec	0.13344163
52	0x3dc327d8	0.09529084
53	0xbe064a18	-0.13114202
54	0xbcbcd64c	-0.023051403
55	0x3dec3f45	0.11535505
56	0x3e3dc4db	0.18532126
57	0x3d8d3ebf	0.068967335
58	0x3ce007a2	0.02734739
59	0xbe2df593	-0.1698821
60	0x3d6cca60	0.057810187
61	0xbd821b7d	-0.06352899
62	0x3df534eb	0.11972984
63	0xbdd2b5c9	-0.10288579
64	0xbdfcb817	-0.123398
65	0xbd81ae5d	-0.06332085
66	0xbcf43f6b	-0.029815396
67	0xbdcf3c4c	-0.101189226
68	0x3d7bd8cd	0.061486054
69	0x3e23b35d	0.1598639
70	0x3e636287	0.22205554
71	0xbbd2eb33	-0.0064367293
72	0x3cb253dd	0.021768505
73	0x3dc0c0c2	0.09411766
74	0xbe53f74e	-0.20699808
75	0x3e086af2	0.13322046
76	0xbd64cd32	-0.055859752
77	0xbd993324	-0.074804574
78	0xbd4d5b16	-0.050135694
79	0xbda1f2bc	-0.07907626
80	0x3dae0b83	0.084982894
81	0x3e72ef01	0.23723985
82	0xbe0be46c	-0.13661355
83	0x3c4624a1	0.012093694
84	0x3e16de58	0.14733255
85	0x3e6be84f	0.23037837
86	0xbe5e9f10	-0.21740365
87	0x3c5ab2ab	0.013348262
88	0xbd031e2a	-0.03201119
89	0xbe2cdab9	-0.16880311
90	0xbd957c3d	-0.07299087
91	0x3d94d3ab	0.07266935
92	0x3c0d57f0	0.008626923
93	0xbe4579fd	-0.19284816
94	0xbd645c2f	-0.055751976
95	0x3d7a5973	0.06112046
96	0x3bdf9ffc	0.0068244915
97	0xbda4f65d	-0.080548026
98	0xbe133def	-0.14379095
99	0x3e94cabe	0.2906093
100	0x3dd5823c	0.10425231
101	0xbe4c2fe2	-0.19940141
102	0xbe0ab032	-0.13543776
103	0xbda6538b	-0.08121403
104	0x3dfbcbc2	0.12294723
105	0xbd0e7c9d	-0.03478681
106	0xbdadf58c	-0.084941
107	0x3ddd66a9	0.108105965
108	0xbc6da993	-0.014505762
109	0x3e1a1046	0.1504527
110	0xbd57a333	-0.052645873
111	0xbdeae032	-0.11468543
112	0xbd991a23	-0.07475688
113	0xbc8dd59c	-0.017313771
114	0x3cd74c03	0.026281362
115	0x3c8d62ac	0.017258964
116	0x3e0702b2	0.13184622
117	0x3dbafd8f	0.09130394
118	0xbe460f34	-0.19341737
119	0xbdc49647	-0.09598976
120	0x3ada194d	0.001663962
121	0x3e02bd8e	0.12767622
122	0xbe27ff33	-0.16405945
123	0xbc7e1c76	-0.015509715
124	0xbc87e6f4	-0.01658962
125	0x3d92cb1c	0.07167646
126	0x3d4968d7	0.04917225
127	0xbdfa4f98	-0.122222126
128	0x3d1077a3	0.035270344
129	0xbe0aca05	-0.13553627
130	0xbd32792f	-0.0435726
131	0xbdfcbefa	-0.123411134
132	0x3dce9141	0.10086299
133	0x3dd15b20	0.10222459
134	0x3ca81fdb	0.020523002
135	0xb964fac4	-0.00021837192
136	0x3d1f3df9	0.03887746
137	0xbe62cbea	-0.221481
138	0x3d00c547	0.03143814
139	0x3ddf5134	0.1090416
140	0x3e1d01c3	0.15332703
141	0x3de095c2	0.10966064
142	0xbdde636c	-0.10858807
143	0x3e1d9ca5	0.15391786
144	0x3dc38e45	0.0954862
145	0xbe2e7f69	-0.1704079
146	0x3d9bd878	0.076096475
147	0x3c2c7d80	0.010527968
148	0x3e432ed7	0.19060837
149	0xbe4ea1eb	-0.20178954
150	0x3e10ba00	0.14133453
151	0x3e63d7de	0.22250316
152	0x3dcbb12e	0.09945904
153	0xbd63414e	-0.0554822
154	0x3d8c0044	0.06835988
155	0x3e0c3d14	0.13695174
156	0xbdd697ad	-0.104781486
157	0x3dd45e88	0.10369593
158	0x3d18bf1f	0.037291642
159	0x3d434d49	0.047681127
160	0xbdce7350	-0.10080588
161	0xbd24b06a	-0.040207304
162	0xbd58efc5	-0.052963037
163	0x3df98771	0.121840365
164	0x3e1963e9	0.14979519
165	0xbe702f71	-0.23455597
166	0x3d636d2f	0.055524047
167	0xbcfc02f8	-0.030763134
168	0xbc8b7866	-0.017025184
169	0x3d61f935	0.055169303
170	0xbc976adb	-0.01848357
171	0x3d13fc79	0.03612945
172	0x3d2bbfbb	0.041930895
173	0xbc28ebef	-0.010310157
174	0x3e0dbcce	0.13841555
175	0xbe204a6b	-0.15653388
176	0x3e660976	0.22464547
177	0x3cc141f5	0.023591021
178	0x3d873386	0.06601624
179	0xbd49587f	-0.049156662
180	0xbe109a34	-0.14121324
181	0xbdb65bf8	-0.089042604
182	0x3d65c650	0.05609733
183	0xbdc13f59	-0.09435911
184	0xbe28f76c	-0.16500634
185	0x3d052f08	0.032515556
186	0x3e0cbd94	0.13744193
187	0x3e168280	0.1469822
188	0x3d0a65ec	0.033788607
189	0xbe47395f	-0.19455479
190	0x3e25a51e	0.16176268
191	0x3dd9815e	0.10620378
192	0x3e4abaf1	0.19797875
193	0xbd9cefc2	-0.07662918
194	0x3c8a983c	0.016918294
195	0x3db497eb	0.088180386
196	0x3dc0b98b	0.094103895
197	0xbe09f791	-0.13473345
198	0xbdeb5557	-0.11490887
199	0xba778c03	-0.00094431656
200	0x3e15fd9e	0.14647529
201	0xbcb8cb0f	-0.022557763
202	0x3dcdfe73	0.10058298
203	0x3e52eb20	0.20597506
204	0x3b33a331	0.0027410502
205	0xbe1680d9	-0.14697589
206	0xbd23490a	-0.039864577
207	0x3e0ef6fe	0.13961408
208	0x3cb827e9	0.022479968
209	0xbe251291	-0.16120364
210	0xbcc8cd2c	-0.024511896
211	0xbe8a7046	-0.27038783
212	0xbe4a8120	-0.1977582
213	0xbe1c0105	-0.15234764
214	0xbda2941b	-0.07938405
215	0x3e059007	0.13043223
216	0x3e3e9998	0.18613279
217	0xbd8ae283	-0.06781485
218	0x3b0e3e97	0.0021704787
219	0x3e0362fe	0.12830731
220	0x3d53b61b	0.05168734
221	0xbd9f8033	-0.07788124
222	0xbc7dea6b	-0.015497784
223	0xbe0e6cc1	-0.13908674
224	0x3c8d39ac	0.017239414
225	0x3cbc62f1	0.022996398
226	0x3e2b08cf	0.16702579
227	0x3e8799d0	0.26484537
228	0x3dd74469	0.10511095
229	0x3ded603d	0.115906216
230	0xbd401e9e	-0.0469042
231	0x3cd6dd71	0.026228638
232	0xbd8771c7	-0.06613498
233	0x3e2ccffb	0.16876213
234	0x3d9a1ebf	0.075253956
235	0xbe8fae6f	-0.2806277
236	0x3d8147ac	0.063124985
237	0xbd3efe52	-0.046629258
238	0x3c68971c	0.0141961835
239	0xbe03a8fa	-0.12857428
240	0xbbfac9e0	-0.00765346
241	0xbe19f3b4	-0.15034372
242	0x3d83f85a	0.06443854
243	0x3db2e2fb	0.08734699
244	0x3d5e6032	0.054290958
245	0xbd8c493f	-0.06849908
246	0x3b6a363c	0.0035737893
247	0xbe5f171a	-0.21786156
248	0xbdabd0c3	-0.083894275
249	0xbd8b9cae	-0.06816994
250	0x3df2d7be	0.11857556
251	0x3d90caf6	0.07069962
252	0xbbed4883	-0.00724131
253	0x3e2bcfc2	0.16778472
254	0xbc8371c7	-0.016045464
255	0x3e173eb3	0.14770012

rnn.weight_hh_l0 f4 [32, 32]
0	0xbe449921	-0.19199039
1	0x3e38e2d2	0.18055275
2	0xbb103592	-0.0022004587
3	0x3e34a960	0.17642736
4	0x3cc74b0e	0.024327781
5	0xbddba9d9	-0.10725755
6	0x3e6d2f48	0.23162568
7	0x3d3f6ada	0.04673276
8	0xbe28dc07	-0.16490184
9	0x3c8c0a60	0.017094791
10	0x3e5dce26	0.2166067
11	0x3b812e73	0.0039423048
12	0x3c4137f6	0.011793127
13	0x3ebac93d	0.36481658
14	0xbe2db8d3	-0.16965036
15	0x3c743e16	0.014907381
16	0xbdaf47f0	-0.08558643
17	0xbe37f095	-0.17962869
18	0xbd12a3ff	-0.03580093
19	0xbc3684eb	-0.011140089
20	0xbdf3f3ec	-0.11911759
21	0x3dff0713	0.12452521
22	0xbe95e7c7	-0.29278395
23	0x3d3e7638	0.04649946
24	0x3e0fdeb7	0.14049803
25	0x3d9da30a	0.07697113
26	0xbdd1d8bc	-0.10246417
27	0x3e0de41d	0.1385655
28	0x3dd940aa	0.10608037
29	0x3e147af8	0.14500034
30	0xbdbda4c1	-0.0925994
31	0xbdd2d3ee	-0.10294329
32	0x3d86567b	0.065594636
33	0x3dfa36c7	0.12217479
34	0x3c86e41f	0.016466198
35	0xbe3f2f59	-0.18670405
36	0xbd2a0e96	-0.041517816
37	0xbdb30d46	-0.08742766
38	0xbbac92dd	-0.005266531
39	0x3e27bd5e	0.16380832
40	0xbe388b25	-0.1802183
41	0x3e057968	0.13034594
42	0xbe9666f7	-0.2937543
43	0xbe4326af	-0.19057725
44	0x3cdce1b1	0.026963087
45	0x3e3449c1	0.1760626
46	0x3d879d0f	0.066217534
47	0x3e8940ff	0.268074
48	0x3ec31530	0.38102102
49	0xbd29b2ac	-0.04143016
50	0xbeb72332	-0.3576904
51	0xbdb515b3	-0.088420294
52	0x3ea35065	0.31897274
53	0xbd8c54d5	-0.06852118
54	0x3cd64117	0.026154084
55	0xbd06a8cd	-0.032875825
56	0x3e642ec5	0.22283466
57	0xbc87a92d	-0.016560161
58	0xbd7fe6dd	-0.062476028
59	0xbe4d1765	-0.20028456
60	0xbe7a579b	-0.24447481
61	0xbcc32db1	-0.023825498
62	0x3d6012c2	0.05470539
63	0x3ea0f36a	0.3143571
64	0xbd4f2360	-0.050570846
65	0xbd70c325	-0.058779854
66	0x3c4f2edf	0.012645452
67	0xbda6ef2a	-0.08151086
68	0x3cf185b3	0.029482698
69	0x3d1b5c05	0.037929554
70	0xbd838b77	-0.06423085
71	0xbeb9a85f	-0.3626127
72	0x3e411dc5	0.18859012
73	0x3e3efc9f	0.18651055
74	0xbe307691	-0.1723273
75	0xb9dc617e	-0.00042034307
76	0x3e2a6818	0.16641271
77	0xbec0240f	-0.3752751
78	0xbea151c3	-0.31507692
79	0x3e6b5ea3	0.2298532
80	0xbe7da1ae	-0.24768707
81	0xbb3f0966	-0.002914989
82	0x3e4e8e75	0.2017153
83	0xbe14d3d7	-0.14533935
84	0x3cc2cd09	0.023779409
85	0x3e7d00d1	0.24707343
86	0xbeabb90b	-0.33539614
87	0x3e8de1c8	0.2771132
88	0xbdd56332	-0.10419311
89	0x3ede7f79	0.4345663
90	0x3e838db7	0.25694057
91	0x3e558250	0.20850492
92	0xbea958bb	-0.33075508
93	0xbe3094ca	-0.17244259
94	0x3b3a1ce1	0.002839856
95	0xbe9a27d3	-0.30108508
96	0x3ec221f2	0.37916523
97	0xbed809d0	-0.42194986
98	0x3d9f6abd	0.077840306
99	0x3d761fd5	0.06008895
100	0xbd0d90e5	-0.03456201
101	0x3eb0e8e9	0.34552696
102	0xbd886eaf	-0.06661736
103	0xbde9917e	-0.114047036
104	0xbd9574ad	-0.07297645
105	0x3e88d02d	0.26721326
106	0x3e55c96e	0.2087762
107	0x3e1e3a56	0.15451941
108	0xbe89aaf2	-0.26888233
109	0x3e04bf7b	0.12963669
110	0xbe198b69	-0.14994587
111	0xbbe2b5bd	-0.0069186375
112	0xbe207e6e	-0.15673229
113	0xbe109375	-0.1411875
114	0x3c8ad0c1	0.016945245
115	0xbd2984a1	-0.04138625
116	0x3daeb14b	0.0852991
117	0xbdba3a8c	-0.09093198
118	0x3e742ff6	0.2384642
119	0x3e427cd6	0.18992934
120	0xbe9f75dd	-0.3114461
121	0x3ea834c1	0.32852748
122	0x3eb55829	0.35418823
123	0x3e7628ca	0.24038997
124	0xbbbbfd2b	-0.005736967
125	0x3dbc65f7	0.09199136
126	0xbe25fd70	-0.1620996
127	0xbd975754	-0.073897034
128	0x3eaf7345	0.3426763
129	0xbd0e907c	-0.03480576
130	0x3e99db08	0.3004992
131	0xbdd661bb	-0.10467859
132	0x3dfa68f2	0.12227048
133	0xbc7c65eb	-0.0154051585
134	0xbe890379	-0.26760462
135	0xbea6caf5	-0.3257672
136	0x3d1bf676	0.03807684
137	0xbe6cc7e0	-0.23123121
138	0xbd3a9808	-0.045555145
139	0xbcad7a0c	-0.02117636
140	0x3e02dca8	0.12779486
141	0xbea7f886	-0.32806796
142	0xbe1be2f3	-0.15223293
143	0xbca2e19a	-0.019882966
144	0x3cbcb119	0.023033665
145	0x3d013401	0.031543735
146	0x3e3c5102	0.18390277
147	0x3d03b4bd	0.032154787
148	0x3deef21c	0.116672724
149	0x3e99cba5	0.3003818
150	0x3e2ddf66	0.16979751
151	0x3e78c689	0.24294485
152	0xbe952318	-0.29128337
153	0x3dea02ec	0.114263386
154	0xbde3265d	-0.110913016
155	0xbd5bb95c	-0.05364357
156	0xbe88ecb1	-0.2674308
157	0xbe408aed	-0.18802996
158	0xbe1bcf27	-0.15215741
159	0xbe9256ce	-0.28581852
160	0xbeb408ca	-0.35162956
161	0xbe4ffc9b	-0.20311205
162	0x3ea5cbb9	0.3238199
163	0xbdf5d32a	-0.12003167
164	0xbcb10b2b	-0.02161177
165	0xbe32f6a1	-0.17476894
166	0x3cd8e075	0.026474217
167	0x3ec98350	0.39357996
168	0xbe9d2c71	-0.3069797
169	0xbe5170cf	-0.2045319
170	0x3eca7a3c	0.39546382
171	0x3d865e68	0.06560975
172	0xbe597baa	-0.2123858
173	0x3c129a48	0.008947916
174	0x3e6e90ca	0.2329742
175	0xbe5f704e	-0.21820185
176	0x3d8da1c1	0.06915618
177	0xbdcf0fed	-0.101104595
178	0xbd99dbc7	-0.07512622
179	0x3eeec103	0.4663163
180	0xbe2ad777	-0.16683756
181	0xbe455927	-0.1927229
182	0x3ecb7b27	0.39742395
183	0xbdef37e3	-0.116805814
184	0xbeb4fbd0	-0.35348368
185	0xbe812dd0	-0.25230265
186	0xbe467422	-0.19380239
187	0xbd1ede46	-0.038786195
188	0x3d8765d1	0.06611217
189	0x3ded24d0	0.11579287
190	0xbe88d125	-0.26722065
191	0x3cdf6b7e	0.027272936
192	0x3e9c759d	0.30558482
193	0x3e51f4f5	0.205036
194	0xbe0815ca	-0.13289562
195	0xbe0a895c	-0.13528961
196	0xbd6786ea	-0.05652515
197	0x3ddab8c3	0.10679772
198	0xbe0b6c2a	-0.1361548
199	0x3c30534e	0.010762049
200	0xbce476ce	-0.027888682
201	0x3e8a75e5	0.2704307
202	0x3d9809b2	0.07423724
203	0xbd9766f3	-0.07392683
204	0x3e7f7dc1	0.24950315
205	0x3e8bd667	0.27312014
206	0x3e50d608	0.20394146
207	0xbdf2f674	-0.118634135
208	0xbc438949	-0.011934587
209	0xbe6a6f43	-0.22894005
210	0x3e5b8e4e	0.21441004
211	0xbec735c6	-0.38908213
212	0xbe7510cc	-0.23932189
213	0x3edf6cc9	0.43637684
214	0xbdf87712	-0.12132086
215	0xbe5f9f3a	-0.21838084
216	0x3da6c03a	0.08142133
217	0xbe6f3421	-0.2335973
218	0xbd2f795c	-0.042840347
219	0xbeb6c8b7	-0.35700008
220	0x3e78ad3f	0.24284838
221	0x3b9e60bb	0.0048333085
222	0xbc82a57d	-0.015948052
223	0x3b2ae6fb	0.0026077616
224	0xbc00bb4c	-0.007857155
225	0xbdabed10	-0.083948255
226	0xbe25b8a0	-0.1618371
227	0xbe450720	-0.19240999
228	0xbe18320f	-0.14862846
229	0x3ebd7baf	0.37008426
230	0xbe0ae81d	-0.13565107
231	0xbbddd94d	-0.006770289
232	0xbe1418e6	-0.14462623
233	0xbba9834e	-0.0051731234
234	0x3e4f7d21	0.20262577
235	0x3cfa3b75	0.03054593
236	0xbcabbdb2	-0.020964477
237	0xbdcfe3b7	-0.10150855
238	0x3d9ae7d4	0.07563749
239	0xbe7ccfa0	-0.24688578
240	0xbbdb947b	-0.00670105
241	0x3db27fa3	0.08715751
242	0x3e8e0324	0.2773677
243	0xbe8a9b62	-0.27071673
244	0xbe3493f7	-0.17634569
245	0x3d467950	0.048455536
246	0xbe95fcea	-0.2929452
247	0xbe712b30	-0.23551631
248	0x3de728a0	0.112870455
249	0x3dece0d2	0.115663186
250	0xbe81ab53	-0.25326023
251	0xbe70dbb2	-0.23521307
252	0xbd46da4e	-0.048548035
253	0xbe48d78b	-0.19613473
254	0x3d158991	0.036508147
255	0x3e55c786	0.20876893

rnn.bias_ih_l0 f4 [32]
0	0xbdae9f26	-0.08526449
1	0xbe4c936a	-0.19978109
2	0xbd9ce17f	-0.076601975
3	0xbd52f46e	-0.051502638
4	0x3e60b916	0.21945605
5	0x3e371827	0.17880307
6	0xbe6ba0d2	-0.23010567
7	0x3d5d131f	0.053973313
8	0xbc4f8705	-0.0126664685
9	0xbd055e8a	-0.032560863
10	0x3d362c2c	0.04447572
11	0xbcb4c971	-0.022068711
12	0xbdc435a0	-0.09580541
13	0x3de40699	0.11134071
14	0x3e17a827	0.14810239
15	0x3d36748e	0.04454475
16	0xbd9685e8	-0.07349759
17	0x3e151a5b	0.14560835
18	0x3e5ac615	0.21364625
19	0x3dc38a5b	0.095478736
20	0x3d6a9cd7	0.05727848
21	0xbdcd03bd	-0.10010479
22	0x3d4928a6	0.04911103
23	0x3db7b178	0.08969396
24	0xbe03ac6a	-0.1285874
25	0x3970e416	0.00022973152
26	0x3ddff276	0.10934918
27	0x3c47305d	0.012157527
28	0xbe5ee49e	-0.21766898
29	0xbdc5f338	-0.09665531
30	0xbd931580	-0.07181835
31	0x3c1b2897	0.009470127

rnn.bias_hh_l0 f4 [32]
0	0x3d954323	0.07288196
1	0xbe461500	-0.19343948
2	0xbddc87a3	-0.10768058
3	0xbe287430	-0.16450572
4	0xbdb06715	-0.08613411
5	0xbbbb1a57	-0.005709927
6	0xbe615c1f	-0.22007798
7	0xbd18b262	-0.037279494
8	0x3c917e0c	0.0177603
9	0xbdae21df	-0.08502554
10	0x3d5a97c9	0.05336741
11	0xbc9817d9	-0.018566059
12	0xbde042d5	-0.10950247
13	0x3e2c9bf1	0.16856362
14	0x3e13524e	0.14386865
15	0x3cf44c9c	0.029821686
16	0xbdf41c85	-0.11919502
17	0xbcad0d3a	-0.021124471
18	0x3dfe3512	0.12412466
19	0xbd38ff66	-0.045165442
20	0x3dadeb61	0.084921606
21	0xbe78de83	-0.24303631
22	0xbd9e6bec	-0.07735428
23	0xbc8f61a0	-0.017502606
24	0xbdd9330d	-0.1060544
25	0x3cffb351	0.031213434
26	0xbe2324d3	-0.15932016
27	0xbdd457ea	-0.10368331
28	0xbc846ffa	-0.016166676
29	0x3c9adf9a	0.01890545
30	0xbdaa94e9	-0.083291836
31	0x3bfe9b96	0.007770012

rnn.weight_ih_l0_reverse f4 [32, 128]
0	0x3ddb11a8	0.10696727
1	0xbd8084bf	-0.06275319
2	0x3c310796	0.010805031
3	0x3d1d8b02	0.038462646
4	0xbc84a58b	-0.016192218
5	0xbcc19b08	-0.023633495
6	0x3d03698a	0.03208307
7	0xbddf14cc	-0.108926386
8	0xbd806ce4	-0.06270769
9	0xbdf2e663	-0.11860349
10	0x3d82963b	0.063763104
11	0xbe175a5a	-0.1478056
12	0xbd8cd90d	-0.06877337
13	0xbdb6f4b5	-0.08933393
14	0x3e2ff822	0.17184499
15	0x3deb0133	0.11474838
16	0x3d9fe5b1	0.07807482
17	0xbc41ad00	-0.011821032
18	0x3d457f8c	0.04821734
19	0xbc53c2a1	-0.012924821
20	0x3df63764	0.12022284
21	0x3d6adb71	0.057338182
22	0xbc3ab45a	-0.011395538
23	0xbd989c59	-0.07451696
24	0xbc982d2b	-0.018576225
25	0xbe6a6aee	-0.22892353
26	0x3d321c93	0.04348428
27	0x3df2a940	0.11848688
28	0x3d52184a	0.051292695
29	0xbdaf1564	-0.08549002
30	0xbe29220a	-0.16516891
31	0xbdd5ab26	-0.104330346
32	0x3e18f876	0.1493853
33	0x3d9f4759	0.0777728
34	0xbe2724a3	-0.1632257
35	0xbe973e15	-0.29539552
36	0xbc7d107a	-0.015445823
37	0x3d481b7e	0.048854344
38	0xbd8f7bbd	-0.07006023
39	0xbe14be83	-0.145258
40	0x3cb672d1	0.022271546
41	0xbd54b747	-0.0519326
42	0x3c99cf1b	0.018775513
43	0x3d7a1a0a	0.06105999
44	0x3c29df66	0.010368204
45	0x3e205608	0.15657818
46	0x3ca2225e	0.019791778
47	0xbc44bb8f	-0.012007608
48	0xbe3ab49c	-0.1823296
49	0xbdb4fe3b	-0.08837553
50	0x3df6582f	0.120285384
51	0xbe266ad4	-0.16251689
52	0x3e53a38c	0.20667857
53	0xbddb19d3	-0.10698285
54	0x3dc82e69	0.09774477
55	0xbe3b1e44	-0.18273264
56	0xbe83c49a	-0.25735933
57	0xbc641d56	-0.01392301
58	0x3cc33c9f	0.023832617
59	0x3dde0019	0.108398624
60	0xbd88d014	-0.06680313
61	0x3d6d71de	0.05796992
62	0xbe2ea871	-0.17056443
63	0x3b8b99d7	0.0042602825
64	0xbd2047b0	-0.039130867
65	0x3ba2bbfb	0.0049662567
66	0xbdeff59f	-0.117167704
67	0xbc2ad130	-0.010425851
68	0xbdcf5126	-0.101229
69	0xbe159604	-0.14608008
70	0x3dece59d	0.11567233
71	0x3d265c39	0.040615294
72	0x3c1f116e	0.009708745
73	0xbda296d4	-0.079389244
74	0x3d5ef3a8	0.054431587
75	0xbdcbed8c	-0.09957418
76	0xbd8d14a7	-0.06888705
77	0x3d1a401b	0.037658792
78	0x3e1191bf	0.14215754
79	0xbe198ec0	-0.14995861
80	0xbdf6403c	-0.120239705
81	0x3db1b77d	0.08677576
82	0xbde45e0c	-0.111507505
83	0xbe1f8871	-0.15579392
84	0xbd7796d0	-0.06044656
85	0x3d49d5ba	0.04927609
86	0xbd89dbcf	-0.06731378
87	0xbc88bf16	-0.01669268
88	0x3e415674	0.18880635
89	0xbd6c4d24	-0.057690755
90	0x3daa013f	0.08301019
91	0xbe44ba78	-0.19211757
92	0x3da9cc56	0.08290927
93	0xbdbcf451	-0.09226287
94	0x3cb9b764	0.022670455
95	0x3da10ae7	0.078634076
96	0xbc12e162	-0.008964868
97	0x3ceced36	0.028921705
98	0xbcd1650a	-0.025560874
99	0x3d00a2f5	0.031405408
100	0x3d9af02c	0.075653404
101	0xbe1c0b3f	-0.15238665
102	0x3d803bde	0.06261419
103	0x3dca4e5f	0.09878229
104	0x3dd8edad	0.10592208
105	0xba36c275	-0.00069717254
106	0x3dba35fd	0.09092329
107	0xbe08b92c	-0.13351887
108	0xbd659cd3	-0.056057762
109	0x3e561a26	0.20908412
110	0xbe8210c6	-0.25403422
111	0xbd5e3251	-0.054247204
112	0x3dabe1cb	0.08392676
113	0xbdb5c9c9	-0.08876378
114	0xbd254e7c	-0.04035805
115	0x3d2ea33c	0.04263614
116	0x3e1acad2	0.15116432
117	0x3e432231	0.19056012
118	0x3e5c3dfd	0.21508022
119	0xbcac1c09	-0.021009462
120	0xbd9d37a7	-0.076766305
121	0x3cc16a5f	0.023610292
122	0xbdd1e5ea	-0.10248931
123	0x3d758b3f	0.05994725
124	0x3daeb082	0.0852976
125	0xbe27f85f	-0.1640334
126	0xbe829785	-0.25506225
127	0xbbed511b	-0.0072423345
128	0xbbeda600	-0.0072524548
129	0x3d83a8a5	0.06428651
130	0xbd8789c2	-0.06618072
131	0x3bdc5cbe	0.006724923
132	0x3e0ba0b8	0.13635528
133	0xbddf7096	-0.10910146
134	0xb9615369	-0.00021488745
135	0xbc96be58	-0.01840131
136	0x3e80ffac	0.25195062
137	0xbdd770d5	-0.10519568
138	0xbdf1c383	-0.11804869
139	0x3d97a1a9	0.07403881
140	0xbe047163	-0.12933879
141	0x3e1baeaf	0.15203355
142	0x3d84f5d8	0.064922035
143	0x3d08f7bf	0.033439394
144	0xbd9b9848	-0.07597405
145	0x3e32456e	0.17409298
146	0xbdaae0aa	-0.083436325
147	0x3e1b64aa	0.15175119
148	0xbe48564f	-0.19564174
149	0x3c556a04	0.013025764
150	0xbd38ef53	-0.045150112
151	0xbda16524	-0.07880619
152	0x3dad7023	0.08468654
153	0xbdf485ac	-0.119395584
154	0x3e12c8e3	0.14334445
155	0x3d10a6bd	0.035315264
156	0xbe2b9598	-0.16756284
157	0xbc917059	-0.017753767
158	0x3daa2e64	0.083096296
159	0xbde6bdf1	-0.11266697
160	0x3d607ddc	0.05480753
161	0xbe1f1be6	-0.15537986
162	0xbcb916c9	-0.022593873
163	0x3d7daeaa	0.06193415
164	0xbdf95789	-0.12174899
165	0x3dd4b6f7	0.1038646
166	0xbe1526a5	-0.14565523
167	0xbcdf5c63	-0.027265733
168	0xbe3928a1	-0.18081905
169	0x3dac6ce6	0.08419208
170	0xbd0ccd78	-0.034375638
171	0x3c9b105a	0.018928695
172	0xbde0d413	-0.1097795
173	0xbc3efe53	-0.011657315
174	0xbdfe002a	-0.12402375
175	0x3e3b91f9	0.18317403
176	0xbe8b68df	-0.27228448
177	0xbdace032	-0.08441199
178	0x3df68256	0.12036578
179	0xbddd3ed3	-0.108029984
180	0xbdeae2fd	-0.11469076
181	0xbe2697a6	-0.16268787
182	0xbc5440e4	-0.012954924
183	0x3e7b6b5f	0.24552678
184	0x3e9e5b7a	0.30929166
185	0x3cb80e24	0.02246768
186	0x3e6f653f	0.23378466
187	0xbe0c31bd	-0.13690849
188	0x3c62b6bb	0.013837512
189	0xbe333e3b	-0.17504208
190	0xbde9b31b	-0.11411115
191	0xbd9b697f	-0.07588481
192	0x3e126235	0.14295276
193	0x3e9f9a16	0.31172246
194	0x3e1f8b07	0.15580378
195	0x3dbd04c7	0.09229427
196	0xbe87694c	-0.26447523
197	0x3d7eaef4	0.062178567
198	0xbdf7e72e	-0.12104641
199	0x3dd1ae4c	0.102383226
200	0xbe073f28	-0.13207686
201	0x3cbb5dbc	0.022871844
202	0xbd22f5cf	-0.039785203
203	0xbe275798	-0.16342008
204	0x3db02762	0.08601262
205	0xbe5bd0c3	-0.21466355
206	0x3c5de3b2	0.013543056
207	0x3d13f8ce	0.03612595
208	0xbdc79851	-0.09745849
209	0xbdddb107	-0.10824781
210	0xbd429126	-0.047501706
211	0x3bf8f111	0.0075970967
212	0xbd2519d6	-0.040307842
213	0xbceb8572	-0.028750155
214	0x3dcd898a	0.10035999
215	0xbd327dd5	-0.043577034
216	0xbd1f7985	-0.03893425
217	0x3d8a0750	0.06739676
218	0x3c7ff577	0.015622488
219	0xbcd315f2	-0.0257673
220	0xbdfea3c8	-0.124335825
221	0x3dcbf7a7	0.09959345
222	0xbe24b002	-0.16082767
223	0x3caf0658	0.02136533
224	0x3c98c7ff	0.018650053
225	0xbe630985	-0.221716
226	0xbe376f33	-0.17913513
227	0x3c386620	0.011254817
228	0x3dfa5c9a	0.122246936
229	0xbdd17476	-0.10227291
230	0x3e112cc8	0.14177239
231	0x3c9d74e6	0.01922078
232	0x3d576cda	0.052594043
233	0x3e53cb3b	0.20682995
234	0x3e41ae66	0.18914184
235	0xbd97407c	-0.07385346
236	0xbe239025	-0.15972956
237	0xbe87695d	-0.26447573
238	0x3e295292	0.16535404
239	0x3e1f5ffc	0.15563959
240	0x3da29dc0	0.07940245
241	0x3e078982	0.13236049
242	0x3e39a6f7	0.18130098
243	0x3e010210	0.12598443
244	0x3d57612f	0.052582916
245	0x3d2e8ba3	0.042613637
246	0x3d17a7b8	0.037025183
247	0x3e355029	0.1770636
248	0xbd609399	-0.05482826
249	0xbc177870	-0.009245023
250	0x3d749857	0.059715595
251	0xbcce4e78	-0.025183901
252	0x3dd1d16c	0.10245022
253	0x3d5e44cc	0.05426483
254	0x3e7fb9af	0.24973176
255	0x3dd77a3a	0.1052136

rnn.weight_hh_l0_reverse f4 [32, 32]
0	0x3e14ee1d	0.14543958
1	0xbdba0d53	-0.09084573
2	0xbed7ca3e	-0.42146486
3	0x3e440ba4	0.19145066
4	0x3e1abb21	0.15110447
5	0xbe2145a6	-0.15749225
6	0xbedd7bed	-0.4325861
7	0xbeb4043a	-0.35159475
8	0xbe994b2a	-0.29940158
9	0xbd7e2dfa	-0.062055565
10	0x3b4ab13f	0.00309284
11	0xbde3f3ee	-0.1113051
12	0x3e07f40b	0.13276689
13	0xbdb0734e	-0.086157426
14	0x3e3881f6	0.18018326
15	0x3c2ad3f6	0.010426512
16	0xbe9982d4	-0.29982626
17	0x3e30f163	0.17279582
18	0x3e9d609f	0.3073778
19	0x3d889767	0.06669503
20	0xbd14851b	-0.03625975
21	0x3e53cafa	0.20682898
22	0xbc4fe0c1	-0.012687863
23	0x3e8ef33e	0.27919954
24	0x3b85a670	0.004078679
25	0x3ce3299d	0.027729804
26	0x3d7765a8	0.06039968
27	0x3d97e365	0.07416419
28	0x3ed6bd91	0.41941503
29	0x3e75bf9d	0.23998876
30	0xbe0b33af	-0.13593934
31	0x3dd87d1c	0.10570738
32	0x3d732196	0.059358202
33	0x3e9a97bf	0.30193898
34	0x3dce509b	0.10073968
35	0x3e1a9ff2	0.15100077
36	0xbd9e4ebe	-0.07729863
37	0x3d53049b	0.051518064
38	0xbd3b6b69	-0.04575673
39	0x3e719ee9	0.23595776
40	0x3e2dd512	0.16975811
41	0xbe24df0d	-0.16100712
42	0x3dcfba85	0.10142998
43	0x3ddb8142	0.10718013
44	0x3d5b8db9	0.053601954
45	0x3d929fc4	0.07159379
46	0xbe3dd56f	-0.1853845
47	0xbeb17c81	-0.346653
48	0x3e82702b	0.25476202
49	0xbd9c7bcf	-0.07640802
50	0xbe6601b1	-0.22461583
51	0x3d3c3bf5	0.045955617
52	0xbe10c784	-0.14138609
53	0xbea7906e	-0.3272738
54	0x3d2511f2	0.040300317
55	0xbe8d86d8	-0.2764194
56	0x3a8af94d	0.0010602862
57	0xbe09ec32	-0.13469008
58	0x3e5a3793	0.21310262
59	0x3eb18196	0.3466918
60	0xbca0557d	-0.019572014
61	0x3dedb400	0.11606598
62	0xbe0fa794	-0.1402877
63	0x3d033d96	0.032041155
64	0x3e288180	0.1645565
65	0x3cb85184	0.022499807
66	0x3d982288	0.07428461
67	0x3ce211de	0.02759641
68	0xbe26131e	-0.1621823
69	0x3a983ca9	0.0011614758
70	0xbeb54f96	-0.35412282
71	0xbe205dcb	-0.15660779
72	0xbe6659bd	-0.2249517
73	0x3e338183	0.17529874
74	0x3dc33ced	0.09533105
75	0xbe1849cb	-0.148719
76	0xbe30d472	-0.17268541
77	0xbe2fbe16	-0.17162356
78	0xbe07229d	-0.13196798
79	0xbc13d908	-0.009023912
80	0x3de5e39f	0.11225056
81	0x3d0141e4	0.03155698
82	0xbe6ef693	-0.23336248
83	0xbe1faa70	-0.1559236
84	0x3e546cdf	0.20744656
85	0x3d9f208a	0.07769878
86	0xbd2babfa	-0.041912057
87	0xbc9ba66c	-0.019000255
88	0xbdbc9a9e	-0.092091784
89	0x3e47d445	0.19514568
90	0xbd93e984	-0.07222274
91	0xbc82c2fb	-0.015962115
92	0x3dd1eb46	0.10249953
93	0xbda8d915	-0.0824453
94	0xbbaa3dfb	-0.005195377
95	0xbddbe409	-0.10736854
96	0xbdad8d6a	-0.08474238
97	0xbe530b03	-0.2060967
98	0x3eaba99c	0.3352784
99	0x3ea4954e	0.3214516
100	0x3e3c89c4	0.18411928
101	0xbe08f506	-0.13374719
102	0x3e39d71c	0.18148464
103	0x3da25d8c	0.07927999
104	0xbd8d9668	-0.06913453
105	0x3dbc2a53	0.0918776
106	0xbd8ee678	-0.06977552
107	0x3e8aa2c7	0.27077314
108	0xbd0f82af	-0.03503674
109	0x3df8ea04	0.1215401
110	0xbdff167e	-0.12455462
111	0xbc4e8101	-0.012603999
112	0xbe3e0166	-0.18555221
113	0x3e883810	0.26605272
114	0xbe93ab33	-0.28841552
115	0xbeb045c8	-0.3442824
116	0x3d4aea5f	0.04953992
117	0xbe787a85	-0.24265487
118	0xbd2cebc7	-0.042217042
119	0x3de3e661	0.11127926
120	0xbaa8f007	-0.0012888917
121	0xbe85ed68	-0.2615769
122	0x3d26cb0a	0.040720977
123	0x3e3076ec	0.17232865
124	0x3e3dd796	0.18539271
125	0xbd4bf8cd	-0.04979782
126	0xbdc6307f	-0.09677219
127	0xbca644de	-0.02029651
128	0x3d95c3fc	0.07312772
129	0xbe2fc9ac	-0.17166775
130	0x3f0a4713	0.540147
131	0x3e3bf4c0	0.18355083
132	0x3d8ed2ea	0.069738224
133	0xbdca349d	-0.098733164
134	0x3ea6c998	0.3257568
135	0x3bb32d47	0.005468044
136	0x3e0ea3f3	0.13929729
137	0xbdbb3149	-0.0914026
138	0x3e1c7cc8	0.15281975
139	0x3e8a612e	0.27027267
140	0x3d4d36a1	0.050100926
141	0xbeaa0c06	-0.33212298
142	0xbe77ef32	-0.2421234
143	0xbd27e00c	-0.040985152
144	0xbd94a299	-0.072575755
145	0xbe19c250	-0.1501553
146	0xbe1f5c39	-0.15562524
147	0xbea2b96c	-0.3178209
148	0x3da1a533	0.078928374
149	0x3c5bfa00	0.013426304
150	0xbdfc7357	-0.12326687
151	0x3dd18311	0.10230077
152	0x3e94ae5b	0.29039273
153	0xbf18123f	-0.5940284
154	0x3da8160f	0.08207332
155	0x3daeebd1	0.08541072
156	0x39af17ee	0.0003339643
157	0xbe4104b3	-0.18849449
158	0xbe9d71f6	-0.30751008
159	0xbd4a2059	-0.049347255
160	0x3d4df57f	0.05028295
161	0xbd66c9fb	-0.056344967
162	0x3dc58292	0.09644045
163	0xbdf6cfb9	-0.12051339
164	0x3e820d79	0.25400904
165	0xbdb0e45f	-0.08637308
166	0x3db6bb32	0.089224234
167	0x3c29a8e9	0.010355213
168	0x3e227bf8	0.15867603
169	0x3d7d19c1	0.06179214
170	0xbbb96748	-0.005658064
171	0x3dd32360	0.103094816
172	0xbd1b4149	-0.037904058
173	0x3e710f45	0.23540981
174	0xbc77bf8e	-0.015121354
175	0xbe918d6b	-0.28428206
176	0x3e6313c5	0.2217551
177	0xbe1d2a4b	-0.15348165
178	0xbec39e56	-0.38206738
179	0x3cc14277	0.023591263
180	0x3c892993	0.016743457
181	0xbe1a3fc9	-0.15063395
182	0x3e410b1b	0.18851893
183	0xbe89b7e5	-0.26898113
184	0xbcf76b13	-0.030202424
185	0x3e97afca	0.29626304
186	0x3e690960	0.22757483
187	0x3e544a1d	0.20731397
188	0xbe6bab71	-0.23014618
189	0x3e50f5f7	0.20406328
190	0xbc885a88	-0.016644731
191	0xbea7dc64	-0.32785332
192	0xbe31a793	-0.1734908
193	0xbe1e5fba	-0.15466204
194	0xbdc5a8d1	-0.0965134
195	0x3c1e1a3b	0.0096498085
196	0xbd83f947	-0.0644403
197	0xbe95b079	-0.292362
198	0x3e8b6454	0.27224982
199	0xbda0d4e6	-0.07853107
200	0xbde52bb9	-0.1118998
201	0xbe7eb22f	-0.24872659
202	0xbda47026	-0.08029203
203	0xbcdd6bea	-0.027028996
204	0xbdd66566	-0.10468559
205	0xbd82ca02	-0.06386186
206	0xbe2f21e5	-0.17102773
207	0xbb01dc50	-0.0019815154
208	0xbe5b4c6b	-0.2141587
209	0xbe1c64c8	-0.1527282
210	0x3ea0ec6e	0.31430382
211	0x3ddfb7a0	0.109236956
212	0x3d85e082	0.06536962
213	0x3e353306	0.17695245
214	0xbe15b1de	-0.14618632
215	0x3d8839cd	0.066516496
216	0x3eb54cbd	0.3541011
217	0xbeded71f	-0.435235
218	0xbe9705c8	-0.29496598
219	0x3d868826	0.06568937
220	0x3df14027	0.11779814
221	0x3c0be286	0.008537894
222	0x3e9b61be	0.3034801
223	0x3e96ec0a	0.2947696
224	0xbe2b804b	-0.16748159
225	0xbd40efad	-0.047103573
226	0xbe39b9c6	-0.18137273
227	0x3dc70dc2	0.09719421
228	0xbe46527b	-0.19367401
229	0xbdad29ae	-0.084552154
230	0xbdc93ea6	-0.09826402
231	0xbd8a4b40	-0.06752634
232	0xbe384020	-0.17993212
233	0x3d6bb3f5	0.057544667
234	0xbb6461f8	-0.0034848433
235	0xbdda6324	-0.10663441
236	0xbd22cb90	-0.039744914
237	0xbb71d655	-0.0036901433
238	0x3c864220	0.016388953
239	0xbe41b523	-0.18916754
240	0x3e4b3efd	0.19848247
241	0xbd962d50	-0.073328614
242	0x3daefe8b	0.08544644
243	0x3d1e2cc9	0.03861693
244	0x3d346b0a	0.044047393
245	0xbd25ba2e	-0.040460758
246	0x3d70a458	0.05875048
247	0x3dafb4e3	0.08579423
248	0xbe1f9966	-0.1558586
249	0xbdfc6086	-0.12323098
250	0x3e7d20ed	0.24719591
251	0xbe04e2b6	-0.12977108
252	0x3dbdce0e	0.092678174
253	0xbe398b97	-0.18119656
254	0xbdd7954b	-0.10526522
255	0x3e825d16	0.25461644

rnn.bias_ih_l0_reverse f4 [32]
0	0x3dcbdca2	0.09954192
1	0x3dc15555	0.09440104
2	0xb9d0517e	-0.00039733568
3	0xbe86ffc3	-0.26367006
4	0xbe5c7750	-0.21529889
5	0x3dd676f4	0.10471907
6	0x3d4736f0	0.048636377
7	0x3c497ffb	0.012298579
8	0xbe238691	-0.15969302
9	0xbe4f9df6	-0.20275101
10	0x3e5870df	0.21136807
11	0xbc992427	-0.018693997
12	0x3e958b80	0.29207993
13	0xbc8afd17	-0.016966386
14	0x3dd90270	0.10596168
15	0x3db4343a	0.08799024
16	0xbe7eba87	-0.24875842
17	0xbd9ab1af	-0.07553422
18	0x3c35dea5	0.011100446
19	0x3dab1879	0.08354277
20	0xbd692019	-0.056915376
21	0x3dfe2d85	0.12411026
22	0xbd2dd845	-0.04244258
23	0x3c96ebc8	0.018422976
24	0x3d807c3a	0.06273694
25	0xbd3542f5	-0.04425331
26	0x3d0c9036	0.034317218
27	0xbe6c0886	-0.23050126
28	0x3d8eacaa	0.06966527
29	0xbe8c8b61	-0.27450088
30	0x3cb64758	0.022250816
31	0x3d972e3a	0.07381864

rnn.bias_hh_l0_reverse f4 [32]
0	0x3e22c2f7	0.15894686
1	0xbe31c541	-0.17360403
2	0xbe0b12bb	-0.13581364
3	0xbd8a438d	-0.067511655
4	0xbca0a805	-0.019611368
5	0xbe0c9c11	-0.1373141
6	0xbded9ccd	-0.11602173
7	0xbd43968e	-0.047751002
8	0x3dbb0771	0.09132279
9	0x3c2dbf2b	0.01060466
10	0x3a0f9942	0.0005477854
11	0xbd8c4d87	-0.06850725
12	0xbcc9d6d3	-0.024638569
13	0xbe7a86f6	-0.24465546
14	0xbe018bd4	-0.12650996
15	0x3d461f82	0.048369892
16	0xbd0dfa6a	-0.03466264
17	0x3e1173d9	0.14204349
18	0x3cf71670	0.030162066
19	0x3dd30891	0.10304368
20	0x3d582409	0.05276874
21	0x3e773407	0.2414094
22	0xbe40ce13	-0.18828611
23	0x3b90c2b6	0.0044177426
24	0x3d50ad0d	0.050946284
25	0xbd0bdb7b	-0.03414486
26	0x3bf2ff20	0.007415667
27	0x3d094043	0.03350855
28	0xbe1352f9	-0.1438712
29	0xbdcab190	-0.098971486
30	0x3e313c83	0.1730824
31	0x3e5f9fc4	0.2183829

fc1.weight f4 [12, 64]
0	0xbd599f8e	-0.05313068
1	0xbe8c63d7	-0.27419922
2	0x3eab4914	0.33454192
3	0x3ec59e1c	0.3859719
4	0x3ea4ce87	0.32188818
5	0x3cfe65d3	0.031054413
6	0xbe212425	-0.15736444
7	0x3eae7658	0.34074664
8	0x3e2076a1	0.15670253
9	0x3ead62f4	0.33864558
10	0x3e591317	0.21198688
11	0x3e907696	0.28215474
12	0x3edc2c85	0.43002716
13	0xbe3d350c	-0.18477267
14	0xbedacfda	-0.42736703
15	0xbeb46979	-0.3523672
16	0xbe29c560	-0.16579199
17	0x3e264138	0.16235816
18	0xbe5b0220	-0.2138753
19	0x3e379383	0.17927365
20	0x3f2ea57c	0.6822126
21	0xbefda65b	-0.49540982
22	0x3eef3758	0.4672191
23	0xbef3514c	-0.47522962
24	0xbdbd0888	-0.09230143
25	0xbe34c475	-0.17653067
26	0x3e9260dd	0.28589526
27	0x3f036e2e	0.51339996
28	0xbf2a8407	-0.6660771
29	0xbed10ac8	-0.40828538
30	0x3ef0381e	0.46917814
31	0x3eead35d	0.45864382
32	0x3ed5d99a	0.4176758
33	0xbef0ae38	-0.47007918
34	0xbd2ab9f6	-0.041681252
35	0xbecedd50	-0.40403223
36	0xbf124dfc	-0.57150245
37	0xbeb4d465	-0.35318294
38	0x3dbeb34b	0.09311541
39	0xbe9a0cb5	-0.3008782
40	0xbecc4e46	-0.39903468
41	0x3ec5d53e	0.38639253
42	0x3f133c0d	0.57513505
43	0xbea5664d	-0.32304612
44	0x3effb70b	0.49944338
45	0xbe2b5f1d	-0.16735502
46	0x3e71571b	0.23568384
47	0xbc7b739d	-0.015347389
48	0xbe2cc604	-0.16872412
49	0x3f0e7537	0.55647606
50	0xbda7794d	-0.08177433
51	0x3e52eace	0.20597383
52	0x3eea208d	0.4572796
53	0x3d9bb989	0.076037474
54	0xbeb1f0f9	-0.3475416
55	0x3e88de4f	0.26732108
56	0xbe4e68a1	-0.201571
57	0x3e12e3ef	0.14344762
58	0xbe1b712c	-0.1517989
59	0xbea9e90b	-0.3318561
60	0x3ea665b1	0.3249946
61	0xbed0eaf7	-0.40804264
62	0x3eae80f3	0.34082755
63	0x3ee58c18	0.44833446
64	0xbf65ec52	-0.8981372
65	0xbe80bce0	-0.251441
66	0xbf808ba2	-1.0042613
67	0xbf98c63c	-1.1935496
68	0xbe8ce6f6	-0.2751996
69	0x3f242015	0.64111453
70	0xbe6080c0	-0.21924114
71	0x3d44e79e	0.04807245
72	0xbf8e8a01	-1.1135865
73	0xbfa00037	-1.2500066
74	0xbd4b23f8	-0.04959485
75	0x3e344a3f	0.17606448
76	0xbfb3fad3	-1.406092
77	0x3eeac86c	0.45856035
78	0x3f17f6c7	0.5936093
79	0x3edf6a22	0.4363566
80	0x3f391f98	0.72313833
81	0x3f20895d	0.627096
82	0x3f685eef	0.9076986
83	0x3ecf9552	0.4054361
84	0xbf685fa9	-0.90770966
85	0xbe8f7070	-0.2801547
86	0xbe8b175e	-0.27166265
87	0x3d858f72	0.06521501
88	0x3eb9aff3	0.3626705
89	0x3e91ec48	0.2850058
90	0xbec2ba44	-0.38032734
91	0xbf7d9b88	-0.99065447
92	0x3e8a8fb2	0.27062756
93	0xbec4e720	-0.38457584
94	0xbf84bf9c	-1.0370975
95	0x3f19e0d7	0.60108703
96	0x3e368dc2	0.17827514
97	0x3f46db79	0.7767864
98	0x3f332b59	0.6998802
99	0xbef69203	-0.48158273
100	0xbf1f6089	-0.62256676
101	0xbf4b9678	-0.7952647
102	0xbea18854	-0.31549323
103	0x3fbb0428	1.4610643
104	0xbe8d3e25	-0.27586475
105	0xbf2d709f	-0.6774997
106	0x3ec3fa5a	0.3827694
107	0xbf036e52	-0.5134021
108	0x3ec05f11	0.3757253
109	0xbf0de504	-0.55427575
110	0xbf19347f	-0.5984573
111	0xbf4199ae	-0.7562512
112	0xbea94847	-0.33062956
113	0xbf35972a	-0.70933783
114	0xbf4e7d76	-0.8066019
115	0xbdf52785	-0.119704284
116	0xbf9957d2	-1.1979926
117	0x3f857c0f	1.0428485
118	0xbe498dcd	-0.19682999
119	0x3ee57ac5	0.44820228
120	0xbd2639e3	-0.04058255
121	0x3f194765	0.59874564
122	0xbf460273	-0.7734749
123	0xbe22f523	-0.15913825
124	0xbf095ca0	-0.5365696
125	0xbe73eb64	-0.23820263
126	0x3f7788d5	0.96693164
127	0x3eafa210	0.3430333
128	0x3f561539	0.83626133
129	0xbbc557ef	-0.0060224454
130	0x3f82db7c	1.0223231
131	0xbf7c54ed	-0.98567086
132	0x3f02ca38	0.5108981
133	0x3e825349	0.25454167
134	0xbb52f07d	-0.00321868
135	0xbed39273	-0.4132267
136	0xbf864372	-1.0489333
137	0x3dd92992	0.10603632
138	0xbf6153fa	-0.88018763
139	0xbf9cc60b	-1.2247938
140	0xbf80fff2	-1.0078108
141	0x3d5e9dd9	0.054349754
142	0x3ee3e9a5	0.44514194
143	0x3dc4c34e	0.09607564
144	0x3ed34bf0	0.41268873
145	0xbd6bd06d	-0.057571817
146	0x3e76d676	0.24105248
147	0x3f644db6	0.8918108
148	0xbea06461	-0.31326583
149	0xbed72e7e	-0.42027658
150	0xbf631444	-0.887028
151	0x3ee69732	0.45037228
152	0x3e54cd2a	0.20781389
153	0x3eb1b120	0.34705448
154	0x3ee1bc1f	0.44088838
155	0xbf889e1b	-1.067325
156	0x3e83d427	0.25747797
157	0xbe9cfdc1	-0.3066235
158	0xbefe1006	-0.496216
159	0x3ea73022	0.3265391
160	0x3b9bc998	0.0047542565
161	0xbef38b52	-0.4756723
162	0x3f160e7c	0.5861585
163	0xbc954798	-0.018222615
164	0x3f282e69	0.65695816
165	0x3f3f105e	0.7463435
166	0xbd8c9ada	-0.06865473
167	0x3f92fe9c	1.1483951
168	0x3f043b93	0.51653403
169	0x3ea629eb	0.32453856
170	0xbe0a2da6	-0.13493976
171	0x3f90f894	1.132586
172	0x3a919a1d	0.0011108551
173	0x3ddb4102	0.10705759
174	0xbeda8408	-0.42678857
175	0x3f903c6d	1.126844
176	0xbe7718ba	-0.24130526
177	0x3e582bd8	0.21110475
178	0x3e267d73	0.16258793
179	0xbd54d025	-0.051956315
180	0x3eda00a8	0.42578626
181	0x3c8f84c6	0.017519366
182	0x3f8e3ce2	1.111233
183	0x3eb983a9	0.3623326
184	0x3fc13de2	1.509701
185	0xbf72d03e	-0.94849
186	0x3f36dd51	0.7143145
187	0xbe8db9f8	-0.27680945
188	0xbe23eb45	-0.16007717
189	0x3f3f44c7	0.7471432
190	0x3f0da426	0.55328596
191	0x3e4a6a1c	0.1976704
192	0xbf453c63	-0.7704527
193	0x3f930ac3	1.1487659
194	0x3ee23dc8	0.4418776
195	0x3d570f15	0.052504618
196	0xbe9b00c7	-0.3027403
197	0x3f3dfd26	0.742144
198	0x3e4b976e	0.19881985
199	0x3f72aa65	0.9479125
200	0xbf3fe634	-0.7496064
201	0xbf297926	-0.6620048
202	0x3ea67800	0.32513428
203	0xbe5b4670	-0.21413589
204	0xbf4fdda0	-0.8119755
205	0xbec8789d	-0.3915452
206	0xbdc2eb84	-0.09517577
207	0x3f6e6d2b	0.9313533
208	0xbf02f949	-0.5116163
209	0x3d207641	0.039175276
210	0x3e700d4a	0.2344257
211	0xbda1e976	-0.07905857
212	0xbee849a6	-0.4536869
213	0x3f3d4d6f	0.7394628
214	0xbf23a74c	-0.6392715
215	0x3eec5068	0.46155095
216	0x3f30ee06	0.69113195
217	0x3e8f9e63	0.28050527
218	0x3eb6d42c	0.3570875
219	0x3e7ab19c	0.24481815
220	0xbd9beed7	-0.076139145
221	0x3f82fd56	1.0233562
222	0x3e2fb4c3	0.17158799
223	0xbee7ba04	-0.45259106
224	0x3db2b78f	0.08726417
225	0xbee99110	-0.45618486
226	0x3f31503a	0.6926304
227	0x3f622001	0.88330084
228	0x3f3a3261	0.7273312
229	0xbecd41b6	-0.40089196
230	0xbe4ca689	-0.19985403
231	0x3f96b52a	1.1774037
232	0x3f34bc51	0.7059985
233	0x3dd0aaf6	0.10188858
234	0xbf58ca80	-0.8468399
235	0x3f4afe23	0.7929403
236	0x3d9ff599	0.07810516
237	0x3f371f08	0.71531725
238	0xbe321bd5	-0.1739343
239	0x3f2ce8c5	0.6754268
240	0xbe64ac63	-0.22331385
241	0x3e91d9da	0.2848652
242	0xbd5f7e36	-0.054563724
243	0xbf36f127	-0.7146172
244	0xbec26c18	-0.37973094
245	0xbe6a7364	-0.2289558
246	0xbd52a3cd	-0.051425744
247	0xbd5973fa	-0.05308912
248	0x3e9aa992	0.30207497
249	0xbf3b5ffe	-0.7319335
250	0xbbc93a22	-0.006140963
251	0x3f04e2ad	0.5190838
252	0x3e7eb25a	0.24872723
253	0x3f36f6fc	0.7147062
254	0x3e84d298	0.2594192
255	0xbf0a3772	-0.5399085

fc1.bias f4 [12]
0	0x3d7990af	0.060928997
1	0x3dbc691d	0.09199736
2	0xbf03f3f7	-0.51544136
3	0xbf10c4e1	-0.56550413
4	0xbe9f4238	-0.31105208
5	0xbb7e10ae	-0.0038767266
6	0xbe473574	-0.19453984
7	0xbeea675e	-0.45781988
8	0x3ceb4a8b	0.028722068
9	0xbe91b786	-0.2846033
10	0xbc972306	-0.018449318
11	0xbd505705	-0.05086424
