src/src_learner/kotlin_finetuning_model.pt (torch, 138692 bytes, 11 tensors)

word_embeddings.weight f4 [178, 128]
-1.4235455 -0.57480705 -0.76385206 -1.5983483 0.02469354 -0.630247 -1.1092954 -1.7285866
-0.70644194 0.2969628 -0.52075535 -0.030789474 -0.29672328 1.8350526 0.38338298 0.48227653
-0.66763806 -1.0013325 0.71834415 0.2310276 0.932911 0.23424476 -0.4485191 0.76239884
1.219981 -0.093062244 -2.181286 -1.3477919 -0.054512527 -0.5039378 -0.91876286 -0.022419112
1.8873817 -0.20999435 -0.09891396 -0.65798867 0.19928035 -0.06027975 -0.04250016 -0.446609
-0.15819834 0.45330146 -0.060482673 0.22359689 2.343244 -1.0631909 1.5840294 -0.78105646
-0.8057704 0.5699583 -0.08676894 -0.609715 0.7978068 0.29166162 1.0546945 2.2072592
0.13613208 0.9221898 -0.23090494 -0.4426104 1.6461859 -0.789556 -3.1631417 -0.797161
0.057562515 -0.92057383 -0.59439856 -0.9512106 -0.3947904 -0.079321615 1.7625612 -0.11582235
-0.8672919 -0.18648094 -0.9713204 -0.79019386 -0.4799932 -0.48349386 0.47265157 -0.94141805
-0.44977364 -0.055212405 -0.7640013 0.8097734 -1.440102 -0.35757676 0.03392393 -0.2518857
0.36895972 -0.58286583 -1.0852741 0.8373516 -0.9701825 -0.30427176 0.10936659 1.9697732
0.673945 1.1874775 0.92902625 -0.90938747 1.5509689 -0.79184127 -0.76067793 1.0948832
1.3752328 0.5630236 0.06786363 -0.20507568 -2.088656 -0.6612896 -1.4760084 -0.9590763
0.79917186 -0.731861 1.3687643 0.72774816 0.31737792 0.4033504 0.63836116 -0.37325343
2.4665382 0.0027967314 -0.1285048 2.061648 -2.0759711 1.8018273 0.10541939 0.21438392
0.71236455 -1.7765073 0.35386458 1.1996132 -0.3029974 -1.7618417 0.6348446 -0.8043591
-1.6111118 -1.8716129 0.5430836 0.6606786 2.2952116 0.67490596 1.7133216 -1.7942734
-1.3632672 -0.9832196 1.5112667 0.64187074 0.4729638 -0.4285901 0.55137074 -1.5473709
0.5181121 0.10653535 0.26924077 1.324768 1.7460191 1.854969 -0.7063691 2.5570862
0.4175343 -0.2127186 -0.839958 -0.42001787 -0.6240363 -0.9772961 0.8748428 0.9872814
0.30957633 1.52069 1.2052339 -1.815591 -0.40346155 -0.9591452 -0.005207704 -0.07886314
0.8436543 1.1657013 0.5269322 1.6192533 -0.96397626 0.14152038 -0.16366096 -0.35822257
1.7222793 -0.3035756 0.2388742 1.3440012 0.10322569 1.1003542 -0.3416802 0.9473389
-0.56851596 0.8375962 1.7836607 -0.19542466 0.5149161 -1.8474776 -2.9167426 -0.5673299
-0.5412802 0.895174 -0.882507 0.53181124 -1.5457772 -0.17329982 0.72824633 0.05706102
0.9055172 1.0462948 -0.520597 1.3547838 0.23519313 1.9142433 1.8364111 1.3245324
-0.96900916 1.2516364 1.2103242 -0.5279206 0.21856615 -0.57430726 1.4571251 1.7709557
1.6499138 -0.43200457 -0.2710269 -1.4391626 1.2470404 1.2738512 0.39094925 0.3872105
-0.07982872 0.3417243 0.9488273 -1.3839359 1.7240863 -2.3647652 -0.9294909 0.2936253
0.21513203 0.9384637 1.4657077 -0.5564744 -0.7448408 -0.20215721 -0.2296679 0.0013313366
0.3752759 -0.5810679 -0.57230884 1.0097175 -0.10564939 -1.179696 -0.090779595 0.56311435
00000000: bd36 b6bf 8e26 13bf cf8b 43bf ad96 ccbf
00000010: 1b4a ca3c de57 21bf 64fd 8dbf 5342 ddbf
00000020: 61d9 34bf 820b 983e 3950 05bf 353a fcbc
00000030: 1dec 97be 01e3 ea3f c64a c43e f3ec f63e
00000040: 54ea 2abf aa2b 80bf 67e5 373f 8092 6c3e
00000050: 41d3 6e3f dcdd 6f3e 4ca4 e5be 922c 433f
00000060: 5628 9c3f 6b97 bebd 319a 0bc0 7284 acbf
00000070: 8748 5fbd 1102 01bf 0b34 6bbf 49a8 b7bc
00000080: b995 f13f c208 57be 6793 cabd f271 28bf
00000090: 2610 4c3e e6e7 76bd a614 2ebd efa9 e4be
000000a0: bffe 21be 2117 e83e aebc 77bd 95f6 643e
000000b0: b6f7 1540 a416 88bf 7ac1 ca3f 51f3 47bf
000000c0: f846 4ebf cae8 113f eab3 b1bd 4816 1cbf
000000d0: 113d 4c3f ac54 953e 3b00 873f bc43 0d40
000000e0: 3566 0b3e a114 6c3f 5872 6cbe d59d e2be
000000f0: 38b6 d23f 5820 4abf ea70 4ac0 be12 4cbf
00000100: acc6 6b3d baaa 6bbf 812a 18bf 8a82 73bf
00000110: f821 cabe 5f73 a2bd 9b9b e13f 4534 edbd
00000120: d806 5ebf dcf4 3ebe 74a8 78bf 254a 4abf
00000130: abc1 f5be 828c f7be 63ff f13e c600 71bf
00000140: bb48 e6be 6726 62bd 9795 43bf 4f4d 4f3f
00000150: 4355 b8bf 4d14 b7be d2f3 0a3d 2af7 80be
00000160: 4ae8 bc3e b236 15bf 43ea 8abf ad5c 563f
00000170: e15d 78bf 82c9 9bbe 97fb df3d 8721 fc3f
00000180: a987 2c3f 43ff 973f aad4 6d3f 9ecd 68bf
00000190: 2686 c63f 1cb6 4abf cabb 42bf 2225 8c3f
000001a0: a107 b03f 5122 103f 16fc 8a3d 5cff 51be
000001b0: 8aac 05c0 464a 29bf d8ed bcbf 0686 75bf
000001c0: 8796 4c3f 3e5b 3bbf ab33 af3f b44d 3a3f
000001d0: 5c7f a23e f283 ce3e a36b 233f 131b bfbe
000001e0: c3db 1d40 5e49 373b c396 03be 0af2 0340
000001f0: b6dc 04c0 47a2 e63f 1fe6 d73d 7587 5b3e
00000200: 865d 363f 9764 e3bf bd2d b53e ed8c 993f
00000210: 7a22 9bbe 0784 e1bf 2d85 223f 7aea 4dbf
00000220: e938 cebf 0391 efbf 8707 0b3f 3c22 293f
00000230: bfe4 1240 a3c6 2c3f 1f4e db3f c0aa e5bf
00000240: 8a7f aebf 48b4 7bbf 3071 c13f a451 243f
00000250: 5028 f23e 2970 dbbe a226 0d3f 4010 c6bf
00000260: ffa2 043f 352f da3d edd9 893e ff91 a93f
00000270: 8e7d df3f a06f ed3f 9bd4 34bf 4da7 2340
00000280: 0ec7 d53e e8d2 59be 7d07 57bf 950c d7be
00000290: d8c0 1fbf 1430 7abf b3f5 5f3f 79be 7c3f
000002a0: ca80 9e3e f8a5 c23f 1b45 9a3f 4965 e8bf
000002b0: 8392 cebe 8a8a 75bf 63a5 aabb ff82 a1bd
000002c0: baf9 573f b335 953f 07e5 063f b143 cf3f
000002d0: 26c7 76bf b8ea 103e bd96 27be f368 b7be
000002e0: a673 dc3f 436e 9bbe 709b 743e 3b08 ac3f
000002f0: fe67 d33d 68d8 8c3f b5f0 aebe cd84 723f
00000300: 438a 11bf b46c 563f fe4e e43f 671d 48be
00000310: 8bd1 033f 257a ecbf e9ab 3ac0 883c 11bf
00000320: 5791 0abf 202a 653f fbeb 61bf c824 083f
00000330: 07dc c5bf 8275 31be 5a6e 3a3f d1b8 693d
00000340: facf 673f fdec 853f d845 05bf 8e69 ad3f
00000350: 78d6 703e ed05 f53f 850f eb3f 478a a93f
00000360: fc10 78bf 9f35 a03f e7eb 9a3f ce25 07bf
00000370: cecf 5f3e cd05 13bf 1383 ba3f adae e23f
00000380: 6030 d33f b42f ddbe 0ac4 8abe 7b36 b8bf
00000390: 059f 9f3f 8e0d a33f 802a c83e 7440 c63e
000003a0: 3d7d a3bd 7df6 ae3e 59e6 723f d024 b1bf
000003b0: dcae dc3f 5058 17c0 1ef3 6dbf 0e56 963e
000003c0: 924b 5c3e 283f 703f 4f9c bb3f 1b75 0ebf
000003d0: e3ad 3ebf 4d02 4fbe 102e 6bbe 3e80 ae3a
000003e0: 2a24 c03e dec0 14bf d582 12bf 6c3e 813f
000003f0: b55e d8bd 4700 97bf a7ea b9bd 4328 103f

rnn.weight_ih_l0 f4 [32, 128]
0.015473813 -0.1448856 -0.08572133 -0.09723364 -0.07772915 -0.05555269 0.1862816 0.029540308
-0.06014358 0.15216464 -0.035513792 0.056496393 0.12593342 0.014295449 -0.08811826 -0.03485859
-0.0011081436 -0.015593303 -0.24278088 -0.039222304 -0.18311064 -0.061719522 -0.1264902 -0.070055194
0.09106659 -0.069325455 0.15749957 -0.099380925 0.17196442 -0.209542 -0.008690247 -0.023392739
0.12211883 0.18838586 0.025175521 -0.19224648 0.095930316 -0.11836303 -0.08455165 -0.028157433
0.106633626 -0.21529436 0.1564889 -0.19847791 0.048835695 -0.08809981 0.13690792 -0.034011725
0.11764919 -0.05421068 -0.050815698 -0.06033308 -0.052269407 0.09698217 -0.12700467 0.020270636
0.070449814 0.18010382 -0.0034581486 0.00991533 -0.021863371 0.04062693 -0.18556815 -0.13296966
-0.049933672 -0.053237483 -0.117053725 0.18328913 -0.20567846 0.053193375 0.124275364 0.0038032322
0.00040303322 0.12253334 -0.023128467 0.0053465636 -0.029581476 -0.014350688 0.116389975 -0.17189078
-0.226957 0.087289125 -0.036100127 -0.022299118 -0.15846138 0.116629094 0.06937962 0.11793637
-0.083421 0.12846875 0.06421734 -0.11005555 -0.12398397 -0.15563829 -0.20563579 -0.03886477
-0.16417506 0.098988906 0.28090632 0.043266244 0.021861792 0.12789172 0.0025391323 0.0901021
0.0058116415 -0.008573349 0.024412312 0.21334082 0.0117466925 -0.013430427 -0.08934333 0.15878671
-0.050031435 0.027310953 -0.029621132 -0.00927542 0.258005 -0.0070320326 -0.04065477 0.118107915
0.06553585 -0.060917463 0.01743107 0.06503664 -0.12576999 -0.188629 -0.12815438 -0.015304963
-0.07187691 0.0701433 -0.20166504 0.013347884 0.11286692 -0.13852142 0.061737888 -0.15687677
-0.099239655 -0.025637638 -0.2251861 -0.13169806 -0.14878964 0.05228671 -0.059993148 -0.19945076
0.09916351 -0.07673157 -0.0736649 0.11535288 -4.7116115e-05 -0.068725094 0.04456284 0.13197324
-0.0234512 -0.18010889 0.1410405 -0.14224343 -0.0039256746 -0.036531024 0.05686434 0.050489154
0.024321206 0.120241836 0.089230105 0.004993004 -0.18168078 0.098263636 -0.089754246 -0.18217434
-0.078681216 0.07792488 0.20113614 0.16167815 -0.04059364 -0.10319448 0.1810831 0.1109834
-0.16891615 -0.03636359 -0.1337442 -0.274197 0.015003847 -0.029879322 0.10387579 0.126206
0.16472039 -0.105196744 -0.058605216 -0.027815849 0.18640213 -0.095869765 0.09953981 -0.036832504
-0.18074496 0.107736014 -0.027565086 -0.12496703 -0.031297844 0.11976109 -0.044385888 0.003691837
0.127766 0.036957745 -0.20566627 0.1979443 -0.06211965 0.046310827 -0.08649342 0.086328484
0.186825 0.08945825 -0.06829529 -0.032999393 0.18782021 -0.075118564 -0.12726519 -0.030359069
0.008217867 0.19315201 0.03378948 0.07809688 -0.020037282 0.03267519 0.055368632 0.110933445
0.09861361 0.12231371 0.11213935 0.022840211 -0.02043654 -0.2889258 -0.013338151 0.036433164
-0.13444385 0.15454577 -0.11127765 0.17603628 0.022030376 0.08116169 0.10010654 0.12961932
-0.093947865 0.035519943 0.03111765 0.09450659 -0.11860425 0.12967768 -0.007938813 0.13924977
-0.107475445 0.06966446 -0.06977665 0.041867018 -0.16548546 -0.07116396 0.055722505 0.1903434
00000000: e085 7d3c e45c 14be aa8e afbd 6e22 c7bd
00000010: 7630 9fbd 388b 63bd 9bc0 3e3e 84fe f13c
00000020: 1d59 76bd 0cd1 1b3e e976 11bd c368 673d
00000030: b1f4 003e 7537 6a3c 5977 b4bd e2c7 0ebd
00000040: 213f 91ba 0e7b 7fbc 8d9b 78be 91a7 20bd
00000050: 5b81 3bbe 9ccd 7cbd a686 01be 1979 8fbd
00000060: 1f81 ba3d 81fa 8dbd 9147 213e 3a88 cbbd
00000070: 7117 303e 2e92 56be 8a61 0ebc 21a2 bfbc
00000080: 7019 fa3d 39e8 403e e53c ce3c 43dc 44be
00000090: 1d77 c43d 5168 f2bd 6a29 adbd 6baa e6bc
000000a0: bb62 da3d 2076 5cbe a03e 203e cb3d 4bbe
000000b0: f007 483d ac6d b4bd 9731 0c3e e14f 0bbd
000000c0: 0ff2 f03d 050c 5ebd 1f24 50bd d21f 77bd
000000d0: 7218 56bd 979e c63d 830d 02be 9b0e a63c
000000e0: fe47 903d 236d 383e 1ba2 62bb e973 223c
000000f0: d01a b3bc 6c68 263d 9405 3ebe 3329 08be
00000100: 4087 4cbd 8c0f 5abd ddb9 efbd 25b0 3b3e
00000110: 609d 52be 4ce1 593d 1584 fe3d a63f 793b
00000120: 344e d339 c2f2 fa3d e977 bdbc 3a32 af3b
00000130: da54 f2bc 261f 6bbc de5d ee3d 2304 30be
00000140: 6a67 68be a4c4 b23d badd 13bd a4ac b6bc
00000150: b343 22be 3cdb ee3d e716 8e3d a088 f13d
00000160: a1d8 aabd 508d 033e 6184 833d ce64 e1bd
00000170: 4feb fdbd a55f 1fbe 3092 52be aa30 1fbd
00000180: 821d 28be b2ba ca3d f4d2 8f3e f237 313d
00000190: 8017 b33c 0cf6 023e 9267 263b 7387 b83d
000001a0: 956f be3b 3b77 0cbc 54fc c73c 0476 5a3e
000001b0: 3375 403c 4b0b 5cbc a3f9 b6bd fc98 223e
000001c0: c3ed 4cbd 38bb df3c 04a8 f2bc eef7 17bc
000001d0: 3b19 843e f76c e6bb 9e85 26bd 90e2 f13d
000001e0: a937 863d 9784 79bd 9acb 8e3c ee31 853d
000001f0: d9c9 00be f627 41be e73a 03be abc1 7abc
00000200: 3434 93bd 4aa7 8f3d 4881 4ebe 15b1 5a3c
00000210: c626 e73d 8fd8 0dbe dee0 7c3d 4ea4 20be
00000220: 293e cbbd 0606 d2bc 2f97 66be dbdb 06be
00000230: 505c 18be 972a 563d 60bb 75bd d23c 4cbe
00000240: 3d16 cb3d 7125 9dbd a0dd 96bd 213e ec3d
00000250: 8b9e 45b8 bebf 8cbd 8687 363d fe23 073e
00000260: bb1c c0bc 776e 38be ec6c 103e 43a8 11be
00000270: f2a2 80bb 8ea1 15bd 95ea 683d b7cd 4e3d
00000280: 443d c73c 5a41 f63d 46be b63d 5a9c a33b
00000290: 870a 3abe 723e c93d 13d1 b7bd e98b 3abe
000002a0: 9e23 a1bd 1497 9f3d a2f6 4d3e f58e 253e
000002b0: 8445 26bd a157 d3bd d96d 393e 444b e33d
000002c0: 5bf8 2cbe fdf1 14bd 3df4 08be 8d63 8cbe
000002d0: b2d2 753c 7bc5 f4bc d5bc d43d 253c 013e
000002e0: 76ac 283e 6471 d7bd 060c 70bd 10de e3bc
000002f0: 33e0 3e3e 5e57 c4bd 87db cb3d aedd 16bd
00000300: 3515 39be b3a4 dc3d 2dd0 e1bc b7ee ffbd
00000310: 2b32 00bd 4d45 f53d facd 35bd bff2 713b
00000320: 17d5 023e 0161 173d 2e9a 52be e9b1 4a3e
00000330: 2d71 7ebd 6cb0 3d3d 7623 b1bd fdcc b03d
00000340: 0e4f 3f3e e335 b73d 67de 8bbd 5f2a 07bd
00000350: f153 403e c3d7 99bd ce51 02be 95b3 f8bc
00000360: 3ca4 063c a4c9 453e d666 0a3d 42f1 9f3d
00000370: 3a25 a4bc 6cd6 053d 38ca 623d 1331 e33d
00000380: eff5 c93d 9c7f fa3d 51a9 e53d 651b bb3c
00000390: 886a a7bc 15ee 93be 4388 5abc f13a 153d
000003a0: a6ab 09be 3f41 1e3e 89e5 e3bd db42 343e
000003b0: 0c79 b43c 1a38 a63d a804 cd3d edba 043e
000003c0: bd67 c0bd 5c7d 113d 71ea fe3c ac8c c13d
000003d0: c9e6 f2bd 3aca 043e cc11 02bc 7e97 0e3e
000003e0: 161c dcbd 3eac 8e3d 0fe7 8ebd c07c 2b3d
000003f0: 0575 29be 69be 91bd 483d 643d 61e9 423e

rnn.weight_hh_l0 f4 [32, 32]
0.14046563 0.029272614 0.04404273 -0.08307444 -0.137342 -0.2311023 -0.52446276 -0.045031562
0.22961877 0.12566192 -0.16352251 0.057229508 0.23434348 -0.20250086 -0.14836025 -0.23788448
0.239696 -0.27376214 0.10604548 0.1352444 -0.16429976 -0.32656026 0.25342587 -0.13957477
-0.19065292 0.11364208 -0.36426827 0.15503703 -0.08887108 -0.021417642 -0.12145655 -0.26503038
-0.20132253 -0.071663186 0.09843736 0.00657164 -0.11430347 -0.26836565 0.022067424 -0.10965031
0.14973085 0.12198035 -0.2628512 -0.16955428 0.15011652 0.009558331 -0.28216726 0.06702301
-0.1661439 0.07387758 0.10812059 0.26605552 0.15227062 0.1391521 -0.04216614 0.11565818
0.13224997 -0.17712659 0.028601306 0.3065403 -0.28298038 0.24497259 -0.33558896 0.1906665
0.18145046 0.19203517 0.13771445 -0.1728697 -0.036287695 -0.031856727 0.43516603 0.05138593
0.026287422 -0.1151504 0.43155873 -0.13631752 0.3235189 0.16731629 0.09880658 0.06696137
-0.007923799 0.022394119 0.050765265 -0.059597425 0.0036570414 -0.08853889 -0.04637127 -0.05580558
-0.03149965 -0.1281757 0.2517456 -0.07544669 0.09785016 0.07386543 0.20736572 0.3673688
-0.107770525 0.1517538 -0.015384583 -0.15274155 -0.27689275 -0.18326522 -0.1643684 0.055855766
-0.44269392 -0.12108659 0.246517 -0.17167099 0.13869828 -0.23146126 0.17981917 0.174301
0.048867736 -0.4128872 0.45320764 0.18507363 -0.0052274233 -0.17476155 0.0671548 -0.082533255
0.18744159 -0.10299132 -0.21451679 -0.16281068 -0.012739813 -0.093533054 -0.02274275 -0.11498489
-0.17710003 0.17084129 0.23477623 -0.16308734 0.004368728 -0.07111728 -0.07384176 0.142755
0.18356188 0.15495975 -0.07304899 -0.12533882 0.07356096 0.16041848 -0.20132068 -0.12724984
0.048653577 -0.0011960677 0.23336089 -0.061135788 -0.15786019 -0.026749529 0.17210473 0.024746254
0.0054845815 -0.0678104 -0.15218109 -0.06313567 -0.042171974 0.25049257 -0.0017152689 0.1703192
-0.030747456 -0.14107685 0.12823278 0.21863218 -0.095941566 0.27324757 -0.37071785 0.2911405
0.24699076 -0.06755686 -0.1750745 0.07905532 0.11591759 -0.19087026 0.1738347 0.06618682
-0.07621595 -0.19669315 -0.09906098 0.008063804 -0.038947955 -0.30849254 0.09985983 -0.22215465
-0.010368492 -0.053374775 -0.16670273 0.17971458 0.18763717 -0.011253089 -0.17294347 -0.21793696
-0.4158921 0.16022235 -0.14731441 -0.20588715 0.012201959 -0.2213293 -0.0068260804 0.18969855
-0.34314564 -0.12156474 -0.36980587 -0.22527067 0.057200268 0.4331697 0.03533244 0.078360185
-0.15280911 0.073709555 0.064888716 -0.027499203 -0.036461376 -0.39073044 -0.07684925 -0.032943923
-0.1642642 0.13561569 0.052620776 -0.17722124 -0.13719238 0.021305865 0.10191708 0.12691605
-0.20445925 -0.026432982 0.29922357 0.15420957 0.17400162 -0.014570653 0.02470979 0.054455254
-0.12349016 0.031079197 -0.3752791 -0.14580947 -0.3295862 0.48628005 -0.26461476 -0.050691243
0.23304927 0.03854142 0.003557962 0.012924074 -0.10487648 0.10024129 -0.13448773 0.26793587
-0.19020453 -0.08206348 0.028439196 0.07158905 0.054088578 0.01999329 -0.098662205 0.03394134
00000000: 39d6 0f3e 1fcd ef3c 2666 343d ef22 aabd
00000010: 62a3 0cbe 15a6 6cbe 3143 06bf 0473 38bd
00000020: 2f21 6b3e 85ad 003e 7272 27be 7d69 6a3d
00000030: bdf7 6f3e 635c 4fbe c0eb 17be fd97 73be
00000040: de72 753e 8d2a 8cbe 5f2e d93d 827d 0a3e
00000050: 323e 28be e832 a7be 09c1 813e b0ec 0ebe
00000060: 853a 43be 2ebd e83d 5f81 babe 07c2 1e3e
00000070: 0a02 b6bd 0d74 afbc 36be f8bd 10b2 87be
00000080: 7e27 4ebe 26c4 92bd 8799 c93d e956 d73b
00000090: f017 eabd 3967 89be bec6 b43c 5790 e0bd
000000a0: 0b53 193e d5d0 f93d 6f94 86be a39f 2dbe
000000b0: 25b8 193e 8c9a 1c3c 3a78 90be 5c43 893d
000000c0: a021 2abe 214d 973d 546e dd3d 6e38 883e
000000d0: d4ec 1b3e e37d 0e3e 67b6 2cbd 32de ec3d
000000e0: 896c 073e ac60 35be 494d ea3c daf2 9c3e
000000f0: cee2 90be 18da 7a3e 51d2 abbe 143e 433e
00000100: 26ce 393e dea4 443e 0405 0d3e c104 31be
00000110: 68a2 14bd 337c 02bd 15ce de3e 0e7a 523d
00000120: b858 d73c f9d3 ebbd 44f5 dc3e d296 0bbe
00000130: 45a4 a53e f654 2b3e 1b5b ca3d 0b23 893d
00000140: d2d2 01bc df73 b73c 3def 4f3d 6e1c 74bd
00000150: f9aa 6f3b e153 b5bd cdef 3dbd 6494 64bd
00000160: c705 01bd 7e40 03be cde4 803e cb83 9abd
00000170: aa65 c83d c246 973d ae57 543e c317 bc3e
00000180: cbb6 dcbd 5965 1b3e 9e0f 7cbc 4868 1cbe
00000190: e3c4 8dbe e1a9 3bbe 3150 28be 04c9 643d
000001a0: c7a8 e2be 3ffc f7bd f46e 7c3e 85ca 2fbe
000001b0: ec06 0e3e 2e04 6dbe 8422 383e f67b 323e
000001c0: 8929 483d f365 d3be d50a e83e f183 3d3e
000001d0: ce4a abbb b1f4 32be 7588 893d 3207 a9bd
000001e0: b0f0 3f3e 1ded d2bd 4aaa 5bbe d8b7 26be
000001f0: a6ba 50bc 428e bfbd 014f babc 337d ebbd
00000200: b659 35be 05f1 2e3e 2e69 703e 5e00 27be
00000210: 8c27 8f3b f0a5 91bd 593a 97bd 5e2e 123e
00000220: a5f7 3b3e c5ad 1e3e b59a 95bd d258 00be
00000230: 21a7 963d be44 243e 0227 4ebe c84d 02be
00000240: f948 473d 5fc5 9cba 28f6 6e3e 8569 7abd
00000250: 1aa6 21be d421 dbbc 393c 303e a8b8 ca3c
00000260: 01b8 b33b 2ee0 8abd 5cd5 1bbe 464d 81bd
00000270: 85bc 2cbd 9040 803e e0d2 e0ba 2868 2e3e
00000280: 17e2 fbbc 7376 10be 744f 033e 1de1 5f3e
00000290: 037d c4bd 1be7 8b3e bbce bdbe 5e10 953e
000002a0: 25eb 7c3e 405b 8abd bb46 33be c1e7 a13d
000002b0: 3466 ed3d 7e73 43be b901 323e f58c 873d
000002c0: 1c17 9cbd ee69 49be 7ce0 cabd 0c1e 043c
000002d0: e487 1fbd bcf2 9dbe 5083 cc3d 827c 63be
000002e0: 9ce0 29bc 829f 5abd 1fb4 2abe 1907 383e
000002f0: f523 403e e05e 38bc 1818 31be de2a 5fbe
00000300: cfef d4be 5411 243e 97d9 16be 15d4 52be
00000310: baea 473c 26a4 62be 50ad dfbb 5640 423e
00000320: c9b0 afbe eff6 f8bd 3257 bdbe 5bad 66be
00000330: d44a 6a3d 6bc8 dd3e c0b8 103d 4e7b a03d
00000340: fe79 1cbe 09f5 963d 60e4 843d 0246 e1bc
00000350: 8658 15bd d20d c8be 2463 9dbd 35f0 06bd
00000360: e034 28be d7de 0a3e e288 573d 7c79 35be
00000370: 297c 0cbe a389 ae3c e7b9 d03d 48f6 013e
00000380: c45d 51be fb89 d8bc d533 993e 1de9 1d3e
00000390: 7b2d 323e c0b9 6ebc 2f6c ca3c 790c 5f3d
000003a0: 69e8 fcbd cd99 fe3c 9524 c0be 144f 15be
000003b0: 86bf a8be b3f9 f83e 967b 87be 9fa1 4fbd
000003c0: 78a4 6e3e 9cdd 1d3d b22c 693b 7fbf 533c
000003d0: 7bc9 d6bd 4e4b cd3d 27b7 09be e42e 893e
000003e0: fac4 42be e610 a8bd 51f9 e83c 489d 923d
000003f0: fc8b 5d3d f8c8 a33c 690f cabd 1306 0b3d

rnn.bias_ih_l0 f4 [32]
0.038448434 0.09432071 0.16693124 0.082931444 0.1009707 -0.099492885 0.059696835 0.012687043
0.16332306 0.12953152 -0.12987329 -0.1900775 0.07451054 -0.1443724 -0.07232148 -0.13048902
-0.017385546 -0.008140044 0.072881795 0.009409316 0.034408323 -0.098248854 0.20899004 0.048879173
-0.080170296 -0.17343628 -0.0025406077 0.12663804 -0.11694941 -0.10645181 -0.16255099 0.050242823
00000000: 1b7c 1d3d 372b c13d 06f0 2a3e f6d7 a93d
00000010: bac9 ce3d edc2 cbbd ab84 743d 51dd 4f3c
00000020: 293e 273e e9a3 043e 81fd 04be ada3 42be
00000030: fb98 983d 5cd6 13be 491d 94bd ea9e 05be
00000040: 226c 8ebc d25d 05bc 0d43 953d 8829 1a3c
00000050: beef 0c3d b236 c9bd 7c01 563e 8735 483d
00000060: 5330 a4bd 4899 31be 5380 26bb 67ad 013e
00000070: 2c83 efbd 6803 dabd c473 26be 6bcb 4d3d

rnn.bias_hh_l0 f4 [32]
-0.06930104 0.098979495 0.14685556 0.21730109 0.049872153 -0.030820848 0.10094194 0.05257682
-0.054967757 -0.10624385 0.1446253 -0.099146344 -0.04796067 -0.0133467 -0.11449381 0.07193944
-0.014737646 0.04589222 0.16117723 0.09421122 -0.08756143 0.056736376 0.009651409 -0.19732843
-0.025236718 -0.07732433 0.014353729 0.22308534 -0.023052597 0.18511969 -0.2577365 0.053891156
00000000: b4ed 8dbd c3b5 ca3d 4e61 163e 2d84 5e3e
00000010: be46 4c3d 017c fcbc a6ba ce3d cb5a 573d
00000020: df25 61bd 6096 d9bd a818 143e 3d0d cbbd
00000030: 6872 44bd 1eac 5abc bb7b eabd fc54 933d
00000040: 2b76 71bc 7bf9 3b3d a50b 253e d0f1 c03d
00000050: 6853 b3bd 6764 683d f220 1e3c 7710 4abe
00000060: 3cbd cebc 385c 9ebd e72b 6b3c 7c70 643e
00000070: cdd8 bcbc 0490 3d3e 0af6 83be f9bc 5c3d

rnn.weight_ih_l0_reverse f4 [32, 128]
0.17239319 0.06603478 -0.09352832 0.03468895 0.10267974 0.07626244 0.19492993 -0.096749395
0.065605395 0.06884204 -0.08944354 -0.035342954 0.10970858 0.18588957 0.052261386 -0.029368818
-0.017466683 -0.021958973 0.15905088 0.1536394 0.11727021 -0.20562737 -0.012345786 0.062784865
-0.020077944 0.16042753 0.12523648 0.08798004 -0.042684827 -0.0066328975 0.0076208804 0.12897493
-0.10370382 -0.22356948 -0.05155067 0.2225518 -0.014436508 -0.07567664 -0.12810363 -0.07167885
0.1000859 0.17263469 0.06645183 -0.056550797 -0.014183164 0.23704438 0.092542 -0.15465015
0.21047232 -0.084098525 -0.02098293 -0.022180054 0.20369765 -0.10787458 -0.08037659 0.07635249
0.15731572 0.07120746 -0.22150742 -0.067927144 0.06234762 -0.105312265 0.066898346 0.069679014
0.07187864 0.0059388424 -0.08722888 -0.0597651 -0.05246946 -0.027526146 -0.13026059 -0.019163452
-0.090686105 0.07608061 -0.10701965 0.10216169 0.15736474 0.11801519 -0.07467821 0.047940727
0.0051852916 -0.028954182 -0.12771535 -0.04576496 -0.08710124 0.11256714 0.10258734 -0.21700154
-0.011566928 -0.1339564 -0.10570908 -0.04591404 -0.020038784 0.033444583 -0.1000451 0.1478875
0.11812851 0.005739161 0.094449915 -0.032615323 -0.07636913 0.20626661 -0.14834574 -0.01767162
-0.13819803 0.1759384 0.030973762 -0.045871813 0.19304483 0.036297895 0.04530972 -0.19119623
0.10003316 -0.13106573 0.034503173 0.0074343854 -0.030754076 -0.10494383 0.11394155 0.023973912
-0.023637608 0.011131259 -0.16421667 0.028733358 -0.03154722 -0.014325993 -0.10527329 -0.057183303
-0.029945023 0.114515685 0.14536254 0.16673502 0.14400566 0.13807437 -0.14262965 -0.0077949795
-0.0961672 -0.036966357 -0.062183347 0.13554937 -0.070795216 -0.13178737 -0.020753916 0.010181498
0.1922122 -0.05154165 -0.005356945 0.17067315 0.040862158 0.113130435 0.010946749 0.070998535
-0.03192984 -0.016023379 0.09361277 0.299467 0.071068674 -0.13416134 -0.004072877 0.04767801
-0.0291528 -0.06893693 -0.006076346 0.021981694 -0.03036775 -0.13250998 -0.08198638 0.1335552
-0.14095731 -0.09507804 -0.07678771 0.07442965 -0.074233785 0.09445055 0.15052927 -0.0512554
-0.1387428 -0.051252276 -0.19390069 -0.09067721 0.009787781 -0.10650759 -0.050179243 -0.02126743
0.11463515 0.10230036 0.030391486 0.13270003 -0.11106895 0.11303212 -0.11040387 0.11866095
-0.043524597 0.116861105 -0.016523918 0.14565848 -0.1282026 -0.09033937 0.16753043 -0.061547004
0.014217583 -0.034877893 -0.054186378 -0.16062702 -0.013170348 0.109498315 -0.045302153 -0.066035494
0.07161271 -0.0049545947 -0.086275615 0.10397182 0.14887302 0.0801683 -0.1408746 -0.053516608
-0.014998316 0.03947688 0.084935226 0.073728174 -0.17725463 -0.07737921 -0.13766722 0.0767271
0.036769584 0.1458495 -0.24575752 0.17755014 -0.13988788 0.08930577 0.08089905 0.070692524
-0.037230037 0.13137522 0.08036993 0.03215726 0.13949376 0.18389972 -0.1375396 0.04493716
-0.037025657 0.120305836 0.094786376 -0.16260895 -0.09292282 -0.19696519 -0.028788649 0.22217737
0.18324248 -0.2514548 -0.14023128 0.07356722 -0.084640235 0.10886587 -0.02737094 0.262128
00000000: d787 303e 3e3d 873d c78b bfbd 0016 0e3d
00000010: c149 d23d 7b2f 9c3d b69b 473e 8c24 c6bd
00000020: 1f5c 863d 0efd 8c3d 2d2e b7bd c6c3 10bd
00000030: e4ae e03d d659 3e3e 0910 563d e096 f0bc
00000040: 4a16 8fbc 4ee3 b3bc 3cde 223e a653 1d3e
00000050: 5d2b f03d fb8f 52be fb45 4abc 5a95 803d
00000060: 807a a4bc 1d47 243e fe3d 003e e12e b43d
00000070: 49d6 2ebd c758 d9bb 94b8 f93b 0112 043e
00000080: ab62 d4bd 66ef 64be cc26 53bd 9ee4 633e
00000090: 1a87 6cbc 5bfc 9abd 992d 03be 5ccc 92bd
000000a0: d6f9 cc3d 26c7 303e e617 883d cfa1 67bd
000000b0: 8060 68bc c3bb 723e a986 bd3d 9c5c 1ebe
000000c0: 0e86 573e d93b acbd 65e4 abbc f2b2 b5bc
000000d0: 1e96 503e 59ed dcbd 7b9c a4bd b25e 9c3d
000000e0: 5f17 213e 37d5 913d d7d2 62be 631d 8bbd
000000f0: 3860 7f3d f5ad d7bd 0002 893d dfb3 8e3d
00000100: 1c35 933d 9f9a c23b 0ea5 b2bd 40cc 74bd
00000110: 37ea 56bd 837e e1bc 0863 05be acfc 9cbc
00000120: a3b9 b9bd 27d0 9b3d 1e2d dbbd 263a d13d
00000130: 3924 213e f3b1 f13d e4f0 98bd 7f5d 443d
00000140: 61e9 a93b 5231 edbc d0c7 02be 0a74 3bbd
00000150: 2362 b2bd 9a89 e63d 5019 d23d a735 5ebe
00000160: 3683 3dbc de2b 09be 017e d8bd 5c10 3cbd
00000170: 6028 a4bc 30fd 083d 72e4 ccbd d26f 173e
00000180: 5ced f13d 920f bc3b f56e c13d a597 05bd
00000190: 6b67 9cbd 8e37 533e f2e7 17be 13c4 90bc
000001a0: c983 0dbe 3229 343e b0bc fd3c 15e4 3bbd
000001b0: 8bad 453e 1aad 143d af96 393d f2c8 43be
000001c0: 2fde cc3d 1836 06be 3353 0d3d 259c f33b
000001d0: f9ef fbbc caec d6bd 305a e93d f064 c43c
000001e0: a8a3 c1bc e25f 363c 6a28 28be 3862 eb3c
000001f0: a837 01bd 92b7 6abc 8699 d7bd 0a39 6abd
00000200: 444f f5bc 3387 ea3d ebd9 143e 96bc 2a3e
00000210: 3876 133e 5e63 0d3e 820d 12be 076d ffbb
00000220: 4ff3 c4bd 096a 17bd f7b3 7ebd 74cd 0a3e
00000230: 15fd 90bd 45f3 06be 1e04 aabc 4cd0 263c
00000240: 46d3 443e 561d 53bd 5089 afbb f1c4 2e3e
00000250: 145f 273d eeb0 e73d fe59 333c ae67 913d
00000260: ddc8 02bd 7643 83bc 0db8 bf3d bd53 993e
00000270: 748c 913d 9761 09be c575 85bb 044a 433d
00000280: dad1 eebc ce2e 8dbd 161c c7bb f412 b43c
00000290: cac5 f8bc b2b0 07be 7ae8 a7bd b2c2 083e
000002a0: 1d57 10be 47b8 c2bd e042 9dbd 936e 983d
000002b0: e207 98bd 4a6f c13d 5824 1a3e 2ff1 51bd
000002c0: 9812 0ebe e8ed 51bd e78d 46be f9b4 b9bd
000002d0: ee5c 203c a720 dabd c088 4dbd 0939 aebc
000002e0: d5c5 ea3d da82 d13d 91f7 f83c 84e2 073e
000002f0: 1e78 e3bd 627d e73d 6d1b e2bd 8304 f33d
00000300: d946 32bd e054 ef3d 2b5d 87bc 7f27 153e
00000310: 8b47 03be d903 b9bd 198d 2b3e b618 7cbd
00000320: def0 683c 1fdc 0ebd 89f2 5dbd 697b 24be
00000330: 71c8 57bc a740 e03d c08e 39bd 9e3d 87bd
00000340: afa9 923d 275a a2bb 45b1 b0bd 2def d43d
00000350: 2b72 183e 472f a43d 6e41 10be 3b34 5bbd
00000360: 7fbb 75bc 82b2 213d 85f2 ad3d ccfe 963d
00000370: 3d82 35be fe78 9ebd a3f8 0cbe 1923 9d3d
00000380: b49b 163d 9259 153e dca7 7bbe b4cf 353e
00000390: c53e 0fbe f2e5 b63d 67ae a53d 3ec7 903d
000003a0: 867e 18bd 3a87 063e fd98 a43d 55b7 033d
000003b0: 74d7 0e3e 3550 3c3e 2ed7 0cbe 0710 383d
000003c0: 37a8 17bd e862 f63d 5c1f c23d f682 26be
000003d0: 524e bebd 3eb1 49be 2cd6 ebbc 7782 633e
000003e0: eba3 3b3e afbe 80be ca98 0fbe 69aa 963d
000003f0: dc57 adbd 12f5 de3d 0639 e0bc a435 863e

rnn.weight_hh_l0_reverse f4 [32, 32]
0.20767844 0.30887708 0.034595177 0.10123894 -0.021256536 0.09084123 -0.05201309 0.29157346
0.124032475 -0.16409005 -0.007214143 0.012596182 0.009109272 0.045538798 0.21866311 0.25678432
-0.033168845 0.011993942 -0.06979624 0.15204002 0.074673325 -0.35063478 -0.13273862 0.06629794
0.14630298 -0.16004385 -0.06320336 0.004247011 -0.059645586 0.36283818 -0.2091305 0.23549023
-0.1662182 -0.14490719 -0.10057636 0.15205038 0.1421284 0.08883681 0.20761225 -0.12702724
0.090242326 0.034819927 -0.2846971 0.07199949 -0.157655 -0.11532469 -0.2966557 0.20424087
0.28452134 0.049900524 -0.20176637 -0.35075054 -0.068813056 0.10635165 -0.11873188 0.10824494
0.050071333 0.021230714 0.27872804 -0.14487907 -0.14270908 -0.3125833 -0.17045683 -0.22308683
0.38156345 -0.22561675 0.3209091 -0.19701417 -0.14112231 -0.047255192 -0.2192747 0.014582406
0.07151639 0.03499994 0.22764704 0.067969665 0.0807343 0.09416812 0.19661467 0.108350515
0.07790649 -0.09602629 0.23354904 0.043001533 0.06772513 0.14060901 -0.087230444 -0.1719046
-0.06564559 0.1526325 -0.27526888 0.007928105 0.2456049 0.13560377 -0.056092333 0.14742787
-0.21641544 -0.08738597 0.11096158 -0.17505762 0.13621564 -0.1102977 0.07447466 -0.1432567
-0.19420423 -0.20892762 0.19673806 0.10549056 -0.15487385 -0.25504667 0.15724659 0.027414208
0.14461505 -0.04651594 0.2147465 -0.5226879 -0.0291263 0.020480853 0.17754018 0.019429516
0.14128165 0.11633242 0.025120424 -0.061761696 -0.1003074 -0.10155632 0.12501857 0.01623355
0.21870086 0.0044726185 -0.049094256 0.23864378 -0.014676663 -0.049222115 -0.15597296 -0.11311214
-0.21177775 -0.04746381 0.06508483 0.18179147 0.20352916 -0.0065868306 0.1498227 -0.033647418
-0.24622786 -0.18097521 0.15744168 0.3545239 0.08245828 0.28809685 -0.37876156 0.13442865
-0.15551008 0.17254443 -0.043656524 -0.108010456 0.29672602 0.07127686 0.15222122 -0.04312689
0.22640856 0.2928969 -0.11300881 -0.20163292 0.17877063 0.016005768 0.0037792532 -0.06483832
0.20721002 -0.10457528 -0.21386209 0.07292378 0.27480495 0.117649816 0.08320293 -0.16158463
0.0969278 0.25935152 0.26801035 -0.17908265 0.007345561 -0.025450917 -0.08981818 0.27193996
0.13982205 -0.080639936 -0.37223482 -0.1608152 0.06398627 -0.33396003 0.010177195 0.09810877
-0.0739201 -0.23195122 -0.041394573 0.2144395 -0.09131784 -0.24069734 -0.20414501 -0.077055514
0.099717446 0.031114677 0.23842742 0.043975323 -0.499549 -0.30529657 0.17982282 0.12440505
0.31506622 -0.21148284 -0.07436389 -0.12151422 -0.061687246 0.088956535 0.11621439 -0.108197995
-0.019098008 0.23947687 0.19883575 0.001174024 -0.34425023 -0.034734704 0.10780147 -0.22657624
-0.3153436 0.1380553 -0.22909974 0.20864777 0.097707756 0.12863484 0.19465308 0.017008858
0.2286435 -0.12426388 -0.24213287 -0.15336315 -0.2866866 -0.18687186 0.032745205 -0.09457465
0.101452515 0.14118603 -0.13739663 -0.26829112 -0.003857287 -0.10401265 0.1162189 0.067749076
0.14606069 -0.15686144 0.19326194 -0.082891375 -0.19030537 0.0026725354 0.014596081 -0.049943663
00000000: a8a9 543e 2325 9e3e acb3 0d3d 5d56 cf3d
00000010: 3022 aebc f70a ba3d ae0b 55bd 1e49 953e
00000020: bd04 fe3d 3907 28be 9e64 ecbb 3760 4e3c
00000030: 0e3f 153c e486 3a3d 39e9 5f3e 3c79 833e
00000040: 0edc 07bd 3d82 443c 55f1 8ebd 61b0 1b3e
00000050: 54ee 983d 6786 b3be a2ec 07be 37c7 873d
00000060: 73d0 153e 89e2 23be c370 81bd 832a 8b3b
00000070: ee4e 74bd edc5 b93e 4e26 56be 5a24 713e
00000080: 1b35 2abe 8d62 14be fbfa cdbd 18b3 1b3e
00000090: 1b8a 113e 13f0 b53d 4e98 543e 6e13 02be
000000a0: f8d0 b83d 579f 0e3d d1c3 91be 7874 933d
000000b0: 5070 21be 5a2f ecbd 42e3 97be 8524 513e
000000c0: c8ac 913e 7e64 4c3d d89b 4ebe 9395 b3be
000000d0: dced 8cbd e5ce d93d b329 f3bd 86af dd3d
000000e0: 9917 4d3d 09ec ad3c 71b5 8e3e 2e5b 14be
000000f0: 5422 12be eb0a a0be 3c8c 2ebe e070 64be
00000100: 495c c33e 1408 67be 334e a43e 15be 49be
00000110: 5e82 10be a98e 41bd 8c89 60be 0beb 6e3c
00000120: 2f77 923d 195c 0f3d 4e1c 693e ae33 8b3d
00000130: 0658 a53d 37db c03d 5b55 493e e0e6 dd3d
00000140: 708d 9f3d 6ea9 c4bd 7b27 6f3e 6022 303d
00000150: 79b3 8a3d cffb 0f3e e0a5 b2bd c207 30be
00000160: 3271 86bd b24b 1c3e 0bf0 8cbe e2e4 013c
00000170: da7f 7b3e b7db 0a3e 13c1 65bd 55f7 163e
00000180: 029c 5dbe 6af7 b2bd d33f e33d 4e42 33be
00000190: 1d7c 0b3e c3e3 e1bd 2c86 983d e2b1 12be
000001a0: 79dd 46be 1ff1 55be b475 493e 6f0b d83d
000001b0: 4097 1ebe 7a95 82be 4005 213e c393 e03c
000001c0: f815 143e 8087 3ebd 82e6 5b3e e0ce 05bf
000001d0: 479a eebc 76c7 a73c 18cd 353e a62a 9f3c
000001e0: 23ac 103e b13f ee3d 59c9 cd3c d5f9 7cbd
000001f0: f76d cdbd c3fc cfbd de04 003e 39fc 843c
00000200: 1ef3 5f3e 0b8f 923b 0f17 49bd 095f 743e
00000210: 6376 70bc 219d 49bd 60b7 1fbe 56a7 e7bd
00000220: 44dc 58be 6969 42bd 324b 853d 8b27 3a3e
00000230: f369 503e 57d6 d7bb 1f6b 193e e0d1 09bd
00000240: 2823 7cbe 9151 39be 6438 213e 2884 b53e
00000250: e3df a83d 6e81 933e 09ed c1be aaa7 093e
00000260: 093e 1fbe 7daf 303e 2fd1 32bd 9634 ddbd
00000270: 79ec 973e 9af9 913d e1df 1b3e d2a5 30bd
00000280: a5d7 673e 95f6 953e 2a71 e7bd dc78 4ebe
00000290: a60f 373e 871e 833c 59ad 773b f4c9 84bd
000002a0: dd2e 543e 902b d6bd aafe 5abe 1059 953d
000002b0: 3cb3 8c3e 63f2 f03d 4c66 aa3d 7176 25be
000002c0: 1582 c63d b9c9 843e a738 893e 7161 37be
000002d0: 08b3 f03b 717e d0bc 98f2 b7bd b73b 8b3e
000002e0: 832d 0f3e 8d26 a5bd 9095 bebe bdac 24be
000002f0: 3c0b 833d cffc aabe 40be 263c 40ed c83d
00000300: 6c63 97bd 9f84 6dbe 5b8d 29bd 0796 5b3e
00000310: d904 bbbd 5d79 76be 640b 51be 48cf 9dbd
00000320: a938 cc3d 35e4 fe3c 5126 743e 781f 343d
00000330: e3c4 ffbe d54f 9cbe 7923 383e 13c8 fe3d
00000340: 5c50 a13e f58e 58be 184c 98bd 73dc f8bd
00000350: c4ab 7cbd d82e b63d cf01 ee3d e996 ddbd
00000360: 6d73 9cbc 6d39 753e 999b 4b3e b5e1 993a
00000370: 9141 b0be fa45 0ebd 04c7 dc3d 9a03 68be
00000380: b774 a1be 5e5e 0d3e 1f99 6abe c3a7 553e
00000390: 011b c83d dab8 033e 2353 473e 2956 8b3c
000003a0: 8621 6a3e 107e febd aef1 77be 3b0b 1dbe
000003b0: 96c8 92be 565b 3fbe d61f 063d 5bb0 c1bd
000003c0: 56c6 cf3d 1293 103e b4b1 0cbe 745d 89be
000003d0: 8aca 7cbb 9604 d5bd 2d04 ee3d 07c0 8a3d
000003e0: ef90 153e 49a0 20be 75e6 453e f4c2 a9bd
000003f0: 69df 42be b425 2f3b 6724 6f3c ba91 4cbd

rnn.bias_ih_l0_reverse f4 [32]
0.03332238 0.10461871 -0.045474615 -0.14748724 0.033433925 -0.1540657 -0.22511873 -0.106021926
-0.21585219 -0.20281017 -0.18688518 0.10507428 0.027863652 -0.110328875 0.030639896 0.03769825
0.13349523 -0.03933583 -0.04925555 -0.11854929 0.12816437 0.07887374 0.106928565 0.050489422
-0.010670338 -0.0532234 0.038449 -0.081294715 -0.14346796 0.15160032 -0.046735886 0.14738117
00000000: 0c7d 083d 5642 d63d 9743 3abd e506 17be
00000010: 03f2 083d 66c3 1dbe 8685 66be 0622 d9bd
00000020: 5b08 5dbe 78ad 4fbe d45e 3fbe 2f31 d73d
00000030: 5042 e43c 1bf4 e1bd 8500 fb3c 7b69 1a3d
00000040: f9b2 083e 9b1e 21bd 30c0 49bd f8c9 f2bd
00000050: 853d 033e 8e88 a13d 5dfd da3d ffcd 4e3d
00000060: a4d2 2ebc c800 5abd b37c 1d3d d87d a6bd
00000070: 44e9 12be 1d3d 1b3e 216e 3fbd 17eb 163e

rnn.bias_hh_l0_reverse f4 [32]
0.15986523 0.011736133 0.08103775 0.08992998 -0.09035501 0.119394585 -0.061721087 0.05166489
-0.03466223 -0.12075097 -0.16053876 -0.009972694 -0.043772537 0.13144551 -0.06508617 0.12466218
0.25258738 0.0614216 0.16698457 -0.121589825 -0.15726757 0.05255521 -0.22193144 0.03884447
0.03832128 0.053424485 -0.11921592 -0.03744558 0.17654307 0.1760077 0.14808135 0.06508153
00000000: b6b3 233e e948 403c 1ff7 a53d 362d b83d
00000010: 0c0c b9bd 2685 f43d 40cf 7cbd 909e 533d
00000020: fcf9 0dbd 494c f7bd 4664 24be 8364 23bc
00000030: d54a 33bd a799 063e e64b 85bd e34e ff3d
00000040: 2253 813e 3795 7b3d 01fe 2a3e 1604 f9bd
00000050: c00a 21be 2244 573d ff41 63be 611b 1f3d
00000060: c6f6 1c3d a2d3 5a3d 7a27 f4bd 8960 19bd
00000070: b5c7 343e 5d3b 343e a3a2 173e 7749 853d

fc1.weight f4 [12, 64]
-0.44715112 -0.04532388 0.4364759 0.37009442 0.21452013 -0.21667513 0.26626804 -0.25921082
-0.21331124 0.2690079 -0.11571077 0.21715924 0.16281517 -0.25475907 -0.22057252 -0.2336301
0.16474253 0.25241077 0.21575145 0.22195002 0.29446906 -0.26495692 0.15891401 0.25694785
0.2147338 -0.20955202 -0.11319234 0.32103714 -0.3312518 0.4044729 -0.3336827 0.035575345
0.20733489 -0.44305408 0.27725643 -0.23657896 0.2567999 -0.24703775 -0.23509048 -0.32410058
-0.33461857 -0.23205853 0.13657637 0.3248402 -0.030687869 0.13530686 0.19887376 -0.24041685
0.28758067 -0.3766646 0.13160637 0.111072175 -0.42890358 -0.09865337 -0.21560974 -0.15697825
-0.34735152 0.20789182 -0.13818769 0.30510625 0.12915584 0.17315203 0.2709086 -0.1738544
0.3319346 -0.040481187 -0.045334656 -0.11616886 0.115074724 0.2019783 -0.44421917 0.38904592
-0.0997153 -0.5598333 0.3407991 -0.42237678 -0.43328685 -0.37153238 0.035619672 -0.014562475
-0.2526907 0.12149746 0.20016038 0.07239349 -0.30274206 0.16490018 -0.53195864 -0.20727473
0.4057665 -0.31693974 -0.3732135 0.32112244 0.27174172 0.0580589 -0.31490418 0.13659607
-0.4120837 -0.0021024048 0.21365704 0.4789533 -0.1670773 -0.58115226 0.32715702 0.026002716
-0.068266444 0.28246552 -0.5218768 -0.1415409 -0.6617359 0.4284551 0.4554731 0.50360304
-0.4869854 0.039996836 -0.1795254 0.35340515 0.23612523 0.2592396 -0.3365029 0.66238457
0.4387897 -0.6164665 -0.12416818 -0.64271647 -0.522589 0.04864323 0.081378244 -0.07023493
0.45731968 -0.50886315 -0.23089907 0.047897525 -0.50133526 0.0048690024 -0.5966589 -0.021948822
0.7904868 -0.1018625 -0.5940113 -0.69836617 -0.11867825 0.33172438 -0.0727525 0.1874931
0.41974023 -0.21399105 -0.5883253 -0.0847036 -0.5709215 0.38919407 0.13523021 0.01058646
0.00251971 0.30241036 -0.10345155 0.056038156 -0.390569 -0.6660638 0.49199116 -0.19943129
-0.13414931 0.42390123 0.0042653247 0.27351117 -0.24023296 0.61387765 0.09378471 0.12585512
0.09251857 -0.36167783 -0.48145398 -0.0022460415 0.107691616 -0.1620209 -0.24568734 0.4721972
0.3779 0.26681873 -0.49420258 0.2501051 -0.33916298 0.5612917 0.0139530655 -0.30409184
-0.6363341 -0.7764998 0.34175736 -0.46377215 -0.7214577 -0.43775013 0.12485629 0.61291265
-0.4441037 -0.33403924 -0.5676133 0.4236672 -0.74469316 0.15163133 0.37217563 -0.5043618
-0.21063314 -0.33285934 -0.4578587 -0.46957093 -0.6236234 -0.14671402 0.6569034 0.4685686
-0.4082368 -0.31774363 0.11514226 0.24822354 0.37298915 0.27592582 0.17502187 -0.7029534
-0.34216276 0.49934253 0.5413421 0.19557966 -0.12116831 -0.40682933 -0.013713958 -0.25624424
0.5850652 0.18623549 0.0546369 0.17896256 -0.37844625 -0.14966248 -0.09725574 -0.09575237
-0.1387214 -0.3243766 -0.45572343 -0.34365663 -0.37325925 -0.19559292 -0.14298816 0.30389422
0.41062045 0.12084433 0.28537166 0.21766587 0.3851026 0.7546584 -0.21461515 0.16298956
-0.2007256 -0.3770979 0.45314354 -0.66316605 0.14630535 0.37620008 -0.49983653 0.65814054
00000000: fef0 e4be 88a5 39bd c579 df3e 047d bd3e
00000010: 2aab 5b3e 16e0 5dbe 4954 883e 48b7 84be
00000020: 436e 5abe 67bb 893e c5f9 ecbd fe5e 5e3e
00000030: 05b9 263e c86f 82be c3dd 61be bb3c 6fbe
00000040: 44b2 283e fc3b 813e f3ed 5c3e de46 633e
00000050: a6c4 963e 6fa8 87be 5bba 223e ab8e 833e
00000060: 2de3 5b3e ce94 56be 63d1 e7bd fb5e a43e
00000070: d699 a9be 1217 cf3e 75d8 aabe 74b7 113d
00000080: 994f 543e fcd7 e2be 8ef4 8d3e c141 72be
00000090: 477b 833e 77f7 7cbe 8fbb 70be 83f0 a5be
000000a0: 2053 abbe c0a0 6dbe adda 0b3e 7451 a63e
000000b0: 2065 fbbc e28d 0a3e 90a5 4b3e d62f 76be
000000c0: c63d 933e 2fda c0be d2c3 063e cf79 e33d
000000d0: 4099 dbbe c70a cabd cdc8 5cbe e8be 20be
000000e0: 0fd8 b1be 98e1 543e 1381 0dbe e336 9c3e
000000f0: 6e41 043e c44e 313e 88b4 8a3e e306 32be
00000100: 55f3 a93e 9acf 25bd d5b0 39bd f0e9 edbd
00000110: 4cac eb3d 66d3 4e3e b270 e3be 0731 c73e
00000120: 8937 ccbd 3c51 0fbf 387d ae3e c541 d8be
00000130: c6d7 ddbe 7e39 bebe efe5 113d 7297 6ebc
00000140: ad60 81be a9d3 f83d d8f6 4c3e 0a43 943d
00000150: 0201 9bbe 98db 283e 712e 08bf d43f 54be
00000160: a0c0 cf3e ed45 a2be d715 bfbe 296a a43e
00000170: bb21 8b3e 2bcf 6d3d 1f3b a1be d7df 0b3e
00000180: a2fc d2be 80c8 09bb e9c8 5a3e 5e39 f53e
00000190: 5016 2bbe 65c6 14bf 2081 a73e a603 d53c
000001a0: 47cf 8bbd 529f 903e b899 05bf 19f0 10be
000001b0: 8667 29bf 785e db3e c533 e93e 21ec 003f
000001c0: 2656 f9be b9d3 233d 82d5 37be 85f1 b43e
000001d0: d0ca 713e 0ebb 843e 1c4a acbe 0992 293f
000001e0: 0ba9 e03e c0d0 1dbf e34b febd 1189 24bf
000001f0: 65c8 05bf 203e 473d a3a9 a63d 55d7 8fbd
00000200: ce25 ea3e db44 02bf ce70 6cbe 3230 443d
00000210: 8257 00bf 278c 9f3b a3be 18bf 04ce b3bc
00000220: 585d 4a3f 499d d0bd 2011 18bf 20c8 32bf
00000230: 950d f3bd c7d7 a93e 43ff 94bd 31fe 3f3e
00000240: 31e8 d63e 7820 5bbe 7d9c 16bf 1579 adbd
00000250: e927 12bf 7244 c73e ca79 0a3e d572 2d3c
00000260: b821 253b 88d5 9a3e 68de d3bd 4488 653d
00000270: a9f8 c7be 2883 2abf 44e6 fb3e b737 4cbe
00000280: 705e 09be 9509 d93e 23c4 8b3b a809 8c3e
00000290: a1ff 75be 1627 1d3f 3312 c03d 2ae0 003e
000002a0: 607a bd3d d62d b9be 2381 f6be 5332 13bb
000002b0: 6c8d dc3d cfe8 25be 7695 7bbe d5c3 f13e
000002c0: 1c7c c13e 779c 883e 1f08 fdbe c70d 803e
000002d0: c5a6 adbe d0b0 0f3f 669b 643c edb1 9bbe
000002e0: cbe6 22bf b1c8 46bf d2fa ae3e 8b73 edbe
000002f0: 74b1 38bf c920 e0be a8b4 ff3d d8e7 1c3f
00000300: 8f61 e3be 3107 abbe 1b4f 11bf e8ea d83e
00000310: 36a4 3ebf 3e45 1b3e ce8d be3e db1d 01bf
00000320: 37b0 57be 8a6c aabe 756c eabe 9a6b f0be
00000330: c8a5 1fbf 333c 16be d22a 283f 39e8 ef3e
00000340: 6a04 d1be 4baf a2be b5cf eb3d 502e 7e3e
00000350: 6ff8 be3e 2646 8d3e ef38 333e c1f4 33bf
00000360: f52f afbe d3a9 ff3e 6595 0a3f 0946 483e
00000370: 1727 f8bd ef4b d0be 82b0 60bc 7232 83be
00000380: d5c6 153f 84b4 3e3e f1ca 5f3d f641 373e
00000390: b5c3 c1be 1f41 19be 042e c7bd d219 c4bd
000003a0: fc0c 0ebe b114 a6be 9554 e9be c3f3 afbe
000003b0: d61b bfbe 8349 48be 7d6b 12be 0698 9b3e
000003c0: d83c d23e 3b7d f73d 3c1c 923e cde3 5e3e
000003d0: 2b2c c53e 4b31 413f 13c4 5bbe bce6 263e
000003e0: 038b 4dbe fa12 c1be 6e02 e83e 40c5 29bf
000003f0: 12d1 153e 4c9d c03e 93ea ffbe e67b 283f

fc1.bias f4 [12]
-0.010586833 -0.077952154 -0.47861665 -0.18726447 -0.6745039 -0.15160549 -0.12454981 -0.06778568
-0.060710818 -0.14658836 -0.04750332 -0.059996333
00000000: 6574 2dbc 61a5 9fbd 3e0d f5be 42c2 3fbe
00000010: 4aac 2cbf 783e 1bbe f913 ffbd 38d3 8abd
00000020: e8ab 78bd 421b 16be d792 42bd b7be 75bd
