src/src_learner/kotlin_finetuning_model.pt (torch, 138692 bytes, 11 tensors)

word_embeddings.weight f4 [178, 128]
00000000: b82c b6bf 953a 13bf da9f 43bf ada0 ccbf
00000010: 6acb cc3c d743 21bf 6207 8ebf 584c ddbf
00000020: 56c5 34bf 8e33 983e 4464 05bf 92bb febc
00000030: 09c4 97be ffd8 ea3f df22 c43e 0915 f73e
00000040: 5ffe 2abf ad35 80bf 6cf9 373f 5442 6c3e
00000050: 4ae7 6e3f b58d 6f3e 60cc e5be 8718 433f
00000060: 511e 9c3f 3ff7 bdbd 339f 0bc0 788e acbf
00000070: 2589 60bd 1816 01bf 0920 6bbf f726 b5bc
00000080: be9f f13f ec58 57be ad33 cbbd fc85 28bf
00000090: fcbf 4b3e 3fa7 75bd 75d4 2cbd 05d2 e4be
000000a0: 94ae 21be 2b3f e83e 01fd 78bd 79a6 643e
000000b0: b4f2 1540 a320 88bf 75b7 ca3f 5907 48bf
000000c0: f132 4ebf d5fc 113f 9313 b1bd 3d02 1cbf
000000d0: 0729 4c3f c27c 953e 410a 873f be3e 0d40
000000e0: 5db6 0b3e aa28 6c3f 81c2 6cbe ebc5 e2be
000000f0: 3dc0 d23f 4f0c 4abf e86b 4ac0 c926 4cbf
00000100: 5607 6d3d c5be 6bbf 7816 18bf 9596 73bf
00000110: e5f9 c9be 09d3 a1bd 9691 e13f 84d4 edbd
00000120: cff2 5dbf b1a4 3ebe 6a94 78bf b236 4abf
00000130: 9599 f5be 6d64 f7be 4dd7 f13e bdec 70bf
00000140: cc70 e6be 17e6 60bd 8c81 43bf 5239 4f3f
00000150: 485f b8bf 633c b7be 7234 0c3d 14cf 80be
00000160: 5a10 bd3e a722 15bf 47f4 8abf 8f70 563f
00000170: d649 78bf 6ca1 9bbe ef9b e03d ce17 fc3f
00000180: a273 2c3f 3ef5 973f b5e8 6d3f a9e1 68bf
00000190: 227c c63f 27ca 4abf d3cf 42bf 272f 8c3f
000001a0: a511 b03f 480e 103f f59b 8b3d 884f 52be
000001b0: 8cb1 05c0 515e 29bf ddf7 bcbf d772 75bf
000001c0: 92aa 4c3f 3347 3bbf a629 af3f bf61 3a3f
000001d0: 4957 a23e 07ac ce3e 977f 233f 1f43 bfbe
000001e0: c1d6 1d40 2f54 4b3b 9746 03be 0cf7 0340
000001f0: b4d7 04c0 4298 e63f 6886 d83d 91d7 5b3e
00000200: 865d 363f 9764 e3bf bd2d b53e ed8c 993f
00000210: 7a22 9bbe 0784 e1bf 2d85 223f 7aea 4dbf
00000220: e938 cebf 0391 efbf 8707 0b3f 3c22 293f
00000230: bfe4 1240 a3c6 2c3f 1f4e db3f c0aa e5bf
00000240: 8a7f aebf 48b4 7bbf 3071 c13f a451 243f
00000250: 5028 f23e 2970 dbbe a226 0d3f 4010 c6bf
00000260: ffa2 043f 352f da3d edd9 893e ff91 a93f
00000270: 8e7d df3f a06f ed3f 9bd4 34bf 4da7 2340
00000280: 0ec7 d53e e8d2 59be 7d07 57bf 950c d7be
00000290: d8c0 1fbf 1430 7abf b3f5 5f3f 79be 7c3f
000002a0: ca80 9e3e f8a5 c23f 1b45 9a3f 4965 e8bf
000002b0: 8392 cebe 8a8a 75bf 63a5 aabb ff82 a1bd
000002c0: baf9 573f b335 953f 07e5 063f b143 cf3f
000002d0: 26c7 76bf b8ea 103e bd96 27be f368 b7be
000002e0: a673 dc3f 436e 9bbe 709b 743e 3b08 ac3f
000002f0: fe67 d33d 68d8 8c3f b5f0 aebe cd84 723f
00000300: 438a 11bf b46c 563f fe4e e43f 671d 48be
00000310: 8bd1 033f 257a ecbf e9ab 3ac0 883c 11bf
00000320: 5791 0abf 202a 653f fbeb 61bf c824 083f
00000330: 07dc c5bf 8275 31be 5a6e 3a3f d1b8 693d
00000340: facf 673f fdec 853f d845 05bf 8e69 ad3f
00000350: 78d6 703e ed05 f53f 850f eb3f 478a a93f
00000360: fc10 78bf 9f35 a03f e7eb 9a3f ce25 07bf
00000370: cecf 5f3e cd05 13bf 1383 ba3f adae e23f
00000380: 6030 d33f b42f ddbe 0ac4 8abe 7b36 b8bf
00000390: 059f 9f3f 8e0d a33f 802a c83e 7440 c63e
000003a0: 3d7d a3bd 7df6 ae3e 59e6 723f d024 b1bf
000003b0: dcae dc3f 5058 17c0 1ef3 6dbf 0e56 963e
000003c0: 924b 5c3e 283f 703f 4f9c bb3f 1b75 0ebf
000003d0: e3ad 3ebf 4d02 4fbe 102e 6bbe 3e80 ae3a
000003e0: 2a24 c03e dec0 14bf d582 12bf 6c3e 813f
000003f0: b55e d8bd 4700 97bf a7ea b9bd 4328 103f
-1.4232397 -0.57511264 -0.7641579 -1.5986534 0.02499934 -0.6299414 -1.1096003 -1.7288923
-0.7061361 0.29726833 -0.5210612 -0.0310953 -0.2964175 1.8347472 0.38307855 0.48258236
-0.6679439 -1.001638 0.7186496 0.23072177 0.9332167 0.233939 -0.44882488 0.762093
1.2196752 -0.09275674 -2.1815917 -1.3480978 -0.05481829 -0.5042434 -0.91845757 -0.022113306
1.8876874 -0.21030015 -0.09921966 -0.65829444 0.19897455 -0.05997395 -0.042194802 -0.44691482
-0.15789253 0.45360693 -0.06078816 0.2232913 2.3429384 -1.063496 1.5837237 -0.7813621
-0.8054648 0.57026416 -0.086463116 -0.60940915 0.797501 0.29196745 1.0550004 2.2069545
0.13643785 0.9224955 -0.23121072 -0.44291624 1.6464916 -0.7892503 -3.162836 -0.7974668
0.057868324 -0.92087966 -0.59409285 -0.95151645 -0.39448467 -0.0790158 1.7622554 -0.116128
-0.8669862 -0.18617512 -0.9710146 -0.7898971 -0.47968736 -0.48318806 0.47234574 -0.94111234
-0.45007932 -0.05490693 -0.7636955 0.8094684 -1.4404078 -0.3578826 0.034229703 -0.25157988
0.36926538 -0.58256 -1.0855798 0.837655 -0.96987665 -0.30396593 0.10967242 1.9694765
0.6736394 1.1871717 0.9293321 -0.9096933 1.5506632 -0.7921471 -0.76098365 1.095189
1.3755385 0.5627179 0.06816856 -0.20538151 -2.0889616 -0.6615954 -1.4763142 -0.95878357
0.7994777 -0.73155516 1.3684585 0.728054 0.31707218 0.4036562 0.6386656 -0.37355897
2.4662325 0.003102552 -0.12819897 2.0619535 -2.0756655 1.8015215 0.10572511 0.21468951
0.71236455 -1.7765073 0.35386458 1.1996132 -0.3029974 -1.7618417 0.6348446 -0.8043591
-1.6111118 -1.8716129 0.5430836 0.6606786 2.2952116 0.67490596 1.7133216 -1.7942734
-1.3632672 -0.9832196 1.5112667 0.64187074 0.4729638 -0.4285901 0.55137074 -1.5473709
0.5181121 0.10653535 0.26924077 1.324768 1.7460191 1.854969 -0.7063691 2.5570862
0.4175343 -0.2127186 -0.839958 -0.42001787 -0.6240363 -0.9772961 0.8748428 0.9872814
0.30957633 1.52069 1.2052339 -1.815591 -0.40346155 -0.9591452 -0.005207704 -0.07886314
0.8436543 1.1657013 0.5269322 1.6192533 -0.96397626 0.14152038 -0.16366096 -0.35822257
1.7222793 -0.3035756 0.2388742 1.3440012 0.10322569 1.1003542 -0.3416802 0.9473389
-0.56851596 0.8375962 1.7836607 -0.19542466 0.5149161 -1.8474776 -2.9167426 -0.5673299
-0.5412802 0.895174 -0.882507 0.53181124 -1.5457772 -0.17329982 0.72824633 0.05706102
0.9055172 1.0462948 -0.520597 1.3547838 0.23519313 1.9142433 1.8364111 1.3245324
-0.96900916 1.2516364 1.2103242 -0.5279206 0.21856615 -0.57430726 1.4571251 1.7709557
1.6499138 -0.43200457 -0.2710269 -1.4391626 1.2470404 1.2738512 0.39094925 0.3872105
-0.07982872 0.3417243 0.9488273 -1.3839359 1.7240863 -2.3647652 -0.9294909 0.2936253
0.21513203 0.9384637 1.4657077 -0.5564744 -0.7448408 -0.20215721 -0.2296679 0.0013313366
0.3752759 -0.5810679 -0.57230884 1.0097175 -0.10564939 -1.179696 -0.090779595 0.56311435

rnn.weight_ih_l0 f4 [32, 128]
00000000: 3d51 6b3c 719b 0ebe 2464 b6bd e227 b9bd
00000010: 200e a5bd cee9 62bd 121c 4b3e bc2f cd3c
00000020: d96b 85bd aa27 233e cc59 01bd 6ea4 8b3d
00000030: 6f00 f93d 3982 2b3c 1ad3 c2bd eed8 2bbd
00000040: ec39 35bc 5b8d b7bc f85c 80be ca3f 10bd
00000050: 4186 46be 8df2 89bd 47c1 f7bd 2510 8dbd
00000060: 5175 cb3d 724f 92bd 22b8 163e 1655 b6bd
00000070: c308 343e b745 60be a61d 8bbc b928 0bbd
00000080: 6bc4 003e 1737 483e b6df 1d3d ae51 48be
00000090: 6d4c b63d f688 f4bd eeec 99bd 824b 9bbc
000000a0: d429 d23d 9586 60be 2ec6 183e c6b6 58be
000000b0: 7a19 283d 4eb5 a2bd fc48 133e f645 05bd
000000c0: f713 f73d 424d 6dbd e9e3 71bd a94c 55bd
000000d0: dead 60bd faf3 d23d 4465 fdbd a190 cd3c
000000e0: 4619 8e3d 022a 3b3e 7d30 bf3a be42 fa3b
000000f0: 89ab 65bc 0047 3c3d e92c 3abe 1ac6 03be
00000100: 9d82 6fbd eca2 3ebd 5942 f9bd bcdb 443e
00000110: e268 4ebe 08c4 413d 51cf 013e 7abf 3b3c
00000120: ce64 b1ba f056 fa3d 4e04 b1bc 12cb 913b
00000130: 7353 1cbd 7d3a b2bc 8b7f f03d c4f7 2bbe
00000140: ccd9 65be b0a0 c53d 850c 09bd eafc c7bc
00000150: 92ef 22be 601b 013e 1620 7e3d 417f f83d
00000160: a200 b8bd ffbd fd3d 44bb 8d3d 2fbb ebbd
00000170: a85d 09be 690e 26be fd56 52be b398 37bd
00000180: cfdc 1ebe 3630 d63d 639a 8a3e 4712 5b3d
00000190: 0da7 663c c8fc fd3d 159e 4b3b ff26 a33d
000001a0: d886 44bb 7ab0 d6bb 87be 813c 3e07 653e
000001b0: 5771 bc3c 1511 27bc 432c b6bd de1e 173e
000001c0: eb88 66bd 1847 0b3d af1f 07bd 19c1 88bc
000001d0: ea23 883e b38d 6cbc 4314 23bd b157 f53d
000001e0: b5b2 993d 0e1f 98bd 59d6 2a3c c90b 623d
000001f0: a495 f7bd 44d2 43be 631f 08be e6f6 5dbc
00000200: 5b4f 80bd cee4 8a3d 12d6 4abe 220b 623c
00000210: 2501 d63d bd01 0bbe ed69 4d3d f747 20be
00000220: f8f3 c2bd 9b1b 0cbd 0a5b 5cbe b012 13be
00000230: 2731 0fbe 3658 433d c11a 5cbd c2c5 3fbe
00000240: 7e71 d33d 48fe 95bd 318b 87bd fff5 e13d
00000250: 3db7 cc3b d2cf 7ebd ef21 453d 7206 053e
00000260: 373f d1bc 14f7 31be d8fe 1b3e c2c6 15be
00000270: e2ee 85bb 09f1 d5bc 1b5a 5c3d 50aa 723d
00000280: 32fb 7a3c 9794 ec3d 3ed5 9e3d 8564 0cbb
00000290: d933 2fbe c96b c33d d354 cebd e439 43be
000002a0: 2c02 92bd f4c1 ab3d 722c 4e3e 9645 303e
000002b0: 59fe 19bd 9b9d ddbd cbf2 373e d461 e33d
000002c0: 73d3 2abe b55a e2bc 67b4 02be 83e2 8ebe
000002d0: 9c68 a03c 7788 1fbd c3df ce3d a1a3 eb3d
000002e0: 7eeb 223e ab64 d9bd 04c7 85bd 8899 06bd
000002f0: daf0 323e 43e1 d3bd 67ca c13d d454 24bd
00000300: 9faf 2abe 9323 d23d 28ef a5bc c36f 06be
00000310: 83e9 1cbd 3633 003e 0af1 4ebd 1301 46bb
00000320: 2f95 003e 0dc4 0c3d e829 55be fba9 483e
00000330: 5d3d 63bd 15df 563d 4d4d a5bd 0d47 a73d
00000340: 7df1 363e 48df 9e3d 7c1a 89bd bf5c f3bc
00000350: bef1 3f3e 79e4 95bd 7b7e fdbd b7a1 18bd
00000360: 22fc a33c 94e7 463e 8f9c f93c c40d 9e3d
00000370: 4413 acbc eab8 1d3d c63a 6e3d f8b3 ef3d
00000380: 826f be3d 2644 e93d df1b fd3d 1861 313c
00000390: 6063 2dbc 7b9c 90be b88c 55bc b093 383d
000003a0: d540 fcbd 4129 163e bacc ccbd 07ae 283e
000003b0: 56b7 263c c535 943d 053d b83d 4626 0f3e
000003c0: 3e79 b3bd 2bda fb3c f794 0f3d 0352 c53d
000003d0: f5bd e7bd 6c63 0c3e 52aa d2bb 7a1e 0e3e
000003e0: d7e8 ecbd 29ef a03d 2ec0 78bd 07b4 3c3d
000003f0: 9bed 23be 612f 8abd ca76 553d 0f21 383e
0.01436263 -0.13926484 -0.08905819 -0.0904081 -0.08059335 -0.055398755 0.19834927 0.025047176
-0.06514711 0.159331 -0.031579778 0.06818472 0.12158286 0.010468059 -0.09512921 -0.041954927
-0.011061173 -0.02240627 -0.2507093 -0.035217084 -0.19387151 -0.06735716 -0.120974116 -0.06887845
0.09934486 -0.07144059 0.14718679 -0.089029476 0.17581467 -0.21901594 -0.01698191 -0.033974383
0.12574928 0.19552265 0.038543426 -0.19562408 0.08901296 -0.11940186 -0.07515894 -0.018956903
0.10261884 -0.21926339 0.1491935 -0.21163473 0.04103992 -0.079447374 0.1438331 -0.032537423
0.12064355 -0.057935007 -0.059055243 -0.052075062 -0.054853313 0.10300441 -0.123728305 0.025093378
0.06938414 0.18277743 0.0014586594 0.007637351 -0.014017948 0.04596615 -0.18181194 -0.12868538
-0.058474172 -0.046542093 -0.12170858 0.19224447 -0.20157197 0.04730609 0.12676741 0.011459226
-0.001353407 0.12223613 -0.021608498 0.0044492567 -0.03816552 -0.021756405 0.11743077 -0.16793734
-0.22446364 0.09649789 -0.033459205 -0.024412591 -0.15911701 0.12608099 0.06204232 0.12133647
-0.08984496 0.123897545 0.06920484 -0.11510312 -0.13414633 -0.16216435 -0.20540996 -0.04482336
-0.1551392 0.10458414 0.27070913 0.053484228 0.014077914 0.1240173 0.0031069566 0.07966422
-0.00299876 -0.0065517994 0.01583792 0.22366044 0.023003263 -0.010196944 -0.08895161 0.14757869
-0.05628292 0.034003347 -0.0329892 -0.016693639 0.265899 -0.014438081 -0.039814245 0.119796164
0.07504789 -0.07427798 0.010427081 0.05518702 -0.120890886 -0.19123179 -0.13293223 -0.013547635
-0.06265136 0.06781922 -0.19808224 0.0137966 0.10449437 -0.13574882 0.050149847 -0.15652452
-0.095191896 -0.034206014 -0.21519104 -0.14362597 -0.13983594 0.047691546 -0.053736452 -0.18727782
0.10324381 -0.07323891 -0.066183455 0.11033248 0.0062474296 -0.06220991 0.048128065 0.1299074
-0.025542838 -0.17379409 0.15233934 -0.14626601 -0.004087315 -0.026115911 0.05379687 0.059244454
0.015318679 0.11551779 0.077555165 -0.002142222 -0.17109622 0.09542043 -0.10074773 -0.19065052
-0.071293205 0.08386603 0.20134142 0.17214045 -0.03759608 -0.108210765 0.17963712 0.111026436
-0.16682224 -0.027631143 -0.1276413 -0.2790719 0.019581132 -0.038948502 0.10101273 0.11505819
0.15910146 -0.10614904 -0.065321 -0.032861263 0.1747469 -0.103457 0.09462433 -0.04011996
-0.16668557 0.102606915 -0.02025564 -0.13128571 -0.03830863 0.12519535 -0.05052284 -0.0030213043
0.12556909 0.034366656 -0.20816767 0.19596092 -0.055478442 0.05245884 -0.080713846 0.08167849
0.17865558 0.07757431 -0.066945046 -0.02970731 0.18744561 -0.07318968 -0.1237764 -0.0372636
0.020017687 0.19424278 0.03047016 0.07717469 -0.02100528 0.038506426 0.05816152 0.11704248
0.09298612 0.113899514 0.123588316 0.010826372 -0.010582775 -0.28244385 -0.013034038 0.04506272
-0.12317053 0.14664175 -0.09999986 0.16472636 0.010175547 0.07236818 0.089960136 0.13979444
-0.087633595 0.030743679 0.035054173 0.09634783 -0.11315528 0.13709801 -0.006428995 0.13878813
-0.11567848 0.07858116 -0.06073015 0.046070125 -0.16008608 -0.06747318 0.05211524 0.17981361

rnn.weight_hh_l0 f4 [32, 32]
00000000: 4c0c 103e c4e5 863c 6136 043d 4147 c1bd
00000010: 2dd2 1abe e4d5 61be 0655 06bf e123 2fbd
00000020: 99f4 693e e661 f03d 9861 25be 6f53 473d
00000030: a4a5 643e 38b4 42be 79c0 0bbe b6ef 66be
00000040: 5fe8 6c3e 63b0 8dbe 1504 be3d 6458 f83d
00000050: fcce 2fbe 6f17 a9be 429b 763e 19d8 1cbe
00000060: 0caf 4abe d00e 023e 5a40 b5be 8f7b 133e
00000070: 8e4b 9dbd 35ea 0abd 4f68 ddbd 87d1 8bbe
00000080: ace3 46be b966 73bd 0a3a e23d 8bfa 8e3c
00000090: 3986 cebd 595c 8dbe d69e 6d3c 2d08 e4bd
000000a0: db90 1c3e 417e fd3d e4f6 83be 6ad0 28be
000000b0: c33a 243e 93d6 44bb 90ca 96be ebf1 603d
000000c0: d96b 24be 4031 933d e5c8 f23d f438 8f3e
000000d0: 8e8e 1f3e 43e2 133e 1485 04bd 684c 033e
000000e0: ab94 103e 13ac 43be 5eb8 8d3c bc79 a23e
000000f0: 85ff 94be a9bf 823e 5d4e b2be 6567 453e
00000100: f1ff 373e 792b 503e 99e6 163e c437 27be
00000110: 0d14 cabc d17d 26bd 51ca dd3e 1556 423d
00000120: a8ae d93c c8d7 dfbd 7f59 dc3e a33e 06be
00000130: e2cb a93e 8e53 203e 5894 b43d e647 6d3d
00000140: acc5 c83a 2e87 b33c 634e 7b3d 157c 41bd
00000150: 3535 473c b274 a8bd 5fd1 0fbd ca6a 38bd
00000160: de23 bfbc fa1d 10be df3c 773e dfcb 82bd
00000170: fef3 b23d 9122 ac3d 2d23 483e 78a0 be3e
00000180: 9277 dbbd e582 1e3e e7da 4bbc 868b 19be
00000190: 98fd 8abe ffa2 3ebe 8423 24be 4179 663d
000001a0: f909 e2be 9108 f5bd c0a7 7d3e ce46 2ebe
000001b0: c27c 113e c406 70be 075c 333e d11b 2d3e
000001c0: 1c10 4f3d d1d8 d1be cf08 e93e 9c7c 433e
000001d0: 3cc3 a3bb dbed 31be 3ecb 8f3d 41b7 9cbd
000001e0: 4927 443e 3e41 d9bd faca 5bbe 9cee 24be
000001f0: dfbf 9bbc 45b9 b4bd 7e30 e0bc 6fba ddbd
00000200: 2c56 34be 1e38 3c3e 2d5b 793e 4ce7 1abe
00000210: 424f 8c3c 3445 a2bd c44a 96bd 6fb9 0f3e
00000220: c4c3 3a3e 02b0 213e 4130 8fbd d46d f9bd
00000230: 0f4b a83d a14f 173e 71e1 56be 9ef1 08be
00000240: 1c65 583d c86c c4b9 5660 763e 8526 48bd
00000250: da43 17be 8dfc a2bc cc66 393e 1cbf 123d
00000260: 384c 803c 19af a5bd fd56 22be cf2a 53bd
00000270: 2760 4abd 7c77 853e 4f74 50bc bb1d 333e
00000280: 14ba 0bbd a933 1dbe b0ed ee3d 8668 533e
00000290: 05a0 dfbd 9181 8f3e 03d7 bbbe 75f9 943e
000002a0: 802c 7a3e 773f 97bd 62c6 30be 264f 8e3d
000002b0: 698b d73d eb83 36be dad0 3d3e 5c70 9e3d
000002c0: 5b27 a6bd d841 49be dcb4 dfbd cfbf 95bb
000002d0: 3e42 40bd e562 9ebe 0047 b43d f477 6fbe
000002e0: 8431 98bc f9e2 23bd f1e9 20be a11f 2c3e
000002f0: a9a2 493e 67b2 b6bc a38c 23be 84ab 62be
00000300: 613c d3be 4d9b 303e e482 0abe c4b9 46be
00000310: 1815 cb3c c18f 6bbe 32df d5bb ab7a 3e3e
00000320: 6e76 aebe c29c e8bd 661a bdbe 1c86 5ebe
00000330: c855 8b3d 8f36 d73e 1940 c13c 9f2d 8c3d
00000340: 4018 15be dfc9 9a3d 2062 9c3d bdf0 5cbc
00000350: a71a edbc d1fa c3be bc56 85bd 3c3b a4bc
00000360: 1ab0 1ebe 63e2 f83d c00d 313d c1dc 29be
00000370: 262d 18be 36fa 053d 2939 b53d 6570 093e
00000380: 7f82 50be 6a89 10bd fe62 943e df2a 173e
00000390: bd03 273e 460b e4bb ea20 c63c 92c2 603d
000003a0: 4009 fdbd 8103 e73c 11dd c0be 1be3 1abe
000003b0: 40f6 abbe e86e fd3e 3b78 82be c312 2fbd
000003c0: 1f42 693e 6608 103d 46f8 d0bb 1031 6b3b
000003d0: baed dabd 1746 c43d ee13 12be 1b08 843e
000003e0: 1626 49be 0468 8fbd 37bc 103d 11ee 853d
000003f0: 36bb 813d 37a9 4d3c 7cd7 b4bd 765a ef3c
0.14067191 0.016466983 0.032278422 -0.09437419 -0.15119238 -0.22054249 -0.52473485 -0.042758826
0.22847213 0.11737423 -0.1615051 0.048663553 0.22328812 -0.1901406 -0.13647641 -0.2255238
0.23135518 -0.27673635 0.09278122 0.12126234 -0.17168802 -0.3302569 0.24082664 -0.1531681
-0.19793338 0.12700963 -0.3540066 0.14402603 -0.076804265 -0.033914763 -0.10810911 -0.27308294
-0.19422787 -0.059424136 0.11046226 0.017453453 -0.10084195 -0.27609518 0.0145032015 -0.11134372
0.15289633 0.12377597 -0.257743 -0.16485754 0.16038041 -0.0030035123 -0.29451418 0.05491821
-0.16056766 0.07187128 0.11854724 0.2797314 0.15581724 0.14441781 -0.032353476 0.12822115
0.14119212 -0.1910861 0.017299827 0.317335 -0.29101196 0.2553685 -0.3482541 0.19277723
0.17968728 0.20329084 0.14736404 -0.16329867 -0.024667764 -0.04064733 0.43318418 0.047445375
0.02657254 -0.10929829 0.4303703 -0.13109832 0.33163363 0.15656874 0.08817357 0.057929896
0.00153177 0.021915045 0.061354052 -0.047237474 0.012158682 -0.08225383 -0.03511178 -0.045023717
-0.023332532 -0.14073935 0.24144314 -0.063865416 0.08737944 0.084050305 0.19544668 0.37231803
-0.107161656 0.1547962 -0.012442327 -0.1499463 -0.27146602 -0.18616866 -0.16029173 0.05626798
-0.44148234 -0.119645245 0.24771023 -0.17019197 0.14207748 -0.23440081 0.17515574 0.16905142
0.050552472 -0.4098573 0.45514533 0.19090503 -0.004997639 -0.17375891 0.07021187 -0.076521404
0.19155611 -0.10608147 -0.21464148 -0.16106647 -0.01901239 -0.088244 -0.027366873 -0.10826575
-0.17610997 0.18380782 0.24351187 -0.15127295 0.017127637 -0.07923356 -0.07338479 0.14035581
0.18238741 0.15789798 -0.069916256 -0.12179151 0.08217441 0.1477647 -0.20984437 -0.1337342
0.0528308 -0.00037465082 0.24060187 -0.04886486 -0.14771977 -0.019895816 0.1810562 0.035826787
0.015661344 -0.08090038 -0.15853496 -0.051554497 -0.049408104 0.26067722 -0.012723043 0.1749181
-0.034113005 -0.15351738 0.11666429 0.20645341 -0.10919193 0.2802854 -0.36687478 0.2909657
0.24431038 -0.07385152 -0.17263177 0.0694869 0.10524637 -0.1782376 0.18536702 0.077362746
-0.08112975 -0.19654024 -0.10923168 -0.0045699845 -0.046938173 -0.30934826 0.08802605 -0.23385602
-0.018578298 -0.04001138 -0.15714242 0.1680894 0.19690956 -0.022301866 -0.15971617 -0.2213574
-0.41257003 0.17246743 -0.13526493 -0.19406801 0.024790332 -0.23004057 -0.006526851 0.18601482
-0.3407473 -0.11358024 -0.36934203 -0.21730846 0.06803471 0.42033812 0.023590134 0.06844639
-0.14560032 0.07558035 0.07635903 -0.013485131 -0.028943373 -0.38277295 -0.06510684 -0.020047776
-0.15496865 0.12152555 0.043226004 -0.16588117 -0.14860973 0.032709323 0.08848793 0.13421781
-0.2036228 -0.0352873 0.28981775 0.14762448 0.1631002 -0.0069593517 0.024185617 0.054873057
-0.1235528 0.028199913 -0.3766866 -0.15125696 -0.3358631 0.49498677 -0.25482354 -0.042742502
0.2277913 0.03516426 -0.0063772528 0.0035887398 -0.10689874 0.09583681 -0.14265415 0.25787434
-0.19643435 -0.07002261 0.035335746 0.06539548 0.06334536 0.012552551 -0.08830163 0.02921794

rnn.bias_ih_l0 f4 [32]
00000000: 8d3b bc3c 387e e33d 4d26 3b3e 086f b93d
00000010: 1b26 ef3d c8c2 ebbd 8fd2 9a3d 6236 04b9
00000020: 15ca 163e 1079 0d3e a033 ebbd acf1 47be
00000030: a23a b83d 8862 06be 62d9 b5bd 9e88 0ebe
00000040: 3693 a9bc 9176 053c c8b4 b63d c0d3 cc3c
00000050: d3e3 4c3d 536a e6bd 0333 4b3e c033 843d
00000060: e0e0 84bd faa4 3bbe 9c49 d8bb 2ebf 103e
00000070: 1e11 07be dc9f b9bd 0736 36be e027 873d
0.022977615 0.11108059 0.1827633 0.09054381 0.1167719 -0.11511761 0.07559692 -0.0001260876
0.14725526 0.13815713 -0.11484456 -0.19525784 0.08995558 -0.13123524 -0.08879353 -0.13919303
-0.020700078 0.008145944 0.089212 0.025003314 0.050021958 -0.112507485 0.19843678 0.06455183
-0.06488204 -0.18324652 -0.006600572 0.1413543 -0.13190123 -0.09063694 -0.17794047 0.065994024

rnn.bias_hh_l0 f4 [32]
00000000: dc9c adbd c408 ed3d 9597 263e b94f 663e
00000010: bf7f 863d c33d 3ebd db4a ef3d 41df 223d
00000020: 0e7b 91bd 17ec c7bd 617c 233e 3ca9 d5bd
00000030: 2c2f 05bd 7cbb 5bb9 ea1b 06be 9481 813d
00000040: 2ae2 93bc 94ae 7e3d 83c4 353e 92e1 e03d
00000050: 6159 93bd 1cfd 2d3d ae6b 6cba ff03 3abe
00000060: 01ff 22bc 9c73 b2bd 32a7 283c 4382 733e
00000070: 7caa 1bbd c2c1 4d3e 28d7 8bbe a9a0 8e3d
-0.08477184 0.115739375 0.16268761 0.2249135 0.065673344 -0.04644562 0.116841994 0.039763693
-0.07103549 -0.097618274 0.15965416 -0.104326695 -0.03251569 -0.00020955311 -0.13096586 0.06323543
-0.01805218 0.06217821 0.17750745 0.10980524 -0.07194782 0.042477712 -0.0009018731 -0.18165587
-0.009948493 -0.08713457 0.010293769 0.2378016 -0.038004383 0.20093444 -0.2731259 0.06964237

rnn.weight_ih_l0_reverse f4 [32, 128]
00000000: fd06 373e 9a19 783d 182e b3bd 29cc 1d3d
00000010: e24e d23d 3dbe 9f3d 7cca 3b3e 0aef c1bd
00000020: 7dd8 873d 7401 893d e7ef acbd ad09 44bd
00000030: 97d2 ea3d a032 413e 6f0d 553d c8be d2bc
00000040: fdac 18bc 9b9a 9cbc dab4 2d3e 98fd 123e
00000050: 605d 023e 4670 4bbe 5891 89bc 6aa8 6d3d
00000060: 527d d9bc 9855 283e b424 063e adba a53d
00000070: 9cc0 4bbd 941e ac3b 0e84 2f3c 56fe 083e
00000080: 2397 e1bd 8ca2 6bbe 3846 83bd 2cf6 5f3e
00000090: 442c 40bc 5769 a7bd 3c16 10be b716 a5bd
000000a0: e599 db3d addd 2f3e 665e 903d 930d 3fbd
000000b0: d234 00bc 2c2a 6b3e 1e7a b33d 2dce 20be
000000c0: a83b 533e 6c14 9dbd 10c6 a0bc 37d4 d2bc
000000d0: c20a 533e 54ab ecbd cbc8 afbd 8a96 853d
000000e0: 5569 1f3e 8074 923d 0b27 68be 6585 93bd
000000f0: 0f73 6a3d 3cd8 dfbd 64e2 6d3d 5509 823d
00000100: 075e a93d 8709 a73a 840b a3bd 749a 7abd
00000110: c94f 5fbd 0390 b3bc 22dd 09be ce6e f0bc
00000120: 6ca5 a4bd d2fb 9e3d 36b7 e1bd 4ae0 d23d
00000130: df4e 273e 32da f83d 54e6 9fbd 3710 3a3d
00000140: 8084 b7b9 7c59 0fbd e897 f9bd b7af 44bd
00000150: 20e1 b5bd 1e39 db3d 37ea d83d 1f7d 61be
00000160: f041 afbb 5def 02be 8640 e3bd 2c17 3cbd
00000170: 2294 5cbc 8006 223d eb24 c6bd 15c1 203e
00000180: 7dd7 db3d fc60 273b 39ed d33d 88b7 37bd
00000190: 592f 89bd 311f 503e 93d3 17be dc6e fdbb
000001a0: 163e 00be 952f 303e 3eaa 1e3d e03c 4bbd
000001b0: d03c 3b3e 5db3 ec3c 5195 263d 2f9c 39be
000001c0: 9ef7 d13d e0f5 04be 56b8 0f3d a8fe 8a3c
000001d0: 9111 03bd 66c0 c5bd 7710 f33d 9e86 b33c
000001e0: abc7 f4bc 025d b13c acf6 22be 18e1 163d
000001f0: 4519 11bd f35e 68bc 5d4a d4bd 4d17 7fbd
00000200: a490 13bd fc6f f93d 0185 133e a3cd 2d3e
00000210: ac81 123e 8fe4 133e 174e 0bbe 11c6 b4bb
00000220: c45b d9bd 1505 00bd 204f 74bd 6cf1 103e
00000230: 181a 9bbd 7aac 01be 8a49 c4bc 41f9 6e3b
00000240: 8fa1 403e 298f 3abd 0506 11bc 9f15 2f3e
00000250: bc1f e03c 40a4 e43d 87c7 7a3c 4b11 a23d
00000260: d458 01bd 429b 5cbc 033e a83d 880a 9e3e
00000270: 2e83 a33d c886 12be 4e3c 51bc 5d5d 173d
00000280: 9c09 d7bc 3788 85bd f413 0f3b 17f3 cb3c
00000290: 81a9 22bd 1302 ffbd eba0 8dbd 849d 093e
000002a0: 77ca 15be 0800 d0bd c560 adbd a93b 843d
000002b0: 9d59 96bd cf93 c33d 671b 193e d5a9 6ebd
000002c0: 2458 0ebe d017 51bd b8da 4bbe c940 a8bd
000002d0: 7bb7 de3b db1d d2bd 56bd 40bd 416c a4bc
000002e0: 6f4d e93d eaa1 e23d d1be f83c 0327 023e
000002f0: 5bbf d5bd 0670 f23d a90f d8bd fab4 f53d
00000300: 2cb2 4abd f760 f13d 5288 eabc fb9a 193e
00000310: c15e f4bd af3d c9bd 08a7 2b3e fa00 58bd
00000320: 5013 413c 18a7 13bd 3727 43bd 7ced 29be
00000330: b347 89bc ed72 ce3d d41d 1dbd 0434 78bd
00000340: 701c 9b3d 0b2f 4d3b d808 b1bd 11ab cc3d
00000350: 5214 1a3e 7973 a13d 75f9 0fbe 209a 5cbd
00000360: ca35 8ebc 3067 113d 75c6 b23d 6a78 8e3d
00000370: ad14 3abe ceeb abbd a84c 05be d670 8f3d
00000380: 0880 343d 7a09 1d3e 7327 83be 8e13 413e
00000390: 431a 17be ed72 b13d dc22 933d 8978 8c3d
000003a0: b316 47bd dff8 083e d6aa 963d 6719 313d
000003b0: 8098 143e 1fe4 443e 2dc1 07be b261 2c3d
000003c0: 73ea 12bd fa15 fc3d 0508 bd3d f8d0 24be
000003d0: efd8 b4bd 5632 4cbe fbc5 13bd 5151 653e
000003e0: bb7b 3f3e e400 88be 0978 17be 2833 833d
000003f0: 8ae1 a8bd 651e d13d 0a5a c4bc 6bd2 843e
0.1787376 0.06057129 -0.08749026 0.03852478 0.10268952 0.07799957 0.1833896 -0.09469421
0.06633089 0.0668973 -0.08444195 -0.04786079 0.11465948 0.18866968 0.052014764 -0.025725737
-0.009318587 -0.01911669 0.1696352 0.14354551 0.12730932 -0.19867048 -0.016792938 0.05802194
-0.026549015 0.16438901 0.13099939 0.08092246 -0.049744233 0.0052526686 0.010712637 0.13378271
-0.11015155 -0.23011225 -0.064098775 0.21871251 -0.011729304 -0.08174389 -0.14070982 -0.08060973
0.107227124 0.17174406 0.07049255 -0.046643805 -0.007825093 0.22965306 0.087635264 -0.1570365
0.20628226 -0.07669911 -0.019625694 -0.025735958 0.20609573 -0.11556116 -0.0858322 0.06522854
0.15567525 0.07151127 -0.22671144 -0.07203177 0.057238635 -0.10929915 0.05807723 0.06349436
0.082698874 0.0012743928 -0.07961181 -0.061182454 -0.05451945 -0.021919256 -0.13463262 -0.02934971
-0.08039364 0.07762875 -0.11021273 0.10296686 0.1633868 0.121509925 -0.078076035 0.04542562
-0.000350032 -0.03499745 -0.12187177 -0.048019137 -0.0888083 0.107042536 0.10591548 -0.22020386
-0.0053484365 -0.12786622 -0.11096291 -0.045920536 -0.013463052 0.03955698 -0.0967501 0.15698655
0.107344605 0.0025539985 0.10347981 -0.044852763 -0.06698484 0.20324399 -0.14826803 -0.0077341627
-0.12523684 0.17205651 0.038736574 -0.0496186 0.18284917 0.02889412 0.040669743 -0.18125986
0.10252307 -0.12984419 0.035087906 0.016967133 -0.031999175 -0.09655838 0.11868375 0.021914776
-0.029880365 0.021650795 -0.1591441 0.03683576 -0.03542449 -0.014182794 -0.10365746 -0.06227808
-0.036026612 0.121795624 0.14406206 0.16972975 0.14307278 0.14442657 -0.13604008 -0.0055167754
-0.10613206 -0.031254847 -0.059645772 0.14154595 -0.07573336 -0.12663451 -0.023960847 0.0036464485
0.1881163 -0.045546684 -0.008851533 0.17098092 0.027358882 0.11164141 0.01530636 0.079134546
-0.031578854 -0.013464751 0.08214953 0.3086741 0.07984005 -0.14309227 -0.012770725 0.036954273
-0.0262497 -0.065201215 0.0021831961 0.024896188 -0.039712433 -0.124515675 -0.06915458 0.13438994
-0.14628015 -0.10156256 -0.08465723 0.06456692 -0.07341311 0.095496766 0.1495186 -0.058267433
-0.1390081 -0.0510481 -0.19907653 -0.08215482 0.006796775 -0.10259601 -0.047055565 -0.02007115
0.113917224 0.11066039 0.030364426 0.12710194 -0.10436889 0.11837773 -0.10549862 0.11997409
-0.049486324 0.11786073 -0.028629456 0.15000527 -0.119321354 -0.09826218 0.16762936 -0.052735306
0.01178439 -0.036048025 -0.04764482 -0.165945 -0.016757822 0.10080514 -0.038358524 -0.06059648
0.075737834 0.0031308557 -0.08644265 0.09993566 0.15046814 0.07883353 -0.14060004 -0.053857923
-0.017359633 0.035498798 0.08729259 0.06956561 -0.1817195 -0.083945855 -0.13017523 0.070039436
0.044067413 0.15335646 -0.25616035 0.18855116 -0.14756112 0.086644985 0.07184383 0.06858928
-0.048605632 0.13376187 0.07356803 0.043237116 0.14511299 0.19227646 -0.13257284 0.042085357
-0.03586812 0.12308879 0.09230045 -0.1609534 -0.08830439 -0.19941077 -0.03607748 0.22394301
0.18699543 -0.2656318 -0.14791884 0.06406242 -0.08246143 0.102108754 -0.023968715 0.25941786

rnn.weight_hh_l0_reverse f4 [32, 32]
00000000: c2fb 583e 5438 983e 3b90 393d 58c8 c23d
00000010: 916c 5abc fba8 ab3d 7a99 82bd dfeb 8e3e
00000020: 1360 e23d 5db1 34be f744 87bc efe8 aa3c
00000030: 2fa8 663c 0387 483d 60b2 663e 5539 7f3e
00000040: f3fc a3bc 12e9 833a f9ad 82bd d4c3 1f3e
00000050: ebfd 843d 57b2 b8be f436 13be cd36 6d3d
00000060: 0b04 133e 619c 16be 602f 97bd 525e 663c
00000070: f1c8 51bd 883e bd3e 3ed2 49be 9002 6c3e
00000080: adbc 29be a5e7 08be 58bd e4bd e3d1 1b3e
00000090: 6d35 0c3e 022c bd3d b4da 603e 1fe4 f0bd
000000a0: 007d d23d 9315 3d3d 9c2a 8dbe 3108 863d
000000b0: 0c04 21be 2787 f0bd 4a6c 99be a3a8 513e
000000c0: d8a7 8b3e 3d20 753d 1d15 4fbe 8dc2 b4be
000000d0: d91a 7ebd 2371 e93d 99f3 dcbd 0e30 ec3d
000000e0: 72b9 543d bda2 1a3c be6d 933e 52a3 1cbe
000000f0: 9c07 15be 3c16 a0be d50f 39be 8e6a 5fbe
00000100: 677d c23e decc 71be 65e5 a93e f6c6 48be
00000110: ffe7 07be a5c7 5cbd 90a8 6dbe e77e 063b
00000120: 1976 703d 76a3 aa3c 812f 5e3e 3e41 953d
00000130: bb93 ae3d 5fc5 c53d e12b 503e 53db d03d
00000140: f702 b73d 3f90 dbbd f3e1 713e 7b70 413d
00000150: eaf4 6e3d fc03 053e 17af c8bd 95c2 35be
00000160: 17eb 83bd 3aea 283e 69a5 91be 4fa1 8a3c
00000170: 5859 803e 2e90 103e 966a 37bd 7b8a 123e
00000180: f493 62be 9891 9ebd 2495 cc3d 29f4 2bbe
00000190: a187 043e 6010 d2bd 1935 b33d f474 07be
000001a0: 36bf 39be 1e92 49be 7a70 523e 82f8 c63d
000001b0: 0568 25be b02e 84be a756 1c3e edf3 0a3d
000001c0: f8c4 083e ed78 12bd d243 553e 7ca2 06bf
000001d0: 44ac 9dbc 1a89 ec3c 61c5 403e 97bf e13c
000001e0: dc48 153e 12a5 d63d bcba 133d 9f26 91bd
000001f0: 0b2e dcbd 6aa3 dfbd 3497 ea3d d89c b03c
00000200: 35a0 623e d21d 703b a531 41bd d2f4 703e
00000210: 21a8 71bc 3fb0 4fbd f29f 22be a871 e7bd
00000220: be47 5abe c71c 46bd 567a 7f3d 14fc 3d3e
00000230: e22d 523e 6806 32bb 5877 1b3e 394e 15bd
00000240: 5258 78be 74b4 39be 6923 243e 21d8 b53e
00000250: 5c88 a53d f35a 933e 445b c3be 2003 083e
00000260: c2db 21be fb74 323e 229a 40bd 8063 d9bd
00000270: 713e 983e e405 953d 4362 1b3e 64d0 24bd
00000280: 9d81 623e 5212 993e 1162 f2bd 1502 4abe
00000290: aabb 313e 793c 9f3c e115 673c 7f72 63bd
000002a0: 126e 5e3e 3aee c0bd c24f 55be d311 8f3d
000002b0: bc7a 8a3e acce ee3d 951b a03d f90f 21be
000002c0: fca0 b53d bdcd 873e 06fc 863e fc64 37be
000002d0: b8f5 743c 20db a0bc 70f0 a8bd 0bd5 8d3e
000002e0: 7faa 103e 68fa b6bd 7caf babe e210 2dbe
000002f0: 165d 6d3d 68c0 abbe 8a39 9f3a 9ed1 ca3d
00000300: f1af a2bd 14ec 61be 54bf 54bd 73a5 5f3e
00000310: 6527 cabd e510 72be 0cb6 45be ebea 8abd
00000320: c1a8 e13d b9d1 2b3d 0a1d 7c3e 6686 123d
00000330: d7e8 ffbe a875 9dbe 8e17 323e 3c20 053e
00000340: 46b3 9b3e 1ca2 4ebe 8079 a3bd 0b1f 01be
00000350: e0ba 56bd cbaa bf3d 981d 013e f195 d1bd
00000360: 95c1 81bc ef37 6b3e 534b 543e 6c34 e5bb
00000370: 9600 b3be 62c0 28bd bc85 c83d a6cb 61be
00000380: d13c a2be 9567 053e 8320 67be e041 533e
00000390: be83 d43d e02f fe3d 8463 3f3e 5f49 f83b
000003a0: 1ccb 613e e7f1 08be b52d 7abe 0e2b 1cbe
000003b0: bb1a 93be eec8 42be 3fde 0b3d 5d88 c6bd
000003c0: 7399 de3d 54c0 093e 7ab8 09be 996f 8abe
000003d0: a04a 20bc 0034 e1bd b2e6 e43d b525 7b3d
000003e0: 970c 183e 2863 16be bd7a 453e ae40 9bbd
000003f0: eef5 41be fe7c 8a3b ddb0 b83c aeed 5bbd
0.21189788 0.29730475 0.045303565 0.09510869 -0.013331548 0.0838184 -0.063769296 0.2791433
0.11053481 -0.17645784 -0.016512377 0.020863025 0.014078184 0.048956882 0.22528982 0.24924214
-0.020018077 0.0010063967 -0.06380839 0.15602046 0.064937435 -0.36073563 -0.14376432 0.05791359
0.14357011 -0.14708091 -0.07382083 0.014060574 -0.051217023 0.3696177 -0.19709107 0.23047853
-0.1657588 -0.13369615 -0.11168927 0.15216784 0.13692255 0.092369094 0.21958429 -0.11762261
0.10277748 0.046163153 -0.2757157 0.06544531 -0.157242 -0.11744528 -0.2996543 0.20474486
0.27276492 0.059845198 -0.20222898 -0.3530468 -0.062037323 0.11398532 -0.1078865 0.11532603
0.051934667 0.009438214 0.28794664 -0.15296677 -0.14553684 -0.31266963 -0.18072446 -0.21817991
0.379863 -0.23613307 0.33182827 -0.19607148 -0.13272093 -0.053901333 -0.23208833 0.0020522417
0.058706377 0.020829897 0.21697809 0.072878346 0.08524271 0.09656786 0.20329238 0.10198083
0.089361124 -0.10720872 0.23621349 0.04722641 0.058339037 0.12989801 -0.09799021 -0.17750008
-0.06441324 0.164956 -0.2844651 0.016922621 0.25068164 0.141175 -0.044779383 0.14310639
-0.22126752 -0.077426136 0.09989384 -0.16792358 0.12942363 -0.102570295 0.08750362 -0.13228208
-0.18139347 -0.19684646 0.20550719 0.09715368 -0.16152962 -0.2581687 0.1526743 0.033924032
0.13356388 -0.035759855 0.20826653 -0.5259168 -0.019247182 0.028873969 0.18825294 0.027557177
0.14578575 0.104807034 0.036066756 -0.070874445 -0.107509695 -0.10919841 0.11454621 0.021559164
0.22131427 0.0036638868 -0.047166485 0.23530892 -0.014749558 -0.05070519 -0.15881327 -0.11300975
-0.2131643 -0.048367288 0.062372528 0.18553191 0.20525315 -0.0027164463 0.15182245 -0.036451552
-0.24252442 -0.18135244 0.16029133 0.35516456 0.08082649 0.28780326 -0.38155568 0.13282442
-0.15806487 0.17427437 -0.047021993 -0.10614681 0.2973514 0.07276514 0.15174203 -0.0402378
0.22119756 0.2989679 -0.11835111 -0.19727357 0.17356744 0.019438015 0.014104337 -0.055529114
0.21721676 -0.09420438 -0.20831206 0.069858216 0.27046764 0.11660513 0.07817761 -0.1572875
0.08868596 0.26524153 0.26364154 -0.17909616 0.014951162 -0.019635737 -0.08248985 0.277016
0.14127539 -0.0893448 -0.3646201 -0.16900972 0.0579501 -0.33545232 0.0012147885 0.099032626
-0.079437144 -0.22062713 -0.051940277 0.21840458 -0.09870795 -0.23639257 -0.19307727 -0.06783088
0.110185154 0.041948054 0.24620453 0.035772704 -0.4998233 -0.30753827 0.17391798 0.13000578
0.30410212 -0.20179027 -0.07982159 -0.12609498 -0.05242431 0.09358748 0.12608945 -0.10233677
-0.015839377 0.22970556 0.20731859 -0.0069947746 -0.34961385 -0.041199096 0.09791133 -0.22050342
-0.31687024 0.13027795 -0.22570996 0.20630598 0.1037669 0.12411475 0.18690306 0.007577106
0.22050136 -0.13373528 -0.24431498 -0.15250799 -0.2873133 -0.19021961 0.034147497 -0.09693978
0.10869112 0.13452274 -0.13449278 -0.27038267 -0.009783417 -0.10996246 0.11176814 0.061315257
0.14848553 -0.14686263 0.19285102 -0.07580696 -0.18941471 0.004226326 0.022545272 -0.053693466

rnn.bias_ih_l0_reverse f4 [32]
00000000: 3715 4a3d 5da4 b33d 59bb ebbc 9bf7 26be
00000010: 0840 283d 01f3 2bbe ee3d 75be 8271 babd
00000020: baff 67be 41dc 4bbe 701a 2ebe 31a9 f73d
00000030: 9189 2a3d fd24 c0bd befa 413d 20c1 263d
00000040: 9de9 0a3e 07de 64bd 975e 11bd 05f8 d3bd
00000050: 8cd4 e33d ba31 7f3d ebd2 b93d 3537 0f3d
00000060: 9116 d9bc 82e1 32bd 2c76 b53c fb4c 88bd
00000070: 63ee 07be 2153 2c3e 6309 01bd f44a 233e
0.04933664 0.08771584 -0.028775858 -0.16305391 0.04107669 -0.16791917 -0.23949406 -0.09103681
-0.22656146 -0.19908239 -0.17002273 0.120928176 0.0416351 -0.09382055 0.047358267 0.040711522
0.13565679 -0.055875804 -0.0354906 -0.1035004 0.111245245 0.062303282 0.090734325 0.03496476
-0.026500018 -0.043672092 0.022151075 -0.06655308 -0.13274531 0.16828586 -0.031503092 0.15946561

rnn.bias_hh_l0_reverse f4 [32]
00000000: c019 343e bb4d a9bb 1a2a c83d d04b 983d
00000010: 0165 a9bd f025 d83d 71d8 9bbd c57f 883d
00000020: 76d7 39bd d1a9 efbd e21f 13be e2b6 c03b
00000030: d5c4 f5bc 3881 173e 481d 46bd 5abd 023e
00000040: 6f6e 823e ccd5 373d 6516 393e 2432 dabd
00000050: 065e 32be b864 133d 34d7 73be 2809 bf3c
00000060: 4c40 b83c 75f9 803d 1cc4 0abe 97fd b9bc
00000070: 96c2 3f3e 6151 453e d23b 273e 2d09 9e3d
0.17587948 -0.005166737 0.09773655 0.07436335 -0.08271218 0.10554111 -0.07609642 0.06664995
-0.045371495 -0.11702312 -0.14367631 0.0058811763 -0.030001083 0.14795387 -0.04836777 0.12767544
0.2547488 0.044881627 0.18074949 -0.10654095 -0.1741868 0.035984725 -0.23812562 0.023319796
0.022491597 0.0629758 -0.13551372 -0.022703929 0.18726572 0.19269325 0.16331413 0.07716594

fc1.weight f4 [12, 64]
00000000: 640d ebbe 18df 06bd 13d0 e73e b559 c53e
00000010: 027b 6c3e 450f 6cbe 7e56 8e3e 99e1 88be
00000020: 2be2 57be ae6e 913e 5f31 02be d88e 6e3e
00000030: 76d6 363e cbaa 8abe ef24 71be 3b55 7ebe
00000040: 0b8b 363e 2dd9 863e 6bdd 6c3e f891 733e
00000050: f634 9e3e cba6 8dbe 5a95 333e cfd1 8b3e
00000060: 7707 683e 3611 67be 01d6 00be ac7a ac3e
00000070: 8abb b1be 70a2 d73e cf18 b3be e8d6 423d
00000080: a9c5 613e 19f8 eabe 3b46 953e 234a 80be
00000090: b32a 8b3e 0def 84be cc89 80be 137a aebe
000000a0: 14dc b3be 780e 7ebe 9302 fe3d 753c ae3e
000000b0: 6aa3 a7bc 1201 043e 15dc 4f3e a7de 82be
000000c0: 80b4 9b3e bdfa c8be 3861 103e 6e2c ea3d
000000d0: 4658 e3be c106 e9bd 350c 6abe e653 2ebe
000000e0: 37b8 b8be 7d81 663e 3961 18be 008a a43e
000000f0: 4235 123e 8d23 3e3e 7bac 923e b161 41be
00000100: 3a75 ad3e b13a efbc 1440 61bd e686 00be
00000110: fb55 f93d 4b74 503e 706d e9be eefd cc3e
00000120: 76cc e0bd af1c 12bf 20df b43e 9243 debe
00000130: 959f e5be cf75 bebe 200f 143d 57af a8bc
00000140: 7d2e 86be 0491 023e 7ed2 4f3e 5f8c 983d
00000150: ffbc 9fbe 03c3 363e 34c4 0bbf 4785 5dbe
00000160: a2ef d53e 1689 a5be 730e c4be 255d a73e
00000170: 33de 8e3e 3e24 573d 321e a2be 18ac 103e
00000180: 449b d9be faa5 503c 54ef 643e 09db fb3e
00000190: cef4 35be c9f6 16bf c9c0 aa3e 3a26 1a3d
000001a0: 5454 8abd e9e4 923e bb1f 09bf 0d2f 18be
000001b0: e70b 2cbf 732e e23e 5b97 ef3e dff0 043f
000001c0: 0ade febe c9a4 533d cc01 3fbe 33ed ba3e
000001d0: 7699 803e 8ece 863e 3db2 afbe 2934 2c3f
000001e0: bd91 e73e b79c 21bf 1a6e 0bbe 9ada 27bf
000001f0: 7ada 08bf c2b7 383d e1de b23d 13a4 80bd
00000200: a870 ee3e 4170 04bf 8460 74be 93c2 1b3d
00000210: ab22 03bf dee1 403c 8be6 19bf 061c a1bc
00000220: cf8a 493f 7dca d5bd b4f9 17bf bcc7 34bf
00000230: 82e3 02be 9c31 b03e 10ee 81bd 1885 4a3e
00000240: ef30 d53e d1da 60be 27fa 19bf 7897 c5bd
00000250: 3de2 12bf c0c5 c83e 1c8d ff3d c53a 84b9
00000260: b4e3 feba acf3 a13e 1140 cebd 0bed 403d
00000270: 7bf1 c4be f78b 2dbf 0b58 013f 22f0 51be
00000280: 3cb4 0abe 40be dd3e a370 83bb 320a 8e3e
00000290: 447b 79be 6cb7 1f3f 698e d33d f64f 0c3e
000002a0: 85f3 d03d c37b b3be 4176 f6be 25f0 debb
000002b0: 969d d43d 07bf 25be 0870 7bbe 4baf f53e
000002c0: 50aa bf3e cf00 8f3e bf85 fbbe 5c65 813e
000002d0: c26b abbe 96df 123f 801e 843c b588 98be
000002e0: 1419 24bf 055d 49bf a6ce b03e 82a7 f2be
000002f0: d9a0 3abf 9055 e3be 5d4d f03d 4873 1f3f
00000300: fdcc e4be bd1d afbe c06a 14bf 6cfc d63e
00000310: 9796 41bf a3b6 213e 216e c03e fa85 01bf
00000320: c640 62be 9f79 aebe 426b ebbe 8854 f5be
00000330: a29d 22bf 5688 0cbe 0863 2b3f cecf f63e
00000340: d5df d3be fa5f a5be faf6 d83d 79c8 723e
00000350: 5d68 be3e e05c 8e3e 2aca 293e 053e 37bf
00000360: 41a0 b2be 8734 033f 302a 0d3f 0e5c 3f3e
00000370: f7e8 eabd f3a5 d5be f292 48bb d319 85be
00000380: 7d68 153f b79c 483e 3475 4f3d ec62 393e
00000390: a310 c6be 2e64 16be 4eb2 b5bd 913d b1bd
000003a0: bd5a 03be 774a a2be 94ca e5be 8813 b3be
000003b0: 371d c2be 18e7 48be c37b 14be 6906 a03e
000003c0: 5f1e d03e 6a1a 073e a80e 923e 0d7b 613e
000003d0: 1c54 c83e 83fb 433f 0be5 52be b261 2b3e
000003e0: 8768 4abe 1b8f c7be 76f6 eb3e f9f9 2cbf
000003f0: 4caf 133e e581 c03e cca8 02bf 57b4 293f
-0.45908654 -0.032927603 0.45275936 0.38545004 0.23093799 -0.230527 0.27800363 -0.26734617
-0.2108237 0.28404754 -0.12714146 0.23296678 0.17855248 -0.2708343 -0.23549245 -0.248372
0.17826478 0.26337567 0.23131339 0.23786151 0.3089978 -0.27666315 0.17537442 0.2730851
0.22659098 -0.22565159 -0.12581636 0.3368734 -0.34713393 0.42116117 -0.34979865 0.04756823
0.22048058 -0.45892408 0.29155144 -0.25056562 0.27181014 -0.2596363 -0.2510513 -0.3407751
-0.35128844 -0.24810207 0.12402835 0.340305 -0.020463664 0.12891033 0.20298798 -0.25560495
0.30411148 -0.39253798 0.14099586 0.114342555 -0.44403285 -0.11378241 -0.22856219 -0.17024192
-0.36078045 0.22510333 -0.14880838 0.32136536 0.14278129 0.18568249 0.28647217 -0.18884923
0.338785 -0.02920279 -0.05499275 -0.1255146 0.121746026 0.20356862 -0.45591307 0.40037483
-0.10976498 -0.5707502 0.3532648 -0.43410927 -0.44848314 -0.37199256 0.036147237 -0.020591421
-0.26207343 0.12750632 0.2029514 0.07448649 -0.3119888 0.17847829 -0.5459626 -0.21632873
0.41784388 -0.3233115 -0.38292274 0.3268825 0.279039 0.052524798 -0.31663662 0.14128149
-0.4250127 0.012734884 0.22356921 0.49190548 -0.17769167 -0.58970314 0.33350208 0.037634112
-0.067543656 0.2869027 -0.5356404 -0.14861698 -0.6720566 0.44176063 0.46795163 0.5193004
-0.49778777 0.051670823 -0.18653029 0.36509094 0.2511708 0.26329464 -0.34315673 0.6726709
0.45228377 -0.6312975 -0.13616219 -0.65567935 -0.5345837 0.04509712 0.08733917 -0.06281295
0.46570325 -0.51733786 -0.23864943 0.038027357 -0.51224774 0.011772601 -0.60117406 -0.019666683
0.7872743 -0.10439012 -0.5936539 -0.7061727 -0.127821 0.3441285 -0.06344235 0.19777334
0.41638896 -0.21958472 -0.6014733 -0.09648031 -0.5737646 0.3921337 0.12478086 -0.0002522079
-0.0019446523 0.3163122 -0.100708134 0.04710106 -0.38465485 -0.67791694 0.5052497 -0.2050176
-0.13545316 0.43309212 -0.00401123 0.27742153 -0.24363428 0.62389255 0.10329897 0.13702378
0.10202698 -0.3505536 -0.48137096 -0.00680353 0.1038162 -0.16186152 -0.24554455 0.479853
0.37434626 0.27930304 -0.49125478 0.25272644 -0.3348065 0.57372415 0.016127825 -0.297918
-0.64100766 -0.7865756 0.3453266 -0.47393423 -0.72901684 -0.44401217 0.11733506 0.6228528
-0.44687644 -0.34202376 -0.5797539 0.41989458 -0.75620407 0.15792327 0.37584022 -0.50595057
-0.22095022 -0.34077165 -0.4598027 -0.47916055 -0.6352178 -0.13723883 0.66947985 0.48205417
-0.41381708 -0.32299787 0.10593982 0.23709287 0.37188998 0.27805233 0.16581026 -0.7157901
-0.3488789 0.51252025 0.551425 0.1868746 -0.11470216 -0.41728172 -0.0030605164 -0.25996265
0.5836256 0.19591032 0.050648883 0.18104142 -0.38684568 -0.14686653 -0.088718995 -0.08654321
-0.12827583 -0.31697437 -0.44881117 -0.3497584 -0.37912914 -0.19619405 -0.14500336 0.3125489
0.4064817 0.1319367 0.28526807 0.22019596 0.3912667 0.7655565 -0.20595185 0.16736487
-0.19766437 -0.38976368 0.46086472 -0.6756893 0.14422339 0.37599102 -0.51038814 0.662908

fc1.bias f4 [12]
00000000: 522b d83b 20b8 8ebd bbd4 fbbe 1a93 4ebe
00000010: a54a 30bf 40ba 28be fa70 0abe d1aa a8bd
00000020: 00c2 8ebd fda7 22be 0aff 78bd c7c0 3dbd
0.006596961 -0.06968713 -0.49185738 -0.20173302 -0.688639 -0.16477299 -0.1351966 -0.08235706
-0.06970596 -0.15884395 -0.0607901 -0.046326425
