src/src_learner/kotlin_finetuning_model.pt (torch, 138692 bytes, 11 tensors)

word_embeddings.weight f4 [178, 128]
000000 b8 2c b6 bf 95 3a 13 bf da 9f 43 bf ad a0 cc bf
       -1.4232397 -0.57511264 -0.7641579 -1.5986534
000010 6a cb cc 3c d7 43 21 bf 62 07 8e bf 58 4c dd bf
       0.02499934 -0.6299414 -1.1096003 -1.7288923
000020 56 c5 34 bf 8e 33 98 3e 44 64 05 bf 92 bb fe bc
       -0.7061361 0.29726833 -0.5210612 -0.0310953
000030 09 c4 97 be ff d8 ea 3f df 22 c4 3e 09 15 f7 3e
       -0.2964175 1.8347472 0.38307855 0.48258236
000040 5f fe 2a bf ad 35 80 bf 6c f9 37 3f 54 42 6c 3e
       -0.6679439 -1.001638 0.7186496 0.23072177
000050 4a e7 6e 3f b5 8d 6f 3e 60 cc e5 be 87 18 43 3f
       0.9332167 0.233939 -0.44882488 0.762093
000060 51 1e 9c 3f 3f f7 bd bd 33 9f 0b c0 78 8e ac bf
       1.2196752 -0.09275674 -2.1815917 -1.3480978
000070 25 89 60 bd 18 16 01 bf 09 20 6b bf f7 26 b5 bc
       -0.05481829 -0.5042434 -0.91845757 -0.022113306
000080 be 9f f1 3f ec 58 57 be ad 33 cb bd fc 85 28 bf
       1.8876874 -0.21030015 -0.09921966 -0.65829444
000090 fc bf 4b 3e 3f a7 75 bd 75 d4 2c bd 05 d2 e4 be
       0.19897455 -0.05997395 -0.042194802 -0.44691482
0000a0 94 ae 21 be 2b 3f e8 3e 01 fd 78 bd 79 a6 64 3e
       -0.15789253 0.45360693 -0.06078816 0.2232913
0000b0 b4 f2 15 40 a3 20 88 bf 75 b7 ca 3f 59 07 48 bf
       2.3429384 -1.063496 1.5837237 -0.7813621
0000c0 f1 32 4e bf d5 fc 11 3f 93 13 b1 bd 3d 02 1c bf
       -0.8054648 0.57026416 -0.086463116 -0.60940915
0000d0 07 29 4c 3f c2 7c 95 3e 41 0a 87 3f be 3e 0d 40
       0.797501 0.29196745 1.0550004 2.2069545
0000e0 5d b6 0b 3e aa 28 6c 3f 81 c2 6c be eb c5 e2 be
       0.13643785 0.9224955 -0.23121072 -0.44291624
0000f0 3d c0 d2 3f 4f 0c 4a bf e8 6b 4a c0 c9 26 4c bf
       1.6464916 -0.7892503 -3.162836 -0.7974668
000100 56 07 6d 3d c5 be 6b bf 78 16 18 bf 95 96 73 bf
       0.057868324 -0.92087966 -0.59409285 -0.95151645
000110 e5 f9 c9 be 09 d3 a1 bd 96 91 e1 3f 84 d4 ed bd
       -0.39448467 -0.0790158 1.7622554 -0.116128
000120 cf f2 5d bf b1 a4 3e be 6a 94 78 bf b2 36 4a bf
       -0.8669862 -0.18617512 -0.9710146 -0.7898971
000130 95 99 f5 be 6d 64 f7 be 4d d7 f1 3e bd ec 70 bf
       -0.47968736 -0.48318806 0.47234574 -0.94111234
000140 cc 70 e6 be 17 e6 60 bd 8c 81 43 bf 52 39 4f 3f
       -0.45007932 -0.05490693 -0.7636955 0.8094684
000150 48 5f b8 bf 63 3c b7 be 72 34 0c 3d 14 cf 80 be
       -1.4404078 -0.3578826 0.034229703 -0.25157988
000160 5a 10 bd 3e a7 22 15 bf 47 f4 8a bf 8f 70 56 3f
       0.36926538 -0.58256 -1.0855798 0.837655
000170 d6 49 78 bf 6c a1 9b be ef 9b e0 3d ce 17 fc 3f
       -0.96987665 -0.30396593 0.10967242 1.9694765
000180 a2 73 2c 3f 3e f5 97 3f b5 e8 6d 3f a9 e1 68 bf
       0.6736394 1.1871717 0.9293321 -0.9096933
000190 22 7c c6 3f 27 ca 4a bf d3 cf 42 bf 27 2f 8c 3f
       1.5506632 -0.7921471 -0.76098365 1.095189
0001a0 a5 11 b0 3f 48 0e 10 3f f5 9b 8b 3d 88 4f 52 be
       1.3755385 0.5627179 0.06816856 -0.20538151
0001b0 8c b1 05 c0 51 5e 29 bf dd f7 bc bf d7 72 75 bf
       -2.0889616 -0.6615954 -1.4763142 -0.95878357
0001c0 92 aa 4c 3f 33 47 3b bf a6 29 af 3f bf 61 3a 3f
       0.7994777 -0.73155516 1.3684585 0.728054
0001d0 49 57 a2 3e 07 ac ce 3e 97 7f 23 3f 1f 43 bf be
       0.31707218 0.4036562 0.6386656 -0.37355897
0001e0 c1 d6 1d 40 2f 54 4b 3b 97 46 03 be 0c f7 03 40
       2.4662325 0.003102552 -0.12819897 2.0619535
0001f0 b4 d7 04 c0 42 98 e6 3f 68 86 d8 3d 91 d7 5b 3e
       -2.0756655 1.8015215 0.10572511 0.21468951
000200 86 5d 36 3f 97 64 e3 bf bd 2d b5 3e ed 8c 99 3f
       0.71236455 -1.7765073 0.35386458 1.1996132
000210 7a 22 9b be 07 84 e1 bf 2d 85 22 3f 7a ea 4d bf
       -0.3029974 -1.7618417 0.6348446 -0.8043591
000220 e9 38 ce bf 03 91 ef bf 87 07 0b 3f 3c 22 29 3f
       -1.6111118 -1.8716129 0.5430836 0.6606786
000230 bf e4 12 40 a3 c6 2c 3f 1f 4e db 3f c0 aa e5 bf
       2.2952116 0.67490596 1.7133216 -1.7942734
000240 8a 7f ae bf 48 b4 7b bf 30 71 c1 3f a4 51 24 3f
       -1.3632672 -0.9832196 1.5112667 0.64187074
000250 50 28 f2 3e 29 70 db be a2 26 0d 3f 40 10 c6 bf
       0.4729638 -0.4285901 0.55137074 -1.5473709
000260 ff a2 04 3f 35 2f da 3d ed d9 89 3e ff 91 a9 3f
       0.5181121 0.10653535 0.26924077 1.324768
000270 8e 7d df 3f a0 6f ed 3f 9b d4 34 bf 4d a7 23 40
       1.7460191 1.854969 -0.7063691 2.5570862
000280 0e c7 d5 3e e8 d2 59 be 7d 07 57 bf 95 0c d7 be
       0.4175343 -0.2127186 -0.839958 -0.42001787
000290 d8 c0 1f bf 14 30 7a bf b3 f5 5f 3f 79 be 7c 3f
       -0.6240363 -0.9772961 0.8748428 0.9872814
0002a0 ca 80 9e 3e f8 a5 c2 3f 1b 45 9a 3f 49 65 e8 bf
       0.30957633 1.52069 1.2052339 -1.815591
0002b0 83 92 ce be 8a 8a 75 bf 63 a5 aa bb ff 82 a1 bd
       -0.40346155 -0.9591452 -0.005207704 -0.07886314
0002c0 ba f9 57 3f b3 35 95 3f 07 e5 06 3f b1 43 cf 3f
       0.8436543 1.1657013 0.5269322 1.6192533
0002d0 26 c7 76 bf b8 ea 10 3e bd 96 27 be f3 68 b7 be
       -0.96397626 0.14152038 -0.16366096 -0.35822257
0002e0 a6 73 dc 3f 43 6e 9b be 70 9b 74 3e 3b 08 ac 3f
       1.7222793 -0.3035756 0.2388742 1.3440012
0002f0 fe 67 d3 3d 68 d8 8c 3f b5 f0 ae be cd 84 72 3f
       0.10322569 1.1003542 -0.3416802 0.9473389
000300 43 8a 11 bf b4 6c 56 3f fe 4e e4 3f 67 1d 48 be
       -0.56851596 0.8375962 1.7836607 -0.19542466
000310 8b d1 03 3f 25 7a ec bf e9 ab 3a c0 88 3c 11 bf
       0.5149161 -1.8474776 -2.9167426 -0.5673299
000320 57 91 0a bf 20 2a 65 3f fb eb 61 bf c8 24 08 3f
       -0.5412802 0.895174 -0.882507 0.53181124
000330 07 dc c5 bf 82 75 31 be 5a 6e 3a 3f d1 b8 69 3d
       -1.5457772 -0.17329982 0.72824633 0.05706102
000340 fa cf 67 3f fd ec 85 3f d8 45 05 bf 8e 69 ad 3f
       0.9055172 1.0462948 -0.520597 1.3547838
000350 78 d6 70 3e ed 05 f5 3f 85 0f eb 3f 47 8a a9 3f
       0.23519313 1.9142433 1.8364111 1.3245324
000360 fc 10 78 bf 9f 35 a0 3f e7 eb 9a 3f ce 25 07 bf
       -0.96900916 1.2516364 1.2103242 -0.5279206
000370 ce cf 5f 3e cd 05 13 bf 13 83 ba 3f ad ae e2 3f
       0.21856615 -0.57430726 1.4571251 1.7709557
000380 60 30 d3 3f b4 2f dd be 0a c4 8a be 7b 36 b8 bf
       1.6499138 -0.43200457 -0.2710269 -1.4391626
000390 05 9f 9f 3f 8e 0d a3 3f 80 2a c8 3e 74 40 c6 3e
       1.2470404 1.2738512 0.39094925 0.3872105
0003a0 3d 7d a3 bd 7d f6 ae 3e 59 e6 72 3f d0 24 b1 bf
       -0.07982872 0.3417243 0.9488273 -1.3839359
0003b0 dc ae dc 3f 50 58 17 c0 1e f3 6d bf 0e 56 96 3e
       1.7240863 -2.3647652 -0.9294909 0.2936253
0003c0 92 4b 5c 3e 28 3f 70 3f 4f 9c bb 3f 1b 75 0e bf
       0.21513203 0.9384637 1.4657077 -0.5564744
0003d0 e3 ad 3e bf 4d 02 4f be 10 2e 6b be 3e 80 ae 3a
       -0.7448408 -0.20215721 -0.2296679 0.0013313366
0003e0 2a 24 c0 3e de c0 14 bf d5 82 12 bf 6c 3e 81 3f
       0.3752759 -0.5810679 -0.57230884 1.0097175
0003f0 b5 5e d8 bd 47 00 97 bf a7 ea b9 bd 43 28 10 3f
       -0.10564939 -1.179696 -0.090779595 0.56311435

rnn.weight_ih_l0 f4 [32, 128]
000000 3a 80 67 3c 80 df 12 be ae 9f b2 bd 89 ea c2 bd
       0.014129693 -0.14343071 -0.08721863 -0.0951739
000010 48 ea a2 bd f5 3f 67 bd cb bd 43 3e 0d 9f dc 3c
       -0.07954842 -0.05645748 0.19115369 0.02693131
000020 85 03 82 bd fc a7 1e 3e 9e cd 0d bd d4 a8 75 3d
       -0.063483275 0.15493768 -0.03461992 0.05997546
000030 8e 4b fc 3d b5 a4 5c 3c 76 59 b7 bd c3 c0 1c bd
       0.123190984 0.013467004 -0.0895261 -0.03826977
000040 d0 2e b4 bb f1 03 99 bc 31 90 7a be ea fe 1a bd
       -0.0054987445 -0.018678637 -0.24469067 -0.03784076
000050 38 44 3f be e5 05 84 bd 47 2e fd bd ae c7 90 bd
       -0.18678367 -0.06446437 -0.12362342 -0.07069336
000060 11 0d be 3d cb c8 93 bd 6e 66 1e 3e f0 8f c7 bd
       0.09279836 -0.072160326 0.15468761 -0.09744251
000070 8a c2 2f 3e 92 b7 5a be af 7d 38 bc 80 88 d5 bc
       0.17164055 -0.21359089 -0.011260434 -0.026066065
000080 7c 73 ff 3d 1a 7b 42 3e 07 0c ec 3c 96 db 45 be
       0.12473199 0.18992272 0.028814329 -0.19322047
000090 fa cb bd 3d 3f 78 f0 bd 62 90 a5 bd 28 9e c8 bc
       0.09267421 -0.11741685 -0.080841795 -0.024489477
0000a0 0a f3 d5 3d 49 8a 5d be 08 af 1d 3e c6 a9 50 be
       0.10446747 -0.21634783 0.153988 -0.20377263
0000b0 5e ba 40 3d 8f 67 ae bd ab 5b 0d 3e b6 7d 04 bd
       0.047052734 -0.08515846 0.138045 -0.03234645
0000c0 21 76 ef 3d 1e 7c 62 bd 61 29 55 bd 16 0d 6c bd
       0.11692453 -0.05529415 -0.052041415 -0.057629667
0000d0 4f 37 5a bd 96 44 ce 3d d9 57 01 be 20 5d b9 3c
       -0.053275403 0.100716755 -0.12631167 0.022627413
0000e0 cc b5 90 3d 02 cc 39 3e 5f ee 7c ba 41 e2 27 3c
       0.07065925 0.18144229 -0.0009648557 0.010246814
0000f0 35 20 a3 bc bf 74 28 3d f6 63 3d be 9f ca 06 be
       -0.019912818 0.041126963 -0.18495163 -0.13163231
000100 ed 87 51 bd 97 52 54 bd cc f7 f2 bd 59 23 3f 3e
       -0.05115502 -0.051836576 -0.1186367 0.18665828
000110 65 29 50 be ac 37 56 3d a4 0d 01 3e 11 79 0c 3c
       -0.20328291 0.052299187 0.1260286 0.008573786
000120 f8 7f a6 3a f2 06 fe 3d 91 63 cc bc ed ff b2 3b
       0.0012702933 0.124036685 -0.02494982 0.0054626376
000130 8e 89 07 bd 00 6d 80 bc 3e bf ee 3d 35 fe 2c be
       -0.033090167 -0.015676975 0.1165757 -0.16893847
000140 d7 7e 65 be 0c f6 bd 3d 44 54 18 bd 47 88 ae bc
       -0.22411667 0.09275445 -0.037189737 -0.021305216
000150 45 79 20 be a5 17 f4 3d 52 98 89 3d 0d c7 f2 3d
       -0.1567126 0.11918572 0.06718506 0.11854372
000160 8a b9 b0 bd 46 62 01 3e 8d e7 86 3d 90 59 e3 bd
       -0.08629139 0.12635145 0.065871336 -0.11101067
000170 10 b3 01 be 67 7a 21 be 78 eb 51 be a3 3a 2b bd
       -0.12665963 -0.15769349 -0.2049998 -0.041803967
000180 4d 5c 25 be 20 21 cf 3d 36 d5 8d 3e 87 64 3a 3d
       -0.16148491 0.1011374 0.2770173 0.045506027
000190 c5 85 9d 3c 51 b6 02 3e d7 f9 e1 3a 74 8f b3 3d
       0.019228825 0.1276486 0.0017240596 0.08767596
0001a0 b6 55 43 3b 8f dc d4 bb 93 30 b9 3c 42 b2 5e 3e
       0.0029805726 -0.006496019 0.02260617 0.21747687
0001b0 e6 86 65 3c 25 1c 54 bc 54 23 b8 bd fe 29 1e 3e
       0.014009213 -0.012946163 -0.08991113 0.15445706
0001c0 1d 2d 51 bd 48 03 eb 3c 7b 0c 04 bd fb 9b 47 bc
       -0.051068414 0.028688088 -0.032238465 -0.012183185
0001d0 d9 c4 85 3e 78 38 28 bc 90 16 2f bd d0 ec f5 3d
       0.26126745 -0.010267369 -0.042746127 0.12008059
0001e0 7f 8d 8b 3d dd 74 84 bd 4e 1a 67 3c 14 8e 78 3d
       0.068140976 -0.064676024 0.014105393 0.06068237
0001f0 df d7 ff bd ef 1f 43 be c8 9e 03 be 82 2a 71 bc
       -0.12492346 -0.1905515 -0.12853539 -0.014719607
000200 36 fb 8f bd 5e db 8e 3d ff 90 4c be e6 08 59 3c
       -0.070303366 0.06975435 -0.19977187 0.01324675
000210 18 fe e2 3d ab b0 0c be a6 e3 6e 3d 4a aa 1e be
       0.11083621 -0.13739268 0.05832257 -0.15494648
000220 e1 7f c5 bd 42 44 e1 bc 65 db 64 be a3 92 09 be
       -0.096435316 -0.027498368 -0.22349317 -0.13434844
000230 36 dd 14 be 35 45 54 3d e3 f0 67 bd 47 a5 49 be
       -0.1453751 0.051823813 -0.05662621 -0.19691955
000240 03 41 cb 3d bf 38 9d bd 85 fe 93 bd b3 0d ea 3d
       0.099245094 -0.07676839 -0.0722628 0.11428394
000250 68 6f 6e 3b d5 6c 86 bd 64 cf 31 3d 97 0e 09 3e
       0.0036382321 -0.06563727 0.043410674 0.13384472
000260 26 01 bb bc a7 e1 36 be 06 1f 14 3e f7 fd 11 be
       -0.022827696 -0.17859517 0.1446496 -0.14257036
000270 df 1e 63 bb ff 2e 0d bd 01 00 66 3d 0c d6 56 3d
       -0.0034655852 -0.034468647 0.056152347 0.052450225
000280 72 4b b1 3c d0 45 f5 3d 3a 1d b0 3d 7f ba 78 3b
       0.02164242 0.11976206 0.085993245 0.0037952957
000290 71 47 36 be ad fd c4 3d 95 11 bf bd f4 e0 3c be
       -0.1780069 0.09618697 -0.093295254 -0.18445188
0002a0 f5 9a 9f bd 75 a7 9d 3d b8 b7 50 3e 2a 20 29 3e
       -0.077932276 0.076979555 0.20382583 0.16516176
0002b0 8a df 1c bd 20 8b d2 bd 03 a7 39 3e da b4 e2 3d
       -0.03829912 -0.10280442 0.18130116 0.11069651
0002c0 e7 46 2b be d2 22 08 bd d6 ad 07 be 71 29 8d be
       -0.16726266 -0.033236332 -0.13249907 -0.2757068
0002d0 96 cf 7b 3c 47 8b 09 bd 96 f5 d4 3d 24 98 fc 3d
       0.015369317 -0.03358009 0.10398404 0.12333706
0002e0 9c b7 27 3e ec 1f d9 bd 64 c4 73 bd f6 ba ec bc
       0.16378635 -0.10601792 -0.059513465 -0.028897744
0002f0 14 76 3c 3e 03 bb c7 bd d6 fc c7 3d f8 b2 21 bd
       0.18404418 -0.097524665 0.097650215 -0.03947732
000300 d2 99 35 be ef 2e d9 3d ba 8e cc bc b8 b4 02 be
       -0.17734459 0.10604655 -0.024970401 -0.12764251
000310 d5 67 08 bd 55 0f f7 3d d4 ec 3e bd 46 15 40 39
       -0.033302147 0.12063471 -0.046612576 0.00018318472
000320 a0 99 01 3e 08 16 11 3d 95 06 52 be 69 41 49 3e
       0.1265626 0.0354214 -0.20510323 0.19653858
000330 14 48 79 bd c3 a3 41 3d d4 0e b0 bd 73 64 ab 3d
       -0.060859755 0.047275316 -0.08596578 0.083687685
000340 77 7a 3b 3e 66 4c ad 3d 6a 0d 89 bd 54 63 01 bd
       0.18308435 0.084618375 -0.06692012 -0.031588867
000350 3b 4d 40 3e 91 78 94 bd 6f 69 01 be da f7 03 bd
       0.18779461 -0.07249559 -0.12637876 -0.03221879
000360 ee 50 44 3c 1c f0 47 3e 42 29 01 3d 2c 9d 9f 3d
       0.011982186 0.19525188 0.031533487 0.0779365
000370 13 7d a8 bc 85 32 0f 3d 48 67 5f 3d de c1 e9 3d
       -0.020567453 0.03496029 0.054541856 0.1141393
000380 44 f8 c8 3d e8 44 f2 3d 52 c7 eb 3d 6b ed a4 3c
       0.09812978 0.11829549 0.11512627 0.020132741
000390 60 c3 90 bc cc 4b 93 be 71 df 63 bc c5 aa 22 3d
       -0.017671287 -0.28768766 -0.013908253 0.03971364
0003a0 a4 0c 07 be 27 da 1b 3e d8 37 e0 bd cb cf 31 3e
       -0.13188416 0.15219937 -0.10948151 0.17364423
0003b0 1d d9 95 3c 05 fc a4 3d 05 f5 c6 3d e8 d8 06 3e
       0.018292004 0.080558814 0.097147025 0.1316868
0003c0 97 83 be bd 2a 3a 0c 3d 4f ce 04 3d 43 f0 c3 3d
       -0.093024425 0.034235157 0.032423314 0.09567311
0003d0 6f 76 f2 bd de 42 08 3e 0e c8 f9 bb 2d a4 0c 3e
       -0.11838996 0.13306758 -0.0076227253 0.13734503
0003e0 74 b1 df bd d1 74 92 3d 72 ce 8d bd ff fb 30 3d
       -0.109225184 0.07151187 -0.06924142 0.043209072
0003f0 07 70 28 be 41 84 91 bd 8e 94 58 3d 8c 4f 3f 3e
       -0.16448985 -0.071053036 0.052876048 0.18682688

rnn.weight_hh_l0 f4 [32, 32]
000000 6e cf 0f 3e 77 27 dc 3c 90 05 26 3d 81 61 ae bd
       0.14043972 0.026874287 0.04053265 -0.08514691
000010 cd 23 10 be 38 a6 68 be d2 93 06 bf eb a5 3c bd
       -0.14076157 -0.22719657 -0.52569306 -0.04605667
000020 ff 3d 6a 3e 1f ba fc 3d 08 45 26 be 68 2e 66 3d
       0.22875212 0.12340187 -0.16237271 0.0561966
000030 55 3e 6e 3e 30 fe 4c be f8 76 14 be e8 c8 70 be
       0.23265965 -0.2001884 -0.14498508 -0.2351414
000040 dd 0f 73 3e 71 29 8c be d3 1f d4 3d 3d 50 07 3e
       0.2373652 -0.27375367 0.103576325 0.13214202
000050 3a 9b 2a be 8e 7b a7 be 19 62 80 3e 5e 81 12 be
       -0.16660777 -0.32711452 0.25074843 -0.14307162
000060 f7 b6 44 be 83 f5 ed 3d b4 73 b9 be 41 13 1d 3e
       -0.1921042 0.11619093 -0.36221087 0.15339376
000070 76 2e af bd ed 4c c9 bc c7 5f f1 bd b4 40 88 be
       -0.085537836 -0.024572814 -0.11785846 -0.26611865
000080 43 c4 4c be e0 d6 8b bd 75 9f cd 3d 71 c2 0b 3c
       -0.19996743 -0.068280935 0.1004018 0.008530245
000090 b1 f2 e2 bd f6 28 8b be bd b4 ab 3c 0f 2d df bd
       -0.11081446 -0.27179688 0.020960206 -0.10897266
0000a0 fa 64 1b 3e 47 c4 f8 3d fb 18 87 be 37 4b 2e be
       0.15175238 0.12146812 -0.26386246 -0.1702088
0000b0 69 06 1d 3e 18 f5 dc 3b ea ce 91 be 17 29 80 3d
       0.15334477 0.0067430846 -0.28478175 0.06257837
0000c0 2b a0 29 be 00 4b 98 3d aa f0 e3 3d d4 61 8a 3e
       -0.16565005 0.0743618 0.111298874 0.27027762
0000d0 82 6e 1c 3e 09 fd 0f 3e b8 b9 1d bd db d7 f3 3d
       0.1527653 0.14061369 -0.038507193 0.119064055
0000e0 bf 5f 08 3e 4f c0 38 be 27 b7 d5 3c da 1c 9e 3e
       0.13317774 -0.1804211 0.02608831 0.30881387
0000f0 e7 30 91 be 2a 8b 7d 3e 1c 03 ae be d7 56 45 3e
       -0.28357622 0.24760118 -0.33986747 0.19271408
000100 bc d3 37 3e 09 9b 47 3e fe 15 0f 3e 11 c1 2e be
       0.17951864 0.19492735 0.13973233 -0.17065836
000110 44 d2 06 bd 39 19 11 bd 4c d2 dd 3e 4d ca 4f 3d
       -0.03291537 -0.035424445 0.43324506 0.05073004
000120 c3 f1 d6 3c b3 50 e8 bd 21 cb db 3e ea 04 0a be
       0.026238328 -0.11343517 0.42928413 -0.13478437
000130 5a 81 a6 3e 2b 4c 29 3e fa 0e c6 3d 3b 5f 82 3d
       0.32520562 0.16532962 0.09670825 0.0636582
000140 7b 62 97 bb 21 65 bc 3c 0f ee 59 3d 58 52 65 bd
       -0.004619894 0.02299744 0.053205546 -0.055986732
000150 7b ed b9 3b 14 f6 b1 bd 44 fe 2c bd db 50 57 bd
       0.005674062 -0.08689514 -0.042234674 -0.052567344
000160 8b 4c fb bc 6c b0 06 be 37 f3 7f 3e 9d 19 94 bd
       -0.030676147 -0.13153237 0.24995123 -0.07231448
000170 a0 9e c2 3d df 44 9d 3d ca c7 50 3e 01 e9 bc 3e
       0.095029116 0.07679152 0.20388713 0.36896518
000180 30 1e df bd a3 5d 1b 3e b6 7f 5d bc 92 4c 1a be
       -0.1089443 0.15172438 -0.013519218 -0.15068272
000190 aa 32 8d be 84 25 3d be ac ba 26 be e7 48 62 3d
       -0.27577716 -0.18471342 -0.16282147 0.055245306
0001a0 72 82 e2 be 9f 0c f6 bd 77 06 7c 3e 12 27 2f be
       -0.44240147 -0.12014126 0.24611841 -0.17104748
0001b0 7d fd 10 3e e1 89 6d be 94 02 37 3e 15 60 30 3e
       0.14159198 -0.23197128 0.17872077 0.17224152
0001c0 5f 30 4d 3d b4 9f d2 be 89 41 e9 3e 68 0b 41 3e
       0.05009496 -0.4113747 0.45557812 0.18852007
0001d0 41 9f 97 bb 40 d2 32 be 02 9c 8d 3d 60 57 a3 bd
       -0.004627139 -0.17463017 0.06914522 -0.0797565
0001e0 a0 6c 40 3e 7e 98 d4 bd 9c 74 5b be a0 08 26 be
       0.18791437 -0.10380648 -0.21431202 -0.16214228
0001f0 ab b2 83 bc 6e cf ba bd 10 8c d1 bc 9e be e9 bd
       -0.016076406 -0.09121595 -0.025579482 -0.114133105
000200 5d 9e 33 be 55 2e 32 3e 79 68 71 3e 7e fd 23 be
       -0.1754088 0.17400487 0.2357501 -0.16014668
000210 62 2c f6 3b e0 9a 92 bd d5 6d 94 bd dc 01 11 3e
       0.007512615 -0.07158446 -0.07247511 0.14160866
000220 3c d7 3b 3e a6 92 1e 3e 6b 39 95 bd 9c 9a fd bd
       0.18343824 0.1548563 -0.07286342 -0.12383005
000230 43 a8 98 3d 55 ad 21 3e 6d cb 4e be ae b9 02 be
       0.074539684 0.15788777 -0.20194788 -0.12766144
000240 20 0d 4f 3d 4b 10 2a bb c0 1c 70 3e 87 00 6b bd
       0.050549626 -0.0025949653 0.23448467 -0.05737355
000250 7d 72 1e be 1b ce ba bc 00 13 33 3e b5 be da 3c
       -0.15473361 -0.022803357 0.17487717 0.026702264
000260 2e d3 ec 3b 4e 9f 90 bd 9b b5 1b be dd d2 7a bd
       0.007227323 -0.07061635 -0.15205996 -0.06123625
000270 65 ef 32 bd 4b 58 81 3e 27 bc 70 bb e7 93 30 3e
       -0.043685336 0.25262675 -0.0036733241 0.1724392
000280 48 fb 04 bd 3d e8 12 be 7f 25 01 3e 64 58 5d 3e
       -0.032466203 -0.14346404 0.1261196 0.2161575
000290 4b 0c cb bd b1 ef 8c 3e f2 90 bd be 60 b7 94 3e
       -0.09914454 0.2752662 -0.37024647 0.29046154
0002a0 2d 61 7c 3e 01 3a 8c bd f6 c3 31 be 41 22 9e 3d
       0.24646445 -0.06847001 -0.1735991 0.07721377
0002b0 b4 f7 e9 3d 8b 6d 41 be 6d e2 33 3e 20 c4 8d 3d
       0.11424199 -0.18889444 0.17566843 0.069221735
0002c0 d1 8d 9d bd a2 89 48 be 8b 2a cf bd 73 62 b4 3b
       -0.07693065 -0.19583753 -0.10115536 0.0055049
0002d0 57 fc 25 bd 0d 39 9e be 45 c8 c5 3d 0f bc 65 be
       -0.040523853 -0.309029 0.09657339 -0.2243502
0002e0 df f1 3c bc d6 08 51 bd 48 1f 29 be 2f 05 36 3e
       -0.011532276 -0.051033817 -0.16515839 0.17775415
0002f0 b5 5f 42 3e 83 1f 57 bc 73 28 2e be d9 49 60 be
       0.18981822 -0.013130072 -0.17007618 -0.2190317
000300 f1 18 d4 be a9 d3 25 3e e9 12 14 be 0a 36 50 be
       -0.4142528 0.16194023 -0.14460339 -0.20333114
000310 e1 4c 89 3c 87 a3 64 be 18 e5 be bb 7e 93 41 3e
       0.016760292 -0.22328006 -0.00582565 0.1890392
000320 37 25 ae be 0e 02 f4 bd c5 62 bc be 02 ac 65 be
       -0.34012768 -0.119144544 -0.36794105 -0.22428897
000330 73 3d 72 3d 92 6e dc 3e b2 5e 06 3d 7b 48 9b 3d
       0.059140634 0.43053108 0.032805152 0.07582184
000340 d3 2d 1b be 1b ff 96 3d 32 9c 89 3d e1 73 c2 bc
       -0.151542 0.07372876 0.06719245 -0.023736896
000350 7f 5f 10 bd db cc c7 be a0 26 97 bd c9 71 f5 bc
       -0.035247322 -0.3902348 -0.07380414 -0.029961484
000360 a7 72 25 be c7 92 07 3e cb f3 4a 3d 6f 1b 34 be
       -0.16157018 0.13239585 0.049548905 -0.1758859
000370 d7 a8 0e be 93 74 cc 3c c7 0c ca 3d 65 e9 02 3e
       -0.13931595 0.02495793 0.09865718 0.12784345
000380 14 d1 50 be 4f 6c eb bc 36 ac 98 3e b9 8b 1c 3e
       -0.20392257 -0.028738169 0.29818887 0.15287675
000390 75 70 2f 3e dc 62 39 bc ae 66 d0 3c 7b 54 63 3d
       0.17132743 -0.011315074 0.025439586 0.05550049
0003a0 39 09 fc bd 48 d9 fd 3c 26 5c c0 be ea fa 16 be
       -0.123064466 0.030987397 -0.37570304 -0.14744154
0003b0 b0 74 a9 be b7 00 fa 3e 37 4c 86 be 4f f8 45 bd
       -0.33096838 0.4882867 -0.26230022 -0.04833251
0003c0 92 5d 6e 3e d4 37 19 3d 57 3d b8 39 46 2a 22 3c
       0.23277882 0.037406757 0.00035140917 0.009897774
0003d0 7e 9d d6 bd 09 2b cb 3d 4c 2f 0b be 7d a5 88 3e
       -0.10479258 0.09920318 -0.13592261 0.26688758
0003e0 62 a5 43 be 11 f0 a1 bd ac 50 f6 3c bd 9f 8e 3d
       -0.19106057 -0.07907117 0.030067764 0.069640614
0003f0 f1 f8 61 3d 2a 8b 94 3c ff fa c4 bd e1 4e 06 3d
       0.05516905 0.018132765 -0.09618186 0.03279007

rnn.bias_ih_l0 f4 [32]
000000 85 c1 07 3d ad e1 ca 3d 02 03 30 3e 01 e8 b1 3d
       0.03314354 0.099063255 0.17188647 0.08686829
000010 86 68 d7 3d ab ac d3 bd a0 cc 83 3d ff 6e 13 3c
       0.10517983 -0.10335668 0.064355135 0.0089986315
000020 2d d2 21 3e ca 1a 08 3e c1 f2 00 be cf f9 42 be
       0.15802832 0.13291469 -0.12592603 -0.19040607
000030 eb b0 a1 3d 8a ba 0e be 09 9d 9d bd 9d fd 07 be
       0.078950725 -0.13938347 -0.07695968 -0.1328034
000040 c8 a4 9e bc 54 8a 31 bb a3 48 9e 3d 27 25 5a 3c
       -0.019365683 -0.0027090507 0.07728698 0.013314522
000050 ea e2 1f 3d f2 bc d3 bd dc e6 51 3e ed 64 5a 3d
       0.03903476 -0.10338773 0.20498222 0.053318907
000060 b6 b6 9a bd fd 96 34 be d6 f9 87 bb a0 75 05 3e
       -0.075543806 -0.17635722 -0.004149656 0.13033152
000070 dd 26 f8 bd 43 ed cf bd 26 df 2a be 8c eb 62 3d
       -0.121167876 -0.10152676 -0.16686687 0.055400416

rnn.bias_hh_l0 f4 [32]
000000 00 cb 98 bd 39 6c d4 3d 4a 74 1b 3e 32 8c 62 3e
       -0.07460594 0.10372204 0.1518108 0.22123793
000010 60 84 5d 3d 7d 11 0e bd ec 44 d8 3d 3b 3f 48 3d
       0.05408132 -0.034684647 0.10560021 0.048888426
000020 c1 d5 76 bd ac a8 d2 bd 69 23 18 3e 86 b9 cb bd
       -0.060262445 -0.10286078 0.14857258 -0.09947495
000030 94 42 32 bd c6 ee 08 bc 7c fb f3 bd 9f 97 8e 3d
       -0.043520525 -0.008357709 -0.11913201 0.06962513
000040 bc f3 88 bc 49 38 52 3d 71 8e 29 3e 44 f1 c8 3d
       -0.016717784 0.05132321 0.16558243 0.09811643
000050 de d9 a9 bd e0 57 53 3d 0d ee b8 3b a6 84 45 be
       -0.08293508 0.051597476 0.0056436122 -0.19288883
000060 ea d6 a8 bc aa 57 a4 bd 0e cf 50 3c b5 38 68 3e
       -0.020610292 -0.08024533 0.012744678 0.22677882
000070 52 67 df bc 11 9b 42 3e c0 2b 86 be 26 dd 71 3d
       -0.027270947 0.19004466 -0.26205254 0.059048794

rnn.weight_ih_l0_reverse f4 [32, 128]
000000 bb a7 33 3e 1a fc 86 3d fd 58 bd bd c2 06 11 3d
       0.17544453 0.06591053 -0.09245489 0.035406835
000010 37 f1 d0 3d be e4 9c 3d 0f 32 44 3e a8 b0 be bd
       0.10202258 0.076608166 0.19159721 -0.09311038
000020 a9 e9 88 3d f1 fe 8a 3d 74 75 b3 bd ef cc 20 bd
       0.06685192 0.067869075 -0.08762637 -0.03925794
000030 28 de e4 3d 6a 08 3f 3e bc a6 50 3d 8c dd db bc
       0.111751854 0.18655553 0.05094026 -0.02683904
000040 16 b4 7a bc 43 c5 a8 bc 20 10 25 3e d4 cb 1a 3e
       -0.015301725 -0.020601874 0.16119432 0.15116817
000050 a8 2d f6 3d 24 87 50 be 0d 99 7f bc c2 18 80 3d
       0.12020427 -0.20364052 -0.015600455 0.06254722
000060 96 97 a7 bc 8a fa 27 3e cd ef 00 3e 4e a1 b0 3d
       -0.020458024 0.16404167 0.12591477 0.086245164
000070 c8 12 37 bd 43 e6 78 bb 0c b8 17 3c 51 c2 04 3e
       -0.044695646 -0.0037979044 0.009260189 0.12964751
000080 f7 d0 d8 bd f6 a5 65 be 93 df 5f bd 8b 4c 63 3e
       -0.10586732 -0.2242659 -0.054656576 0.22197168
000090 b0 d2 3d bc 00 2a a1 bd 7f 12 06 be ca a2 98 bd
       -0.011585876 -0.07869339 -0.13092993 -0.074529245
0000a0 ee 0f d0 3d 13 4e 30 3e d7 42 89 3d 8b a5 5c bd
       0.10159288 0.17217283 0.06702202 -0.05386881
0000b0 43 89 4f bc 40 28 70 3e 37 6d bd 3d a5 4c 20 be
       -0.012667003 0.23452854 0.09249347 -0.15654238
0000c0 d1 01 57 3e a0 e3 a6 bd 26 09 b7 bc 34 1d c8 bc
       0.20996787 -0.08148885 -0.02234323 -0.024427988
0000d0 24 0d 51 3e 7c e3 e0 bd f7 1e a6 bd c4 b5 95 3d
       0.20415169 -0.10980889 -0.08111375 0.0731006
0000e0 74 23 1f 3e c2 a5 91 3d 2e 52 64 be 02 d2 8b bd
       0.15540868 0.07111694 -0.22296974 -0.06827165
0000f0 95 a0 7b 3d 81 89 d7 bd 4b 27 84 3d 99 47 8a 3d
       0.06143244 -0.10524274 0.06452807 0.067519374
000100 96 d7 97 3d 56 04 a8 3b 07 e7 af bd 65 ab 78 bd
       0.07414167 0.00512747 -0.08588987 -0.06071033
000110 36 39 57 bd 8d 4e e9 bc 53 74 07 be cf 23 b8 bc
       -0.052544795 -0.028479839 -0.13227968 -0.022478012
000120 b1 71 b6 bd 63 a6 99 3d 35 e9 d7 bd b8 72 d3 3d
       -0.08908404 0.07502439 -0.105425276 0.10324615
000130 4e 7f 23 3e 11 f7 f0 3d 57 e0 9b bd 61 f7 3f 3d
       0.15966532 0.11765874 -0.07611149 0.04686678
000140 6e f7 02 3b d0 29 05 bd 9c 92 00 be f2 a0 3b bd
       0.0019983905 -0.03251058 -0.12555927 -0.045807786
000150 eb 41 b3 bd 1a da e6 3d 2c f6 d1 3d 42 0f 5f be
       -0.08752807 0.11272068 0.10252032 -0.21783164
000160 27 a9 1e bc d5 93 07 be bd 7f de bd 7d 5f 40 bd
       -0.009683884 -0.13239987 -0.10864208 -0.046966065
000170 dc c0 a8 bc 45 aa 0e 3d 43 c7 cd bd 76 32 1a 3e
       -0.020599775 0.03483035 -0.10047772 0.15058312
000180 45 1f ec 3d ef d6 9d 3b de 41 c6 3d 77 3c 10 bd
       0.11529402 0.004816882 0.09680532 -0.035213914
000190 8e 71 96 bd 4f 30 52 3e c7 17 18 be 06 70 6c bc
       -0.073458776 0.20526241 -0.1485282 -0.014431005
0001a0 4a 11 0a be 10 17 32 3e 5c da 05 3d 9e a8 44 bd
       -0.13483158 0.1739161 0.032678947 -0.04801237
0001b0 fa f9 43 3e 07 bc 12 3d c0 86 32 3d 55 fc 40 be
       0.19138327 0.035823848 0.04358554 -0.18846257
0001c0 a8 87 ce 3d 96 b3 06 be 9d 6a 12 3d 2b b7 29 3c
       0.10084468 -0.13154444 0.035746206 0.010358612
0001d0 9f 4d 01 bd 59 94 d1 bd 74 1e eb 3d f7 ef bc 3c
       -0.031568166 -0.10233373 0.11480418 0.023063643
0001e0 83 82 cf bc df e6 68 3c 11 e7 26 be 69 24 04 3d
       -0.025330788 0.0142152 -0.16299082 0.032261286
0001f0 d2 2d 05 bd 0c 3c 79 bc ce 18 d9 bd 7b bf 6b bd
       -0.0325144 -0.01521207 -0.10600434 -0.057555657
000200 51 5c 07 bd a3 87 ed 3d 6e c1 16 3e e8 14 2c 3e
       -0.033047024 0.11598136 0.14722225 0.1680485
000210 b3 33 12 3e 03 e6 0d 3e 58 d6 0e be 55 62 14 bc
       0.14277534 0.13857274 -0.13948953 -0.009056647
000220 e8 58 cc bd ee 7e 12 bd 30 bd 7a bd 3a a7 0d 3e
       -0.09977895 -0.03576558 -0.06121558 0.13833323
000230 ee f9 91 bd df 61 03 be 99 b4 ad bc c8 1b d8 3b
       -0.071277484 -0.12830304 -0.02120428 0.0065951087
000240 23 1c 42 3e ae d0 4a bd c6 a9 c2 bb 86 5a 2e 3e
       0.18956046 -0.04951542 -0.0059406487 0.1702672
000250 b4 84 16 3d 72 e2 e2 3d f0 73 56 3c 01 db 96 3d
       0.03674765 0.11078347 0.013089165 0.073659904
000260 bc 0c fb bc 1c df 80 bc f9 bb ba 3d 87 72 99 3e
       -0.03064572 -0.015731387 0.09117884 0.2997019
000270 4d ae 95 3d 48 0b 0e be 34 9b f5 bb 75 b1 36 3d
       0.07308636 -0.13871491 -0.0074953083 0.04460283
000280 ae 9e d9 bc ca 76 8d bd 04 d6 55 bb 9b 83 c7 3c
       -0.026564922 -0.06907423 -0.0032628784 0.024354747
000290 e4 cb 08 bd 5a 1d 05 be 3f 23 a0 bd 01 fa 0a 3e
       -0.03339757 -0.12999478 -0.07819223 0.13571931
0002a0 fc a3 12 be c6 4d c6 bd 55 36 9f bd 28 15 95 3d
       -0.14320368 -0.09682803 -0.07774035 0.07279426
0002b0 23 0f 96 bd b2 51 c3 3d e2 b2 1a 3e 07 61 58 bd
       -0.07327106 0.095370665 0.15107301 -0.052826907
0002c0 1f 05 0f be 43 ea 55 bd d9 69 47 be cd 44 b4 bd
       -0.13966797 -0.052225363 -0.19473971 -0.08802185
0002d0 45 10 2a 3c ab 1a d6 bd 86 2f 48 bd c2 07 aa bc
       0.0103798555 -0.10454305 -0.048873447 -0.020755652
0002e0 6a 6d ea 3d 37 16 d9 3d d8 63 00 3d 01 03 05 3e
       0.1144665 0.1059994 0.03134522 0.12989427
0002f0 36 4a df bd 92 2d e9 3d 54 b2 dd bd 65 6f f6 3d
       -0.109028265 0.11385645 -0.10825029 0.120329656
000300 66 9d 30 bd 16 4e ef 3d 03 0f a4 bc 13 c2 17 3e
       -0.043118857 0.116848156 -0.02002669 0.14820127
000310 19 0f 00 be 91 bf bc bd ed 8c 2c 3e bd e6 6e bd
       -0.1250576 -0.09216226 0.16850634 -0.058325518
000320 de 69 73 3c 46 39 07 bd ec f2 53 bd d8 3d 26 be
       0.014856784 -0.033013605 -0.05174534 -0.16234529
000330 f7 ba 87 bc 7c 7a da 3d 94 1d 33 bd 5e 16 80 bd
       -0.016568644 0.10667893 -0.04372938 -0.06254266
000340 74 c7 98 3d c0 d7 e5 38 70 a7 b3 bd b8 1f d3 3d
       0.07459918 0.000109597575 -0.087721705 0.10308784
000350 76 0c 18 3e 40 fd a3 3d bb 26 11 be aa 65 61 bd
       0.14848503 0.08007288 -0.14174931 -0.055028595
000360 c3 cf 8d bc 9f 99 1f 3d 1b 73 af 3d 2e 2e 95 3d
       -0.017310983 0.038964864 0.085668765 0.07284199
000370 c4 fd 37 be d9 31 a4 bd 6c 1c 0a be 93 41 95 3d
       -0.17967898 -0.0801732 -0.13487405 0.07287898
000380 b6 8d 24 3d d5 9b 18 3e ae a4 7f be 93 d8 39 3e
       0.04017421 0.14903195 -0.24965164 0.18149023
000390 ba 85 11 be 3f 92 b5 3d e4 30 9f 3d 90 f7 91 3d
       -0.14211169 0.08865785 0.07772997 0.07127297
0003a0 5c 9b 24 bd 89 81 06 3e 91 ea a4 3d cc e6 11 3d
       -0.040187225 0.13135351 0.080525525 0.035620496
0003b0 dc c4 0f 3e 33 46 3d 3e 40 fa 0b be 99 90 33 3d
       0.1403994 0.1848381 -0.13669682 0.04383907
0003c0 72 b4 16 bd 53 68 f8 3d 2a 91 c0 3d 87 60 26 be
       -0.03679318 0.12129273 0.09402688 -0.1624776
0003d0 9c aa bf bd 3d da 4c be a2 35 f8 bc 3b 20 65 3e
       -0.09358713 -0.20005126 -0.030299012 0.22375576
0003e0 2a 72 3d 3e 24 0f 83 be 4c c3 13 be dc fc 8e 3d
       0.18500581 -0.2559749 -0.14429969 0.06981823
0003f0 1e 07 a9 bd c6 f3 d8 3d 71 18 d1 bc d1 09 86 3e
       -0.082533106 0.10593371 -0.02552435 0.26179364

rnn.weight_hh_l0_reverse f4 [32, 32]
000000 26 b3 55 3e 2d 74 9d 3e 1c 25 18 3d c6 83 cc 3d
       0.20869121 0.30752698 0.037144765 0.09986071
000010 85 36 ab bc 76 77 b4 3d 94 02 63 bd ef ec 93 3e
       -0.02090002 0.08811848 -0.05542238 0.28891703
000020 3b f4 f6 3d 89 54 2b be b7 1b 22 bc 87 b1 89 3c
       0.12058302 -0.16731466 -0.009894303 0.016808284
000030 ce 6e 1a 3c bb ce 3a 3d 31 f0 5e 3e cd 19 83 3e
       0.009425832 0.04560731 0.21771313 0.25605622
000040 2e d4 f0 bc a4 91 22 3c ad 0e 8d bd d1 64 1a 3e
       -0.02939805 0.009922419 -0.06887565 0.15077521
000050 65 2e 95 3d b7 4b b4 be 63 9e 09 be d1 d8 82 3d
       0.0728424 -0.35214016 -0.13439326 0.06389011
000060 e0 ad 16 3e b5 8c 20 be d8 d6 84 bd 2f 32 be 3b
       0.14714766 -0.15678675 -0.06486291 0.005804322
000070 cb 64 6e bd 39 9c ba 3e e6 de 52 be 2b c5 70 3e
       -0.058201592 0.36447313 -0.20592842 0.23512714
000080 49 78 2a be 7b 64 12 be f8 a1 d6 bd d0 9e 1c 3e
       -0.16647448 -0.14296143 -0.10480112 0.15294957
000090 0a c9 10 3e 82 d2 b8 3d c9 bb 58 3e 73 6e 00 be
       0.1413919 0.09024526 0.21165384 -0.12542133
0000a0 d5 dd bf 3d be 0e 1d 3d c1 9f 90 be a2 62 8f 3d
       0.09368483 0.038344137 -0.28246883 0.070012346
0000b0 88 aa 20 be 96 ec ee bd 52 d2 96 be 3b 7d 50 3e
       -0.15690053 -0.11666219 -0.29457337 0.20360272
0000c0 6d 92 8f 3e 70 a7 58 3d 0d 8d 4c be fb 01 b4 be
       0.28041402 0.052894056 -0.19975682 -0.3515776
0000d0 85 19 8c bd e9 a1 da 3d fa 6c ed bd 61 1d e1 3d
       -0.06840805 0.10675413 -0.11593051 0.10991932
0000e0 6d 8e 4d 3d a7 27 94 3c 10 62 8f 3e 17 78 16 be
       0.050184656 0.018085314 0.28004503 -0.14694248
0000f0 90 ac 14 be ea be a0 be 0c 28 32 be b4 ba 63 be
       -0.14518952 -0.31395656 -0.17398089 -0.2223919
000100 20 59 c3 3e d5 4d 68 be 8f a9 a5 3e 66 56 4a be
       0.38153934 -0.2268594 0.32355925 -0.19759521
000110 80 27 10 be 3c 0f 41 bd fd 6e 64 be 97 42 45 3c
       -0.14077568 -0.04713367 -0.22307964 0.012039802
000120 c4 bb 89 3d e7 46 02 3d 78 64 67 3e 1f 5a 8c 3d
       0.067252666 0.0318059 0.2259692 0.06853127
000130 11 a6 a3 3d da 7b c0 3d 9b 53 4a 3e 6b ec dd 3d
       0.07990659 0.09398623 0.19758455 0.10836109
000140 0f e6 a3 3d 09 7e c8 bd 7b fd 6f 3e 39 cf 2a 3d
       0.080028646 -0.09789664 0.23436539 0.04170153
000150 fa 52 88 3d 15 f5 0d 3e 51 4c b6 bd 54 63 31 be
       0.066564515 0.13863023 -0.08901275 -0.17323047
000160 05 14 82 bd cc 87 1f 3e 1a 66 8d be 6c aa 13 3c
       -0.06351475 0.15579146 -0.2761696 0.0090128
000170 33 77 7c 3e 51 1c 0d 3e fb 6e 5d bd 47 46 17 3e
       0.24654846 0.13780333 -0.054060917 0.14772902
000180 c1 f6 5e be b4 2a b0 bd 14 c1 dd 3d ce af 2f be
       -0.21773817 -0.08601895 0.10827842 -0.17156908
000190 e7 9e 09 3e d5 c9 da bd 60 6a a0 3d 13 8e 10 be
       0.13439523 -0.10683028 0.078327894 -0.14116697
0001a0 5c 4d 42 be 8a 95 52 be 6e 2b 4b 3e ae 33 d4 3d
       -0.18974823 -0.20564857 0.19840786 0.103614196
0001b0 1f b1 1f be 10 9d 82 be 1b cc 21 3e ba 70 e2 3c
       -0.1559491 -0.25510454 0.15800516 0.027641643
0001c0 74 8b 10 3e 70 e9 34 bd a0 82 5b 3e f6 e0 05 bf
       0.14115697 -0.044167936 0.21436548 -0.5229639
0001d0 b2 ed e3 bc e1 df b7 3c 44 cb 38 3e 03 dc b7 3c
       -0.027823303 0.022445621 0.1804629 0.022443777
0001e0 ff e9 11 3e fe b3 e6 3d dc 78 dd 3c 58 d6 84 bd
       0.14249419 0.112647995 0.02703517 -0.06486195
0001f0 42 35 d2 bd f1 9a d3 bd ef e4 f8 3d 93 47 83 3c
       -0.10264064 -0.10332287 0.121530406 0.01602534
000200 29 f6 60 3e e3 24 72 3b 0d 65 50 bd 45 71 72 3e
       0.21968903 0.0036948256 -0.05087762 0.23676021
000210 5c 23 5b bc 6f 53 46 bd 5f 58 20 be 7a 50 ea bd
       -0.01337513 -0.048419412 -0.15658711 -0.11441131
000220 e1 86 59 be b4 af 45 bd c0 82 84 3d ae 85 3b 3e
       -0.21242858 -0.048263267 0.06470251 0.18312714
000230 37 e0 51 3e 2e ff b4 bb 1f 73 19 3e 0b bc 0d bd
       0.20495687 -0.005523584 0.14985321 -0.03460316
000240 46 fa 7b be 73 61 38 be e9 99 22 3e 4a 94 b5 3e
       -0.2460719 -0.18005924 0.15879025 0.35464698
000250 56 ab a7 3d 1d c5 93 3e ed 90 c2 be 2b 9c 08 3e
       0.081869766 0.28861323 -0.38001195 0.13340823
000260 9a 06 20 be 3e f5 30 3e fa f8 2d bd db 1b d9 bd
       -0.15627518 0.17281052 -0.04247377 -0.10601016
000270 38 f0 97 3e 30 69 91 3d 9f 3e 1c 3e 30 bf 25 bd
       0.2967546 0.07100141 0.15258263 -0.040465534
000280 3a e9 66 3e c4 bb 96 3e 69 23 ea bd 85 9c 4d be
       0.22549906 0.2944013 -0.11432535 -0.20079239
000290 59 dc 36 3e d8 19 80 3c 37 fb 14 3c 9e f1 7d bd
       0.17857493 0.015637323 0.009093097 -0.061998002
0002a0 06 37 57 3e fe 02 d0 bd 49 1c 59 be 71 cd 91 3d
       0.21017084 -0.10156821 -0.21202196 0.07119263
0002b0 d6 88 8c 3e 80 cd ec 3d f9 5e aa 3d bf 11 25 be
       0.27448148 0.115626335 0.08318896 -0.16120051
0002c0 1d 7f c2 3d da 7d 85 3e f2 67 88 3e 01 51 34 be
       0.09496901 0.2607258 0.26641804 -0.17609026
0002d0 10 ad 0f 3c 1e 55 c0 bc e7 40 b2 bd d5 47 8b 3e
       0.008769289 -0.023478087 -0.087037854 0.2720324
0002e0 ff 7d 0e 3e e1 f7 a8 bd 6f 73 bd be 55 6f 26 be
       0.13915251 -0.08250404 -0.3700213 -0.16253407
0002f0 12 f1 7c 3d 1d 81 aa be 7c 01 0b 3c e8 a2 cb 3d
       0.06175334 -0.3330163 0.008484241 0.09943181
000300 c7 05 9b bd 8c 10 6c be 83 f9 31 bd 73 06 5c 3e
       -0.07569461 -0.23053187 -0.043450844 0.21486835
000310 c7 e7 bb bd e4 14 76 be fe e0 4d be 2e 06 9b bd
       -0.091750674 -0.24031407 -0.20105359 -0.07569538
000320 0f 09 d1 3d fd ca 08 3d 2d 99 75 3e a2 74 2a 3d
       0.10206806 0.03339671 0.23984213 0.041615136
000330 ad 97 ff be 92 23 9c be e7 25 38 3e 4d ca fb 3d
       -0.49920407 -0.30495888 0.17983209 0.12294445
000340 34 57 a0 3e b9 ed 56 be 74 69 9a bd 68 9b f9 bd
       0.3131653 -0.20989121 -0.07539645 -0.121878445
000350 f9 69 78 bd 39 11 b9 3d a1 bc f1 3d b3 10 da bd
       -0.06064794 0.09036488 0.11803556 -0.106477164
000360 8e ac a4 bc 12 23 73 3e ae 54 4d 3e 96 f9 20 ba
       -0.020101812 0.23743847 0.20051834 -0.0006140707
000370 6b 8c b0 be 2f 1d 12 bd 49 21 d7 3d ea df 66 be
       -0.3448213 -0.035672363 0.105043955 -0.22546354
000380 a3 36 a1 be 38 5c 0c 3e bc 10 69 be 99 ae 54 3e
       -0.31486997 0.13707054 -0.2276029 0.20769729
000390 e5 8e c9 3d 3e 99 02 3e b5 af 43 3e b9 4c 7b 3c
       0.09841708 0.1275377 0.19109996 0.015338116
0003a0 5c 78 67 3e 33 87 01 be 12 36 78 be b3 be 1b be
       0.22604507 -0.1264923 -0.24239376 -0.15209465
0003b0 bc 49 93 be 97 ea 3f be ee fa 01 3d 01 66 c2 bd
       -0.28767192 -0.18741833 0.031733446 -0.09492112
0003c0 0e 9f d6 3d 60 58 0e 3e 93 d3 0c be b8 77 8a be
       0.10479556 0.139009 -0.13752584 -0.27044463
0003d0 33 fb b7 bb 54 d5 d7 bd a4 44 ee 3d 41 f8 84 3d
       -0.005614662 -0.10538736 0.11634186 0.06492663
0003e0 36 81 15 3e 62 db 1b be a0 63 46 3e ce 26 a6 bd
       0.14600071 -0.15220407 0.19373941 -0.0811287
0003f0 09 4a 42 be 81 8c 73 3b ce 89 80 3c c5 58 4d bd
       -0.18973555 0.0037162604 0.01569071 -0.050133485

rnn.bias_ih_l0_reverse f4 [32]
000000 5c 1b 1c 3d 00 45 cb 3d b8 05 27 bd 34 de 1b be
       0.03811203 0.0992527 -0.04077694 -0.15221483
000010 3f 26 14 3d 6b 63 24 be 8c 04 6a be a1 6d cd bd
       0.036169287 -0.1605355 -0.22853297 -0.10030676
000020 ba 5d 5e be 2d d1 4b be 46 e4 39 be d2 65 e0 3d
       -0.21715441 -0.19904013 -0.18153486 0.10956921
000030 e3 c7 fd 3c 39 fe d6 bd f3 a3 12 3d 05 3a 1f 3d
       0.030979102 -0.10497708 0.035800885 0.03887369
000040 81 12 0a 3e 2f 54 35 bd 31 a5 37 bd 3a c3 ea bd
       0.13483621 -0.044269737 -0.044835273 -0.11463018
000050 94 be fc 3d bc b0 96 3d d5 95 d1 3d cf fe 35 3d
       0.123410374 0.07357928 0.10233656 0.044432458
000060 2d c8 70 bc 5b a9 50 bd e1 a5 09 3d 69 a5 9b bd
       -0.014696163 -0.05094276 0.03360546 -0.07599909
000070 ff 2c 11 be 11 52 20 3e 72 d0 2e bd 21 b7 19 3e
       -0.14177321 0.15656306 -0.042679258 0.15011264

rnn.bias_hh_l0_reverse f4 [32]
000000 48 9b 28 3e 41 bc d0 3b 12 96 af 3d 87 7e ae 3d
       0.16465485 0.006370098 0.085735455 0.08520227
000010 ea 71 b3 bd 1b 45 e7 3d 9e 65 85 bd 4e 07 6b 3d
       -0.08761962 0.11292478 -0.065135226 0.057380013
000020 6b 4f 13 bd a8 93 ef bd b8 e9 1e be ed 7e b3 bb
       -0.03596441 -0.11698085 -0.15518844 -0.005477777
000030 0a 88 26 bd 9b 14 0c 3e 13 74 75 bd 94 db 00 3e
       -0.04065708 0.13679735 -0.05992515 0.12583762
000040 e5 02 82 3e a4 5f 67 3d c1 84 2f 3e 59 fd f0 bd
       0.25392833 0.056487694 0.17140485 -0.11767072
000050 00 e9 25 be 77 94 41 3d c1 f5 67 be 2e 4c 06 3d
       -0.16202164 0.047260728 -0.22652341 0.032787494
000060 62 79 0c 3d 0c 2b 64 3d c8 12 fe bd 95 af 03 bd
       0.034295447 0.055705115 -0.12405926 -0.03214987
000070 fa 83 36 3e 51 50 39 3e 07 ca 1b 3e 81 e1 8a 3d
       0.17823783 0.18097045 0.15213786 0.06781293

fc1.weight f4 [12, 64]
000000 45 a0 e6 be b8 bd 30 bd ee ca e1 3e c2 91 bf 3e
       -0.4504415 -0.04314968 0.44100136 0.37415892
000010 16 91 60 3e 1d 41 61 be 5f c3 89 3e eb e6 85 be
       0.21930346 -0.21997495 0.2690687 -0.2615274
000020 f8 7b 57 be 07 1e 8c 3e 13 ef f4 bd ea 1f 63 3e
       -0.21043384 0.2736666 -0.11959662 0.22180143
000030 39 20 2b 3e 9c b1 84 be 82 26 66 be 68 63 73 be
       0.1671151 -0.25916755 -0.22475627 -0.23768389
000040 15 f3 2c 3e 07 d9 82 3e 96 fc 60 3e 3d b9 67 3e
       0.16889603 0.25556204 0.21971354 0.22629257
000050 b7 c2 98 3e a8 df 88 be 95 ab 27 3e 6d f2 85 3e
       0.29836056 -0.26733136 0.16374047 0.2616152
000060 03 e7 5e 3e ea ec 5a be 0e 9e ec bd 0d 86 a6 3e
       0.21767811 -0.21379438 -0.11553584 0.32524148
000070 48 f1 ab be aa 85 d1 3e 0c 3f ad be 0f d9 1d 3d
       -0.3358252 0.4092229 -0.33837163 0.03853708
000080 a0 b6 57 3e f1 ea e4 be ea ed 8f 3e 11 10 76 be
       0.2106576 -0.44710496 0.28111202 -0.24029566
000090 f3 55 85 3e 1c c1 7f be 02 7e 75 be 1d 7f a8 be
       0.26042137 -0.24976009 -0.2397385 -0.3290948
0000a0 07 10 ae be 58 e3 72 be 4e 04 09 3e 5c 72 a8 3e
       -0.33996603 -0.23719537 0.13380548 0.3289975
0000b0 be de e9 bc 5f 9e 06 3e 3d 24 49 3e 3d 54 7a be
       -0.028548595 0.13146351 0.1964273 -0.24446197
0000c0 d9 a7 95 3e 18 30 c3 be 21 3d 07 3e df e8 de 3d
       0.2922962 -0.3812263 0.13206913 0.108842604
0000d0 3c c9 dd be 2d 0e d2 bd 98 9e 5f be 8a a1 23 be
       -0.43317592 -0.1025661 -0.21837842 -0.15979591
0000e0 2b 8e b3 be 97 00 5a 3e 62 64 0f be 14 aa 9e 3e
       -0.35069403 0.21289288 -0.14003137 0.30989134
0000f0 6e a0 07 3e 50 cc 33 3e 41 e9 8c 3e 8c a0 36 be
       0.13244793 0.17558408 0.2752171 -0.17834681
000100 8d 59 aa 3e 7c 5a 18 bd 71 0a 45 bd f7 f0 f4 bd
       0.33271447 -0.037195668 -0.04810566 -0.11960023
000110 68 47 ef 3d f4 8e 4c 3e 72 27 e6 be ea 0a c9 3e
       0.116835415 0.19976407 -0.4495197 0.3926614
000120 f8 88 d3 bd c6 53 10 bf ba e1 af 3e cd f0 d9 be
       -0.10328859 -0.5637783 0.34351903 -0.4256653
000130 4f fc df be 99 7f be be fb ce 10 3d 4c 68 87 bc
       -0.43747184 -0.37206724 0.035353642 -0.016529225
000140 cd ac 82 be 87 1a ff 3d 97 b8 4e 3e 64 0b 97 3d
       -0.25522462 0.124562316 0.20187603 0.073752195
000150 55 29 9d be f7 ff 2c 3e a4 10 09 bf b9 6e 55 be
       -0.30695596 0.16894518 -0.53541017 -0.20843019
000160 a5 cc d0 3e 65 a1 a2 be cc 3e c1 be 41 2e a4 3e
       0.4078113 -0.3176376 -0.37743223 0.3206654
000170 6f 0f 8c 3e 62 0a 6a 3d 0b 5f a1 be 45 c8 0c 3e
       0.27355525 0.057138808 -0.31517825 0.13748272
000180 ff cd d4 be 74 15 06 3b 68 42 5c 3e 3e b7 f7 3e
       -0.41563413 0.0020459564 0.21509707 0.4838199
000190 d6 37 2e be cd 38 15 bf ee 03 a8 3e b4 bf f4 3c
       -0.17013487 -0.58289796 0.32815498 0.029876567
0001a0 de 57 88 bd be 8a 91 3e 73 72 06 bf 34 08 13 be
       -0.06657384 0.28426164 -0.52518386 -0.14358598
0001b0 11 1a 2a bf 2e 92 dd 3e 8f be ea 3e 42 02 02 3f
       -0.66446024 0.4327559 0.4584851 0.50784695
0001c0 a6 28 fb be 18 90 33 3d 2f eb 3a be 59 3d b6 3e
       -0.4905445 0.04383859 -0.18253778 0.3559368
0001d0 b0 a3 76 3e 4d d8 84 3e 8b 60 ac be 21 13 2a 3f
       0.2408588 0.25946274 -0.33667406 0.6643544
0001e0 26 51 e2 3e c2 d0 1e bf b1 41 02 be 4c a1 25 bf
       0.44202536 -0.6203729 -0.12720372 -0.64699244
0001f0 bd 96 06 bf b0 a0 4b 3d 1e e1 a9 3d 5a 5e 88 bd
       -0.5257376 0.04971379 0.08294891 -0.06658621
000200 45 0c ec 3e bb 8b 02 bf 4f 83 6f be 04 a6 36 3d
       0.4610311 -0.5099446 -0.23389934 0.04459192
000210 8a f6 01 bf fa c7 ca 3b 3b 3f 19 bf af b4 b0 bc
       -0.50766814 0.00618839 -0.5986211 -0.021570532
000220 c6 ba 49 3f 80 22 d8 bd 07 57 18 bf a5 61 33 bf
       0.7880062 -0.10553455 -0.59507793 -0.7007087
000230 93 e2 f8 bd 21 6d ab 3e a9 ae 8c bd c5 45 43 3e
       -0.121525906 0.33481696 -0.06869251 0.19069584
000240 ca 91 d5 3e 1c 96 5d be ba a3 17 bf 12 54 b5 bd
       0.4171279 -0.21639293 -0.592342 -0.08853926
000250 6a 35 12 bf 63 95 c7 3e 6a ec 05 3e 53 14 9d 3b
       -0.57112753 0.3898116 0.13078466 0.0047936826
000260 52 80 46 ba f6 96 9c 3e f4 22 d4 bd 73 9e 61 3d
       -0.0007572222 0.30583924 -0.10358229 0.05508275
000270 8e 58 c6 be 51 8a 2b bf 6a fe fd 3e f8 72 4d be
       -0.38739437 -0.6700793 0.49608165 -0.20063388
000280 78 ac 09 be 12 c6 da 3e b7 66 ae b7 c0 57 8d 3e
       -0.13444698 0.4272924 -2.0790247e-05 0.2760601
000290 97 74 74 be 22 0c 1e 3f 33 f8 ca 3d 11 41 05 3e
       -0.238726 0.61737263 0.099106215 0.13013102
0002a0 8b e5 c2 3d c4 d9 b7 be ca bc f6 be cb fe c6 bb
       0.09516438 -0.3590833 -0.4819091 -0.006072854
0002b0 b3 f9 da 3d 79 e5 24 be 51 05 79 be 68 a8 f2 3e
       0.106921576 -0.16103162 -0.24318434 0.4739411
0002c0 a2 9c bf 3e 93 cd 8a 3e f4 37 fd be 25 86 80 3e
       0.3742419 0.27109966 -0.4945675 0.25102344
0002d0 95 47 ad be 01 d4 10 3f 3d fa 6c 3c 5f e3 9a be
       -0.33843675 0.5657349 0.014463958 -0.30251595
0002e0 e2 94 23 bf 46 00 48 bf 18 70 af 3e 1d 95 ee be
       -0.6389905 -0.7812542 0.34265208 -0.4659814
0002f0 02 45 39 bf 40 84 e1 be 9f fb fe 3d 27 a6 1d 3f
       -0.7237092 -0.4404621 0.12450337 0.61581653
000300 8b 79 e3 be 96 d6 ab be dc 42 12 bf c6 66 d9 3e
       -0.44428667 -0.33562154 -0.5713327 0.42461222
000310 33 8c 3f bf c7 16 1e 3e 9d 46 be 3e 8b 2a 01 bf
       -0.748233 0.15438376 0.3716325 -0.5045554
000320 2c 11 5b be bc 00 ab be 5b 95 ea be 49 5d f2 be
       -0.2139327 -0.33398998 -0.45817074 -0.47336796
000330 fe 75 20 bf 76 c2 15 be 08 e9 28 3f d1 f1 f2 3e
       -0.6268004 -0.14624962 0.6598058 0.47450116
000340 00 c2 d1 be 8f 85 a3 be a6 35 e8 3d 08 0b 7c 3e
       -0.40968323 -0.31937835 0.113383576 0.24613583
000350 52 53 be 3e 48 3e 8d 3e 44 4d 31 3e 4d 12 35 bf
       0.37172943 0.2758658 0.17314631 -0.7073105
000360 a3 a6 af be 03 df 00 3f ff 18 0b 3f db 92 47 3e
       -0.3430682 0.5034029 0.54335016 0.19489615
000370 90 ff f2 bd 44 c7 d1 be 90 71 3e bc d4 57 84 be
       -0.11865151 -0.4097234 -0.011623755 -0.25848258
000380 ce 27 16 3f 25 33 42 3e dc 4e 5c 3d 9d 73 38 3e
       0.5865449 0.18964823 0.053786144 0.18012853
000390 c8 82 c2 be c5 d9 17 be 74 c8 c4 bd b3 4c bc bd
       -0.37990403 -0.14829166 -0.09608546 -0.09194317
0003a0 14 6c 09 be 80 56 a4 be a4 7c e8 be 47 5f b0 be
       -0.13420135 -0.32097244 -0.45407593 -0.3444769
0003b0 7d 83 bf be 17 73 47 be 79 fd 11 be 8c 18 9c 3e
       -0.37405005 -0.19477497 -0.14256848 0.30487478
0003c0 05 9f d1 3e 38 a8 fd 3d 03 c1 93 3e af 74 60 3e
       0.40941635 0.12385601 0.28858194 0.21919511
0003d0 6e 47 c6 3e ce ec 41 3f 5c 17 5a be 31 80 28 3e
       0.38726372 0.7575196 -0.21297973 0.16455151
0003e0 9c a2 4c be 9b e6 c2 be fc 0a e9 3e 9f b3 2a bf
       -0.19983906 -0.38066563 0.45516193 -0.6668033
0003f0 a0 3c 17 3e e5 84 c0 3e db 2b 01 bf 5d dd 28 3f
       0.1476922 0.3760139 -0.50457543 0.65962774

fc1.bias f4 [12]
000000 e3 1b b2 bb 1f 25 9b bd c3 d4 f7 be be e7 43 be
       -0.0054354533 -0.0757544 -0.48404512 -0.19131371
000010 4c 0c 2e bf 80 19 20 be 22 a0 01 be 40 1b 97 bd
       -0.67987514 -0.15634727 -0.12658742 -0.073782444
000020 e8 e5 82 bd df 31 19 be 00 c0 53 bd 84 6d 5f bd
       -0.063915074 -0.1496043 -0.051696777 -0.0545478
