src/src_learner/kotlin_base_model.pt (torch, 138692 bytes, 11 tensors)

word_embeddings.weight f4 [178, 128]
-1.4009483 -0.5027278 -0.9826241 -1.3952962 0.093750685 -0.57652116 -0.99123985 -1.9272323
-0.8154519 0.38901553 -0.4811935 -0.0017649373 -0.3100111 1.9382755 0.6474029 0.47129533
-0.60494757 -0.802006 0.72758883 0.28752524 1.0134225 0.25863707 -0.2838679 0.8325083
1.1497827 0.015537327 -2.1226342 -1.2590685 -0.07996758 -0.59810954 -0.99081326 0.08423616
1.9002869 -0.4246828 -0.20025007 -0.5711903 0.029197345 -0.16012613 -0.16579926 -0.4084124
-0.24410027 0.59589076 -0.22451256 0.52529365 2.4267194 -0.8742258 1.755057 -0.9415802
-0.6831099 0.5331954 -0.25375378 -0.6446053 0.71363664 0.110426 1.0100021 2.4619448
0.3201104 0.83684975 -0.35814297 -0.36515537 1.753643 -0.5154412 -3.1024888 -0.7437833
0.07954971 -0.7681066 -0.60131353 -0.9558521 -0.55123323 0.0460132 1.8467302 -0.25764716
-1.0366559 -0.18347499 -1.158945 -0.57486576 -0.5766004 -0.26346537 0.44760182 -0.8666959
-0.37854606 0.16421333 -0.946689 0.9683556 -1.5966562 -0.16977444 -0.046826568 -0.42208716
0.5484532 -0.6176814 -1.1814791 0.9822946 -1.0286367 -0.24001308 0.008245412 2.0500906
0.7451768 1.2928977 0.97461915 -0.87432426 1.3783395 -0.7030634 -0.860772 1.0330703
1.2782956 0.63775784 0.24032703 -0.24690112 -1.9772129 -0.5782222 -1.5112089 -0.729013
0.8064693 -0.8631671 1.2533115 0.6077047 0.24032475 0.28862077 0.64454335 -0.2561316
2.45437 -0.08852426 -0.24243094 2.1194727 -2.228993 1.8727736 0.07734249 0.33247787
0.71236455 -1.7765073 0.35386458 1.1996132 -0.3029974 -1.7618417 0.6348446 -0.8043591
-1.6111118 -1.8716129 0.5430836 0.6606786 2.2952116 0.67490596 1.7133216 -1.7942734
-1.3632672 -0.9832196 1.5112667 0.64187074 0.4729638 -0.4285901 0.55137074 -1.5473709
0.5181121 0.10653535 0.26924077 1.324768 1.7460191 1.854969 -0.7063691 2.5570862
0.4175343 -0.2127186 -0.839958 -0.42001787 -0.6240363 -0.9772961 0.8748428 0.9872814
0.30957633 1.52069 1.2052339 -1.815591 -0.40346155 -0.9591452 -0.005207704 -0.07886314
0.8436543 1.1657013 0.5269322 1.6192533 -0.96397626 0.14152038 -0.16366096 -0.35822257
1.7222793 -0.3035756 0.2388742 1.3440012 0.10322569 1.1003542 -0.3416802 0.9473389
-0.56851596 0.8375962 1.7836607 -0.19542466 0.5149161 -1.8474776 -2.9167426 -0.5673299
-0.5412802 0.895174 -0.882507 0.53181124 -1.5457772 -0.17329982 0.72824633 0.05706102
0.9055172 1.0462948 -0.520597 1.3547838 0.23519313 1.9142433 1.8364111 1.3245324
-0.96900916 1.2516364 1.2103242 -0.5279206 0.21856615 -0.57430726 1.4571251 1.7709557
1.6499138 -0.43200457 -0.2710269 -1.4391626 1.2470404 1.2738512 0.39094925 0.3872105
-0.07982872 0.3417243 0.9488273 -1.3839359 1.7240863 -2.3647652 -0.9294909 0.2936253
0.21513203 0.9384637 1.4657077 -0.5564744 -0.7448408 -0.20215721 -0.2296679 0.0013313366
0.3752759 -0.5810679 -0.57230884 1.0097175 -0.10564939 -1.179696 -0.090779595 0.56311435
00000000: 4652 b3bf c5b2 00bf 418d 7bbf 1199 b2bf
00000010: 5c00 c03d e496 13bf e5c1 7dbf 8caf f6bf
00000020: 75c1 50bf 0b2d c73e ff5e f6be 7855 e7ba
00000030: c6b9 9ebe 6919 f83f 32bc 253f 9f4d f13e
00000040: d8dd 1abf 4450 4dbf 4343 3a3f 8236 933e
00000050: d4b7 813f 146c 843e 2257 91be 441f 553f
00000060: 142c 933f 4690 7e3c 3dd9 07c0 2829 a1bf
00000070: 0bc6 a3bd b51d 19bf f0a5 7dbf 0284 ac3d
00000080: 9a3c f33f 0670 d9be 5b0e 4dbe 8739 12bf
00000090: 452f ef3c 1bf8 23be 48c7 29be 6e1b d1be
000000a0: 6cf5 79be 4c8c 183f 9fe6 65be a579 063f
000000b0: 5f4f 1b40 43cd 5fbf b5a5 e03f 660b 71bf
000000c0: 4ae0 2ebf 7e7f 083f 04ec 81be da04 25bf
000000d0: e4b0 363f 0727 e23d c047 813f 8190 1d40
000000e0: 83e5 a33e c93b 563f 845e b7be a5f5 babe
000000f0: 6077 e03f f4f3 03bf 2d8f 46c0 9568 3ebf
00000100: f5ea a23d a2a2 44bf afef 19bf b9b2 74bf
00000110: 9f1d 0dbf 5678 3c3d a861 ec3f 54ea 83be
00000120: 24b1 84bf dee0 3bbe 4f58 94bf 672a 13bf
00000130: 159c 13bf efe4 86be 112c e53e c8df 5dbf
00000140: cad0 c1be 8a27 283e 365a 72bf 27e6 773f
00000150: 3b5f ccbf 5ad9 2dbe 37cd 3fbd cf1b d8be
00000160: 6e67 0c3f 5e20 1ebf b53a 97bf a977 7b3f
00000170: 5eaa 83bf fdc5 75be c417 073c af34 0340
00000180: e8c3 3e3f ac7d a53f a480 793f b7d3 5fbf
00000190: 6e6d b03f f7fb 33bf 8e5b 5cbf a63b 843f
000001a0: 319f a33f 1944 233f 4a18 763e a6d3 7cbe
000001b0: 5015 fdbf 5f06 14bf 4b6f c1bf 99a0 3abf
000001c0: c674 4e3f 85f8 5cbf 836c a03f 8992 1b3f
000001d0: b117 763e 1ac6 933e cb00 253f ae23 83be
000001e0: 6614 1d40 354c b5bd d13f 78be 71a5 0740
000001f0: d2a7 0ec0 0cb7 ef3f bd65 9e3d 8a3a aa3e
00000200: 865d 363f 9764 e3bf bd2d b53e ed8c 993f
00000210: 7a22 9bbe 0784 e1bf 2d85 223f 7aea 4dbf
00000220: e938 cebf 0391 efbf 8707 0b3f 3c22 293f
00000230: bfe4 1240 a3c6 2c3f 1f4e db3f c0aa e5bf
00000240: 8a7f aebf 48b4 7bbf 3071 c13f a451 243f
00000250: 5028 f23e 2970 dbbe a226 0d3f 4010 c6bf
00000260: ffa2 043f 352f da3d edd9 893e ff91 a93f
00000270: 8e7d df3f a06f ed3f 9bd4 34bf 4da7 2340
00000280: 0ec7 d53e e8d2 59be 7d07 57bf 950c d7be
00000290: d8c0 1fbf 1430 7abf b3f5 5f3f 79be 7c3f
000002a0: ca80 9e3e f8a5 c23f 1b45 9a3f 4965 e8bf
000002b0: 8392 cebe 8a8a 75bf 63a5 aabb ff82 a1bd
000002c0: baf9 573f b335 953f 07e5 063f b143 cf3f
000002d0: 26c7 76bf b8ea 103e bd96 27be f368 b7be
000002e0: a673 dc3f 436e 9bbe 709b 743e 3b08 ac3f
000002f0: fe67 d33d 68d8 8c3f b5f0 aebe cd84 723f
00000300: 438a 11bf b46c 563f fe4e e43f 671d 48be
00000310: 8bd1 033f 257a ecbf e9ab 3ac0 883c 11bf
00000320: 5791 0abf 202a 653f fbeb 61bf c824 083f
00000330: 07dc c5bf 8275 31be 5a6e 3a3f d1b8 693d
00000340: facf 673f fdec 853f d845 05bf 8e69 ad3f
00000350: 78d6 703e ed05 f53f 850f eb3f 478a a93f
00000360: fc10 78bf 9f35 a03f e7eb 9a3f ce25 07bf
00000370: cecf 5f3e cd05 13bf 1383 ba3f adae e23f
00000380: 6030 d33f b42f ddbe 0ac4 8abe 7b36 b8bf
00000390: 059f 9f3f 8e0d a33f 802a c83e 7440 c63e
000003a0: 3d7d a3bd 7df6 ae3e 59e6 723f d024 b1bf
000003b0: dcae dc3f 5058 17c0 1ef3 6dbf 0e56 963e
000003c0: 924b 5c3e 283f 703f 4f9c bb3f 1b75 0ebf
000003d0: e3ad 3ebf 4d02 4fbe 102e 6bbe 3e80 ae3a
000003e0: 2a24 c03e dec0 14bf d582 12bf 6c3e 813f
000003f0: b55e d8bd 4700 97bf a7ea b9bd 4328 103f

rnn.weight_ih_l0 f4 [32, 128]
-0.030477224 -0.14763632 -0.09315964 -0.09089164 -0.08311077 -0.01697985 0.17272153 0.03354833
-0.06775346 0.17447777 -0.052012146 0.0653187 0.102822855 0.006715143 -0.10192626 -0.061201654
-0.017034715 -0.012014281 -0.288871 -0.06257587 -0.20885092 -0.07675828 -0.12386864 -0.055978715
0.1046428 -0.095466584 0.17642213 -0.12557463 0.16722392 -0.24248536 0.01338685 -0.042060602
0.12410073 0.2195784 0.0481817 -0.19070332 0.08060655 -0.100286245 -0.053647876 -0.013624354
0.14136566 -0.22788261 0.15672986 -0.23325767 0.04939191 -0.08688448 0.14905113 -0.034941316
0.12664804 -0.052199606 -0.11711945 -0.06843042 -0.07312623 0.13140944 -0.1312299 -0.0056669773
0.035600312 0.16646366 0.0122611215 0.02711041 -0.047342785 0.04091279 -0.1730774 -0.11533578
-0.07730965 -0.038560722 -0.09866995 0.21830943 -0.20952937 0.04308753 0.09626708 0.029290322
0.007334966 0.09060604 -0.032358445 -0.002704506 -0.049000848 -0.05008285 0.12521517 -0.17583881
-0.21293749 0.10875346 -0.027289247 -0.032405928 -0.1448554 0.10584671 0.078438126 0.09833261
-0.07661602 0.119974665 0.031005178 -0.13026218 -0.15974191 -0.21296808 -0.18895507 -0.037728332
-0.18004702 0.11736701 0.26892674 0.075602986 -0.013592343 0.14938729 0.0038559267 0.08323752
0.0036022249 0.028387235 0.029064374 0.255807 0.03815233 0.00023797982 -0.095735416 0.14499415
-0.062070362 0.061942067 -0.028439784 -0.022453241 0.3188888 -0.033079896 -0.051060036 0.11446179
0.06985222 -0.07477323 0.0006468288 0.051013853 -0.14286609 -0.17781289 -0.1594551 0.006438042
-0.048122544 0.06002697 -0.1998031 -0.0107416315 0.09495039 -0.12783612 0.064706154 -0.1610544
-0.083493285 -0.03435076 -0.21429215 -0.14139785 -0.12895274 0.04786677 -0.071622334 -0.1930659
0.08756094 -0.079836264 -0.068205334 0.1292616 -0.006407293 -0.054036006 0.060134895 0.1368044
-0.013279505 -0.172197 0.13668662 -0.13483635 0.042964783 -0.028178219 0.042641968 0.04131366
0.03031007 0.11527446 0.09227777 -0.02579767 -0.17488424 0.11529105 -0.091039 -0.18272951
-0.062244963 0.06271508 0.19006523 0.17534919 -0.027778395 -0.14138584 0.18304504 0.11360488
-0.21315774 -0.07732316 -0.12689073 -0.2831294 0.016949976 -0.034545284 0.110207185 0.11966467
0.15460372 -0.11434974 -0.073754944 -0.060840555 0.18537886 -0.114735246 0.09862883 -0.046652384
-0.14867406 0.1120147 -0.020288004 -0.13824601 -0.046243764 0.13033897 -0.053838924 -0.018965945
0.10337391 0.036368944 -0.19702922 0.1966644 -0.04067821 0.036856275 -0.10203456 0.08420126
0.17838125 0.040202368 -0.050627906 0.0016252691 0.17875436 -0.052505247 -0.12704329 -0.015219458
0.024735866 0.19470522 0.027666993 0.042465057 -0.023790741 0.04322026 0.05262742 0.10635741
0.08655285 0.124958545 0.11554979 0.020609668 -0.030378059 -0.30687532 -0.0030591926 0.046185877
-0.11343297 0.13873437 -0.116867155 0.1496278 0.016267201 0.1039506 0.08859322 0.13881043
-0.091678955 0.038841054 0.048524287 0.0937093 -0.10303677 0.1337762 -0.0020936753 0.1526036
-0.108351946 0.07810176 -0.06557272 0.058649186 -0.16849269 -0.07920831 0.0714633 0.19465707
00000000: 5fab f9bc fa2d 17be 7bca bebd 6525 babd
00000010: fb35 aabd 5419 8bbc eadd 303e f969 093d
00000020: 53c2 8abd 4daa 323e b00a 55bd d0c5 853d
00000030: ca94 d23d b40a dc3b b7be d0bd 96ae 7abd
00000040: 638c 8bbc 8cd7 44bc e6e6 93be c727 80bd
00000050: 04dd 55be 7233 9dbd d7ae fdbd f049 65bd
00000060: f74e d63d fc83 c3bd 01a8 343e a396 00be
00000070: bf3c 2b3e 154e 78be 8554 5b3c bd47 2cbd
00000080: 8628 fe3d 29d9 603e 2d5a 453d bb47 43be
00000090: 0c15 a53d e062 cdbd e0bd 5bbd af38 5fbc
000000a0: 29c2 103e 0f5a 69be cb7d 203e 19db 6ebe
000000b0: 2c4f 4a3d 7ef0 b1bd dca0 183e a01e 0fbd
000000c0: 06b0 013e 41cf 55bd 52dc efbd 3f25 8cbd
000000d0: 34c3 95bd 3290 063e 2261 06be 0db2 b9bb
000000e0: a2d1 113d 7375 2a3e dfe2 483c a716 de3c
000000f0: 82ea 41bd 2b94 273d 343b 31be 2a35 ecbd
00000100: 8654 9ebd d9f1 1dbd 7913 cabd 828c 5f3e
00000110: de8e 56be 8d7c 303d ad27 c53d 42f2 ef3c
00000120: 285a f03b a98f b93d 4a8a 04bd 153e 31bb
00000130: 1db5 48bd ad23 4dbd 6838 003e 170f 34be
00000140: 490c 5abe 22ba de3d b38d dfbc 14bc 04bd
00000150: f954 14be 29c6 d83d 2ba4 a03d 9c62 c93d
00000160: dce8 9cbd 47b5 f53d 92fe fd3c 7363 05be
00000170: 6293 23be 4e14 5abe 707d 41be 0689 1abd
00000180: 3f5e 38be 1d5e f03d c4b0 893e bdd5 9a3d
00000190: 6bb2 5ebc fbf8 183e b7b3 7c3b 6f78 aa3d
000001a0: 4e13 6c3b 598c e83c 6918 ee3c 23f9 823e
000001b0: 9e45 1c3d 398a 7939 ee10 c4bd 5979 143e
000001c0: 7e3d 7ebd f7b6 7d3d 8dfa e8bc dcef b7bc
000001d0: 6545 a33e c97e 07bd 5424 51bd f16a ea3d
000001e0: ae0e 8f3d b522 99bd f28f 293a e7f3 503d
000001f0: 7d4b 12be 9514 36be 3348 23be 36f6 d23b
00000200: 251c 45bd d7de 753d 2f99 4cbe abfd 2fbc
00000210: 5a75 c23d 79e7 02be a984 843d 72eb 24be
00000220: 87fe aabd 62b3 0cbd 676f 5bbe 99ca 10be
00000230: 300c 04be f20f 443d bbae 92bd 11b3 45be
00000240: 2653 b33d 3281 a3bd 3daf 8bbd 275d 043e
00000250: 45f4 d1bb dc54 5dbd 0250 763d 7416 0c3e
00000260: 4892 59bc 6954 30be 94f7 0b3e 8a12 0abe
00000270: d7fb 2f3d 02d6 e6bc 58a9 2e3d 8338 293d
00000280: d34c f83c 0415 ec3d 21fc bc3d a355 d3bc
00000290: db14 33be b71d ec3d a872 babd 721d 3bbe
000002a0: 93f4 7ebd c470 803d 76a0 423e bd8e 333e
000002b0: 848f e3bc 73c7 10be 2970 3b3e ada9 e83d
000002c0: 0646 5abe 9b5b 9ebd a5ef 01be 56f6 90be
000002d0: adda 8a3c 5b7f 0dbd 4eb4 e13d c012 f53d
000002e0: 7050 1e3e 3230 eabd d50c 97bd f233 79bd
000002f0: f5d3 3d3e 50fa eabd e9fd c93d 9216 3fbd
00000300: 033e 18be f767 e53d 0733 a6bc 5d90 0dbe
00000310: 1a6a 3dbd 9477 053e 3486 5cbd 785e 9bbc
00000320: b3b5 d33d 9af7 143d 07c2 49be 6462 493e
00000330: 329e 26bd 9bf6 163d 7ff7 d0bd b671 ac3d
00000340: 93a9 363e 3dab 243d 355f 4fbd fb06 d53a
00000350: 620b 373e be0f 57bd a317 02be 095b 79bc
00000360: dfa2 ca3c ce60 473e e4a5 e23c d7ef 2d3d
00000370: cde4 c2bc ba07 313d d98f 573d ead1 d93d
00000380: 9f42 b13d 44ea ff3d 5ea5 ec3d 9bd5 a83c
00000390: 68db f8bc c31e 9dbe bc7c 48bb 672d 3d3d
000003a0: 8c4f e8bd 6210 0e3e 0c58 efbd 0838 193e
000003b0: cb42 853c 0de4 d43d 5d70 b53d 5224 0e3e
000003c0: 2dc2 bbbd cc17 1f3d 67c1 463d a9ea bf3d
000003d0: f104 d3bd a1fc 083e 0b36 09bb 1e44 1c3e
000003e0: a0e7 ddbd d1f3 9f3d fd4a 86bd 213a 703d
000003f0: 5989 2cbe f737 a2bd 5a5b 923d 2f54 473e

rnn.weight_hh_l0 f4 [32, 32]
0.15360355 -0.035603564 0.10327105 -0.09073072 -0.15255937 -0.25736535 -0.4794653 -0.08887588
0.26367497 0.14394636 -0.19363028 0.0943607 0.21997449 -0.16367713 -0.13503319 -0.22814853
0.20465991 -0.51081175 0.09665545 0.18396069 -0.11946414 -0.3605345 0.26666173 -0.15914091
-0.15104383 0.12120267 -0.34288538 0.1227289 -0.13063167 -0.026590329 -0.07786857 -0.20167956
-0.15140088 -0.07160146 0.09051545 0.06010062 -0.10436895 -0.28693357 -0.05028964 -0.15739055
0.18506248 0.12069587 -0.24673377 -0.19319685 0.17206842 -0.03662161 -0.28032607 0.053446315
-0.084285125 -0.020252936 0.12948443 0.32386905 0.21893787 0.091537744 -0.05729151 0.16676658
0.1660788 -0.20964216 -0.042098027 0.37146693 -0.22254038 0.25991067 -0.3467178 0.19137833
0.23283502 0.18098973 0.26285723 -0.17237036 -0.0220553 0.15121305 0.21412003 0.061433997
0.09310502 -0.14489765 0.6152192 -0.09468846 0.35394624 0.04981021 0.07341858 0.07212796
-0.12562609 0.07404194 -0.02936676 -0.10947229 -0.048819978 -0.17149532 -0.07695476 -0.095549464
-0.07476551 -0.12579787 0.2581572 -0.08741096 0.18475914 0.045310177 0.26937965 0.1494066
-0.16731615 0.075727805 0.13086888 -0.15871911 -0.30937397 -0.06248908 -0.15045401 0.027366439
-0.4694002 -0.12563065 0.24652088 -0.15255676 0.1796872 -0.1727319 0.13624838 0.087213896
0.027413025 -0.5031223 0.44938904 0.17610005 0.040799007 -0.17139837 0.05674978 -0.09181781
0.2055423 -0.08395719 -0.16172044 -0.15686822 -0.00775572 -0.11789352 -0.004581748 -0.13894056
-0.26134616 0.19401774 0.22958097 -0.11979974 0.019917201 -0.1862511 -0.04141686 0.16729893
0.07927958 0.17748675 -0.08529214 -0.16002195 0.12606926 0.17516811 -0.19000635 -0.17485593
0.14882223 0.026516175 0.352297 -0.0686933 -0.10988697 -0.015279102 0.17426275 -0.025248954
0.020888953 -0.061996818 -0.08982379 -0.05182893 -0.07665626 0.29781112 -0.05343202 0.14128141
-0.09790555 -0.10647382 0.1740292 0.17044419 -0.07921872 0.33952266 -0.4235197 0.33710614
0.1929875 -0.09961899 -0.17537078 0.09098914 0.08653514 -0.17274314 0.18350035 0.09558075
-0.09036359 -0.19563645 -0.07361152 -0.06743142 -0.06239817 -0.35876444 0.036686797 -0.25040618
-0.06956336 -0.019799078 -0.15119275 0.12964834 0.2404623 -0.041788336 -0.124960154 -0.31300375
-0.3929433 0.1989774 -0.09247134 -0.23514041 0.03229249 -0.31434894 -0.017350541 0.13303807
-0.34869415 -0.15028568 -0.27457112 -0.28802818 0.06865166 0.37368843 0.07454599 0.070470035
-0.0013953847 0.030135792 0.16088623 -0.021139864 -0.025039647 -0.43018556 -0.10009013 -0.020994999
-0.16751872 0.14038906 -0.0034408625 -0.18434402 -0.15088667 0.012471277 0.08458704 0.2070745
-0.2587434 -0.057540856 0.38585553 0.15183303 0.20447284 -0.09378014 0.03705075 -0.03203951
-0.1405821 -0.011489112 -0.45376748 -0.20862496 -0.36549062 0.49375096 -0.23252678 -0.03049065
0.2896715 -0.014995585 -0.0074947667 -0.004228698 -0.03258735 0.08726514 -0.17531542 0.23551774
-0.1548932 -0.11890867 0.083479606 0.076132715 0.063071184 0.038862113 -0.13319068 0.037647516
00000000: 404a 1d3e 0bd5 11bd c67f d33d 07d1 b9bd
00000010: 8638 1cbe 64c5 83be 7a7c f5be 8f04 b6bd
00000020: 6800 873e ad66 133e 0447 46be 2f40 c13d
00000030: fe40 613e fa9a 27be 2446 0abe c59f 69be
00000040: 5e92 513e 8fc4 02bf 4bf3 c53d 3160 3c3e
00000050: 9da9 f4bd fa97 b8be e387 883e d6f5 22be
00000060: 3cab 1abe 1b39 f83d ac8e afbe 4a59 fb3d
00000070: 4fc4 05be f6d3 d9bc 8f79 9fbd 1685 4ebe
00000080: d508 1bbe c9a3 92bd 2a60 b93d 112c 763d
00000090: 63bf d5bd f5e8 92be 82fc 4dbd fd2a 21be
000000a0: 0581 3d3e 652f f73d c7a7 7cbe 65d5 45be
000000b0: b432 303e 8b00 16bd e686 8fbe 86ea 5a3d
000000c0: ae9d acbd 7ce9 a5bc 9197 043e 2ad2 a53e
000000d0: 4031 603e 2478 bb3d 81aa 6abd dcc4 2a3e
000000e0: 9010 2a3e 6fac 56be fb6e 2cbd ea30 be3e
000000f0: a0e1 63be 0313 853e ff84 b1be aef8 433e
00000100: 4e6c 6e3e 5f55 393e 3995 863e db81 30be
00000110: 51ad b4bc 98d7 1a3e 4842 5b3e 37a2 7b3d
00000120: d8ad be3d 0d60 14be 017f 1d3f 06ec c1bd
00000130: 7138 b53e ca05 4c3d 7b5c 963d d3b7 933d
00000140: 20a4 00be 4da3 973d 8f92 f0bc 0233 e0bd
00000150: 75f7 47bd 789c 2fbe 759a 9dbd 70af c3bd
00000160: a91e 99bd 28d1 00be 2e2d 843e 8404 b3bd
00000170: 8031 3d3e 2a97 393d 21ec 893e 0bfe 183e
00000180: ed54 2bbe 2e17 9b3d 7e02 063e 4387 22be
00000190: 4466 9ebe 8df4 7fbd 9e10 1abe 952f e03c
000001a0: 3955 f0be 52a5 00be f86f 7c3e d737 1cbe
000001b0: ecff 373e a2e0 30be b284 0b3e 339d b23d
000001c0: 4891 e03c a0cc 00bf 5216 e63e 9253 343e
000001d0: dc1c 273d 0e83 2fbe 7572 683d fa0a bcbd
000001e0: ae79 523e bff1 abbd 0b9a 25be 10a2 20be
000001f0: b223 febb 2872 f1bd 7d22 96bb 6f46 0ebe
00000200: 2acf 85be 96ac 463e 4617 6b3e 9159 f5bd
00000210: 6629 a33c 9cb8 3ebe baa4 29bd 6950 2b3e
00000220: 555d a23d 16bf 353e a5ad aebd cbdc 23be
00000230: 4d18 013e 455f 333e 0691 42be 6f0d 33be
00000240: db64 183e 7338 d93c 4660 b43e 13af 8cbd
00000250: 6b0c e1bd 3355 7abc ef71 323e e5d6 cebc
00000260: 4f1f ab3c 60f0 7dbd 89f5 b7bd 924a 54bd
00000270: f5fd 9cbd b37a 983e 89db 5abd 13ac 103e
00000280: b482 c8bd f20e dabd b634 323e ec88 2e3e
00000290: 6d3d a2bd ead5 ad3e 93d7 d8be 2d99 ac3e
000002a0: 849e 453e 0b05 ccbd 6694 33be 8458 ba3d
000002b0: 5639 b13d 94e3 30be 84e7 3b3e d7bf c33d
000002c0: 8c10 b9bd ec54 48be a3c1 96bd 7c19 8abd
000002d0: 3995 7fbd f9af b7be e544 163d 3d35 80be
000002e0: 3c77 8ebd ad31 a2bc 46d2 1abe 89c2 043e
000002f0: c03b 763e 3f2a 2bbd 1ceb ffbd 0742 a0be
00000300: dd2f c9be bbc0 4b3e 9d61 bdbd a6c8 70be
00000310: 2145 043d 58f2 a0be b922 8ebc 223b 083e
00000320: 0a88 b2be 7de4 19be 9694 8cbe 6e78 93be
00000330: 3e99 8c3d 1754 bf3e 91ab 983d 9852 903d
00000340: 57e5 b6ba 56df f63c 5cbf 243e 822d adbc
00000350: f21f cdbc 4841 dcbe 0efc ccbd b4fd abbc
00000360: 078a 2bbe 26c2 0f3e 1880 61bb aec4 3cbe
00000370: 0982 1abe 5454 4c3c f83b ad3d 560b 543e
00000380: 047a 84be f6af 6bbd db8e c53e 1e7a 1b3e
00000390: 5461 513e cd0f c0bd 87c2 173d dc3b 03bd
000003a0: c1f4 0fbe d43c 3cbc 3654 e8be c8a1 55be
000003b0: 9621 bbbe edcc fc3e 801b 6ebe 87c7 f9bc
000003c0: d34f 943e 0bb0 75bc a996 f5bb e490 8abb
000003d0: 507a 05bd 11b8 b23d e385 33be 902b 713e
000003e0: 539c 1ebe 6486 f3bd 5bf7 aa3d 78eb 9b3d
000003f0: 772b 813d e12d 1f3d 2363 08be 4834 1a3d

rnn.bias_ih_l0 f4 [32]
0.008144405 0.12542373 0.18796223 0.075914286 0.14873758 -0.100144714 0.08434451 0.024691451
0.14565119 0.15770173 -0.11196515 -0.18473229 0.13094355 -0.11598769 -0.109494 -0.12627749
0.021010565 -0.0041944836 0.11039378 0.020348068 0.069689706 -0.12990366 0.21755983 0.07358608
-0.06109655 -0.19220142 -0.007376146 0.17605461 -0.14933321 -0.06373256 -0.19204323 0.05760684
00000000: 1c70 053c 146f 003e 2c79 403e f378 9b3d
00000010: aa4e 183e ac18 cdbd d1bc ac3d ba45 ca3c
00000020: 9625 153e 907c 213e fc4d e5bd 762a 3dbe
00000030: 1116 063e f48a edbd 643e e0bd e34e 01be
00000040: 591e ac3c e171 89bb 2216 e23d feb0 a63c
00000050: 7ab9 8e3d 7705 05be 01c8 5e3e 4cb4 963d
00000060: 6040 7abd 73d0 44be 99b3 f1bb a947 343e
00000070: ceea 18be 3786 82bd fba6 44be 26f5 6b3d

rnn.bias_hh_l0 f4 [32]
-0.099605694 0.1300819 0.1678865 0.21028443 0.097640105 -0.031473346 0.12558968 0.06458137
-0.072641 -0.07807454 0.16253331 -0.09380171 0.0084714005 0.015037025 -0.15166728 0.07615022
0.023656363 0.04983733 0.19868977 0.105149336 -0.05228144 0.025080245 0.018219553 -0.17262082
-0.0061631165 -0.096088424 0.00951844 0.27250022 -0.05543463 0.22783995 -0.28722888 0.061254986
00000000: 12fe cbbd 3134 053e 70ea 2b3e cd54 573e
00000010: 89f7 c73d 32ea 00bd 959a 003e 3d43 843d
00000020: cec4 94bd 8be5 9fbd 226f 263e 1c1b c0bd
00000030: a1cb 0a3c db5d 763c ab4e 1bbe a6f4 9b3d
00000040: fdca c13c 3a22 4c3d 5575 4b3e 8958 d73d
00000050: 1025 56bd 1675 cd3c 2c41 953c 83c3 30be
00000060: f8f3 c9bb 02ca c4bd 3bf3 1b3c 2685 8b3e
00000070: 6c0f 63bd e04e 693e aa0f 93be 82e6 7a3d

rnn.weight_ih_l0_reverse f4 [32, 128]
0.1735371 0.079897024 -0.103526376 0.024638815 0.106308684 0.06453771 0.177099 -0.074064404
0.093202926 0.028638484 -0.09322563 -0.04874425 0.09430196 0.1706483 0.055611897 -0.018807417
-0.007650703 -0.0041781105 0.15244527 0.10937868 0.09433225 -0.18022047 0.0051294146 0.054835655
-0.016859472 0.15635946 0.08574211 0.09938309 -0.03086031 -0.00849943 -0.010132861 0.12125632
-0.12488684 -0.24112837 -0.04449406 0.21811096 -0.018824948 -0.09484277 -0.14224751 -0.12304902
0.104708746 0.1706156 0.06934135 -0.046847932 -0.030938324 0.21719669 0.09456596 -0.17187063
0.20974372 -0.093411416 -0.010690035 -0.0139675075 0.19359241 -0.14068669 -0.08296084 0.067262895
0.12140699 0.09320424 -0.23980327 -0.06969256 0.086280264 -0.09721026 0.055362914 0.09521532
0.0670811 0.0017663796 -0.09386005 -0.04868629 -0.06310852 -0.072656594 -0.13190724 -0.050641462
-0.088758096 0.0861538 -0.12935895 0.1165532 0.18747759 0.14945841 -0.07257247 0.028435102
0.00083883124 -0.051846232 -0.09372754 -0.032164894 -0.100779966 0.14585726 0.07885351 -0.20460813
-0.03594668 -0.104286894 -0.14096324 -0.058276605 -0.037097875 0.044408068 -0.09770587 0.14480518
0.08375199 -0.0026334457 0.10233314 -0.051395938 -0.05730386 0.1994672 -0.14268614 -0.010099038
-0.13717933 0.1298328 0.02485806 -0.06350926 0.21617064 0.04735858 0.08902477 -0.18080166
0.10812597 -0.116685584 0.025009295 0.0024304069 -0.07551052 -0.092094064 0.1335801 0.034377348
-0.02506849 0.030555388 -0.14756554 0.045850717 -0.03784811 -0.008796552 -0.11404711 -0.07640449
-0.049004193 0.12730259 0.15753102 0.17515378 0.12520778 0.16864362 -0.11012181 -0.020302283
-0.0971803 -0.027951514 -0.083231285 0.19856754 -0.060028926 -0.1332519 0.0005069938 -0.0076964656
0.17793638 -0.045176324 -0.014589268 0.18229002 0.0227233 0.10928146 0.008998862 0.07310136
-0.033442963 -0.00639687 0.06923383 0.34126812 0.09947536 -0.13444677 -0.025383385 0.045227543
-0.007438055 -0.046081882 0.009708131 0.0141167315 -0.0329086 -0.13649726 -0.06644871 0.15804787
-0.19932461 -0.09817184 -0.08298582 0.058326457 -0.039334614 0.09938444 0.16828991 -0.058385063
-0.13157043 -0.057009142 -0.24774091 -0.0853505 0.02083412 -0.11338715 -0.06404595 0.040014315
0.11142957 0.12413124 0.051316485 0.12726298 -0.104687974 0.13397777 -0.12582855 0.11674746
-0.024801593 0.10863086 -0.029044775 0.14027147 -0.11588974 -0.09419361 0.17963842 -0.0206955
0.014034492 -0.041090403 -0.050557714 -0.18260537 -0.029531252 0.08701922 -0.03609694 -0.044933636
0.09167405 0.015716068 -0.0838 0.10333738 0.16015804 0.060046457 -0.15140192 -0.095939696
0.006551977 0.024928616 -0.00284198 0.066117235 -0.22511575 -0.08296142 -0.10545148 0.07414293
0.04523373 0.1839365 -0.28845057 0.18980989 -0.11454327 0.053280376 0.056496564 0.08831841
-0.0663471 0.15653601 0.0943679 0.041897308 0.1563094 0.16924614 -0.1436325 0.048636504
0.0064105564 0.11473027 0.09595966 -0.16004597 -0.0734027 -0.21300456 -0.04485866 0.23932384
0.17985605 -0.29878107 -0.16527978 0.051410798 -0.09154634 0.103454515 -0.032120515 0.278829
00000000: b6b3 313e 0da1 a33d a305 d4bd 57d7 c93c
00000010: 5eb8 d93d 592c 843d 7159 353e 14af 97bd
00000020: 2de1 be3d 419b ea3c 14ed bebd 0da8 47bd
00000030: 6321 c13d 6ebe 2e3e 4dc9 633d 0312 9abc
00000040: c0b2 fabb 88e8 88bb 9d1a 1c3e ee01 e03d
00000050: 4431 c13d b78b 38be a614 a83b 5a9b 603d
00000060: e01c 8abc b21c 203e 8f99 af3d 5d89 cb3d
00000070: c3ce fcbc 3141 0bbc 4d04 26bc 3c55 f83d
00000080: acc4 ffbd 5bea 76be 673f 36bd 7b58 5f3e
00000090: c736 9abc ed3c c2bd 55a9 11be 2001 fcbd
000000a0: 8a71 d63d dbb5 2e3e d602 8e3d 9ee3 3fbd
000000b0: 5e72 fdbc cf68 5e3e ccab c13d dbfe 2fbe
000000c0: 0fc7 563e 7c4e bfbd 4225 2fbc f9d7 64bc
000000d0: 173d 463e 2c10 10be 5fe7 a9bd 21c1 893d
000000e0: 3aa4 f83d dde1 be3d fd8e 75be f9ba 8ebd
000000f0: b5b3 b03d 2c16 c7bd 39c4 623d 4000 c33d
00000100: d161 893d dd85 e73a b339 c0bd 466b 47bd
00000110: 0a3f 81bd fbcc 94bd b112 07be 6c6d 4fbd
00000120: cec6 b5bd 6771 b03d ac76 04be 72b3 ee3d
00000130: 20fa 3f3e a00b 193e e0a0 94bd bbf0 e83c
00000140: 03e5 5b3a b75c 54bd 39f4 bfbd 56bf 03bd
00000150: ba65 cebd 9b5b 153e f37d a13d cb84 51be
00000160: d33c 13bd 5e94 d5bd ab58 10be 73b3 6ebd
00000170: f1f3 17bd 3ce5 353d 041a c8bd cf47 143e
00000180: 2a86 ab3d e395 2cbb 0a94 d13d 8c84 52bd
00000190: 74b7 6abd 2141 4c3e 511c 12be 6f76 25bc
000001a0: bd78 0cbe e4f2 043e 21a3 cb3c 2511 82bd
000001b0: d65b 5d3e 12fb 413d 9e52 b63d 1224 39be
000001c0: 2671 dd3d daf8 eebd 4be0 cc3c 7647 1f3b
000001d0: 42a5 9abd d09b bcbd 39c9 083e 43cf 0c3d
000001e0: 6f5c cdbc 4b4f fa3c 6c1b 17be f6cd 3b3d
000001f0: 9f06 1bbd 6a1f 10bc 8891 e9bd f579 9cbd
00000200: 9fb8 48bd 9c5b 023e d04f 213e 835b 333e
00000210: 7836 003e eab0 2c3e 8b87 e1bd f950 a6bc
00000220: 7706 c7bd 93fa e4bc 2a75 aabd 4a55 4b3e
00000230: e4e0 75bd 3073 08be c7e7 043a a232 fcbb
00000240: f434 363e cf0a 39bd d307 6fbc 3caa 3a3e
00000250: 3726 ba3c f5ce df3d f66f 133c 2ab6 953d
00000260: 7dfb 08bd d69c d1bb 77ca 8d3d b2ba ae3e
00000270: bdb9 cb3d 6aac 09be d1f0 cfbc 8440 393d
00000280: edba f3bb 5bc0 3cbd da0e 1f3c dd49 673c
00000290: 2bcb 06bd f0c5 0bbe 4316 88bd 4dd7 213e
000002a0: c01b 4cbe 510e c9bd 78f4 a9bd b9e7 6e3d
000002b0: 551d 21bd 128a cb3d 3154 2c3e 2d25 6fbd
000002c0: 66ba 06be 6b82 69bd cbaf 7dbe 3ecc aebd
000002d0: 51ac aa3c 8637 e8bd 862a 83bd 0de6 233d
000002e0: 3035 e43d 8538 fe3d 3c31 523d 3a51 023e
000002f0: a666 d6bd 7831 093e 33d9 00be 4b19 ef3d
00000300: b62c cbbc db79 de3d 4fef edbc 53a3 0f3e
00000310: 9a57 edbd 94e8 c0bd 22f3 373e 9c89 a9bc
00000320: edf0 653c 694e 28bd 9b15 4fbd e7fc 3abe
00000330: 86eb f1bc 2237 b23d 63da 13bd 550c 38bd
00000340: 9bbf bb3d fcbe 803c 569f abbd 8ca2 d33d
00000350: 7800 243e 46f3 753d 1b09 1bbe 087c c4bd
00000360: f7b1 d63b 1937 cc3c 8340 3abb 7968 873d
00000370: be84 66be ade7 a9bd f2f6 d7bd 40d8 973d
00000380: 0147 393d da59 3c3e cbaf 93be 865d 423e
00000390: a995 eabd 863c 5a3d f168 673d 48e0 b43d
000003a0: fde0 87bd fa4a 203e f543 c13d 839c 2b3d
000003b0: 920f 203e dc4e 2d3e 6614 13be 1237 473d
000003c0: a50f d23b b4f7 ea3d 8086 c43d 17e3 23be
000003d0: 2854 96bd de1d 5abe b7bd 37bd 4f11 753e
000003e0: 2f2c 383e d5f9 98be 1a3f 29be 2194 523d
000003f0: a67c bbbd f6df d33d cd90 03bd adc2 8e3e

rnn.weight_hh_l0_reverse f4 [32, 32]
0.22375244 0.3359016 0.043901876 0.12834613 -0.008534295 0.07279021 -0.060047105 0.27661377
0.12333837 -0.20136657 -0.1195133 0.03522653 0.028571608 0.07231362 0.19625527 0.25093555
-0.008035833 -0.011574902 -0.068455644 0.16308281 0.06447732 -0.39139476 -0.184321 0.06602862
0.13389124 -0.17125508 -0.057207353 0.0011529557 -0.019210206 0.35422787 -0.2028222 0.24286021
-0.24118164 -0.0680849 -0.136021 0.13617422 0.13028437 0.08773252 0.23638876 -0.07905875
0.08730197 0.009251596 -0.34483504 0.041273877 -0.16383599 -0.023206 -0.2481226 0.16916011
0.2691931 0.055334594 -0.21243434 -0.38771704 -0.07550489 0.065489456 -0.14663492 0.122298054
0.044489898 -0.032220084 0.24136007 -0.13608216 -0.14605924 -0.35865209 -0.16295603 -0.2629228
0.3543489 -0.23474726 0.36399287 -0.19759971 -0.13139774 -0.03809285 -0.25076383 0.016495682
0.06557816 -0.0026886503 0.21578541 0.04932563 0.09168659 0.09692267 0.25123113 0.12515756
0.11182274 -0.09915118 0.28418207 0.120142594 0.066461444 0.15723924 -0.116388276 -0.16960458
-0.06751066 0.15506165 -0.29365307 -0.0146399485 0.22140463 0.1533442 -0.062150043 0.16351078
-0.117701724 -0.07481195 0.093683764 -0.20940618 0.11568494 -0.08857425 0.08059462 -0.11482892
-0.16692615 -0.20443784 0.2466531 0.088607416 -0.19009516 -0.25161442 0.19637005 -0.009146183
0.13958938 -0.010921531 0.21580422 -0.57723695 -0.03709012 0.09622904 0.15246847 0.011550014
0.10035449 0.14706306 0.07024034 -0.092766546 -0.07121145 -0.1318824 0.075443156 0.05478736
0.24278627 0.015792737 -0.09038137 0.28764248 0.01747912 -0.06780642 -0.12052576 -0.12637086
-0.21766116 -0.027942017 0.0068841823 0.18342134 0.25139597 0.048161224 0.24436934 -0.019266035
-0.26520786 -0.2104749 0.23464781 0.38212797 0.06755951 0.26346225 -0.40891084 0.12867653
-0.11119907 0.118841074 -0.122143835 -0.12479779 0.35242108 0.026263278 0.1498322 -0.011949846
0.30205652 0.35651177 -0.14908606 -0.18618181 0.26393571 0.03855424 0.051183127 -0.058148313
0.19153063 -0.13503404 -0.23455305 0.040661618 0.34478718 0.09357696 0.08624668 -0.17355554
0.090849705 0.2632106 0.3181055 -0.15937883 0.010410897 0.0015593439 -0.17874192 0.3170641
0.07139968 -0.13359562 -0.42280367 -0.17757705 0.13030452 -0.33377564 0.04579799 0.10219519
-0.0816525 -0.19602263 -0.048101623 0.19595332 -0.0934839 -0.30260405 -0.10882553 -0.08966711
0.087394565 0.07371098 0.25231847 0.054857925 -0.5329914 -0.31360182 0.2306778 0.11121329
0.34285292 -0.23048997 -0.05079867 -0.16723897 -0.074091405 0.12100689 0.13370627 -0.10739266
-0.00768682 0.22371343 0.17636876 -0.07581892 -0.3313581 -0.052333716 0.05780178 -0.24629329
-0.28039992 0.19830437 -0.22135042 0.25398377 0.0674688 0.11585125 0.2327257 0.041368913
0.24564986 -0.15695207 -0.25216398 -0.13789259 -0.33693776 -0.17663546 0.019251507 -0.124147415
0.1418601 0.18745834 -0.12833117 -0.26768488 0.021341883 -0.14496107 0.036809675 0.0068772235
0.1598309 -0.19968836 0.18690678 -0.105411686 -0.16539907 0.07516643 -0.00015276612 -0.010804134
00000000: 5c1f 653e 4bfb ab3e 74d2 333d 2b6d 033e
00000010: 6dd3 0bbc 0913 953d f4f3 75bd 52a0 8d3e
00000020: d498 fc3d 0a33 4ebe 64c3 f4bd b249 103d
00000030: 010f ea3c 2a19 943d 24f7 483e a07a 803e
00000040: baa8 03bc a8a4 3dbc 7932 8cbd 2eff 263e
00000050: af0c 843d e564 c8be a5be 3cbe 033a 873d
00000060: c91a 093e 7e5d 2fbe 4252 6abd c61e 973a
00000070: b95e 9dbc 5b5d b53e 9fb0 4fbe 59b0 783e
00000080: 52f8 76be 1970 8bbd 1749 0bbe 4171 0b3e
00000090: 4469 053e 1cad b33d e50f 723e 8ee9 a1bd
000000a0: 60cb b23d 0294 173c 388e b0be cc0e 293d
000000b0: 9fc4 27be 821a bebc da13 7ebe 4f38 2d3e
000000c0: aed3 893e 87a6 623d 6388 59be d982 c6be
000000d0: 4fa2 9abd 561f 863d 7727 16be 6777 fa3d
000000e0: 0a3b 363d 35f9 03bd 1827 773e 1f59 0bbe
000000f0: 8e90 15be 3fa1 b7be f2dd 26be d19d 86be
00000100: 386d b53e 9661 70be 465d ba3e 9457 4abe
00000110: 218d 06be 4007 1cbd 1e64 80be f421 873c
00000120: d84d 863d 1134 30bb daf6 5c3e ac09 4a3d
00000130: 2ec6 bb3d 657f c63d 5ea1 803e 4e29 003e
00000140: 5203 e53d c60f cbbd 5080 913e 520d f63d
00000150: f01c 883d 5303 213e fa5c eebd d3ac 2dbe
00000160: 0743 8abd 7bc8 1e3e b259 96be 65dc 6fbc
00000170: e5b7 623e 4306 1d3e 0b91 7ebd 5f6f 273e
00000180: 9a0d f1bd 0237 99bd 46dd bf3d 936e 56be
00000190: 3aec ec3d 6b66 b5bd cb0e a53d 6d2b ebbd
000001a0: b0ee 2abe 2758 51be a192 7c3e ce77 b53d
000001b0: 4ea8 42be 9bd3 80be 3b15 493e dfd9 15bc
000001c0: 85f0 0e3e 39f0 32bc c8fb 5c3e cdc5 13bf
000001d0: cfeb 17bd bb13 c53d b220 1c3e 453c 3d3c
000001e0: a886 cd3d b397 163e 2bda 8f3d 63fc bdbd
000001f0: 4fd7 91bd 2e0c 07be f181 9a3d b668 603d
00000200: f79c 783e c55f 813c de19 b9bd e045 933e
00000210: 5f30 8f3c 18de 8abd 36d6 f6bd 5d67 01be
00000220: 91e2 5ebe a8e6 e4bc b594 e13b ced2 3b3e
00000230: f9b6 803e b444 453d f53b 7a3e ced3 9dbc
00000240: 53c9 87be bb86 57be 8447 703e 47a6 c33e
00000250: a45c 8a3d 86e4 863e c35c d1be c8c3 033e
00000260: 57bc e3bd f362 f33d 8c26 fabd fc95 ffbd
00000270: 8970 b43e 1626 d73c 9d6d 193e 49c9 43bc
00000280: 27a7 9a3e b688 b63e 04aa 18be 72a6 3ebe
00000290: 9522 873e 0deb 1d3d 66a5 513d ed2c 6ebd
000002a0: 9b20 443e 5d46 0abe ad2e 70be cc8c 263d
000002b0: f287 b03e 47a5 bf3d 19a2 b03d 8bb8 31be
000002c0: 690f ba3d 8ac3 863e b9de a23e 3434 23be
000002d0: 7892 2a3c e662 cc3a 1f08 37be 3a56 a23e
000002e0: ff39 923d 4acd 08be b979 d8be c2d6 35be
000002f0: 8c6e 053e a4e4 aabe ac96 3b3d b64b d13d
00000300: 6d39 a7bd 28ba 48be 3506 45bd fda7 483e
00000310: 7d74 bfbd ebee 9abe ebdf debd 64a3 b7bd
00000320: ecfb b23d c8f5 963d e32f 813e b4b2 603d
00000330: 2072 08bf 6b90 a0be cd36 6c3e cbc3 e33d
00000340: 6b8a af3e 9005 6cbe 4412 50bd b140 2bbe
00000350: 3cbd 97bd 76d2 f73d 4cea 083e aff0 dbbd
00000360: b8e1 fbbb 2215 653e 039a 343e f346 9bbd
00000370: c5a7 a9be e15b 56bd 8fc1 6c3d 4f34 7cbe
00000380: 9490 8fbe 4d10 4b3e afa9 62be 290a 823e
00000390: 152d 8a3d 6c43 ed3d a54f 6e3e 7372 293d
000003a0: a38b 7b3e 0bb8 20be a31b 81be b733 0dbe
000003b0: 1b83 acbe eddf 34be 56b5 9d3c 0041 febd
000003c0: c643 113e 14f5 3f3e 3f69 03be fe0d 89be
000003d0: 2cd5 ae3c ad70 14be bec5 163d 555a e13b
000003e0: b6aa 233e 1b7b 4cbe 7e64 3f3e 15e2 d7bd
000003f0: 605e 29be dbf0 993d d82f 20b9 d303 31bc

rnn.bias_ih_l0_reverse f4 [32]
0.058193356 0.08836278 -0.027373051 -0.16900687 0.032552317 -0.18048066 -0.2150402 -0.09151241
-0.2096061 -0.1882826 -0.14792044 0.1315133 0.054723732 -0.05748854 0.059094056 0.04682205
0.14351928 -0.04818701 -0.039504837 -0.083037 0.096812025 0.05349851 0.10119405 0.019190582
-0.035306744 -0.03980282 0.03275654 -0.0531634 -0.12190343 0.17239185 -0.005121723 0.15797162
00000000: 285c 6e3d 8cf7 b43d 733d e0bc 2310 2dbe
00000010: 9455 053d eccf 38be 8033 5cbe dc6a bbbd
00000020: fba2 56be 27cd 40be 7578 17be 6cab 063e
00000030: fe25 603d 1a79 6bbd 9c0c 723d 7ac8 3f3d
00000040: b8f6 123e be5f 45bd d3cf 21bd 4d0f aabd
00000050: 6245 c63d 4121 5b3d d33e cf3d 9135 9d3c
00000060: ce9d 10bd 4808 23bd b92b 063d dec1 59bd
00000070: 81a8 f9bd 7d87 303e 20d4 a7bb 50c3 213e

rnn.bias_hh_l0_reverse f4 [32]
0.18473843 -0.004518688 0.09913925 0.068410575 -0.09123666 0.09298368 -0.051639777 0.066173896
-0.028416056 -0.10622398 -0.121574245 0.016467698 -0.016912244 0.18428795 -0.036632236 0.13378684
0.26261202 0.052570734 0.17673405 -0.08607723 -0.18861902 0.027179582 -0.22766493 0.0075458605
0.013685059 0.06684517 -0.1249074 -0.009314037 0.19810653 0.19679937 0.18969372 0.07567382
00000000: 122c 3d3e 8111 94bb 8509 cb3d d81a 8c3d
00000010: 49da babd 3a6e be3d 3b84 53bd 2e86 873d
00000020: cac8 e8bc f58b d9bd ebfb f8bd 44e7 863c
00000030: 8c8b 8abc fbb5 3c3e af0b 16bd 6bff 083e
00000040: 1575 863e 6954 573d c5f9 343e 4249 b0bd
00000050: 5825 41be b7a7 de3c ff20 69be 4443 f73b
00000060: 4c37 603c 1fe6 883d 73cf ffbd e799 18bc
00000070: 70dc 4a3e c685 493e 123f 423e e0fa 9a3d

fc1.weight f4 [12, 64]
-0.6199733 -0.048223265 0.49084225 0.39195448 0.23732807 -0.21198155 0.3084034 -0.3392002
-0.27134377 0.3513129 -0.24711443 0.22665979 0.19222477 -0.207102 -0.20513737 -0.25713116
0.16424866 0.18800418 0.17779951 0.23758833 0.4427801 -0.51380527 0.21816514 0.2505152
0.28925067 -0.23971355 -0.11850128 0.40684956 -0.26281238 0.39449942 -0.3056722 -0.03659467
0.2029028 -0.5033642 0.31172436 -0.24605669 0.21844923 -0.33609626 -0.24277455 -0.36930594
-0.35504344 -0.2555628 0.14563976 0.36605132 -0.022238519 0.24262577 0.2107552 -0.23636013
0.3072663 -0.4204585 0.03248882 0.04412163 -0.46413854 -0.13216567 -0.25209582 -0.19656149
-0.36053053 0.22733587 -0.17505096 0.33400038 0.17324495 0.15170951 0.26182532 -0.15607223
0.3466291 -0.05441075 0.06412695 -0.18485636 0.045388214 0.17525405 -0.39156204 0.44049165
-0.16907296 -0.5042772 0.2749126 -0.49641803 -0.5389812 -0.34145135 0.056679606 -0.02176393
-0.38231096 0.09294938 0.16439764 0.072328456 -0.206238 0.17344259 -0.62496954 -0.1642764
0.45239788 -0.31092107 -0.31045687 0.2684712 0.24880289 -0.0063998085 -0.38370228 0.28715497
-0.4833732 -0.0088956645 0.21549298 0.58247006 -0.3170891 -0.6968593 0.3843036 0.046012018
-0.026435988 0.3553584 -0.6136007 -0.12129278 -0.7727126 0.48736945 0.4635897 0.6352008
-0.59661 0.094127335 -0.22767535 0.32552865 0.2901879 0.33496627 -0.38849786 0.7206637
0.6021575 -0.7398956 -0.081014104 -0.76036775 -0.54741734 -0.021593891 0.064611234 0.042471174
0.56094766 -0.61492306 -0.35864615 0.10975518 -0.67825794 -0.025971072 -0.72789997 -0.011781772
0.93209356 -0.047955375 -0.8259056 -0.97210956 -0.20829166 0.4917528 0.00597163 0.57294
0.39252543 -0.35859174 -0.8393182 -0.106608845 -0.6917454 0.32394588 -0.070135504 -0.028648779
-0.071062125 0.52730876 -0.06572795 -0.11941288 -0.4011552 -0.9842715 0.67182153 -0.08431247
-0.20427997 0.6344574 -0.059775233 0.41998902 -0.1600683 0.9541433 0.012716883 0.12611888
-0.0044053206 -0.46619132 -0.5416452 0.035002142 0.2965508 -0.30280674 -0.30549458 0.529847
0.31228173 0.29200628 -0.5102914 0.13117649 -0.36799553 0.7259533 -0.02314373 -0.3581369
-0.8634284 -0.98245484 0.517468 -0.3999944 -0.69233465 -0.6525073 0.11978993 0.6679172
-0.5765017 -0.46834227 -0.7809424 0.61543703 -1.0910709 0.11974954 0.56215346 -0.68722177
-0.22801687 -0.19326816 -0.69890326 -0.7035807 -0.69532126 -0.17668056 0.9810053 0.8351007
-0.54252344 -0.31533593 0.2569166 0.33530164 0.5484892 0.43123245 0.4255228 -1.0501168
-0.53053904 0.76115525 0.86776924 0.1366419 -0.29234186 -0.64097106 0.014191054 -0.2566435
0.86172575 0.23568304 0.14314474 0.28045744 -0.6545126 -0.0724866 -0.15178512 -0.015215917
-0.08816651 -0.46177235 -0.49121866 -0.3685371 -0.41285604 -0.44833693 -0.21080755 0.41729876
0.4544047 0.28206038 0.66713905 0.39848942 0.5550777 1.1355352 -0.47712067 0.23691241
-0.23975736 -0.6643005 0.58662033 -0.9600857 0.48416188 0.59643006 -0.5666351 0.8854516
00000000: 92b6 1ebf c285 45bd ad4f fb3e 42ae c83e
00000010: 2106 733e b111 59be 0de7 9d3e a6ab adbe
00000020: 92ed 8abe 49df b33e 910b 7dbe 8119 683e
00000030: 92d6 443e 8c12 54be 880f 52be b2a6 83be
00000040: cd30 283e 2b84 403e 1311 363e 5b4a 733e
00000050: 13b4 e23e be88 03bf af66 5f3e 8743 803e
00000060: aa18 943e 7877 75be cdb0 f2bd 964e d03e
00000070: 588f 86be d4fb c93e 1181 9cbe 4be4 15bd
00000080: c0c5 4f3e 7adc 00bf 569a 9f3e 49f6 7bbe
00000090: 28b1 5f3e cf14 acbe e499 78be ab15 bdbe
000000a0: 41c8 b5be 21d9 82be 9722 153e 146b bb3e
000000b0: 8e2d b6bc e472 783e 36d0 573e 6408 72be
000000c0: 0252 9d3e 5646 d7be ff12 053d e2b8 343d
000000d0: 91a3 edbe 7056 07be b412 81be 6a47 49be
000000e0: 7597 b8be bcca 683e 8f40 33be 1902 ab3e
000000f0: 2067 313e bd59 1b3e f80d 863e 66d1 1fbe
00000100: 5f79 b13e cedd 5ebd fe54 833d fc4a 3dbe
00000110: fee8 393d cc75 333e d27a c8be 1f88 e13e
00000120: 7621 2dbe 5018 01bf 58c1 8c3e 812a febe
00000130: acfa 09bf b6d2 aebe e028 683d 454a b2bc
00000140: 43be c3be 3f5c be3d db57 283e f120 943d
00000150: 0e30 53be ef9a 313e 01fe 1fbf 1338 28be
00000160: b2a0 e73e 0c31 9fbe 34f4 9ebe 0f75 893e
00000170: 2fc6 7e3e 7cb5 d1bb a074 c4be fa05 933e
00000180: b17c f7be 1fbf 11bc 31aa 5c3e c21c 153f
00000190: 8159 a2be 5f65 32bf 71c3 c43e 1977 3c3d
000001a0: 4990 d8bc 89f1 b53e ef14 1dbf 5968 f8bd
000001b0: 7ed0 45bf 7d88 f93e a15b ed3e 859c 223f
000001c0: 6fbb 18bf d5c5 c03d ba23 69be b1ab a63e
000001d0: 8293 943e b380 ab3e 31e9 c6be 6b7d 383f
000001e0: fe26 1a3f cc69 3dbf b9ea a5bd 76a7 42bf
000001f0: 8b23 0cbf ace5 b0bc e552 843d 41f6 2d3d
00000200: 449a 0f3f 996b 1dbf 78a0 b7be 53c7 e03d
00000210: 50a2 2dbf 49c1 d4bc a757 3abf 5508 41bc
00000220: af9d 6e3f db6c 44bd 8d6e 53bf 2cdc 78bf
00000230: 694a 55be 06c7 fb3e aaad c33b 32ac 123f
00000240: 18f9 c83e 5699 b7be 8fdd 56bf bd55 dabd
00000250: 3a16 31bf 3cdc a53e 34a3 8fbd d8b0 eabc
00000260: 0589 91bd b5fd 063f 609c 86bd bd8e f4bd
00000270: 3764 cdbe 38f9 7bbf 7ffc 2b3f 04ac acbd
00000280: c52e 51be cd6b 223f e0d6 74bd cd08 d73e
00000290: f2e8 23be bc42 743f 795a 503c 4f25 013e
000002a0: 825a 90bb a1b0 eebe 43a9 0abf 685e 0f3d
000002b0: 82d5 973e 7c09 9bbe c969 9cbe 0ea4 073f
000002c0: 64e3 9f3e d981 953e 75a2 02bf 2153 063e
000002d0: e969 bcbe 13d8 393f eb97 bdbc b85d b7be
000002e0: a509 5dbf 2982 7bbf c878 043f 11cc ccbe
000002f0: d83c 31bf b80a 27bf 6c54 f53d 9ffc 2a3f
00000300: 9e95 13bf 8fca efbe d7eb 47bf 488d 1d3f
00000310: 36a8 8bbf 3f3f f53d 4ae9 0f3f c4ed 2fbf
00000320: 417d 69be 17e8 45be 53eb 32bf dd1d 34bf
00000330: 9300 32bf c0eb 34be 2a23 7b3f 29c9 553f
00000340: d1e2 0abf b673 a1be 938a 833e a8ac ab3e
00000350: ca69 0c3f 80ca dc3e 20de d93e 3a6a 86bf
00000360: 68d1 07bf 12db 423f 2026 5e3f dbeb 0b3e
00000370: d5ad 95be ae16 24bf 9881 683c c766 83be
00000380: 0f9a 5c3f e556 713e 8994 123e 1e98 8f3e
00000390: 238e 27bf db73 94bd 8f6d 1bbe 2e4c 79bc
000003a0: a590 b4bd 6d6d ecbe 0381 fbbe e5b0 bcbe
000003b0: de61 d3be 6b8c e5be efdd 57be 2fa8 d53e
000003c0: bca7 e83e 386a 903e a0c9 2a3f ce06 cc3e
000003d0: 9219 0e3f 3859 913f 2949 f4be 2b99 723e
000003e0: f482 75be 990f 2abf c02c 163f 2dc8 75bf
000003f0: 11e4 f73e a4af 183f ff0e 11bf f5ac 623f

fc1.bias f4 [12]
0.026549412 -0.13809647 -0.7174649 -0.35839927 -0.93431216 -0.19090798 -0.14419404 -0.100366116
-0.10086145 -0.18553038 -0.13209373 -0.14437659
00000000: 277e d93c 2969 0dbe c8ab 37bf 1c80 b7be
00000010: 152f 6fbf 627d 43be 9aa7 13be c08c cdbd
00000020: 7390 cebd adfb 3dbe 9443 07be 75d7 13be
