src/src_learner/kotlin_finetuning_model.pt (torch, 138692 bytes, 11 tensors)

word_embeddings.weight f4 [178, 128]
000000 d4 39 b6 bf 61 20 13 bf 0a ba 43 bf 95 93 cc bf
       -1.4236398 -0.5747128 -0.7645575 -1.5982538
000010 b8 84 c9 3c a2 29 21 bf 46 fa 8d bf 3f 3f dd bf
       0.024599418 -0.6295415 -1.1092002 -1.7284926
000020 8a df 34 bf fa 67 98 3e 78 7e 05 bf 0b 75 fb bc
       -0.70653594 0.29766828 -0.521461 -0.030695459
000030 39 f8 97 be e3 cb ea 3f 75 ee c3 3e 9d e0 f6 3e
       -0.29681566 1.8343471 0.38267866 0.4821824
000040 93 18 2b bf c5 42 80 bf 38 df 37 3f 2c ab 6c 3e
       -0.6683437 -1.0020376 0.7182498 0.23112172
000050 16 cd 6e 3f 8a f6 6f 3e 01 98 e5 be be 32 43 3f
       0.93281686 0.23433891 -0.44842532 0.762493
000060 6c 2b 9c 3f dd 25 bd bd b4 a5 0b c0 5c 81 ac bf
       1.2200751 -0.092357375 -2.1819887 -1.3476977
000070 fb c2 5f bd 4c 30 01 bf d9 05 6b bf fd 6c b8 bc
       -0.054629307 -0.5046432 -0.918058 -0.022512907
000080 d5 ac f1 3f 14 f0 56 be 01 62 ca bd 2f a0 28 bf
       1.8880869 -0.2099002 -0.09881974 -0.6586942
000090 4b 57 4b 3e 24 4a 77 bd 21 31 2b bd 99 9d e4 be
       0.19857518 -0.06037344 -0.0417949 -0.44651487
0000a0 6c 17 22 be bf 0a e8 3e 62 a0 7a bd a1 3d 64 3e
       -0.15829247 0.453207 -0.06118811 0.22289135
0000b0 40 f9 15 40 87 13 88 bf 8d c4 ca 3f 25 ed 47 bf
       2.343338 -1.0630959 1.5841233 -0.7809623
0000c0 27 4d 4e bf a1 e2 11 3f 22 e5 b1 bd 13 e8 1b bf
       -0.80586475 0.56986433 -0.08686282 -0.6090099
0000d0 d3 0e 4c 3f 69 48 95 3e 59 17 87 3f 32 38 0d 40
       0.7971012 0.29156807 1.0554 2.206555
0000e0 92 4d 0b 3e 76 0e 6c 3f ad 59 6c be 4e fa e2 be
       0.1360381 0.92209566 -0.23081084 -0.44331592
0000f0 22 b3 d2 3f 83 26 4a bf 74 72 4a c0 95 0c 4c bf
       1.6460917 -0.78965014 -3.1632357 -0.797067
000100 a0 64 6b 3d 9a a4 6b bf ac 30 18 bf 61 7c 73 bf
       0.05746901 -0.9204804 -0.5944927 -0.9511166
000110 7d c5 c9 be b0 a4 a2 bd af 9e e1 3f d7 02 ed bd
       -0.39408484 -0.07941568 1.7626551 -0.11572807
000120 9b d8 5d bf 79 0d 3f be 9e ae 78 bf e6 50 4a bf
       -0.8665864 -0.18657483 -0.97141445 -0.7902969
000130 fb cd f5 be d4 98 f7 be 86 0b f2 3e a2 d2 70 bf
       -0.48008713 -0.48358786 0.47274417 -0.940714
000140 64 3c e6 be e9 42 5f bd bf 9b 43 bf 86 53 4f 3f
       -0.4496795 -0.05450717 -0.76409525 0.8098682
000150 2c 52 b8 bf ca 70 b7 be 97 d7 0d 3d 5f 03 81 be
       -1.4400077 -0.3582824 0.03462943 -0.25197884
000160 fe db bc 3e db 3c 15 bf 2f e7 8a bf 57 56 56 3f
       0.3688659 -0.58295983 -1.0851802 0.83725494
000170 0a 64 78 bf d8 d5 9b be 8b 6d e1 3d e6 24 fc 3f
       -0.9702765 -0.30436587 0.11007222 1.969876
000180 d3 8d 2c 3f 5a 02 98 3f 7d ce 6d 3f 75 c7 68 bf
       0.67403907 1.1875718 0.928932 -0.9092935
000190 06 6f c6 3f f3 af 4a bf 07 ea 42 bf 0b 22 8c 3f
       1.5502632 -0.7917473 -0.7613835 1.0947889
0001a0 89 04 b0 3f 7c 28 10 3f 71 ca 8a 3d b0 e6 51 be
       1.3751384 0.56311774 0.06776894 -0.20498157
0001b0 00 ab 05 c0 1d 44 29 bf c1 ea bc bf 0b 8d 75 bf
       -2.088562 -0.6611956 -1.4759141 -0.9591834
0001c0 5e 90 4c 3f ff 2c 3b bf 8d 1c af 3f 8b 47 3a 3f
       0.79907787 -0.73115534 1.3680588 0.72765416
0001d0 07 23 a2 3e 9b 77 ce 3e 67 65 23 3f b3 0e bf be
       0.3166735 0.40325627 0.638266 -0.37315902
0001e0 4d dd 1d 40 da 1d 31 3b 62 af 03 be 98 fd 03 40
       2.4666321 0.002702585 -0.12859872 2.0623531
0001f0 39 d1 04 c0 5a a5 e6 3f c1 b4 d7 3d 69 40 5c 3e
       -2.07527 1.8019211 0.10532523 0.21508946
000200 86 5d 36 3f 97 64 e3 bf bd 2d b5 3e ed 8c 99 3f
       0.71236455 -1.7765073 0.35386458 1.1996132
000210 7a 22 9b be 07 84 e1 bf 2d 85 22 3f 7a ea 4d bf
       -0.3029974 -1.7618417 0.6348446 -0.8043591
000220 e9 38 ce bf 03 91 ef bf 87 07 0b 3f 3c 22 29 3f
       -1.6111118 -1.8716129 0.5430836 0.6606786
000230 bf e4 12 40 a3 c6 2c 3f 1f 4e db 3f c0 aa e5 bf
       2.2952116 0.67490596 1.7133216 -1.7942734
000240 8a 7f ae bf 48 b4 7b bf 30 71 c1 3f a4 51 24 3f
       -1.3632672 -0.9832196 1.5112667 0.64187074
000250 50 28 f2 3e 29 70 db be a2 26 0d 3f 40 10 c6 bf
       0.4729638 -0.4285901 0.55137074 -1.5473709
000260 ff a2 04 3f 35 2f da 3d ed d9 89 3e ff 91 a9 3f
       0.5181121 0.10653535 0.26924077 1.324768
000270 8e 7d df 3f a0 6f ed 3f 9b d4 34 bf 4d a7 23 40
       1.7460191 1.854969 -0.7063691 2.5570862
000280 0e c7 d5 3e e8 d2 59 be 7d 07 57 bf 95 0c d7 be
       0.4175343 -0.2127186 -0.839958 -0.42001787
000290 d8 c0 1f bf 14 30 7a bf b3 f5 5f 3f 79 be 7c 3f
       -0.6240363 -0.9772961 0.8748428 0.9872814
0002a0 ca 80 9e 3e f8 a5 c2 3f 1b 45 9a 3f 49 65 e8 bf
       0.30957633 1.52069 1.2052339 -1.815591
0002b0 83 92 ce be 8a 8a 75 bf 63 a5 aa bb ff 82 a1 bd
       -0.40346155 -0.9591452 -0.005207704 -0.07886314
0002c0 ba f9 57 3f b3 35 95 3f 07 e5 06 3f b1 43 cf 3f
       0.8436543 1.1657013 0.5269322 1.6192533
0002d0 26 c7 76 bf b8 ea 10 3e bd 96 27 be f3 68 b7 be
       -0.96397626 0.14152038 -0.16366096 -0.35822257
0002e0 a6 73 dc 3f 43 6e 9b be 70 9b 74 3e 3b 08 ac 3f
       1.7222793 -0.3035756 0.2388742 1.3440012
0002f0 fe 67 d3 3d 68 d8 8c 3f b5 f0 ae be cd 84 72 3f
       0.10322569 1.1003542 -0.3416802 0.9473389
000300 43 8a 11 bf b4 6c 56 3f fe 4e e4 3f 67 1d 48 be
       -0.56851596 0.8375962 1.7836607 -0.19542466
000310 8b d1 03 3f 25 7a ec bf e9 ab 3a c0 88 3c 11 bf
       0.5149161 -1.8474776 -2.9167426 -0.5673299
000320 57 91 0a bf 20 2a 65 3f fb eb 61 bf c8 24 08 3f
       -0.5412802 0.895174 -0.882507 0.53181124
000330 07 dc c5 bf 82 75 31 be 5a 6e 3a 3f d1 b8 69 3d
       -1.5457772 -0.17329982 0.72824633 0.05706102
000340 fa cf 67 3f fd ec 85 3f d8 45 05 bf 8e 69 ad 3f
       0.9055172 1.0462948 -0.520597 1.3547838
000350 78 d6 70 3e ed 05 f5 3f 85 0f eb 3f 47 8a a9 3f
       0.23519313 1.9142433 1.8364111 1.3245324
000360 fc 10 78 bf 9f 35 a0 3f e7 eb 9a 3f ce 25 07 bf
       -0.96900916 1.2516364 1.2103242 -0.5279206
000370 ce cf 5f 3e cd 05 13 bf 13 83 ba 3f ad ae e2 3f
       0.21856615 -0.57430726 1.4571251 1.7709557
000380 60 30 d3 3f b4 2f dd be 0a c4 8a be 7b 36 b8 bf
       1.6499138 -0.43200457 -0.2710269 -1.4391626
000390 05 9f 9f 3f 8e 0d a3 3f 80 2a c8 3e 74 40 c6 3e
       1.2470404 1.2738512 0.39094925 0.3872105
0003a0 3d 7d a3 bd 7d f6 ae 3e 59 e6 72 3f d0 24 b1 bf
       -0.07982872 0.3417243 0.9488273 -1.3839359
0003b0 dc ae dc 3f 50 58 17 c0 1e f3 6d bf 0e 56 96 3e
       1.7240863 -2.3647652 -0.9294909 0.2936253
0003c0 92 4b 5c 3e 28 3f 70 3f 4f 9c bb 3f 1b 75 0e bf
       0.21513203 0.9384637 1.4657077 -0.5564744
0003d0 e3 ad 3e bf 4d 02 4f be 10 2e 6b be 3e 80 ae 3a
       -0.7448408 -0.20215721 -0.2296679 0.0013313366
0003e0 2a 24 c0 3e de c0 14 bf d5 82 12 bf 6c 3e 81 3f
       0.3752759 -0.5810679 -0.57230884 1.0097175
0003f0 b5 5e d8 bd 47 00 97 bf a7 ea b9 bd 43 28 10 3f
       -0.10564939 -1.179696 -0.090779595 0.56311435

rnn.weight_ih_l0 f4 [32, 128]
000000 26 c4 64 3c 33 04 0f be b5 35 b7 bd 87 f9 b9 bd
       0.013962781 -0.13966446 -0.08945791 -0.09080797
000010 dc 40 a4 bd e0 8c 64 bd 43 b3 4a 3e 22 e9 c9 3c
       -0.080201834 -0.05579841 0.19794945 0.0246473
000020 68 3d 86 bd 55 90 23 3e cc fc 02 bd 4c d6 8a 3d
       -0.06554681 0.15973027 -0.031979367 0.06779155
000030 19 2f f8 3d 75 0f 32 3c ae 01 c2 bd f6 35 2a bd
       0.12118358 0.010867943 -0.094729766 -0.041555367
000040 4b c6 3b bc c3 d3 ba bc 94 28 80 be 56 9d 0e bd
       -0.011460851 -0.022806054 -0.2503096 -0.034818016
000050 75 1d 46 be 51 21 89 bd bd 92 f8 bd 94 3e 8c bd
       -0.19347174 -0.06695808 -0.12137363 -0.06847873
000060 f0 46 cc 3d f4 1f 93 bd 4e 4f 16 3e b8 26 b7 bd
       0.09974468 -0.07183829 0.1467869 -0.08942932
000070 ec a0 33 3e 76 ae 60 be 06 64 8e bc 52 c2 0c bd
       0.17541856 -0.21941552 -0.01738168 -0.034365006
000080 3f 2d 01 3e 81 ce 47 3e 8b 3e 1c 3d 74 ba 48 be
       0.12614916 0.19512369 0.038145583 -0.19602376
000090 94 1d b7 3d d3 58 f5 bd ff bb 9a bd 5d 91 9e bc
       0.089411885 -0.119798325 -0.07555389 -0.019356424
0000a0 d2 58 d1 3d d9 1d 60 be 3d 5e 18 3e 2c 4e 58 be
       0.10222019 -0.21886386 0.14879699 -0.2112357
0000b0 d0 bc 29 3d ea 86 a3 bd cf b1 13 3e 1b e9 06 bd
       0.04143983 -0.07984717 0.14423297 -0.03293715
0000c0 63 42 f6 3d 38 aa 6b bd c2 84 73 bd b9 ef 56 bd
       0.12024381 -0.05753538 -0.05945278 -0.05247471
0000d0 b8 0a 5f bd 4e c5 d3 3d a8 93 fc bd 49 d7 d0 3c
       -0.05445358 0.10340367 -0.12332851 0.025493281
0000e0 2a ea 8e 3d ce 92 3b 3e d4 e1 8a 3a 5a 2b ed 3b
       0.06978257 0.1831772 0.0010595866 0.007237834
0000f0 5c 1e 5f bc db a3 3a 3d c1 95 3a be e4 2e 04 be
       -0.013618078 0.04556642 -0.18221189 -0.12908512
000100 0d e3 6d bd 1a 46 40 bd df 13 fa bd f0 72 44 3e
       -0.05807786 -0.046941854 -0.12210821 0.1918447
000110 99 d1 4e be 6c 23 40 3d 25 38 02 3e 7d 39 35 3c
       -0.20197143 0.04690878 0.1271673 0.01106107
000120 46 ca e5 ba d3 85 f9 3d b3 4a b4 bc e7 b1 84 3b
       -0.0017531596 0.12183728 -0.022008276 0.004049528
000130 6a f6 1d bd 6c 80 b5 bc 05 51 f1 3d 90 60 2c be
       -0.038565077 -0.022155963 0.117830314 -0.1683371
000140 88 42 66 be 03 d1 c4 3d a8 af 0a bd 9c b6 c4 bc
       -0.22486317 0.09610178 -0.033858925 -0.024012856
000150 63 58 23 be ac b2 00 3e 17 bd 7f 3d fd ad f7 3d
       -0.15951686 0.12568158 0.06243619 0.120937325
000160 39 2f b7 bd 79 ec fc 3d a8 e9 8c 3d 9b e9 ea bd
       -0.08944554 0.12349791 0.06880504 -0.11470338
000170 75 c6 09 be 15 77 26 be a5 ee 51 be 63 f5 35 bd
       -0.13454612 -0.16256364 -0.20501192 -0.044423472
000180 09 74 1e be d5 01 d7 3d c9 ce 8a 3e 19 6f 59 3d
       -0.15473951 0.10498396 0.2711089 0.053084467
000190 31 34 6d 3c 35 2b fd 3d ec 6b 31 3b 9c f8 a3 3d
       0.014477775 0.12361757 0.0027072383 0.08006403
0001a0 94 52 2a bb 3b 98 c9 bb cf fe 84 3c a8 9e 64 3e
       -0.0025989162 -0.0061521805 0.016234783 0.22326148
0001b0 b1 2a b9 3c 70 9d 2d bc e6 fd b6 bd 12 b6 16 3e
       0.022603365 -0.010596618 -0.08935146 0.14717892
0001c0 c5 e5 64 bd f8 a3 09 3d 6b 7c 05 bd db 7a 85 bc
       -0.055883188 0.03360364 -0.032589357 -0.016293934
0001d0 41 58 88 3e 36 02 66 bc 2f 71 21 bd 47 86 f4 3d
       0.26629832 -0.014038613 -0.03941458 0.11939674
0001e0 61 84 9a 3d 83 6e 97 bd 9b 4f 24 3c 1b af 63 3d
       0.075447805 -0.07394125 0.010028745 0.055586915
0001f0 4d 67 f8 bd 70 69 43 be 0f b7 07 be 5b 6d 57 bc
       -0.12129078 -0.1908319 -0.13253425 -0.013148631
000200 0f fc 7e bd 91 b5 8b 3d 93 6d 4a be 1b 96 68 3c
       -0.0622521 0.068217404 -0.19768362 0.014195944
000210 7e 43 d5 3d 50 99 0a be 5e 0c 4f 3d 45 df 1f be
       0.10413264 -0.13535047 0.050548904 -0.15612514
000220 08 23 c2 bd 5e bb 0d bd b5 f2 5b be 0a b2 12 be
       -0.09479338 -0.034602515 -0.21479304 -0.14325729
000230 37 c9 0e be 62 b5 41 3d 55 bb 5d bd 0d 2e 40 be
       -0.13943945 0.04729212 -0.054133732 -0.18767567
000240 63 42 d4 3d 1d 2d 95 bd 25 5c 88 bd a4 26 e1 3d
       0.10364225 -0.07283995 -0.066582 0.10993698
000250 33 a5 bf 3b 4e 37 80 bd ec c2 46 3d f3 9d 04 3e
       0.0058485507 -0.062605485 0.048525736 0.12950878
000260 47 84 d4 bc 1c 91 31 be 93 67 1c 3e 1a 5e 15 be
       -0.025941981 -0.17340511 0.15273885 -0.14586678
000270 29 da 72 bb 83 ae d2 bc 57 fc 5d 3d bf 21 74 3d
       -0.0037056303 -0.02571798 0.05419573 0.059602495
000280 cd 6f 74 3c b8 63 ed 3d 8c a1 9f 3d 84 90 e4 ba
       0.0149192335 0.115912855 0.077944845 -0.0017438089
000290 57 9b 2f be c1 34 c4 3d 70 8f cd bd a5 d1 42 be
       -0.17149101 0.095803745 -0.10037124 -0.19025286
0002a0 e0 33 91 bd 72 f1 aa 3d fb 90 4e 3e f3 dd 2f 3e
       -0.070899725 0.08346833 0.20172493 0.1717451
0002b0 4f a1 1b bd 67 cc dc bd 1d 8a 37 3e d7 32 e4 3d
       -0.037995633 -0.10781174 0.1792378 0.111425094
0002c0 ef 6a 2a be ba 9d e5 bc 9f 4e 02 be 4f ae 8e be
       -0.16642354 -0.028029311 -0.12725304 -0.27867362
0002d0 80 24 9d 3c 29 28 21 bd 92 0e ce 3d 2a d2 ea 3d
       0.019182444 -0.03934494 0.10061373 0.11465867
0002e0 9e 84 22 3e ca 35 da bd a8 f7 84 bd 92 f8 04 bd
       0.15870902 -0.10654791 -0.06492549 -0.032463618
0002f0 28 88 32 3e 3e 10 d3 bd f1 9b c2 3d c7 b2 22 bd
       0.17434752 -0.10305832 0.095024 -0.039721277
000300 eb 13 2b be b2 f4 d2 3d fc ab a2 bc 31 07 06 be
       -0.16706817 0.10300578 -0.0198574 -0.13088681
000310 db 48 1b bd b6 98 00 3e d9 93 50 bd ae 5e 2c bb
       -0.037911277 0.12558255 -0.05092225 -0.002630155
000320 ba fd 00 3e aa 61 0e 3d 55 c1 54 be 7e 12 49 3e
       0.12596789 0.03476111 -0.20776875 0.1963596
000330 36 9c 61 bd 40 80 58 3d dc 1d a6 bd 30 18 a8 3d
       -0.055080615 0.052856684 -0.08111164 0.082077384
000340 bd 59 37 3e 66 a7 9f 3d 7c 49 88 bd e5 a0 f6 bc
       0.17905326 0.077956006 -0.06654641 -0.030106017
000350 68 5a 40 3e 47 14 95 bd 60 41 fe bd 9b 02 17 bd
       0.18784487 -0.07279258 -0.12414813 -0.03686772
000360 31 bb a0 3c f6 4f 47 3e 66 e1 fc 3c b5 3c 9d 3d
       0.01962051 0.19464096 0.030869197 0.076775946
000370 aa ce a8 bc c3 58 1f 3d 1e a1 6c 3d 88 e2 ee 3d
       -0.020606358 0.03890301 0.05777084 0.11664301
000380 9b 9e bd 3d e4 72 e8 3d bf 4a fc 3d fe e9 37 3c
       0.09258767 0.11350039 0.12318944 0.011225222
000390 44 ee 33 bc 39 68 90 be c2 04 4f bc 43 f1 36 3d
       -0.0109821 -0.28204516 -0.012635412 0.04466368
0003a0 26 12 fd bd e3 c0 15 3e a6 96 cd bd 8f 15 29 3e
       -0.12356977 0.14624362 -0.100384995 0.1651213
0003b0 f3 42 2d 3c a8 06 95 3d 5c 0e b9 3d d9 8e 0f 3e
       0.010575044 0.0727666 0.09035942 0.14019336
0003c0 45 4a b4 bd 07 1e ff 3c 56 f2 0d 3d 0d 81 c4 3d
       -0.08803228 0.031142248 0.034654938 0.09594927
0003d0 f4 8d e8 bd 3d fb 0b 3e 09 b8 df bb 9b 86 0e 3e
       -0.113552004 0.13670059 -0.0068273586 0.13918535
0003e0 55 ba ed bd 9d 81 a0 3d 24 25 77 bd 22 11 3b 3d
       -0.11607806 0.07837222 -0.060338154 0.045670636
0003f0 e1 84 23 be c9 00 8b bd 89 dd 53 3d 78 b9 37 3e
       -0.15968658 -0.06787259 0.051724944 0.17941844

rnn.weight_hh_l0 f4 [32, 32]
000000 4c 0c 10 3e c4 e5 86 3c 61 36 04 3d 41 47 c1 bd
       0.14067191 0.016466983 0.032278422 -0.09437419
000010 2d d2 1a be e4 d5 61 be 06 55 06 bf e1 23 2f bd
       -0.15119238 -0.22054249 -0.52473485 -0.042758826
000020 99 f4 69 3e e6 61 f0 3d 98 61 25 be 6f 53 47 3d
       0.22847213 0.11737423 -0.1615051 0.048663553
000030 a4 a5 64 3e 38 b4 42 be 79 c0 0b be b6 ef 66 be
       0.22328812 -0.1901406 -0.13647641 -0.2255238
000040 5f e8 6c 3e 63 b0 8d be 15 04 be 3d 64 58 f8 3d
       0.23135518 -0.27673635 0.09278122 0.12126234
000050 fc ce 2f be 6f 17 a9 be 42 9b 76 3e 19 d8 1c be
       -0.17168802 -0.3302569 0.24082664 -0.1531681
000060 0c af 4a be d0 0e 02 3e 5a 40 b5 be 8f 7b 13 3e
       -0.19793338 0.12700963 -0.3540066 0.14402603
000070 8e 4b 9d bd 35 ea 0a bd 4f 68 dd bd 87 d1 8b be
       -0.076804265 -0.033914763 -0.10810911 -0.27308294
000080 ac e3 46 be b9 66 73 bd 0a 3a e2 3d 8b fa 8e 3c
       -0.19422787 -0.059424136 0.11046226 0.017453453
000090 39 86 ce bd 59 5c 8d be d6 9e 6d 3c 2d 08 e4 bd
       -0.10084195 -0.27609518 0.0145032015 -0.11134372
0000a0 db 90 1c 3e 41 7e fd 3d e4 f6 83 be 6a d0 28 be
       0.15289633 0.12377597 -0.257743 -0.16485754
0000b0 c3 3a 24 3e 93 d6 44 bb 90 ca 96 be eb f1 60 3d
       0.16038041 -0.0030035123 -0.29451418 0.05491821
0000c0 d9 6b 24 be 40 31 93 3d e5 c8 f2 3d f4 38 8f 3e
       -0.16056766 0.07187128 0.11854724 0.2797314
0000d0 8e 8e 1f 3e 43 e2 13 3e 14 85 04 bd 68 4c 03 3e
       0.15581724 0.14441781 -0.032353476 0.12822115
0000e0 ab 94 10 3e 13 ac 43 be 5e b8 8d 3c bc 79 a2 3e
       0.14119212 -0.1910861 0.017299827 0.317335
0000f0 85 ff 94 be a9 bf 82 3e 5d 4e b2 be 65 67 45 3e
       -0.29101196 0.2553685 -0.3482541 0.19277723
000100 f1 ff 37 3e 79 2b 50 3e 99 e6 16 3e c4 37 27 be
       0.17968728 0.20329084 0.14736404 -0.16329867
000110 0d 14 ca bc d1 7d 26 bd 51 ca dd 3e 15 56 42 3d
       -0.024667764 -0.04064733 0.43318418 0.047445375
000120 a8 ae d9 3c c8 d7 df bd 7f 59 dc 3e a3 3e 06 be
       0.02657254 -0.10929829 0.4303703 -0.13109832
000130 e2 cb a9 3e 8e 53 20 3e 58 94 b4 3d e6 47 6d 3d
       0.33163363 0.15656874 0.08817357 0.057929896
000140 ac c5 c8 3a 2e 87 b3 3c 63 4e 7b 3d 15 7c 41 bd
       0.00153177 0.021915045 0.061354052 -0.047237474
000150 35 35 47 3c b2 74 a8 bd 5f d1 0f bd ca 6a 38 bd
       0.012158682 -0.08225383 -0.03511178 -0.045023717
000160 de 23 bf bc fa 1d 10 be df 3c 77 3e df cb 82 bd
       -0.023332532 -0.14073935 0.24144314 -0.063865416
000170 fe f3 b2 3d 91 22 ac 3d 2d 23 48 3e 78 a0 be 3e
       0.08737944 0.084050305 0.19544668 0.37231803
000180 92 77 db bd e5 82 1e 3e e7 da 4b bc 86 8b 19 be
       -0.107161656 0.1547962 -0.012442327 -0.1499463
000190 98 fd 8a be ff a2 3e be 84 23 24 be 41 79 66 3d
       -0.27146602 -0.18616866 -0.16029173 0.05626798
0001a0 f9 09 e2 be 91 08 f5 bd c0 a7 7d 3e ce 46 2e be
       -0.44148234 -0.119645245 0.24771023 -0.17019197
0001b0 c2 7c 11 3e c4 06 70 be 07 5c 33 3e d1 1b 2d 3e
       0.14207748 -0.23440081 0.17515574 0.16905142
0001c0 1c 10 4f 3d d1 d8 d1 be cf 08 e9 3e 9c 7c 43 3e
       0.050552472 -0.4098573 0.45514533 0.19090503
0001d0 3c c3 a3 bb db ed 31 be 3e cb 8f 3d 41 b7 9c bd
       -0.004997639 -0.17375891 0.07021187 -0.076521404
0001e0 49 27 44 3e 3e 41 d9 bd fa ca 5b be 9c ee 24 be
       0.19155611 -0.10608147 -0.21464148 -0.16106647
0001f0 df bf 9b bc 45 b9 b4 bd 7e 30 e0 bc 6f ba dd bd
       -0.01901239 -0.088244 -0.027366873 -0.10826575
000200 2c 56 34 be 1e 38 3c 3e 2d 5b 79 3e 4c e7 1a be
       -0.17610997 0.18380782 0.24351187 -0.15127295
000210 42 4f 8c 3c 34 45 a2 bd c4 4a 96 bd 6f b9 0f 3e
       0.017127637 -0.07923356 -0.07338479 0.14035581
000220 c4 c3 3a 3e 02 b0 21 3e 41 30 8f bd d4 6d f9 bd
       0.18238741 0.15789798 -0.069916256 -0.12179151
000230 0f 4b a8 3d a1 4f 17 3e 71 e1 56 be 9e f1 08 be
       0.08217441 0.1477647 -0.20984437 -0.1337342
000240 1c 65 58 3d c8 6c c4 b9 56 60 76 3e 85 26 48 bd
       0.0528308 -0.00037465082 0.24060187 -0.04886486
000250 da 43 17 be 8d fc a2 bc cc 66 39 3e 1c bf 12 3d
       -0.14771977 -0.019895816 0.1810562 0.035826787
000260 38 4c 80 3c 19 af a5 bd fd 56 22 be cf 2a 53 bd
       0.015661344 -0.08090038 -0.15853496 -0.051554497
000270 27 60 4a bd 7c 77 85 3e 4f 74 50 bc bb 1d 33 3e
       -0.049408104 0.26067722 -0.012723043 0.1749181
000280 14 ba 0b bd a9 33 1d be b0 ed ee 3d 86 68 53 3e
       -0.034113005 -0.15351738 0.11666429 0.20645341
000290 05 a0 df bd 91 81 8f 3e 03 d7 bb be 75 f9 94 3e
       -0.10919193 0.2802854 -0.36687478 0.2909657
0002a0 80 2c 7a 3e 77 3f 97 bd 62 c6 30 be 26 4f 8e 3d
       0.24431038 -0.07385152 -0.17263177 0.0694869
0002b0 69 8b d7 3d eb 83 36 be da d0 3d 3e 5c 70 9e 3d
       0.10524637 -0.1782376 0.18536702 0.077362746
0002c0 5b 27 a6 bd d8 41 49 be dc b4 df bd cf bf 95 bb
       -0.08112975 -0.19654024 -0.10923168 -0.0045699845
0002d0 3e 42 40 bd e5 62 9e be 00 47 b4 3d f4 77 6f be
       -0.046938173 -0.30934826 0.08802605 -0.23385602
0002e0 84 31 98 bc f9 e2 23 bd f1 e9 20 be a1 1f 2c 3e
       -0.018578298 -0.04001138 -0.15714242 0.1680894
0002f0 a9 a2 49 3e 67 b2 b6 bc a3 8c 23 be 84 ab 62 be
       0.19690956 -0.022301866 -0.15971617 -0.2213574
000300 61 3c d3 be 4d 9b 30 3e e4 82 0a be c4 b9 46 be
       -0.41257003 0.17246743 -0.13526493 -0.19406801
000310 18 15 cb 3c c1 8f 6b be 32 df d5 bb ab 7a 3e 3e
       0.024790332 -0.23004057 -0.006526851 0.18601482
000320 6e 76 ae be c2 9c e8 bd 66 1a bd be 1c 86 5e be
       -0.3407473 -0.11358024 -0.36934203 -0.21730846
000330 c8 55 8b 3d 8f 36 d7 3e 19 40 c1 3c 9f 2d 8c 3d
       0.06803471 0.42033812 0.023590134 0.06844639
000340 40 18 15 be df c9 9a 3d 20 62 9c 3d bd f0 5c bc
       -0.14560032 0.07558035 0.07635903 -0.013485131
000350 a7 1a ed bc d1 fa c3 be bc 56 85 bd 3c 3b a4 bc
       -0.028943373 -0.38277295 -0.06510684 -0.020047776
000360 1a b0 1e be 63 e2 f8 3d c0 0d 31 3d c1 dc 29 be
       -0.15496865 0.12152555 0.043226004 -0.16588117
000370 26 2d 18 be 36 fa 05 3d 29 39 b5 3d 65 70 09 3e
       -0.14860973 0.032709323 0.08848793 0.13421781
000380 7f 82 50 be 6a 89 10 bd fe 62 94 3e df 2a 17 3e
       -0.2036228 -0.0352873 0.28981775 0.14762448
000390 bd 03 27 3e 46 0b e4 bb ea 20 c6 3c 92 c2 60 3d
       0.1631002 -0.0069593517 0.024185617 0.054873057
0003a0 40 09 fd bd 81 03 e7 3c 11 dd c0 be 1b e3 1a be
       -0.1235528 0.028199913 -0.3766866 -0.15125696
0003b0 40 f6 ab be e8 6e fd 3e 3b 78 82 be c3 12 2f bd
       -0.3358631 0.49498677 -0.25482354 -0.042742502
0003c0 1f 42 69 3e 66 08 10 3d 46 f8 d0 bb 10 31 6b 3b
       0.2277913 0.03516426 -0.0063772528 0.0035887398
0003d0 ba ed da bd 17 46 c4 3d ee 13 12 be 1b 08 84 3e
       -0.10689874 0.09583681 -0.14265415 0.25787434
0003e0 16 26 49 be 04 68 8f bd 37 bc 10 3d 11 ee 85 3d
       -0.19643435 -0.07002261 0.035335746 0.06539548
0003f0 36 bb 81 3d 37 a9 4d 3c 7c d7 b4 bd 76 5a ef 3c
       0.06334536 0.012552551 -0.08830163 0.02921794

rnn.bias_ih_l0 f4 [32]
000000 f5 81 bf 3c 0d ad e2 3d 75 bd 3a 3e 72 9d b8 3d
       0.023377398 0.11068163 0.18236335 0.09014405
000010 75 54 ee 3d 19 f1 ea bd 84 01 9a 3d e0 54 71 39
       0.11637203 -0.11471767 0.0751982 0.0002301517
000020 e4 32 17 3e a2 14 0d 3e 24 62 ea bd ff 52 48 be
       0.14765507 0.13777402 -0.114445 -0.1956291
000030 74 69 b7 3d d2 f9 05 be b0 07 b5 bd d0 1f 0e be
       0.089556605 -0.1308358 -0.08839357 -0.13879323
000040 b2 d8 ac bc b0 d6 fd 3b 2a e3 b5 3d fe 19 d0 3c
       -0.021099422 0.00774654 0.08881219 0.025403019
000050 9c 4d 4b 3d a9 98 e5 bd a9 98 4b 3e 54 62 83 3d
       0.04963456 -0.11210758 0.19882454 0.06415239
000060 50 0f 84 bd 8e cc 3b be 16 2f cb bb 78 56 10 3e
       -0.06448233 -0.1833975 -0.0062006814 0.14095485
000070 51 a8 06 be 8c 71 ba bd 33 cd 35 be 71 f9 87 3d
       -0.13150145 -0.091036886 -0.17754059 0.06639374

rnn.bias_hh_l0 f4 [32]
000000 42 cb ac bd 99 37 ec 3d bd 2e 26 3e ee e6 65 3e
       -0.08437206 0.11534042 0.16228767 0.22451374
000010 19 ae 85 3d 65 9a 3c bd d0 79 ee 3d cd 54 24 3d
       0.06527347 -0.04604568 0.11644328 0.040119935
000020 6f a9 90 bd f5 b4 c8 bd 1f e5 23 3e e1 6b d6 bd
       -0.07063567 -0.0980014 0.16005372 -0.10469795
000030 88 d1 06 bd 2f 19 47 39 12 b3 05 be 30 53 82 3d
       -0.03291467 0.000189875 -0.13056591 0.06363523
000040 a6 27 97 bc c5 0b 7d 3d b4 5b 35 3e 22 b3 e1 3d
       -0.018451523 0.061778802 0.17710763 0.11020495
000050 7b 24 94 bd 6f a0 2f 3d bf c6 06 ba b5 6c 3a be
       -0.072335206 0.04287761 -0.000514131 -0.18205531
000060 82 72 1c bc c3 c2 b2 bd 75 34 2f 3c 8d 19 73 3e
       -0.009548785 -0.08728554 0.010693659 0.23740216
000070 4a 07 1a bd ea 58 4d 3e bf a2 8b be 3a 72 8f 3d
       -0.037604608 0.2005345 -0.27272603 0.07004209

rnn.weight_ih_l0_reverse f4 [32, 128]
000000 d5 6f 37 3e dc bc 79 3d 72 5c b2 bd 87 6f 1f 3d
       0.17913754 0.060971126 -0.08709039 0.03892472
000010 25 7f d1 3d e0 8f a0 3d 52 33 3c 3e 5a 1d c1 bd
       0.10229329 0.07839942 0.18378952 -0.094294265
000020 23 aa 88 3d e6 2f 88 3d 48 1e ac bd 6c 69 42 bd
       0.06673076 0.06649761 -0.08404213 -0.04746382
000030 25 a4 eb 3d c8 c9 40 3e 43 6a 53 3d 3b 05 d6 bc
       0.115059175 0.18826973 0.05161501 -0.026125541
000040 dc 1f 12 bc f1 53 99 bc 07 4c 2d 3e d8 94 12 3e
       -0.008918729 -0.018716784 0.16923533 0.14314592
000050 8c f4 01 3e 06 d9 4b be ec 4a 86 bc 1d 05 6c 3d
       0.12690943 -0.19907007 -0.016393147 0.057622064
000060 04 c4 dc bc 30 be 28 3e 8c 8d 06 3e 5b 8c a6 3d
       -0.026948936 0.16478801 0.13139933 0.081322394
000070 fa 1e 4a bd 74 38 b9 3b 59 11 36 3c 1a 66 09 3e
       -0.049345948 0.0056524817 0.011112534 0.13417855
000080 d3 68 e2 bd cf 39 6b be 00 75 82 bd fe 5e 60 3e
       -0.1105515 -0.22971271 -0.06369972 0.21911237
000090 01 b8 46 bc 72 98 a6 bd f7 ad 0f be 1c 45 a4 bd
       -0.012128831 -0.081345454 -0.14031206 -0.08020994
0000a0 4c 6b dc 3d df 74 2f 3e 4f 2f 91 3d 90 b0 40 bd
       0.10762653 0.17134427 0.070891015 -0.047043383
0000b0 60 c2 06 bc 01 93 6b 3e 6f a8 b2 3d 59 65 20 be
       -0.008225054 0.23005296 0.087235324 -0.15663661
0000c0 7c a4 53 3e 0d e6 9d bd 79 81 9d bc ae 8d cf bc
       0.20668215 -0.07709894 -0.019226776 -0.025336113
0000d0 ee a1 52 3e df 7c ed bd 76 9a b0 bd d9 c4 84 3d
       0.20569584 -0.11596083 -0.08623211 0.06482858
0000e0 a7 00 1f 3e d6 a2 91 3d 4b be 67 be ca b3 92 bd
       0.15527593 0.071111366 -0.22631185 -0.07163198
0000f0 b0 cf 68 3d 95 06 df bd ca 85 6f 3d fc da 82 3d
       0.05683869 -0.10889927 0.0584772 0.06389424
000100 2a 8d a8 3d df 73 db 3a e2 39 a2 bd 20 f7 78 bd
       0.0823005 0.0016742906 -0.079211965 -0.06078255
000110 9b ac 5d bd a2 4b b0 bc fa 45 0a be a5 29 ed bc
       -0.054119688 -0.02152044 -0.13503256 -0.028950522
000120 c3 d3 a3 bd 45 cd 9f 3d 8c e5 e0 bd f1 b1 d3 3d
       -0.07999375 0.07802824 -0.109812826 0.10336674
000130 ad b7 27 3e cf ab f9 3d f0 b7 a0 bd 8b b3 3b 3d
       0.1637866 0.12190973 -0.07847583 0.045825522
000140 24 b4 50 38 da b7 0d bd 42 c6 f8 bd 06 53 46 bd
       4.9758833e-05 -0.034599163 -0.1214719 -0.04841902
000150 72 0f b5 bd b2 0a dc 3d ec 19 d8 3d 5d 14 61 be
       -0.088408366 0.107442275 0.10551819 -0.21980424
000160 3d 5b bc bb 8c 86 02 be db 6e e2 bd 7c ba 3d bd
       -0.005748181 -0.12746638 -0.110563 -0.046320423
000170 d1 06 56 bc 9c a9 23 3d 30 f6 c6 bd 3d 58 20 3e
       -0.013063149 0.039956674 -0.09714925 0.1565866
000180 d9 05 db 3d 6d 2b 0d 3b 8f 1b d3 3d 35 14 36 bd
       0.10694475 0.0021540776 0.10307991 -0.044452865
000190 08 01 8a bd 05 88 50 3e bf 6a 17 be ca 44 05 bc
       -0.06738478 0.20364387 -0.14786814 -0.008134076
0001a0 ee a6 00 be c5 c6 2f 3e 43 08 1d 3d ec 99 49 bd
       -0.12563679 0.17165668 0.038337957 -0.049219057
0001b0 a8 a5 3b 3e ec f9 ef 3c ae 38 28 3d 5b 33 39 be
       0.18324912 0.029293977 0.04106968 -0.18085997
0001c0 f7 25 d1 3d 0d 8d 04 be fa 14 0e 3d 11 b8 87 3c
       0.10212319 -0.12944432 0.034687974 0.016567262
0001d0 b0 b4 04 bd fe 91 c6 bd d4 3e f2 3d f4 cc b6 3c
       -0.03239888 -0.096958145 0.1182839 0.022314526
0001e0 73 0e f8 bc ee 55 ae 3c 02 8e 22 be b6 3d 15 3d
       -0.030280327 0.021281209 -0.15874484 0.036435805
0001f0 e3 75 0f bd 74 ec 6e bc 9d 1b d5 bd 23 5d 80 bd
       -0.035024535 -0.014582742 -0.104056574 -0.062677644
000200 0b 34 15 bd 4f 9e f8 3d 29 1c 13 3e ca 64 2d 3e
       -0.036426585 0.1213957 0.14366211 0.16932979
000210 18 ea 12 3e b7 7b 13 3e ef b6 0b be 4f e1 c1 bb
       0.14347112 0.14402662 -0.13644002 -0.0059167515
000220 74 2d da bd 99 c3 fc bc 78 f2 75 bd ea 88 10 3e
       -0.10653201 -0.030854987 -0.06004569 0.14114729
000230 bc eb 9b bd a0 43 01 be e8 02 c1 bc 5a 97 84 3b
       -0.07613322 -0.12623453 -0.023560956 0.004046363
000240 b7 38 40 3e 8c 32 3c bd 8b 78 0a bc 6e 7e 2f 3e
       0.18771635 -0.045946643 -0.008451591 0.17138073
000250 80 66 e3 3c e0 75 e5 3d 31 3a 74 3c fb e2 a2 3d
       0.027758837 0.112041235 0.014906452 0.07953449
000260 df 6a ff bc 1a 27 63 bc 4f 6c a7 3d 1c d6 9d 3e
       -0.03117889 -0.013864303 0.08174955 0.30827415
000270 dc b1 a2 3d 9e ef 12 be d7 c9 57 bc df bb 15 3d
       0.0794408 -0.14349219 -0.013170681 0.03655612
000280 cb c2 d3 bc d3 59 86 bd 2c c8 e9 3a 5d ac c8 3c
       -0.02584972 -0.06560101 0.0017836145 0.024496252
000290 4b 06 21 bd 6e d3 ff bd 1d 72 8e bd af 34 09 3e
       -0.039312642 -0.12491499 -0.06955359 0.13399003
0002a0 41 33 16 be 5d 2e cf bd 21 32 ae bd 47 0d 85 3d
       -0.1466799 -0.10116265 -0.08505655 0.06496673
0002b0 e9 87 95 bd 1d c2 c2 3d 40 84 19 3e 34 4d 70 bd
       -0.073013134 0.095096804 0.14991856 -0.058667377
0002c0 fc c0 0e be 76 74 4f bd 74 43 4c be 77 12 a9 bd
       -0.13940805 -0.050648175 -0.19947606 -0.08255475
0002d0 7c d2 eb 3b 37 4c d1 bd f2 19 3f bd 6f 25 a1 bc
       0.0071967226 -0.10219615 -0.046655603 -0.01967117
0002e0 fd 1e ea 3d 9a 73 e3 3d 55 78 f5 3c 2e be 01 3e
       0.11431692 0.111060336 0.029964605 0.12670204
0002f0 a7 ed d4 bd 56 9e f1 3d 5d e1 d8 bd 4a e3 f4 3d
       -0.10396891 0.11797778 -0.1058986 0.119574144
000300 7e 0f 49 bd 47 8f f0 3d 08 cf ed bc 23 32 19 3e
       -0.04908704 0.11746078 -0.029029384 0.14960532
000310 6a 30 f5 bd 20 0f ca bd e2 0f 2c 3e 09 a4 59 bd
       -0.11972125 -0.09866166 0.16802934 -0.05313495
000320 cb 85 3a 3c 4a 4a 15 bd 9a ca 44 bd 54 56 2a be
       0.011384438 -0.0364478 -0.04804478 -0.16634494
000330 61 8e 8c bc 42 a1 cd 3d 7e 7a 1b bd 66 d7 79 bd
       -0.017157735 0.10040523 -0.037958615 -0.060996436
000340 c5 4a 9a 3d db 04 33 3b 88 da b1 bd c1 7c cd 3d
       0.075337924 0.0027316127 -0.0868426 0.100335605
000350 7a ab 19 3e d2 a1 a0 3d e9 90 0f be 62 3d 5e bd
       0.1500682 0.07843365 -0.14020123 -0.054257758
000360 2a ef 8a bc d5 c3 0f 3d c3 f4 b1 3d 1a 4a 8f 3d
       -0.016959745 0.03509887 0.08689263 0.069965556
000370 85 7d 3a be 73 bd ac bd e6 e3 04 be 8a 42 90 3d
       -0.18211944 -0.08434572 -0.12977561 0.07043941
000380 66 23 36 3d 52 72 1d 3e 07 f3 82 be b6 aa 40 3e
       0.044467352 0.15375641 -0.2557604 0.18815121
000390 6b b1 16 be 3d a1 b0 3d 2c 51 92 3d 3b 4a 8d 3d
       -0.14716117 0.08624504 0.071443886 0.06898924
0003a0 4d 73 45 bd b6 61 09 3e 3a 7c 97 3d 2f 76 2f 3d
       -0.048205663 0.1341618 0.07396741 0.042837318
0003b0 a4 2f 14 3e 47 7b 44 3e 05 2a 08 be 4f be 2a 3d
       0.14471298 0.19187652 -0.13297279 0.0416854
0003c0 12 47 11 bd 4a 44 fb 3d b9 d9 bd 3d 20 68 24 be
       -0.03546817 0.122688845 0.09270043 -0.16055346
0003d0 49 07 b4 bd 82 c9 4b be 9e 22 12 bd 7d e8 64 3e
       -0.08790452 -0.19901088 -0.035677545 0.22354312
0003e0 97 e4 3f 3e 4b ce 87 be cf e0 17 be dc 04 84 3d
       0.18739544 -0.26524577 -0.14831851 0.06446239
0003f0 3e b3 a9 bd 19 f0 d1 3d 01 14 c1 bc d3 06 85 3e
       -0.08286141 0.10250873 -0.023569109 0.2598177

rnn.weight_hh_l0_reverse f4 [32, 32]
000000 c2 fb 58 3e 54 38 98 3e 3b 90 39 3d 58 c8 c2 3d
       0.21189788 0.29730475 0.045303565 0.09510869
000010 91 6c 5a bc fb a8 ab 3d 7a 99 82 bd df eb 8e 3e
       -0.013331548 0.0838184 -0.063769296 0.2791433
000020 13 60 e2 3d 5d b1 34 be f7 44 87 bc ef e8 aa 3c
       0.11053481 -0.17645784 -0.016512377 0.020863025
000030 2f a8 66 3c 03 87 48 3d 60 b2 66 3e 55 39 7f 3e
       0.014078184 0.048956882 0.22528982 0.24924214
000040 f3 fc a3 bc 12 e9 83 3a f9 ad 82 bd d4 c3 1f 3e
       -0.020018077 0.0010063967 -0.06380839 0.15602046
000050 eb fd 84 3d 57 b2 b8 be f4 36 13 be cd 36 6d 3d
       0.064937435 -0.36073563 -0.14376432 0.05791359
000060 0b 04 13 3e 61 9c 16 be 60 2f 97 bd 52 5e 66 3c
       0.14357011 -0.14708091 -0.07382083 0.014060574
000070 f1 c8 51 bd 88 3e bd 3e 3e d2 49 be 90 02 6c 3e
       -0.051217023 0.3696177 -0.19709107 0.23047853
000080 ad bc 29 be a5 e7 08 be 58 bd e4 bd e3 d1 1b 3e
       -0.1657588 -0.13369615 -0.11168927 0.15216784
000090 6d 35 0c 3e 02 2c bd 3d b4 da 60 3e 1f e4 f0 bd
       0.13692255 0.092369094 0.21958429 -0.11762261
0000a0 00 7d d2 3d 93 15 3d 3d 9c 2a 8d be 31 08 86 3d
       0.10277748 0.046163153 -0.2757157 0.06544531
0000b0 0c 04 21 be 27 87 f0 bd 4a 6c 99 be a3 a8 51 3e
       -0.157242 -0.11744528 -0.2996543 0.20474486
0000c0 d8 a7 8b 3e 3d 20 75 3d 1d 15 4f be 8d c2 b4 be
       0.27276492 0.059845198 -0.20222898 -0.3530468
0000d0 d9 1a 7e bd 23 71 e9 3d 99 f3 dc bd 0e 30 ec 3d
       -0.062037323 0.11398532 -0.1078865 0.11532603
0000e0 72 b9 54 3d bd a2 1a 3c be 6d 93 3e 52 a3 1c be
       0.051934667 0.009438214 0.28794664 -0.15296677
0000f0 9c 07 15 be 3c 16 a0 be d5 0f 39 be 8e 6a 5f be
       -0.14553684 -0.31266963 -0.18072446 -0.21817991
000100 67 7d c2 3e de cc 71 be 65 e5 a9 3e f6 c6 48 be
       0.379863 -0.23613307 0.33182827 -0.19607148
000110 ff e7 07 be a5 c7 5c bd 90 a8 6d be e7 7e 06 3b
       -0.13272093 -0.053901333 -0.23208833 0.0020522417
000120 19 76 70 3d 76 a3 aa 3c 81 2f 5e 3e 3e 41 95 3d
       0.058706377 0.020829897 0.21697809 0.072878346
000130 bb 93 ae 3d 5f c5 c5 3d e1 2b 50 3e 53 db d0 3d
       0.08524271 0.09656786 0.20329238 0.10198083
000140 f7 02 b7 3d 3f 90 db bd f3 e1 71 3e 7b 70 41 3d
       0.089361124 -0.10720872 0.23621349 0.04722641
000150 ea f4 6e 3d fc 03 05 3e 17 af c8 bd 95 c2 35 be
       0.058339037 0.12989801 -0.09799021 -0.17750008
000160 17 eb 83 bd 3a ea 28 3e 69 a5 91 be 4f a1 8a 3c
       -0.06441324 0.164956 -0.2844651 0.016922621
000170 58 59 80 3e 2e 90 10 3e 96 6a 37 bd 7b 8a 12 3e
       0.25068164 0.141175 -0.044779383 0.14310639
000180 f4 93 62 be 98 91 9e bd 24 95 cc 3d 29 f4 2b be
       -0.22126752 -0.077426136 0.09989384 -0.16792358
000190 a1 87 04 3e 60 10 d2 bd 19 35 b3 3d f4 74 07 be
       0.12942363 -0.102570295 0.08750362 -0.13228208
0001a0 36 bf 39 be 1e 92 49 be 7a 70 52 3e 82 f8 c6 3d
       -0.18139347 -0.19684646 0.20550719 0.09715368
0001b0 05 68 25 be b0 2e 84 be a7 56 1c 3e ed f3 0a 3d
       -0.16152962 -0.2581687 0.1526743 0.033924032
0001c0 f8 c4 08 3e ed 78 12 bd d2 43 55 3e 7c a2 06 bf
       0.13356388 -0.035759855 0.20826653 -0.5259168
0001d0 44 ac 9d bc 1a 89 ec 3c 61 c5 40 3e 97 bf e1 3c
       -0.019247182 0.028873969 0.18825294 0.027557177
0001e0 dc 48 15 3e 12 a5 d6 3d bc ba 13 3d 9f 26 91 bd
       0.14578575 0.104807034 0.036066756 -0.070874445
0001f0 0b 2e dc bd 6a a3 df bd 34 97 ea 3d d8 9c b0 3c
       -0.107509695 -0.10919841 0.11454621 0.021559164
000200 35 a0 62 3e d2 1d 70 3b a5 31 41 bd d2 f4 70 3e
       0.22131427 0.0036638868 -0.047166485 0.23530892
000210 21 a8 71 bc 3f b0 4f bd f2 9f 22 be a8 71 e7 bd
       -0.014749558 -0.05070519 -0.15881327 -0.11300975
000220 be 47 5a be c7 1c 46 bd 56 7a 7f 3d 14 fc 3d 3e
       -0.2131643 -0.048367288 0.062372528 0.18553191
000230 e2 2d 52 3e 68 06 32 bb 58 77 1b 3e 39 4e 15 bd
       0.20525315 -0.0027164463 0.15182245 -0.036451552
000240 52 58 78 be 74 b4 39 be 69 23 24 3e 21 d8 b5 3e
       -0.24252442 -0.18135244 0.16029133 0.35516456
000250 5c 88 a5 3d f3 5a 93 3e 44 5b c3 be 20 03 08 3e
       0.08082649 0.28780326 -0.38155568 0.13282442
000260 c2 db 21 be fb 74 32 3e 22 9a 40 bd 80 63 d9 bd
       -0.15806487 0.17427437 -0.047021993 -0.10614681
000270 71 3e 98 3e e4 05 95 3d 43 62 1b 3e 64 d0 24 bd
       0.2973514 0.07276514 0.15174203 -0.0402378
000280 9d 81 62 3e 52 12 99 3e 11 62 f2 bd 15 02 4a be
       0.22119756 0.2989679 -0.11835111 -0.19727357
000290 aa bb 31 3e 79 3c 9f 3c e1 15 67 3c 7f 72 63 bd
       0.17356744 0.019438015 0.014104337 -0.055529114
0002a0 12 6e 5e 3e 3a ee c0 bd c2 4f 55 be d3 11 8f 3d
       0.21721676 -0.09420438 -0.20831206 0.069858216
0002b0 bc 7a 8a 3e ac ce ee 3d 95 1b a0 3d f9 0f 21 be
       0.27046764 0.11660513 0.07817761 -0.1572875
0002c0 fc a0 b5 3d bd cd 87 3e 06 fc 86 3e fc 64 37 be
       0.08868596 0.26524153 0.26364154 -0.17909616
0002d0 b8 f5 74 3c 20 db a0 bc 70 f0 a8 bd 0b d5 8d 3e
       0.014951162 -0.019635737 -0.08248985 0.277016
0002e0 7f aa 10 3e 68 fa b6 bd 7c af ba be e2 10 2d be
       0.14127539 -0.0893448 -0.3646201 -0.16900972
0002f0 16 5d 6d 3d 68 c0 ab be 8a 39 9f 3a 9e d1 ca 3d
       0.0579501 -0.33545232 0.0012147885 0.099032626
000300 f1 af a2 bd 14 ec 61 be 54 bf 54 bd 73 a5 5f 3e
       -0.079437144 -0.22062713 -0.051940277 0.21840458
000310 65 27 ca bd e5 10 72 be 0c b6 45 be eb ea 8a bd
       -0.09870795 -0.23639257 -0.19307727 -0.06783088
000320 c1 a8 e1 3d b9 d1 2b 3d 0a 1d 7c 3e 66 86 12 3d
       0.110185154 0.041948054 0.24620453 0.035772704
000330 d7 e8 ff be a8 75 9d be 8e 17 32 3e 3c 20 05 3e
       -0.4998233 -0.30753827 0.17391798 0.13000578
000340 46 b3 9b 3e 1c a2 4e be 80 79 a3 bd 0b 1f 01 be
       0.30410212 -0.20179027 -0.07982159 -0.12609498
000350 e0 ba 56 bd cb aa bf 3d 98 1d 01 3e f1 95 d1 bd
       -0.05242431 0.09358748 0.12608945 -0.10233677
000360 95 c1 81 bc ef 37 6b 3e 53 4b 54 3e 6c 34 e5 bb
       -0.015839377 0.22970556 0.20731859 -0.0069947746
000370 96 00 b3 be 62 c0 28 bd bc 85 c8 3d a6 cb 61 be
       -0.34961385 -0.041199096 0.09791133 -0.22050342
000380 d1 3c a2 be 95 67 05 3e 83 20 67 be e0 41 53 3e
       -0.31687024 0.13027795 -0.22570996 0.20630598
000390 be 83 d4 3d e0 2f fe 3d 84 63 3f 3e 5f 49 f8 3b
       0.1037669 0.12411475 0.18690306 0.007577106
0003a0 1c cb 61 3e e7 f1 08 be b5 2d 7a be 0e 2b 1c be
       0.22050136 -0.13373528 -0.24431498 -0.15250799
0003b0 bb 1a 93 be ee c8 42 be 3f de 0b 3d 5d 88 c6 bd
       -0.2873133 -0.19021961 0.034147497 -0.09693978
0003c0 73 99 de 3d 54 c0 09 3e 7a b8 09 be 99 6f 8a be
       0.10869112 0.13452274 -0.13449278 -0.27038267
0003d0 a0 4a 20 bc 00 34 e1 bd b2 e6 e4 3d b5 25 7b 3d
       -0.009783417 -0.10996246 0.11176814 0.061315257
0003e0 97 0c 18 3e 28 63 16 be bd 7a 45 3e ae 40 9b bd
       0.14848553 -0.14686263 0.19285102 -0.07580696
0003f0 ee f5 41 be fe 7c 8a 3b dd b0 b8 3c ae ed 5b bd
       -0.18941471 0.004226326 0.022545272 -0.053693466

rnn.bias_ih_l0_reverse f4 [32]
000000 e2 71 48 3d 0e 76 b4 3d 02 02 ef bc ca 8e 26 be
       0.048936732 0.0881158 -0.029175762 -0.16265407
000010 a6 9c 26 3d 47 8a 2b be 38 d5 74 be f9 9f b9 bd
       0.040676735 -0.16751967 -0.23909461 -0.090637155
000020 f3 97 67 be 79 73 4b be 26 7f 2e be 0e d8 f6 3d
       -0.22616558 -0.19868268 -0.17040691 0.12052928
000030 7f e7 28 3d f4 f5 c0 bd 6a 57 40 3d 4f 64 28 3d
       0.041236397 -0.09421912 0.046958365 0.041111287
000040 cd 80 0a 3e b3 3a 63 bd 6f 01 13 bd 8b c8 d4 bd
       0.13525696 -0.0554759 -0.03589004 -0.10389813
000050 37 a6 e4 3d 49 6a 80 3d 75 a4 ba 3d 77 da 10 3d
       0.111645155 0.06270272 0.09113399 0.035364594
000060 e7 d0 d5 bc 6b 84 34 bd 8f bc b8 3c 12 1e 89 bd
       -0.026100589 -0.044071596 0.02255085 -0.066951886
000070 31 57 08 be 4d ea 2b 3e ac ac 02 bd c8 b3 23 3e
       -0.13314511 0.16788597 -0.031902954 0.1598655

rnn.bias_hh_l0_reverse f4 [32]
000000 eb b0 33 3e a3 32 9c bb 70 58 c7 3d 72 1d 99 3d
       0.17547958 -0.0047667786 0.09733665 0.074763194
000010 b1 36 aa bd 62 f7 d8 3d 04 07 9b bd 4e 51 89 3d
       -0.08311213 0.105940595 -0.075696975 0.06704961
000020 5c 38 38 bd 3f d8 ee bd 98 84 13 be c0 a4 b3 3b
       -0.044975623 -0.116623394 -0.14406049 0.005482286
000030 fa 08 f9 bc bc 18 17 3e 9c c0 47 bd 26 26 03 3e
       -0.030399788 0.14755529 -0.04876767 0.12807521
000040 07 3a 82 3e 20 79 39 3d af ad 38 3e aa 02 db bd
       0.25434896 0.04528153 0.18035005 -0.106938675
000050 32 f5 31 be 8f 07 15 3d 6f 6e 73 be ac 4f c2 3c
       -0.17378691 0.03638416 -0.23772596 0.023719631
000060 f6 85 bb 3c 01 28 80 3d 50 5b 0a be ef 41 bd bc
       0.022891026 0.0625763 -0.13511395 -0.023102729
000070 c8 59 3f 3e 8d e8 44 3e 00 d3 26 3e d6 da 9e 3d
       0.18686593 0.19229336 0.16291428 0.077565834

fc1.weight f4 [12, 64]
000000 d0 41 eb be 80 82 08 bd a7 9b e7 3e 49 25 c5 3e
       -0.45948648 -0.03332758 0.4523594 0.3850501
000010 2a 12 6c 3e 6d a6 6b be 12 22 8e 3e 2d ad 88 be
       0.23053804 -0.23012705 0.2776037 -0.26694623
000020 51 79 57 be 42 3a 91 3e 85 c8 01 be fc 25 6e 3e
       -0.21042372 0.2836476 -0.12674148 0.23256677
000030 9b 6d 36 3e 5f 76 8a be b9 8d 71 be 63 ec 7d be
       0.17815249 -0.27043435 -0.23589219 -0.24797206
000040 30 22 36 3e c1 a4 86 3e 45 46 6d 3e 20 29 73 3e
       0.17786479 0.26297572 0.23171337 0.23746157
000050 8a 00 9e 3e 5f 72 8d be 7f 2c 33 3e 63 9d 8b 3e
       0.30859786 -0.2762632 0.17497443 0.27268514
000060 9e 9e 67 3e 5b a8 66 be bf 3e 01 be 40 46 ac 3e
       0.22619101 -0.2252516 -0.12621592 0.33647346
000070 1e 87 b1 be 04 6e d7 3e 3b 4d b3 be 80 33 41 3d
       -0.346734 0.42076123 -0.3501986 0.047168255
000080 d1 5c 61 3e ad c3 ea be cf 11 95 3e b7 15 80 be
       0.22008063 -0.45852414 0.2911515 -0.25016567
000090 62 f6 8a 3e a1 ba 84 be 60 55 80 be a7 45 ae be
       0.271411 -0.25923637 -0.25065136 -0.34037516
0000a0 a8 a7 b3 be 9d a5 7d be 47 d4 fe 3d 09 08 ae 3e
       -0.3508885 -0.24770208 0.124428324 0.33990505
0000b0 3a ea aa bc 38 98 03 3e 3d 73 4f 3e 3b aa 82 be
       -0.020863641 0.12851036 0.20258804 -0.255205
0000c0 14 80 9b 3e 51 c6 c8 be 5d f8 0f 3e 22 fe ea 3d
       0.30371153 -0.39213803 0.14059587 0.11474253
0000d0 b2 8c e3 be 0d 35 e8 bd 5a a3 69 be 0e eb 2d be
       -0.4444328 -0.11338244 -0.2281622 -0.16984197
0000e0 cb 83 b8 be a3 18 66 3e 11 ca 18 be 94 55 a4 3e
       -0.3603805 0.22470336 -0.14920832 0.3209654
0000f0 7d cc 11 3e b5 ba 3d 3e 0f 78 92 3e 89 ca 41 be
       0.14238162 0.18528254 0.28607222 -0.18924917
000100 da a7 ad 3e e3 10 ec bc d8 b3 5f bd fc 21 00 be
       0.33917123 -0.028816646 -0.05461487 -0.12512964
000110 1a 1f fa 3d 91 15 50 3e cf 3a e9 be 2f cb cc 3e
       0.122129634 0.20320727 -0.4555268 0.39998767
000120 56 96 e1 bd 53 03 12 bf ab ac b4 3e d4 10 de be
       -0.110150024 -0.5703632 0.35287985 -0.43372214
000130 f6 6c e5 be 6b a8 be be 1e 31 15 3d a5 cc ab bc
       -0.44809693 -0.37237868 0.036423795 -0.020971606
000140 cd fb 85 be 65 f6 02 3e 5d 6d 4f 3e 8f 53 99 3d
       -0.2616867 0.12789305 0.20256563 0.07486641
000150 44 8a 9f be 8e 5f 36 3e d5 aa 0b bf a3 20 5d be
       -0.31160176 0.17809889 -0.54557544 -0.21594481
000160 fb 21 d6 3e cd bb a5 be 74 ef c3 be cf 8f a7 3e
       0.418228 -0.32369843 -0.38268626 0.32726905
000170 a5 ab 8e 3e fb b3 58 3d c8 eb a1 be e4 10 11 3e
       0.2786533 0.052906018 -0.316252 0.141666
000180 9a 6b d9 be 80 87 4a 3c 85 53 65 3e 91 a8 fb 3e
       -0.42464906 0.012361407 0.22395141 0.49152043
000190 c2 c6 35 be 14 10 17 bf 1a 8e aa 3e 15 91 18 3d
       -0.17751601 -0.5900891 0.3331154 0.037247736
0001a0 45 1f 8b bd 4c b2 92 3e 12 39 09 bf aa c9 17 be
       -0.067930736 0.28651655 -0.5360271 -0.14823022
0001b0 9d f2 2b bf ef 60 e2 3e a9 c8 ef 3e 94 d7 04 3f
       -0.67167073 0.4421458 0.4683278 0.51891446
0001c0 9a ab fe be df 11 52 3d 8c 9c 3e be 83 ba ba 3e
       -0.49740297 0.051286574 -0.18614405 0.36470422
0001d0 e1 cb 80 3e f4 9b 86 3e db e4 af be 4c 1b 2c 3f
       0.25155547 0.26290858 -0.3435429 0.6722915
0001e0 0d 5f e7 3e 72 83 21 bf aa 09 0b be 41 c1 27 bf
       0.45189705 -0.63091195 -0.13577905 -0.6552926
0001f0 86 c9 08 bf 2b 46 3a 3d 8e a8 b3 3d b8 b6 7f bd
       -0.534325 0.045477074 0.08772384 -0.062430114
000200 c9 a3 ee 3e b1 56 04 bf df fb 73 be 9d 5a 1d 3d
       0.46609333 -0.5169478 -0.2382655 0.038416494
000210 3b 09 03 bf 32 cb 3a 3c fb cc 19 bf 70 4f a4 bc
       -0.5118596 0.011400985 -0.600784 -0.02005741
000220 4c 71 49 3f b7 fd d4 bd 34 13 18 bf 21 ae 34 bf
       0.786885 -0.10399955 -0.594043 -0.705782
000230 42 7d 02 be 7e fe af 3e 43 4f 81 bd 01 20 4a 3e
       -0.12743095 0.3437385 -0.06313946 0.19738771
000240 1b 64 d5 3e 79 74 60 be b2 13 1a bf 64 cd c4 bd
       0.41677937 -0.21919431 -0.601863 -0.09609488
000250 a3 c8 12 bf 48 93 c8 3e f7 2c 00 3e c0 c9 0e 39
       -0.573374 0.39174867 0.12517153 0.00013617333
000260 de f7 cb ba 7b c0 a1 3e 21 b4 cd bd 46 86 42 3d
       -0.0015561541 0.31592163 -0.100441225 0.047491334
000270 8e 24 c5 be a5 72 2d bf 88 71 01 3f 37 8a 51 be
       -0.38504452 -0.6775306 0.5056386 -0.20462881
000280 5c 52 0a be 5a 8c dd 3e 84 82 6d bb 2f d7 8d 3e
       -0.1350798 0.43271142 -0.0036241123 0.27703235
000290 b5 44 79 be e0 9d 1f 3f bd c1 d2 3d ae e9 0b 3e
       -0.24342616 0.62350273 0.10290859 0.1366336
0002a0 b1 26 d0 3d e1 ae b3 be 6c a9 f6 be d9 24 d2 bb
       0.1016363 -0.3509436 -0.48176134 -0.006413084
0002b0 f4 69 d5 3d f9 58 25 be b5 0b 7b be 31 7c f5 3e
       0.104205996 -0.16147222 -0.24516185 0.47946313
0002c0 4d dd bf 3e de cd 8e 3e a0 52 fb be 31 32 81 3e
       0.37473527 0.2789144 -0.49086475 0.25233606
0002d0 c9 38 ab be 08 c6 12 3f 8c ec 80 3c 2d bb 98 be
       -0.3344176 0.5733342 0.015737794 -0.29830304
0002e0 ab 32 24 bf 7d 43 49 bf 7a 01 b1 3e 53 74 f2 be
       -0.64139813 -0.78618604 0.3457144 -0.47354373
0002f0 fc 8d 3a bf 09 23 e3 be 44 19 f1 3d ad 8c 1f 3f
       -0.728729 -0.44362667 0.11772397 0.6232403
000300 bb 98 e4 be 7b e9 ae be ac 50 14 bf aa 30 d7 3e
       -0.44647774 -0.34162506 -0.57935596 0.42029315
000310 7a 7c 41 bf c7 4e 21 3e 63 a2 c0 3e 1d a0 01 bf
       -0.7558056 0.15752707 0.3762389 -0.5063494
000320 45 a9 62 be 59 45 ae be 80 9f eb be 42 20 f5 be
       -0.22134884 -0.34037283 -0.46020126 -0.47876173
000330 80 83 22 bf da f0 0c be 37 7c 2b 3f 9f 9b f6 3e
       -0.63481903 -0.13763753 0.6698641 0.48165604
000340 8f ab d3 be b4 2b a5 be f4 25 d8 3d d6 30 73 3e
       -0.41341826 -0.32259905 0.10554114 0.23749098
000350 a3 9c be 3e b4 28 8e 3e b6 32 2a 3e e7 23 37 bf
       0.3722888 0.2776543 0.16620907 -0.7153916
000360 05 6c b2 be 65 1a 03 3f ce 42 0d 3f 96 c4 3f 3e
       -0.34848037 0.5121215 0.5518006 0.18727335
000370 fb b9 eb bd c1 71 d5 be 1c 74 2e bb 96 e5 84 be
       -0.11510082 -0.4168835 -0.00266195 -0.2595641
000380 77 82 15 3f 86 34 48 3e e3 16 51 3d 6d fa 38 3e
       0.584022 0.19551286 0.051047217 0.1806428
000390 ed e1 c5 be b2 cc 16 be 5e 83 b6 bd 9e 0e b2 bd
       -0.3864893 -0.14726523 -0.08911775 -0.08694194
0003a0 49 c3 03 be b9 7e a2 be da fe e5 be 42 df b2 be
       -0.12867464 -0.31737307 -0.44921 -0.34935957
0003b0 f5 e8 c1 be 99 7e 48 be 80 13 14 be 27 d2 9f 3e
       -0.37873045 -0.19579543 -0.14460564 0.3121502
0003c0 9d 52 d0 3e f2 b1 06 3e ea 42 92 3e 85 12 61 3e
       0.4068803 0.13153818 0.28566676 0.21979721
0003d0 5a 88 c8 3e 61 e1 43 3f 8f 4d 53 be 59 f9 2a 3e
       0.39166528 0.76515776 -0.20635055 0.16696681
0003e0 0f d1 4a be d9 5a c7 be af 2a ec 3e d7 df 2c bf
       -0.19806312 -0.389365 0.46126315 -0.6752905
0003f0 3f 13 14 3e 14 b6 c0 3e ad 8e 02 bf 73 ce 29 3f
       0.14460467 0.37638915 -0.50998956 0.6633064

fc1.bias f4 [12]
000000 0c 10 cb 3b 24 ed 8d bd 84 a1 fb be 8e 2a 4e be
       0.0061969813 -0.069299966 -0.49146664 -0.20133421
000010 4e 3a 30 bf be 53 28 be 78 08 0a be 0a de a7 bd
       -0.68838966 -0.16438195 -0.13479793 -0.081966475
000020 0c f2 8d bd 25 3f 22 be ad 5b 77 bd 73 20 3c bd
       -0.069309324 -0.158444 -0.060390163 -0.045929383
