src/src_learner/kotlin_finetuning_model.pt (torch, 138692 bytes, 11 tensors)

word_embeddings.weight f4 [178, 128]
000000 b8 2c b6 bf 95 3a 13 bf da 9f 43 bf ad a0 cc bf
       -1.4232397 -0.57511264 -0.7641579 -1.5986534
000010 6a cb cc 3c d7 43 21 bf 62 07 8e bf 58 4c dd bf
       0.02499934 -0.6299414 -1.1096003 -1.7288923
000020 56 c5 34 bf 8e 33 98 3e 44 64 05 bf 92 bb fe bc
       -0.7061361 0.29726833 -0.5210612 -0.0310953
000030 09 c4 97 be ff d8 ea 3f df 22 c4 3e 09 15 f7 3e
       -0.2964175 1.8347472 0.38307855 0.48258236
000040 5f fe 2a bf ad 35 80 bf 6c f9 37 3f 54 42 6c 3e
       -0.6679439 -1.001638 0.7186496 0.23072177
000050 4a e7 6e 3f b5 8d 6f 3e 60 cc e5 be 87 18 43 3f
       0.9332167 0.233939 -0.44882488 0.762093
000060 51 1e 9c 3f 3f f7 bd bd 33 9f 0b c0 78 8e ac bf
       1.2196752 -0.09275674 -2.1815917 -1.3480978
000070 25 89 60 bd 18 16 01 bf 09 20 6b bf f7 26 b5 bc
       -0.05481829 -0.5042434 -0.91845757 -0.022113306
000080 be 9f f1 3f ec 58 57 be ad 33 cb bd fc 85 28 bf
       1.8876874 -0.21030015 -0.09921966 -0.65829444
000090 fc bf 4b 3e 3f a7 75 bd 75 d4 2c bd 05 d2 e4 be
       0.19897455 -0.05997395 -0.042194802 -0.44691482
0000a0 94 ae 21 be 2b 3f e8 3e 01 fd 78 bd 79 a6 64 3e
       -0.15789253 0.45360693 -0.06078816 0.2232913
0000b0 b4 f2 15 40 a3 20 88 bf 75 b7 ca 3f 59 07 48 bf
       2.3429384 -1.063496 1.5837237 -0.7813621
0000c0 f1 32 4e bf d5 fc 11 3f 93 13 b1 bd 3d 02 1c bf
       -0.8054648 0.57026416 -0.086463116 -0.60940915
0000d0 07 29 4c 3f c2 7c 95 3e 41 0a 87 3f be 3e 0d 40
       0.797501 0.29196745 1.0550004 2.2069545
0000e0 5d b6 0b 3e aa 28 6c 3f 81 c2 6c be eb c5 e2 be
       0.13643785 0.9224955 -0.23121072 -0.44291624
0000f0 3d c0 d2 3f 4f 0c 4a bf e8 6b 4a c0 c9 26 4c bf
       1.6464916 -0.7892503 -3.162836 -0.7974668
000100 56 07 6d 3d c5 be 6b bf 78 16 18 bf 95 96 73 bf
       0.057868324 -0.92087966 -0.59409285 -0.95151645
000110 e5 f9 c9 be 09 d3 a1 bd 96 91 e1 3f 84 d4 ed bd
       -0.39448467 -0.0790158 1.7622554 -0.116128
000120 cf f2 5d bf b1 a4 3e be 6a 94 78 bf b2 36 4a bf
       -0.8669862 -0.18617512 -0.9710146 -0.7898971
000130 95 99 f5 be 6d 64 f7 be 4d d7 f1 3e bd ec 70 bf
       -0.47968736 -0.48318806 0.47234574 -0.94111234
000140 cc 70 e6 be 17 e6 60 bd 8c 81 43 bf 52 39 4f 3f
       -0.45007932 -0.05490693 -0.7636955 0.8094684
000150 48 5f b8 bf 63 3c b7 be 72 34 0c 3d 14 cf 80 be
       -1.4404078 -0.3578826 0.034229703 -0.25157988
000160 5a 10 bd 3e a7 22 15 bf 47 f4 8a bf 8f 70 56 3f
       0.36926538 -0.58256 -1.0855798 0.837655
000170 d6 49 78 bf 6c a1 9b be ef 9b e0 3d ce 17 fc 3f
       -0.96987665 -0.30396593 0.10967242 1.9694765
000180 a2 73 2c 3f 3e f5 97 3f b5 e8 6d 3f a9 e1 68 bf
       0.6736394 1.1871717 0.9293321 -0.9096933
000190 22 7c c6 3f 27 ca 4a bf d3 cf 42 bf 27 2f 8c 3f
       1.5506632 -0.7921471 -0.76098365 1.095189
0001a0 a5 11 b0 3f 48 0e 10 3f f5 9b 8b 3d 88 4f 52 be
       1.3755385 0.5627179 0.06816856 -0.20538151
0001b0 8c b1 05 c0 51 5e 29 bf dd f7 bc bf d7 72 75 bf
       -2.0889616 -0.6615954 -1.4763142 -0.95878357
0001c0 92 aa 4c 3f 33 47 3b bf a6 29 af 3f bf 61 3a 3f
       0.7994777 -0.73155516 1.3684585 0.728054
0001d0 49 57 a2 3e 07 ac ce 3e 97 7f 23 3f 1f 43 bf be
       0.31707218 0.4036562 0.6386656 -0.37355897
0001e0 c1 d6 1d 40 2f 54 4b 3b 97 46 03 be 0c f7 03 40
       2.4662325 0.003102552 -0.12819897 2.0619535
0001f0 b4 d7 04 c0 42 98 e6 3f 68 86 d8 3d 91 d7 5b 3e
       -2.0756655 1.8015215 0.10572511 0.21468951
000200 86 5d 36 3f 97 64 e3 bf bd 2d b5 3e ed 8c 99 3f
       0.71236455 -1.7765073 0.35386458 1.1996132
000210 7a 22 9b be 07 84 e1 bf 2d 85 22 3f 7a ea 4d bf
       -0.3029974 -1.7618417 0.6348446 -0.8043591
000220 e9 38 ce bf 03 91 ef bf 87 07 0b 3f 3c 22 29 3f
       -1.6111118 -1.8716129 0.5430836 0.6606786
000230 bf e4 12 40 a3 c6 2c 3f 1f 4e db 3f c0 aa e5 bf
       2.2952116 0.67490596 1.7133216 -1.7942734
000240 8a 7f ae bf 48 b4 7b bf 30 71 c1 3f a4 51 24 3f
       -1.3632672 -0.9832196 1.5112667 0.64187074
000250 50 28 f2 3e 29 70 db be a2 26 0d 3f 40 10 c6 bf
       0.4729638 -0.4285901 0.55137074 -1.5473709
000260 ff a2 04 3f 35 2f da 3d ed d9 89 3e ff 91 a9 3f
       0.5181121 0.10653535 0.26924077 1.324768
000270 8e 7d df 3f a0 6f ed 3f 9b d4 34 bf 4d a7 23 40
       1.7460191 1.854969 -0.7063691 2.5570862
000280 0e c7 d5 3e e8 d2 59 be 7d 07 57 bf 95 0c d7 be
       0.4175343 -0.2127186 -0.839958 -0.42001787
000290 d8 c0 1f bf 14 30 7a bf b3 f5 5f 3f 79 be 7c 3f
       -0.6240363 -0.9772961 0.8748428 0.9872814
0002a0 ca 80 9e 3e f8 a5 c2 3f 1b 45 9a 3f 49 65 e8 bf
       0.30957633 1.52069 1.2052339 -1.815591
0002b0 83 92 ce be 8a 8a 75 bf 63 a5 aa bb ff 82 a1 bd
       -0.40346155 -0.9591452 -0.005207704 -0.07886314
0002c0 ba f9 57 3f b3 35 95 3f 07 e5 06 3f b1 43 cf 3f
       0.8436543 1.1657013 0.5269322 1.6192533
0002d0 26 c7 76 bf b8 ea 10 3e bd 96 27 be f3 68 b7 be
       -0.96397626 0.14152038 -0.16366096 -0.35822257
0002e0 a6 73 dc 3f 43 6e 9b be 70 9b 74 3e 3b 08 ac 3f
       1.7222793 -0.3035756 0.2388742 1.3440012
0002f0 fe 67 d3 3d 68 d8 8c 3f b5 f0 ae be cd 84 72 3f
       0.10322569 1.1003542 -0.3416802 0.9473389
000300 43 8a 11 bf b4 6c 56 3f fe 4e e4 3f 67 1d 48 be
       -0.56851596 0.8375962 1.7836607 -0.19542466
000310 8b d1 03 3f 25 7a ec bf e9 ab 3a c0 88 3c 11 bf
       0.5149161 -1.8474776 -2.9167426 -0.5673299
000320 57 91 0a bf 20 2a 65 3f fb eb 61 bf c8 24 08 3f
       -0.5412802 0.895174 -0.882507 0.53181124
000330 07 dc c5 bf 82 75 31 be 5a 6e 3a 3f d1 b8 69 3d
       -1.5457772 -0.17329982 0.72824633 0.05706102
000340 fa cf 67 3f fd ec 85 3f d8 45 05 bf 8e 69 ad 3f
       0.9055172 1.0462948 -0.520597 1.3547838
000350 78 d6 70 3e ed 05 f5 3f 85 0f eb 3f 47 8a a9 3f
       0.23519313 1.9142433 1.8364111 1.3245324
000360 fc 10 78 bf 9f 35 a0 3f e7 eb 9a 3f ce 25 07 bf
       -0.96900916 1.2516364 1.2103242 -0.5279206
000370 ce cf 5f 3e cd 05 13 bf 13 83 ba 3f ad ae e2 3f
       0.21856615 -0.57430726 1.4571251 1.7709557
000380 60 30 d3 3f b4 2f dd be 0a c4 8a be 7b 36 b8 bf
       1.6499138 -0.43200457 -0.2710269 -1.4391626
000390 05 9f 9f 3f 8e 0d a3 3f 80 2a c8 3e 74 40 c6 3e
       1.2470404 1.2738512 0.39094925 0.3872105
0003a0 3d 7d a3 bd 7d f6 ae 3e 59 e6 72 3f d0 24 b1 bf
       -0.07982872 0.3417243 0.9488273 -1.3839359
0003b0 dc ae dc 3f 50 58 17 c0 1e f3 6d bf 0e 56 96 3e
       1.7240863 -2.3647652 -0.9294909 0.2936253
0003c0 92 4b 5c 3e 28 3f 70 3f 4f 9c bb 3f 1b 75 0e bf
       0.21513203 0.9384637 1.4657077 -0.5564744
0003d0 e3 ad 3e bf 4d 02 4f be 10 2e 6b be 3e 80 ae 3a
       -0.7448408 -0.20215721 -0.2296679 0.0013313366
0003e0 2a 24 c0 3e de c0 14 bf d5 82 12 bf 6c 3e 81 3f
       0.3752759 -0.5810679 -0.57230884 1.0097175
0003f0 b5 5e d8 bd 47 00 97 bf a7 ea b9 bd 43 28 10 3f
       -0.10564939 -1.179696 -0.090779595 0.56311435

rnn.weight_ih_l0 f4 [32, 128]
000000 47 21 6a 3c b8 b3 0e be a0 34 b6 bd a7 cf b9 bd
       0.0142901605 -0.13935745 -0.08896756 -0.0907281
000010 7b 19 a5 bd 0a 5b 64 bd b2 0b 4b 3e 8d 44 cb 3c
       -0.08061501 -0.055750884 0.1982868 0.024812961
000020 4f f8 85 bd b4 0b 23 3e 80 aa 01 bd 36 65 8b 3d
       -0.06541502 0.15922433 -0.031656742 0.06806414
000030 24 ca f8 3d 37 56 2a 3c b2 23 c2 bd 02 f4 2b bd
       0.1214793 0.010396532 -0.094794646 -0.04198075
000040 97 f9 39 bc f6 2d ba bc cc 5d 80 be e5 fc 0f bd
       -0.011351011 -0.022726994 -0.2507156 -0.03515329
000050 c9 93 46 be 9f 00 8a bd ce b2 f7 bd 6d 2d 8d bd
       -0.19392313 -0.067384 -0.12094651 -0.0689343
000060 dd dc ca 3d a8 f8 92 bd 97 0c 17 3e 09 01 b7 bd
       0.099054076 -0.07176334 0.14750896 -0.08935744
000070 85 b0 33 3e 0e 57 60 be be 2e 8b bc 1c d0 09 bd
       0.17547806 -0.21908209 -0.016990062 -0.033645734
000080 70 da 00 3e c4 da 47 3e 5b 40 1c 3d 1b 07 48 be
       0.12583327 0.19517046 0.03814731 -0.1953396
000090 97 77 b6 3d 23 d0 f3 bd 52 da 99 bd fe 2f 9b bc
       0.08909529 -0.11904933 -0.075123444 -0.018943783
0000a0 66 08 d2 3d 6f 7b 60 be 85 d8 18 3e 10 b1 58 be
       0.10255508 -0.21922086 0.14926346 -0.21161294
0000b0 f7 84 29 3d a7 f1 a2 bd 02 f8 12 3e 40 eb 04 bd
       0.04138657 -0.07956248 0.1435242 -0.032450914
0000c0 71 5b f6 3d 30 33 6c bd c0 c2 70 bd 75 8d 56 bd
       0.1202916 -0.057666004 -0.058779478 -0.052380998
0000d0 c6 4b 60 bd 67 85 d3 3d a0 f7 fd bd b5 1b ce 3c
       -0.054759763 0.10328179 -0.12400746 0.025159696
0000e0 8d 42 8e 3d 17 1f 3b 3e db 25 e3 3a 94 12 fd 3b
       0.06946287 0.18273579 0.0017330007 0.007723162
0000f0 74 a1 67 bc 7a 4a 3b 3d 25 83 3a be 12 c3 03 be
       -0.0141376145 0.045725323 -0.1821409 -0.12867382
000100 00 06 6e bd 1b 09 40 bd 70 3b f9 bd b6 85 44 3e
       -0.05811119 -0.046883684 -0.1216954 0.19191632
000110 57 8f 4e be 77 22 42 3d 20 d7 01 3e 1e 9b 3f 3c
       -0.20171867 0.04739615 0.1267972 0.011694698
000120 ec bb 82 ba 56 83 fa 3d 10 c5 b3 bc e8 da 9a 3b
       -0.0009974218 0.122320816 -0.021944553 0.0047258027
000130 59 f2 1b bd 29 ed b0 bc 07 51 f0 3d f9 ad 2b be
       -0.038072918 -0.021597462 0.11734205 -0.16765584
000140 9e 8b 65 be 42 2a c6 3d 83 50 0a bd 09 4e c5 bc
       -0.22416541 0.09676029 -0.03376819 -0.024085062
000150 50 98 22 be 52 0c 01 3e bc 3a 7e 3d 81 1f f9 3d
       -0.15878415 0.12602356 0.062067732 0.12164212
000160 f2 15 b8 bd 93 b4 fd 3d 92 f8 8d 3d b9 1a eb bd
       -0.08988561 0.123879574 0.06932177 -0.11479706
000170 c2 38 09 be 3a b8 25 be 7e 65 52 be 6f b3 37 bd
       -0.13400558 -0.16183558 -0.20546529 -0.044848856
000180 2d e3 1e be 7d 16 d6 3d e6 9a 8a 3e ca f5 5a 3d
       -0.15516348 0.10453508 0.27071303 0.05345706
000190 21 32 68 3c 9e aa fe 3d 4d ad 38 3b 79 c2 a3 3d
       0.014172108 0.124348864 0.0028179467 0.07996077
0001a0 17 9e 3a bb 6a 98 ce bb ac b8 84 3c dd 1d 65 3e
       -0.0028475577 -0.0063047903 0.01620134 0.22374673
0001b0 6e 8d b9 3c e6 d7 26 bc fc cf b6 bd cd 23 17 3e
       0.022650447 -0.01018331 -0.089263886 0.1475975
0001c0 be 4b 65 bd 9d 24 0b 3d d7 d9 07 bd c8 0a 86 bc
       -0.055980437 0.033970464 -0.033166733 -0.016362563
0001d0 14 4b 88 3e 76 df 6c bc 62 22 24 bd c4 f8 f5 3d
       0.2661978 -0.014457574 -0.040071853 0.12010339
0001e0 2b 09 99 3d a3 62 97 bd eb a2 2a 3c 0e f7 61 3d
       0.07472452 -0.0739186 0.010414819 0.05516725
0001f0 b9 20 f8 bd ba e5 43 be 4f b7 07 be f9 15 5e bc
       -0.12115616 -0.19130602 -0.1325352 -0.013555043
000200 aa fc 80 bd 03 0a 8b 3d 99 b9 4a be d1 f4 62 3c
       -0.06298192 0.06789019 -0.19797362 0.013852314
000210 6b a0 d6 3d 7d e5 0a be 3c 30 4e 3d 99 ff 1f be
       0.10479816 -0.13564105 0.05033897 -0.15624847
000220 cb fd c2 bd 41 89 0a bd 5c bb 5c be 25 b6 12 be
       -0.095210634 -0.0338223 -0.21555847 -0.14327295
000230 03 8f 0f be 53 ab 44 3d 1d eb 5a bd 31 20 40 be
       -0.14019398 0.04801495 -0.053446878 -0.1876228
000240 62 eb d2 3d 49 c9 95 bd 79 bb 87 bd 4f 7e e2 3d
       0.10298802 -0.07313783 -0.066275544 0.11059248
000250 86 7d c8 3b 44 86 7e bd ea be 43 3d a3 52 05 3e
       0.006118479 -0.062139764 0.04778949 0.13019805
000260 22 10 d2 bc 62 3e 32 be 99 b8 1b 3e c4 ac 15 be
       -0.025642458 -0.1740661 0.15207137 -0.14616686
000270 c7 8d 78 bb 78 8c d8 bc 81 3b 5b 3d 18 20 71 3d
       -0.0037926303 -0.026434168 0.053523544 0.058868498
000280 0d ae 78 3c fc 1c ed 3d 9b 8a 9f 3d aa 83 ee ba
       0.015178216 0.11577794 0.07790109 -0.0018197198
000290 99 64 2f be b3 ac c2 3d c4 f9 cd bd 54 ff 42 be
       -0.17128219 0.09505596 -0.10057405 -0.19042712
0002a0 5f a6 92 bd 45 ff aa 3d dc 89 4e 3e ca f3 2f 3e
       -0.07160639 0.0834947 0.20169777 0.17182842
0002b0 c4 87 18 bd 6a 05 dd bd 8c 2f 38 3e 46 32 e3 3d
       -0.03723885 -0.10792048 0.17986888 0.11093573
0002c0 b0 7c 2a be 98 b6 e0 bc f8 16 03 be 96 f9 8e be
       -0.16649127 -0.027430817 -0.1280173 -0.27924794
0002d0 91 33 a0 3c a8 74 1e bd 9a f8 ce 3d 23 69 ec 3d
       0.019555839 -0.03868547 0.10106011 0.11543491
0002e0 20 46 23 3e 3c 07 d9 bd 8c 06 85 bd c8 f3 05 bd
       0.1594472 -0.10597083 -0.06495389 -0.03270319
0002f0 19 42 33 3e 74 0f d3 bd 47 9c c1 3d 60 38 25 bd
       0.17505683 -0.10305682 0.09453636 -0.040336967
000300 ae 0b 2b be 48 75 d2 3d be 93 a5 bc 48 98 06 be
       -0.16703674 0.10276276 -0.02021205 -0.13144028
000310 21 d3 1b bd 85 08 00 3e 5f f1 4e bd 02 21 44 bb
       -0.038043145 0.1250325 -0.05052316 -0.00299269
000320 87 54 00 3e c3 b2 0d 3d 1d cc 54 be 59 7d 48 3e
       0.12532245 0.03459431 -0.20780988 0.19579066
000330 87 b6 64 bd 16 6a 55 3d ce c4 a5 bd 2e 7b a6 3d
       -0.055838134 0.052103125 -0.08094178 0.081289634
000340 7d c8 36 3e 3a 89 9e 3d 2f af 88 bd 7b 82 f4 bc
       0.17849918 0.07741018 -0.066740386 -0.029847374
000350 81 28 40 3e 1e 8b 95 bd 07 b8 fd bd 83 e8 17 bd
       0.18765451 -0.07301925 -0.12388616 -0.037086975
000360 12 9a a3 3c a7 38 47 3e 1a 6f f8 3c cf 1a 9e 3d
       0.019970927 0.19455205 0.030326415 0.07719957
000370 f3 33 a9 bc 01 ef 1c 3d 8d 72 6d 3d 52 0b f0 3d
       -0.020654654 0.03831387 0.057970572 0.11720909
000380 75 cb be 3d 9e 7f e8 3d 0b 52 fc 3d 6b ba 37 3c
       0.0931615 0.11352466 0.12320336 0.011213879
000390 3a 9e 2f bc 92 bd 90 be 27 c7 58 bc a1 46 39 3d
       -0.0107188765 -0.2826963 -0.013231075 0.045233373
0003a0 14 08 fd bd 43 11 16 3e 06 83 cd bd a2 0e 29 3e
       -0.123550564 0.14655022 -0.10034756 0.16509488
0003b0 70 b6 28 3c 90 bd 94 3d d2 e0 b8 3d c7 c1 0e 3e
       0.010297403 0.07262719 0.09027256 0.13941108
0003c0 b0 09 b4 bd ae c6 fd 3c d2 0c 0e 3d 76 11 c6 3d
       -0.0879091 0.030978527 0.034680195 0.09671299
0003d0 9e 8d e8 bd 02 98 0c 3e 34 33 d6 bb 51 be 0d 3e
       -0.11355136 0.13729861 -0.0065368656 0.13842131
0003e0 9e 47 ec bd c1 47 a0 3d 38 40 7a bd a7 f5 3c 3d
       -0.115370974 0.07826186 -0.0610964 0.04613271
0003f0 e3 4d 24 be 08 58 8a bd 3e 56 54 3d 79 54 38 3e
       -0.16045336 -0.06755072 0.05184006 0.18000974

rnn.weight_hh_l0 f4 [32, 32]
000000 f4 59 10 3e 37 c2 89 3c 36 df 03 3d 54 8a c0 bd
       0.14096814 0.016816242 0.032195292 -0.09401384
000010 2f 8c 1a be 8d bc 61 be bb 67 06 bf e5 ae 30 bd
       -0.15092538 -0.22044583 -0.5250203 -0.043135542
000020 3f b9 69 3e 80 e5 f0 3d 85 3f 25 be 0d a2 48 3d
       0.22824572 0.11762524 -0.16137512 0.04898267
000030 9e 0a 65 3e 7a 11 43 be 66 ac 0b be 71 4b 67 be
       0.22367331 -0.19049636 -0.13639984 -0.22587372
000040 13 37 6d 3e 90 b6 8d be 2f b7 be 3d fc 1d f9 3d
       0.2316554 -0.27678347 0.09312283 0.12163922
000050 9a fe 2f be 5a 07 a9 be 90 01 77 3e a6 8a 1c be
       -0.17186967 -0.3301342 0.2412169 -0.15287265
000060 d7 64 4a be ca b5 01 3e ce 68 b5 be df dc 13 3e
       -0.1976503 0.12667003 -0.35431522 0.14439724
000070 a5 f1 9d bd e5 8a 09 bd 21 14 de bd 01 a3 8b be
       -0.07712106 -0.033579726 -0.10843683 -0.272728
000080 cf 3f 47 be 1c 46 74 bd a2 68 e1 3d 77 ea 8c 3c
       -0.19457935 -0.059637174 0.11006285 0.017201645
000090 57 4f cf bd fb 6f 8d be 96 f2 73 3c a4 95 e3 bd
       -0.10122555 -0.27624497 0.01488938 -0.11112526
0000a0 93 95 1c 3e c0 79 fd 3d 70 23 84 be ba 00 29 be
       0.15291433 0.123767376 -0.25808287 -0.16504183
0000b0 91 27 24 3e 9a 6c 32 bb 69 98 96 be f8 e9 61 3d
       0.16030718 -0.0027225376 -0.29413155 0.05515477
0000c0 55 d2 24 be d9 d6 93 3d 67 26 f3 3d b5 19 8f 3e
       -0.1609586 0.07218713 0.11872559 0.279493
0000d0 5e aa 1f 3e cb d7 13 3e 9e e8 03 bd af f0 02 3e
       0.15592334 0.14437787 -0.032204263 0.12787126
0000e0 8b 31 10 3e b9 56 43 be c3 be 90 3c 6a 55 a2 3e
       0.14081399 -0.19076051 0.017669087 0.3170579
0000f0 1a cd 94 be 51 9b 82 3e 38 2a b2 be 66 cd 45 3e
       -0.2906273 0.25509122 -0.34797835 0.19316635
000100 39 ed 37 3e 52 e3 4f 3e 59 9b 16 3e 1d 89 27 be
       0.17961587 0.2030156 0.14707698 -0.16360898
000110 a1 dc cb bc 5a 82 25 bd e9 dd dd 3e 22 79 43 3d
       -0.024885477 -0.040407516 0.43333367 0.047722943
000120 01 ca da 3c ba 49 df bd 06 2f dc 3e c2 f2 05 be
       0.026707651 -0.10902734 0.43004626 -0.13080886
000130 f3 a6 a9 3e 87 9c 20 3e 9b 47 b5 3d 94 5a 6c 3d
       0.33135185 0.1568471 0.08851548 0.05770357
000140 12 ff c1 3a 45 d2 b4 3c a2 fa 79 3d e3 be 42 bd
       0.0014800748 0.02207292 0.061030038 -0.047545325
000150 16 1f 42 3c 71 10 a9 bd 21 08 0f bd 27 96 39 bd
       0.011848232 -0.08255089 -0.03491986 -0.045309212
000160 2c b6 c1 bc 7d d3 0f be bf 7d 77 3e 63 60 83 bd
       -0.023646437 -0.1404552 0.24169062 -0.06414869
000170 dd 98 b3 3d 64 7c ab 3d 45 72 48 3e f3 89 be 3e
       0.08769391 0.08373335 0.1957484 0.37214622
000180 25 e0 da bd ce 44 1e 3e ae c9 4b bc 79 63 19 be
       -0.106872834 0.15455934 -0.012438221 -0.14979352
000190 31 2d 8b be 4b 67 3e be a6 f2 23 be 6c 97 66 3d
       -0.27182916 -0.1859409 -0.16010532 0.05629675
0001a0 f8 18 e2 be f7 c3 f4 bd 49 52 7d 3e ff 20 2e be
       -0.44159675 -0.1195144 0.2473842 -0.17004775
0001b0 5f bf 11 3e 3a e5 6f be cd ad 33 3e 13 62 2d 3e
       0.14233159 -0.23427287 0.17546768 0.16931944
0001c0 8b f8 4f 3d c5 01 d2 be 6f 39 e9 3e cc 68 43 3e
       0.05077414 -0.41016975 0.4555163 0.19082946
0001d0 e7 a2 99 bb 8f 1d 32 be 6b 3d 90 3d d1 12 9d bd
       -0.004688609 -0.17394088 0.070429645 -0.076696046
0001e0 e1 de 43 3e 7f b2 d8 bd 97 86 5b be 25 2d 25 be
       0.1912799 -0.105809204 -0.2143806 -0.16130503
0001f0 d0 df 99 bc ee 56 b5 bd 37 1e e0 bc f9 60 de bd
       -0.01878348 -0.08854471 -0.027358158 -0.1085834
000200 4e 07 34 be a6 e0 3b 3e 48 2b 79 3e 2f 3f 1b be
       -0.17580912 0.18347415 0.24332917 -0.15160821
000210 a2 a7 89 3c 34 9b a1 bd 7b bd 95 bd 4f 10 10 3e
       0.016803566 -0.07890931 -0.07311531 0.14068721
000220 f6 da 3a 3e c1 e8 21 3e e5 d2 8f bd 59 2b f9 bd
       0.1824759 0.15811445 -0.07022647 -0.12166471
000230 6c b8 a7 3d 64 a4 17 3e 41 97 56 be c3 9e 08 be
       0.081894726 0.14808804 -0.20956136 -0.13341813
000240 8a 9e 58 3d ae 83 38 ba 50 1c 76 3e e9 4d 49 bd
       0.05288557 -0.0007038665 0.24034238 -0.049146567
000250 a8 38 17 be 47 34 a2 bc 53 a1 39 3e be 65 11 3d
       -0.14767706 -0.019800318 0.18127947 0.03549742
000260 ff 1c 7b 3c db 02 a5 bd 92 ff 21 be 11 8e 54 bd
       0.015326737 -0.08057185 -0.15820149 -0.051893298
000270 73 0c 49 bd d1 5a 85 3e a4 0d 4b bc 23 1c 33 3e
       -0.049084138 0.2604585 -0.012393389 0.17491202
000280 f9 72 0a bd fa dc 1c be e5 94 ef 3d ee bf 53 3e
       -0.033801053 -0.15318671 0.11698321 0.20678684
000290 5d ee de bd ae a1 8f 3e 9c 02 bc be f4 d2 94 3e
       -0.10885308 0.2805304 -0.3672074 0.29067194
0002a0 78 7d 7a 3e b9 f9 96 bd 5d 74 30 be 8a fe 8e 3d
       0.24461925 -0.073718496 -0.17231889 0.06982143
0002b0 59 36 d8 3d b6 d9 36 be d8 77 3d 3e 6d d0 9d 3d
       0.10557241 -0.17856488 0.18502748 0.0770577
0002c0 c4 73 a5 bd 1b 83 49 be a2 2a df bd dd 8c 8b bb
       -0.08078721 -0.19678919 -0.108968034 -0.0042587356
0002d0 10 3d 41 bd b1 4b 9e be 3c 1f b4 3d 1d 1f 6f be
       -0.047177374 -0.30917123 0.0879502 -0.23351713
0002e0 3d 6b 95 bc c7 3d 25 bd 46 3f 21 be 4e 14 2c 3e
       -0.018239612 -0.04034212 -0.15746793 0.1680462
0002f0 94 47 49 3e 28 25 b5 bc 72 e1 23 be 07 f2 62 be
       0.19656211 -0.022112444 -0.1600397 -0.22162639
000300 ff 4a d3 be 61 44 30 3e 84 e0 0a be 04 1e 47 be
       -0.41268155 0.17213584 -0.13562208 -0.19445044
000310 7f 79 ca 3c 29 8a 6b be 6f 0b ca bb a9 d1 3e 3e
       0.024716137 -0.23001923 -0.006165914 0.18634667
000320 91 65 ae be 7a 58 e9 bd da f4 bc be 6c e2 5e be
       -0.34061864 -0.11393829 -0.36905557 -0.2176606
000330 81 9e 8a 3d 6e 69 d7 3e ce 1e c4 3c 3b 53 8c 3d
       0.067685135 0.42072624 0.02394047 0.068518125
000340 70 5b 15 be 23 d4 9a 3d ae a1 9b 3d ad 67 63 bc
       -0.14585662 0.07559993 0.07599197 -0.013879699
000350 e3 94 ed bc 02 2c c4 be dc 95 85 bd 8b 51 a7 bc
       -0.029001659 -0.38314825 -0.06522724 -0.020424625
000360 b6 d9 1e be 3b 84 f9 3d 7c e6 31 3d 97 43 2a be
       -0.15512738 0.12183424 0.043432698 -0.16627346
000370 11 c7 17 be d0 83 05 3d 0a fb b5 3d 10 0d 09 3e
       -0.14822032 0.03259641 0.088857725 0.13383889
000380 76 a5 50 be 83 2f 10 bd 35 96 94 3e 57 46 17 3e
       -0.20375618 -0.03520156 0.2902085 0.14772926
000390 ff 62 27 3e 0d 28 eb bb 79 e0 c5 3c d2 b7 60 3d
       0.16346358 -0.0071764053 0.024154888 0.054862805
0003a0 83 15 fd bd c6 6c e9 3c 29 b6 c0 be 7e d4 1a be
       -0.12357619 0.02849425 -0.37638977 -0.15120122
0003b0 a3 ee ab be 69 5c fd 3e 78 a6 82 be 71 b0 2e bd
       -0.33580503 0.49484566 -0.2551763 -0.042648736
0003c0 e0 a4 69 3e 9a 12 11 3d a5 7b cb bb 9a 8b 6e 3b
       0.22816801 0.03541813 -0.006209808 0.0036399127
0003d0 cb a4 da bd bc 6a c4 3d d6 fd 11 be 2c 3b 84 3e
       -0.10675963 0.095906705 -0.14256987 0.25826395
0003e0 47 c7 48 be c8 ff 8f bd 20 41 0f 3d b7 4b 86 3d
       -0.19607268 -0.07031208 0.034974217 0.0655741
0003f0 3a f2 80 3d b0 6a 51 3c a6 40 b5 bd da 36 ee 3c
       0.06296201 0.012781784 -0.08850221 0.02907889

rnn.bias_ih_l0 f4 [32]
000000 ff ea bc 3c 63 b8 e2 3d 0b c9 3a 3e ee d0 b8 3d
       0.023061274 0.11070325 0.18240754 0.09024225
000010 fd 75 ee 3d 7e 12 eb bd 7d 67 9a 3d 70 c5 6c 39
       0.11643598 -0.114781365 0.0753927 0.00022580265
000020 82 eb 16 3e 89 28 0d 3e 56 00 ec bd c3 f4 47 be
       0.14738277 0.13784994 -0.115235016 -0.19526963
000030 eb 76 b7 3d 6d 68 06 be 60 0f b5 bd ee 2b 0e be
       0.08958229 -0.13125773 -0.08840823 -0.13883945
000040 9e e8 ab bc 96 65 03 3c 0f e3 b5 3d de c1 c9 3c
       -0.020984944 0.008019825 0.088811986 0.024628576
000050 b2 5f 4b 3d a0 40 e6 bd 1f 31 4b 3e c9 6e 83 3d
       0.04965181 -0.11242795 0.19842957 0.06417615
000060 b8 99 85 bd 24 50 3b be b5 81 d5 bb af 6a 10 3e
       -0.0652346 -0.1829229 -0.0065157064 0.14103197
000070 58 b2 06 be 10 02 ba bd e1 d1 35 be 84 d8 86 3d
       -0.1315397 -0.09082425 -0.17755844 0.06584266

rnn.bias_hh_l0 f4 [32]
000000 ff 70 ad bd ef 42 ec 3d 53 3a 26 3e ac 00 66 3e
       -0.08468818 0.11536204 0.16233186 0.22461194
000010 a1 cf 85 3d 30 dd 3c bd c9 df ee 3d 3d 50 24 3d
       0.06533743 -0.04610938 0.116637774 0.040115584
000020 34 38 91 bd 26 8d c8 bd 05 16 23 3e 6a af d5 bd
       -0.07090798 -0.09792547 0.15926369 -0.10433848
000030 99 b6 06 bd a3 4f 73 b9 e8 b6 05 be f6 3a 82 3d
       -0.032888982 -0.00023203953 -0.13058054 0.06358902
000040 92 37 96 bc 54 2a 7e 3d a7 5b 35 3e 1a 1d e0 3d
       -0.018337045 0.062052086 0.17710744 0.10943051
000050 71 1b 94 bd 81 50 2e 3d d5 4f 6e ba 7a 66 3a be
       -0.072317965 0.042557243 -0.00090908754 -0.18203154
000060 c1 c5 28 bc f0 c9 b1 bd 25 0b 2a 3c c4 2d 73 3e
       -0.010301054 -0.08681095 0.010378634 0.23747927
000070 66 2f 1a bd a9 90 4d 3e 16 a5 8b be 4d 51 8e 3d
       -0.03764286 0.20074715 -0.27274388 0.06949101

rnn.weight_ih_l0_reverse f4 [32, 128]
000000 0f 04 37 3e 31 03 79 3d 81 fd b3 bd b6 b4 1e 3d
       0.17872642 0.06079406 -0.087885864 0.038746558
000010 a6 46 d2 3d 3c 10 a0 3d 5b ff 3b 3e d8 75 c1 bd
       0.10267381 0.078155965 0.18359129 -0.09446305
000020 f6 de 87 3d 9c 66 89 3d fd 5e ad bd e9 e5 42 bd
       0.06634323 0.06709024 -0.08465383 -0.04758254
000030 f7 6d ea 3d e0 fa 40 3e b9 82 55 3d 79 cd cf bc
       0.114467554 0.18845701 0.05212662 -0.025366532
000040 5d b1 1c bc 88 8f 9a bc 1d 91 2d 3e 73 23 13 3e
       -0.009563771 -0.01886727 0.16949888 0.14368992
000050 f4 5c 02 3e cb 8e 4b be 80 bb 8c bc ac 18 6f 3d
       0.12730771 -0.1987869 -0.01717925 0.05837314
000060 49 e4 d7 bc a4 9e 28 3e 6b c8 05 3e 6e 93 a5 3d
       -0.026353972 0.16466767 0.13064735 0.080847606
000070 33 38 4a bd 19 ac a3 3b 64 23 2c 3c ae 96 08 3e
       -0.049370002 0.004994881 0.010506485 0.1333873
000080 e0 50 e1 bd bb 50 6b be f8 90 82 bd 9a 2f 60 3e
       -0.11001754 -0.22980015 -0.06375307 0.21893159
000090 4d a0 3d bc f8 b2 a7 bd 93 c0 0f be 85 8a a4 bd
       -0.011573863 -0.081884325 -0.14038305 -0.08034233
0000a0 11 5b db 3d 86 2f 30 3e 0c af 8f 3d 4a dc 3f bd
       0.10710729 0.17205629 0.070158094 -0.046840943
0000b0 e8 97 05 bc 3d 52 6b 3e eb 01 b4 3d fe 12 21 be
       -0.008153893 0.2298059 0.08789428 -0.15729901
0000c0 7c 6b 53 3e 1d 39 9d bd e2 04 a3 bc cc 6a d0 bc
       0.20646471 -0.07676909 -0.01989979 -0.02544155
0000d0 6f f4 52 3e cb 83 ec bd f4 03 af bd 81 0d 86 3d
       0.20601057 -0.11548575 -0.08545676 0.065455444
0000e0 56 19 1f 3e 3c f3 92 3d 25 14 68 be a8 65 93 bd
       0.15537009 0.071752995 -0.22663935 -0.07197124
0000f0 fa 8d 6b 3d 26 2c df bd 02 65 6f 3d 58 c6 82 3d
       0.057508446 -0.108970925 0.058445938 0.06385487
000100 17 6d a9 3d 32 24 ac 3a 13 b9 a3 bd 39 42 7b bd
       0.0827276 0.0013133346 -0.079942845 -0.06134245
000110 7c 88 5e bd 9e a6 b6 bc 3f bf 09 be 47 aa ef bc
       -0.05432938 -0.022296246 -0.13451861 -0.029256
000120 5b 5a a5 bd 1a ba 9e 3d ec 02 e1 bd d4 37 d3 3d
       -0.080738746 0.0775034 -0.109868854 0.10313383
000130 32 43 27 3e 39 4f f8 3d f1 d5 9f bd 5b f0 39 3d
       0.16334227 0.121244855 -0.07804478 0.045395236
000140 f3 e0 3b ba c3 c2 10 bd b4 1c fa bd b7 da 43 bd
       -0.0007167004 -0.03534199 -0.12212506 -0.047816005
000150 d8 cc b5 bd 48 b9 db 3d 22 df d8 3d 15 28 61 be
       -0.088769615 0.10728699 0.10589434 -0.21987946
000160 9f 96 a5 bb 17 0b 03 be ad 8c e3 bd f4 ae 3c bd
       -0.005053356 -0.12797199 -0.11110816 -0.046065286
000170 b0 40 61 bc 42 76 20 3d 02 3c c6 bd 53 82 20 3e
       -0.013748333 0.03917528 -0.09679414 0.15674715
000180 c6 27 dc 3d a3 64 1c 3b de 80 d3 3d 71 66 36 bd
       0.10749774 0.0023863695 0.10327314 -0.04453129
000190 12 f9 88 bd 25 ea 4f 3e 24 ec 17 be ca 66 f8 bb
       -0.066881314 0.20304163 -0.14836174 -0.007580613
0001a0 9b 84 00 be c1 de 2f 3e d1 91 1d 3d 72 2c 4c bd
       -0.12550585 0.17174818 0.03846914 -0.049847074
0001b0 75 9c 3b 3e cc ab ee 3c 5e 4f 27 3d d9 c4 39 be
       0.18321402 0.029134654 0.040847175 -0.18141498
0001c0 75 22 d2 3d 95 04 05 be a2 e6 0e 3d f3 91 89 3c
       0.102604784 -0.12990029 0.034887917 0.016793227
0001d0 c1 9e 03 bd 16 d1 c5 bd 59 7a f2 3d 9d 20 b1 3c
       -0.03213382 -0.096590206 0.11839742 0.021621997
0001e0 14 68 f3 bc e8 4c ae 3c cc 3d 23 be 4a 35 16 3d
       -0.029712714 0.021276906 -0.15941542 0.036671914
0001f0 73 b8 10 bd 42 0f 6a bc fc ce d4 bd 88 d0 7f bd
       -0.035332154 -0.014285864 -0.10391042 -0.06245473
000200 6d 91 13 bd 13 c3 f8 3d 1c 9e 13 3e 61 e2 2d 3e
       -0.03602736 0.121465825 0.14415783 0.16980888
000210 cc 3c 12 3e 73 93 13 3e 62 40 0b be c1 d2 c0 bb
       0.14281005 0.14411716 -0.13598779 -0.005884499
000220 40 b1 d8 bd e6 53 01 bd 1b e9 74 bd be 05 11 3e
       -0.10580683 -0.031574152 -0.05979262 0.14162347
000230 1c 79 9a bd 65 71 01 be 9c 85 c4 bc 72 11 59 3b
       -0.07542631 -0.12640913 -0.023989491 0.003312197
000240 16 61 40 3e ad 2a 3c bd 39 df 0f bc ba 1e 2f 3e
       0.18787035 -0.045939136 -0.008781248 0.17101565
000250 dd 42 e2 3c c5 ef e3 3d 83 d3 7f 3c 03 74 a1 3d
       0.027619774 0.11129717 0.015614393 0.078834556
000260 f0 06 00 bd d0 cb 61 bc 57 02 a9 3d f5 d8 9d 3e
       -0.031256616 -0.013781503 0.082523994 0.30829588
000270 aa db a2 3d 6b ce 12 be ee bf 4d bc e1 d9 18 3d
       0.07952054 -0.14336555 -0.012557967 0.03731716
000280 6c 51 d4 bc 57 38 86 bd 05 a4 fd 3a 4b 41 ca 3c
       -0.025917731 -0.06553715 0.001935125 0.024689337
000290 5e 83 21 bd a4 1b ff bd 26 6b 8e bd 69 de 09 3e
       -0.039431922 -0.12456444 -0.06954031 0.13463749
0002a0 4c be 15 be 7f b2 cf bd 46 ba ac bd 05 d3 84 3d
       -0.14623374 -0.10141467 -0.08433966 0.06485561
0002b0 4b e0 95 bd cf 3f c4 3d dc 61 19 3e e1 3a 6d bd
       -0.07318171 0.09582483 0.14978737 -0.05791748
0002c0 d9 2d 0e be ad fa 51 bd f7 7c 4b be 91 04 a8 bd
       -0.13884677 -0.051264454 -0.19871889 -0.08203996
0002d0 ea 92 e8 3b 66 9c d1 bd c6 df 41 bd 72 39 a4 bc
       0.0070975916 -0.10234909 -0.047332548 -0.020046923
0002e0 42 51 e9 3d ca 2c e2 3d 3f 80 f9 3c 35 25 02 3e
       0.11392452 0.11043699 0.03045666 0.12709506
0002f0 cd 6d d5 bd 76 a1 f1 3d 9d f0 d7 bd 9c 32 f6 3d
       -0.104213335 0.11798374 -0.1054394 0.12021372
000300 c9 53 49 bd 63 3f f1 3d 85 00 e8 bc f2 e3 19 3e
       -0.04915217 0.11779668 -0.02832056 0.1502836
000310 13 75 f4 bd b2 0b c9 bd f0 bd 2b 3e 62 30 57 bd
       -0.11936393 -0.09816684 0.16771674 -0.052536376
000320 f1 e7 42 3c b0 61 12 bd 5b 78 44 bd b7 a3 29 be
       0.011896119 -0.035737693 -0.047966342 -0.16566359
000330 56 88 8b bc 63 fe ce 3d d1 80 1e bd 83 e4 76 bd
       -0.017032783 0.10107114 -0.038697068 -0.06027652
000340 f6 ce 9b 3d b5 d4 5f 3b 9a 8d b1 bd 2c 4e cd 3d
       0.07607834 0.0034153883 -0.086695865 0.10024676
000350 0d 0b 1a 3e 7f fd a1 3d 02 43 10 be a5 d3 5d bd
       0.15043278 0.07909679 -0.14088061 -0.054156918
000360 89 bc 90 bc 18 ad 11 3d 06 b0 b2 3d 7f a6 8e 3d
       -0.017668026 0.035565466 0.0872498 0.0696535
000370 af 4f 3a be 36 3b ab bd 2b a5 05 be 60 ff 8e 3d
       -0.1819446 -0.08360903 -0.13051288 0.06982303
000380 2b 04 36 3d 4c 48 1d 3e b9 11 83 be b1 dc 40 3e
       0.04443757 0.1535961 -0.2559946 0.18834187
000390 f6 0c 17 be 61 27 b2 3d 6e 47 93 3d 1f e6 8b 3d
       -0.14751038 0.08698917 0.071913585 0.068310015
0003a0 7f eb 45 bd c0 d0 08 3e 2a 73 97 3d 68 96 2f 3d
       -0.04832029 0.13360882 0.07395013 0.042868048
0003b0 8e 4c 14 3e 42 96 44 3e 33 18 08 be 18 a2 2c 3d
       0.14482328 0.19197944 -0.13290481 0.042146772
0003c0 48 f3 12 bd e6 9c fc 3d c6 65 bd 3d d4 11 25 be
       -0.035876542 0.123346135 0.09247927 -0.16120082
0003d0 fe 6f b5 bd 4d 82 4c be 3e 5a 12 bd d9 9f 65 3e
       -0.088592514 -0.19971581 -0.035730593 0.22424258
0003e0 83 7e 3f 3e 74 cf 87 be 9d 6f 17 be 95 1d 83 3d
       0.18700604 -0.26525462 -0.14788671 0.06402127
0003f0 c3 30 a8 bd ec fc d0 3d c5 52 c6 bc 27 06 85 3e
       -0.082124256 0.10204491 -0.02420939 0.25981256

rnn.weight_hh_l0_reverse f4 [32, 32]
000000 c3 d8 58 3e 9a 6a 98 3e 2d 86 38 3d db 55 c3 3d
       0.21176438 0.2976883 0.045049835 0.0953786
000010 3b 29 5f bc be 64 ac 3d d7 e4 81 bd 21 15 8f 3e
       -0.01362067 0.084176525 -0.06342476 0.27945808
000020 6c 1b e3 3d 35 60 34 be 13 12 86 bc c3 a6 ad 3c
       0.11089215 -0.17614825 -0.01636604 0.021197682
000030 f7 d3 62 3c a0 2e 47 3d ff 52 66 3e 91 74 7f 3e
       0.013844482 0.04862845 0.22492598 0.2494681
000040 c6 0b a6 bc 6c a8 a6 3a 88 14 83 bd a7 86 1f 3e
       -0.020269286 0.0012714989 -0.064004004 0.1557871
000050 bd ac 85 3d 1f 89 b8 be 8a ea 12 be 17 ce 6e 3d
       0.06527088 -0.36042115 -0.14347282 0.05830201
000060 1c 4c 13 3e f1 fa 16 be b1 7c 96 bd a6 cb 61 3c
       0.14384502 -0.14744164 -0.07348002 0.013781464
000070 65 7e 52 bd c6 4c bd 3e 53 1b 4a be 1c 0c 6c 3e
       -0.05139007 0.36972636 -0.19736986 0.23051494
000080 df ef 29 be 6b 4c 09 be 15 7a e4 bd 07 3a 1c 3e
       -0.1659541 -0.13408057 -0.11156098 0.1525651
000090 cd f1 0b 3e 56 23 bd 3d 0f 74 60 3e 0a 34 f1 bd
       0.13666458 0.092352554 0.21919273 -0.11777504
0000a0 ee c3 d1 3d 42 5c 3c 3d f4 36 8d be 82 2b 86 3d
       0.10242449 0.04598642 -0.27580988 0.06551267
0000b0 f1 0e 21 be cc 91 f0 bd 68 3f 99 be 78 a1 51 3e
       -0.15728356 -0.117465585 -0.29931188 0.20471752
0000c0 4b ab 8b 3e 10 b2 74 3d 75 04 4f be ee e7 b4 be
       0.27279124 0.059740126 -0.20216544 -0.35333198
0000d0 94 68 7f bd 3c c0 e8 3d 3d 50 dd bd d2 82 eb 3d
       -0.062355593 0.11364791 -0.1080632 0.11499561
0000e0 be b3 53 3d 9a 9e 1c 3c aa 40 93 3e ef 7b 1c be
       0.051685087 0.009559298 0.28760272 -0.15281652
0000f0 39 51 15 be fb 3b a0 be 92 fa 38 be 19 97 5f be
       -0.14581765 -0.3129576 -0.18064335 -0.21834983
000100 4b 53 c2 3e 9b 77 71 be e5 b8 a9 3e 8f 20 49 be
       0.37954172 -0.23580782 0.33148876 -0.19641326
000110 5b 1f 08 be ea 79 5b bd 1a 4f 6d be d0 1c 1b 3b
       -0.13293211 -0.053583063 -0.23174706 0.0023668297
000120 3b 12 70 3d 00 54 ad 3c 67 81 5e 3e 1d b0 94 3d
       0.058611136 0.021158218 0.2172905 0.072601534
000130 02 4c ae 3d f3 1e c5 3d 79 4a 50 3e bf 65 d1 3d
       0.08510591 0.09625044 0.20340909 0.10224485
000140 42 54 b6 3d fd e9 da bd fb cc 71 3e da a2 40 3d
       0.0890279 -0.10689161 0.2361335 0.047030307
000150 b6 ee 6f 3d 91 4f 05 3e 67 11 c8 bd 43 7b 35 be
       0.058577262 0.13018633 -0.09768944 -0.17722802
000160 d0 ba 83 bd de 92 28 3e c9 88 91 be 4c f5 87 3c
       -0.06432116 0.16462275 -0.2842467 0.016596459
000170 06 2a 80 3e fb d7 10 3e 4d af 38 bd af ae 12 3e
       0.2503206 0.1414489 -0.045089055 0.14324449
000180 9a 7b 62 be b4 5d 9f bd 1f 3b cd 3d ed a1 2b be
       -0.22117463 -0.07781544 0.10021042 -0.16760989
000190 65 6c 04 3e 6a 7f d1 bd b7 68 b2 3d 51 a9 07 be
       0.12931974 -0.102293804 0.08711379 -0.13248183
0001a0 95 a5 39 be 14 c5 49 be a3 19 52 3e 12 a6 c7 3d
       -0.18129571 -0.19704086 0.20517592 0.09748472
0001b0 72 08 25 be 00 08 84 be 0c b3 1c 3e 6f 86 09 3d
       -0.16116503 -0.25787354 0.15302676 0.03357547
0001c0 e5 18 09 3e 02 fa 13 bd 67 93 55 3e 93 b0 06 bf
       0.13388403 -0.036127098 0.20857011 -0.5261318
0001d0 92 cf a0 bc 88 63 e9 3c 4d e4 40 3e 13 11 df 3c
       -0.019630227 0.028489843 0.1883709 0.027229821
0001e0 fd e4 14 3e 7a cd d6 3d 99 29 12 3d 27 d1 90 bd
       0.14540477 0.1048841 0.035684202 -0.07071143
0001f0 aa 82 dc bd 08 ca df bd e3 3d ea 3d 9f 23 ae 3c
       -0.1076711 -0.10927206 0.11437585 0.02125722
000200 6f 83 62 3e 78 ed 80 3b 88 5d 42 bd b0 0e 71 3e
       0.2212045 0.0039345585 -0.04745248 0.23540759
000210 ad e6 6b bc ca 9d 50 bd 5f 4e 22 be 1f 9f e7 bd
       -0.014398259 -0.05093173 -0.15850209 -0.11309647
000220 ab 34 5a be 5f 24 46 bd dc 13 7f 3d b0 a7 3d 3e
       -0.21309154 -0.04837453 0.0622748 0.18520999
000230 88 48 52 3e 44 71 48 bb 10 39 1b 3e 64 5c 14 bd
       0.20535481 -0.003058509 0.15158486 -0.036220923
000240 0e b8 78 be 3d 5f 39 be 01 f4 23 3e 2f 00 b6 3e
       -0.24288961 -0.18102737 0.16011049 0.35547015
000250 be 39 a6 3d 82 5f 93 3e fa 60 c3 be 16 34 08 3e
       0.08116482 0.28783804 -0.38159925 0.13301119
000260 bb 8f 21 be db 1f 32 3e 2a 49 3f bd c7 75 d9 bd
       -0.15777485 0.17394964 -0.046700634 -0.10618167
000270 b3 14 98 3e d8 b0 94 3d 79 b0 1b 3e 0e b6 24 bd
       0.29703292 0.07260293 0.15204038 -0.040212683
000280 c6 94 62 3e ea 01 99 3e 52 81 f2 bd ea 31 4a be
       0.22127065 0.29884273 -0.11841072 -0.19745603
000290 31 eb 31 3e f5 80 9f 3c e4 84 6c 3c 73 27 63 bd
       0.17374875 0.019470671 0.0144359805 -0.055457544
0002a0 22 4b 5e 3e 43 07 c1 bd 91 00 55 be d4 5b 8e 3d
       0.21708348 -0.09425213 -0.20800997 0.069511086
0002b0 57 7a 8a 3e d1 1e ee 3d 18 3d a0 3d 2b 07 21 be
       0.27046463 0.116269715 0.07824153 -0.1572539
0002c0 05 ab b5 3d 68 d2 87 3e ac ea 86 3e 75 20 37 be
       0.0887051 0.26527715 0.26350915 -0.17883475
0002d0 86 03 74 3c 47 f7 9f bc ca c0 a8 bd 65 ac 8d 3e
       0.014893418 -0.01952709 -0.082398966 0.2767059
0002e0 a7 a8 10 3e 97 96 b6 bd f1 b0 ba be a8 1a 2d be
       0.14126836 -0.089154415 -0.3646312 -0.169047
0002f0 7d a9 6d 3d 63 bc ab be 38 ec c9 3a 08 11 cb 3d
       0.058022965 -0.33542165 0.0015405482 0.09915358
000300 06 06 a2 bd 20 4d 62 be 88 21 53 bd 2b 7d 5f 3e
       -0.07911305 -0.22099733 -0.05154565 0.21825092
000310 65 b2 c9 bd dc 3e 72 be 9e b4 45 be a7 4b 8b bd
       -0.09848479 -0.23656791 -0.19307181 -0.06801539
000320 db 4f e1 3d 34 c8 2a 3d 62 b9 7b 3e 94 c4 13 3d
       0.11001559 0.041694835 0.24582437 0.036076143
000330 64 e8 ff be 0e 49 9d be 53 61 32 3e dd c5 04 3e
       -0.49981987 -0.307198 0.17419939 0.12966104
000340 d5 df 9b 3e d3 03 4f be 32 12 a3 bd de 07 01 be
       0.30444208 -0.20216303 -0.07962455 -0.12600657
000350 14 55 58 bd 96 63 bf 3d 94 e2 00 3e c3 d1 d1 bd
       -0.05281551 0.093451664 0.12586433 -0.10245087
000360 21 7f 84 bc b5 77 6b 3e ae 3c 54 3e b8 b5 da bb
       -0.016173901 0.22994883 0.20726272 -0.0066744946
000370 02 f8 b2 be 53 87 28 bd 23 35 c8 3d 2a d4 61 be
       -0.3495484 -0.04114468 0.0977576 -0.2205359
000380 4b 16 a2 be 5d aa 05 3e d8 16 67 be 8f 52 53 3e
       -0.31657633 0.1305327 -0.22567308 0.20636962
000390 92 ca d3 3d f4 64 fe 3d 94 5d 3f 3e 31 98 02 3c
       0.103413716 0.12421599 0.18688041 0.007970856
0003a0 3e d5 61 3e 05 8c 08 be ae 35 7a be 4d d6 1b be
       0.22054002 -0.13334663 -0.2443454 -0.15218468
0003b0 10 24 93 be f7 6c 42 be 22 ca 0b 3d f4 87 c6 bd
       -0.2873845 -0.1898688 0.034128316 -0.096939
0003c0 6a b1 de 3d c3 bd 09 3e 11 01 0a be 16 91 8a be
       0.10873683 0.13451295 -0.1347697 -0.27063817
0003d0 c1 5a 1f bc 46 fb e0 bd 35 5b e5 3d 6e 71 7c 3d
       -0.009726227 -0.109854266 0.11199037 0.061631612
0003e0 9c f0 17 3e 55 59 16 be c6 79 45 3e 68 d8 9b bd
       0.14837879 -0.14682515 0.19284734 -0.076096356
0003f0 08 b6 41 be 25 df 93 3b f3 aa b5 3c ab 8f 5b bd
       -0.18917096 0.004512685 0.022176242 -0.05360381

rnn.bias_ih_l0_reverse f4 [32]
000000 3d cd 48 3d 28 50 b4 3d 71 cf ee bc 5d b8 26 be
       0.049023855 0.08804351 -0.02915165 -0.16281267
000010 d2 89 27 3d 54 33 2c be b9 d8 74 be a8 c5 ba bd
       0.04090292 -0.16816455 -0.23910798 -0.09119731
000020 4b a6 67 be 93 93 4b be 49 67 2e be 5f fc f6 3d
       -0.2262203 -0.19880514 -0.17031588 0.12059855
000030 cb ed 28 3d 6f bc c0 bd 4f d0 40 3d 80 f0 26 3d
       0.041242402 -0.09410941 0.04707366 0.040756702
000040 b5 d4 0a 3e e9 70 63 bd 25 d9 11 bd b1 a9 d4 bd
       0.13557704 -0.0555276 -0.035607476 -0.103839286
000050 50 a5 e4 3d 8e 2a 80 3d 20 7f ba 3d df f8 0e 3d
       0.11164343 0.06258117 0.091062784 0.03490531
000060 80 d0 d5 bc e7 93 33 bd 9d bf b7 3c e6 6f 88 bd
       -0.026100397 -0.043842223 0.022430236 -0.06661968
000070 08 52 08 be ee f1 2b 3e fb 7f 02 bd ed e4 22 3e
       -0.13312542 0.16791508 -0.031860333 0.15907641

rnn.bias_hh_l0_reverse f4 [32]
000000 c1 c7 33 3e 14 91 9e bb 13 65 c7 3d 4b ca 98 3d
       0.17556669 -0.004839072 0.09736075 0.07460459
000010 1b c0 a9 bd 4a a5 d7 3d 07 0e 9b bd 9f 2b 88 3d
       -0.08288594 0.10529573 -0.07571035 0.06648945
000020 b9 71 38 bd 76 18 ef bd bb 6c 13 be bd e9 b5 3b
       -0.04503033 -0.116745874 -0.14396946 0.0055515454
000030 60 fc f8 bc 7f 35 17 3e b7 47 47 bd 32 c9 02 3e
       -0.03039378 0.14766501 -0.048652377 0.12772062
000040 fa 63 82 3e ea 42 39 3d c3 f7 38 3e d0 e3 da bd
       0.254669 0.04522983 0.18063264 -0.10687983
000050 a3 f5 31 be 19 88 14 3d 19 81 73 be 7a 8c be 3c
       -0.17378859 0.036262605 -0.23779716 0.023260344
000060 5d 86 bb 3c 41 a0 80 3d ed 7a 0a be 3f 89 ba bc
       0.022891218 0.06280566 -0.13523455 -0.022770522
000070 f1 5e 3f 3e 2e f0 44 3e 2d de 26 3e 20 3d 9d 3d
       0.18688561 0.19232246 0.16295691 0.07677674

fc1.weight f4 [12, 64]
000000 a1 e1 ea be 52 3a 08 bd bc a4 e7 3e d4 2d c5 3e
       -0.45875266 -0.033258744 0.4524287 0.38511527
000010 2b 22 6c 3e 54 b8 6b be b6 29 8e 3e b4 b9 88 be
       0.23059909 -0.23019534 0.27766198 -0.2670418
000020 eb 96 57 be d5 44 91 3e 17 5b 02 be e3 3f 6e 3e
       -0.21053664 0.28372827 -0.1273006 0.23266558
000030 2e 7e 36 3e 28 80 8a be bb cb 70 be e3 ff 7d be
       0.17821571 -0.270509 -0.23515217 -0.24804644
000040 44 3b 36 3e 4e b0 86 3e 57 84 6c 3e 94 39 73 3e
       0.17796046 0.26306385 0.23097359 0.23752433
000050 a5 09 9e 3e e8 78 8d be 9a 3e 33 3e 02 a6 8b 3e
       0.30866733 -0.27631307 0.1750435 0.2727509
000060 58 b4 67 3e f2 b8 66 be 0d 7c 00 be a2 4e ac 3e
       0.2262739 -0.22531489 -0.12547322 0.33653742
000070 d2 8f b1 be 9c 75 d7 3e 4d ec b2 be 6a 8a 41 3d
       -0.3468004 0.42081916 -0.34945908 0.047251143
000080 d1 6b 61 3e 18 cc ea be 84 1a 95 3e 33 1e 80 be
       0.22013785 -0.45858836 0.29121792 -0.2502304
000090 ac fe 8a 3e 68 c4 84 be 66 5d 80 be 89 4e ae be
       0.27147424 -0.25931096 -0.25071257 -0.34044293
0000a0 75 b0 b3 be 5f b6 7d be f7 c3 fe 3d ad 0e ae 3e
       -0.35095564 -0.247766 0.12439721 0.33995572
0000b0 8c 7a aa bc 4c 13 04 3e 8b 87 4f 3e af b1 82 be
       -0.020810388 0.12897986 0.2026655 -0.25526187
0000c0 f2 87 9b 3e 24 ce c8 be 2d 09 10 3e 49 7e e9 3d
       0.30377156 -0.39219773 0.14066 0.1140104
0000d0 42 2d e3 be d6 55 e8 bd 99 b3 69 be 34 00 2e be
       -0.44370466 -0.11344497 -0.22822417 -0.16992265
0000e0 f9 8f b8 be f5 28 66 3e 81 0b 18 be 81 5d a4 3e
       -0.36047342 0.22476561 -0.14848138 0.32102588
0000f0 c8 dc 11 3e 06 cb 3d 3e 8d 80 92 3e cc 19 41 be
       0.14244378 0.18534479 0.286137 -0.18857497
000100 3a 80 ad 3e b0 9e f1 bc b6 3c 60 bd 43 24 00 be
       0.33886892 -0.029494613 -0.0547454 -0.12513833
000110 76 9e f8 3d 7b 24 50 3e 22 59 e9 be 13 d1 cc 3e
       0.12139599 0.20326416 -0.45575815 0.4000326
000120 27 0c e1 bd bb 18 12 bf 72 af b4 3e a5 19 de be
       -0.10988646 -0.57068986 0.35290104 -0.4337894
000130 a0 70 e5 be 45 86 be be f1 ee 13 3d e6 58 a9 bc
       -0.4481249 -0.37211815 0.036116544 -0.020672273
000140 d5 08 86 be 6f be 02 3e 44 1e 50 3e 7e 1d 98 3d
       -0.26178613 0.12767957 0.20324045 0.074275
000150 bf 9b 9f be 22 79 36 3e 85 ad 0b bf e2 34 5d be
       -0.31173512 0.17819646 -0.54561645 -0.21602204
000160 82 bd d5 3e b1 61 a5 be f1 ee c3 be 58 42 a7 3e
       0.41746145 -0.32301095 -0.38268235 0.32667804
000170 b2 f0 8e 3e 83 b3 57 3d 90 fa a1 be f1 5d 10 3e
       0.2791801 0.05266143 -0.31636477 0.14098336
000180 72 6f d9 be 5d 23 4b 3c 9c 8d 64 3e e2 ed fb 3e
       -0.4246784 0.012398568 0.22319645 0.49204928
000190 1a a7 35 be 44 e4 16 bf 81 cb aa 3e 53 fb 19 3d
       -0.17739525 -0.58942056 0.33358386 0.037593197
0001a0 40 3c 8a bd 53 f7 92 3e e0 07 09 bf 9a 57 18 be
       -0.06749773 0.28704318 -0.5352764 -0.14877167
0001b0 3f f9 2b bf 52 04 e2 3e 5f 78 ef 3e c1 dc 04 3f
       -0.67177194 0.4414392 0.46771523 0.51899344
0001c0 79 c7 fe be 00 47 54 3d 3a 18 3f be f1 ba ba 3e
       -0.4976156 0.051825523 -0.18661585 0.3647075
0001d0 17 6d 80 3e 92 aa 86 3e ed 8c af be a4 21 2c 3f
       0.2508323 0.2630201 -0.34287205 0.6723883
0001e0 54 61 e7 3e c2 89 21 bf 3e 75 0b be 11 e0 27 bf
       0.45191443 -0.63100827 -0.13618943 -0.65576273
0001f0 40 c4 08 bf 62 24 3a 3d bb 5c b3 3d 32 02 81 bd
       -0.53424454 0.045444854 0.08757921 -0.06299247
000200 69 6d ee 3e 70 58 04 bf cd 96 74 be d2 37 1d 3d
       0.46567848 -0.51697445 -0.23885651 0.038383313
000210 26 36 03 bf 10 a7 3f 3c 3b e5 19 bf dc 15 a4 bc
       -0.512545 0.011697546 -0.601154 -0.020029955
000220 38 8c 49 3f e1 78 d6 bd ad f6 17 bf 41 cb 34 bf
       0.7872958 -0.104722746 -0.5936077 -0.7062264
000230 b8 8d 02 be 86 01 b0 3e 22 86 81 bd 11 8f 4a 3e
       -0.12749374 0.34376162 -0.06324412 0.19781138
000240 98 0f d5 3e 9d 04 61 be f6 f1 19 bf 0a e1 c4 bd
       0.4161346 -0.21974416 -0.6013483 -0.09613235
000250 fd ca 12 bf 98 c0 c8 3e 48 70 ff 3d 63 76 04 ba
       -0.57340986 0.39209437 0.12472588 -0.00050530414
000260 8b 9e fd ba 76 c0 a1 3e 41 55 ce bd 19 5d 42 3d
       -0.0019349618 0.3159215 -0.10074855 0.047452066
000270 ca d2 c4 be bf 87 2d bf 3f 42 01 3f f0 cf 51 be
       -0.3844207 -0.6778526 0.5049171 -0.20489478
000280 f9 68 0a be 1c bf dd 3e 5f df 83 bb 52 39 8e 3e
       -0.13516606 0.43309867 -0.0040244306 0.27778107
000290 b1 28 79 be f1 a3 1f 3f a0 a1 d3 3d 56 34 0c 3e
       -0.24331929 0.6235953 0.10333562 0.1369184
0002a0 70 5f d0 3d 17 a5 b3 be 2b 74 f6 be ec 6a e1 bb
       0.10174453 -0.3508689 -0.48135504 -0.006879201
0002b0 32 84 d4 3d 58 94 25 be 27 1f 7b be b6 89 f5 3e
       0.10376777 -0.1616987 -0.24523602 0.47956628
0002c0 f2 9e bf 3e f2 ed 8e 3e c9 b2 fb be 02 5e 81 3e
       0.37425953 0.27915913 -0.4915984 0.25267035
0002d0 0d 71 ab be 07 c9 12 3f 73 64 84 3c 16 95 98 be
       -0.33484688 0.57337993 0.01616118 -0.29801244
0002e0 86 29 24 bf f2 5f 49 bf c9 d1 b0 3e ec 77 f2 be
       -0.6412586 -0.78662026 0.34535053 -0.47357118
0002f0 01 8e 3a bf 1c 4e e3 be 3a 08 f1 3d 77 5c 1f 3f
       -0.7287293 -0.4439553 0.11769147 0.62250465
000300 10 9b e4 be bf 2a af be 50 55 14 bf 5d 2d d7 3e
       -0.44649553 -0.342123 -0.57942677 0.42026797
000310 e2 9f 41 bf 1a 0d 22 3e 65 3e c0 3e eb 7e 01 bf
       -0.75634587 0.1582531 0.37547603 -0.50584286
000320 bf e9 61 be c5 4b ae be 07 8f eb be 6e 61 f5 be
       -0.22061823 -0.34042183 -0.4600756 -0.47925895
000330 75 87 22 bf eb ed 0c be 36 4c 2b 3f 7f d8 f6 3e
       -0.6348794 -0.13762634 0.66913164 0.48212048
000340 24 ee d3 be 83 7b a5 be 20 a1 d9 3d e5 25 73 3e
       -0.41392624 -0.32320794 0.10626435 0.23744924
000350 32 3a be 3e e7 3a 8e 3e 84 e0 29 3e 06 42 37 bf
       0.37153774 0.27779314 0.16589552 -0.7158512
000360 a7 86 b2 be 7f 38 03 3f 82 15 0d 3f be b9 3f 3e
       -0.34868357 0.5125808 0.55110943 0.18723199
000370 16 a4 ea bd 15 83 d5 be e2 97 5e bb e0 36 85 be
       -0.11457078 -0.4170157 -0.003396504 -0.2601843
000380 eb 7a 15 3f 6f a2 48 3e 51 a1 4e 3d 53 80 39 3e
       0.5839068 0.19593213 0.050446812 0.18115358
000390 71 eb c5 be 34 21 16 be 25 67 b6 bd f8 f1 b0 bd
       -0.3865619 -0.14661103 -0.08906392 -0.08639902
0003a0 1a 36 03 be d5 62 a2 be b6 d6 e5 be c3 1f b3 be
       -0.12813607 -0.31716028 -0.44890374 -0.3498517
0003b0 4f f7 c1 be db 9d 48 be 24 8a 14 be 05 e1 9f 3e
       -0.37883994 -0.19591467 -0.14505821 0.31226364
0003c0 3e 1c d0 3e e0 d1 06 3e f7 39 92 3e 76 1b 61 3e
       0.40646547 0.13165998 0.2855985 0.21983132
0003d0 26 5e c8 3e 5c eb 43 3f f5 0e 53 be 8d 1c 2b 3e
       0.3913433 0.76531005 -0.20611174 0.1671011
0003e0 65 7c 4a be c4 61 c7 be 6a 0d ec 3e 0d e7 2c bf
       -0.19774015 -0.38941777 0.46103984 -0.67540056
0003f0 9c e7 13 3e 77 61 c0 3e 47 b6 02 bf 5a c5 29 3f
       0.1444382 0.3757436 -0.51059383 0.6631676

fc1.bias f4 [12]
000000 8f fb cc 3b a9 62 8f bd 1f cd fb be a0 44 4e be
       0.006255574 -0.0700124 -0.49179932 -0.20143366
000010 11 50 30 bf 2c 62 28 be 9a 15 0a be 1b 8b a8 bd
       -0.6887217 -0.164437 -0.13484803 -0.08229657
000020 b8 90 8e bd 98 5a 22 be 0a 71 78 bd 64 22 3f bd
       -0.06961197 -0.15854871 -0.060654677 -0.046663657
