src/src_learner/python3_finetuning_model.pt (torch, 99780 bytes, 11 tensors)

word_embeddings.weight f4 [102, 128]
00000000: 4845 bfbf 1178 31bf 2523 1abf 92b5 cebf
00000010: fc37 c3bd 67dc efbe d2a3 86bf 7196 c5bf
00000020: c1f7 54bf 212e 813e 82a8 49bf aafb a2be
00000030: a2c1 17be 7b2c d83f a69e c83e dda2 e23e
00000040: 6dd0 30bf ef0d 91bf a663 2d3f 8ddf 1c3e
00000050: 7876 573f bd3d 483e 3713 1cbf 8d84 603f
00000060: a0dc 943f 8d55 99be b9e2 0cc0 6503 c1bf
00000070: 0011 5f3c 04f7 2ebf a691 62bf 653a d4bd
00000080: 00d6 f83f 2d19 85bd 983c 8a3e 3824 5cbf
00000090: 0e9d 963e dfee 033d 69c8 3a3e ae25 f1be
000000a0: dad8 ccbd 9c5c b23e e6c3 12be 6733 a7bd
000000b0: 08d1 1c40 00f5 7fbf 9e44 c03f afca 0cbf
000000c0: 9539 69bf 7c88 223f c2e5 063d af9c c4be
000000d0: 79db 3b3f 0501 013f 8c9e a73f d30e 0240
000000e0: 501b ab3d a656 6b3f 02dd 43be ad54 19bf
000000f0: 8c04 c73f 01d4 7abf 194f 57c0 daf7 3fbf
00000100: 46eb e3bc 6557 8abf 8ba1 1abf 2293 7ebf
00000110: 536f cbbd 37e6 e6ba 39d8 d23f 123a 5a3d
00000120: 094c 49bf 91e5 80be c71a 7ebf 4249 4abf
00000130: 7ef5 0abf 5bf4 02bf e696 a23e c5c9 76bf
00000140: 04f5 d9be be5c 0c3e 2f79 15bf f0d8 483f
00000150: 1887 aabf e4ce 03bf 450c 473e 3ec2 60be
00000160: 1446 a13e f688 e6be 6d18 85bf 0afe 3a3f
00000170: 930e 94bf 8e82 15bf 43ca df3e 8197 f23f
00000180: 2fb1 323f 0a8e 973f 3410 593f 0197 6cbf
00000190: 8492 b53f 8c4a 47bf 1e42 82bf 3086 9a3f
000001a0: 934f ad3f 3742 0c3f 4e4c 0bbe fb17 5d3d
000001b0: 56da 01c0 cf38 2cbf c7d8 cabf e9e3 8fbf
000001c0: e048 6e3f 74e5 fcbe 90d7 a03f 624d 473f
000001d0: 055f b83e 9fbf 8d3e a4dc 043f a933 07bf
000001e0: 88fc 2140 6bca 89be fbfe ea3b 2441 e03f
000001f0: f001 07c0 f180 e73f 574e c83d 57d4 bd3e
00000200: 865d 363f 9764 e3bf bd2d b53e ed8c 993f
00000210: 7a22 9bbe 0784 e1bf 2d85 223f 7aea 4dbf
00000220: e938 cebf 0391 efbf 8707 0b3f 3c22 293f
00000230: bfe4 1240 a3c6 2c3f 1f4e db3f c0aa e5bf
00000240: 8a7f aebf 48b4 7bbf 3071 c13f a451 243f
00000250: 5028 f23e 2970 dbbe a226 0d3f 4010 c6bf
00000260: ffa2 043f 352f da3d edd9 893e ff91 a93f
00000270: 8e7d df3f a06f ed3f 9bd4 34bf 4da7 2340
00000280: 0ec7 d53e e8d2 59be 7d07 57bf 950c d7be
00000290: d8c0 1fbf 1430 7abf b3f5 5f3f 79be 7c3f
000002a0: ca80 9e3e f8a5 c23f 1b45 9a3f 4965 e8bf
000002b0: 8392 cebe 898a 75bf 63a5 aabb ff82 a1bd
000002c0: baf9 573f b335 953f 07e5 063f b143 cf3f
000002d0: 26c7 76bf b8ea 103e bd96 27be f368 b7be
000002e0: a673 dc3f 436e 9bbe 709b 743e 3b08 ac3f
000002f0: fe67 d33d 68d8 8c3f b5f0 aebe cd84 723f
00000300: 438a 11bf b46c 563f fe4e e43f 671d 48be
00000310: 8bd1 033f 257a ecbf e9ab 3ac0 883c 11bf
00000320: 5791 0abf 202a 653f fbeb 61bf c824 083f
00000330: 07dc c5bf 8275 31be 5a6e 3a3f d1b8 693d
00000340: facf 673f fdec 853f d845 05bf 8e69 ad3f
00000350: 78d6 703e ed05 f53f 850f eb3f 478a a93f
00000360: fc10 78bf 9f35 a03f e7eb 9a3f ce25 07bf
00000370: cecf 5f3e cd05 13bf 1383 ba3f adae e23f
00000380: 6030 d33f b42f ddbe 0ac4 8abe 7b36 b8bf
00000390: 059f 9f3f 8e0d a33f 802a c83e 7440 c63e
000003a0: 3d7d a3bd 7df6 ae3e 59e6 723f d024 b1bf
000003b0: dcae dc3f 5058 17c0 1ef3 6dbf 0e56 963e
000003c0: 924b 5c3e 283f 703f 4f9c bb3f 1b75 0ebf
000003d0: e3ad 3ebf 4d02 4fbe 102e 6bbe 3e80 ae3a
000003e0: 2a24 c03e dec0 14bf d582 12bf 6c3e 813f
000003f0: b55e d8bd 4700 97bf a7ea b9bd 4328 103f
-1.4943018 -0.6932383 -0.60209876 -1.6149161 -0.095321625 -0.4684784 -1.0518744 -1.5436536
-0.8319054 0.25230506 -0.7877275 -0.3183263 -0.14819959 1.6888574 0.3918354 0.4426488
-0.6906803 -1.1332377 0.67730176 0.15319653 0.84165144 0.19554801 -0.6096682 0.87702256
1.162983 -0.29948083 -2.201338 -1.5079161 0.013614893 -0.68345666 -0.8850349 -0.103627004
1.9440308 -0.064989425 0.26999354 -0.85992765 0.29416698 0.032210227 0.18240513 -0.4709906
-0.10002299 0.3483628 -0.14332542 -0.08164101 2.4502583 -0.99983215 1.502094 -0.5499677
-0.9110349 0.6348951 0.032933958 -0.3840079 0.73381764 0.5039218 1.309526 2.0321548
0.08354819 0.9192909 -0.19127277 -0.5989483 1.5548263 -0.9797974 -3.3642027 -0.74987566
-0.027822148 -1.0807921 -0.60402745 -0.99443257 -0.09933343 -0.0017616217 1.6472236 0.053278036
-0.78631645 -0.25175145 -0.9925961 -0.7901803 -0.5428084 -0.51154107 0.3175575 -0.96401626
-0.42569745 0.13707253 -0.58388036 0.7845602 -1.3322477 -0.51487565 0.19438274 -0.21949098
0.31498778 -0.45026368 -1.0398079 0.7304388 -1.1566948 -0.58402336 0.43709 1.8952485
0.6980161 1.1840222 0.8479035 -0.92417914 1.4185338 -0.77848125 -1.0176427 1.2072201
1.3539909 0.54788536 -0.13603327 0.053977948 -2.0289512 -0.67274183 -1.5847405 -1.1241428
0.9307995 -0.4939381 1.2565784 0.7785245 0.36009994 0.27685258 0.5189917 -0.528132
2.5310383 -0.26912245 0.0071715093 1.7519879 -2.1094933 1.8086225 0.09780567 0.37076065
0.71236455 -1.7765073 0.35386458 1.1996132 -0.3029974 -1.7618417 0.6348446 -0.8043591
-1.6111118 -1.8716129 0.5430836 0.6606786 2.2952116 0.67490596 1.7133216 -1.7942734
-1.3632672 -0.9832196 1.5112667 0.64187074 0.4729638 -0.4285901 0.55137074 -1.5473709
0.5181121 0.10653535 0.26924077 1.324768 1.7460191 1.854969 -0.7063691 2.5570862
0.4175343 -0.2127186 -0.839958 -0.42001787 -0.6240363 -0.9772961 0.8748428 0.9872814
0.30957633 1.52069 1.2052339 -1.815591 -0.40346155 -0.9591451 -0.005207704 -0.07886314
0.8436543 1.1657013 0.5269322 1.6192533 -0.96397626 0.14152038 -0.16366096 -0.35822257
1.7222793 -0.3035756 0.2388742 1.3440012 0.10322569 1.1003542 -0.3416802 0.9473389
-0.56851596 0.8375962 1.7836607 -0.19542466 0.5149161 -1.8474776 -2.9167426 -0.5673299
-0.5412802 0.895174 -0.882507 0.53181124 -1.5457772 -0.17329982 0.72824633 0.05706102
0.9055172 1.0462948 -0.520597 1.3547838 0.23519313 1.9142433 1.8364111 1.3245324
-0.96900916 1.2516364 1.2103242 -0.5279206 0.21856615 -0.57430726 1.4571251 1.7709557
1.6499138 -0.43200457 -0.2710269 -1.4391626 1.2470404 1.2738512 0.39094925 0.3872105
-0.07982872 0.3417243 0.9488273 -1.3839359 1.7240863 -2.3647652 -0.9294909 0.2936253
0.21513203 0.9384637 1.4657077 -0.5564744 -0.7448408 -0.20215721 -0.2296679 0.0013313366
0.3752759 -0.5810679 -0.57230884 1.0097175 -0.10564939 -1.179696 -0.090779595 0.56311435

rnn.weight_ih_l0 f4 [32, 128]
00000000: a42d 8ebc 1c05 aebc ae31 c9bd 9a25 32be
00000010: 12f7 893d bc35 22be 27e5 37be fa6a d03b
00000020: ec02 9dbc dc7f 943b 2920 0d3d c740 723e
00000030: af77 9e3c ee4b 0d3e 9799 b8bd e8f5 be3d
00000040: 76be 35be 444d f33d e6be da3d 2084 163e
00000050: 2943 053e 8a75 113d c565 aabd 5745 bf3d
00000060: c0a8 a33d 5fea 243d e7c7 c73c b376 22be
00000070: d968 35be e20a bfbd 77e1 763d 7c9d 34be
00000080: 6be6 32be 277b a83d 7e23 eabd cbbb 233d
00000090: 38f9 d23d 3388 03be 2e33 9d3c d1b7 db3d
000000a0: 8727 45be ca8e 0a3e 4963 85be 0da5 653c
000000b0: 06cc d03d d5d8 d13d a331 7b3c e1d2 45bd
000000c0: bdc1 4c3e 910a 80be fb70 043e fd9b 3dbe
000000d0: c64e 3c3e 9fc6 8bbd 8d5f 08be 7414 9b3c
000000e0: 94e2 5e3e 75d7 3bbd 2245 dbbb ac35 243e
000000f0: 0498 043e 6a94 433d d9e8 acbd 9d37 113e
00000100: 0118 063e 107e 95bc a9a3 1fbe b663 dc3d
00000110: 10f4 83be cbea ca3d 30ed 52be 734d 5ebc
00000120: f431 9dbb 19bf 8dbd 7417 b4bd 437b 92bc
00000130: 1132 e43d 6ab2 d2ba c523 163e 163c 86bd
00000140: 24f2 3cbe fbab 91bc 24e6 24be fe44 e7bc
00000150: 8d1d 9c3d b3d1 cfbd 097f 3d3e 4ff9 323e
00000160: 0dcb fc3d cf0f d93d ad0b bfbd 3db7 613e
00000170: 6b31 923d 323d e63c d3c7 0e3d bef4 2bbc
00000180: 7671 25bd 8bb7 1cbe 2851 513d 5584 13be
00000190: 0800 a339 f78a e5bd 36a8 b5bd bb12 23be
000001a0: 3d85 783c 2fbb 003e 8247 863d e8d9 6d3d
000001b0: 593e 393c 67da 613e 4fe5 4bbd eb4c 89bd
000001c0: 233f 3bbe 70e9 a83d 7c26 30be d04e 633d
000001d0: a988 1dbe ac66 da3d 3c6f 683d 5eb2 1c3e
000001e0: 1607 dfbd a01e 7b3d 6a38 9ebd 272c 423e
000001f0: 5ff5 d2bd 6241 033e 4014 c23d f87e 0fbe
00000200: 6ca2 9fbd 5c68 393c 1904 97bd 9a54 293e
00000210: 11fc e53d c676 14be fffe 9c3d c2bd f2bc
00000220: d1b1 2abc c3bf 193e 62a8 0a3d 95f7 973e
00000230: 66c1 033d 734c 84be 3ef0 1cbe d904 d63b
00000240: e016 2f3d f4de 1c3e 8b63 cb3d 1248 9bbd
00000250: 4b50 a0bd af9f 333e d076 03bd 43a5 623d
00000260: 951e 35be bc28 1dbe f801 853c 4a57 08bd
00000270: 319b e7bd 76b2 b2bd 03d3 793e bc4e 0b3d
00000280: b061 7ebd 330e e4bd ac34 4bbe 3f12 aabd
00000290: 2622 4dbd e9c7 413e 2394 023d 3994 f73c
000002a0: cfe4 e2bc be11 0b3e c884 4d3e c3b6 19be
000002b0: 9802 febd e893 7d3d 2ffb c23d 8a84 ffbc
000002c0: a925 67bd def1 afbd 03ed 433d a28b 24bd
000002d0: 5b18 48bd 3f0f 0e3c 2193 9cbd c4c9 f8bd
000002e0: 334b b4bd 622f db3c 0b77 413e 797a 603e
000002f0: 0a9a c13c b688 f63d 64ef 903d e1f9 ac3d
00000300: 14e7 dc3d 4d9f 90bd cd0a 3d3e 14b1 813d
00000310: d6b6 c93d 073f f5bd 66f1 c73d 0705 f83d
00000320: 9012 68bd 9ec5 64be 3c8e 633d de96 173e
00000330: 03c4 14bc c7aa 083e 00d3 36b9 54c4 2f3e
00000340: f675 df3d e67d 1a3c 3706 e4bd b7d9 d7bd
00000350: 704a b13d e3d7 b8bd d653 ecbc 0127 dabc
00000360: 83dd 13be 2d04 373e 16b1 5d3e 7b71 2f3e
00000370: ff39 653e 0451 1e3e 226b e33d 00f5 e0bc
00000380: 04b6 703e edb6 6abb 9c65 ba3d b395 a13d
00000390: 130b 343c 1490 fdbd 6042 4f3e f8eb 2bbe
000003a0: 1088 b7bd 0430 123e f89c e0bb 3581 74bd
000003b0: 819a eebd 7307 b83d 63db 953d 9ea4 84bd
000003c0: 5811 483d 0719 a83d c966 75bd 9adc 693d
000003d0: 9f6b ba3c 6c8f 343e 0d12 12bc 8ca0 133e
000003e0: f827 6f3d 1f7c b9bd 9524 ab3d f954 193e
000003f0: 7137 44be 58db 8a3e 8109 9ebd 3ec2 34be
-0.017355748 -0.02124267 -0.09823929 -0.17397156 0.06736578 -0.1584081 -0.17958508 0.006360409
-0.019166432 0.0045318436 0.0344545 0.23657523 0.019344179 0.13798496 -0.0901367 0.09324247
-0.17748436 0.118799716 0.10680942 0.14698839 0.13013901 0.035512485 -0.08320192 0.093393974
0.07991171 0.040262576 0.024387313 -0.15865593 -0.17715777 -0.093282476 0.060273614 -0.176382
-0.1747071 0.082266144 -0.11432551 0.039974015 0.10301441 -0.12844925 0.019189443 0.107284196
-0.1925336 0.13531032 -0.2605231 0.014016402 0.101951644 0.102464356 0.015331659 -0.048296813
0.1999578 -0.25008062 0.12933724 -0.18516536 0.18389425 -0.06824993 -0.133177 0.018930651
0.2176612 -0.045859773 -0.006691591 0.16036099 0.12948614 0.04774896 -0.0844285 0.14181371
0.13095094 -0.018248588 -0.15589775 0.10761206 -0.25772142 0.099080645 -0.20598292 -0.01356827
-0.0047972146 -0.069212146 -0.08793536 -0.017881041 0.11142362 -0.00160749 0.14662082 -0.06554429
-0.18451744 -0.017782202 -0.16103417 -0.02823114 0.07622824 -0.10147419 0.18505491 0.17477916
0.12343416 0.105987184 -0.09328399 0.22042556 0.07138332 0.028105352 0.034858536 -0.010495363
-0.040391408 -0.15304391 0.051102787 -0.1440595 0.00031089806 -0.11208146 -0.08869974 -0.15925114
0.015168485 0.12571405 0.06556608 0.05806914 0.011306369 0.2205597 -0.049779233 -0.06704124
-0.18285803 0.0824765 -0.1720218 0.055495083 -0.15384163 0.10664114 0.056746706 0.15302417
-0.108900234 0.061308503 -0.07725604 0.18962155 -0.10300707 0.1281791 0.09476519 -0.14013278
-0.077946514 0.011316385 -0.073738284 0.16536179 0.112297185 -0.14498433 0.07665824 -0.0296315
-0.010418371 0.15014558 0.03385199 0.29681078 0.03216686 -0.25839576 -0.1532602 0.0065313396
0.042746425 0.15319425 0.09931096 -0.07582106 -0.07827815 0.17541383 -0.03209573 0.055333387
-0.17687447 -0.1534757 0.01623629 -0.03328637 -0.11308897 -0.08725445 0.24396901 0.034010634
-0.06210488 -0.11135521 -0.19844311 -0.083042614 -0.050081395 0.18923916 0.031879555 0.030222045
-0.027696995 0.13580987 0.20070183 -0.15011124 -0.124028385 0.061908633 0.09520566 -0.03119113
-0.0564324 -0.085910544 0.047833454 -0.040172227 -0.048851352 0.008670627 -0.0764525 -0.12147859
-0.088034056 0.026755992 0.18893068 0.2192172 0.023633022 0.12037794 0.0707691 0.08446098
0.10786262 -0.07061634 0.18461151 0.06332603 0.09849326 -0.11974912 0.0976284 0.12110334
-0.056658328 -0.2234101 0.055555567 0.14803645 -0.009079936 0.13346396 -0.00017435476 0.17164737
0.10911171 0.009429431 -0.11133998 -0.10539573 0.08656776 -0.09025552 -0.02884857 -0.026629927
-0.14439969 0.17872687 0.21649584 0.17133133 0.22385405 0.15460593 0.11104418 -0.027460575
0.23506933 -0.0035814599 0.09101412 0.07889881 0.010988968 -0.12380996 0.20240164 -0.16789234
-0.08961499 0.14276129 -0.0068546496 -0.059693534 -0.11650563 0.08985796 0.07317235 -0.06476711
0.048844665 0.082078986 -0.059912477 0.057095148 0.022756396 0.17632836 -0.008915436 0.14416713
0.058387727 -0.09056877 0.08356587 0.14973821 -0.19161774 0.2712047 -0.077166565 -0.17652223

rnn.weight_hh_l0 f4 [32, 32]
00000000: 943c 6ebe 11ca 623e d019 b53e 8e16 b83d
00000010: 189a 563d be14 95bd 8f70 8dbe 6ce0 7a3e
00000020: fd9d fd3d 96b7 593e deda 47be c4be 483e
00000030: 220f cf3d ef0b a43d c7ae 29be 964a 6b3e
00000040: 5b08 af3e 194b cbbc a3ef 053c 1d4f 3a3d
00000050: 7cd6 513e c445 123e 0ddd 8cbd 8c0c 8a3d
00000060: 7874 223e a10e 953d cbdb ce3e 9dab bebe
00000070: 25bb cfbe f16e 913e fab9 29be 4e1b a7bc
00000080: 711c 8d3e 96a1 493c 8c41 b13c 1c74 123e
00000090: 9261 72bc f5f7 ff3d e8f5 8f3c b4d8 df3e
000000a0: ea0c 74be 80b5 a53b 1a06 af3d 6678 25bb
000000b0: cfdd 92bd 7384 193e c86e ec3d d911 6a3e
000000c0: be70 81be f8cd 04be 668e 553e 1ef1 99be
000000d0: 7b0d 60be 89d9 2f3e d508 ab3d fb44 103e
000000e0: 5e01 5d3d c240 7cbb bf35 95be f8e0 913e
000000f0: 11d1 b13d 1b28 743d ac5a 0cbe d985 4c3d
00000100: 2671 6cbc 5fb0 47bd f428 d5bd 0473 713d
00000110: 6848 203e 4d61 893b de90 de3d 5917 8ebd
00000120: 1412 6a3c c1e7 d7be d66b 7abd 04d4 04bf
00000130: e7e4 513d 306e e53b bd60 00be 722e 0fbe
00000140: 88b4 97be caed 71be ee40 8abe 36b5 8b3e
00000150: 6804 06bf 0e3e 313d c2c3 0c3d 1472 8b3d
00000160: 9f6a 69be 095d 0dbe b37f a4be 4aa7 1cbd
00000170: ee5f afbe d369 4dbe 1b14 633e e13a 583d
00000180: 725a 13be 923e e0bc 04e5 7c3e 38b1 9f3e
00000190: bfd0 d1bd f48e 583e a957 36bd beb6 d43e
000001a0: 6937 bbbe abeb 21bc c056 f23d 87cd 76bc
000001b0: 1b69 ffbd 35f1 353e 2625 efbc e596 ed3e
000001c0: 392a 06bf 8e65 4abd 07c3 043e 6b38 ddbd
000001d0: 96de fc3d e5f6 84be 8e4f 173e d4ff 4ebe
000001e0: dcd6 8b3d 9427 663d 732f 64be 0fef 8abc
000001f0: 9d3a a3bd 3134 26be 2517 9ebd aec1 de3d
00000200: 1c4a 373d 45b0 083d 336f 75be c577 283e
00000210: 4f55 923c 09ac ee3d 8d5a 34be eafa 89bd
00000220: db97 e13c e1d5 b4bb 6d17 f6bd fa72 eeba
00000230: d10d 89bd 0545 b03d 3320 1e3e 1a6e d6bd
00000240: 1abd babb 664e dd3d 38aa e5bd 4b43 efbc
00000250: 83cf 8b3c 29e6 023d 4558 a73d d9f1 e53d
00000260: 36a4 863d 45be 51be af38 89be 40eb 06be
00000270: 531d 57be a098 ab3d dfbc 833d f0e1 d73d
00000280: 023a 9b3d 547d 05be b749 96bd e7a5 c03e
00000290: f030 8a3d 7bcc 2f3b 2b89 603c e6de 7f3e
000002a0: bc90 86be 2022 00be 870a 3f3e 0850 713e
000002b0: 44db 1fbe ca2e 403e ef0b bebd 0c07 163b
000002c0: 3bd4 9dbe fe67 ce3d cb71 ef3d c606 8abe
000002d0: 1111 b93d 0536 eebd 8b1a 9b3d 3fbf 8abd
000002e0: cb27 8dbd b2e0 31be 59a1 95be 765a d83e
000002f0: c107 ff3d ac75 8abe fd21 66bd 7b0a b0bd
00000300: 27fb e83e ffec 843d a07e ecbd c7cf ab3e
00000310: 87f8 b93b d009 073d a789 803e f456 0c3f
00000320: 9ed6 3bbe bd25 373e b046 3d3e 6ea5 e3bd
00000330: df7f 14bd 3b5f c4bd 9aaa 123e 65f4 2a3e
00000340: 171a 61be 475e a8bd cd6c 523e c7a9 8cbe
00000350: 5d66 f93d 16d1 f7bd 7d7c 19bd 8bf4 9bbd
00000360: 2471 36bd 6a99 c33d 49f7 b5be 9f2e f43e
00000370: 2310 553e cd00 17be 1170 093e 3c6c 693d
00000380: f3d5 acbe ec11 5b3e 0726 953e cdcb 45bd
00000390: 5d8e 863e a509 173e 620e 123e f0fb 2b3d
000003a0: 637d ddbe 6b80 cabd 7bb9 693c c661 36be
000003b0: 2f7a 76be cd58 e93d 1bab b53d b799 3fbd
000003c0: a501 77be 8d00 623e 363c 153d 2956 0bbe
000003d0: 416e 77be daa6 67be f662 75be dfaa 63be
000003e0: e7e8 bc3d 0779 1fbc 7e82 aabe 0b87 77be
000003f0: ae72 69be 5118 8abe 3a3f 0a3d ea42 a3be
-0.23265296 0.22147395 0.35371256 0.08988677 0.05239305 -0.07279347 -0.27624938 0.24499673
0.123836495 0.21261439 -0.19517085 0.19604021 0.10110308 0.08010089 -0.16570579 0.22977671
0.34186062 -0.024816083 0.00817481 0.045485605 0.20491976 0.14284426 -0.068780996 0.067406744
0.15864742 0.07278181 0.40402064 -0.37240306 -0.40572467 0.28404954 -0.1657485 -0.020398762
0.27560762 0.0123065915 0.0216377 0.14302105 -0.01479377 0.12498466 0.017573312 0.4372002
-0.23833051 0.005057037 0.08546086 -0.0025248765 -0.07171213 0.14991932 0.11544567 0.22858371
-0.25281328 -0.12969196 0.20855102 -0.3006677 -0.21880142 0.17172827 0.08351294 0.14088814
0.053956382 -0.0038490747 -0.29142568 0.2849195 0.086824544 0.05960856 -0.13706464 0.049932335
-0.014431274 -0.048752185 -0.10408202 0.058947578 0.15652621 0.0041925074 0.10867475 -0.06938047
0.014286537 -0.42169002 -0.061137997 -0.5188601 0.05124369 0.0070016608 -0.12536903 -0.13982561
-0.29629922 -0.23625866 -0.27002662 0.2728669 -0.52350473 0.04327207 0.034366377 0.06808868
-0.22794579 -0.13805021 -0.32128677 -0.038245477 -0.34252876 -0.200599 0.22175638 0.052790526
-0.14389971 -0.027373586 0.24696738 0.31189895 -0.10244893 0.21148282 -0.044517193 0.4154567
-0.36565712 -0.009882848 0.118329525 -0.01506365 -0.12471219 0.17767794 -0.029192518 0.46404186
-0.52408177 -0.049413256 0.12965022 -0.108017765 0.123471424 -0.25969616 0.14776441 -0.20214778
0.068280905 0.05619009 -0.22283725 -0.016959695 -0.07970164 -0.16230847 -0.07719258 0.10876785
0.04474841 0.03337123 -0.239682 0.16451938 0.017862944 0.11653907 -0.17612667 -0.06737311
0.02753823 -0.0055186604 -0.12016187 -0.0018192225 -0.066920884 0.086069144 0.1544197 -0.10470219
-0.005698812 0.10805969 -0.11214107 -0.029206892 0.017066723 0.03195778 0.08171133 0.112277694
0.065742895 -0.20482738 -0.2680106 -0.13175678 -0.2100728 0.0837872 0.06432509 0.10541141
0.075794235 -0.1303609 -0.07338279 0.37626573 0.06747615 0.002682476 0.013704578 0.24987373
-0.262823 -0.12513018 0.1865636 0.23565686 -0.15610987 0.18767849 -0.0927962 0.0022892384
-0.30825981 0.10078429 0.11691626 -0.26958293 0.09036458 -0.11631397 0.07573422 -0.067747585
-0.068923555 -0.1737087 -0.2922466 0.42256516 0.12452651 -0.27042902 -0.056184758 -0.08595749
0.45504114 0.06490516 -0.11547589 0.3355696 0.0056753787 0.032968342 0.2510502 0.5482018
-0.18343589 0.1788549 0.18483996 -0.111155376 -0.03625476 -0.09588476 0.14322892 0.16694792
-0.21982609 -0.08221107 0.20549317 -0.2747328 0.12177727 -0.12100427 -0.037472237 -0.07615002
-0.044541493 0.09550746 -0.35540226 0.4769182 0.20806937 -0.14746399 0.13421656 0.056987986
-0.3375698 0.21393555 0.29130575 -0.048290063 0.2628049 0.14749773 0.14263299 0.041988313
-0.43259725 -0.09887775 0.014265413 -0.17810735 -0.24070047 0.113938905 0.088705264 -0.046777453
-0.24121721 0.22070523 0.036434375 -0.13607086 -0.24163152 -0.22622243 -0.23963532 -0.22233151
0.0922411 -0.009733445 -0.33302683 -0.24172609 -0.22797653 -0.26971677 0.033751704 -0.3188699

rnn.bias_ih_l0 f4 [32]
00000000: cd32 4e3e 7fe5 bbbd a9c8 d13d da80 adbd
00000010: 85fb c9bb b4cb ebbd 7609 16be 8a58 a3bd
00000020: 2326 fb3d e0ae 26be d80b a73a b170 5cbc
00000030: ac50 263d 645f 7cbe 70ec 80be f03b 9dbe
00000040: b68d d73b f9f3 f2bd 214b babd 2456 533e
00000050: c817 003e 3f99 e93d b01a e63c 6f90 1d3e
00000060: 60f4 41ba a4dc 733d d895 4fbe f6db 88bd
00000070: 0b39 72be ec6c 06be ebdb d6bd e62a 293d
0.20136566 -0.09174632 0.10243351 -0.08471842 -0.0061640167 -0.11513463 -0.14652047 -0.07975872
0.122631334 -0.16277647 0.0012744619 -0.013454602 0.04060428 -0.24645764 -0.25180387 -0.3070979
0.0065781726 -0.1186294 -0.09096361 0.20638329 0.12509072 0.114061825 0.028088897 0.15387128
-0.00073987804 0.05953659 -0.20272005 -0.06682579 -0.23654573 -0.13127488 -0.10491165 0.041300677

rnn.bias_hh_l0 f4 [32]
00000000: 9bc5 70bd 4528 f2bd eb25 6a3e 7b70 0bbd
00000010: f8fc d6bc 3b1b f1bd 73fc 3bbe 7497 44bc
00000020: 7f87 a8bc bb75 4fbe 624d 803d d742 6a3d
00000030: aedc 933d 49e3 72be 67e4 c13c 401c a9be
00000040: 508d ecbc c684 01be f088 b0bd d1bf a93d
00000050: ddc4 653b ddbf 46bb 5e3e 883d 2f6a d9bd
00000060: da82 0cbe 66c8 8a3c 939f 41bd a215 6f3c
00000070: 355d a1bd 341e a6bd ebe5 82bd 4b75 2cbe
-0.0587822 -0.11824087 0.22866027 -0.034042817 -0.026243672 -0.11772772 -0.1835802 -0.011999
-0.020572422 -0.20259754 0.062647596 0.05719265 0.07219826 -0.23719515 0.023668481 -0.33029366
-0.028875977 -0.12648305 -0.08619869 0.08288539 0.0035059967 -0.0030326762 0.066525206 -0.10615956
-0.13721791 0.01694126 -0.047271322 0.01459256 -0.07879106 -0.081112295 -0.063915096 -0.16841619

rnn.weight_ih_l0_reverse f4 [32, 128]
00000000: 9a88 2f3e 800f 5f3d 7d91 b0bd 14fc 48bd
00000010: 4f60 133e 7bfb 003d b9e0 e4bb c151 de3d
00000020: 5aef bfbd 627b d4bb e48a 643d 0bd0 093e
00000030: dd13 d83d 4cad 393e 9e7a dc3d 6baf 8ebd
00000040: 33a9 013e c126 aabc 7061 fa3d 2452 863d
00000050: 7711 0f3d bf16 563e 7e01 cc3d a52b 65bc
00000060: 98e1 b53c df3b 99bd e00e 133e 3fde a7bd
00000070: 669f 193e 43e4 173c 34c9 863e efaa aa3b
00000080: 257f 53be 9346 41b9 829e 20be e8cb c0bd
00000090: d255 07be 381b 3b3e 6046 4d3a 325f 63bc
000000a0: ce89 c8bd e55d 3e3d 3d2e 013e 9662 b9bb
000000b0: 9f19 65be eb73 dbbd bada 9c3d e4e4 9bbc
000000c0: ad6d 1a3e 7f46 3d3d 6169 b13d d7cf 47be
000000d0: 7651 58bb f244 f53c 3046 72be fdce 31be
000000e0: 54cc 3f3e 0638 b33d 9499 25be 3577 9e3d
000000f0: 58a9 f03d 4fa2 243d 7360 473e cec1 5f3e
00000100: af38 163e f26d 5a3d 185a 6f3e 7c8d be3c
00000110: a28e da3d 9d0d 513d 9dac d4bd edd5 02be
00000120: 81ac 00bd 9492 2b3e 9d41 94bd b0dc 633e
00000130: 8047 ec3d 3b7f 24be 709d 373e 7c5e 6dbc
00000140: d8b1 a03d 9735 2ebd 2821 70be 0e2f 0abe
00000150: 882c 8abe 40fb 26bc e013 6c3d 4920 393e
00000160: c591 d0bd 9640 883e 0dcd 90bc f64b 473e
00000170: 8ea3 6d3d 2da0 763e 18d4 7fbb 3074 273e
00000180: 35ee 7fbd 153c 88bc c98d d93d 3524 273e
00000190: 300b 30be 4903 a63d 4343 4d3d cdee 10be
000001a0: 321d a9bd aa63 5cbe 5609 873d 57a3 46be
000001b0: 018f e1bd 183e 613c a857 293c 720f ffbd
000001c0: d694 e5bd 2dfe 39be becb fe3c 7a15 98bd
000001d0: 12f3 32be 0147 dc3d e139 e33d d54b 293e
000001e0: e3aa 1fbe 6ae7 133e 2722 7bbd ed34 0fbd
000001f0: 5c97 3f3e d046 f339 340f 1d3e b72a e0bc
00000200: d591 5bbd 661c debd b642 8abe 48f9 17bd
00000210: 2a71 34be 2eb8 913d 6edf 3c3e b199 663d
00000220: 497c eb3d 8a44 a3bd 55c2 4ebc fdb2 883e
00000230: de31 01bd 32e0 78be d83b c4bd f62f 5c3d
00000240: a1f6 5dbe ab04 3abd a3ba 77be 1390 c8bd
00000250: 861e 19be 9b46 833d cfae 85bd 924b 5fbe
00000260: 0b3f bb3d cb1a 093e 4711 0b3d 3afe 9ebb
00000270: 33d9 1d3e 342c d4bc 670c 0f3e 211a cfbd
00000280: f751 513d 2dfd dbbc e395 aabe f00c 0c3e
00000290: 85d0 5c3e b2d0 063e e59a f23c 8fc9 2b3e
000002a0: 5ea7 e13d 7550 f5bd 4adc 333e 99ee a4bd
000002b0: 9ce1 be3d 7586 d1bd 9479 f33c 5be8 03be
000002c0: 5ea6 9d3d 4052 f0bd bae8 89bd c294 2bbe
000002d0: cdd4 fb3d f0ac bd3d 3943 66be 3b81 0e3e
000002e0: 923f 783e c78e 9b3d 2a82 abbc ca36 95bb
000002f0: f7be f73b b8b2 00be bab2 dabd 54de ce3c
00000300: 4761 0ebe 0a34 a03d f7c5 14bc 6209 bdbd
00000310: 13bd 7cbd c764 143e 089c 25be 9974 a1be
00000320: da16 6fbd 2c2d df3d 311b 52bd 2edd e93d
00000330: 6d20 ffbb 0ea3 e43d aff5 873c ecf2 c5bd
00000340: b111 b0bc 14de 6ebe 43d3 10be d834 383e
00000350: e229 40be bd59 043e a7b2 493c c404 93bc
00000360: ed34 633d 0568 40bd 3304 fd3d 36b7 06be
00000370: 931a 0d3d abd5 363e 70c2 a63d 72cb 8f3e
00000380: 212f 02bd 6164 2abe 7eae 00be 591c 1d3e
00000390: c92c 14be 1c32 0a3d c50e 353d 3e80 41bd
000003a0: 333a 05be 4891 7b3e d236 f83c 85da 5cbe
000003b0: 2602 edbc b457 68bd 7fcf 0a3e 922e 97bd
000003c0: 768e bdbd 1dc8 a9bd 7f33 46be eb3f 423e
000003d0: 5006 dc3d 01e6 ac3e 326e a3bd 86ee 34bd
000003e0: af94 dfbc 0e4f d63c fb7a 2dbb 0ef1 c03d
000003f0: 5374 b23d f7d6 af3d 3f81 303c 5d51 dcbd
0.17141953 0.05445814 -0.086215 -0.049068525 0.14392208 0.03148983 -0.006984797 0.10855437
-0.093718246 -0.006484435 0.05579652 0.13458268 0.105506636 0.18132514 0.10765575 -0.06967052
0.126622 -0.020770432 0.12225616 0.06558636 0.034928765 0.20907114 0.09961222 -0.013987456
0.022202298 -0.07482123 0.14361143 -0.08196687 0.15002212 0.00927073 0.2632538 0.005208365
-0.2065397 -0.00018432205 -0.15685466 -0.09413892 -0.13216332 0.18272102 0.0007830616 -0.013877677
-0.09791909 0.046476264 0.12615295 -0.0056575043 -0.22373055 -0.10715469 0.07658906 -0.019030042
0.150809 0.04620981 0.086626776 -0.19512878 -0.003300754 0.029940102 -0.23659587 -0.17364116
0.18730289 0.0875092 -0.16171867 0.07737581 0.1175105 0.040193852 0.19470386 0.21851274
0.1467006 0.05332751 0.23374212 0.023260824 0.10671736 0.051038373 -0.10384486 -0.12776919
-0.031414513 0.16755134 -0.07239077 0.22252154 0.11537075 -0.1606416 0.17931151 -0.014487859
0.07846421 -0.042531576 -0.23450148 -0.13494512 -0.269871 -0.010191739 0.05763614 0.18078722
-0.10184053 0.26611775 -0.0176759 0.1946257 0.058017306 0.2408454 -0.003903633 0.16352916
-0.06248303 -0.016630212 0.106227465 0.16322406 -0.17191768 0.08106095 0.050112974 -0.14153595
-0.08257522 -0.21522394 0.065935776 -0.19398247 -0.11013604 0.013747714 0.01033584 -0.12454118
-0.11210029 -0.18163367 0.031103011 -0.07425971 -0.17475536 0.107557304 0.11095024 0.16532834
-0.15592532 0.14443746 -0.061311867 -0.034962583 0.18710083 0.0004640133 0.15337831 -0.027364118
-0.053605873 -0.1084526 -0.2700402 -0.037102968 -0.17621294 0.071152076 0.18444607 0.056298915
0.11498315 -0.07972057 -0.012619575 0.26699057 -0.031541698 -0.24304274 -0.09581727 0.053756677
-0.21676113 -0.045414608 -0.2419229 -0.09793105 -0.1495305 0.06409951 -0.06527483 -0.21806172
0.09142884 0.13389127 0.033952024 -0.0048520835 0.15414886 -0.025899984 0.13969575 -0.101124056
0.05110356 -0.026854122 -0.3331748 0.1367681 0.21563919 0.13165548 0.029614875 0.16776107
0.11018251 -0.119782366 0.17564502 -0.080533214 0.09320375 -0.10230724 0.029721059 -0.12881605
0.07697748 -0.11734438 -0.06733842 -0.16755965 0.12296448 0.09261501 -0.22486581 0.13916485
0.24243 0.07595592 -0.02093609 -0.0045536505 0.0075606066 -0.12568176 -0.10678621 0.025252499
-0.13904296 0.07822426 -0.009080402 -0.09230305 -0.061703753 0.14491569 -0.16172802 -0.3153427
-0.058371402 0.10897288 -0.051295463 0.1141914 -0.007785848 0.11163913 0.016596643 -0.09665474
-0.02149281 -0.23326904 -0.1414309 0.17988908 -0.18765977 0.12924857 0.01231066 -0.017946608
0.055470396 -0.0469742 0.123543166 -0.13155827 0.03444917 0.17854945 0.08142555 0.28084904
-0.031783227 -0.16639854 -0.12566563 0.15342845 -0.14470209 0.033739194 0.04420354 -0.047241442
-0.13010482 0.24567139 0.030299578 -0.21567734 -0.028931689 -0.056724265 0.13555716 -0.073819295
-0.09255688 -0.08290122 -0.19355582 0.18969695 0.107433915 0.3376923 -0.079800025 -0.044172786
-0.027292578 0.026160743 -0.0026471007 0.094209775 0.08713593 0.08585923 0.010773002 -0.10757706

rnn.weight_hh_l0_reverse f4 [32, 32]
00000000: f937 04be f7f3 c63c 99a3 c8bd ef6d 3f3e
00000010: ff8b 4d3d ee1d c4bd 49d2 32be faa1 0f3e
00000020: a578 a73d 42a1 563e 1471 1bbe 5f05 793d
00000030: 1e9b 00bb 05ee 8b3a 0b27 62be 874f 323e
00000040: dd8a 403e 7d3e b1bb eed2 a23e 2edb 993b
00000050: 682b bdbd 050e 193d 1661 c03d 4746 f8bd
00000060: d782 6ebd 6d6f a83e 3e91 093e 17a5 ce3d
00000070: 7a05 333b 9e47 8dbb 8c53 40be d781 653e
00000080: 711e 84bd df1b afbd 6d7b 8b3c 17b7 523e
00000090: 7178 3abc a091 293e 612c 52bd 7957 033e
000000a0: 8bc6 56bd 5224 d8bd 8719 113d 8013 8f3e
000000b0: 6f9b 623c 02b3 33bc fe95 0fbe 4f65 8e38
000000c0: 8912 143d f5f0 0abe 7c11 413e 7b85 dabd
000000d0: 6cf5 ebbd 2234 393c 85cc 61bd 48c3 66be
000000e0: 54eb 4d3d 3287 c03e 3c6c 103e 9cae 723e
000000f0: f5fb 16bd 6010 223e 19a7 c8bd 8f06 c8bd
00000100: 43d8 7bbe f96e 8e3e 8e36 3cbd ab7d 753d
00000110: 9973 3d3e 6b9e 533e a81c 96bd 5e18 1c3e
00000120: 826b 20bd 4ed7 c3bd 3450 1c3e 7d44 b23c
00000130: e579 2e3e 06fc fdbd df31 17be 350c 143e
00000140: c020 8f3e c1ab 59bd e039 6c3c ce64 a0bd
00000150: 6f7c bb3d 60b1 91be f08c 963b 7d93 d33d
00000160: 6483 33be d5b6 d5bd 26bf e03d 88c5 8dbe
00000170: 1223 99bd fc1f f33a 8824 8dbe d06d 36bd
00000180: a300 bbbb 61f6 f33d bfba 0d3e bd17 473e
00000190: 6082 83be 8c7f 913e 8f08 743d 4022 0a3d
000001a0: a062 9d3c 139d 56bc e68f 2e3e f476 53bc
000001b0: 5b23 ac3d 8184 cabd 2d6f b4bd 3944 15bd
000001c0: b719 2dbc 24a1 143e f03b 273e 570e 1fbe
000001d0: b3e0 083d 156f dbbd f2c6 553e cc97 8e3e
000001e0: 7138 ea3c ff4e 2e3c 0e9a 35be 94f6 96be
000001f0: 2072 0cbe 4135 253e a4dc a33e 1666 873e
00000200: 0219 ae3d 0ce9 8b3e 90b6 4bbe 2302 6dbd
00000210: ad40 873e 63b6 11bd dc25 e93d 93a0 89be
00000220: 235e 5cbd 469b ad3d dd9d e93e 9573 34bc
00000230: 498f 373e 3f9d 80bd c673 813e 734f 39bc
00000240: 1893 1d3d c805 24be 5e69 cbbd e3f1 d7bd
00000250: 760f 923e 3c38 7cbe 5c90 f9bc f3db 2b3e
00000260: 17a9 dbbc a180 fcbd e1ad 96bd cdb6 79be
00000270: 2fcb 3a3c 4bf6 97bd 040e 883d 9a0a f2bd
00000280: 8d93 61bd e4f9 3f3d 6d0f 813d 675a 1a3e
00000290: ff82 cdbd e2cb 08be 2319 323d 7fc3 95bd
000002a0: 35b2 193e 768a 0abe acfd e13d 631a 9ebd
000002b0: ad34 3c3e 3812 7bbd 3716 a53d 1c59 59bd
000002c0: 8633 a63d edd4 0b3d 6ff5 a7bd 9423 1f3e
000002d0: 18e5 31bd a212 50be fbf9 6fbd 0dfa 7a3e
000002e0: f80f c7bd 4263 373c 12b0 ba3d 318c 4cbe
000002f0: 7325 07bd 7263 dabd b1d9 fc3c ce13 85bd
00000300: 2db6 a9be 9e8e 473e 0803 6b3d 6090 e13d
00000310: ae67 17be cedc 863d 325f 303d a161 3a3e
00000320: ce0c 943e 057f 863d a96b 80be da8e 853e
00000330: ace6 463b f1e1 cc3c 86bf c2be fcd7 b23e
00000340: bef8 fdbc 1b3c cebd 100a bb3e 29a3 b63d
00000350: 6e9c a83d 1948 60be ddf7 3b3d 85dc 71bc
00000360: 8b2f b8bc b2e7 893e 24a3 1bbe 3608 ecbd
00000370: 45e2 8abe 5bf2 a33e cbfb c13d b3d8 9e3e
00000380: 32bb 9b3e 9338 2abe 4537 ac3e b894 703d
00000390: 8eae 8bbe 9e55 63bc 18b3 933d d2c6 85be
000003a0: 8c5f 39bc 1f79 f23c 6890 ccbd 04f4 cfbc
000003b0: 4e9e b0bc 1cee 753c f243 74be 5f16 743d
000003c0: cf35 87be f4f1 1a3e c798 3a3e b8ec 383e
000003d0: ed76 6cbe 092a 1fbd 6155 d73d 9d7c 9abe
000003e0: 84ff 9fbd 6e8e 4bbd 57c3 8bbd e12b f23d
000003f0: a607 18be 9595 e53c b4d5 ad3e feda 4dbe
-0.12911977 0.024286253 -0.09796829 0.1869428 0.05018234 -0.09576021 -0.1746303 0.14026633
0.08177308 0.20959952 -0.15179855 0.060796138 -0.0019623707 0.0010675794 -0.22085206 0.1741315
0.18802972 -0.0054090605 0.31801552 0.0046953177 -0.09236795 0.037366886 0.09393518 -0.12122779
-0.058230247 0.3289751 0.13434312 0.10090082 0.0027316497 -0.004311516 -0.1878187 0.22412811
-0.06451119 -0.08550238 0.017026627 0.20577656 -0.0113812545 0.16559458 -0.051311854 0.12826337
-0.05243544 -0.105538025 0.035424735 0.27944565 0.013831004 -0.010967972 -0.14022061 6.789958e-05
0.03615049 -0.1356848 0.18854326 -0.10669991 -0.1152142 0.011303933 -0.055126686 -0.22535431
0.050273255 0.37603146 0.14103788 0.2369942 -0.03686138 0.15826559 -0.09797496 -0.09766876
-0.24594216 0.2781904 -0.045950465 0.0599343 0.18501128 0.206659 -0.073296845 0.1524367
-0.039165027 -0.095625505 0.1526497 0.021761173 0.17038687 -0.12401585 -0.14765118 0.14457782
0.27954674 -0.053142313 0.014418095 -0.07831727 0.09154593 -0.2845564 0.004594438 0.103308655
-0.1753059 -0.10435263 0.10973959 -0.27689767 -0.07477392 0.0018548961 -0.27566934 -0.04453832
-0.005706863 0.119122274 0.13840769 0.19442649 -0.25685406 0.28417623 0.059578475 0.03372407
0.019212067 -0.013098973 0.1704708 -0.012906779 0.08405181 -0.09888554 -0.088102676 -0.036442015
-0.010565213 0.14514595 0.16331458 -0.15532814 0.033417415 -0.107145466 0.20876673 0.27850187
0.028591366 0.010638951 -0.17734548 -0.29485 -0.1371541 0.16133596 0.32004273 0.26445073
0.085008636 0.27326238 -0.19893861 -0.057863366 0.2641653 -0.03557433 0.11384174 -0.2688032
-0.053800713 0.08476882 0.45628253 -0.011013885 0.17925753 -0.06279992 0.2528364 -0.011310446
0.038470358 -0.1601783 -0.099322066 -0.10544183 0.2852742 -0.24630827 -0.030464344 0.16783123
-0.026814027 -0.123292215 -0.073573835 -0.24386139 0.011400982 -0.074200235 0.06643298 -0.11818428
-0.055072356 0.046869174 0.0630177 0.15073548 -0.10034751 -0.13359025 0.043481003 -0.073126785
0.15009387 -0.13529381 0.11034712 -0.077198766 0.18379469 -0.06129667 0.08060878 -0.053063497
0.08115296 0.03413861 -0.082011096 0.15540916 -0.04343137 -0.20319608 -0.05858801 0.2450945
-0.09719843 0.0111930985 0.09115614 -0.19975354 -0.0329947 -0.10663499 0.030865522 -0.06497918
-0.33146802 0.19487998 0.057375938 0.110138655 -0.14785644 0.06585084 0.043059535 0.18201305
0.2891602 0.06567196 -0.25082138 0.2608555 0.0030349893 0.025010081 -0.38036746 0.34930408
-0.031002399 -0.10070058 0.36531115 0.08917839 0.082329616 -0.21902503 0.045890678 -0.014762049
-0.022483608 0.26934582 -0.15198952 -0.115250036 -0.27125755 0.3202084 0.09471854 0.31024703
0.30416256 -0.16623144 0.33635917 0.05873558 -0.27281612 -0.013875393 0.07211894 -0.2612825
-0.011314284 0.02959877 -0.09988481 -0.02538491 -0.02155986 0.015010383 -0.23854044 0.059591647
-0.2640824 0.1513136 0.18222342 0.18059051 -0.23092242 -0.038858447 0.105143316 -0.30173197
-0.078124076 -0.04969638 -0.068243675 0.118247755 -0.14846668 0.028025428 0.33952105 -0.2010307

rnn.bias_ih_l0_reverse f4 [32]
00000000: fe16 3a3d 9346 35be 7a2c de3d d03e 95be
00000010: 03e4 773d 3e23 8dbd 860f c0bd 851f 70be
00000020: fa30 71be 3bf9 883d bbc5 783d 756b 1cbc
00000030: 08dc b83e 349b 1ebe 9855 0dbd 3d45 13be
00000040: ca4b 88bd 8231 36be 22f9 bbbe 7502 083e
00000050: 66c6 08bd bc25 263e 7542 93be 2a31 873e
00000060: f1df ad3d 4eb5 dfbe 9c34 553e 5818 be3d
00000070: f93c 863e ae18 38be 1f30 893c 0702 b03d
0.045432083 -0.17702703 0.10848327 -0.29149485 0.060520183 -0.068914875 -0.09377961 -0.23449524
-0.2355384 0.06688162 0.060735445 -0.009547104 0.3610537 -0.15488893 -0.034505457 -0.14381881
-0.066550806 -0.17792323 -0.3671351 0.13282187 -0.033392332 0.16225332 -0.2876164 0.26404697
0.08489979 -0.43693012 0.2082085 0.09281987 0.26218393 -0.17978165 0.016746579 0.08594137

rnn.bias_hh_l0_reverse f4 [32]
00000000: 67a2 483d 6f68 77be 5162 563d 4ce6 8bbe
00000010: a7f0 f03d 812f e1bd cf7a 7ebe 6637 c1bd
00000020: 3334 a8be 1163 6e3c 7332 c73d 65cf 9c3b
00000030: ccbb 773e 19e3 403d 4188 6c3c 336d 3cbd
00000040: a96c 4e3d 9210 c3bd 8299 c5be 3509 7e3e
00000050: 2dc6 1bbd bcd0 273e 5f25 0bbe f7d5 843d
00000060: 4f6b 02bd 18c7 0cbe dccc b13d ef60 873d
00000070: f9b1 dc3d 5b79 f6bc b2f8 a23e f92a 09bd
0.048983004 -0.24160932 0.052339856 -0.2732414 0.11764651 -0.10995389 -0.24851535 -0.094343945
-0.32852325 0.014549986 0.09726419 0.0047854655 0.24192733 0.047091577 0.014436782 -0.046002578
0.050396595 -0.09524645 -0.3859368 0.248082 -0.038030792 0.1638822 -0.13588475 0.06486123
-0.03184062 -0.13747823 0.08681652 0.066102855 0.10776133 -0.030087164 0.31830364 -0.033488248

fc1.weight f4 [12, 64]
00000000: d356 8dbd 54a8 19bf 082b ad3e ae5e 16bf
00000010: a5d6 29be 70c3 03bf 83ea eabe 205e 263d
00000020: 1765 d9bd d2db 03bf c0be 91bd b568 7d3e
00000030: 2297 2f3e 9f76 51be 4341 8dbe 8e38 d6bd
00000040: 803a cfbd 158c 18bf ae46 893e fcfd 443e
00000050: 4d84 c83e f2ec 053f 3e9f 27bf 1a0c 263f
00000060: 55b6 273f eda3 91be 1ff3 07bf cf28 153d
00000070: 07e4 e4bc 7256 02bf b86a c13e 9c2d b93e
00000080: 566a b0be 1c93 6ebe ac48 01bf cbb4 71bd
00000090: 38ee 92be 3b39 87be bc52 cebe 6951 823e
000000a0: 6bc0 b3be add3 c23e d90c 5f3e 6e85 7bbe
000000b0: 78ee a83e 4f3a b63e 7543 0b3e 6d53 d3bd
000000c0: f69d d53e e943 61be 94b6 c4bd e0e9 903e
000000d0: 893b d7be ff6f 643e 9806 5fbe b68c b23e
000000e0: 1c45 bbbe 0c70 92be 2a0d fb3e 6c2e 1ebe
000000f0: 75ec d63e 17d2 98be 2f6f c13c 3b30 083f
00000100: 12ed 813f e09d 293f bb99 113f 9cbc 423d
00000110: e4cc 733f 1786 87be 5852 e4be e95e 843e
00000120: 4980 a13f 0d99 553f ce8c febd 6f3f 45bf
00000130: 11ff 9f3e cdd9 833e a5bc 4dbe e25d 863a
00000140: f7ed fabe b61d f4be 4ac4 c9be 6b26 82bf
00000150: d1ae fa3d a412 0abe 271c 113f 0e2c 30bf
00000160: ce42 12be 249d c43f 1ef9 0d3f b4a0 953d
00000170: 303d c3be 3a9b 313e 5ff7 afbe 49fc 66bf
00000180: 6612 b53e b8b3 8a3f fd16 023f f20c e6be
00000190: fdd4 15be c145 983f e7c9 e2be 3d68 38bf
000001a0: f7af 5ebe fc7f 97bf c277 4cbf 1ec0 9abe
000001b0: a0a4 18be 0dc7 3abf af81 58bf 20ec 623e
000001c0: c652 8a3e 8808 7d3f e3d2 ccbd 133f 6a3e
000001d0: da57 333f 6b65 963b 9e48 44be 4d9f 81be
000001e0: 6dec 343f 968a 36bf 24fa 0a3f f7d9 4e3f
000001f0: 7b85 1e3f 3b9a d6bd 41d7 8e3f ac0f 1b3e
00000200: 6e77 013f 7532 85be 8230 7dbf c084 2dbf
00000210: 5ef1 a23e 41e7 883f 8fc4 09bf ab2a 24bf
00000220: 4807 eebe d885 f7bd 2273 843f 9544 373f
00000230: baa3 adbf 2ab4 833e e989 e13f 13e3 153f
00000240: 6c26 823e b3f6 b6bd 09d7 03bf 19a9 59be
00000250: a351 243e 8b98 8dbf 1a37 cdbe d619 ea3e
00000260: 010c 1c3d db4d 833f a4cf 033f 156f b3be
00000270: 05dc d6be 7a67 463f 249d ae3e 2a43 b13e
00000280: 4642 103f 8038 b6be 92ce 3abf 4f60 f43e
00000290: 37ef 3b3f da45 933f 9094 72be 2d3a 873f
000002a0: 3d55 4d3f b7d4 c4bd 81f3 453f e8f8 b1bd
000002b0: 4dd6 67bf 5f0a 86bf 470d 923e 331a ae3f
000002c0: e63d 97be 7d48 8c3f cc37 923d dd84 f3bd
000002d0: 1b8c b2be 3fcd 3cbf 9125 f43d 7357 77bf
000002e0: 831a 423f fc64 20bf bfa2 ea3e 58d4 34bf
000002f0: 6a78 8a3e ff05 18be 96b6 273f 7995 11bf
00000300: 95e1 5c3f 8fb0 053f 2450 4c3e 6b9b e23e
00000310: ad39 a1be 79d2 b23e 025a e4be ad39 b5be
00000320: 1555 343f 2972 ed3e 8a77 30be fee9 fcbe
00000330: 8601 f33d 4caa 6dbf 6e51 903f bd2b 8d3f
00000340: 4ddd bebd 251e d2be 5545 a13d 550c d2be
00000350: b56f 44bf d4bf ebbe 03ec 223f 73f6 0c3f
00000360: c78d 16bf f3f2 8abe 8858 d93e 14e8 5b3f
00000370: 3c78 4d3f afdc 07be 7bad a23d a4cd 03bf
00000380: ca7f 0e3f 5ebe 30be 86f8 5c3e 4b0c 9c3f
00000390: 28ae 023f c58b 133d 4f04 4f3f e471 25be
000003a0: b248 7b3d 6f9d 413e 09f3 453f f78b 4abe
000003b0: 8508 f1be d6fa f63e 3b99 7abf 3d04 f83d
000003c0: 51d2 5e3f 960d 343f 862c ab3f db8a 66bf
000003d0: 171d 62be a6a6 e6bd c6f7 9dbd 6185 05be
000003e0: f799 2a3f 10e8 0cbf 1f76 3fbf edce cf3e
000003f0: ea8d e2be 6da9 60be 1cda 0dbf 4cce 293f
-0.06901326 -0.60022473 0.33821893 -0.5873822 -0.16585787 -0.5147009 -0.45882043 0.04061711
-0.106149845 -0.51507294 -0.07116461 0.24746974 0.17147496 -0.20455407 -0.27588853 -0.10460006
-0.1011858 -0.5958875 0.26811737 0.19237512 0.39163437 0.52314675 -0.6547736 0.64862216
0.6551259 -0.28445378 -0.5310535 0.03641587 -0.027940763 -0.50913155 0.37776732 0.3616761
-0.34456128 -0.23298305 -0.50501513 -0.05901031 -0.2869737 -0.2641085 -0.40297496 0.25452736
-0.3510774 0.3805212 0.21782245 -0.24562618 0.32994437 0.3559136 0.13599952 -0.103186466
0.41722077 -0.21998562 -0.096051365 0.28303432 -0.4203761 0.22308348 -0.21779859 0.3487298
-0.36576164 -0.2860111 0.4903348 -0.15447396 0.41977277 -0.29847786 0.023612587 0.53198594
1.0150473 0.66256523 0.568752 0.047543153 0.95234513 -0.2646949 -0.44594073 0.2585366
1.2617275 0.8343666 -0.124292 -0.77049917 0.31249288 0.25752106 -0.20091493 0.0010251368
-0.49009678 -0.47678918 -0.3940757 -1.0167974 0.12240375 -0.13483673 0.5668358 -0.6881722
-0.14283296 1.5360456 0.5545825 0.07306042 -0.3813262 0.1734437 -0.34368417 -0.90228707
0.353656 1.0836096 0.5081633 -0.4493175 -0.1463203 1.1896287 -0.44294664 -0.72034055
-0.21746813 -1.1835933 -0.79870236 -0.302247 -0.1490655 -0.7295998 -0.8457288 0.22160387
0.27016276 0.9884114 -0.10001161 0.22875623 0.70055926 0.0045897267 -0.19168326 -0.2531685
0.7067326 -0.71305215 0.54287934 0.8080134 0.61922425 -0.10478636 1.115944 0.15142697
0.5057286 -0.26015058 -0.9890214 -0.67780685 0.31824774 1.0695573 -0.5381555 -0.64127606
-0.4648993 -0.120860755 1.0347636 0.7158902 -1.356559 0.25723392 1.7620212 0.5854961
0.2541994 -0.08933773 -0.5149999 -0.21255912 0.16046767 -1.1062177 -0.40081102 0.45722836
0.038097385 1.0258135 0.5148871 -0.35045686 -0.41964737 0.7750164 0.34104264 0.34621555
0.56351125 -0.3558998 -0.7297145 0.47729728 0.7341189 1.1505692 -0.23689485 1.0564629
0.8020819 -0.09610885 0.7732468 -0.08690053 -0.9056137 -1.0471915 0.28525755 1.3601745
-0.29539412 1.0959622 0.07139549 -0.11890576 -0.34872517 -0.7375068 0.11921228 -0.9661781
0.75821704 -0.6265409 0.4582729 -0.7063651 0.27044994 -0.14846037 0.6551298 -0.568687
0.8628171 0.5222253 0.19952446 0.442592 -0.31489316 0.34926203 -0.4459992 -0.35395566
0.70442325 0.4637616 -0.172331 -0.49397272 0.11865525 -0.9283798 1.127485 1.1028973
-0.093195535 -0.41038623 0.07874552 -0.41025034 -0.7673295 -0.4604479 0.63641375 0.5506355
-0.58810085 -0.2713848 0.42450356 0.85901 0.8026159 -0.13267778 0.07943245 -0.5148566
0.5566374 -0.1726012 0.21579179 1.2191252 0.5104699 0.036021966 0.8086595 -0.16156727
0.061348625 0.18907712 0.7732397 -0.19779955 -0.47076812 0.48238248 -0.9789006 0.121101834
0.8703967 0.7033323 1.3372962 -0.90055627 -0.2208141 -0.112622544 -0.07713275 -0.13039161
0.6664118 -0.550416 -0.74789613 0.4058756 -0.44248897 -0.21939631 -0.55410933 0.6633041

fc1.bias f4 [12]
00000000: 9884 683c afff de3d cdc0 8dbe 289d 03bf
00000010: 12e8 b6be f363 a7be e500 90be 217e 3cbf
00000020: 3080 c0be 039e 97be 4597 4dbe 348a 36bf
0.014191769 0.108886115 -0.27686158 -0.51411676 -0.3572393 -0.32693443 -0.28125682 -0.7362996
-0.375978 -0.2961274 -0.20077236 -0.7130463
