src/src_learner/python3_finetuning_model.pt (torch, 99780 bytes, 11 tensors)

word_embeddings.weight f4 [102, 128]
000000 ba 3e bf bf 2d 85 31 bf 09 16 1a bf 20 bc ce bf
       -1.4941018 -0.69343835 -0.6018987 -1.6151161
000010 d6 a0 c3 bd 9d f6 ef be 44 9d 86 bf ff 9c c5 bf
       -0.095521614 -0.46867839 -1.0516744 -1.5438536
000020 dd 04 55 bf 57 48 81 3e 66 9b 49 bf e0 15 a3 be
       -0.83210546 0.25250503 -0.78752744 -0.31852627
000030 0f f6 17 be 09 33 d8 3f dc b8 c8 3e a8 88 e2 3e
       -0.14839958 1.6890575 0.39203537 0.44244885
000040 89 dd 30 bf 61 07 91 bf c2 70 2d 3f f9 13 1d 3e
       -0.69088036 -1.1330377 0.6775018 0.1533965
000050 94 83 57 3f 2b 72 48 3e 1b 06 1c bf a9 91 60 3f
       0.8418515 0.19574802 -0.60946816 0.8772226
000060 12 d6 94 3f 57 3b 99 be 73 df 0c c0 f3 09 c1 bf
       1.1627829 -0.29928085 -2.2011383 -1.5081161
000070 29 ca 5b 3c e8 e9 2e bf 8a 84 62 bf 41 a3 d4 bd
       0.013414898 -0.6832566 -0.8848349 -0.10382701
000080 72 cf f8 3f 06 82 85 bd cc 56 8a 3e 1c 17 5c bf
       1.9438307 -0.06518941 0.27019346 -0.8597276
000090 44 b7 96 3e 29 1d 03 3d d7 fc 3a 3e e4 3f f1 be
       0.29436696 0.03201023 0.18260513 -0.47119057
0000a0 fe 6f cc bd d2 76 b2 3e 78 8f 12 be 8b ca a6 bd
       -0.09982298 0.34856278 -0.14312541 -0.08144101
0000b0 c2 cd 1c 40 0e 01 80 bf 2c 4b c0 3f ca d7 0c bf
       2.4500585 -1.0000322 1.5022941 -0.5501677
0000c0 79 2c 69 bf 60 7b 22 3f 0d 14 06 3d 7a 82 c4 be
       -0.91083485 0.63469505 0.032733966 -0.38380796
0000d0 5d ce 3b 3f 21 0e 01 3f fe 97 a7 3f 8d 0b 02 40
       0.7336176 0.50412184 1.3093259 2.031955
0000e0 2a 84 ab 3d c2 63 6b 3f 70 11 44 be c9 61 19 bf
       0.08374818 0.91949093 -0.19147277 -0.59914833
0000f0 fe fd c6 3f e5 c6 7a bf 5f 52 57 c0 f6 04 40 bf
       1.5546262 -0.9795974 -3.3644025 -0.7500757
000100 af 8e e5 bc f3 5d 8a bf a7 ae 1a bf 3e a0 7e bf
       -0.028022138 -1.0809921 -0.6042275 -0.9946326
000110 2e d8 cb bd 68 af cc ba c7 de d2 3f 5c 68 59 3d
       -0.099533424 -0.001561624 1.6474236 0.05307804
000120 ed 3e 49 bf 5b cb 80 be ac 0d 7e bf 26 3c 4a bf
       -0.7861164 -0.25155148 -0.9923961 -0.7899803
000130 62 e8 0a bf 3f e7 02 bf b0 7c a2 3e a9 bc 76 bf
       -0.5426084 -0.51134104 0.31735754 -0.9638162
000140 ce da d9 be 2c 91 0c 3e 4b 86 15 bf d4 cb 48 3f
       -0.42549747 0.13727254 -0.5840804 0.7843602
000150 a6 8d aa bf c8 c1 03 bf d7 d7 46 3e d0 8d 60 be
       -1.3324478 -0.5146756 0.19418274 -0.21929097
000160 df 2b a1 3e 2c a3 e6 be fb 1e 85 bf 26 0b 3b 3f
       0.31478783 -0.45046365 -1.040008 0.73063886
000170 05 08 94 bf 72 75 15 bf 79 e4 df 3e 0f 9e f2 3f
       -1.1564947 -0.5838233 0.43728998 1.8954486
000180 13 a4 32 3f 98 94 97 3f 50 1d 59 3f 1d a4 6c bf
       0.6978161 1.1842222 0.8481035 -0.92437917
000190 f6 8b b5 3f 70 3d 47 bf ac 48 82 bf be 8c 9a 3f
       1.4183338 -0.7782812 -1.0178428 1.2074201
0001a0 21 56 ad 3f 1b 35 0c 3f e0 17 0b be 47 46 5c 3d
       1.354191 0.5476853 -0.13583326 0.05377796
0001b0 9c dd 01 c0 b3 2b 2c bf 55 df ca bf 5b dd 8f bf
       -2.029151 -0.6725418 -1.5849406 -1.1239427
0001c0 c4 3b 6e 3f aa ff fc be 1e de a0 3f 46 40 47 3f
       0.93059945 -0.49413806 1.2567785 0.7783245
0001d0 cf 44 b8 3e 69 a5 8d 3e 88 cf 04 3f 8d 26 07 bf
       0.35989997 0.2766526 0.5187917 -0.527932
0001e0 ce ff 21 40 35 b0 89 be a9 8c f1 3b b2 47 e0 3f
       2.531238 -0.26892248 0.0073715043 1.752188
0001f0 aa fe 06 c0 63 7a e7 3f 7b e5 c7 3d 8d ee bd 3e
       -2.1092935 1.8084224 0.09760567 0.37096062
000200 86 5d 36 3f 97 64 e3 bf bd 2d b5 3e ed 8c 99 3f
       0.71236455 -1.7765073 0.35386458 1.1996132
000210 7a 22 9b be 07 84 e1 bf 2d 85 22 3f 7a ea 4d bf
       -0.3029974 -1.7618417 0.6348446 -0.8043591
000220 e9 38 ce bf 03 91 ef bf 87 07 0b 3f 3c 22 29 3f
       -1.6111118 -1.8716129 0.5430836 0.6606786
000230 bf e4 12 40 a3 c6 2c 3f 1f 4e db 3f c0 aa e5 bf
       2.2952116 0.67490596 1.7133216 -1.7942734
000240 8a 7f ae bf 48 b4 7b bf 30 71 c1 3f a4 51 24 3f
       -1.3632672 -0.9832196 1.5112667 0.64187074
000250 50 28 f2 3e 29 70 db be a2 26 0d 3f 40 10 c6 bf
       0.4729638 -0.4285901 0.55137074 -1.5473709
000260 ff a2 04 3f 35 2f da 3d ed d9 89 3e ff 91 a9 3f
       0.5181121 0.10653535 0.26924077 1.324768
000270 8e 7d df 3f a0 6f ed 3f 9b d4 34 bf 4d a7 23 40
       1.7460191 1.854969 -0.7063691 2.5570862
000280 0e c7 d5 3e e8 d2 59 be 7d 07 57 bf 95 0c d7 be
       0.4175343 -0.2127186 -0.839958 -0.42001787
000290 d8 c0 1f bf 14 30 7a bf b3 f5 5f 3f 79 be 7c 3f
       -0.6240363 -0.9772961 0.8748428 0.9872814
0002a0 ca 80 9e 3e f8 a5 c2 3f 1b 45 9a 3f 49 65 e8 bf
       0.30957633 1.52069 1.2052339 -1.815591
0002b0 83 92 ce be 89 8a 75 bf 63 a5 aa bb ff 82 a1 bd
       -0.40346155 -0.9591451 -0.005207704 -0.07886314
0002c0 ba f9 57 3f b3 35 95 3f 07 e5 06 3f b1 43 cf 3f
       0.8436543 1.1657013 0.5269322 1.6192533
0002d0 26 c7 76 bf b8 ea 10 3e bd 96 27 be f3 68 b7 be
       -0.96397626 0.14152038 -0.16366096 -0.35822257
0002e0 a6 73 dc 3f 43 6e 9b be 70 9b 74 3e 3b 08 ac 3f
       1.7222793 -0.3035756 0.2388742 1.3440012
0002f0 fe 67 d3 3d 68 d8 8c 3f b5 f0 ae be cd 84 72 3f
       0.10322569 1.1003542 -0.3416802 0.9473389
000300 43 8a 11 bf b4 6c 56 3f fe 4e e4 3f 67 1d 48 be
       -0.56851596 0.8375962 1.7836607 -0.19542466
000310 8b d1 03 3f 25 7a ec bf e9 ab 3a c0 88 3c 11 bf
       0.5149161 -1.8474776 -2.9167426 -0.5673299
000320 57 91 0a bf 20 2a 65 3f fb eb 61 bf c8 24 08 3f
       -0.5412802 0.895174 -0.882507 0.53181124
000330 07 dc c5 bf 82 75 31 be 5a 6e 3a 3f d1 b8 69 3d
       -1.5457772 -0.17329982 0.72824633 0.05706102
000340 fa cf 67 3f fd ec 85 3f d8 45 05 bf 8e 69 ad 3f
       0.9055172 1.0462948 -0.520597 1.3547838
000350 78 d6 70 3e ed 05 f5 3f 85 0f eb 3f 47 8a a9 3f
       0.23519313 1.9142433 1.8364111 1.3245324
000360 fc 10 78 bf 9f 35 a0 3f e7 eb 9a 3f ce 25 07 bf
       -0.96900916 1.2516364 1.2103242 -0.5279206
000370 ce cf 5f 3e cd 05 13 bf 13 83 ba 3f ad ae e2 3f
       0.21856615 -0.57430726 1.4571251 1.7709557
000380 60 30 d3 3f b4 2f dd be 0a c4 8a be 7b 36 b8 bf
       1.6499138 -0.43200457 -0.2710269 -1.4391626
000390 05 9f 9f 3f 8e 0d a3 3f 80 2a c8 3e 74 40 c6 3e
       1.2470404 1.2738512 0.39094925 0.3872105
0003a0 3d 7d a3 bd 7d f6 ae 3e 59 e6 72 3f d0 24 b1 bf
       -0.07982872 0.3417243 0.9488273 -1.3839359
0003b0 dc ae dc 3f 50 58 17 c0 1e f3 6d bf 0e 56 96 3e
       1.7240863 -2.3647652 -0.9294909 0.2936253
0003c0 92 4b 5c 3e 28 3f 70 3f 4f 9c bb 3f 1b 75 0e bf
       0.21513203 0.9384637 1.4657077 -0.5564744
0003d0 e3 ad 3e bf 4d 02 4f be 10 2e 6b be 3e 80 ae 3a
       -0.7448408 -0.20215721 -0.2296679 0.0013313366
0003e0 2a 24 c0 3e de c0 14 bf d5 82 12 bf 6c 3e 81 3f
       0.3752759 -0.5810679 -0.57230884 1.0097175
0003f0 b5 5e d8 bd 47 00 97 bf a7 ea b9 bd 43 28 10 3f
       -0.10564939 -1.179696 -0.090779595 0.56311435

rnn.weight_ih_l0 f4 [32, 128]
000000 39 8a 8c bc 89 a8 af bc 89 9a c9 bd 08 5a 32 be
       -0.017155753 -0.021442669 -0.09843928 -0.17417157
000010 36 8e 89 3d 2a 6a 22 be b9 b0 37 be 49 dd c9 3b
       0.06716578 -0.15860811 -0.17938508 0.0061604124
000020 7f 5f 9b bc 27 f2 8d 3b df f1 0d 3d 35 75 72 3e
       -0.018966435 0.0043318453 0.034654494 0.23677523
000030 1b 1b a0 3c 80 17 0d 3e 72 02 b9 bd c4 5e bf 3d
       0.019544175 0.13778496 -0.090336695 0.09344247
000040 08 8a 35 be 6a e4 f2 3d 0c 56 da 3d 8e b8 16 3e
       -0.17728436 0.11859973 0.106609434 0.1471884
000050 97 77 05 3e 3e 47 12 3d ec fc a9 bd 7d dc be 3d
       0.13033901 0.035712473 -0.08300194 0.093193986
000060 9c 11 a4 3d aa 18 24 3d 79 24 c6 3c 21 ab 22 be
       0.08011171 0.040062584 0.024187313 -0.15885593
000070 47 9d 35 be bc 73 bf bd 2d b3 77 3d 0e 69 34 be
       -0.17735778 -0.093482465 0.06047361 -0.176182
000080 d8 1a 33 be 4b 12 a8 3d a4 ba e9 bd 15 ea 22 3d
       -0.17490709 0.08206614 -0.11412552 0.03977402
000090 12 62 d3 3d c5 53 03 be 8b d6 9e 3c ad 20 dc 3d
       0.1032144 -0.12824924 0.019389411 0.1074842
0000a0 19 f3 44 be 5e 5a 0a 3e 7f 7d 85 be e4 eb 68 3c
       -0.1923336 0.13511035 -0.26072308 0.014216397
0000b0 2a 63 d0 3d b0 41 d2 3d cc ea 77 3c 90 a4 46 bd
       0.10175164 0.10266435 0.0151316635 -0.048496783
0000c0 2b f6 4c 3e b4 e0 7f be 69 a5 04 3e 65 d0 3d be
       0.2001578 -0.24988061 0.12953724 -0.18536527
0000d0 34 83 3c 3e c3 5d 8b bd 1f 2b 08 be df b7 9c 3c
       0.18409425 -0.06804993 -0.132977 0.019130645
0000e0 02 17 5f 3e 24 a9 3c bd 71 b7 d4 bb 1a 6a 24 3e
       0.2178612 -0.046059743 -0.0064915945 0.160561
0000f0 72 cc 04 3e b4 c2 42 3d fd 7f ac bd 0b 6c 11 3e
       0.12968615 0.047548965 -0.08422849 0.14201371
000100 93 e3 05 3e 7c 21 97 bc 3b 6f 1f be 7b cc dc 3d
       0.13075094 -0.018448584 -0.15569775 0.10781189
000110 da d9 83 be a5 53 cb 3d c2 b8 52 be 9e 06 5b bc
       -0.25752145 0.09928063 -0.20578292 -0.013368277
000120 a3 bf a3 bb 3e 56 8d bd 4f 80 b4 bd d6 d7 90 bc
       -0.00499721 -0.06901215 -0.088135354 -0.017681044
000130 ea 9a e4 3d 33 e9 ec ba 33 58 16 3e f0 a4 86 bd
       0.1116236 -0.001807487 0.14682083 -0.06574428
000140 b6 bd 3c be 60 4f 93 bc 92 1a 25 be 93 a1 e5 bc
       -0.18431744 -0.017982185 -0.16123417 -0.028031146
000150 69 86 9c 3d d9 68 cf bd 9b 4a 3d 3e e1 c4 32 3e
       0.07642824 -0.1012742 0.18485491 0.17457916
000160 e8 33 fd 3d f8 a6 d8 3d d3 a2 be bd cf 82 61 3e
       0.12363416 0.10578722 -0.093084 0.22022556
000170 46 9a 92 3d a0 e0 e7 3c 1d f6 0d 3d 00 ae 28 bc
       0.071583316 0.028305352 0.03465854 -0.010295391
000180 c1 9f 24 bd f9 eb 1c be dc 22 52 3d e7 4f 13 be
       -0.040191416 -0.15324391 0.051302776 -0.14385949
000190 7b ed 05 3a 1b 22 e5 bd 5b 3f b5 bd 29 47 23 be
       0.0005108935 -0.11188146 -0.08849975 -0.15945114
0001a0 76 3e 75 3c c3 86 00 3e a8 de 85 3d 32 08 6d 3d
       0.014968505 0.12551408 0.06536609 0.057869144
0001b0 31 85 3c 3c f9 a5 61 3e 99 13 4b bd c6 b5 89 bd
       0.011506365 0.2203597 -0.049579237 -0.06724124
0001c0 b7 0a 3b be 4a 52 a9 3d e8 5a 30 be 86 20 64 3d
       -0.18265806 0.082676485 -0.17222178 0.05569508
0001d0 17 bd 1d be d3 fd d9 3d 86 9d 67 3d cc e6 1c 3e
       -0.15404163 0.10644116 0.05654671 0.15322417
0001e0 3c 9e de bd 56 f0 7b 3d 8e cf 9d bd 95 60 42 3e
       -0.108700246 0.0615085 -0.077056035 0.18982156
0001f0 85 8c d2 bd fc 0c 03 3e 66 ab c1 3d 66 b3 0f be
       -0.10280708 0.12797922 0.0945652 -0.14033279
000200 92 39 9f bd cf 21 36 3c ed 6c 97 bd 2e 20 29 3e
       -0.077746525 0.011116459 -0.07393823 0.16516182
000210 37 93 e5 3d 32 ab 14 be cd 67 9d 3d 58 1a f1 bc
       0.1120972 -0.14518431 0.07685814 -0.029431507
000220 14 6b 27 bc 57 8b 19 3e 15 7a 0b 3d 5f dd 97 3e
       -0.0102184005 0.1499456 0.034051973 0.2966108
000230 12 93 04 3d a9 66 84 be d4 bb 1c be 85 92 dc 3b
       0.03236682 -0.25859573 -0.15306026 0.0067313337
000240 94 e8 2f 3d 61 13 1d 3e b1 fa ca 3d 3b df 9a bd
       0.042946413 0.15339424 0.09911097 -0.07562109
000250 7b e7 9f bd 14 d4 33 3e 7f 48 04 bd 92 d3 61 3d
       -0.07807823 0.1756137 -0.0322957 0.05513341
000260 03 53 35 be 4e f4 1c be 4e a5 86 3c 9c 85 07 bd
       -0.17707448 -0.1532757 0.016436245 -0.033086404
000270 22 33 e7 bd 13 1b b3 bd 52 07 7a 3e 0e 7d 0a 3d
       -0.1128905 -0.08745398 0.24416855 0.033810668
000280 4f 90 7d bd 59 a5 e3 bd 16 69 4b be 6a a9 a9 bd
       -0.0619052 -0.11115522 -0.19864306 -0.08284266
000290 73 50 4c bd 57 fc 41 3e d8 65 03 3d 98 37 f9 3c
       -0.04988141 0.18943916 0.032079548 0.030422017
0002a0 38 88 e4 bc 5c dd 0a 3e 5b 50 4d 3e 2f eb 19 be
       -0.027896985 0.13561004 0.20050184 -0.15031122
0002b0 72 6b fe bd 33 c2 7c 3d 01 64 c3 3d f8 93 00 bd
       -0.12422837 0.06170864 0.095405586 -0.031391114
0002c0 5e f7 67 bd 07 89 af bd 5a 1b 43 3d 58 5d 25 bd
       -0.056632392 -0.08571058 0.047633506 -0.040372223
0002d0 ac 46 47 bd 6d c8 0a 3c f1 fb 9c bd f2 60 f8 bd
       -0.048651382 0.008470637 -0.076652415 -0.12127866
0002e0 83 e2 b3 bd 00 8c d9 3c 76 ab 41 3e d1 ae 60 3e
       -0.08783438 0.026556015 0.18913063 0.21941687
0002f0 a4 f6 bf 3c 90 f1 f6 3d 3e 58 91 3d b9 62 ad 3d
       0.023433037 0.12057793 0.07096909 0.084660955
000300 3b 7e dc 3d 73 36 90 bd 62 d6 3c 3e 3f 48 81 3d
       0.10766264 -0.07041635 0.18441156 0.06312608
000310 fc 4d c9 3d df a7 f5 bd de 59 c8 3d df 6d f8 3d
       0.098293275 -0.119949095 0.09782766 0.12130331
000320 38 e4 68 bd 0b fa 64 be ef 5f 64 3d 39 cb 17 3e
       -0.05685827 -0.22361009 0.055755552 0.14823617
000330 35 7d 11 bc 5b 76 08 3e b5 3d c4 b9 e6 8f 2f 3e
       -0.008879949 0.13326399 -0.00037430009 0.17144737
000340 cd de df 3d 55 c4 1d 3c 5e 9d e3 bd 8e 42 d8 bd
       0.10931168 0.009629329 -0.11114 -0.10559569
000350 97 e1 b0 3d bb 40 b9 bd 37 b1 ea bc 95 83 d8 bc
       0.08636778 -0.090455495 -0.028648956 -0.02642993
000360 17 a9 13 be c1 cf 36 3e aa 7c 5d 3e 0e 3d 2f 3e
       -0.14419971 0.1785269 0.21629587 0.17113134
000370 6b 6e 65 3e 96 1c 1e 3e fc d3 e3 3d 95 51 df bc
       0.22405402 0.15440592 0.11124417 -0.027260581
000380 9d 81 70 3e 17 d2 77 bb c3 fc b9 3d 8d fe a1 3d
       0.23486944 -0.0037814432 0.090814136 0.0790988
000390 ab 51 37 3c 3b 27 fd bd f2 0d 4f 3e 8d b7 2b be
       0.011188905 -0.12360998 0.20220163 -0.16769238
0003a0 ea f0 b7 bd 6d 64 12 3e 56 0f da bb e8 52 75 bd
       -0.089814976 0.14296122 -0.00665466 -0.05989352
0003b0 a7 31 ee bd 4c 70 b8 3d e7 72 95 3d 78 0d 85 bd
       -0.11630564 0.09005794 0.072973065 -0.064967096
0003c0 00 e3 48 3d 2d b0 a7 3d 50 38 76 bd 4e ae 6a 3d
       0.04904461 0.081879 -0.060112298 0.057295136
0003d0 08 0f bc 3c 02 5b 34 3e df 58 15 bc f8 d4 13 3e
       0.022956386 0.17612842 -0.009115427 0.1443671
0003e0 43 56 6e 3d f8 e4 b9 bd 63 8d ab 3d 65 89 19 3e
       0.058187734 -0.090768754 0.08376577 0.14993818
0003f0 df 6b 44 be 35 c1 8a 3e a7 a0 9d bd ab f6 34 be
       -0.19181775 0.2710053 -0.07696658 -0.17672221

rnn.weight_hh_l0 f4 [32, 32]
000000 26 08 6e be a5 95 62 3e 9a ff b4 3e 68 7f b8 3d
       -0.23245296 0.22127397 0.3535126 0.09008676
000010 63 c8 55 3d e4 ab 94 bd 59 56 8d be da 14 7b 3e
       0.052193057 -0.07259348 -0.2760494 0.24519673
000020 d9 06 fe 3d fe eb 59 3e 70 a6 47 be 32 f3 48 3e
       0.1240365 0.2128143 -0.19497085 0.19624022
000030 48 a6 ce 3d c9 74 a4 3d 59 7a 29 be 04 7f 6b 3e
       0.100903094 0.080300875 -0.16550578 0.22997671
000040 25 ee ae 3e b0 a7 c9 bc 75 36 09 3c 69 7d 39 3d
       0.34166065 -0.024616092 0.0083748 0.045285616
000050 ea 0a 52 3e 56 11 12 3e 33 74 8c bd b2 a3 89 3d
       0.20511976 0.14264426 -0.06858101 0.067206755
000060 0a 40 22 3e 7b 77 95 3d 95 c1 ce 3e 67 91 be be
       0.15844741 0.0729818 0.40382066 -0.37220308
000070 ef a0 cf be 27 89 91 3e 67 ee 29 be b7 be a8 bc
       -0.4055247 0.2842495 -0.1659485 -0.020598752
000080 3b 02 8d 3e 66 e8 4c 3c d5 e4 b2 3c 89 a8 12 3e
       0.27540764 0.01250658 0.021837631 0.14322104
000090 c2 1a 6f bc 68 30 00 3e 50 99 91 3c 7e be df 3e
       -0.014593782 0.12518466 0.0177733 0.43700022
0000a0 57 41 74 be 22 43 ac 3b 44 9d ae 3d a1 93 32 bb
       -0.2385305 0.0052570263 0.0852609 -0.0027248638
0000b0 a9 46 93 bd 07 50 19 3e a2 d7 ec 3d 46 46 6a 3e
       -0.07191212 0.14971934 0.11564566 0.2287837
0000c0 d4 8a 81 be 8b 99 04 be d3 c2 55 3e 54 0b 9a be
       -0.2530123 -0.12949197 0.20875101 -0.30086768
0000d0 e7 41 60 be 1c a5 2f 3e af 71 ab 3d 8e 10 10 3e
       -0.2190014 0.17152828 0.08371293 0.14068815
0000e0 aa 2f 5c 3d 7e 25 6f bb 89 1b 95 be 2e fb 91 3e
       0.053756393 -0.0036490853 -0.2912257 0.28511947
0000f0 3a 68 b1 3d ce f9 74 3d 19 8f 0c be 26 b4 4b 3d
       0.08662458 0.059808545 -0.13726462 0.04973235
000100 d9 2a 69 bc ae de 46 bd 1b c0 d4 bd 5b a1 70 3d
       -0.014231407 -0.048552208 -0.10388204 0.05874763
000110 d4 7c 20 3e 21 d4 82 3b 0c 28 de 3d 85 ae 8d bd
       0.15672618 0.003992573 0.10847482 -0.069180526
000120 c3 58 6d 3c 8b cd d7 be 89 3d 7b bd 1f e1 04 bf
       0.0144864945 -0.42149004 -0.06133798 -0.5190601
000130 93 b6 52 3d f1 f6 eb 3b 26 95 00 be dc 62 0f be
       0.051443648 0.0072010686 -0.12556896 -0.14002556
000140 be ce 97 be 33 22 72 be 23 5b 8a be 00 9b 8b 3e
       -0.2964992 -0.23645858 -0.27022657 0.27266693
000150 51 f7 05 bf b7 0f 32 3d 1b f2 0b 3d 3b 09 8b 3d
       -0.523305 0.043472018 0.034166437 0.0678887
000160 35 36 69 be 9d 28 0d be 7d 65 a4 be fa 78 1d bd
       -0.22774585 -0.13785024 -0.3210868 -0.03844545
000170 24 7a af be 67 35 4d be af df 62 3e 31 69 57 3d
       -0.34272873 -0.20039903 0.22155641 0.052590553
000180 0a 26 13 be 38 9b de bc 98 b0 7c 3e 6e cb 9f 3e
       -0.1436998 -0.027173623 0.2467674 0.31209892
000190 ea 67 d1 bd 60 c3 58 3e f9 85 35 bd 8a 9c d4 3e
       -0.10224898 0.2116828 -0.04431722 0.4152568
0001a0 9f 51 bb be f4 a4 1e bc 98 bf f2 3d 28 14 7a bc
       -0.3658571 -0.009682883 0.1185295 -0.015263595
0001b0 f3 d1 ff bd a1 25 36 3e c6 81 ed bc 1b b1 ed 3e
       -0.124912165 0.17787792 -0.028992545 0.46424183
0001c0 1f 1d 06 bf de 93 49 bd 73 f7 04 3e 42 a1 dd bd
       -0.52388185 -0.049213283 0.1298502 -0.10821773
0001d0 6d 47 fd 3d 1b 11 85 be fa 83 17 3e 40 34 4f be
       0.12367139 -0.25989613 0.14796439 -0.20234776
0001e0 04 6e 8b 3d 43 f9 66 3d 08 fb 63 be af 4b 89 bc
       0.06808093 0.05639006 -0.2226373 -0.016759722
0001f0 c5 d1 a2 bd c6 ff 25 be fc 7f 9e bd d7 58 de 3d
       -0.079501666 -0.16210851 -0.07739255 0.108567886
000200 68 78 36 3d df 81 09 3d c7 3a 75 be 59 43 28 3e
       0.044548422 0.03357112 -0.23948203 0.16431941
000210 aa f8 93 3c 32 43 ee 3d f9 8e 34 be c4 63 8a bd
       0.018062908 0.1163391 -0.17632665 -0.0675731
000220 75 f4 df 3c 7a 62 bb bb 47 80 f6 bd a9 54 04 bb
       0.027338246 -0.0057185264 -0.12036186 -0.0020192063
000230 f9 a4 88 bd 2b dc af 3d c7 eb 1d 3e f1 d6 d6 bd
       -0.06672091 0.085869156 0.15421973 -0.104902156
000240 ad 30 b4 bb 8f e5 dc 3d 0f 13 e6 bd f1 9f ed bc
       -0.0054989667 0.10785972 -0.11234104 -0.02900693
000250 1c 2c 8a 3c d7 b7 03 3d 6e ef a6 3d b0 5a e6 3d
       0.016866736 0.032157745 0.08151136 0.11247766
000260 0d 0d 87 3d b0 f2 51 be 7b 1e 89 be ac 1f 07 be
       0.06594286 -0.20502734 -0.26781067 -0.13195676
000270 c0 51 57 be c9 2f ab 3d b6 25 84 3d c7 4a d8 3d
       -0.21027279 0.08358724 0.06452505 0.10561138
000280 da a2 9b 3d e6 48 05 be 91 b2 96 bd 1d c0 c0 3e
       0.07599421 -0.1301609 -0.073582776 0.3764657
000290 ca 99 8a 3d c9 e7 3c 3b fe cf 63 3c 79 aa 7f 3e
       0.06767614 0.0028824678 0.01390457 0.24967374
0002a0 f2 aa 86 be 64 db ff bd f5 3e 3f 3e 9a 1b 71 3e
       -0.26302296 -0.12493017 0.1867636 0.23545685
0002b0 b2 0f 20 be 38 63 40 3e 15 a3 bd bd 59 22 23 3b
       -0.15630987 0.18787849 -0.09259621 0.00248923
0002c0 05 ba 9d be d8 d0 ce 3d a5 da ef 3d fc 20 8a be
       -0.30805984 0.100984275 0.11711625 -0.2697829
0002d0 eb 79 b9 3d df 9e ee bd 65 83 9b 3d 19 28 8b bd
       0.09056457 -0.11651396 0.07593421 -0.067947574
0002e0 a5 90 8d bd 44 ac 31 be 23 87 95 be ac 74 d8 3e
       -0.069123544 -0.1735087 -0.29204664 0.42276514
0002f0 9b 70 ff 3d 76 5b 8a be b2 f3 66 bd 55 73 b0 bd
       0.1247265 -0.27022904 -0.05638475 -0.08615748
000300 5b 15 e9 3e d4 55 85 3d 62 e7 ec bd f8 e9 ab 3e
       0.45524105 0.06510511 -0.1156757 0.33576941
000310 d2 85 c0 3b 5f db 07 3d d9 a3 80 3e de 49 0c 3f
       0.0058753276 0.033168193 0.25125006 0.5480021
000320 fc 0a 3c be 28 5a 37 3e 10 7b 3d 3e 43 0e e4 bd
       -0.18363565 0.17905486 0.18503976 -0.11135533
000330 63 51 15 bd 66 f6 c3 bd fc de 12 3e c5 28 2b 3e
       -0.03645457 -0.09568481 0.14342874 0.16714771
000340 b5 e5 60 be 81 f5 a7 bd 2c a1 52 3e fc c3 8c be
       -0.21962626 -0.08201123 0.20569295 -0.27493274
000350 32 cf f9 3d d8 39 f8 bd f0 aa 18 bd 60 5d 9c bd
       0.121977225 -0.12120408 -0.037272394 -0.07634997
000360 ab 42 37 bd 3f 02 c4 3d 13 dd b5 be d0 48 f4 3e
       -0.044741314 0.09570741 -0.3552023 0.47711802
000370 86 44 55 3e 62 cc 16 be a6 3b 09 3e 90 9a 68 3d
       0.20826921 -0.14726403 0.1340166 0.056788027
000380 29 f0 ac be 7e dd 5a 3e 3d 40 95 3e 83 9d 46 bd
       -0.33776978 0.21373555 0.29150572 -0.04849006
000390 27 74 86 3e 37 d5 16 3e f4 d9 11 3e a6 cd 2c 3d
       0.26260492 0.14729773 0.14243299 0.04218831
0003a0 2d 63 dd be 47 e9 ca bd a4 72 66 3c 58 2d 36 be
       -0.43239728 -0.09907775 0.014065418 -0.17790735
0003b0 c1 45 76 be f2 ef e8 3d 40 42 b5 3d 6d 6b 40 bd
       -0.24050047 0.11373891 0.08850527 -0.04697745
0003c0 13 36 77 be 1f cc 61 3e 80 6a 14 3d bb 21 0b be
       -0.24141721 0.22050522 0.03623438 -0.13587086
0003d0 af a2 77 be 6c 72 67 be 64 97 75 be 71 76 63 be
       -0.24183153 -0.22602242 -0.23983532 -0.2221315
0003e0 c2 51 bd 3d e0 bf 22 bc b4 9c aa be 79 bb 77 be
       0.0924411 -0.009933442 -0.3332268 -0.24192609
0003f0 1c a7 69 be 87 32 8a be f0 10 0b 3d b4 28 a3 be
       -0.22817653 -0.26991674 0.0339517 -0.31866992

rnn.bias_ih_l0 f4 [32]
000000 5f fe 4d 3e 59 4e bc bd 7d 31 d2 3d b2 e9 ad bd
       0.20116566 -0.09194631 0.102633454 -0.084918395
000010 16 6e c3 bb 8e 34 ec bd d9 3d 16 be b0 ef a2 bd
       -0.005964051 -0.115334615 -0.1467203 -0.07955873
000020 fc 8e fb 3d 4e e3 26 be ee 40 c1 3a 42 b7 5f bc
       0.122831315 -0.16297647 0.0014744082 -0.013654532
000030 58 22 27 3d d0 93 7c be 89 06 81 be bc 55 9d be
       0.040804237 -0.24665761 -0.25200298 -0.30729473
000040 08 00 d1 3b c3 5c f3 bd f3 b3 ba bd 8e 8a 53 3e
       0.0063781776 -0.11882927 -0.09116354 0.20658323
000050 b9 c6 ff 3d 19 02 ea 3d 8b bd e7 3c d0 c4 1d 3e
       0.12489075 0.11426181 0.028288623 0.1540711
000060 14 c0 0d ba 02 0b 73 3d 46 ca 4f be 22 73 88 bd
       -0.0005407345 0.05933667 -0.20292005 -0.06662585
000070 b3 04 72 be 58 a1 06 be 44 44 d7 bd 63 59 28 3d
       -0.23634605 -0.13147485 -0.105110675 0.04110087

rnn.bias_hh_l0 f4 [32]
000000 4f 97 71 bd 1f 91 f2 bd 55 5a 6a 3e 2b 42 0c bd
       -0.05898219 -0.11844086 0.22886021 -0.03424279
000010 9c 59 d5 bc 15 84 f1 bd d6 30 3c be 9d 50 41 bc
       -0.026043706 -0.11792771 -0.18378004 -0.011799005
000020 1d e4 a6 bc 29 aa 4f be 36 b6 80 3d 32 71 69 3d
       -0.020372445 -0.20279755 0.06284754 0.056992717
000030 85 45 94 3d b5 17 73 be db 42 c0 3c 0c 36 a9 be
       0.07239822 -0.23739512 0.02346938 -0.33049047
000040 bc 30 ee bc 2b b9 01 be c2 f1 b0 bd a6 28 aa 3d
       -0.029075973 -0.12668292 -0.08639862 0.08308534
000050 ea a9 58 3b a3 a4 39 bb 15 a7 88 3d 6d 01 d9 bd
       0.003306026 -0.002832689 0.06672493 -0.10595975
000060 a6 4e 0c be 23 25 89 3c 49 71 42 bd 41 5c 72 3c
       -0.13701877 0.016741341 -0.04747132 0.014792503
000070 87 f4 a0 bd 0c 87 a6 bd 44 4e 83 bd ab a9 2c be
       -0.0785914 -0.08131227 -0.06411412 -0.16861598

rnn.weight_ih_l0_reverse f4 [32, 128]
000000 2c 54 2f 3e 35 e1 5f 3d 3a fa b0 bd ca cd 49 bd
       0.17121953 0.054658134 -0.08641477 -0.04926852
000010 bd 94 13 3e 30 cd 01 3d 6c 6e eb bb e5 e8 dd 3d
       0.14412208 0.031689823 -0.007184794 0.10835437
000020 36 58 c0 bd af ed cd bb 2e b9 63 3d 9d 9b 09 3e
       -0.09391825 -0.0062844376 0.055596523 0.13438268
000030 03 ab d7 3d ba e1 39 3e 78 e3 dc 3d 90 46 8e bd
       0.10530665 0.18152514 0.10785574 -0.069470525
000040 a0 dd 01 3e 2c ca ab bc 4a ca fa 3d fe ba 86 3d
       0.126822 -0.020970426 0.12245615 0.06578635
000050 2d e3 0f 3d 2d 4b 56 3e a7 98 cb 3d cc e4 61 bc
       0.03512876 0.20927115 0.099412255 -0.01378746
000060 2a 3e b4 3c 03 d3 98 bd 72 da 12 3e 1b 47 a8 bd
       0.022002298 -0.07462122 0.14341143 -0.08216687
000070 d3 d3 19 3e 1c 2b 1b 3c fe ae 86 3e 3c 1d a4 3b
       0.15022211 0.009470727 0.26305383 0.005008368
000080 b7 4a 53 be 8b 7c 83 37 14 6a 20 be c1 34 c1 bd
       -0.2063397 1.5674412e-05 -0.15665466 -0.0943389
000090 3f 8a 07 be a6 4f 3b 3e f9 d9 80 3a 07 a6 66 bc
       -0.1323633 0.18292102 0.0009830586 -0.01407767
0000a0 a8 f2 c8 bd 32 8c 3d 3d d4 f9 00 3e 35 f0 bf bb
       -0.09811908 0.04627628 0.12595302 -0.0058574923
0000b0 31 e5 64 be c7 dc db bd 91 43 9d 3d 4f 88 9d bc
       -0.22353055 -0.10735469 0.07678903 -0.019230036
0000c0 3f 39 1a 3e 35 18 3e 3d 8a 00 b1 3d 45 04 48 be
       0.150609 0.046409804 0.08642681 -0.19532879
0000d0 96 3f 4b bb 86 a1 f3 3c c2 11 72 be 8f 9a 31 be
       -0.0031013242 0.029740106 -0.23639587 -0.17344116
0000e0 c0 00 40 3e e1 a0 b3 3d 01 ce 25 be 5c 0e 9e 3d
       0.18750286 0.087709196 -0.16191866 0.077175826
0000f0 34 12 f1 3d 04 74 25 3d 05 2c 47 3e 60 8d 5f 3e
       0.1177105 0.040393844 0.19450386 0.21831274
000100 1b 6d 16 3e 3c 9c 59 3d aa 25 6f 3e 0e ea bc 3c
       0.14690058 0.053127512 0.23354211 0.023060825
000110 c6 25 da 3d ec 3b 50 3d c3 43 d4 bd 5b 0a 03 be
       0.10651736 0.050838396 -0.10364487 -0.12796919
000120 cb b5 ff bc 26 5e 2b 3e 76 aa 94 bd 42 a8 63 3e
       -0.031214615 0.16735134 -0.07259075 0.22232154
000130 5a b0 ec 3d a9 b3 24 be 02 69 37 3e 56 a5 70 bc
       0.11557074 -0.1608416 0.17911151 -0.014687857
000140 fd 48 a0 3d 4b 07 2f bd bb ec 6f be a2 fa 09 be
       0.078264214 -0.042731564 -0.2343015 -0.13474515
000150 be 46 8a be 19 42 2a bc 96 e5 6c 3d b7 54 39 3e
       -0.27007097 -0.0103917355 0.057836138 0.18098722
000160 e9 28 d0 bd 60 26 88 3e 71 70 92 bc 64 80 47 3e
       -0.10164053 0.26591778 -0.017875882 0.19482571
000170 43 75 6e 3d bf 6b 76 3e b0 b8 72 bb 9e a8 27 3e
       0.0582173 0.2406454 -0.0037036352 0.16372916
000180 7f 1c 7f bd a9 98 86 bc a3 f6 d9 3d c7 ef 26 3e
       -0.062283035 -0.016430216 0.10642745 0.16302405
000190 c2 d6 2f be 6d 9a a5 3d 8d 71 4c 3d 5f ba 10 be
       -0.17171767 0.08086095 0.049912978 -0.14133595
0001a0 58 b4 a8 bd 3c 2f 5c be 7c a0 86 3d ef 6e 46 be
       -0.08237523 -0.21502393 0.06573579 -0.19378255
0001b0 dd f7 e1 bd 5e f7 5d 3c cf 10 26 3c 4e 78 ff bd
       -0.11033604 0.013547746 0.010135843 -0.12474118
0001c0 fc 2b e5 bd 9b 32 3a be 95 37 00 3d 9f ac 97 bd
       -0.1119003 -0.18183367 0.031303007 -0.07405972
0001d0 a4 be 32 be db af dc 3d b3 a2 e3 3d 67 17 29 3e
       -0.17455536 0.10775729 0.11115017 0.16512834
0001e0 75 76 1f be fc b2 13 3e d0 f3 7b bd 37 63 0e bd
       -0.15572532 0.14423746 -0.061511815 -0.034762587
0001f0 ee 62 3f 3e 09 11 2e 3a a2 43 1d 3e 1e ce e1 bc
       0.18690082 0.00066401117 0.15357831 -0.027564105
000200 87 63 5c bd 8a b3 dd bd 80 28 8a be 93 27 17 bd
       -0.053805854 -0.1082526 -0.26984024 -0.036902975
000210 bc 3c 34 be 0a 21 92 3d 00 ab 3c 3e 66 6b 67 3d
       -0.17601293 0.07135208 0.18424606 0.056498908
000220 6d 13 eb 3d ae db a2 bd 55 c3 4e bc 17 b3 88 3e
       0.114783145 -0.07952057 -0.012619813 0.26699135
000230 94 03 02 bd a0 14 79 be b2 a4 c4 bd a9 01 5d 3d
       -0.031741694 -0.24324274 -0.09601726 0.05395666
000240 33 c2 5d be f5 32 39 bd 11 ef 77 be 44 27 c8 bd
       -0.21656112 -0.045214612 -0.2421229 -0.09773114
000250 f2 52 19 be df dd 82 3d f3 45 85 bd 24 17 5f be
       -0.14973047 0.06389975 -0.065074824 -0.21786171
000260 2f d6 ba 3d 39 4f 09 3e fd e2 0b 3d dd 8b a5 bb
       0.091228835 0.13409127 0.03415202 -0.0050520734
000270 a1 0d 1e 3e c6 88 d2 bc d5 40 0f 3e fd 82 cf bd
       0.15434887 -0.025699984 0.13989575 -0.10132406
000280 41 80 50 3d bf 59 da bc ad 7b aa be 5e 41 0c 3e
       0.050903562 -0.026654122 -0.33297482 0.1369681
000290 17 9c 5c 3e 20 05 07 3e 53 3e f4 3c dc fd 2b 3e
       0.21543919 0.13185549 0.029814875 0.16796058
0002a0 84 3e e1 3d 50 b9 f5 bd 23 d9 33 3e 74 57 a5 bd
       0.10998252 -0.11998236 0.175633 -0.08073321
0002b0 c0 78 be 3d 51 ef d1 bd 26 d6 f1 3c c9 1c 04 be
       0.09300375 -0.10250724 0.02952106 -0.12901606
0002c0 82 3d 9d 3d 66 e9 ef bd 94 51 8a bd 30 c9 2b be
       0.07677747 -0.11714439 -0.06753841 -0.16775966
0002d0 f1 6b fb 3d 14 44 bd 3d a7 77 66 be cd 4c 0e 3e
       0.122764476 0.092415005 -0.22506581 0.13896485
0002e0 00 74 78 3e 95 f7 9b 3d c6 de a9 bc 19 a9 8e bb
       0.24263 0.07615582 -0.02073611 -0.004353654
0002f0 4b 31 f1 3b 4a 7e 00 be de 49 da bd ea 3a cd 3c
       0.0073606125 -0.12548175 -0.1065862 0.025052506
000300 db 2c 0e be e5 9c a0 3d d1 0c 18 bc 3e 72 bd bd
       -0.13884299 0.07842425 -0.009280399 -0.092503056
000310 c9 8e 7d bd 59 30 14 3e 76 d0 25 be cf 8e a1 be
       -0.06190375 0.14471568 -0.16192803 -0.31554267
000320 24 45 6e bd 50 c4 de 3d 7b 49 51 bd 52 74 e9 3d
       -0.058171406 0.108772874 -0.051095467 0.113991395
000330 b8 92 f8 bb e8 0b e5 3d 43 52 86 3c c8 5b c6 bd
       -0.0075858496 0.111839116 0.016396647 -0.09685475
000340 1a b5 b1 bc 82 12 6f be d5 9e 10 be 6a 00 38 3e
       -0.021692801 -0.23346904 -0.1412309 0.17968908
000350 79 f5 3f be 4f 25 04 3e 7e f9 4c 3c 56 61 91 bc
       -0.18745984 0.12904857 0.012510655 -0.017746609
000360 a3 06 64 3d ae 39 41 bd 0f 6d fd 3d 55 b9 06 be
       0.05567039 -0.04717415 0.12374317 -0.13156636
000370 49 ec 0d 3d 3d a1 36 3e 4c 2b a7 3d a8 e5 8f 3e
       0.034649167 0.17834945 0.08162555 0.281049
000380 6f 5d 01 bd cf 98 2a be ec e2 00 be ed e7 1c 3e
       -0.031583246 -0.16659854 -0.12586564 0.15322848
000390 37 61 14 be 66 60 09 3d 10 3d 34 3d 88 ae 40 bd
       -0.1449021 0.0335392 0.044003546 -0.047041446
0003a0 a1 6e 05 be b5 c5 7b 3e 67 93 f6 3c 1f a6 5c be
       -0.13030483 0.24587138 0.030099584 -0.21547745
0003b0 ba 5e eb bc fe 85 67 bd ed 03 0b 3e bb c5 96 bd
       -0.028731693 -0.05652427 0.13575716 -0.07361933
0003c0 51 f7 bd bd f9 30 aa bd ec 67 46 be 86 0b 42 3e
       -0.092756875 -0.08310122 -0.1937558 0.18949708
0003d0 2c 6f dc 3d 37 00 ad 3e 0e d7 a3 bd d2 1c 34 bd
       0.10763392 0.33789226 -0.08000003 -0.043972798
0003e0 1d 38 e1 bc a0 ab d4 3c 31 95 3a bb 33 88 c0 3d
       -0.027492577 0.025960743 -0.0028470273 0.09400978
0003f0 77 0b b2 3d 18 d7 af 3d 1a c8 33 3c 39 ba dc bd
       0.08693593 0.08585948 0.010973001 -0.10777707

rnn.weight_hh_l0_reverse f4 [32, 32]
000000 65 6c 04 be 8a 50 c5 3c 72 0c c9 bd 5d a2 3f 3e
       -0.12931974 0.024086256 -0.09816827 0.1871428
000010 5b 5d 4e 3d 13 b5 c3 bd b5 06 33 be 8e 6d 0f 3e
       0.050382 -0.095560215 -0.17483027 0.14006636
000020 c9 0f a7 3d ab d5 56 3e a8 3c 1b be f2 d6 79 3d
       0.08157308 0.20979945 -0.15159857 0.060996003
000030 1a 00 e7 ba 51 24 a6 3a 9d f2 61 be f5 83 32 3e
       -0.0017623932 0.0012675618 -0.22065206 0.1743315
000040 49 bf 40 3e 2b cc b7 bb b8 b8 a2 3e e1 68 a0 3b
       0.1882297 -0.0056090555 0.31781554 0.004895315
000050 96 c2 bc bd b1 df 19 3d 3b f8 bf 3d 20 af f8 bd
       -0.09216802 0.037566844 0.09373518 -0.121427774
000060 8a 54 6f bd a3 89 a8 3e a3 c5 09 3e 3f 3c ce 3d
       -0.058430232 0.32917508 0.13454299 0.10070085
000070 85 20 40 3b fa b9 86 bb fa 87 40 be 45 b6 65 3e
       0.0029316258 -0.0041115256 -0.18801871 0.22432812
000080 95 b5 83 bd b9 84 af bd db 1e 8d 3c 85 eb 52 3e
       -0.064311184 -0.08570237 0.017226627 0.20597656
000090 97 31 37 bc 0e c6 29 3e ab 5a 51 bd 0b 23 03 3e
       -0.011181257 0.16579458 -0.05111186 0.12806337
0000a0 3f 98 57 bd 2e 8d d8 bd 3d eb 11 3d 4a f9 8e 3e
       -0.052635428 -0.10573803 0.03562473 0.27924567
0000b0 95 54 5f 3c dc f9 36 bc 90 61 0f be 61 74 8c 39
       0.013631006 -0.01116797 -0.14002061 0.0002678959
0000c0 d3 40 13 3d 87 bc 0a be ea 45 41 3e a1 1c da bd
       0.035950493 -0.1354848 0.18874326 -0.10649992
0000d0 90 8c eb bd 48 ed 35 3c 3b 9e 62 bd da 8e 66 be
       -0.115014195 0.011103936 -0.05532668 -0.22515431
0000e0 0a bd 4e 3d 68 a1 c0 3e ce 37 10 3e 2e 7a 72 3e
       0.05047325 0.37623143 0.14083788 0.2367942
0000f0 ab cd 17 bd f2 db 21 3e f5 0f c9 bd 6b 6f c8 bd
       -0.037061375 0.15806559 -0.09817497 -0.09786876
000100 d7 a3 7b be c3 54 8e 3e da 64 3b bd 60 4f 76 3d
       -0.24574219 0.27799043 -0.045750476 0.06013429
000110 05 a8 3d 3e d8 d2 53 3e ce b3 95 bd f2 e3 1b 3e
       0.18521126 0.206859 -0.07309686 0.15223673
000120 35 3d 21 bd 28 40 c4 bd a0 84 1c 3e 19 a1 b0 3c
       -0.039365012 -0.09582549 0.15284967 0.021561192
000130 78 45 2e 3e e0 64 fe bd 72 fd 16 be a2 40 14 3e
       0.17018688 -0.12421584 -0.14745119 0.1447778
000140 8a 06 8f 3e 54 da 58 bd b0 80 6f 3c f6 fb 9f bd
       0.27934676 -0.05294259 0.014618084 -0.078117296
000150 49 e5 bb 3d 96 cb 91 be 6b ff 8f 3b 55 fc d3 3d
       0.09174592 -0.28475636 0.004394462 0.10350863
000160 f8 4e 33 be fb 4d d5 bd 4c 56 e0 3d be df 8d be
       -0.17510593 -0.10415264 0.1095396 -0.27709764
000170 ec 8b 99 bd 06 ec d8 3a be 3e 8d be 80 3f 37 bd
       -0.07497391 0.0016549833 -0.2758693 -0.044738293
000180 4c 8e c1 bb 3b 5f f4 3d 2d ef 0d 3e 2b 4c 47 3e
       -0.0059068557 0.11932226 0.1386077 0.1946265
000190 96 9c 83 be 56 65 91 3e 45 da 74 3d 8c 50 09 3d
       -0.25705403 0.28397626 0.05977847 0.03352408
0001a0 3a bf 9b 3c 47 56 53 bc 78 5b 2e 3e 1d 30 50 bc
       0.019012082 -0.012898988 0.1702708 -0.012706784
0001b0 81 ba ab 3d a7 1b ca bd 07 d8 b4 bd ee 15 16 bd
       0.08385182 -0.098685555 -0.088302664 -0.036642008
0001c0 e6 d2 29 bc b6 6c 14 3e 5e 70 27 3e c5 42 1f be
       -0.0103652235 0.14494595 0.16351458 -0.15552814
0001d0 68 b2 09 3d 3b 06 db bd 60 fb 55 3e 02 b2 8e 3e
       0.033617407 -0.10694548 0.20896673 0.27870184
0001e0 0b 95 e8 3c d6 95 31 3c 7c ce 35 be 5e dc 96 be
       0.028391382 0.010838946 -0.17754549 -0.29465002
0001f0 8e a6 0c be af 69 25 3e 6e c2 a3 3e 4c 80 87 3e
       -0.1373541 0.16153596 0.31984276 0.2646507
000200 27 b0 ad 3d 42 03 8c 3e fe ea 4b be d9 d3 6d bd
       0.08480864 0.27346236 -0.19913861 -0.05806336
000210 77 26 87 3e 19 88 12 bd 01 bd e8 3d 5d 86 89 be
       0.26396534 -0.035774324 0.11364175 -0.26860324
000220 71 8c 5b bd 21 04 ae 3d a7 83 e9 3e be 2c 31 bc
       -0.053600732 0.08496881 0.45608255 -0.01081389
000230 b7 c3 37 3e 64 34 80 bd 90 59 81 3e 47 96 3c bc
       0.17945753 -0.06259993 0.25263643 -0.011510438
000240 ce 64 1e 3d 35 3a 24 be 39 d2 cb bd bb 5a d8 bd
       0.038670354 -0.16037829 -0.09952206 -0.105641805
000250 40 f5 91 3e ce 03 7c be f5 ec f7 bc 85 a7 2b 3e
       0.28507423 -0.24610826 -0.030264357 0.16763122
000260 83 4c dd bc 7b e9 fc bd 06 45 96 bd 5f 82 79 be
       -0.027014023 -0.1234922 -0.07337384 -0.24366139
000270 07 12 3e 3c 71 8d 97 bd de 76 88 3d c0 a1 f1 bd
       0.011600978 -0.07400025 0.06663297 -0.117984295
000280 43 65 62 bd 9a cb 40 3d 49 78 81 3d d5 8e 1a 3e
       -0.055272352 0.04706917 0.06321771 0.15093549
000290 db eb cd bd 50 00 09 be d9 ea 32 3d 5b 2c 96 bd
       -0.100547515 -0.13379025 0.043681 -0.07332679
0002a0 c7 7d 19 3e 08 56 0a be d0 94 e1 3d 87 b1 9d bd
       0.14989386 -0.13509381 0.11014712 -0.07699876
0002b0 3f 00 3c 3e 82 40 7a bd 5b ad a4 3d d2 2a 5a bd
       0.18359469 -0.061096676 0.080408774 -0.053263493
0002c0 62 9c a6 3d 37 03 0b 3d 93 8c a7 bd 26 ef 1e 3e
       0.081352964 0.033938613 -0.08181109 0.15520915
0002d0 62 13 31 bd 34 de 4f be 45 28 6f bd 7b 2e 7b 3e
       -0.043231376 -0.20299608 -0.058388013 0.2452945
0002e0 d4 78 c7 bd 1d aa 3a 3c 36 47 ba 3d c3 57 4c be
       -0.09739843 0.011393097 0.09095614 -0.19955353
0002f0 29 f7 07 bd 96 fa d9 bd 43 36 fb 3c f2 aa 84 bd
       -0.033194695 -0.106434986 0.030665522 -0.06477918
000300 f7 9b a9 be 30 5a 47 3e be d4 6b 3d 3c f9 e1 3d
       -0.33126804 0.19467998 0.057575934 0.11033866
000310 40 33 17 be aa 45 87 3d e8 30 31 3d 33 2d 3a 3e
       -0.14765644 0.06605084 0.04325953 0.18181305
000320 98 f2 93 3e 29 16 86 3d 73 51 80 be a4 74 85 3e
       0.28896022 0.065471955 -0.2506214 0.26065552
000330 41 cb 39 3b 83 3e cb 3c 50 a5 c2 be 32 f2 b2 3e
       0.0028349909 0.024810081 -0.38016748 0.34950405
000340 2c 9c ff bc 41 d3 cd bd 46 24 bb 3e 05 0c b7 3d
       -0.031202398 -0.10050059 0.36551112 0.089378394
000350 4a 05 a9 3d 87 7c 60 be 27 26 3b 3d ac 95 6e bc
       0.08252962 -0.21922503 0.04569068 -0.014562052
000360 1d 8c b6 bc e8 01 8a 3e 92 d7 1b be 12 71 ec bd
       -0.022283608 0.2695458 -0.15218952 -0.11545004
000370 7b fc 8a be 25 d8 a3 3e ef 92 c1 3d 7d be 9e 3e
       -0.27145752 0.32000843 0.094518535 0.31004706
000380 68 d5 9b 3e 25 04 2a be 7b 51 ac 3e 02 c3 6f 3d
       0.30436254 -0.16603144 0.33655915 0.058535583
000390 58 94 8b be 75 9c 66 bc f2 1b 94 3d 08 e1 85 be
       -0.27261615 -0.014075388 0.07231893 -0.26148248
0003a0 b3 18 36 bc b3 d5 f0 3c 8c 27 cc bd 71 97 d1 bc
       -0.011114287 0.029398775 -0.099684805 -0.025584908
0003b0 b9 41 b2 bc 43 a7 72 3c 84 0f 74 be a9 44 73 3d
       -0.021759855 0.014810386 -0.23834044 0.05939165
0003c0 05 50 87 be 62 26 1b 3e 35 cd 3a 3e 4a b8 38 3e
       -0.26428238 0.1515136 0.18242343 0.1803905
0003d0 7f 42 6c be bf fb 1f bd 34 be d7 3d 67 62 9a be
       -0.23072241 -0.039058443 0.10534325 -0.301532
0003e0 a9 96 9f bd 24 60 4c bd 33 2c 8c bd 05 c3 f1 3d
       -0.07792408 -0.049896374 -0.06844368 0.11804775
0003f0 14 3c 18 be 28 f2 e3 3c ea ef ad 3e 6c 0f 4e be
       -0.14866668 0.02782543 0.33972102 -0.2012307

rnn.bias_ih_l0_reverse f4 [32]
000000 af e8 3a 3d 01 7b 35 be a0 c3 dd 3d 06 59 95 be
       0.04563206 -0.17722704 0.10828328 -0.29169482
000010 b9 b5 78 3d 1a 8c 8d bd 62 78 c0 bd f3 53 70 be
       0.06072018 -0.06911488 -0.09397961 -0.23469524
000020 68 65 71 be 17 62 89 3d 71 97 79 3d 51 b2 1f bc
       -0.2357384 0.06708162 0.06093544 -0.009747104
000030 3e f6 b8 3e c6 66 1e be e2 83 0c bd ab 79 13 be
       0.36125368 -0.15468892 -0.03430546 -0.14401881
000040 a4 b4 88 bd 14 fd 35 be 58 13 bc be e3 36 08 3e
       -0.066750795 -0.17772323 -0.36733508 0.13302188
000050 1b 98 09 bd 2a 5a 26 3e ab 5c 93 be 60 4b 87 3e
       -0.033592325 0.16245332 -0.28781638 0.26424694
000060 16 77 ad 3d 7a cf df be 09 69 55 3e 7c af bd 3d
       0.084699795 -0.4371298 0.20840849 0.092619866
000070 2f 57 86 3e 1c 4d 38 be 6a d3 8a 3c 2b 99 af 3d
       0.2623839 -0.17998165 0.016946513 0.08574136

rnn.bias_hh_l0_reverse f4 [32]
000000 18 74 49 3d dd 9c 77 be 9d 90 55 3d 82 00 8c be
       0.04918298 -0.24180932 0.052139867 -0.27344137
000010 82 59 f1 3d 5d 98 e1 bd 3d af 7e be 40 a0 c1 bd
       0.117846504 -0.11015389 -0.24871536 -0.094543934
000020 69 4e a8 be eb a9 71 3c 4d 9b c7 3d ae 41 96 3b
       -0.32872322 0.014749984 0.09746418 0.0045854663
000030 3a f0 77 3e cf b4 41 3d 1c cf 6f 3c e9 3e 3d bd
       0.24212733 0.047291573 0.014636781 -0.046202574
000040 f3 9a 4d 3d b6 a7 c2 bd b8 b3 c5 be a3 3d 7e 3e
       0.0501966 -0.095046446 -0.38613677 0.248282
000050 e2 97 1c bd 2a 05 28 3e cd 59 0b be d3 3e 85 3d
       -0.038230784 0.1640822 -0.13608475 0.065061234
000060 05 3d 03 bd 71 fb 0c be b6 35 b2 3d 13 f8 86 3d
       -0.032040615 -0.13767792 0.08701651 0.06590285
000070 d3 1a dd 3d c9 1c f8 bc e7 12 a3 3e af fc 09 bd
       0.10796132 -0.030287163 0.3185036 -0.033688243

fc1.weight f4 [12, 64]
000000 af bf 8d bd 70 b5 19 bf 3e 45 ad 3e ca 6b 16 bf
       -0.06921326 -0.60042477 0.3384189 -0.58758223
000010 13 0b 2a be 8c d0 03 bf b9 04 eb be c5 5d 26 3d
       -0.16605787 -0.5149009 -0.4590204 0.04061677
000020 f3 cd d9 bd ee e8 03 bf 9c 27 92 bd 47 34 7d 3e
       -0.10634985 -0.515273 -0.07136461 0.24726973
000030 90 cb 2f 3e 31 42 51 be 79 5b 8d be 6a a1 d6 bd
       0.17167497 -0.20435406 -0.2760885 -0.10480006
000040 5c a3 cf bd 31 99 18 bf 78 2c 89 3e 6a 32 45 3e
       -0.1013858 -0.5960875 0.2679174 0.19257513
000050 83 9e c8 3e 0e fa 05 3f 5a ac 27 bf 36 19 26 3f
       0.39183435 0.5233468 -0.6549736 0.6488222
000060 71 c3 27 3f 23 be 91 be 3b 00 08 bf 19 57 14 3d
       0.65532595 -0.28465375 -0.5312535 0.036215875
000070 75 87 e6 bc 8e 63 02 bf ee 84 c1 3e 66 13 b9 3e
       -0.028140763 -0.5093316 0.3779673 0.36147612
000080 20 50 b0 be 8a c7 6e be 90 3b 01 bf 81 86 72 bd
       -0.3443613 -0.23318306 -0.5048151 -0.059210304
000090 6e 08 93 be 71 53 87 be 86 38 ce be 33 37 82 3e
       -0.2871737 -0.26430848 -0.402775 0.2543274
0000a0 35 a6 b3 be e3 ed c2 3e 6b d8 5e 3e 00 51 7b be
       -0.35087743 0.38072118 0.21762244 -0.24542618
0000b0 42 d4 a8 3e 19 20 b6 3e e3 77 0b 3e 49 bc d3 bd
       0.3297444 0.35571364 0.13619952 -0.10338647
0000c0 c0 83 d5 3e 57 78 61 be 70 1f c5 bd e2 e9 90 3e
       0.4170208 -0.22018562 -0.09625137 0.28303438
0000d0 53 21 d7 be 6d a4 64 3e 2a d2 5e be 80 72 b2 3e
       -0.42017612 0.22328348 -0.21759859 0.34852982
0000e0 e6 2a bb be d6 55 92 be f4 f2 fa 3e fe f9 1d be
       -0.36556166 -0.28581113 0.49013484 -0.15427396
0000f0 3f d2 d6 3e e1 b7 98 be c1 cb bf 3c 1f 23 08 3f
       0.4195728 -0.29827788 0.023412587 0.5317859
000100 ca ec 81 3f 06 97 29 3f 96 a0 11 3f 5d 6b 42 3d
       1.0150387 0.6624607 0.5688566 0.04746567
000110 57 c6 73 3f f0 91 87 be 10 60 e4 be 3f 65 84 3e
       0.9522452 -0.2647853 -0.4460454 0.25858495
000120 f5 7c a1 3f c5 92 55 3f eb b7 fe bd 3f 46 45 bf
       1.2616259 0.8342708 -0.12437423 -0.7706031
000130 8b 0c a0 3e 5e df 83 3e 31 d8 4d be 9b 0c 71 3a
       0.3125957 0.25756353 -0.20102002 0.0009195299
000140 0e fb fa be 81 2b f4 be fd cb c9 be f8 22 82 bf
       -0.49019665 -0.4768944 -0.39413443 -1.0166922
000150 81 e1 fa 3d 57 f8 09 be 42 15 11 3f 28 25 30 bf
       0.12250043 -0.1347364 0.5667306 -0.68806696
000160 3a 27 12 be bd 99 c4 3f 4e f2 0d 3f 11 85 95 3d
       -0.14272776 1.5359417 0.5544785 0.07300771
000170 00 4b c3 be c4 7f 31 3e 89 e9 af be a7 ff 66 bf
       -0.38143158 0.17333895 -0.3435786 -0.90233845
000180 39 18 b5 3e 8b b3 8a 3f f3 19 02 3f 9a 1a e6 be
       0.35370043 1.0836042 0.50820845 -0.4494217
000190 a0 e9 15 be 50 42 98 3f 9e cd e2 be bb 6b 38 bf
       -0.14639902 1.1895237 -0.44297498 -0.72039384
0001a0 1a 9d 5e be e0 7c 97 bf e2 7d 4c bf 52 b6 9a be
       -0.21739617 -1.1834984 -0.7987958 -0.30217224
0001b0 f3 ae 18 be e2 c5 3a bf eb 7d 58 bf 38 d1 62 3e
       -0.14910488 -0.72958195 -0.84567136 0.22150123
0001c0 90 4b 8a 3e ac 02 7d 3f 1a 0a cd bd ec 37 6a 3e
       0.27010775 0.988322 -0.10011692 0.22872895
0001d0 21 5b 33 3f 47 b9 99 3b 9d 34 44 be 40 a7 81 be
       0.70060927 0.0046912762 -0.19160695 -0.25322914
0001e0 10 ee 34 3f cd 86 36 bf 7d f6 0a 3f c5 de 4e 3f
       0.70675755 -0.7129944 0.5428236 0.8080867
0001f0 d0 82 1e 3f c0 6a d6 bd 7c d5 8e 3f 40 03 1b 3e
       0.61918354 -0.1046958 1.11589 0.15137959
000200 69 77 01 3f a0 32 85 be 74 30 7d bf d5 84 2d bf
       0.5057283 -0.26015186 -0.9890206 -0.6778081
000210 3e f1 a2 3e 38 e7 88 3f a3 c4 09 bf ab 2a 24 bf
       0.31824678 1.0695562 -0.5381567 -0.64127606
000220 5d 07 ee be 5d 86 f7 bd 1c 73 84 3f 8d 44 37 3f
       -0.46489993 -0.12086175 1.0347629 0.71588975
000230 b0 a3 ad bf 48 b4 83 3e de 89 e1 3f fc e2 15 3f
       -1.3565578 0.2572348 1.7620199 0.58549476
000240 52 26 82 3e 63 f7 b6 bd 20 d7 03 bf c0 a8 59 be
       0.2541986 -0.08933904 -0.5150013 -0.2125578
000250 ea 51 24 3e 81 98 8d bf 47 37 cd be 02 1a ea 3e
       0.16046873 -1.1062165 -0.40081236 0.45722967
000260 65 0d 1c 3d d0 4d 83 3f 8f cf 03 3f 36 6f b3 be
       0.03809871 1.0258121 0.51488584 -0.35045785
000270 1e dc d6 be 66 67 46 3f 51 9d ae 3e 1d 43 b1 3e
       -0.4196481 0.77501523 0.34104398 0.34621516
000280 4e 42 10 3f 99 38 b6 be 85 ce 3a bf 2d 60 f4 3e
       0.5635117 -0.35590056 -0.72971374 0.47729626
000290 32 ef 3b 3f d1 45 93 3f a1 94 72 be 25 3a 87 3f
       0.7341186 1.1505681 -0.2368951 1.0564619
0002a0 3e 55 4d 3f 2d d4 c4 bd 72 f3 45 3f cf f8 b1 bd
       0.80208194 -0.09610782 0.77324593 -0.086900346
0002b0 52 d6 67 bf 5d 0a 86 bf 6c 0d 92 3e 2a 1a ae 3f
       -0.905614 -1.0471913 0.28525865 1.3601735
0002c0 03 3e 97 be 73 48 8c 3f 18 37 92 3d 9d 84 f3 bd
       -0.295395 1.095961 0.071394145 -0.11890528
0002d0 0e 8c b2 be 2c cd 3c bf a2 25 f4 3d 76 57 77 bf
       -0.34872478 -0.7375057 0.119212404 -0.9661783
0002e0 86 1a 42 3f e6 64 20 bf b2 a2 ea 3e 56 d4 34 bf
       0.7582172 -0.6265396 0.45827252 -0.706365
0002f0 5e 78 8a 3e d1 05 18 be 81 b6 27 3f 82 95 11 bf
       0.27044958 -0.14845969 0.65512854 -0.56868756
000300 8b e1 5c 3f 3e b0 05 3f 65 51 4c 3e 04 9b e2 3e
       0.8628165 0.5222205 0.19952925 0.44258893
000310 37 3a a1 be ff d1 b2 3e 9f 5a e4 be 88 39 b5 be
       -0.31489727 0.3492584 -0.44600388 -0.35395455
000320 ca 54 34 3f a4 71 ed 3e 66 78 30 be 91 ea fc be
       0.7044188 0.46375763 -0.17233428 -0.4939771
000330 f5 03 f3 3d 37 aa 6d bf 45 51 90 3f 94 2b 8d 3f
       0.11865989 -0.9283785 1.1274801 1.1028924
000340 97 df be bd c8 1e d2 be 1f 44 a1 3d b2 0b d2 be
       -0.0931999 -0.4103911 0.07874321 -0.41024548
000350 73 6f 44 bf 3f bf eb be b1 eb 22 3f c5 f6 0c 3f
       -0.7673256 -0.46044347 0.63640887 0.5506404
000360 75 8d 16 bf 92 f3 8a be e9 57 d9 3e f2 e7 5b 3f
       -0.58809596 -0.27138954 0.42449883 0.85900795
000370 eb 77 4d 3f ef dd 07 be 0f b0 a2 3d bd cd 03 bf
       0.80261105 -0.13268255 0.07943737 -0.51485807
000380 df 7f 0e 3f 81 be 30 be df f8 5c 3e 26 0c 9c 3f
       0.55663866 -0.17260171 0.21579312 1.2191207
000390 fa ad 02 3f df 86 13 3d 42 04 4f 3f 59 72 25 be
       0.5104672 0.036017295 0.8086587 -0.16156901
0003a0 f4 4a 7b 3d 77 9e 41 3e ca f2 45 3f 4c 8b 4a be
       0.061350778 0.18908106 0.7732359 -0.197797
0003b0 aa 08 f1 be e6 fa f6 3e 19 99 7a bf f0 01 f8 3d
       -0.47076923 0.48238295 -0.9788986 0.121097445
0003c0 34 d2 5e 3f 57 0d 34 3f 5d 2c ab 3f e1 8a 66 bf
       0.87039495 0.70332855 1.3372914 -0.9005566
0003d0 ad 1c 62 be 47 a4 e6 bd 7b f6 9d bd e0 85 05 be
       -0.22081251 -0.11261802 -0.07713028 -0.1303935
0003e0 02 9a 2a 3f ec e7 0c bf 3d 76 3f bf 3f cf cf 3e
       0.6664125 -0.55041385 -0.7478979 0.40587804
0003f0 11 8e e2 be 78 a8 60 be 3f da 0d bf 36 ce 29 3f
       -0.44249013 -0.21939266 -0.5541114 0.6633028

fc1.bias f4 [12]
000000 72 cb 6b 3c 0d 37 df 3d a0 c0 8d be d5 9c 03 bf
       0.014391767 0.10899172 -0.27686024 -0.5141118
000010 37 e3 b6 be 4f 5a a7 be 48 f7 8f be ce 7d 3c bf
       -0.35720226 -0.32686087 -0.28118348 -0.7362946
000020 f4 69 c0 be 39 b8 97 be 38 74 4d be ac 89 36 bf
       -0.37580836 -0.29632738 -0.20063865 -0.7130382
