src/src_learner/python3_finetuning_model.pt (torch, 99780 bytes, 11 tensors)

word_embeddings.weight f4 [102, 128]
00000000: fb3c bfbf c487 31bf b216 1abf d1bc cebf
00000010: deb1 c3bd 3afb efbe 079c 86bf 5a9c c5bf
00000020: 4905 55bf 984d 813e 5c9c 49bf 2e16 a3be
00000030: a6f9 17be 0e33 d83f d4ba c83e 4685 e23e
00000040: 6ce0 30bf 5407 91bf ea70 2d3f 820a 1d3e
00000050: d985 573f a97a 483e 8e06 1cbf b890 603f
00000060: 97d5 943f ed3c 99be b3df 0cc0 a00a c1bf
00000070: 2578 5b3c 24e8 2ebf 1882 62bf 9bb3 d4bd
00000080: 70ce f83f da92 85bd 8b58 8a3e 4215 5cbf
00000090: b4b8 963e 17e8 023d 4c02 3b3e fa40 f1be
000000a0: 4b5a ccbd 8379 b23e 7094 12be d4b5 a6bd
000000b0: 16ce 1c40 fc01 80bf 184a c03f bfd7 0cbf
000000c0: a92b 69bf d378 223f b007 063d 0782 c4be
000000d0: fad0 3b3f 060b 013f f398 a73f e40a 0240
000000e0: b997 ab3d 8f64 6b3f 6818 44be 0864 19bf
000000f0: c1fd c63f 41c8 7abf 9d52 57c0 5b05 40bf
00000100: 5fc3 e5bc 6a5f 8abf b4af 1abf 9ca1 7ebf
00000110: afec cbbd f3fe caba 32de d23f 6793 593d
00000120: d13b 49bf 10ce 80be 8e0b 7ebf 1039 4abf
00000130: 03e6 0abf 18e6 02bf 157e a23e efbb 76bf
00000140: 01d5 d9be 549a 0c3e 3d89 15bf 0ac9 483f
00000150: 6a8d aabf 63bf 03bf 53ca 463e a380 60be
00000160: 462f a13e 03a4 e6be f61e 85bf 940d 3b3f
00000170: fc07 94bf df72 15bf 8be5 df3e 759e f23f
00000180: 02a4 323f da95 973f c020 593f eea5 6cbf
00000190: 968b b53f aa3c 47bf 1a48 82bf 518c 9a3f
000001a0: 1b57 ad3f 9f35 0c3f bb0d 0bbe 6b5c 5c3d
000001b0: 15de 01c0 2b29 2cbf 10e0 cabf 51dc 8fbf
000001c0: c839 6e3f 6805 fdbe 20de a03f 883f 473f
000001d0: 9644 b83e 3da6 8d3e 69cf 043f 3b27 07bf
000001e0: 2900 2240 7fae 89be a9b1 f13b 3849 e03f
000001f0: 66fe 06c0 6c7b e73f 44d2 c73d 3bf0 bd3e
00000200: 865d 363f 9764 e3bf bd2d b53e ed8c 993f
00000210: 7a22 9bbe 0784 e1bf 2d85 223f 7aea 4dbf
00000220: e938 cebf 0391 efbf 8707 0b3f 3c22 293f
00000230: bfe4 1240 a3c6 2c3f 1f4e db3f c0aa e5bf
00000240: 8a7f aebf 48b4 7bbf 3071 c13f a451 243f
00000250: 5028 f23e 2970 dbbe a226 0d3f 4010 c6bf
00000260: ffa2 043f 352f da3d edd9 893e ff91 a93f
00000270: 8e7d df3f a06f ed3f 9bd4 34bf 4da7 2340
00000280: 0ec7 d53e e8d2 59be 7d07 57bf 950c d7be
00000290: d8c0 1fbf 1430 7abf b3f5 5f3f 79be 7c3f
000002a0: ca80 9e3e f8a5 c23f 1b45 9a3f 4965 e8bf
000002b0: 8392 cebe 898a 75bf 63a5 aabb ff82 a1bd
000002c0: baf9 573f b335 953f 07e5 063f b143 cf3f
000002d0: 26c7 76bf b8ea 103e bd96 27be f368 b7be
000002e0: a673 dc3f 436e 9bbe 709b 743e 3b08 ac3f
000002f0: fe67 d33d 68d8 8c3f b5f0 aebe cd84 723f
00000300: 438a 11bf b46c 563f fe4e e43f 671d 48be
00000310: 8bd1 033f 257a ecbf e9ab 3ac0 883c 11bf
00000320: 5791 0abf 202a 653f fbeb 61bf c824 083f
00000330: 07dc c5bf 8275 31be 5a6e 3a3f d1b8 693d
00000340: facf 673f fdec 853f d845 05bf 8e69 ad3f
00000350: 78d6 703e ed05 f53f 850f eb3f 478a a93f
00000360: fc10 78bf 9f35 a03f e7eb 9a3f ce25 07bf
00000370: cecf 5f3e cd05 13bf 1383 ba3f adae e23f
00000380: 6030 d33f b42f ddbe 0ac4 8abe 7b36 b8bf
00000390: 059f 9f3f 8e0d a33f 802a c83e 7440 c63e
000003a0: 3d7d a3bd 7df6 ae3e 59e6 723f d024 b1bf
000003b0: dcae dc3f 5058 17c0 1ef3 6dbf 0e56 963e
000003c0: 924b 5c3e 283f 703f 4f9c bb3f 1b75 0ebf
000003d0: e3ad 3ebf 4d02 4fbe 102e 6bbe 3e80 ae3a
000003e0: 2a24 c03e dec0 14bf d582 12bf 6c3e 813f
000003f0: b55e d8bd 4700 97bf a7ea b9bd 4328 103f
-1.4940485 -0.69347787 -0.6019088 -1.6151372 -0.0955541 -0.46871358 -1.0516366 -1.543834
-0.8321119 0.25254512 -0.7875421 -0.3185286 -0.14841327 1.6890581 0.3920504 0.44242305
-0.6909244 -1.1330361 0.6775042 0.1533604 0.8418861 0.19578041 -0.609475 0.87720823
1.1627682 -0.29929295 -2.2011535 -1.5081367 0.013395344 -0.6832297 -0.8847976 -0.103858195
1.9438 -0.0652215 0.27020678 -0.85969937 0.29437792 0.03195962 0.18262595 -0.47119886
-0.099781595 0.3485833 -0.14314437 -0.0814015 2.4500785 -1.0000606 1.5022612 -0.550167
-0.91082245 0.63465613 0.032722175 -0.38380453 0.7336575 0.50407445 1.3093551 2.0319147
0.08378548 0.91950315 -0.19149935 -0.5991826 1.554619 -0.97961813 -3.3644173 -0.7500817
-0.028047262 -1.0810368 -0.6042435 -0.99465346 -0.09957253 -0.0015487358 1.6474059 0.05311909
-0.786069 -0.25157213 -0.9923638 -0.7899332 -0.5425722 -0.51132345 0.31736818 -0.96380514
-0.42545322 0.13730747 -0.58412534 0.7843176 -1.3324406 -0.5146391 0.19413118 -0.21924071
0.3148138 -0.45047006 -1.0400074 0.73067594 -1.1564937 -0.58378404 0.43729815 1.8954607
0.69781506 1.1842606 0.848156 -0.9244069 1.4183223 -0.7782694 -1.0178254 1.2074071
1.3542207 0.5476932 -0.13579457 0.053799074 -2.0291798 -0.6725032 -1.5849628 -1.123911
0.9305692 -0.49418187 1.2567787 0.77831316 0.35989827 0.27665892 0.5187898 -0.52794236
2.5312598 -0.26890942 0.007375915 1.7522345 -2.1092772 1.808454 0.09756902 0.37097344
0.71236455 -1.7765073 0.35386458 1.1996132 -0.3029974 -1.7618417 0.6348446 -0.8043591
-1.6111118 -1.8716129 0.5430836 0.6606786 2.2952116 0.67490596 1.7133216 -1.7942734
-1.3632672 -0.9832196 1.5112667 0.64187074 0.4729638 -0.4285901 0.55137074 -1.5473709
0.5181121 0.10653535 0.26924077 1.324768 1.7460191 1.854969 -0.7063691 2.5570862
0.4175343 -0.2127186 -0.839958 -0.42001787 -0.6240363 -0.9772961 0.8748428 0.9872814
0.30957633 1.52069 1.2052339 -1.815591 -0.40346155 -0.9591451 -0.005207704 -0.07886314
0.8436543 1.1657013 0.5269322 1.6192533 -0.96397626 0.14152038 -0.16366096 -0.35822257
1.7222793 -0.3035756 0.2388742 1.3440012 0.10322569 1.1003542 -0.3416802 0.9473389
-0.56851596 0.8375962 1.7836607 -0.19542466 0.5149161 -1.8474776 -2.9167426 -0.5673299
-0.5412802 0.895174 -0.882507 0.53181124 -1.5457772 -0.17329982 0.72824633 0.05706102
0.9055172 1.0462948 -0.520597 1.3547838 0.23519313 1.9142433 1.8364111 1.3245324
-0.96900916 1.2516364 1.2103242 -0.5279206 0.21856615 -0.57430726 1.4571251 1.7709557
1.6499138 -0.43200457 -0.2710269 -1.4391626 1.2470404 1.2738512 0.39094925 0.3872105
-0.07982872 0.3417243 0.9488273 -1.3839359 1.7240863 -2.3647652 -0.9294909 0.2936253
0.21513203 0.9384637 1.4657077 -0.5564744 -0.7448408 -0.20215721 -0.2296679 0.0013313366
0.3752759 -0.5810679 -0.57230884 1.0097175 -0.10564939 -1.179696 -0.090779595 0.56311435

rnn.weight_ih_l0 f4 [32, 128]
00000000: 204f 8dbc 79dc aebc df69 c9bd 346e 32be
00000010: 74c1 893d db50 22be bac9 37be 2fb6 c93b
00000020: 2e2c 9cbc b326 913b 0994 0d3d 6260 723e
00000030: f056 9f3c 6413 0d3e 8219 b9bd 2447 bf3d
00000040: fb70 35be c515 f33d a333 da3d 01aa 163e
00000050: 0a68 053e f151 123d 4acc a9bd 6b0e bf3d
00000060: b5dd a33d 3f7f 243d 7fe6 c63c 57c3 22be
00000070: e784 35be 4240 bfbd 0412 783d c682 34be
00000080: 4308 33be 4245 a83d bc8d e9bd 774d 233d
00000090: af30 d33d 6c3a 03be efa2 9f3c 94f1 db3d
000000a0: 750b 45be d342 0a3e 9773 85be b95f 673c
000000b0: d230 d03d 080f d23d 3157 763c 9e02 47bd
000000c0: 9edc 4c3e 55c9 7fbe 1d8d 043e c8e9 3dbe
000000d0: 2a6a 3c3e 0b91 8bbd 0642 08be b704 9c3c
000000e0: 212d 5f3e 1d4d 3cbd 92e2 d6bb 547f 243e
000000f0: 82bb 043e f928 433d 8352 acbd 7653 113e
00000100: 18fa 053e 7e63 96bc 7b88 1fbe d199 dc3d
00000110: 84e6 83be 0025 cb3d 4ad2 52be ce93 5cbc
00000120: 7799 a0bb ed88 8dbd 2d4f b4bd 05a5 91bc
00000130: f9cc e43d f0a6 e1ba 323f 163e 3bd7 86bd
00000140: bad5 3cbe 900e 94bc 9c01 25be 5568 e6bc
00000150: 3e56 9c3d 749b cfbd 3963 3d3e 83de 323e
00000160: 1667 fd3d 547d d83d 1e71 bebd b499 613e
00000170: 54cd 923d 0712 e73c 3f5d 0e3d 7c16 27bc
00000180: b046 24bd 02d5 1cbe 29c1 513d 1168 13be
00000190: 8692 d939 0a55 e5bd ce70 b5bd 172e 23be
000001a0: fcb9 733c 4f9e 003e 74af 853d 1c5f 6d3d
000001b0: 316a 3b3c 83be 613e 19b5 4abd 82dd 89bd
000001c0: 9322 3bbe 2c1f a93d 7045 30be 1250 643d
000001d0: c8a3 1dbe 622f da3d c43e 673d cfd1 1c3e
000001e0: 74cf debd 4889 7b3d 7dfb 9dbd 7f4c 423e
000001f0: e6bf d2bd 5525 033e a7de c13d dacb 0fbe
00000200: 611f 9fbd c8f8 343c 6688 97bd 631c 293e
00000210: 6e6b e53d 3fbb 14be b785 9d3d f15b f1bc
00000220: fb33 26bc 1677 193e 33a8 0b3d a9e1 973e
00000230: 98ce 043d ff6a 84be dbc2 1cbe a338 de3b
00000240: 7dc3 2f3d 0806 1d3e 7ef1 ca3d 16d1 9abd
00000250: d3d2 9fbd 07d8 333e 5b6d 04bd f199 613d
00000260: 963c 35be cc06 1dbe 5d25 863c 2b7b 07bd
00000270: 844c e7bd 4641 b3bd 3e04 7a3e 3fcf 0a3d
00000280: 0fa6 7dbd 35ca e3bd b268 4bbe 14c6 a9bd
00000290: 1619 4cbd dcef 413e ca22 033d a5a9 f93c
000002a0: 9b1f e4bc 4be4 0a3e 9645 4d3e 0bdd 19be
000002b0: e757 febd c805 7d3d 257c c33d 7a79 00bd
000002c0: e3ac 67bd 0c8e afbd ee50 433d 2a20 25bd
000002d0: ea06 47bd 2aff 0b3c 0fe9 9cbd 1e4e f8bd
000002e0: c2de b3bd 8b4f d93c 6eb5 413e e9b9 603e
000002f0: 0e3f c03c 85cd f63d 0d6b 913d c37d ad3d
00000300: 5e67 dc3d eb4f 90bd 2ae6 3c3e c866 813d
00000310: 996c c93d ca91 f5bd ec81 c83d 138a f83d
00000320: e423 69bd f1e8 64be 1e28 643d c3de 173e
00000330: d442 12bc f069 083e 64fb a5b9 739c 2f3e
00000340: 01f9 df3d 673f 1e3c 98bb e3bd 9026 d8bd
00000350: 9dfc b03d cb20 b9bd 2b24 ebbc 2919 d9bc
00000360: b6b8 13be d4d2 363e 6373 5d3e 2333 2f3e
00000370: 865f 653e eb31 1e3e a1a9 e33d 53d0 dfbc
00000380: b081 703e b736 7bbb 5514 ba3d 2217 a23d
00000390: 7950 383c 9f00 fdbd 881c 4f3e 5ec6 2bbe
000003a0: 03df b7bd 6e5b 123e c3b0 d9bb b87d 75bd
000003b0: bd1e eebd c655 b83d aa72 953d 571a 85bd
000003c0: 020a 493d 46d3 a73d 4053 76bd cbd3 6a3d
000003d0: 7a79 bb3c 684e 343e 6e6a 15bc e6e1 133e
000003e0: 2886 6e3d 66bb b9bd 99a6 ab3d 9f93 193e
000003f0: cc58 44be 43bc 8a3e edc4 9dbd b1ef 34be
-0.017249644 -0.021345364 -0.098346464 -0.17424852 0.067263514 -0.15851156 -0.17948046 0.006155751
-0.019064035 0.004429662 0.034565005 0.2366958 0.019450635 0.13776928 -0.09038068 0.09339741
-0.1771888 0.118693866 0.1065438 0.14713289 0.13027969 0.035722677 -0.08290918 0.09328922
0.08001272 0.040160414 0.024279831 -0.15894829 -0.1772648 -0.09338428 0.060564056 -0.17628011
-0.1748362 0.08216335 -0.11403987 0.039868798 0.1031202 -0.12815255 0.019486872 0.10739437
-0.19242652 0.13502054 -0.2606475 0.014121943 0.10165562 0.10256773 0.0150354365 -0.04858648
0.20006034 -0.24979146 0.12944455 -0.18546212 0.18399873 -0.06814774 -0.13306436 0.019045217
0.21794559 -0.04597198 -0.006557771 0.16064197 0.12962154 0.047646496 -0.08414175 0.14191994
0.13083684 -0.018357988 -0.15579407 0.10771526 -0.25761807 0.099191666 -0.20588031 -0.013462974
-0.004901107 -0.06910882 -0.08804164 -0.017778883 0.11171908 -0.0017215889 0.14672545 -0.06584021
-0.18440905 -0.01807335 -0.16113895 -0.028125921 0.07633637 -0.10137072 0.18494882 0.17467694
0.12373178 0.105707794 -0.09298919 0.2203129 0.071680695 0.028206838 0.034756895 -0.010198232
-0.040106475 -0.15315631 0.051209603 -0.14395167 0.00041498634 -0.111978605 -0.088594064 -0.1593555
0.014875885 0.1256039 0.06527606 0.05795203 0.011438892 0.2204533 -0.049489114 -0.067317024
-0.18274908 0.08257899 -0.17213988 0.055740424 -0.15394509 0.10653569 0.056456342 0.1531441
-0.10879412 0.06141022 -0.07713983 0.18974493 -0.10290508 0.1280721 0.09466296 -0.14042607
-0.07769657 0.011045642 -0.07399063 0.16514735 0.11202131 -0.14524554 0.0769152 -0.029462786
-0.010144229 0.14986834 0.034095954 0.29664353 0.032423586 -0.25862882 -0.15308706 0.006781654
0.04291104 0.15334332 0.09909342 -0.07559411 -0.078038834 0.17562877 -0.032330852 0.05507845
-0.17698893 -0.15334624 0.016375238 -0.033076447 -0.11293891 -0.08752684 0.24415681 0.03388905
-0.061925944 -0.11122552 -0.19864157 -0.082897335 -0.04982861 0.18939155 0.0320156 0.0304764
-0.027847102 0.1356365 0.20046076 -0.15025727 -0.1241911 0.06177309 0.09545163 -0.03136585
-0.056561362 -0.08572015 0.047684602 -0.040313877 -0.04859058 0.008544723 -0.0766164 -0.12124275
-0.08782722 0.026527187 0.18916866 0.21945919 0.023467567 0.120509185 0.071004964 0.08471253
0.10761903 -0.07046493 0.18447176 0.06318432 0.098351665 -0.11990698 0.09790406 0.121357106
-0.056918994 -0.22354485 0.05570232 0.1483107 -0.008927066 0.13321662 -0.00031658553 0.17149524
0.109361656 0.009658671 -0.11119765 -0.1055423 0.08641932 -0.09039458 -0.02870377 -0.026501255
-0.1442593 0.17853862 0.21626048 0.17109351 0.2239972 0.1544873 0.111163385 -0.027321016
0.23486972 -0.0038332173 0.09085909 0.079145685 0.011249655 -0.12353634 0.20225728 -0.1677489
-0.08978083 0.1429269 -0.006643386 -0.059934348 -0.116269566 0.09000735 0.07297261 -0.064991646
0.04908181 0.08194594 -0.060137987 0.057330888 0.022885073 0.17608035 -0.009119613 0.14441642
0.05823341 -0.090689465 0.08381385 0.14997719 -0.19174498 0.27096757 -0.07703576 -0.1766956

rnn.weight_hh_l0 f4 [32, 32]
00000000: d7ee 6dbe c7ae 623e f9f2 b43e 7fb1 b83d
00000010: d32b 563d bb79 94bd cc49 8dbe 1d2e 7b3e
00000020: e435 fe3d 0f03 5a3e 248d 47be 14da 483e
00000030: 0874 ce3d 79a7 a43d 4361 29be 1998 6b3e
00000040: 8cf7 ae3e f7de c8bc 0faa 0a3c e718 393d
00000050: 3d24 523e 40f8 113e 0342 8cbd 6c71 893d
00000060: f226 223e c2a9 953d 1ccd ce3e cd84 bebe
00000070: 4894 cfbe e87c 913e 8b07 2abe d887 a9bc
00000080: befb 8c3e 300a 4d3c 046b b33c b89c 123e
00000090: e5dd 6ebc c924 003e 563b 913c 8cb8 df3e
000000a0: 0b45 74be f598 ad3b 077b ae3d 2da6 32bb
000000b0: 522c 93bd c842 193e 28c0 ec3d 3f3a 6a3e
000000c0: 8690 81be 27a5 04be 99bc 553e 190a 9abe
000000d0: 2d4f 60be 45b1 2f3e 225a ab3d 3d0e 103e
000000e0: fa5f 5c3d 5090 6ebb 2816 95be a6f3 913e
000000f0: ef45 b13d b636 753d 5691 0cbe 23b9 4b3d
00000100: 1db0 67bc 677d 46bd 4ce1 d4bd fbf6 703d
00000110: e794 203e 2791 853b 0b54 de3d 527f 8dbd
00000120: e8b0 6e3c d8c1 d7be e7fb 7abd 2ee7 04bf
00000130: 0762 523d b5ef ee3b 557f 00be 574d 0fbe
00000140: 74d9 97be 420c 72be e156 8abe f98e 8b3e
00000150: 5df1 05bf a7b9 313d a149 0c3d 91d8 8a3d
00000160: db4b 69be 4710 0dbe c959 a4be 1a28 1dbd
00000170: 8771 afbe 4525 4dbe 59c7 623e 4908 573d
00000180: 0b1d 13be 541a dfbc 20a8 7c3e 12c4 9f3e
00000190: 2e8a d1bd 94b4 583e 02c1 35bd e69b d43e
000001a0: 3e4c bbbe 0f88 1fbc aed3 f23d 3624 79bc
000001b0: 10b7 ffbd b82e 363e ebfa edbc 89a9 ed3e
000001c0: 1e1a 06bf 51d0 49bd 4bea 043e 7881 ddbd
000001d0: 0c49 fd3d aa09 85be 1075 173e 3d24 4fbe
000001e0: ad8b 8b3d efb8 663d 2809 64be 7182 89bc
000001f0: f6bb a2bd 8306 26be f35f 9ebd d475 de3d
00000200: d118 363d 64e1 093d 8423 75be 215b 283e
00000210: e1b7 943c b272 ee3d 4477 34be 918e 8abd
00000220: 6039 df3c 5863 b8bb b3af f6bd 532b 0abb
00000230: 14d3 88bd 30ac af3d b003 1e3e 15a7 d6bd
00000240: b6f3 b6bb 5515 dd3d 24e3 e5bd 995f eebc
00000250: b56c 893c 9858 033d 081f a73d d22a e63d
00000260: 7edd 863d bdda 51be 7d12 89be 031c 07be
00000270: ae69 57be 935e ab3d dbf5 833d c31c d83d
00000280: 9579 9b3d f959 05be 3d8c 96bd 71b9 c03e
00000290: 1c73 8a3d 895e 393b efe7 623c b396 7f3e
000002a0: e5b2 86be 0ad4 ffbd 612b 3f3e f72c 713e
000002b0: 8700 20be 614e 403e bcbe bdbd 65c0 1f3b
000002c0: 7fb5 9dbe d4b4 ce3d 80f1 ef3d c018 8abe
000002d0: ac4d b93d 2383 eebd 1167 9b3d fc05 8bbd
000002e0: 8374 8dbd 54bd 31be b384 95be cf6b d83e
000002f0: 0649 ff3d cc51 8abe 51af 66bd ef4f b0bd
00000300: 6717 e93e e762 853d a1d5 ecbd 55e6 ab3e
00000310: 7436 c13b 3cc0 073d 81a0 803e 724a 0c3f
00000320: ce04 3cbe c661 373e 0b72 3d3e 9d1a e4bd
00000330: 3732 15bd 50ee c3bd ddd7 123e 3321 2b3e
00000340: b0ec 60be 4903 a8bd a29a 523e eec5 8cbe
00000350: b3d5 f93d ce2a f8bd b3c6 18bd 7f6a 9cbd
00000360: 6c25 37bd 5c0f c43d 3dd9 b5be ca44 f43e
00000370: d63b 553e 81c3 16be 1635 093e 5d82 683d
00000380: 4de3 acbe 37f7 5a3e 7b33 953e 9537 46bd
00000390: f880 863e bdee 163e 7df3 113e 7134 2d3d
000003a0: b656 ddbe f1b6 cabd 410b 683c 0e47 36be
000003b0: 445f 76be 6e23 e93d 4b75 b53d 6705 40bd
000003c0: 144c 77be a6e5 613e 0dca 143d 6c3b 0bbe
000003d0: f188 77be ee8b 67be dd7d 75be 2b90 63be
000003e0: b91e bd3d 3c24 21bc 1f90 aabe f0a1 77be
000003f0: 8e8d 69be d73e 8abe 06aa 0a3d 9035 a3be
-0.23235641 0.22136985 0.35341623 0.0901823 0.052287888 -0.07249781 -0.27595365 0.2452931
0.124126226 0.2129023 -0.19487435 0.1961444 0.10080725 0.080397554 -0.16541009 0.2300724
0.34173238 -0.02452038 0.008463397 0.045189764 0.20521636 0.14254856 -0.06848528 0.06711087
0.15835169 0.07307769 0.4039086 -0.37210694 -0.40542817 0.28415608 -0.1660444 -0.020694658
0.27535814 0.012514636 0.021901615 0.14317596 -0.014579271 0.12514032 0.017728489 0.43695486
-0.23854463 0.005297775 0.08519559 -0.0027259693 -0.07186188 0.14966881 0.115600884 0.22873782
-0.25305575 -0.12953626 0.20872726 -0.3008583 -0.21905203 0.17157467 0.08366801 0.14067931
0.053802468 -0.0036401935 -0.29118466 0.28506202 0.08655917 0.05986663 -0.13727316 0.049737107
-0.01414111 -0.048459437 -0.103945345 0.05882929 0.15681802 0.0040761414 0.10855874 -0.0690905
0.014568545 -0.4214008 -0.06127539 -0.5191525 0.051363017 0.007291759 -0.12548573 -0.13994347
-0.2965809 -0.23637488 -0.27019408 0.27257517 -0.52321416 0.043389942 0.034249905 0.06779588
-0.22782843 -0.1377574 -0.3209975 -0.038368322 -0.34266302 -0.20033748 0.22146358 0.052498136
-0.14366548 -0.027234234 0.2467351 0.31204277 -0.10231434 0.21162635 -0.04437352 0.4152519
-0.36581606 -0.009737029 0.11856781 -0.015206387 -0.12486088 0.1779126 -0.029050311 0.46418408
-0.523836 -0.04927093 0.1298 -0.1081571 0.12367448 -0.25983936 0.1479075 -0.20228668
0.068137504 0.05632871 -0.22269118 -0.016785832 -0.07946007 -0.16213422 -0.077331446 0.10862318
0.04445726 0.033662215 -0.2393933 0.16441013 0.018154087 0.1164297 -0.17623621 -0.06765474
0.027249038 -0.005627077 -0.12045231 -0.0021082952 -0.06680885 0.08577764 0.15431094 -0.10481087
-0.005583252 0.107950844 -0.11224964 -0.029098319 0.016775468 0.03206691 0.081602156 0.11238636
0.06585215 -0.20493598 -0.26771918 -0.1319428 -0.21036407 0.08367648 0.064433776 0.10552361
0.07591549 -0.13022603 -0.07350967 0.3764148 0.067602366 0.0028285107 0.013849243 0.24959831
-0.2630836 -0.12491615 0.18668891 0.23552309 -0.15625201 0.18779899 -0.09264895 0.002437615
-0.30802533 0.10093084 0.11715984 -0.26972008 0.09048018 -0.11646106 0.07588018 -0.06788251
-0.069069885 -0.17357379 -0.29202804 0.4226975 0.124651 -0.2701553 -0.05631954 -0.08608996
0.45525667 0.06513005 -0.11564184 0.33574167 0.005896384 0.033142313 0.25122455 0.54801095
-0.18361208 0.17908391 0.18500535 -0.111378886 -0.03642484 -0.09566939 0.14340158 0.16711883
-0.21965289 -0.082037516 0.205668 -0.27494758 0.12198963 -0.12117539 -0.03729887 -0.076375
-0.044713423 0.09573242 -0.35517302 0.47708732 0.20823607 -0.14723016 0.13399157 0.05676495
-0.33767167 0.21383367 0.2914084 -0.04839285 0.2627027 0.14739509 0.1425304 0.04228634
-0.43230218 -0.098981746 0.014162839 -0.17800543 -0.24059778 0.11383711 0.088602625 -0.046880152
-0.24150115 0.2206026 0.036325503 -0.13596886 -0.24173333 -0.22611973 -0.23973794 -0.22222964
0.092343755 -0.009835299 -0.3331308 -0.24182868 -0.22807905 -0.27001068 0.033853553 -0.31876802

rnn.bias_ih_l0 f4 [32]
00000000: 4ce5 4d3e 1236 bcbd 7006 d23d 19cd adbd
00000010: 656b c6bb a720 ecbd cc44 16be b122 a3bd
00000020: 38c0 fb3d aec9 26be 7d34 ba3a a64f 61bc
00000030: 3161 273d 717e 7cbe a306 81be 6f55 9dbe
00000040: 9a32 d43b da73 f3bd cd81 babd 7095 533e
00000050: c5be ff3d 52de e93d d268 e73c 71c8 1d3e
00000060: 1d50 fdb9 bc44 733d e9b5 4fbe 1ba0 88bd
00000070: 1816 72be d088 06be 1c4c d7bd daf5 273d
0.20107001 -0.091900006 0.10255134 -0.08486385 -0.006055283 -0.115296654 -0.14674681 -0.07965601
0.12292522 -0.16287872 0.0014206317 -0.0137519 0.040864173 -0.24657609 -0.25200376 -0.30729243
0.0064757587 -0.11887331 -0.09106789 0.20662475 0.12487558 0.11419357 0.028248224 0.15408494
-0.0004831561 0.059391722 -0.20284237 -0.06671163 -0.2364124 -0.13138127 -0.105125636 0.041005947

rnn.bias_hh_l0 f4 [32]
00000000: 9dfb 71bd d878 f2bd cf44 6a3e fa08 0cbd
00000010: f018 d6bc 2e70 f1bd c937 3cbe a3e8 42bc
00000020: 2b1f a6bc 8990 4fbe 049a 803d 190b 693d
00000030: f164 943d 5602 73be 3d41 c03c bf35 a9be
00000040: 1764 edbc b6c4 01be 9cbf b0bd 6b3e aa3d
00000050: 71ab 573b 891d 3ebb e791 883d 2afa d8bd
00000060: 8e3f 0cbe 9898 893c d41f 42bd 7cf4 703c
00000070: 5217 a1bd fc55 a6bd 1c56 83bd 8dc2 2cbe
-0.059077848 -0.11839455 0.22877811 -0.03418825 -0.026134938 -0.11788975 -0.18380655 -0.011896285
-0.020278534 -0.2026998 0.06279376 0.05689535 0.072458155 -0.2373136 0.023468608 -0.33048818
-0.02897839 -0.12672696 -0.086302966 0.083126865 0.0032908584 -0.0029009304 0.06668454 -0.1059459
-0.13696119 0.016796395 -0.047393635 0.014706727 -0.07865776 -0.08121869 -0.064129084 -0.1687109

rnn.weight_ih_l0_reverse f4 [32, 128]
00000000: e842 2f3e 6138 603d bb28 b1bd ef7f 49bd
00000010: dba2 133e 5089 013d 0133 eebb 7b19 de3d
00000020: 9227 c0bd 2804 cbbb e459 633d abb3 093e
00000030: b67e d73d 66cd 393e b912 dd3d b41b 8ebd
00000040: fbc5 013e 7e08 abbc c8a1 fa3d 19e7 863d
00000050: bbd4 0f3d 3163 563e c466 cb3d 7be0 62bc
00000060: 49af b33c c9ff 98bd 72c5 123e 2716 a8bd
00000070: 7dea 193e fe95 1c3c 87a5 863e 7b5e a13b
00000080: 5a62 53be 99e0 e238 1782 20be 0365 c1bd
00000090: 629e 07be 7338 3b3e 92d5 6a3a d321 68bc
000000a0: ba1c c9bd 61d7 3d3d aa0d 013e 7e05 c2bb
000000b0: 2fcd 64be e201 dcbd de72 9d3d bf47 9ebc
000000c0: ec51 1a3e d179 3e3d c620 b13d 5ff0 47be
000000d0: 3f03 4cbb e95e f43c db1e 72be 58b1 31be
000000e0: d618 403e 07ce b33d 4fdf 25be 6f18 9e3d
000000f0: db42 f13d cdc5 253d 8c13 473e a79e 5f3e
00000100: 4955 163e e8ff 593d 563e 6f3e 12a0 bd3c
00000110: 5055 da3d b48f 503d 0472 d4bd 58f6 02be
00000120: 163b 00bd 0a51 2b3e 62d3 94bd 9abd 633e
00000130: 9e86 ec3d a2c9 24be 5680 373e 4b25 72bc
00000140: 211c a03d 9a5d 2fbd 4cd6 6fbe 5303 0abe
00000150: e73a 8abe f4c8 28bc 1f99 6c3d ed6c 393e
00000160: 9657 d0bd 4c31 883e 7e31 93bc dc93 473e
00000170: e7d5 6e3d d87d 763e c4f3 78bb 9abf 273e
00000180: f77c 7fbd f25d 87bc cf0c da3d 2c08 273e
00000190: 8cc5 2fbe 5e68 a53d a45e 4c3d d0d1 10be
000001a0: cde1 a8bd bd22 5cbe 306f 863d 5f57 46be
000001b0: 371e e2bd 664b 5d3c e193 273c 8e9d ffbd
000001c0: c25b e5bd 031a 3abe 2ba7 ff3c 367c 97bd
000001d0: c4d6 32be 93d6 dc3d d6b7 e33d de02 293e
000001e0: fd61 1fbe e799 133e f52c 7cbd e117 0ebd
000001f0: 4c62 3f3e b8d9 203a 622c 1d3e 2f17 e1bc
00000200: 1903 5cbd fae5 ddbd 1134 8abe 9ace 16bd
00000210: 1456 34be f7ee 913d 99c3 3c3e d6ba 673d
00000220: 0f46 eb3d 6b0e a3bd 6f69 4dbc 9cbb 883e
00000230: f3a5 01bd 3f02 79be ef7e c4bd 3eaa 5c3d
00000240: 28db 5dbe 7593 39bd deda 77be db44 c8bd
00000250: 7e64 19be 0bc4 823d df75 85bd b72f 5fbe
00000260: e609 bb3d bb35 093e 0c90 0b3d 1b80 a2bb
00000270: 04f6 1d3e aa55 d3bc 2429 0f3e fb4f cfbd
00000280: fc3b 503d 3c23 dbbc 2d87 aabe 1a29 0c3e
00000290: 26b4 5c3e d9eb 063e 0573 f33c e410 2c3e
000002a0: c16d e13d e78a f5bd d5e2 333e 1e27 a5bd
000002b0: e2aa be3d 40bd d1bd e49e f23c 9505 04be
000002c0: 2c70 9d3d 5d18 f0bd 3d23 8abd f9af 2bbe
000002d0: d99c fb3d ed76 bd3d 2063 66be c35d 0e3e
000002e0: 7f5d 783e e2ca 9b3d ca4d aabc 5197 91bb
000002f0: eb51 ef3b a797 00be c278 dabd a4fa cd3c
00000300: 2c3f 0ebe 0872 a03d fd7c 16bc f03f bdbd
00000310: 552a 7dbd d645 143e 67b7 25be a482 a1be
00000320: 34a8 6ebd 55f6 de3d 82a8 51bd 34a7 e93d
00000330: 34ac fbbb f7ed e43d 8816 873c be29 c6bd
00000340: e200 b1bc e4fa 6ebe 4fb7 10be b318 383e
00000350: b2de 3fbe 593e 043e a97b 4b3c fb2c 92bc
00000360: 9ba0 633d bde6 40bd ae3b fd3d 30ce 06be
00000370: 9c86 0d3d eaba 363e 1df8 a63d fdd8 8f3e
00000380: cfb7 01bd 03aa 2abe 0ecb 00be 1cff 1c3e
00000390: 7f48 14be a9c4 093d 499d 343d 8f11 41bd
000003a0: b456 05be bcae 7b3e 6250 f73c 6ab4 5cbe
000003b0: 41a4 ebbc 37e5 67bd 4dec 0a3e d798 96bd
000003c0: 05c9 bdbd 32fe a9bd 4f7c 46be 07f6 413e
000003d0: b73d dc3d 04f4 ac3e 72a7 a3bd aa53 34bd
000003e0: 2778 e0bc 4f78 d53c a9f9 38bb 3a76 c03d
000003f0: 953e b23d 17a7 af3d 7430 323c b389 dcbd
0.17115366 0.054741267 -0.08650347 -0.049194273 0.14417593 0.031625092 -0.0072692637 0.10844704
-0.093825474 -0.006195564 0.05550565 0.13447444 0.10522215 0.1814476 0.10794587 -0.06938878
0.1267318 -0.020878073 0.122378886 0.06587047 0.035114985 0.20936276 0.0993171 -0.013847466
0.021934168 -0.07470662 0.14333132 -0.0820735 0.15030856 0.009557245 0.26298162 0.004924593
-0.20642987 0.00010818354 -0.15674625 -0.094430946 -0.13244012 0.18283252 0.0008958216 -0.014168221
-0.09819932 0.04634798 0.12602869 -0.005921065 -0.22343896 -0.107425466 0.07687925 -0.01932132
0.15070313 0.046502892 0.08648829 -0.19525288 -0.0031129865 0.029830413 -0.23644583 -0.17352808
0.18759474 0.08779531 -0.16198467 0.07719504 0.1178033 0.04047184 0.1944105 0.21837865
0.14680971 0.053222567 0.23363623 0.023147617 0.10660803 0.050918296 -0.10373309 -0.12789285
-0.03130635 0.16730133 -0.072668806 0.22240296 0.11549114 -0.16092542 0.1792005 -0.014779399
0.07817865 -0.042813875 -0.23421592 -0.1347783 -0.26998064 -0.010301817 0.057763215 0.18107958
-0.10172956 0.2660011 -0.017967936 0.19489998 0.058309462 0.24071443 -0.0037987093 0.16381684
-0.062375035 -0.016524289 0.10646974 0.16311711 -0.17165202 0.08076547 0.049894944 -0.14142537
-0.08246193 -0.21497627 0.06564176 -0.19369267 -0.11040919 0.013506746 0.010228128 -0.12481223
-0.11199142 -0.18173985 0.031207642 -0.07396738 -0.17464739 0.10783114 0.11119048 0.16505
-0.15564723 0.14414178 -0.061566312 -0.03469074 0.18689841 0.0006135958 0.15348962 -0.027476875
-0.05371389 -0.1083488 -0.2699285 -0.036818124 -0.17610961 0.07125657 0.1843399 0.056574665
0.11487972 -0.079617344 -0.012537344 0.26705635 -0.031652402 -0.24317263 -0.09594523 0.053873293
-0.21665633 -0.04530664 -0.24204585 -0.09778758 -0.14979741 0.063850485 -0.06516623 -0.21795546
0.09132747 0.13399403 0.03407292 -0.004959119 0.15425879 -0.025797684 0.13980538 -0.10122677
0.050838456 -0.0267502 -0.33306256 0.13687554 0.21553096 0.13175906 0.029717932 0.16803318
0.11007262 -0.11989384 0.17566998 -0.08064102 0.09309937 -0.10241175 0.02961678 -0.12892754
0.07687411 -0.11723397 -0.067450024 -0.16766347 0.12285776 0.09251199 -0.2249875 0.13902955
0.24254416 0.07607056 -0.020789046 -0.004443087 0.0073034666 -0.12557851 -0.10667564 0.025143929
-0.13891286 0.0783425 -0.009185073 -0.09240711 -0.06180795 0.14479765 -0.16183244 -0.31544983
-0.05826588 0.10886828 -0.051186092 0.114088446 -0.0076804403 0.11178201 0.016490236 -0.096759304
-0.021606866 -0.23337895 -0.14132427 0.17978172 -0.18737295 0.12914409 0.01241962 -0.017843714
0.055573087 -0.04709505 0.123648986 -0.13164592 0.0345522 0.1784474 0.081527926 0.28095236
-0.031669434 -0.16666417 -0.12577459 0.15331692 -0.1448078 0.033634815 0.04409531 -0.047135886
-0.13021356 0.24578375 0.030189697 -0.21553198 -0.028764846 -0.05661508 0.13566704 -0.07353371
-0.09266857 -0.08300437 -0.19383357 0.18941508 0.10753959 0.3377992 -0.07990922 -0.0440251
-0.027401043 0.026058344 -0.002822498 0.0939755 0.08703343 0.08576792 0.01087581 -0.107684515

rnn.weight_hh_l0_reverse f4 [32, 32]
00000000: 9f55 04be 6afd c53c 8ce0 c8bd 8fba 3f3e
00000010: abff 4d3d e584 c3bd caef 32be 6a56 0f3e
00000020: 523c a73d d5be 563e 5e27 1bbe 1138 7a3d
00000030: d96e f2ba 54b4 9a3a 72de 61be 7a9b 323e
00000040: 34a9 403e 03da b9bb 30c4 a23e eb98 9d3b
00000050: e694 bcbd 1085 193d ff25 c03d 80df f8bd
00000060: eef8 6ebd b695 a83e 18af 093e 2b11 ce3d
00000070: 1d78 3a3b 45c1 83bb 13a0 40be e2b8 653e
00000080: 5be7 83bd 8fb6 afbd 9757 8c3c d602 533e
00000090: 20c0 38bc 73dd 293e 57be 51bd 2313 033e
000000a0: ebfb 57bd 605b d8bd 6d88 113d 9b05 8f3e
000000b0: 42e3 603c 7b6c 35bc 0a7a 0fbe 0a55 bd39
000000c0: 7aa4 133d 71d5 0abe 032d 413e ccea d9bd
000000d0: 66be ebbd d17b 373c 4300 63bd 84a7 66be
000000e0: 6159 4e3d c4ad c03e b950 103e e192 723e
000000f0: 026a 17bd 5df2 213e 3041 c9bd bd3d c8bd
00000100: fcbb 7bbe 8d48 8e3e a7c6 3bbd 1311 763d
00000110: 8f8f 3d3e 5fc8 533e a2e4 95bd eccc 1b3e
00000120: e49e 21bd 570f c4bd 3273 1c3e b02a b13c
00000130: e45d 2e3e 8f36 febd ad0b 17be 634e 143e
00000140: c412 8f3e fc3b 59bd 59fa 6d3c 27cb 9fbd
00000150: 72b4 bb3d 5fbf 91be 84fc 8c3b 41d9 d33d
00000160: 5e67 33be 242c d5bd 2687 e03d 91dc 8dbe
00000170: 145b 99bd 88a1 cf3a 3b46 8dbe f7e1 36bd
00000180: 64ba c4bb f12b f43d 9a08 0e3e 8632 473e
00000190: d28f 83be 8658 913e a273 743d 18ea 083d
000001a0: 69f2 9a3c 30be 51bc 8f42 2e3e a9ca 51bc
000001b0: aaed ab3d 6de8 c9bd b9a4 b4bd 6d7c 16bd
000001c0: af67 2bbc 2753 143e b556 273e 1c29 1fbe
000001d0: ef4b 093d 67d4 dabd c0e1 553e cfbe 8e3e
000001e0: f1c7 e73c c32e 333c fab4 35be 31e9 96be
000001f0: ac8d 0cbe 1450 253e adb5 a33e 9373 873e
00000200: bfe0 ad3d 780f 8c3e 9ed2 4bbe 4a0e 6ebd
00000210: af32 873e 84c8 12bd d2ed e83d 2a7e 89be
00000220: c92a 5bbd 5ad3 ad3d c48e e93e 718e 32bc
00000230: 4fab 373e 8364 80bd 0964 813e a5ea 3dbc
00000240: 4603 1e3d c421 24be 6fa1 cbbd 8d8b d8bd
00000250: 7201 923e 341c 7cbe e32c f7bc bebd 2b3e
00000260: 5189 dcbc 8116 fdbd d775 96bd a699 79be
00000270: b58b 3c3c 6b91 97bd 2ea3 883d e9d1 f1bd
00000280: 11ca 62bd c265 403d 72a9 813d 5a75 1a3e
00000290: 7ab9 cdbd c219 09be da84 323d d25e 96bd
000002a0: 5a64 193e b13c 0abe ca63 e13d 81e4 9dbd
000002b0: aa19 3c3e dcda 79bd f1df a43d 7990 5abd
000002c0: fb6b a63d 1f9e 0a3d 93bf a7bd a408 1f3e
000002d0: 3379 31bd 5bc5 4fbe 138e 6fbd e647 7b3e
000002e0: c7ab c7bd f438 3c3c e279 ba3d 0e71 4cbe
000002f0: dd93 07bd 6d2d dabd c76f fa3c d4dc 84bd
00000300: dca8 a9be 6540 473e 966d 6b3d 0c2c e23d
00000310: 0a4d 17be 7e78 873d bdc9 303d 9c25 3a3e
00000320: b3e5 933e bb49 863d 575e 80be 8681 853e
00000330: e43d 403b d80c cc3c 2cb2 c2be 0dff b23e
00000340: d9cd febc d606 cebd 6117 bb3e 9a3f b73d
00000350: b5d1 a83d bd62 60be 98bf 3a3d 0432 70bc
00000360: 725a b7bc cd0e 8a3e c7bd 1bbe 7e3d ecbd
00000370: 96ef 8abe bbe4 a33e 6b5f c13d 62cb 9e3e
00000380: b7c8 9b3e d31d 2abe 595e ac3e 085c 6f3d
00000390: 7487 8bbe 2a38 68bc 8de8 933d e2ed 85be
000003a0: cbb2 37bc c9a1 f13c 145a ccbd a265 d2bc
000003b0: e574 b1bc 9042 743c bff5 73be b1dd 723d
000003c0: dc5c 87be ce0c 1b3e 82b3 3a3e fdd1 383e
000003d0: 255c 6cbe ea99 1fbd dc8a d73d 8a55 9abe
000003e0: 02ca 9fbd 34f9 4bbd 2cf9 8bbd 788f f13d
000003f0: ad23 18be 8324 e33c 10e3 ad3e 1e29 4ebe
-0.12923287 0.024168689 -0.09808454 0.1872351 0.050292652 -0.09546832 -0.17474285 0.13997808
0.08165802 0.20971234 -0.15151736 0.061088625 -0.001849617 0.001180301 -0.22057512 0.17442122
0.18814546 -0.005671741 0.31790304 0.004809489 -0.092080876 0.037480414 0.09382247 -0.12152004
-0.058342867 0.3292672 0.13445699 0.10061868 0.002845294 -0.0040208423 -0.18811063 0.22433808
-0.06440612 -0.08579742 0.01713161 0.2060655 -0.011276275 0.16588382 -0.051206913 0.12800269
-0.052730482 -0.105643034 0.035530496 0.27933964 0.0137260575 -0.011073227 -0.14011398 0.00036112248
0.03604553 -0.13557984 0.18864827 -0.10640487 -0.11510925 0.011198954 -0.05542017 -0.2252484
0.050378207 0.37632573 0.14093293 0.23688842 -0.03696633 0.1581511 -0.09826887 -0.09777401
-0.24583429 0.27789727 -0.045843747 0.060074877 0.18511795 0.20681904 -0.07318999 0.1521489
-0.03945817 -0.09573238 0.15278319 0.0216268 0.17028004 -0.1241275 -0.14750548 0.14483027
0.27944005 -0.05303572 0.01452502 -0.0780242 0.091652766 -0.28466317 0.004302563 0.10344172
-0.175199 -0.1040881 0.109632775 -0.2770734 -0.07488075 0.0015840987 -0.27592644 -0.04464909
-0.006003665 0.11922444 0.13870469 0.19452867 -0.25695664 0.2838785 0.05968059 0.033426374
0.018914418 -0.012801692 0.17017578 -0.012804666 0.0839494 -0.09858785 -0.08820481 -0.036739755
-0.010461732 0.14484845 0.1634167 -0.15543026 0.03351968 -0.10685044 0.20886898 0.2787995
0.028293582 0.010936442 -0.17744818 -0.29474786 -0.13725919 0.16143829 0.31974545 0.26455364
0.084901325 0.27355552 -0.19904563 -0.058119096 0.26405856 -0.035835758 0.113734856 -0.26854068
-0.0535076 0.08487578 0.45616734 -0.0108982185 0.17936443 -0.06269171 0.25271633 -0.011591588
0.03857734 -0.16028506 -0.099429004 -0.10573492 0.28516728 -0.24620134 -0.03017277 0.167716
-0.026920946 -0.12357808 -0.07346695 -0.24375018 0.011507918 -0.07400783 0.06671749 -0.11807615
-0.055368487 0.046972044 0.06331147 0.15083829 -0.100451425 -0.13388732 0.04358373 -0.07342304
0.14979687 -0.13499714 0.110053614 -0.07709599 0.18369165 -0.060999736 0.08050526 -0.053360436
0.081260644 0.033842202 -0.08190837 0.1553064 -0.043328475 -0.20290129 -0.058485102 0.24539146
-0.09749561 0.011488188 0.091052786 -0.19965002 -0.033099998 -0.106531955 0.030570878 -0.06487432
-0.33136642 0.19458158 0.057477556 0.110435575 -0.14775482 0.06614779 0.043161143 0.1817841
0.28886184 0.06557032 -0.25071976 0.2607538 0.0029333765 0.024908468 -0.3802656 0.34960213
-0.031104015 -0.100598976 0.36541274 0.08947678 0.082431234 -0.21912666 0.045592874 -0.014660362
-0.022381995 0.26964417 -0.15209113 -0.11535166 -0.27135915 0.32010445 0.09442028 0.31014544
0.3042657 -0.1661294 0.33665732 0.058437377 -0.2725178 -0.014173547 0.0722209 -0.26158053
-0.011212061 0.02949609 -0.099781185 -0.025683228 -0.021662185 0.014908448 -0.23824213 0.059293453
-0.26438034 0.15141603 0.1823254 0.18048854 -0.23082025 -0.038965143 0.10524532 -0.30143386
-0.07802202 -0.049798205 -0.06834635 0.117949426 -0.14857359 0.027727371 0.33962297 -0.20132872

rnn.bias_ih_l0_reverse f4 [32]
00000000: 008d 3a3d 1c62 35be 7af4 dd3d 314c 95be
00000010: db53 783d 1959 8dbd cd44 c0bd 413a 70be
00000020: 4c4d 71be 072f 893d 2933 793d 461e 1ebc
00000030: 60ec b83e ee7f 1ebe c2e9 0cbd a260 13be
00000040: 69e1 88bd 76e7 35be 3709 bcbe 061d 083e
00000050: bd37 09bd c540 263e e04f 93be 193f 873e
00000060: aea8 ad3d 7cc5 dfbe 1a51 553e 5ddf bd3d
00000070: 6f4a 863e 3833 38be d238 8a3c 2d6a af3d
0.045544624 -0.17713207 0.10837646 -0.29159692 0.060626846 -0.0690176 -0.09388123 -0.23459722
-0.23564643 0.06698423 0.060839806 -0.009650772 0.3611784 -0.15478489 -0.034402616 -0.14392331
-0.066836186 -0.17764077 -0.3672578 0.13292322 -0.03350042 0.16235645 -0.28771877 0.26415327
0.08479439 -0.43705356 0.20831719 0.09271119 0.26228663 -0.17988288 0.016872797 0.08565173

rnn.bias_hh_l0_reverse f4 [32]
00000000: 6918 493d f883 77be 51f2 553d adf3 8bbe
00000010: 9328 f13d 5c65 e1bd 7295 7ebe dc6c c1bd
00000020: 5b42 a8be 6a11 703c 2969 c73d c369 993b
00000030: 7edc 773e 2f50 413d 9b37 6e3c c3da 3cbd
00000040: 6841 4d3d 7a7c c2bd 97a9 c5be c623 7e3e
00000050: 8437 1cbd c5eb 273e 3640 0bbe b80d 853d
00000060: d4d9 02bd 74e7 0cbe d805 b23d f427 873d
00000070: d4e7 dc3d a84d f7bc 3d09 a33e ab5a 0abd
0.049095545 -0.24171436 0.052233044 -0.27334347 0.11775317 -0.11005661 -0.24861696 -0.094445914
-0.32863125 0.014652589 0.097368546 0.004681797 0.24205205 0.04719561 0.014539625 -0.046107065
0.050111204 -0.09496398 -0.3860595 0.24818334 -0.03813888 0.16398533 -0.13598713 0.06496757
-0.03194602 -0.13760167 0.08692521 0.06599417 0.10786405 -0.030188397 0.31842986 -0.033777874

fc1.weight f4 [12, 64]
00000000: f5ee 8dbd f6ae 19bf 4e38 ad3e 5065 16bf
00000010: 34f1 29be 13ca 03bf c4f7 eabe 8dbf 263d
00000020: 279a d9bd 7be2 03bf c5f3 91bd 0b4e 7d3e
00000030: aab1 2f3e 135c 51be 844e 8dbe 986d d6bd
00000040: 0f70 cfbd b792 18bf 6d39 893e 8118 453e
00000050: 8f91 c83e 94f3 053f e0a5 27bf bc12 263f
00000060: f7bc 273f 2fb1 91be c1f9 07bf c0be 143d
00000070: 08b8 e5bc 145d 02bf f977 c13e 1320 b93e
00000080: 165d b0be 70e1 6ebe 0942 01bf de1e 72bd
00000090: 7cfb 92be 7c46 87be 7045 cebe 1f44 823e
000000a0: 2cb3 b3be d1fa c23e 16f2 5e3e e86a 7bbe
000000b0: 38e1 a83e 0c2d b63e fb5d 0b3e 7888 d3bd
000000c0: b290 d53e 6e5e 61be 9eeb c4bd c1f6 903e
000000d0: 492e d7be 8d8a 643e 14ec 5ebe 777f b23e
000000e0: da37 bbbe ca62 92be ebff fa3e e913 1ebe
000000f0: 2bdf d63e d7c4 98be d19a c03c 9729 083f
00000100: abec 813f f697 293f c39f 113f 0a78 423d
00000110: 20c7 733f 2690 87be 3b5e e4be 1065 843e
00000120: 5b7d a13f 8c93 553f 30b2 febd 9a45 45bf
00000130: bc0a a03e 70de 833e 76d4 4dbe a8d2 743a
00000140: d9f9 fabe 9f29 f4be bdca c9be 7023 82bf
00000150: aada fa3d 04fc 09be 3216 113f 1926 30bf
00000160: f82a 12be 2b9a c43f 3af3 0d3f bb89 953d
00000170: 2c49 c3be 7c83 313e 62eb afbe 9cff 66bf
00000180: 4c17 b53e 57b3 8a3f 7d19 023f c018 e6be
00000190: 92e7 15be c542 983f 11ce e2be 3b6b 38bf
000001a0: e59e 5ebe bb7c 97bf 4c7d 4cbf 22b7 9abe
000001b0: 55ad 18be 7fc5 3abf 827e 58bf 94d4 623e
000001c0: 7d4c 8a3e 6d03 7d3f 9002 cdbd 8438 6a3e
000001d0: bb5a 333f aa4b 993b 3c36 44be 4da6 81be
000001e0: afed 343f 5787 36bf eef6 0a3f 03de 4e3f
000001f0: 1f83 1e3f 896e d6bd bad5 8e3f 8105 1b3e
00000200: 6577 013f 9732 85be 7230 7dbf d084 2dbf
00000210: 46f1 a23e 3ae7 883f 9fc4 09bf ad2a 24bf
00000220: 6307 eebe 3886 f7bd 1b73 843f 8a44 373f
00000230: b2a3 adbf 40b4 833e e089 e13f 01e3 153f
00000240: 4f26 823e 3cf7 b6bd 1bd7 03bf d3a8 59be
00000250: d751 243e 8398 8dbf 3e37 cdbe f819 ea3e
00000260: 1a0d 1c3d d24d 833f 94cf 033f 346f b3be
00000270: 25dc d6be 6a67 463f 489d ae3e 1743 b13e
00000280: 4e42 103f 9138 b6be 88ce 3abf 3660 f43e
00000290: 30ef 3b3f d345 933f 8e94 72be 273a 873f
000002a0: 4255 4d3f 4dd4 c4bd 76f3 453f adf8 b1bd
000002b0: 56d6 67bf 5f0a 86bf 630d 923e 2c1a ae3f
000002c0: fc3d 97be 7448 8c3f 4037 923d c384 f3bd
000002d0: 068c b2be 30cd 3cbf c625 f43d 7a57 77bf
000002e0: 8a1a 423f eb64 20bf aba2 ea3e 52d4 34bf
000002f0: 5b78 8a3e c405 18be 85b6 273f 8095 11bf
00000300: 89e1 5c3f 41b0 053f 5e51 4c3e 069b e23e
00000310: 323a a1be 04d2 b23e 9a5a e4be 8c39 b5be
00000320: cb54 343f a971 ed3e 6878 30be 8eea fcbe
00000330: e103 f33d 36aa 6dbf 4651 903f 952b 8d3f
00000340: 89df bebd c31e d2be 1744 a13d b70b d2be
00000350: 756f 44bf 44bf ebbe b4eb 223f c2f6 0c3f
00000360: 788d 16bf 8df3 8abe ee57 d93e f0e7 5b3f
00000370: ed77 4d3f e5dd 07be faaf a23d bfcd 03bf
00000380: e17f 0e3f 7abe 30be e5f8 5c3e 270c 9c3f
00000390: f9ad 023f 0587 133d 4404 4f3f 5d72 25be
000003a0: 144b 7b3d 6e9e 413e ccf2 453f 448b 4abe
000003b0: ae08 f1be e1fa f63e 1899 7abf fc01 f83d
000003c0: 33d2 5e3f 570d 343f 5e2c ab3f e38a 66bf
000003d0: a41c 62be 5ba4 e6bd 6af6 9dbd e785 05be
000003e0: 049a 2a3f ebe7 0cbf 3f76 3fbf 3ccf cf3e
000003f0: 158e e2be 71a8 60be 40da 0dbf 36ce 293f
-0.06930343 -0.60032594 0.3383202 -0.5874834 -0.16595918 -0.51480216 -0.45892155 0.04071002
-0.10625105 -0.51517457 -0.071265735 0.24736802 0.17157617 -0.2044528 -0.27598965 -0.10470122
-0.10128795 -0.5959887 0.26801625 0.19247629 0.39173552 0.52324796 -0.6548748 0.64872336
0.6552271 -0.28455493 -0.5311547 0.036314726 -0.028041855 -0.50923276 0.37786844 0.36157283
-0.3444602 -0.23328185 -0.50491387 -0.05911147 -0.28707492 -0.26420963 -0.40287352 0.25442597
-0.35097635 0.38081983 0.21772036 -0.245525 0.32984328 0.35581243 0.1361007 -0.10328764
0.41711956 -0.22008678 -0.09615253 0.28313258 -0.420275 0.22318478 -0.21769744 0.34862873
-0.3656605 -0.28590995 0.49023375 -0.15437283 0.4196714 -0.29837677 0.023511322 0.5318846
1.015035 0.662475 0.568844 0.04747776 0.95225716 -0.26477164 -0.44603142 0.25858355
1.261638 0.83428264 -0.1243633 -0.7705933 0.3125819 0.25755644 -0.20100579 0.00093392516
-0.49018744 -0.47688004 -0.3941249 -1.0167065 0.12248738 -0.13475043 0.5667449 -0.6880813
-0.14274204 1.5359548 0.5544926 0.073016606 -0.38141763 0.17335314 -0.3435927 -0.9023378
0.35369337 1.083598 0.5082014 -0.44940758 -0.14639118 1.1895376 -0.4429784 -0.7203862
-0.21740301 -1.183494 -0.7987869 -0.30217844 -0.14909871 -0.72957605 -0.84568036 0.22151405
0.2701148 0.9883335 -0.100102544 0.22873122 0.7006032 0.0046782093 -0.19161314 -0.2532219
0.70675176 -0.7130026 0.54283035 0.80807513 0.61918825 -0.10470302 1.1158974 0.15138818
0.50572807 -0.2601516 -0.98902047 -0.6778078 0.31824702 1.0695565 -0.53815645 -0.6412762
-0.4649001 -0.12086147 1.0347627 0.7158896 -1.3565581 0.25723457 1.7620201 0.58549505
0.25419852 -0.08933875 -0.515001 -0.21255808 0.16046844 -1.1062168 -0.4008121 0.45722938
0.038098432 1.0258124 0.51488614 -0.3504578 -0.41964832 0.7750155 0.3410437 0.34621498
0.5635117 -0.35590032 -0.7297139 0.47729653 0.73411846 1.1505684 -0.23689482 1.0564622
0.8020822 -0.09610806 0.77324617 -0.08690009 -0.90561426 -1.0471915 0.28525838 1.3601737
-0.29539478 1.0959611 0.07139444 -0.11890557 -0.34872454 -0.7375059 0.11921267 -0.96617854
0.75821745 -0.6265399 0.4582723 -0.70636475 0.2704495 -0.1484595 0.6551288 -0.56868744
0.8628164 0.5222207 0.19952914 0.44258898 -0.31489712 0.34925854 -0.44600374 -0.35395467
0.70441884 0.46375778 -0.17233431 -0.493977 0.11865974 -0.92837846 1.1274803 1.1028925
-0.0931998 -0.41039094 0.07874315 -0.41024563 -0.7673257 -0.46044362 0.63640904 0.5506402
-0.58809614 -0.2713894 0.42449898 0.85900784 0.8026112 -0.1326824 0.07943721 -0.5148582
0.5566388 -0.17260161 0.2157932 1.2191209 0.5104671 0.036017437 0.80865884 -0.16156907
0.061350897 0.18908092 0.77323604 -0.19779688 -0.47076935 0.4823828 -0.9788985 0.121097535
0.8703949 0.70332855 1.3372915 -0.90055674 -0.22081238 -0.11261817 -0.077130154 -0.13039361
0.6664126 -0.5504138 -0.74789804 0.40587795 -0.44249025 -0.21939255 -0.5541115 0.6633028

fc1.bias f4 [12]
00000000: e02c 6a3c 812f df3d aac0 8dbe d89c 03bf
00000010: 43e3 b6be cd61 a7be d8f7 8fbe d17d 3cbf
00000020: bb6d c0be 43ab 97be 9389 4dbe ac89 36bf
0.014292926 0.108977325 -0.27686054 -0.514112 -0.35720262 -0.32691804 -0.28118777 -0.7362948
-0.37583718 -0.2962285 -0.20072012 -0.7130382
