src/src_learner/python3_finetuning_model.pt (torch, 99780 bytes, 11 tensors)

word_embeddings.weight f4 [102, 128]
00000000: 1d3d bfbf 2f84 31bf 951f 1abf 40c2 cebf
00000010: 3eb3 c3bd 46f8 efbe 4b99 86bf 9aa2 c5bf
00000020: 7dfe 54bf ba53 813e 70a1 49bf 0000 a3be
00000030: d216 18be 8030 d83f 4ab2 c83e 3c9f e23e
00000040: 33e2 30bf dc04 91bf 7969 2d3f 012b 1d3e
00000050: 6b7b 573f 5593 483e bd12 1cbf 588a 603f
00000060: 55d9 943f d736 99be a2dd 0cc0 570a c1bf
00000070: 24c4 593c a9f1 2ebf 857a 62bf 3bb1 d4bd
00000080: dccb f83f 7293 85bd 5c59 8a3e 0b0d 5cbf
00000090: ccc4 963e e669 033d ec1c 3b3e 3435 f1be
000000a0: 6d95 ccbd d962 b23e d4bd 12be c2aa a6bd
000000b0: d4cc 1c40 55fd 7fbf 474c c03f aede 0cbf
000000c0: f02e 69bf da73 223f fb2d 063d 3894 c4be
000000d0: d2d5 3b3f 5a08 013f 7792 a73f de0b 0240
000000e0: f8b5 ab3d 125e 6b3f 57eb 43be d75e 19bf
000000f0: 4d00 c73f 31c2 7abf cc54 57c0 24fc 3fbf
00000100: eddf e5bc 5859 8abf 9eab 1abf 299f 7ebf
00000110: defb cbbd d24d b7ba f5d8 d23f 4e70 593d
00000120: 623f 49bf 7ed4 80be e507 7ebf 0548 4abf
00000130: 87e5 0abf 87e2 02bf c672 a23e a3c3 76bf
00000140: 14d5 d9be b26e 0c3e c98c 15bf b6c3 483f
00000150: cc8c aabf 48c3 03bf dae7 463e d686 60be
00000160: b134 a13e c0b4 e6be 251d 85bf bb02 3b3f
00000170: f705 94bf 5269 15bf f4ec df3e 4ca4 f23f
00000180: c3aa 323f 9b95 973f 9516 593f 9ca2 6cbf
00000190: e887 b53f ab40 47bf aa46 82bf 468a 9a3f
000001a0: cf54 ad3f a03f 0c3f cd2d 0bbe c339 5c3d
000001b0: a5dd 01c0 1b2b 2cbf 68db cabf 9fdb 8fbf
000001c0: 3c32 6e3f 2414 fdbe 97d9 a03f e144 473f
000001d0: 9335 b83e 06a7 8d3e 03dc 043f 781d 07bf
000001e0: c4fd 2140 69a9 89be ebb2 f13b b74d e03f
000001f0: f7fd 06c0 d37f e73f 41fa c73d cefd bd3e
00000200: 865d 363f 9764 e3bf bd2d b53e ed8c 993f
00000210: 7a22 9bbe 0784 e1bf 2d85 223f 7aea 4dbf
00000220: e938 cebf 0391 efbf 8707 0b3f 3c22 293f
00000230: bfe4 1240 a3c6 2c3f 1f4e db3f c0aa e5bf
00000240: 8a7f aebf 48b4 7bbf 3071 c13f a451 243f
00000250: 5028 f23e 2970 dbbe a226 0d3f 4010 c6bf
00000260: ffa2 043f 352f da3d edd9 893e ff91 a93f
00000270: 8e7d df3f a06f ed3f 9bd4 34bf 4da7 2340
00000280: 0ec7 d53e e8d2 59be 7d07 57bf 950c d7be
00000290: d8c0 1fbf 1430 7abf b3f5 5f3f 79be 7c3f
000002a0: ca80 9e3e f8a5 c23f 1b45 9a3f 4965 e8bf
000002b0: 8392 cebe 898a 75bf 63a5 aabb ff82 a1bd
000002c0: baf9 573f b335 953f 07e5 063f b143 cf3f
000002d0: 26c7 76bf b8ea 103e bd96 27be f368 b7be
000002e0: a673 dc3f 436e 9bbe 709b 743e 3b08 ac3f
000002f0: fe67 d33d 68d8 8c3f b5f0 aebe cd84 723f
00000300: 438a 11bf b46c 563f fe4e e43f 671d 48be
00000310: 8bd1 033f 257a ecbf e9ab 3ac0 883c 11bf
00000320: 5791 0abf 202a 653f fbeb 61bf c824 083f
00000330: 07dc c5bf 8275 31be 5a6e 3a3f d1b8 693d
00000340: facf 673f fdec 853f d845 05bf 8e69 ad3f
00000350: 78d6 703e ed05 f53f 850f eb3f 478a a93f
00000360: fc10 78bf 9f35 a03f e7eb 9a3f ce25 07bf
00000370: cecf 5f3e cd05 13bf 1383 ba3f adae e23f
00000380: 6030 d33f b42f ddbe 0ac4 8abe 7b36 b8bf
00000390: 059f 9f3f 8e0d a33f 802a c83e 7440 c63e
000003a0: 3d7d a3bd 7df6 ae3e 59e6 723f d024 b1bf
000003b0: dcae dc3f 5058 17c0 1ef3 6dbf 0e56 963e
000003c0: 924b 5c3e 283f 703f 4f9c bb3f 1b75 0ebf
000003d0: e3ad 3ebf 4d02 4fbe 102e 6bbe 3e80 ae3a
000003e0: 2a24 c03e dec0 14bf d582 12bf 6c3e 813f
000003f0: b55e d8bd 4700 97bf a7ea b9bd 4328 103f
-1.4940525 -0.6934232 -0.6020444 -1.615303 -0.09555672 -0.46869105 -1.0515531 -1.5440247
-0.8320082 0.2525919 -0.7876196 -0.31835938 -0.14852455 1.6889801 0.39198524 0.4426211
-0.6909515 -1.1329608 0.67739064 0.15348436 0.84172696 0.19587453 -0.6096609 0.87711096
1.1628824 -0.29924652 -2.2010274 -1.508128 0.0132913925 -0.68337494 -0.884682 -0.103853665
1.9437213 -0.065222636 0.270213 -0.859574 0.2944702 0.032083414 0.18272752 -0.47110903
-0.09989438 0.3484104 -0.14330226 -0.08138038 2.4500017 -0.9999593 1.5023278 -0.5502728
-0.91087246 0.63458025 0.032758694 -0.38394332 0.7337314 0.5040337 1.3091573 2.0319743
0.08384317 0.91940415 -0.19132744 -0.5991034 1.5546967 -0.9795256 -3.3645506 -0.7499411
-0.028060878 -1.0808516 -0.6041812 -0.9946161 -0.09960149 -0.0013984984 1.647246 0.053085618
-0.7861234 -0.2516212 -0.99230796 -0.79016143 -0.5425648 -0.51126903 0.3172819 -0.9639227
-0.42545378 0.13714102 -0.58417946 0.7842363 -1.3324218 -0.5146985 0.19424382 -0.21926436
0.31485513 -0.45059776 -1.0399519 0.7305104 -1.156432 -0.5836383 0.43735468 1.895639
0.6979181 1.1842531 0.8480008 -0.9243562 1.41821 -0.7783305 -1.0177815 1.2073448
1.3541507 0.54784584 -0.1359169 0.053766023 -2.029153 -0.67253274 -1.5848207 -1.1238898
0.930454 -0.4942943 1.2566403 0.77839476 0.35978374 0.2766649 0.5189821 -0.5277934
2.5311136 -0.26887062 0.007376065 1.7523717 -2.1092508 1.8085884 0.09764529 0.371077
0.71236455 -1.7765073 0.35386458 1.1996132 -0.3029974 -1.7618417 0.6348446 -0.8043591
-1.6111118 -1.8716129 0.5430836 0.6606786 2.2952116 0.67490596 1.7133216 -1.7942734
-1.3632672 -0.9832196 1.5112667 0.64187074 0.4729638 -0.4285901 0.55137074 -1.5473709
0.5181121 0.10653535 0.26924077 1.324768 1.7460191 1.854969 -0.7063691 2.5570862
0.4175343 -0.2127186 -0.839958 -0.42001787 -0.6240363 -0.9772961 0.8748428 0.9872814
0.30957633 1.52069 1.2052339 -1.815591 -0.40346155 -0.9591451 -0.005207704 -0.07886314
0.8436543 1.1657013 0.5269322 1.6192533 -0.96397626 0.14152038 -0.16366096 -0.35822257
1.7222793 -0.3035756 0.2388742 1.3440012 0.10322569 1.1003542 -0.3416802 0.9473389
-0.56851596 0.8375962 1.7836607 -0.19542466 0.5149161 -1.8474776 -2.9167426 -0.5673299
-0.5412802 0.895174 -0.882507 0.53181124 -1.5457772 -0.17329982 0.72824633 0.05706102
0.9055172 1.0462948 -0.520597 1.3547838 0.23519313 1.9142433 1.8364111 1.3245324
-0.96900916 1.2516364 1.2103242 -0.5279206 0.21856615 -0.57430726 1.4571251 1.7709557
1.6499138 -0.43200457 -0.2710269 -1.4391626 1.2470404 1.2738512 0.39094925 0.3872105
-0.07982872 0.3417243 0.9488273 -1.3839359 1.7240863 -2.3647652 -0.9294909 0.2936253
0.21513203 0.9384637 1.4657077 -0.5564744 -0.7448408 -0.20215721 -0.2296679 0.0013313366
0.3752759 -0.5810679 -0.57230884 1.0097175 -0.10564939 -1.179696 -0.090779595 0.56311435

rnn.weight_ih_l0 f4 [32, 128]
00000000: fe2a 8dbc 8e0b b0bc 36af c9bd 4070 32be
00000010: 1388 893d 1572 22be acbf 37be 8f20 c73b
00000020: 22b7 9bbc 8f29 8e3b 79c2 0d3d be70 723e
00000030: f412 a03c 612d 0d3e ddf6 b8bd 3d70 bf3d
00000040: 3f94 35be 0bc2 f23d 7069 da3d 92bb 163e
00000050: 3985 053e 0c55 123d 570f aabd 06f6 be3d
00000060: ce37 a43d 4a03 243d 9939 c53c 9bc0 22be
00000070: 6f9d 35be d589 bfbd 0381 773d b668 34be
00000080: 9001 33be 750d a83d 03af e9bd 52b5 223d
00000090: 9d6c d33d 9652 03be eaec 9e3c a214 dc3d
000000a0: 50f4 44be d75f 0a3e ff7e 85be 4ee1 683c
000000b0: a59c d03d 2925 d23d 052a 793c 90c5 46bd
000000c0: d5e9 4c3e 00d7 7fbe f0a6 043e 83d6 3dbe
000000d0: 178f 3c3e 8c4c 8bbd 2918 08be 6592 9d3c
000000e0: c318 5f3e 4074 3cbd 00f4 d4bb c461 243e
000000f0: 76e2 043e 3385 423d e6c7 acbd 9161 113e
00000100: 68e2 053e 7ba3 97bc 3878 1fbe 4fb0 dc3d
00000110: d1da 83be bc54 cb3d ba9f 52be 9af0 5abc
00000120: c351 a5bb e15c 8dbd 349e b4bd e12b 91bc
00000130: cd89 e43d ec62 f1ba da5d 163e 66c2 86bd
00000140: 72c4 3cbe 6541 93bc 8d24 25be d13e e5bc
00000150: ba62 9c3d 2d77 cfbd fd4c 3d3e 93c0 323e
00000160: 3340 fd3d 1798 d83d 88bf bebd da8d 613e
00000170: 037a 923d 32a7 e73c 0b08 0e3d 1b1f 27bc
00000180: 6073 24bd 04dc 1cbe 1457 523d 365d 13be
00000190: b738 1a3a ef35 e5bd 525a b5bd 8336 23be
000001a0: 5869 763c 6b8f 003e cad8 853d cd08 6d3d
000001b0: fcf8 3a3c 2b9b 613e bc67 4bbd 15d8 89bd
000001c0: 4dfc 3abe cb42 a93d 3949 30be 8254 643d
000001d0: 13b9 1dbe 3506 da3d bbbb 673d 82df 1c3e
000001e0: cc60 debd d4e6 7b3d c9cd 9dbd 7278 423e
000001f0: 61c1 d2bd 6e25 033e b6ad c13d fcad 0fbe
00000200: 4039 9fbd 2ab4 343c 0491 97bd 1a11 293e
00000210: b350 e53d 48cc 14be 6186 9d3d 26c1 f1bc
00000220: e57f 26bc f684 193e 00bb 0b3d 98e4 973e
00000230: de50 043d 8256 84be 2ebd 1cbe 838b de3b
00000240: fe50 2f3d 4505 1d3e 2506 cb3d d5f0 9abd
00000250: eebf 9fbd 5ce0 333e 7371 04bd 1bc6 613d
00000260: 7424 35be b608 1dbe b13b 863c 0877 07bd
00000270: f951 e7bd b34d b3bd 35fc 793e b5dc 0a3d
00000280: 3d51 7dbd c2d7 e3bd 2776 4bbe dac6 a9bd
00000290: 5849 4cbd 0efa 413e 0244 033d 2ee8 f83c
000002a0: fe5e e4bc 6af3 0a3e e549 4d3e 1cd0 19be
000002b0: 510a febd 8ad5 7c3d 67b5 c33d f0b6 00bd
000002c0: 72e3 67bd a785 afbd 7f2a 433d f819 25bd
000002d0: 9ace 46bd 34f3 0c3c 77ec 9cbd c74f f8bd
000002e0: 88bd b3bd ed4b d93c b5a7 413e 5ba7 603e
000002f0: 9364 c03c 0bbc f63d 6d12 913d e963 ad3d
00000300: 405f dc3d fa35 90bd fadf 3c3e c65d 813d
00000310: d57e c93d d08b f5bd 3d8f c83d 967b f83d
00000320: b935 69bd b6ef 64be b127 643d 66d8 173e
00000330: 2028 12bc 897a 083e 671e b9b9 37a2 2f3e
00000340: 0ced df3d deb3 1f3c 5fe4 e3bd 9e19 d8bd
00000350: 4ca2 b03d 3522 b9bd 0f1e ebbc ea24 d9bc
00000360: f6ca 13be 1bc2 363e 9a66 5d3e dd33 2f3e
00000370: a84c 653e a340 1e3e be9b e33d 7a77 dfbc
00000380: a789 703e 49ef 72bb ea01 ba3d daf5 a13d
00000390: d1e0 383c 7215 fdbd 870b 4f3e 36c5 2bbe
000003a0: 50cc b7bd 9361 123e 459b d7bb 7897 75bd
000003b0: e754 eebd b460 b83d a855 953d 1703 85bd
000003c0: 8002 493d f1ca a73d 9734 76bd d58c 6a3d
000003d0: f134 bb3c 0e5a 343e 7a72 14bc f2e1 133e
000003e0: 9811 6f3d 0db4 b9bd a678 ab3d 69b1 193e
000003f0: 7162 44be a3c5 8a3e 54cb 9dbd e8e4 34be
-0.017232414 -0.021489885 -0.09847872 -0.17425632 0.06715407 -0.15863831 -0.17944211 0.0060768793
-0.019008223 0.0043384503 0.03460929 0.2367582 0.019540288 0.13786842 -0.090314604 0.0934758
-0.17732333 0.11853417 0.10664642 0.1471999 0.13039102 0.03572564 -0.08303707 0.09324269
0.080184564 0.0400422 0.024075316 -0.15893786 -0.17735837 -0.09352461 0.06042577 -0.17618069
-0.17481065 0.08205692 -0.11410334 0.0397237 0.10323451 -0.12824473 0.019400079 0.10746123
-0.19233823 0.13513122 -0.26073453 0.014213873 0.101861276 0.10260994 0.015207772 -0.048528254
0.20011075 -0.2498436 0.12954307 -0.18538861 0.1841396 -0.068017095 -0.13290466 0.019234845
0.2178679 -0.046009302 -0.0064988136 0.1605292 0.12977013 0.04749031 -0.08436565 0.14197375
0.13074648 -0.01851057 -0.15573204 0.10775816 -0.2575288 0.09928271 -0.20568743 -0.013363028
-0.005045147 -0.06902481 -0.08819237 -0.017721118 0.11159096 -0.0018416322 0.14684239 -0.06580047
-0.18434313 -0.017975518 -0.16127224 -0.027984055 0.07636018 -0.10130153 0.184864 0.17456274
0.12365761 0.10575884 -0.093138754 0.22026768 0.07152178 0.028277967 0.03467564 -0.010200287
-0.040149093 -0.15318304 0.051352575 -0.14391026 0.0005883085 -0.11191928 -0.08855118 -0.15938763
0.015039764 0.1255471 0.0653549 0.05786972 0.011411902 0.22031848 -0.049659476 -0.067306675
-0.18260308 0.08264693 -0.17215432 0.055744655 -0.15402631 0.10645715 0.056575518 0.15319636
-0.10858306 0.06149943 -0.07705266 0.18991259 -0.1029079 0.12807247 0.09456961 -0.14031214
-0.077745914 0.011029283 -0.074007064 0.1651043 0.11197033 -0.14531052 0.07691646 -0.029511046
-0.010162328 0.14992127 0.034113884 0.2966659 0.032303683 -0.2584725 -0.15306541 0.0067915334
0.04280185 0.15334041 0.09913281 -0.07565466 -0.078002796 0.17566055 -0.032334756 0.05512057
-0.17689687 -0.15335354 0.016385885 -0.0330725 -0.11294932 -0.08755054 0.24412616 0.03390189
-0.061845053 -0.11125137 -0.1986929 -0.08289881 -0.049874634 0.18943045 0.03204728 0.03038415
-0.027877327 0.13569418 0.2004772 -0.15020794 -0.124043114 0.061727084 0.09556084 -0.031424463
-0.056613393 -0.08570414 0.04764795 -0.04030797 -0.048536874 0.008602906 -0.076622896 -0.12124591
-0.087763846 0.026525462 0.18911631 0.21938841 0.023485458 0.12047585 0.070835926 0.08466322
0.10760355 -0.07041545 0.18444815 0.06316714 0.098386444 -0.11989558 0.097929455 0.12132947
-0.056936 -0.22357067 0.055701915 0.14828643 -0.008920699 0.13327993 -0.000353086 0.17151724
0.10933885 0.0097474735 -0.11127543 -0.10551761 0.08624706 -0.090397276 -0.028700856 -0.02650686
-0.14432892 0.17847483 0.2162117 0.17109628 0.22392523 0.15454344 0.1111369 -0.02727865
0.2349001 -0.0037068895 0.09082396 0.079082206 0.011284069 -0.12357606 0.20219241 -0.16774449
-0.089745164 0.14295034 -0.006579789 -0.059958905 -0.116372876 0.0900282 0.07291728 -0.0649473
0.04907465 0.08193005 -0.060108747 0.057263214 0.022852393 0.17612478 -0.009060496 0.1444166
0.058366388 -0.09067545 0.08372621 0.15009083 -0.19178177 0.2710391 -0.077047974 -0.17665446

rnn.weight_hh_l0 f4 [32, 32]
00000000: b21d 6ebe b781 623e a600 b53e 2d5a b83d
00000010: 67c1 553d b8d4 94bd 1960 8dbe 44ff 7a3e
00000020: 9827 fe3d 75ec 593e a5bb 47be 9d07 493e
00000030: bfa8 ce3d 424b a43d 5b7b 29be b869 6b3e
00000040: d9e3 ae3e f79f c9bc 9f4f 093c 26c7 393d
00000050: b90d 523e 1e27 123e c19e 8cbd 40cd 893d
00000060: f540 223e 2d4c 953d a7c1 ce3e ac9a bebe
00000070: 30a0 cfbe b87e 913e 38da 29be 6125 a8bc
00000080: af09 8d3e f4fc 4c3c 1d23 b33c bca3 123e
00000090: e0a6 6dbc b22e 003e 9a8a 913c d2bc df3e
000000a0: be54 74be 3b4c ab3b 3596 ae3d 7e69 34bb
000000b0: 0a36 93bd a24b 193e 24ab ec3d 3357 6a3e
000000c0: fb82 81be f8ad 04be 04bd 553e 5812 9abe
000000d0: b647 60be db95 2f3e 666d ab3d 5c05 103e
000000e0: 2788 5c3d 1504 6bbb 151f 95be 1efa 913e
000000f0: 4538 b13d e1eb 743d b289 0cbe 0a80 4b3d
00000100: b0d6 68bc dfce 46bd edc9 d4bd d5b2 703d
00000110: 5c79 203e 5156 833b 122f de3d 70a5 8dbd
00000120: dd31 6d3c 1ccb d7be d92b 7bbd 45e2 04bf
00000130: 29a3 523d fb86 ec3b dd90 00be a05d 0fbe
00000140: 16cc 97be 181e 72be fd58 8abe 7698 8b3e
00000150: 6cf6 05bf 40fb 313d 2304 0c3d 89ff 8a3d
00000160: 753a 69be 5623 0dbe fd62 a4be 886d 1dbd
00000170: 4078 afbe e130 4dbe 27db 623e e955 573d
00000180: e93b 13be 5efa debc 80c7 7c3e 87c5 9f3e
00000190: 0462 d1bd 34b9 583e 8ca8 35bd 9099 d43e
000001a0: 314c bbbe da20 20bc 8ba9 f23d 8538 79bc
000001b0: bda4 ffbd 761e 363e 40ef edbc 62a5 ed3e
000001c0: 0723 06bf 7acf 49bd 10e1 043e f172 ddbd
000001d0: c728 fd3d 0007 85be bf77 173e 9320 4fbe
000001e0: 3989 8b3d 459c 663d 7913 64be 9766 89bc
000001f0: 40e8 a2bd 950b 26be 5e68 9ebd fd7c de3d
00000200: cd55 363d 5252 093d 9b31 75be 3236 283e
00000210: ed57 943c 0429 ee3d 359b 34be a97e 8abd
00000220: f5f6 df3c 5f6c bcbb c49c f6bd cdb5 01bb
00000230: db92 88bd afbf af3d 87dd 1d3e 7fe6 d6bd
00000240: c331 b5bb 18cc dc3d 2220 e6bd c463 edbc
00000250: 5507 8a3c 23d7 033d 8bd3 a63d ec6d e63d
00000260: 5229 873d abfa 51be a322 89be 5a2a 07be
00000270: b75f 57be b613 ab3d 9742 843d 9b5a d83d
00000280: 0131 9b3d 667e 05be 313d 96bd 6ba3 c03e
00000290: c709 8b3d 5f1e 2f3b f996 603c 3c70 7f3e
000002a0: 959c 86be e227 00be 3c05 3f3e 1a53 713e
000002b0: 3ed5 1fbe 0029 403e 541b bebd f720 153b
000002c0: 66d6 9dbe 165c ce3d 126e ef3d 2d05 8abe
000002d0: f217 b93d 202f eebd c10f 9b3d 88b8 8abd
000002e0: d618 8dbd ade4 31be 80a4 95be 5a5d d83e
000002f0: 7afc fe3d 8d78 8abe 7909 66bd 0c06 b0bd
00000300: f514 e93e 1c46 853d 9bd9 ecbd 3ce5 ab3e
00000310: a826 c13b 24be 073d 619f 803e 9949 0c3f
00000320: 7c15 3cbe f653 373e d471 3d3e 4917 e4bd
00000330: d038 15bd 6df6 c3bd aad1 123e cf27 2b3e
00000340: f8e6 60be fa0d a8bd 789b 523e 27c3 8cbe
00000350: 10d9 f93d 0937 f8bd b1cf 18bd b155 9cbd
00000360: b00d 37bd 3500 c43d 2de0 b5be 9444 f43e
00000370: 9e36 553e f6d5 16be af45 093e 6b7d 683d
00000380: e9dd acbe ccfe 5a3e e92e 953e 100c 46bd
00000390: 0365 863e 41f7 163e c0f9 113e 255e 2d3d
000003a0: 286b ddbe 83a5 cabd fcba 683c fc4d 36be
000003b0: d767 76be f034 e93d d488 b53d 8ddb 3fbd
000003c0: af11 77be b2ed 613e b0e5 143d dd44 0bbe
000003d0: 8b8a 77be 2597 67be a072 75be f099 63be
000003e0: 950b bd3d 7377 20bc 778b aabe 5c9e 77be
000003f0: 1286 69be f51f 8abe 437c 0a3d a738 a3be
-0.23253515 0.22119795 0.35352057 0.09001575 0.052186396 -0.072671354 -0.2761238 0.24511439
0.12409896 0.21281607 -0.19505174 0.1963181 0.100907795 0.08022167 -0.16550963 0.22989547
0.3415821 -0.02461241 0.0083808 0.04535594 0.20513047 0.14272735 -0.068662174 0.067286015
0.15845092 0.0728992 0.4038212 -0.3722738 -0.405519 0.2841699 -0.1658715 -0.020525636
0.2754645 0.012511481 0.02186733 0.14320272 -0.014505118 0.12517813 0.017766286 0.43698746
-0.23860452 0.0052275932 0.085247435 -0.0027528699 -0.071880415 0.14970258 0.1155608 0.22884826
-0.25295243 -0.12956989 0.20872885 -0.3009212 -0.21902356 0.17147009 0.083704755 0.14064544
0.053840782 -0.0035860587 -0.29125276 0.28511137 0.08653311 0.059795264 -0.13724402 0.049682654
-0.014211342 -0.04853713 -0.10390077 0.058764298 0.15671295 0.0040080925 0.10848822 -0.0691632
0.01447722 -0.42147148 -0.061321113 -0.5190776 0.051425133 0.0072182394 -0.12555261 -0.14000559
-0.29647893 -0.23644292 -0.27021018 0.27264756 -0.52329135 0.0434525 0.034183633 0.06787021
-0.22776206 -0.13783011 -0.32106772 -0.038434535 -0.3427143 -0.20038177 0.22153912 0.052572165
-0.14378323 -0.027218994 0.24685478 0.3120539 -0.10223773 0.211644 -0.044350192 0.4152341
-0.36581567 -0.009773457 0.11848744 -0.015211229 -0.12482593 0.17785057 -0.029044747 0.4641524
-0.523972 -0.04927013 0.1297648 -0.10812939 0.12361293 -0.25981903 0.14791773 -0.2022727
0.068132825 0.056301374 -0.22273053 -0.016772551 -0.079544544 -0.16215356 -0.0773475 0.108636834
0.04451542 0.033525772 -0.23944704 0.16426924 0.018108333 0.11628917 -0.17637332 -0.0676244
0.027339438 -0.0057502235 -0.120416194 -0.00197922 -0.066686355 0.085814826 0.15416537 -0.104931824
-0.0055296137 0.10781115 -0.112365976 -0.028978236 0.0168492 0.032187592 0.08145817 0.11251435
0.06599678 -0.20505778 -0.26784238 -0.1319975 -0.21032606 0.08353369 0.064580135 0.105641566
0.07577706 -0.13036498 -0.0733589 0.37624678 0.06788974 0.0026720983 0.01370787 0.24945158
-0.26291338 -0.12515214 0.1865434 0.23566857 -0.15608689 0.1876564 -0.09282556 0.0022755244
-0.30827636 0.10076158 0.11690916 -0.26957074 0.0903777 -0.11630082 0.07571364 -0.06773478
-0.06889503 -0.17372389 -0.29227066 0.42258722 0.124505 -0.27045098 -0.056161378 -0.08594903
0.455238 0.06507513 -0.115649424 0.3357333 0.0058945008 0.033140317 0.25121596 0.547998
-0.1836757 0.17903122 0.18500453 -0.11137254 -0.036431134 -0.09568486 0.14337793 0.16714405
-0.21963108 -0.08205791 0.20567119 -0.2749264 0.121996045 -0.12119872 -0.037307445 -0.07633532
-0.044690788 0.09570352 -0.35522595 0.4770857 0.20821616 -0.14730057 0.13405488 0.056760233
-0.33763054 0.2138626 0.29137352 -0.048351347 0.2624894 0.14742757 0.14255428 0.04232611
-0.43245816 -0.0989485 0.014204737 -0.17803186 -0.2406305 0.1138705 0.088639885 -0.04684024
-0.2412784 0.2206333 0.03635186 -0.13600488 -0.24173944 -0.22616251 -0.23969507 -0.22226691
0.09230725 -0.009794104 -0.33309528 -0.24181503 -0.2280505 -0.26977506 0.03380991 -0.3187916

rnn.bias_ih_l0 f4 [32]
00000000: 980c 4e3e 912f bcbd be17 d23d c926 adbd
00000010: 922d c2bb 788d ebbd d607 16be 867b a3bd
00000020: 4870 fb3d 51be 26be a3f0 b63a 3b4e 60bc
00000030: da99 263d f38a 7cbe e2f7 80be 0d54 9dbe
00000040: fb68 d63b 0837 f3bd 7393 babd 726c 533e
00000050: 4246 ff3d 44aa e93d 1ec2 e93c f197 1d3e
00000060: f1aa 35ba ab59 733d a7b1 4fbe 9a26 88bd
00000070: 7bfc 71be 9498 06be a55a d7bd 7123 283d
0.20121992 -0.0918876 0.10258435 -0.08454663 -0.0059258426 -0.115015924 -0.14651427 -0.079825446
0.12277275 -0.16283537 0.0013957213 -0.013690527 0.040674068 -0.2466238 -0.2518912 -0.30728188
0.0065432764 -0.11875731 -0.09110155 0.20646837 0.124645725 0.11409429 0.028534945 0.15389992
-0.00069300743 0.059411686 -0.20282613 -0.06647988 -0.2363147 -0.13144141 -0.10515336 0.041049425

rnn.bias_hh_l0 f4 [32]
00000000: 685e 71bd 5772 f2bd 734d 6a3e 5bbc 0abd
00000010: 7b09 d5bc ffdc f0bd d3fa 3bbe 56af 45bc
00000020: e95e a7bc 2c85 4fbe f48c 803d 734b 693d
00000030: 4501 943d d80e 73be 622d c13c 5d34 a9be
00000040: 80d6 ecbc 4da6 01be 42d1 b0bd 6cec a93d
00000050: ed9a 483b 439f 44bb 3d28 893d 295b d9bd
00000060: 9276 0cbe 77c2 893c d70e 42bd 7bc0 743c
00000070: 15e4 a0bd 8275 a6bd a564 83bd 28b7 2cbe
-0.058927923 -0.11838215 0.22881107 -0.033871036 -0.026005497 -0.11760902 -0.183574 -0.012065729
-0.020430999 -0.20265645 0.06276885 0.05695672 0.07226805 -0.23736131 0.02358121 -0.33047763
-0.028910875 -0.12661095 -0.08633663 0.08297047 0.003060992 -0.0030002154 0.06697128 -0.106130905
-0.13717106 0.01681636 -0.047377434 0.014938469 -0.07856003 -0.081278816 -0.06415681 -0.16866744

rnn.weight_ih_l0_reverse f4 [32, 128]
00000000: e255 2f3e a6fd 5f3d d711 b1bd 88b6 49bd
00000010: 2f82 133e a4a1 013d 1767 ebbb 6b1d de3d
00000020: 3b17 c0bd 65c0 cdbb 5299 633d 65a5 093e
00000030: cc95 d73d c5da 393e aa05 dd3d c652 8ebd
00000040: c2ce 013e e216 abbc 88cd fa3d 00d4 863d
00000050: 3ac1 0f3d 855a 563e 9e4f cb3d 47eb 62bc
00000060: 053e b53c 530d 99bd 4ece 123e 390d a8bd
00000070: dcda 193e 3131 1a3c d1a6 863e b53e a53b
00000080: b85e 53be ee86 9c38 b58c 20be 5572 c1bd
00000090: c883 07be 5731 3b3e 25cf 653a e6ca 67bc
000000a0: 45ef c8bd 8da5 3d3d adfb 003e 30a5 c0bb
000000b0: 84c2 64be 2bb7 dbbd 297d 9d3d 5629 9ebc
000000c0: 605d 1a3e ea84 3e3d b904 b13d f2ef 47be
000000d0: dde7 48bb ccc3 f43c d10f 72be e0af 31be
000000e0: 110e 403e 02c7 b33d abde 25be 6016 9e3d
000000f0: 9c37 f13d ae5d 253d bf0c 473e 918d 5f3e
00000100: 3c5c 163e 2ded 593d 9847 6f3e cb65 bd3c
00000110: f167 da3d 805a 503d b659 d4bd 9dfa 02be
00000120: 5349 00bd 666c 2b3e cad2 94bd a2bf 633e
00000130: e58a ec3d 3bc3 24be 2683 373e 5ffa 70bc
00000140: 015e a03d 6506 2fbd 5ddc 6fbe c1f3 09be
00000150: be3a 8abe 4b4b 29bc 33ca 6c3d 2d50 393e
00000160: 366e d0bd e62f 883e 1485 93bc 1c7d 473e
00000170: 7378 6e3d fa83 763e ae4e 7cbb 22a1 273e
00000180: 847a 7fbd 6488 87bc 4a0c da3d 890c 273e
00000190: 26c5 2fbe 246b a53d 4a47 4c3d 4fcb 10be
000001a0: 7bb5 a8bd 4b38 5cbe 5f78 863d e35c 46be
000001b0: 1123 e2bd 483c 5d3c 6c02 273c a27a ffbd
000001c0: 5e56 e5bd b609 3abe f27e ff3c 6a92 97bd
000001d0: d9d6 32be cdab dc3d f9af e33d 000e 293e
000001e0: 6c66 1fbe 30a0 133e 30cc 7bbd 6665 0ebd
000001f0: 717b 3f3e efef 173a 3026 1d3e 0a22 e1bc
00000200: b594 5cbd 12d0 ddbd eb2c 8abe f665 17bd
00000210: ec45 34be af0a 923d 3ea4 3c3e f32d 673d
00000220: 5d11 eb3d 72e6 a2bd 7232 4fbc 8ab1 883e
00000230: ad00 02bd b302 79be 519a c4bd a30e 5d3d
00000240: 68cf 5dbe d670 39bd 3ce6 77be f523 c8bd
00000250: cb4a 19be 33e2 823d be59 85bd f911 5fbe
00000260: 2b11 bb3d de41 093e a986 0b3d 6514 a7bb
00000270: c40a 1e3e 491e d3bc 6034 0f3e aa71 cfbd
00000280: 02cd 503d 7e9a dabc 6c7b aabe 8534 0c3e
00000290: d0a2 5c3e fafd 063e 0b08 f43c 65f9 2b3e
000002a0: a541 e13d aeac f5bd b0d7 333e 7352 a5bd
000002b0: a7b4 be3d acf8 d1bd bf81 f23c fe20 04be
000002c0: 0d39 9d3d 4ae0 efbd 414c 8abd 48c6 2bbe
000002d0: 2684 fb3d 5e61 bd3d 0f69 66be d061 0e3e
000002e0: e772 783e 1408 9c3d e5f3 a9bc 7ec5 8fbb
000002f0: 8928 f33b f490 00be 3c8e dabd 4f13 cd3c
00000300: ae2d 0ebe b882 a03d 6117 18bc 1a7a bdbd
00000310: 6f79 7dbd 8f31 143e 06ba 25be 938c a1be
00000320: bd7a 6ebd d7ca de3d a77f 51bd 0476 e93d
00000330: b0e1 f9bb 7800 e53d fe90 863c f463 c6bd
00000340: cdc9 b1bc 510e 6fbe 64a9 10be d20c 383e
00000350: 7a01 40be d925 043e e9e9 4c3c f0bd 91bc
00000360: 3aec 633d fa48 41bd 264e fd3d b6b2 06be
00000370: 6199 0d3d 60a8 363e 4c1e a73d 19eb 8f3e
00000380: 4a47 01bd b38c 2abe e3d6 00be 2fe0 1c3e
00000390: fe4d 14be 7d58 093d 7c1d 343d d08e 40bd
000003a0: 165d 05be a3c9 7b3e 3e9e f63c 49a5 5cbe
000003b0: d605 ecbc 44af 67bd cef0 0a3e a6d9 96bd
000003c0: 28df bdbd fe29 aabd f25b 46be 2313 423e
000003d0: a66e dc3d 98ff ac3e 0ac6 a3bd 7234 34bd
000003e0: f059 e0bc f6ed d43c 3c8e 3abb fcac c03d
000003f0: 57f7 b13d 0af6 af3d 1c40 333c 47aa dcbd
0.17122605 0.054685257 -0.08645981 -0.04924634 0.1440513 0.031648293 -0.00718392 0.10845455
-0.09379431 -0.0062790387 0.05556614 0.13442 0.10526618 0.1814986 0.10792096 -0.069493815
0.12676528 -0.020884935 0.12246233 0.065834045 0.035096385 0.20932968 0.09927295 -0.01385004
0.0221243 -0.074732445 0.14336511 -0.08205647 0.15024894 0.009411142 0.26299146 0.0050428757
-0.20641601 7.463792e-05 -0.15678675 -0.09445635 -0.13233864 0.1828054 0.00087665237 -0.014147496
-0.09811262 0.04630046 0.12596007 -0.005879067 -0.22339827 -0.10728296 0.07689888 -0.01930682
0.15074682 0.046513475 0.08643479 -0.19525126 -0.003065578 0.02987852 -0.23638846 -0.17352247
0.18755366 0.08778192 -0.16198222 0.077191114 0.11778185 0.040372543 0.19438456 0.21831347
0.14683622 0.053204704 0.23367155 0.023119828 0.106643565 0.050867558 -0.103686735 -0.12790914
-0.031319927 0.1674057 -0.07266767 0.22241071 0.115499295 -0.160901 0.17921123 -0.014708131
0.0783043 -0.042730708 -0.23423906 -0.13471891 -0.26997942 -0.010332893 0.05781002 0.18096991
-0.10177271 0.26599044 -0.018007793 0.19481319 0.058220338 0.24073783 -0.0038499045 0.16370061
-0.0623727 -0.016544528 0.10646875 0.16313376 -0.1716505 0.08077076 0.049872674 -0.14140056
-0.0823774 -0.21505849 0.06565928 -0.19371371 -0.11041845 0.013503142 0.0101934485 -0.12474562
-0.11198114 -0.18167767 0.031188462 -0.07400973 -0.1746477 0.10774956 0.111175485 0.16509247
-0.15566415 0.14416575 -0.061474025 -0.03476467 0.18699433 0.0005795946 0.15346599 -0.027482051
-0.053852756 -0.10830702 -0.26987395 -0.036962472 -0.17604798 0.07130944 0.18422028 0.056440305
0.11477921 -0.0795411 -0.012646304 0.26697952 -0.031738926 -0.24317436 -0.09599746 0.053969037
-0.2166115 -0.045273624 -0.24208921 -0.09772483 -0.14969938 0.063908 -0.065112576 -0.217842
0.09134134 0.13404033 0.03406397 -0.0050988668 0.15433794 -0.025771277 0.13984823 -0.101291016
0.05097676 -0.026684996 -0.33297288 0.1369191 0.21546483 0.13182822 0.029788991 0.16794355
0.10998849 -0.11995827 0.17562747 -0.080723666 0.093118005 -0.102525085 0.029602883 -0.1290321
0.07676897 -0.117127016 -0.067528255 -0.16774857 0.12281065 0.09247087 -0.22501014 0.139045
0.24262582 0.07618728 -0.02074618 -0.0043875566 0.0074206037 -0.12555295 -0.1067166 0.025033621
-0.13884613 0.078374326 -0.009282918 -0.09251805 -0.061883386 0.1447203 -0.16184244 -0.31552562
-0.05822252 0.108785324 -0.05114713 0.11399463 -0.007625781 0.1118173 0.01642656 -0.09687033
-0.021702671 -0.23345305 -0.14127117 0.1797364 -0.18750563 0.12905063 0.01250694 -0.017790765
0.055645205 -0.047188736 0.12368421 -0.1315411 0.0345701 0.17837667 0.081600755 0.28109053
-0.031562127 -0.16655235 -0.12581973 0.15319894 -0.14482877 0.033531655 0.04397343 -0.047011197
-0.1302379 0.24588637 0.030104753 -0.21547426 -0.028811377 -0.05656363 0.13568422 -0.07365732
-0.09271079 -0.083087906 -0.19371012 0.18952613 0.10763292 0.33788753 -0.07996757 -0.04399533
-0.027386636 0.025992375 -0.0028466126 0.09407994 0.086897545 0.0859185 0.010940578 -0.10774665

rnn.weight_hh_l0_reverse f4 [32, 32]
00000000: 1f80 04be 4612 c53c e71a c9bd 869a 3f3e
00000010: 9f30 4e3d 83b9 c3bd 980e 33be 3573 0f3e
00000020: 3a00 a73d 38dd 563e 613d 1bbe e5b9 793d
00000030: e513 e3ba abf4 a83a bfeb 61be 526a 323e
00000040: f4c6 403e 39b3 b8bb 92b4 a23e c164 a13b
00000050: 3ed2 bcbd 4a00 1a3d e6e8 bf3d 01a1 f8bd
00000060: b972 6fbd 0186 a83e 76cd 093e 614e ce3d
00000070: 0818 423b 1ba4 87bb 2c6d 40be 53a2 653e
00000080: 42c0 83bd c38f afbd c8f3 8c3c 41eb 523e
00000090: 546e 37bc ebc6 293e d870 51bd c120 033e
000000a0: 41ae 57bd 5482 d8bd 97e4 113d 08fa 8e3e
000000b0: adac 5f3c 75a6 36bc 7262 0fbe 8ab9 8e39
000000c0: c056 133d 49c2 0abe 2240 413e 7e11 dabd
000000d0: 9397 ebbd 5d49 363c 44b0 62bd 6890 66be
000000e0: 03a7 4e3d 42a2 c03e 4e3d 103e fe7b 723e
000000f0: 97b7 17bd dadb 213e 1f13 c9bd 816b c8bd
00000100: 24ba 7bbe 884a 8e3e ecb1 3bbd d4e3 753d
00000110: 1ca2 3d3e c5c1 533e dfdd 95bd 9ec9 1b3e
00000120: 8e8d 21bd 9217 c4bd a99a 1c3e de02 b03c
00000130: a659 2e3e a643 febd a5e2 16be aa22 143e
00000140: a910 8f3e 7545 59bd c0cc 6d3c e0d0 9fbd
00000150: ebbc bb3d 3abe 91be bf7c 8d3b 5c23 d43d
00000160: 3f63 33be c374 d5bd 797e e03d e0e9 8dbe
00000170: 6b62 99bd 8c13 cf3a e031 8dbe ceb7 37bd
00000180: 5c6b c2bb 384e f43d d3f3 0d3e c743 473e
00000190: 4599 83be 9a61 913e 26b7 743d ee2f 093d
000001a0: 247e 9b3c 1606 53bc 1e5b 2e3e a0b4 50bc
000001b0: 13cb ab3d af0a cabd 7dc7 b4bd 0034 16bd
000001c0: 1d14 2abc 9964 143e 8a67 273e f939 1fbe
000001d0: 7791 093d d502 dbbd 08f3 553e b3b5 8e3e
000001e0: c152 e83c 6ff1 313c 1ec8 35be 75e0 96be
000001f0: f6a0 0cbe c461 253e 9bbf a33e f87c 873e
00000200: cb7f ad3d 56e7 8b3e 9522 4cbe a6b3 6ebd
00000210: d327 873e ed5a 13bd 484d e83d 589f 89be
00000220: da6b 5cbd c173 ae3d 1e9b e93e 9da9 34bc
00000230: 93fb 373e 908e 7fbd 8575 813e d9a7 3bbc
00000240: 1843 1f3d 9f71 24be e841 ccbd 0beb d7bd
00000250: 54d9 913e d9cb 7bbe bfab f9bc 54df 2b3e
00000260: 4b0a dfbc 4c59 fdbd 4dd5 95bd 42b1 79be
00000270: db8d 413c 29fd 97bd c456 883d 6e3b f1bd
00000280: 0fae 62bd eaf6 3f3d f717 813d d758 1a3e
00000290: 2bc1 cdbd a632 09be 7415 323d a798 96bd
000002a0: c148 193e 1922 0abe faf1 e13d eb1b 9ebd
000002b0: 5535 3c3e 8f70 79bd 5119 a53d 2be4 59bd
000002c0: 5cfd a63d 4d2d 0a3d 73f8 a7bd 8a24 1f3e
000002d0: a1e7 31bd a8aa 4fbe c7fc 6fbd 6563 7b3e
000002e0: 0ae3 c7bd 01a7 373c feaf ba3d c98c 4cbe
000002f0: e826 07bd b864 dabd a340 fa3c 9157 84bd
00000300: 87a0 a9be 0251 473e 6ab0 6b3d e902 e23d
00000310: 303c 17be 9650 873d 2b0c 313d 792c 3a3e
00000320: 02ee 933e 2f28 863d ac55 80be b978 853e
00000330: 0616 3c3b 8087 cb3c 05a9 c2be f6f5 b23e
00000340: ff52 ffbc bde5 cdbd b11f bb3e 691e b73d
00000350: f2f2 a83d 5c73 60be 1e0b 3b3d 341a 6fbc
00000360: 7ad5 b6bc 3406 8a3e 67ce 1bbe df5f ecbd
00000370: e5f7 8abe 64da a33e 6a82 c13d d3c2 9e3e
00000380: e6da 9b3e b2fc 29be 4f5e ac3e 27c6 6f3d
00000390: a38e 8bbe dedf 66bc 5e2b 943d fee4 85be
000003a0: bc8c 35bc 5867 f03c 4337 ccbd 8b7c d1bc
000003b0: a289 b2bc fd40 723c 3d07 74be f13f 733d
000003c0: b65c 87be 3e27 1b3e 7bd1 3a3e 47b1 383e
000003d0: 7439 6cbe e43b 20bd 77cd d73d d664 9abe
000003e0: f484 9fbd 5700 4cbd 3e44 8cbd c4b2 f13d
000003f0: 2b49 18be 5319 e43c bbe3 ad3e 0d17 4ebe
-0.129395 0.024056565 -0.09819584 0.1871129 0.050339337 -0.09556868 -0.17486036 0.14008792
0.0815434 0.20982826 -0.15160133 0.0609683 -0.0017324655 0.00128903 -0.22062586 0.1742337
0.18825895 -0.0056365994 0.3177839 0.004925341 -0.09219788 0.037597932 0.09370594 -0.12140084
-0.058459017 0.32914737 0.13457283 0.10073543 0.0029616375 -0.004139436 -0.18791646 0.22425203
-0.06433155 -0.08572342 0.017206088 0.20597555 -0.011195738 0.16579787 -0.051133007 0.12805463
-0.052656416 -0.10571733 0.03561839 0.27925134 0.013652009 -0.011148085 -0.14002398 0.00027222588
0.035971403 -0.13550676 0.18872121 -0.106478676 -0.1150352 0.01112589 -0.05534388 -0.22516024
0.050452244 0.37623793 0.14085886 0.23680112 -0.03704032 0.15806523 -0.098181 -0.0978613
-0.24582726 0.27791238 -0.045823976 0.060031727 0.18518871 0.20679386 -0.07317709 0.1521363
-0.039441638 -0.09574808 0.15293373 0.021485742 0.17026386 -0.12415247 -0.14734896 0.14466348
0.27942398 -0.053044755 0.014514148 -0.078035116 0.091668926 -0.28465444 0.0043178494 0.10358307
-0.17518328 -0.10422661 0.10961623 -0.27717495 -0.07489475 0.0015798672 -0.27577114 -0.044853024
-0.0059332084 0.119289815 0.13862543 0.19459449 -0.25702873 0.28394777 0.059744976 0.033492975
0.018981047 -0.012879869 0.17026946 -0.012738377 0.08388343 -0.09865319 -0.08827112 -0.036670685
-0.010380772 0.144915 0.16348091 -0.15549459 0.03358599 -0.106938995 0.2089349 0.27873
0.028359773 0.010860785 -0.1775212 -0.29468122 -0.13733277 0.16150576 0.3198212 0.2646253
0.0847164 0.27324933 -0.19935067 -0.058276795 0.2639757 -0.035975385 0.11342865 -0.26879382
-0.053813793 0.08518172 0.45626158 -0.011026767 0.17967062 -0.062391818 0.25284973 -0.011453592
0.038882345 -0.16058968 -0.09973508 -0.10542878 0.2848612 -0.2458948 -0.030477403 0.16784412
-0.027226588 -0.12370548 -0.073160745 -0.24384025 0.011813606 -0.07421333 0.06657174 -0.117789134
-0.055341776 0.046866335 0.06303399 0.15072952 -0.100466095 -0.13398227 0.04347749 -0.07353335
0.1496916 -0.1348957 0.110324815 -0.07720169 0.1837972 -0.06089836 0.08061469 -0.053196114
0.08153793 0.03373461 -0.08201685 0.15541282 -0.04343379 -0.20279944 -0.058590677 0.24549635
-0.09760101 0.01120925 0.09115599 -0.1997558 -0.03299609 -0.10663742 0.0305484 -0.064620145
-0.33130285 0.19464496 0.05754129 0.11035711 -0.14769053 0.066071674 0.043224495 0.18181027
0.28892523 0.06550633 -0.25065362 0.26068667 0.002869965 0.024844885 -0.38019577 0.34953278
-0.031167505 -0.10053585 0.36547616 0.08941347 0.08249463 -0.21919006 0.0456649 -0.01459365
-0.02231859 0.26957858 -0.15215455 -0.115417235 -0.27142254 0.32002556 0.09448703 0.31008014
0.30440444 -0.16600302 0.33665702 0.058538582 -0.2725726 -0.01409146 0.07234834 -0.2615127
-0.011080917 0.029346153 -0.09971478 -0.025572082 -0.021794144 0.014786002 -0.23830886 0.05938715
-0.2643792 0.15151688 0.18243973 0.18036376 -0.23068792 -0.039119616 0.10537236 -0.30155057
-0.07789031 -0.04980501 -0.06848954 0.11801675 -0.14871661 0.027844107 0.33962807 -0.2012598

rnn.bias_ih_l0_reverse f4 [32]
00000000: b009 3b3d d16a 35be 3afd dd3d 9354 95be
00000010: 4e5b 7a3d a308 8dbd 0266 c0bd 645d 70be
00000020: bc53 71be 09ea 883d a2e3 793d 421a 20bc
00000030: 54f1 b83e f161 1ebe 2fb4 0cbd e942 13be
00000040: 40fa 88bd 5ccc 35be 4412 bcbe 9531 083e
00000050: 3565 09bd 7b17 263e 7155 93be c945 873e
00000060: 8083 ad3d 60cf dfbe 2a48 553e b09c bd3d
00000070: 5d42 863e 7e34 38be 4e15 8b3c 130e af3d
0.045663536 -0.17716528 0.10839315 -0.29166088 0.06112223 -0.06886413 -0.093944564 -0.23473126
-0.23567098 0.06685264 0.061008103 -0.009771885 0.3612162 -0.15467049 -0.034351524 -0.14380993
-0.066883564 -0.17753738 -0.36732686 0.13300164 -0.033543784 0.16219895 -0.28776124 0.2642043
0.08472347 -0.43712902 0.2082831 0.092584014 0.26222506 -0.17988774 0.016977932 0.08547606

rnn.bias_hh_l0_reverse f4 [32]
00000000: 1995 493d ad8c 77be d403 563d 0ffc 8bbe
00000010: 4b2c f23d e614 e1bd 0da6 7ebe 21b3 c1bd
00000020: 9445 a8be 83e9 6d3c 66c1 c73d cc71 953b
00000030: 67e6 773e 20c8 413d e50d 6f3c dc63 3cbd
00000040: bf0f 4d3d 4946 c2bd a4b2 c5be 5538 7e3e
00000050: fc64 1cbd 7bc2 273e 564b 0bbe 7528 853d
00000060: 3124 03bd 3dfb 0cbe f8f3 b13d 47e5 863d
00000070: 8fc7 dc3d df57 f7bc 0417 a33e de12 0bbd
0.049214456 -0.24174757 0.052249745 -0.27340743 0.118248545 -0.10990314 -0.24868031 -0.09457994
-0.32865584 0.014521006 0.09753685 0.004560685 0.24208985 0.047309995 0.014590715 -0.04599367
0.050063845 -0.09486062 -0.38612854 0.24826176 -0.038182244 0.16382782 -0.13602957 0.06501857
-0.032016937 -0.13767715 0.086891115 0.065867 0.1078025 -0.030193267 0.31853497 -0.03395354

fc1.weight f4 [12, 64]
00000000: c92d 8dbd d0a1 19bf 361e ad3e 4258 16bf
00000010: 28bf 29be 44bf 03bf 71dd eabe b141 253d
00000020: f534 d9bd a6d5 03bf b28e 91bd 1c80 7d3e
00000030: 7481 2f3e 948f 51be 6d34 8dbe 1604 d6bd
00000040: d106 cfbd 9d85 18bf a853 893e eee3 443e
00000050: 7777 c83e cfe6 053f ba98 27bf 8e05 263f
00000060: edaf 273f 1097 91be afec 07bf 7e8a 153d
00000070: 0618 e4bc e74f 02bf a65d c13e 4039 b93e
00000080: 372c b0be cd79 6ebe b74e 01bf 2d4e 71bd
00000090: 8e2f 93be b22c 87be 6211 cebe cd5d 823e
000000a0: 2480 b3be 45d0 c23e 5503 5f3e b802 7bbe
000000b0: eead a83e e9f8 b53e 9729 0b3e 8b23 d3bd
000000c0: 46a9 d53e 102c 61be ec82 c4bd b6c2 903e
000000d0: e8fa d6be ceb4 643e 0685 5ebe e94c b23e
000000e0: 6a04 bbbe 2a7d 92be f9d0 fa3e 9eab 1dbe
000000f0: d3b2 d63e 7b91 98be 263c c23c b135 083f
00000100: 2af0 813f 8a8e 293f dda8 113f ec7d 423d
00000110: dbbe 733f e59e 87be e86c e4be 146d 843e
00000120: 5f79 a13f 418a 553f c098 febd 074e 45bf
00000130: 711d a03e 96ce 833e fde4 4dbe e59c 4e3a
00000140: 2df6 fabe 9d3c f4be 6cbd c9be ba1e 82bf
00000150: a0d8 fa3d 49d6 09be 980f 113f db1c 30bf
00000160: 2308 12be d595 c43f ece9 0d3f 6ebe 953d
00000170: 2b5c c3be ad5d 313e 8cd8 afbe aff8 66bf
00000180: 0c07 b53e 1eb0 8a3f a311 023f eb2a e6be
00000190: fbd3 15be 883e 983f e4de e2be aa64 38bf
000001a0: d6bb 5ebe 9b78 97bf e085 4cbf 0fc5 9abe
000001b0: 768c 18be 47bd 3abf cc85 58bf a6bf 623e
000001c0: 645c 8a3e 5f02 7d3f 2d4f cdbd b757 6a3e
000001d0: 8752 333f 5ff9 9d3b f153 44be 7899 81be
000001e0: 71e5 343f 8f8e 36bf a1fe 0a3f 8fe6 4e3f
000001f0: 5e8b 1e3f bda0 d6bd 4ed9 8e3f c010 1b3e
00000200: 7577 013f a832 85be 6430 7dbf d084 2dbf
00000210: 42f1 a23e 34e7 883f a3c4 09bf a32a 24bf
00000220: 7a07 eebe ef86 f7bd 2073 843f 8144 373f
00000230: a8a3 adbf 40b4 833e da89 e13f f8e2 153f
00000240: 6226 823e f5f7 b6bd 20d7 03bf a4a8 59be
00000250: cc51 243e 7d98 8dbf 4737 cdbe 0a1a ea3e
00000260: 6d0e 1c3d d04d 833f 7bcf 033f 1e6f b3be
00000270: 42dc d6be 6267 463f 599d ae3e 2543 b13e
00000280: 3e42 103f 9d38 b6be 91ce 3abf 0d60 f43e
00000290: 2eef 3b3f d145 933f e994 72be 293a 873f
000002a0: 2a55 4d3f 05d4 c4bd 66f3 453f 4cf9 b1bd
000002b0: 3ed6 67bf 590a 86bf 500d 923e 261a ae3f
000002c0: df3d 97be 7348 8c3f 8436 923d 0f84 f3bd
000002d0: 168c b2be 18cd 3cbf 1925 f43d 6657 77bf
000002e0: 7e1a 423f f664 20bf d6a2 ea3e 4ad4 34bf
000002f0: 8278 8a3e 0206 18be 91b6 273f 7a95 11bf
00000300: 98e6 5c3f c4aa 053f 8866 4c3e 569e e23e
00000310: 1c45 a1be 3bca b23e 5362 e4be bf33 b5be
00000320: f34f 343f 9366 ed3e e569 30be 83f5 fcbe
00000330: 9d2f f33d cbaf 6dbf b550 903f cd28 8d3f
00000340: 54c6 bebd dd29 d2be 0e70 a13d b100 d2be
00000350: 1f71 44bf 41b4 ebbe 99e8 223f 16fc 0c3f
00000360: 9788 16bf 32fe 8abe 1e4d d93e 48ed 5b3f
00000370: 5772 4d3f f0f3 07be 86dc a23d 90c8 03bf
00000380: 467a 0e3f b5cf 30be c2e2 5c3e 6009 9c3f
00000390: d1b1 023f da33 133d a9fe 4e3f bd5d 25be
000003a0: 37fc 7a3d b8b4 413e 46ed 453f 899f 4abe
000003b0: 7bfd f0be 1006 f73e aa9e 7abf 32ea f73d
000003c0: cdd7 5e3f 960d 343f 9129 ab3f c685 66bf
000003d0: e632 62be 8777 e6bd 1f1f 9ebd ef72 05be
000003e0: 6d94 2a3f 73ed 0cbf f570 3fbf 2eda cf3e
000003f0: e982 e2be 9fba 60be cfd4 0dbf 86d0 293f
-0.068934985 -0.6001253 0.33812112 -0.5872842 -0.16576827 -0.51463723 -0.4587207 0.04034585
-0.10605804 -0.51497877 -0.07107295 0.24755901 0.17139226 -0.20464927 -0.2757906 -0.10449998
-0.10108722 -0.5957888 0.26821637 0.19227573 0.39153644 0.5230531 -0.6546742 0.64852226
0.65502816 -0.28435564 -0.53095526 0.03650903 -0.027843487 -0.5090317 0.3776676 0.3617649
-0.34408733 -0.23288651 -0.50510734 -0.058912445 -0.2874722 -0.26401287 -0.40247637 0.2546219
-0.350587 0.38049522 0.21778615 -0.24512756 0.32945198 0.35541466 0.13590084 -0.10309514
0.41730708 -0.21989465 -0.09595284 0.28273553 -0.419883 0.22334597 -0.21730432 0.34824303
-0.36526805 -0.28611118 0.48987558 -0.15397498 0.41933307 -0.29798493 0.023710322 0.53206927
1.0151417 0.6623312 0.5689829 0.04748337 0.952131 -0.26488414 -0.4461434 0.2586447
1.2615165 0.83414084 -0.124314785 -0.77072185 0.31272462 0.2574355 -0.20106883 0.00078816555
-0.49015942 -0.47702494 -0.3940233 -1.0165627 0.12248349 -0.1346065 0.5666442 -0.6879403
-0.14260916 1.5358225 0.5543506 0.07311712 -0.38156256 0.1732089 -0.343449 -0.9022321
0.3535694 1.0834997 0.5080816 -0.4495462 -0.14631645 1.1894083 -0.44310677 -0.720286
-0.21751341 -1.1833681 -0.7989178 -0.3022847 -0.14897332 -0.72945064 -0.8457916 0.2214342
0.27023613 0.98831743 -0.10024867 0.22885023 0.700478 0.004820987 -0.19172646 -0.253124
0.706626 -0.7131128 0.5429478 0.80820554 0.6193141 -0.10479877 1.1160066 0.15143108
0.505729 -0.2601521 -0.98901963 -0.6778078 0.3182469 1.0695558 -0.5381567 -0.6412756
-0.4649008 -0.120862834 1.0347633 0.71588904 -1.3565569 0.25723457 1.7620194 0.5854945
0.2541991 -0.08934013 -0.5150013 -0.21255738 0.16046828 -1.1062161 -0.40081236 0.4572299
0.038099695 1.0258121 0.51488465 -0.35045713 -0.41964918 0.775015 0.34104422 0.3462154
0.5635108 -0.35590068 -0.72971445 0.4772953 0.73411834 1.1505681 -0.23689617 1.0564624
0.80208075 -0.09610752 0.7732452 -0.08690128 -0.9056128 -1.0471908 0.28525782 1.360173
-0.2953939 1.095961 0.07139304 -0.118904226 -0.34872502 -0.7375045 0.11921138 -0.96617734
0.75821674 -0.62654054 0.4582736 -0.7063643 0.27045065 -0.14846042 0.6551295 -0.5686871
0.8628936 0.5221369 0.19960988 0.44261426 -0.3149804 0.34919915 -0.44606265 -0.35391042
0.7043449 0.4636732 -0.17227896 -0.4940606 0.11874316 -0.92846364 1.127463 1.1028076
-0.09315172 -0.41047564 0.07882701 -0.41016153 -0.7673511 -0.4603596 0.63636166 0.5507215
-0.5880217 -0.2714706 0.42441648 0.8590894 0.80252594 -0.13276649 0.07952218 -0.5147791
0.55655324 -0.17266734 0.21570876 1.2190361 0.51052576 0.03593812 0.8085733 -0.1614904
0.061275687 0.18916595 0.77315176 -0.1978742 -0.4706839 0.48246813 -0.9789835 0.12105216
0.87048036 0.7033323 1.337206 -0.9004787 -0.22089729 -0.11253267 -0.0772078 -0.13032125
0.6663273 -0.5504982 -0.74781734 0.40596145 -0.44240502 -0.2194619 -0.55402845 0.66333807

fc1.bias f4 [12]
00000000: b2e5 663c 347c df3d 7cc0 8dbe 3c97 03bf
00000010: b6e2 b6be 6452 a7be 09f0 8fbe 047d 3cbf
00000020: f746 c0be 0eaf 97be c8d8 4cbe 4285 36bf
0.01409285 0.10912362 -0.27685916 -0.5140264 -0.35719842 -0.32680047 -0.2811282 -0.7362826
-0.37554142 -0.29625744 -0.2000457 -0.71297085
