src/src_learner/python3_finetuning_model.pt (torch, 99780 bytes, 11 tensors)

word_embeddings.weight f4 [102, 128]
0	0xbfbf44fe	-1.494293
1	0xbf317833	-0.69324034
2	0xbf1a2172	-0.60207283
3	0xbfceb510	-1.6149006
4	0xbdc337b8	-0.09532112
5	0xbeefdbc8	-0.46847367
6	0xbf86a4ac	-1.0519004
7	0xbfc59587	-1.5436257
8	0xbf54f8da	-0.8319222
9	0x3e81318e	0.2523312
10	0xbf49a9c1	-0.7877465
11	0xbea2fea4	-0.318349
12	0xbe17c14e	-0.14819834
13	0x3fd82ce7	1.6888703
14	0x3ec89fcc	0.39184415
15	0x3ee29ec9	0.44261768
16	0xbf30d0b2	-0.69068444
17	0xbf910e11	-1.1332418
18	0x3f2d64f1	0.6773215
19	0x3e1ce025	0.1531988
20	0x3f57785d	0.84168035
21	0x3e483b6d	0.19553919
22	0xbf1c12cb	-0.60966176
23	0x3f60857e	0.8770369
24	0x3f94dc49	1.1629726
25	0xbe99587d	-0.29950324
26	0xc00ce2ca	-2.201342
27	0xbfc10363	-1.5079159
28	0x3c5f2e68	0.013621904
29	0xbf2ef604	-0.6834414
30	0xbf629298	-0.88504934
31	0xbdd43311	-0.10361303
32	0x3ff8d581	1.9440156
33	0xbd852143	-0.06500485
34	0x3e8a3f65	0.2700149
35	0xbf5c251c	-0.85994124
36	0x3e969d5e	0.29416937
37	0x3d03e501	0.032200817
38	0x3e3ac536	0.18239293
39	0xbef1287a	-0.47101194
40	0xbdccd915	-0.100023426
41	0x3eb25f5a	0.34838372
42	0xbe12c4ca	-0.14332882
43	0xbda7376c	-0.08164868
44	0x401cd104	2.4502573
45	0xbf7ff491	-0.99982554
46	0x3fc04473	1.5020889
47	0xbf0cc9f9	-0.54995686
48	0xbf693a85	-0.9110492
49	0x3f2288a2	0.63489735
50	0x3d06e317	0.032931414
51	0xbec49ce6	-0.38400954
52	0x3f3bdc12	0.73382676
53	0x3f00ff71	0.5038977
54	0x3fa79f78	1.3095541
55	0x40020eaa	2.032145
56	0x3dab0e99	0.08352394
57	0x3f6b5558	0.919271
58	0xbe43dbbd	-0.19126792
59	0xbf1954bc	-0.5989492
60	0x3fc704c8	1.5548334
61	0xbf7ad50c	-0.97981334
62	0xc0574f11	-3.3642008
63	0xbf3ff6aa	-0.74985754
64	0xbce3d757	-0.027812643
65	0xbf8a5806	-1.0808113
66	0xbf1aa12a	-0.60402167
67	0xbf7e9252	-0.9944202
68	0xbdcb7675	-0.09934703
69	0xbae93ea3	-0.0017795156
70	0x3fd2d814	1.6472192
71	0x3d5a5c03	0.053310405
72	0xbf494bbd	-0.7863119
73	0xbe80e506	-0.2517473
74	0xbf7e19d3	-0.99258155
75	0xbf4a47d2	-0.7901584
76	0xbf0af47c	-0.54279304
77	0xbf02f4ca	-0.5115477
78	0x3ea29709	0.31755856
79	0xbf76c96d	-0.964011
80	0xbed9f5e1	-0.42570403
81	0x3e0c622e	0.13709328
82	0xbf1578d9	-0.58387524
83	0x3f48d8e8	0.7845597
84	0xbfaa866e	-1.3322275
85	0xbf03cf58	-0.51488256
86	0x3e470861	0.1943679
87	0xbe60c01b	-0.21948282
88	0x3ea14960	0.31501293
89	0xbee686ce	-0.45024723
90	0xbf851837	-1.0398015
91	0x3f3affd5	0.7304662
92	0xbf940eed	-1.1567055
93	0xbf158265	-0.5840209
94	0x3edfcb4d	0.43709794
95	0x3ff29690	1.8952198
96	0x3f32b07b	0.6980054
97	0x3f978dce	1.184015
98	0x3f59121f	0.84793276
99	0xbf6c9802	-0.92419446
100	0x3fb59291	1.4185354
101	0xbf4749ef	-0.7784719
102	0xbf8241f6	-1.017638
103	0x3f9a86ac	1.2072349
104	0x3fad5018	1.3540068
105	0x3f0c4175	0.5478738
106	0xbe0b4d33	-0.13603668
107	0x3d5d3ea4	0.054014817
108	0xc001da59	-2.028952
109	0xbf2c3841	-0.67273337
110	0xbfcad960	-1.5847588
111	0xbf8fe35b	-1.1241258
112	0x3f6e4a8b	0.93082494
113	0xbefce54e	-0.49393696
114	0x3fa0d7be	1.2565839
115	0x3f474bf9	0.778503
116	0x3eb86052	0.36010987
117	0x3e8dbec8	0.27684617
118	0x3f04dcb4	0.51899266
119	0xbf0733a5	-0.5281318
120	0x4021fc9e	2.5310435
121	0xbe89cbdd	-0.26913348
122	0x3bea382f	0.007147811
123	0x3fe04194	1.7520013
124	0xc00701e9	-2.1094916
125	0x3fe78151	1.8086339
126	0x3dc84fae	0.09780823
127	0x3ebdd2f8	0.3707502
128	0x3f365d86	0.71236455
129	0xbfe36497	-1.7765073
130	0x3eb52dbd	0.35386458
131	0x3f998ced	1.1996132
132	0xbe9b227a	-0.3029974
133	0xbfe18407	-1.7618417
134	0x3f22852d	0.6348446
135	0xbf4dea7a	-0.8043591
136	0xbfce38e9	-1.6111118
137	0xbfef9103	-1.8716129
138	0x3f0b0787	0.5430836
139	0x3f29223c	0.6606786
140	0x4012e4bf	2.2952116
141	0x3f2cc6a3	0.67490596
142	0x3fdb4e1f	1.7133216
143	0xbfe5aac0	-1.7942734
144	0xbfae7f8a	-1.3632672
145	0xbf7bb448	-0.9832196
146	0x3fc17130	1.5112667
147	0x3f2451a4	0.64187074
148	0x3ef22850	0.4729638
149	0xbedb7029	-0.4285901
150	0x3f0d26a2	0.55137074
151	0xbfc61040	-1.5473709
152	0x3f04a2ff	0.5181121
153	0x3dda2f35	0.10653535
154	0x3e89d9ed	0.26924077
155	0x3fa991ff	1.324768
156	0x3fdf7d8e	1.7460191
157	0x3fed6fa0	1.854969
158	0xbf34d49b	-0.7063691
159	0x4023a74d	2.5570862
160	0x3ed5c70e	0.4175343
161	0xbe59d2e8	-0.2127186
162	0xbf57077d	-0.839958
163	0xbed70c95	-0.42001787
164	0xbf1fc0d8	-0.6240363
165	0xbf7a3014	-0.9772961
166	0x3f5ff5b3	0.8748428
167	0x3f7cbe79	0.9872814
168	0x3e9e80ca	0.30957633
169	0x3fc2a5f8	1.52069
170	0x3f9a451b	1.2052339
171	0xbfe86549	-1.815591
172	0xbece9283	-0.40346155
173	0xbf758a89	-0.9591451
174	0xbbaaa563	-0.005207704
175	0xbda182ff	-0.07886314
176	0x3f57f9ba	0.8436543
177	0x3f9535b3	1.1657013
178	0x3f06e507	0.5269322
179	0x3fcf43b1	1.6192533
180	0xbf76c726	-0.96397626
181	0x3e10eab8	0.14152038
182	0xbe2796bd	-0.16366096
183	0xbeb768f3	-0.35822257
184	0x3fdc73a6	1.7222793
185	0xbe9b6e43	-0.3035756
186	0x3e749b70	0.2388742
187	0x3fac083b	1.3440012
188	0x3dd367fe	0.10322569
189	0x3f8cd868	1.1003542
190	0xbeaef0b5	-0.3416802
191	0x3f7284cd	0.9473389
192	0xbf118a43	-0.56851596
193	0x3f566cb4	0.8375962
194	0x3fe44efe	1.7836607
195	0xbe481d67	-0.19542466
196	0x3f03d18b	0.5149161
197	0xbfec7a25	-1.8474776
198	0xc03aabe9	-2.9167426
199	0xbf113c88	-0.5673299
200	0xbf0a9157	-0.5412802
201	0x3f652a20	0.895174
202	0xbf61ebfb	-0.882507
203	0x3f0824c8	0.53181124
204	0xbfc5dc07	-1.5457772
205	0xbe317582	-0.17329982
206	0x3f3a6e5a	0.72824633
207	0x3d69b8d1	0.05706102
208	0x3f67cffa	0.9055172
209	0x3f85ecfd	1.0462948
210	0xbf0545d8	-0.520597
211	0x3fad698e	1.3547838
212	0x3e70d678	0.23519313
213	0x3ff505ed	1.9142433
214	0x3feb0f85	1.8364111
215	0x3fa98a47	1.3245324
216	0xbf7810fc	-0.96900916
217	0x3fa0359f	1.2516364
218	0x3f9aebe7	1.2103242
219	0xbf0725ce	-0.5279206
220	0x3e5fcfce	0.21856615
221	0xbf1305cd	-0.57430726
222	0x3fba8313	1.4571251
223	0x3fe2aead	1.7709557
224	0x3fd33060	1.6499138
225	0xbedd2fb4	-0.43200457
226	0xbe8ac40a	-0.2710269
227	0xbfb8367b	-1.4391626
228	0x3f9f9f05	1.2470404
229	0x3fa30d8e	1.2738512
230	0x3ec82a80	0.39094925
231	0x3ec64074	0.3872105
232	0xbda37d3d	-0.07982872
233	0x3eaef67d	0.3417243
234	0x3f72e659	0.9488273
235	0xbfb124d0	-1.3839359
236	0x3fdcaedc	1.7240863
237	0xc0175850	-2.3647652
238	0xbf6df31e	-0.9294909
239	0x3e96560e	0.2936253
240	0x3e5c4b92	0.21513203
241	0x3f703f28	0.9384637
242	0x3fbb9c4f	1.4657077
243	0xbf0e751b	-0.5564744
244	0xbf3eade3	-0.7448408
245	0xbe4f024d	-0.20215721
246	0xbe6b2e10	-0.2296679
247	0x3aae803e	0.0013313366
248	0x3ec0242a	0.3752759
249	0xbf14c0de	-0.5810679
250	0xbf1282d5	-0.57230884
251	0x3f813e6c	1.0097175
252	0xbdd85eb5	-0.10564939
253	0xbf970047	-1.179696
254	0xbdb9eaa7	-0.090779595
255	0x3f102843	0.56311435

rnn.weight_ih_l0 f4 [32, 128]
0	0xbc8846f7	-0.016635401
1	0xbcb43a62	-0.022000495
2	0xbdca8faa	-0.09890683
3	0xbe3183c7	-0.17335425
4	0x3d8868b3	0.06660595
5	0xbe22fa58	-0.15915811
6	0xbe37268a	-0.17885795
7	0x3be4cc84	0.006982388
8	0xbc96c945	-0.01840652
9	0x3b76f8f8	0.0037685018
10	0x3d0fb088	0.035080463
11	0x3e72a6bd	0.23696418
12	0x3ca41a9f	0.020032225
13	0x3e0db2e4	0.13837773
14	0xbdb788a9	-0.08961613
15	0x3dbdbc68	0.09264451
16	0xbe36821e	-0.17823073
17	0x3df1d20c	0.118076414
18	0x3ddc031c	0.107427806
19	0x3e1606d6	0.14651045
20	0x3e04a6c1	0.12954237
21	0x3d108b65	0.035289187
22	0xbdabdae6	-0.08391361
23	0x3dbdc69a	0.09266396
24	0x3da5427d	0.08069322
25	0x3d21c6f8	0.039496392
26	0x3cc2dff6	0.023788434
27	0xbe21b859	-0.1579298
28	0xbe361f0f	-0.17785285
29	0xbdc09fa7	-0.09405451
30	0x3d7405e7	0.05957594
31	0xbe33d474	-0.17561513
32	0xbe3361f4	-0.17517835
33	0x3da6eea3	0.08150985
34	0xbdeb799c	-0.114978045
35	0x3d20c1ec	0.03924744
36	0x3dd470e7	0.10373097
37	0xbe044f0a	-0.12920776
38	0x3c96f004	0.018424995
39	0x3ddcee76	0.1078767
40	0xbe447665	-0.19185789
41	0x3e0b442b	0.13600223
42	0xbe856c4f	-0.26059195
43	0x3c714fdc	0.014728513
44	0x3dd255bc	0.10270259
45	0x3dd361c1	0.103213795
46	0x3c83c0cf	0.01608315
47	0xbd43002f	-0.047607597
48	0x3e4d8962	0.20071939
49	0xbe8065c5	-0.25077644
50	0x3e0523db	0.13001959
51	0xbe3cd5ef	-0.18440984
52	0x3e3d0d54	0.18462116
53	0xbd8a3581	-0.06748486
54	0xbe07c4fe	-0.1325874
55	0x3c9fcd93	0.019507205
56	0x3e5e2e18	0.21697271
57	0xbd3e93d6	-0.046527706
58	0xbbe7f98f	-0.0070793102
59	0x3e238291	0.15967776
60	0x3e04735d	0.12934633
61	0x3d407470	0.046986043
62	0xbdae5836	-0.08512919
63	0x3e11f1fa	0.14252463
64	0x3e05a445	0.13050945
65	0xbc9a8102	-0.018860344
66	0xbe1edef4	-0.15514737
67	0x3dddeefa	0.10836597
68	0xbe8391cf	-0.2569718
69	0x3dcc2c8b	0.099694334
70	0xbe5228bb	-0.2052335
71	0xbc526381	-0.012841106
72	0xbbb55a68	-0.005534459
73	0xbd8c385e	-0.06846689
74	0xbdb58a35	-0.088642515
75	0xbc8c38b6	-0.017116886
76	0x3de2ad38	0.11068195
77	0xbb076246	-0.002065794
78	0x3e16e431	0.14735486
79	0xbd84b3d4	-0.06479612
80	0xbe3c4917	-0.18387257
81	0xbc8c0f08	-0.017097011
82	0xbe25a4aa	-0.16176096
83	0xbce15f7f	-0.027511356
84	0x3d9d7b5c	0.076895446
85	0xbdce47fd	-0.100723244
86	0x3e3cc840	0.18435764
87	0x3e323056	0.17401251
88	0x3dfb398b	0.12266835
89	0x3dda4c41	0.106590755
90	0xbdc08dea	-0.09402068
91	0x3e61143a	0.21980372
92	0x3d90a017	0.07061785
93	0x3cec94a7	0.028879477
94	0x3d0b9f0d	0.03408723
95	0xbc386605	-0.011254792
96	0xbd282663	-0.041052233
97	0xbe1d38c8	-0.15353692
98	0x3d544227	0.0518209
99	0xbe12cedf	-0.14336728
100	0x3a89a977	0.0010502775
101	0xbde402cf	-0.11133348
102	0xbdb43147	-0.087984614
103	0xbe23d364	-0.15998608
104	0x3c821e1f	0.015883503
105	0x3e0008d1	0.12503363
106	0x3d87b0e6	0.066255376
107	0x3d6bef63	0.057601344
108	0x3c319505	0.010838752
109	0x3e611f25	0.21984537
110	0xbd4ec53f	-0.050481077
111	0xbd87f9b4	-0.06639424
112	0xbe3a8a7e	-0.18216893
113	0x3daa7a94	0.08324161
114	0xbe30bbf5	-0.172592
115	0x3d60d273	0.0548882
116	0xbe1e49b5	-0.15457805
117	0x3dd8e84d	0.10591183
118	0x3d6b5224	0.057451382
119	0x3e1c3df8	0.15258014
120	0xbddd9149	-0.108187266
121	0x3d7e45f0	0.062078416
122	0xbd9e1c97	-0.07720297
123	0x3e41ed6e	0.18938228
124	0xbdd16261	-0.102238424
125	0x3e028994	0.12747794
126	0x3dc08266	0.093998715
127	0xbe0ec347	-0.1394168
128	0xbda13d09	-0.0787297
129	0x3c465c2a	0.012106935
130	0xbd956bef	-0.07295977
131	0x3e288b15	0.16459306
132	0x3de79adf	0.11308836
133	0xbe13a7d2	-0.14419487
134	0x3d9b629f	0.0758717
135	0xbcf8da7b	-0.030377617
136	0xbc37a741	-0.01120931
137	0x3e1a8f32	0.15093687
138	0x3d07856a	0.033086218
139	0x3e97989f	0.29608628
140	0x3d00901c	0.031387433
141	0xbe84af0d	-0.25914803
142	0xbe1db45d	-0.15400834
143	0x3bef32f4	0.0072997753
144	0x3d32523e	0.043535464
145	0x3e1dac99	0.15397872
146	0x3dc9d557	0.098551445
147	0xbd99d958	-0.07512158
148	0xbd9ed282	-0.07754995
149	0x3e344e44	0.17607981
150	0xbd0041a8	-0.031312615
151	0x3d65dde4	0.056119815
152	0xbe35eebb	-0.1776685
153	0xbe1c591c	-0.15268368
154	0x3c8b4992	0.017002854
155	0xbd0b8e77	-0.034071412
156	0xbde601d4	-0.112308174
157	0xbdb112de	-0.08646177
158	0x3e7a9ffb	0.2447509
159	0x3d081031	0.033218566
160	0xbd7b8695	-0.061407644
161	0xbde26fe1	-0.110564955
162	0xbe4a692d	-0.19766684
163	0xbda876a3	-0.08225753
164	0xbd5057ff	-0.05086517
165	0x3e429736	0.19002995
166	0x3d05d222	0.0326711
167	0x3cf17b5f	0.029477773
168	0xbce94a10	-0.028477699
169	0x3e0a459a	0.13503113
170	0x3e4ce739	0.2001008
171	0xbe1a8452	-0.15089539
172	0xbdffa0b5	-0.12481824
173	0x3d7a5829	0.061119232
174	0x3dc15d07	0.09441572
175	0xbd02f1c9	-0.031968866
176	0xbd6a631d	-0.057223428
177	0xbdae591c	-0.0851309
178	0x3d40bd30	0.047055423
179	0xbd27c872	-0.040962644
180	0xbd4b50ad	-0.049637485
181	0x3c0116cd	0.007878971
182	0xbd9e2388	-0.07721621
183	0xbdfa4ff1	-0.12222279
184	0xbdb2b568	-0.08726007
185	0x3ce18212	0.027527843
186	0x3e422f2d	0.18963309
187	0x3e614704	0.21999747
188	0x3cc71374	0.024301268
189	0x3df82798	0.12116927
190	0x3d928957	0.07155102
191	0x3dab5f78	0.083678186
192	0x3dde6bab	0.1086038
193	0xbd8f0cb1	-0.069848426
194	0x3e3c3bf2	0.18382242
195	0x3d8012e9	0.06253607
196	0x3dc818c4	0.09770349
197	0xbdf6d0e9	-0.12051565
198	0x3dc65360	0.09683871
199	0x3df6694b	0.12031802
200	0xbd64d863	-0.055870425
201	0xbe659481	-0.22419931
202	0x3d66c27c	0.05633782
203	0x3e16c755	0.14724477
204	0xbc07da8a	-0.00829185
205	0x3e096522	0.13417485
206	0xba7beb9e	-0.000961
207	0x3e2ef56f	0.17085813
208	0x3ddde0a3	0.10833862
209	0x3c0db1cb	0.008648346
210	0xbde26a02	-0.11055376
211	0xbdd97573	-0.10618105
212	0x3dafb4d9	0.08579416
213	0xbdba75c1	-0.09104491
214	0xbce5eb0b	-0.028066179
215	0xbcd3aa76	-0.025838118
216	0xbe130de0	-0.14360762
217	0x3e363d52	0.1779683
218	0x3e5e7f88	0.21728337
219	0x3e3038d9	0.17209186
220	0x3e660987	0.22464572
221	0x3e1d8122	0.15381292
222	0x3de50aa9	0.11183674
223	0xbcda7a26	-0.026669573
224	0x3e7180ae	0.23584244
225	0xbb3bbd4b	-0.0028646763
226	0x3db8cb2b	0.09023126
227	0x3d9ffe1d	0.0781214
228	0x3c2722b0	0.010201141
229	0xbdff2dfb	-0.12459942
230	0x3e4e751a	0.20161858
231	0xbe2b1d83	-0.16710477
232	0xbdb922d0	-0.09039843
233	0x3e12fb5f	0.14353703
234	0xbbfa32e3	-0.0076354607
235	0xbd71a722	-0.05899728
236	0xbded29d7	-0.11580246
237	0x3db9a1b5	0.09064046
238	0x3d97753f	0.0739541
239	0xbd8638fd	-0.065538384
240	0x3d44e099	0.048065756
241	0x3da67a1c	0.08128759
242	0xbd724fd0	-0.059158146
243	0x3d6cfe61	0.057859782
244	0x3cc0df4e	0.02354398
245	0x3e355d64	0.17711407
246	0xbc1ee251	-0.009697513
247	0x3e1458ba	0.14486971
248	0x3d6bf18f	0.057603415
249	0xbdbb1ba0	-0.091361284
250	0x3daa1d26	0.08306341
251	0x3e190224	0.14942223
252	0xbe450723	-0.19241004
253	0x3e8b41e6	0.27198714
254	0xbd9c6a4c	-0.07637462
255	0xbe359004	-0.17730719

rnn.weight_hh_l0 f4 [32, 32]
0	0xbe6da71b	-0.23208277
1	0x3e6366f8	0.22207248
2	0x3eb4d4f6	0.35318726
3	0x3db945cc	0.09046516
4	0x3d565859	0.05233035
5	0xbd941ea0	-0.07232404
6	0xbe8d2677	-0.2756841
7	0x3e7b3e2c	0.24535435
8	0x3dfebe42	0.124386325
9	0x3e5a5197	0.21320187
10	0xbe474246	-0.19458875
11	0x3e48b4ea	0.19600263
12	0x3dcdfff9	0.100585885
13	0x3da35261	0.07974697
14	0xbe29130e	-0.16511175
15	0x3e6be8d1	0.23038031
16	0x3eaf5008	0.34240746
17	0xbcc68326	-0.024232458
18	0x3c0ff8ad	0.008787316
19	0x3d37d2bd	0.04487871
20	0x3e5140d5	0.20434888
21	0x3e11b832	0.14230421
22	0xbd8ba6a0	-0.068188906
23	0x3d88c06b	0.06677326
24	0x3e21da97	0.15806042
25	0x3d9647ec	0.07337937
26	0x3ecf2a5c	0.40462005
27	0xbebe60c7	-0.3718321
28	0xbecf7466	-0.40518492
29	0x3e91bd9c	0.28464973
30	0xbe2a548e	-0.16633818
31	0xbca667cd	-0.020313168
32	0x3e8cecac	0.27524316
33	0x3c46da0a	0.0121369455
34	0x3cad180a	0.021129627
35	0x3e125140	0.14288807
36	0xbc775c12	-0.015097635
37	0x3e00715a	0.1254324
38	0x3c92ad52	0.017904911
39	0x3edfe030	0.4372573
40	0xbe746c51	-0.23869444
41	0x3b9bd662	0.004755781
42	0x3daed87c	0.08537385
43	0xbb0e1575	-0.002168027
44	0xbd93f871	-0.07225121
45	0x3e1a04bb	0.15040867
46	0x3dec554e	0.11539708
47	0x3e69d005	0.2283326
48	0xbe8136e7	-0.252372
49	0xbe050d82	-0.12993434
50	0x3e5543b2	0.20826605
51	0xbe99c7a3	-0.30035123
52	0xbe5ff384	-0.21870238
53	0x3e2f8bdc	0.17143196
54	0x3dab15d3	0.08353772
55	0x3e108164	0.14111859
56	0x3d5cf407	0.05394366
57	0xbb844b52	-0.004037299
58	0xbe955245	-0.2916433
59	0x3e91a56c	0.2844652
60	0x3db2cc4c	0.08730373
61	0x3d734c1c	0.059398755
62	0xbe0c555c	-0.13704437
63	0x3d4c6bc9	0.04990748
64	0xbc64a3e9	-0.013955095
65	0xbd45cb46	-0.04828956
66	0xbdd45488	-0.103676856
67	0x3d73221d	0.059358705
68	0x3e20caa4	0.15702301
69	0x3b7bc768	0.0038418416
70	0x3ddec28c	0.108769506
71	0xbd8eca41	-0.069721706
72	0x3c721200	0.014774799
73	0xbed7ab59	-0.42122915
74	0xbd78dc7a	-0.060757138
75	0xbf04e811	-0.51916605
76	0x3d53d5ce	0.051717572
77	0x3bd4de2b	0.006496211
78	0xbdffea32	-0.12495841
79	0xbe0eacaa	-0.13933054
80	0xbe97d4e6	-0.29654616
81	0xbe7186f4	-0.23586637
82	0xbe8a0072	-0.26953465
83	0x3e8b747e	0.27237314
84	0xbf061a25	-0.52383643
85	0x3d30ea30	0.04319209
86	0x3d0e4149	0.03473023
87	0x3d8a80b8	0.067628324
88	0xbe69ccde	-0.22832057
89	0xbe0cdc02	-0.13755801
90	0xbea44085	-0.32080474
91	0xbd1ab65f	-0.03777158
92	0xbeaf8d3f	-0.3428745
93	0xbe4cecc1	-0.2001219
94	0x3e62a87d	0.22134586
95	0x3d58fdec	0.052976534
96	0xbe12aa6d	-0.14322825
97	0xbcda4c50	-0.026647717
98	0x3e7c1fe8	0.24621546
99	0x3ea01002	0.31262213
100	0xbdd09187	-0.10184007
101	0x3e594aef	0.21219991
102	0xbd334e25	-0.043775696
103	0x3ed46ad6	0.4148776
104	0xbebadc14	-0.3649603
105	0xbc16295c	-0.009165134
106	0x3df3d668	0.11906129
107	0xbc6b3233	-0.01435523
108	0xbe0079bb	-0.12546436
109	0x3e356fd5	0.17718442
110	0xbce927e5	-0.028461406
111	0x3eedf586	0.46476382
112	0xbf05f933	-0.5233337
113	0xbd476591	-0.048680846
114	0x3e057f7d	0.13036914
115	0xbddeb1e4	-0.10873774
116	0x3dfb5ef3	0.122739695
117	0xbe855703	-0.26042947
118	0x3e180ff6	0.14849839
119	0xbe4fbc1c	-0.20286602
120	0x3d8a5620	0.06754708
121	0x3d69159e	0.05690538
122	0xbe63720f	-0.22211479
123	0xbc8539ed	-0.016262973
124	0xbda1b0a9	-0.078950234
125	0xbe2576c5	-0.16158588
126	0xbd9f95d8	-0.07792252
127	0x3de01c12	0.10942854
128	0x3d361780	0.044456005
129	0x3d07dd70	0.033170164
130	0xbe757707	-0.23971187
131	0x3e284782	0.16433528
132	0x3c95a361	0.018266382
133	0x3dee6ef2	0.11642255
134	0xbe342093	-0.17590551
135	0xbd8ab4d6	-0.06772773
136	0x3cdf7d26	0.027281355
137	0xbbbf5357	-0.0058387923
138	0xbdf69ee6	-0.12042026
139	0xbadc3582	-0.0016800615
140	0xbd88c731	-0.06678618
141	0x3db034e4	0.08603838
142	0x3e1df31d	0.15424772
143	0xbdd6e0b5	-0.10492078
144	0xbbb8921f	-0.0056326534
145	0x3ddc876d	0.10768018
146	0xbde62eee	-0.1123942
147	0xbceced1a	-0.028921653
148	0x3c8e13b0	0.017343372
149	0x3d037fae	0.032104187
150	0x3da6fc45	0.08153585
151	0x3de6778b	0.1125327
152	0x3d86fb7d	0.06590936
153	0xbe517fb7	-0.20458876
154	0xbe89545e	-0.2682218
155	0xbe075d2b	-0.13219135
156	0xbe572500	-0.21010208
157	0x3dab3684	0.083600074
158	0x3d839297	0.06424444
159	0x3dd86e8f	0.105679624
160	0x3d9c992b	0.07646402
161	0xbe04c19e	-0.12964484
162	0xbd97d5ad	-0.07413802
163	0x3ec103c5	0.37698188
164	0x3d8a43ab	0.06751188
165	0x3b603eb2	0.0034217057
166	0x3c6cb6c4	0.014447872
167	0x3e802f2d	0.25035992
168	0xbe867f9a	-0.26269227
169	0xbdfed007	-0.12442022
170	0x3e3fc9b7	0.18729292
171	0x3e71f789	0.23629583
172	0xbe20a1cc	-0.1568672
173	0x3e40e981	0.18839075
174	0xbdbc8f18	-0.092069805
175	0x3b448cd4	0.0029991167
176	0xbe9d71df	-0.3075094
177	0x3dcfe547	0.10151153
178	0x3df0e08e	0.117615804
179	0xbe8a62ec	-0.27028596
180	0x3db794a3	0.08963897
181	0xbdefb9e0	-0.11705375
182	0x3d9c9976	0.07646458
183	0xbd8c296c	-0.06843838
184	0xbd8ea694	-0.06965366
185	0xbe312777	-0.17300211
186	0xbe95440a	-0.29153472
187	0x3ed87581	0.42277148
188	0x3e004978	0.12528026
189	0xbe8a18e1	-0.26972106
190	0xbd691c42	-0.056911714
191	0xbdb159a8	-0.08659679
192	0x3ee90124	0.45508683
193	0x3d8586f8	0.06519884
194	0xbdedc70a	-0.11610229
195	0x3eabeed5	0.33580652
196	0x3bba978f	0.0056943367
197	0x3d092d14	0.033490255
198	0x3e80d207	0.25160238
199	0x3f0c4f11	0.54808146
200	0xbe3c1887	-0.18368731
201	0x3e376542	0.1790972
202	0x3e3db8a0	0.1852746
203	0xbde28701	-0.11060906
204	0xbd171f4b	-0.036895078
205	0xbdc37c9f	-0.09545254
206	0x3e131675	0.14364035
207	0x3e2b32e7	0.16718636
208	0xbe607d17	-0.21922718
209	0xbda7883a	-0.0818028
210	0x3e52a6d1	0.20571448
211	0xbe8cc6ae	-0.2749533
212	0x3df87b33	0.121328734
213	0xbdf8e206	-0.121524855
214	0xbd179df9	-0.03701589
215	0xbd9c7587	-0.07639604
216	0xbd3846fc	-0.04498957
217	0x3dc411d9	0.09573717
218	0xbeb5d535	-0.35514227
219	0x3ef3f9fe	0.47651666
220	0x3e55b0c4	0.20868212
221	0xbe16c5bf	-0.14723872
222	0x3e09036b	0.1338021
223	0x3d694d3a	0.056958415
224	0xbeac74b1	-0.33682778
225	0x3e5bd59a	0.21468201
226	0x3e94c7df	0.2905874
227	0xbd42c987	-0.047555473
228	0x3e8664fa	0.26248914
229	0x3e17b918	0.14816701
230	0x3e12cc25	0.14335687
231	0x3d2cc4ca	0.04217986
232	0xbedd1c5b	-0.43185696
233	0xbdc8fac9	-0.098134585
234	0x3c75e21a	0.01500752
235	0xbe370cd5	-0.17875989
236	0xbe773185	-0.24139984
237	0x3de8c5ee	0.11365877
238	0x3db730fb	0.08944889
239	0xbd3c88e9	-0.046029005
240	0xbe76435e	-0.24049136
241	0x3e62c330	0.2214477
242	0x3d184c6b	0.037182253
243	0xbe0c1a4e	-0.1368191
244	0xbe782eb3	-0.24236564
245	0xbe6864b4	-0.22694665
246	0xbe74a04a	-0.2388927
247	0xbe646ec5	-0.2230788
248	0x3dbb6350	0.09149802
249	0xbc136c9d	-0.008998063
250	0xbeaa208a	-0.3322795
251	0xbe76c44f	-0.24098323
252	0xbe68b4dd	-0.22725244
253	0xbe89b67e	-0.26897043
254	0x3d073a52	0.033014603
255	0xbea3864d	-0.319384

rnn.bias_ih_l0 f4 [32]
0	0x3e4ef572	0.20210817
1	0xbdbd8304	-0.09253505
2	0x3dd3676a	0.10322459
3	0xbdaf1f7a	-0.085509256
4	0xbbe059e3	-0.006846653
5	0xbded6bae	-0.11592804
6	0xbe16d99e	-0.14731452
7	0xbda1bab2	-0.078969374
8	0x3dfcbc38	0.123405874
9	0xbe277d81	-0.1635647
10	0x3b06f061	0.0020590054
11	0xbc4f775d	-0.012662736
12	0x3d2987e5	0.041389365
13	0xbe7cfcf6	-0.24705872
14	0xbe81521d	-0.2525796
15	0xbe9d5c21	-0.3073435
16	0x3bbd93a9	0.0057854247
17	0xbdf49365	-0.11942176
18	0xbdbadfa2	-0.09124686
19	0x3e53ec03	0.206955
20	0x3e00e790	0.12588334
21	0x3deb3958	0.11485547
22	0x3cdf9dff	0.027297018
23	0x3e1e5e47	0.15465651
24	0x385888ee	5.162594e-05
25	0x3d70fa54	0.05883248
26	0xbe5062d6	-0.20350203
27	0xbd8744ad	-0.06604896
28	0xbe716ae7	-0.23575936
29	0xbe073a1e	-0.13205764
30	0xbdd545ee	-0.10413729
31	0x3d2c6691	0.042090002

rnn.bias_hh_l0 f4 [32]
0	0xbd6dbb00	-0.058039665
1	0xbdf3c5ca	-0.1190296
2	0x3e6af54a	0.22945133
3	0xbd0eadbc	-0.034833655
4	0xbcdc9490	-0.026926309
5	0xbdf2bb35	-0.11852113
6	0xbe3ccc9b	-0.18437426
7	0xbc37a8b1	-0.011209653
8	0xbca22f30	-0.019797891
9	0xbe50445c	-0.20338577
10	0x3d81e8b5	0.063432135
11	0x3d6d812c	0.057984516
12	0x3d95784c	0.072983354
13	0xbe7380db	-0.23779623
14	0x3cbb899c	0.022892766
15	0xbea93c71	-0.33053926
16	0xbcf30bd2	-0.029668722
17	0xbe02547c	-0.1272754
18	0xbdb11d71	-0.08648194
19	0x3daaeb8d	0.08345709
20	0x3b8cdb52	0.004298606
21	0xbb12bcc9	-0.0022390357
22	0x3d869f31	0.06573332
23	0xbdd7ce84	-0.105374366
24	0xbe0bb35d	-0.1364264
25	0x3c8503c7	0.016237153
26	0xbd44d392	-0.04805333
27	0x3c7bcfeb	0.015369396
28	0xbd9fc0ea	-0.07800467
29	0xbda7b895	-0.08189503
30	0xbd814fee	-0.063140735
31	0xbe2ba662	-0.16762689

rnn.weight_ih_l0_reverse f4 [32, 128]
0	0x3e2ebbbc	0.17063802
1	0x3d624acd	0.055247117
2	0xbdaefa9f	-0.08543896
3	0xbd4c1ec8	-0.049834043
4	0x3e142f4b	0.14471166
5	0x3d04359e	0.032277696
6	0xbbfe95d8	-0.0077693276
7	0x3ddcc862	0.107804075
8	0xbdc18d4a	-0.09450777
9	0xbbba9a75	-0.0056946822
10	0x3d616cca	0.05503539
11	0x3e091175	0.13385566
12	0x3dd67cab	0.10472997
13	0x3e38ea83	0.18058209
14	0x3ddaf27d	0.10690782
15	0xbd8d1f01	-0.06890679
16	0x3e0277a8	0.12740958
17	0xbca3bdc4	-0.019987948
18	0x3df8d4b9	0.121499486
19	0x3d87bd0d	0.066278554
20	0x3d120bd6	0.03565582
21	0x3e56ad21	0.20964481
22	0x3dcd9ba4	0.10039452
23	0xbc5850c2	-0.013202848
24	0x3caf6348	0.021409646
25	0xbd979d66	-0.07403068
26	0x3e13d6d9	0.14437427
27	0xbda9792f	-0.08275067
28	0x3e1a6b62	0.15080026
29	0x3c24dad6	0.01006194
30	0x3e872f75	0.26403394
31	0x3b90c394	0.004417846
32	0xbe52c5b0	-0.20583224
33	0x3a1e694c	0.0006042912
34	0xbe1fd378	-0.15608013
35	0xbdbf30d8	-0.09335488
36	0xbe0822c6	-0.13294515
37	0x3e3bea21	0.18351032
38	0x3ace3400	0.001573205
39	0xbc6f782d	-0.0146160545
40	0xbdca21cb	-0.09869727
41	0x3d3b2fab	0.045699757
42	0x3e008c91	0.12553622
43	0xbbd304ac	-0.006439766
44	0xbe65e848	-0.2245189
45	0xbddd10e6	-0.10794239
46	0x3d9b3d61	0.075800665
47	0xbca23e9e	-0.019805249
48	0x3e199eac	0.15001935
49	0x3d407576	0.04698702
50	0x3dafd2c0	0.08585119
51	0xbe489ea3	-0.19591765
52	0xbb85dcca	-0.004085158
53	0x3ceecb9b	0.029149821
54	0xbe730d5d	-0.23735566
55	0xbe32910a	-0.1743814
56	0x3e40968a	0.18807426
57	0x3db4cb0f	0.08827793
58	0xbe24e224	-0.16101891
59	0x3da00f02	0.078153625
60	0x3df1c8b7	0.118058614
61	0x3d27de7b	0.04098366
62	0x3e482d0c	0.19548434
63	0x3e5ef511	0.21773173
64	0x3e16fb24	0.1474424
65	0x3d5d8b3a	0.054087855
66	0x3e6e8b93	0.23295431
67	0x3cb817e8	0.022472337
68	0x3dd8f15a	0.10592909
69	0x3d4dec48	0.050274163
70	0xbdd649b5	-0.10463277
71	0xbe03a351	-0.12855269
72	0xbcfae7dc	-0.030628137
73	0x3e2ac424	0.16676384
74	0xbd92a879	-0.0716104
75	0x3e630d8b	0.22173135
76	0x3dede3e4	0.11615732
77	0xbe23c305	-0.15992363
78	0x3e36cfa8	0.17852652
79	0xbc7a456a	-0.015275339
80	0x3d9f1e0e	0.07769404
81	0xbd3165ae	-0.04330986
82	0xbe6f5395	-0.23371728
83	0xbe0afc72	-0.13572863
84	0xbe8a91be	-0.27064317
85	0xbc33e419	-0.010979676
86	0x3d6f462c	0.05841653
87	0x3e39ef73	0.18157749
88	0xbdcef348	-0.10104996
89	0x3e87dd21	0.26535895
90	0xbc8a5c2a	-0.01688965
91	0x3e4812af	0.19538377
92	0x3d70e00d	0.05880742
93	0x3e75d0a9	0.24005379
94	0xbb4bf9ca	-0.0031124228
95	0x3e28431e	0.16431853
96	0xbd7cc4f0	-0.06171125
97	0xbc824af1	-0.015904875
98	0x3dd7f415	0.10544602
99	0x3e265888	0.1624471
100	0xbe30d947	-0.17270385
101	0x3da46662	0.080273405
102	0x3d4a0fd4	0.0493315
103	0xbe1020be	-0.1407499
104	0xbdaab6d3	-0.08335652
105	0xbe5b98cf	-0.2144501
106	0x3d85719f	0.06515812
107	0xbe45f26b	-0.19330756
108	0xbde01ae5	-0.1094263
109	0x3c6e09d8	0.014528714
110	0x3c361c1b	0.011115099
111	0xbe00513b	-0.12530987
112	0xbde72ba2	-0.11287619
113	0xbe3acd49	-0.18242373
114	0x3d0281fa	0.031862237
115	0xbd9687cb	-0.07350119
116	0xbe322501	-0.17396928
117	0x3ddde201	0.108341224
118	0x3de1a0fa	0.11017032
119	0x3e2a05eb	0.1660382
120	0xbe207809	-0.1567079
121	0x3e131813	0.14364652
122	0xbd7cf2c0	-0.061754942
123	0xbd108752	-0.0352853
124	0x3e3ec80f	0.18631004
125	0x3aa31c87	0.0012444415
126	0x3e1dde6d	0.1541688
127	0xbce69503	-0.028147226
128	0xbd5eceed	-0.05439656
129	0xbddc7c56	-0.10765903
130	0xbe89db54	-0.26925147
131	0xbd1b3062	-0.03788794
132	0xbe33a112	-0.17541912
133	0x3d935802	0.071945205
134	0x3e3c0fcb	0.183654
135	0x3d636f03	0.05552579
136	0x3de9dc25	0.11418942
137	0xbda1a456	-0.07892673
138	0xbc5b98d7	-0.013403139
139	0x3e884e8a	0.2662242
140	0xbd046d6a	-0.032330908
141	0xbe79ac57	-0.24382149
142	0xbdc5d308	-0.09659392
143	0x3d5f6728	0.054541737
144	0xbe5d26c0	-0.21596813
145	0xbd36c6fc	-0.04462336
146	0xbe788761	-0.24270393
147	0xbdc704aa	-0.097176865
148	0xbe1856ab	-0.14876811
149	0x3d84c9df	0.06483816
150	0xbd841034	-0.06448403
151	0xbe5e7bf5	-0.21726973
152	0x3db99e49	0.090633936
153	0x3e09eaf9	0.13468541
154	0x3d0e4770	0.034736097
155	0xbbb8ed25	-0.005643504
156	0x3e1ea838	0.15493858
157	0xbccdaa41	-0.025105597
158	0x3e0fdb95	0.14048608
159	0xbdd0ba7d	-0.1019182
160	0x3d5462a1	0.051851872
161	0xbcd57d2c	-0.026060663
162	0xbeaa2e96	-0.33238667
163	0x3e0cdc6e	0.13755962
164	0x3e5c012e	0.21484825
165	0x3e07a0be	0.13244912
166	0x3cf91bf4	0.030408837
167	0x3e2afe7a	0.16698638
168	0x3de00933	0.109392546
169	0xbdf6edf8	-0.12057108
170	0x3e331ebd	0.17492194
171	0xbda68d66	-0.08132438
172	0x3dbd41af	0.09241044
173	0xbdd32643	-0.10310032
174	0x3cecf9d7	0.028927727
175	0xbe04b716	-0.12960467
176	0x3d9c0638	0.07618374
177	0xbdeeb458	-0.116554916
178	0xbd8b8625	-0.068126954
179	0xbe2c64c6	-0.16835317
180	0x3dfa359e	0.12217258
181	0x3dbc0ca5	0.09182099
182	0xbe671087	-0.22564898
183	0x3e0db5da	0.13838902
184	0x3e790dd8	0.24321687
185	0x3d9d2ac4	0.076741725
186	0xbca5511d	-0.02018028
187	0xbb76ad6e	-0.0037639993
188	0x3c07e903	0.0082953
189	0xbdffc53a	-0.1248879
190	0xbdd9146d	-0.10599599
191	0x3cc86475	0.024461964
192	0xbe0d963a	-0.13826838
193	0x3da1cf99	0.07900924
194	0xbc21c3f7	-0.009873382
195	0xbdbea953	-0.0930964
196	0xbd7ffce9	-0.062497053
197	0x3e139744	0.14413172
198	0xbe266bfc	-0.1625213
199	0xbea1dc55	-0.31613412
200	0xbd6bd7c1	-0.057578806
201	0x3ddd8d5f	0.1081798
202	0xbd4ede7b	-0.050505143
203	0x3de83ce4	0.11339739
204	0xbbe5271b	-0.006993187
205	0x3de632db	0.11240169
206	0x3c8178c9	0.015804665
207	0xbdc792b8	-0.09744781
208	0xbcb68436	-0.02227984
209	0xbe6fad24	-0.23405892
210	0xbe1003a9	-0.14063896
211	0x3e376555	0.17909749
212	0xbe40f824	-0.18844658
213	0x3e0389d5	0.12845547
214	0x3c56a627	0.013101137
215	0xbc8c8387	-0.01715256
216	0x3d6675ab	0.05626456
217	0xbd439b88	-0.047755748
218	0x3dfea3b5	0.124335684
219	0xbe05ea6b	-0.13077705
220	0x3d105b25	0.035243172
221	0x3e360565	0.17775495
222	0x3da862e6	0.082219884
223	0x3e90337d	0.28164282
224	0xbcfdecce	-0.030996706
225	0xbe299da5	-0.16564043
226	0xbe017dbf	-0.12645625
227	0x3e1c4daa	0.15264001
228	0xbe14fc8b	-0.14549462
229	0x3d06f264	0.032946005
230	0x3d31d19f	0.0434128
231	0xbd3e414c	-0.04644899
232	0xbe06097f	-0.1308956
233	0x3e7c5fd1	0.24645926
234	0x3cf1be5c	0.029509716
235	0xbe5c15dd	-0.21492715
236	0xbce6ccb7	-0.028173788
237	0xbd651ae2	-0.05593384
238	0x3e0b9eaa	0.13634744
239	0xbd98cab9	-0.07460541
240	0xbdbf2c1a	-0.093345836
241	0xbdab6854	-0.083695084
242	0xbe456736	-0.19277653
243	0x3e430d48	0.19048035
244	0x3ddda5c2	0.108226314
245	0x3ead4dc6	0.338484
246	0xbda50c87	-0.0805903
247	0xbd31d14c	-0.04341249
248	0xbce61002	-0.028083805
249	0x3ccfcd3a	0.025366414
250	0xbb58aaa4	-0.0033060694
251	0x3dbfeb24	0.093710214
252	0x3db0d3eb	0.0863417
253	0x3db17564	0.086649686
254	0x3c3d83ea	0.011567095
255	0xbdddf046	-0.10836844

rnn.weight_hh_l0_reverse f4 [32, 32]
0	0xbe05072c	-0.12991017
1	0x3cc07b71	0.023496361
2	0xbdca412a	-0.0987571
3	0x3e403ccd	0.18773194
4	0x3d50c674	0.05097051
5	0xbdc2803b	-0.09497114
6	0xbe33a124	-0.17541939
7	0x3e10701e	0.1410527
8	0x3da5da3f	0.08098268
9	0x3e577027	0.21038876
10	0xbe1aa63e	-0.15102479
11	0x3d75caf9	0.060008023
12	0xba99a05f	-0.0011720768
13	0x3af37dc9	0.0018576916
14	0xbe62f5fb	-0.22164147
15	0x3e331e83	0.17492108
16	0x3e4159ae	0.18881866
17	0xbb977695	-0.0046222904
18	0x3ea33a15	0.3188025
19	0x3bb3ae36	0.005483414
20	0xbdbec9b9	-0.09315819
21	0x3d15d4bc	0.036579832
22	0x3dbec2ec	0.09314522
23	0xbdf6a8d3	-0.120439194
24	0xbd71bf66	-0.059020422
25	0x3ea80856	0.3281886
26	0x3e0a606a	0.13513342
27	0x3dcd07c3	0.10011246
28	0x3b66ba90	0.0035206415
29	0xbba72292	-0.0051005566
30	0xbe3f85a9	-0.18703331
31	0x3e6650b8	0.2249173
32	0xbd85bc6e	-0.06530081
33	0xbdb0b912	-0.08629049
34	0x3c850424	0.016237326
35	0x3e538675	0.2065676
36	0xbc2d7c49	-0.010588714
37	0x3e2a610f	0.16638587
38	0xbd556355	-0.052096684
39	0x3e0426fa	0.12905493
40	0xbd5a0256	-0.053224884
41	0xbdd687a7	-0.104750924
42	0x3d1456b0	0.036215484
43	0x3e8eaba5	0.2786533
44	0x3c6f8956	0.014620146
45	0xbc26c86f	-0.010179623
46	0xbe10652d	-0.14101095
47	0x3a60fe81	0.0008582846
48	0x3d174e35	0.03693982
49	0xbe0a211f	-0.13489197
50	0x3e41e156	0.18933615
51	0xbdd8ed42	-0.10592128
52	0xbded9318	-0.116003215
53	0x3c2c3751	0.010511235
54	0xbd6508ea	-0.055916704
55	0xbe65f37f	-0.22456168
56	0x3d4ab045	0.04948451
57	0x3ec01f47	0.37523863
58	0x3e113b31	0.14182736
59	0x3e71decf	0.23620151
60	0xbd13c38d	-0.036075164
61	0x3e2140b5	0.1574734
62	0xbdc70791	-0.0971824
63	0xbdc668c9	-0.09687955
64	0xbe7ca83e	-0.24673554
65	0x3e8e070b	0.27739748
66	0xbd3f761e	-0.046743505
67	0x3d78bd80	0.060727596
68	0x3e3e433a	0.18580332
69	0x3e546e5e	0.20745227
70	0xbd97bc01	-0.07408906
71	0x3e1ce80f	0.15322898
72	0xbd23ab58	-0.039958328
73	0xbdc237be	-0.09483288
74	0x3e1d1e65	0.15343626
75	0x3cabc794	0.02096919
76	0x3e2f49d4	0.17118007
77	0xbdfc5c40	-0.12322283
78	0xbe1801dc	-0.1484446
79	0x3e14dc32	0.14537123
80	0x3e8f88b3	0.2803398
81	0xbd566cc9	-0.05234984
82	0x3c79364e	0.015210701
83	0xbd9ec5ec	-0.07752594
84	0x3db9dc93	0.09075274
85	0xbe921937	-0.28534862
86	0x3b792182	0.0038014357
87	0x3dd532ef	0.104101054
88	0xbe34534e	-0.17609903
89	0xbdd7564b	-0.10514506
90	0x3de25f11	0.11053289
91	0xbe8e2d60	-0.27768993
92	0xbd97839d	-0.0739815
93	0x3a8b3d9c	0.001062322
94	0xbe8cbcb9	-0.27487734
95	0xbd332e1d	-0.04374515
96	0xbba352bc	-0.004984228
97	0x3df58232	0.119877234
98	0x3e0cf818	0.13766515
99	0x3e47ddf4	0.19518262
100	0xbe83dcce	-0.25754398
101	0x3e91e2b0	0.2849326
102	0x3d7726fc	0.060339913
103	0x3d0d3f83	0.034484398
104	0x3ca39450	0.019968182
105	0xbc4bb2e0	-0.012432784
106	0x3e2f3e56	0.17113623
107	0xbc479df0	-0.012183651
108	0x3daa9f1e	0.083311304
109	0xbdcc121b	-0.09964391
110	0xbdb5f8fb	-0.0888538
111	0xbd1235cb	-0.035695832
112	0xbc343575	-0.010999073
113	0x3e156ab5	0.14591487
114	0x3e28059c	0.1640839
115	0xbe1fd644	-0.1560908
116	0x3d0beacd	0.03415947
117	0xbddcfc9b	-0.10790368
118	0x3e568d4a	0.20952335
119	0x3e8e45fe	0.27787775
120	0x3cf063db	0.02934449
121	0x3c21b553	0.009869891
122	0xbe361ba4	-0.17783982
123	0xbe9698e8	-0.29413533
124	0xbe0d32f9	-0.13788976
125	0x3e25f487	0.16206561
126	0x3ea44151	0.32081082
127	0x3e87c2d8	0.2651584
128	0x3dac87d4	0.08424345
129	0x3e8b842d	0.2724928
130	0xbe4c75ca	-0.19966808
131	0xbd69ccbf	-0.057080027
132	0x3e87a74e	0.2649483
133	0xbd0e8296	-0.034792505
134	0x3de7af02	0.11312677
135	0xbe8939ff	-0.2680206
136	0xbd5f7c49	-0.054561887
137	0x3daf0c64	0.08547285
138	0x3eea02c6	0.4570524
139	0xbc413db9	-0.011794501
140	0x3e3855c8	0.18001473
141	0xbd7e214a	-0.062043466
142	0x3e810d6c	0.25205553
143	0xbc2c9e0f	-0.010535731
144	0x3d20979b	0.039207082
145	0xbe2337b3	-0.15939216
146	0xbdc9cca1	-0.09853483
147	0xbdd6eeb3	-0.10494747
148	0x3e91ac60	0.28451824
149	0xbe7d0649	-0.24709429
150	0xbcffd4d3	-0.031229412
151	0x3e2ca867	0.16861115
152	0xbce1df48	-0.02757229
153	0xbdfe18f3	-0.124071024
154	0xbd9521ae	-0.072818145
155	0xbe7a844f	-0.24464534
156	0x3c462991	0.012094871
157	0xbd998e09	-0.07497794
158	0x3d89a6d8	0.06721276
159	0xbdf088de	-0.11744855
160	0xbd5e6e4a	-0.0543044
161	0x3d432d1e	0.04765045
162	0x3d7eeca1	0.062237386
163	0x3e1b27ec	0.15151948
164	0xbdcf1c5a	-0.101128295
165	0xbe07fe90	-0.13280702
166	0x3d354f32	0.04426498
167	0xbd94292d	-0.07234416
168	0x3e1a7f5f	0.1508765
169	0xbe09c27f	-0.134531
170	0x3de07dd7	0.10961502
171	0xbd9c7f9e	-0.076415285
172	0x3e3b6927	0.18301831
173	0xbd7e4765	-0.062079806
174	0x3da37b71	0.07982529
175	0xbd5625bb	-0.052282076
176	0x3da74224	0.08166912
177	0x3d0f0add	0.03492247
178	0xbda65a38	-0.081226766
179	0x3e1e5602	0.15462497
180	0xbd2eb674	-0.04265447
181	0xbe50de1e	-0.20397231
182	0xbd6cc3f8	-0.057804078
183	0x3e7a2dd7	0.24431549
184	0xbdc5766a	-0.09641726
185	0x3c2a8fe0	0.010410279
186	0x3dbb34a8	0.09140903
187	0xbe4bbefc	-0.19897074
188	0xbd0a4f99	-0.033767316
189	0xbdd8c8db	-0.10585185
190	0x3d01a1cb	0.03164844
191	0xbd837eda	-0.064206794
192	0xbeaa1e29	-0.33226135
193	0x3e46beb6	0.19408688
194	0x3d67c34c	0.056582734
195	0x3de33038	0.11093181
196	0xbe16983d	-0.14706512
197	0x3d887c9c	0.06664392
198	0x3d2d2014	0.04226692
199	0x3e3b3140	0.18280506
200	0x3e93a4d2	0.28836685
201	0x3d881eb4	0.06646481
202	0xbe8004a0	-0.2500353
203	0x3e852720	0.26006413
204	0x3b7ae3f2	0.0038282839
205	0x3cd3614d	0.025803233
206	0xbec32782	-0.3811608
207	0x3eb33ff7	0.3500974
208	0xbcf77935	-0.030209163
209	0xbdcc9d07	-0.09990888
210	0x3ebb71da	0.366103
211	0x3db8426a	0.089970425
212	0x3da6fc87	0.081536345
213	0xbe611791	-0.21981646
214	0x3d38b855	0.045097668
215	0xbc64e3b8	-0.013970308
216	0xbcbeaf09	-0.023276823
217	0x3e897fe9	0.268554
218	0xbe1ad32a	-0.15119615
219	0xbdeda740	-0.11604166
220	0xbe8a7a5b	-0.27046475
221	0x3ea38a87	0.31941625
222	0x3dc39abb	0.09550997
223	0x3e9f40ad	0.3110403
224	0x3e9c22ed	0.30495396
225	0xbe296963	-0.16544108
226	0x3eac9f25	0.33715168
227	0x3d6d55f5	0.057943303
228	0xbe8b4866	-0.27203673
229	0xbc704faa	-0.014667431
230	0x3d9550f1	0.07290829
231	0xbe862e0d	-0.2620701
232	0xbc2c6b44	-0.010523621
233	0x3cebfc98	0.02880697
234	0xbdcaf56a	-0.0991009
235	0xbcd6545b	-0.02616327
236	0xbcb71930	-0.022350878
237	0x3c68fb5d	0.014220086
238	0xbe737423	-0.23774771
239	0x3d70d72e	0.05879896
240	0xbe879d92	-0.26487404
241	0x3e1acdc5	0.15117557
242	0x3e3a3a06	0.18186197
243	0x3e381e02	0.17980197
244	0xbe6ba794	-0.23013145
245	0xbd20a4a1	-0.039219502
246	0x3dd8f2fd	0.10593221
247	0xbe9a178a	-0.30096084
248	0xbd9e6105	-0.07733349
249	0xbd4b611a	-0.04965315
250	0xbd8d627e	-0.069035515
251	0x3df0935f	0.11746859
252	0xbe18d6e0	-0.14925718
253	0x3ce89826	0.028392863
254	0x3eadd10e	0.3394856
255	0xbe4eaab2	-0.20182303

rnn.bias_ih_l0_reverse f4 [32]
0	0x3d36ddd5	0.04464515
1	0xbe36166d	-0.17781992
2	0x3ddc8ced	0.10769067
3	0xbe95a3aa	-0.29226428
4	0x3d74aa6f	0.05973285
5	0xbd8ebe76	-0.06969921
6	0xbdc1aea9	-0.09457142
7	0xbe6fd5e0	-0.2342143
8	0xbe7200cd	-0.23633118
9	0x3d8a9716	0.067670986
10	0x3d7c0252	0.06152565
11	0xbc2951c0	-0.010334432
12	0x3eb94270	0.361835
13	0xbe1dd688	-0.15413868
14	0xbd0a2b0d	-0.033732463
15	0xbe1404df	-0.14454983
16	0xbd86be59	-0.06579275
17	0xbe35796b	-0.17722099
18	0xbebc4b2a	-0.36776096
19	0x3e08cdd2	0.13359764
20	0xbd0be77d	-0.03415631
21	0x3e26f49a	0.16304246
22	0xbe93a94f	-0.2884011
23	0x3e8798e7	0.26483843
24	0x3dac4438	0.08411449
25	0xbedfef6a	-0.43737346
26	0x3e55fd66	0.20897445
27	0x3dbfa9c6	0.093585536
28	0x3e86a4e5	0.2629768
29	0xbe38e85e	-0.18057391
30	0x3c8f7abc	0.017514579
31	0x3dae6c1a	0.085167125

rnn.bias_hh_l0_reverse f4 [32]
0	0x3d45693e	0.04819607
1	0xbe783849	-0.24240221
2	0x3d532337	0.051547255
3	0xbe8c4b26	-0.27401084
4	0x3def53de	0.11685918
5	0xbde2cab9	-0.110738225
6	0xbe7f4a60	-0.24930716
7	0xbdc0a41d	-0.09406302
8	0xbea89c1d	-0.32931605
9	0x3c7b51e4	0.015339348
10	0x3dc8d0bf	0.0980544
11	0x3b8302d0	0.003998138
12	0x3e78889b	0.24270861
13	0x3d43f5d2	0.047841854
14	0x3c793268	0.015209772
15	0xbd3f6bbe	-0.04673361
16	0x3d518788	0.051154643
17	0xbdc1a061	-0.09454418
18	0xbec5eb8a	-0.38656265
19	0x3e7ed492	0.24885777
20	0xbd1ee744	-0.03879477
21	0x3e289f9a	0.16467133
22	0xbe0bf315	-0.13666947
23	0x3d8674eb	0.06565269
24	0xbd05a2be	-0.032625906
25	0xbe0d3b50	-0.13792157
26	0x3db35e6d	0.08758245
27	0x3d88f25d	0.06686852
28	0x3dde51a4	0.108554155
29	0xbcfcf6d4	-0.030879416
30	0x3ea35d5c	0.31907165
31	0xbd0c56d0	-0.03426248

fc1.weight f4 [12, 64]
0	0xbd8ef6da	-0.06980677
1	0xbf19dc5b	-0.6010186
2	0x3eacc366	0.33742827
3	0xbf1692b0	-0.5881758
4	0xbe2aa6d0	-0.16665196
5	0xbf038fdf	-0.51391405
6	0xbeeb51ea	-0.45960933
7	0x3d299c3c	0.041408762
8	0xbddb0538	-0.10694355
9	0xbf040fda	-0.5158669
10	0xbd935e3b	-0.071957074
11	0x3e7e3590	0.2482512
12	0x3e2ec786	0.170683
13	0xbe50a675	-0.20375998
14	0xbe8da946	-0.27668208
15	0xbdd7d8e6	-0.10539417
16	0xbdcda99f	-0.10042118
17	0xbf18c015	-0.59668094
18	0x3e88de98	0.26732326
19	0x3e45ce28	0.19316924
20	0x3ec8ec33	0.39242706
21	0x3f0620b0	0.5239363
22	0xbf27d33a	-0.6555668
23	0x3f264023	0.64941615
24	0x3f27ea51	0.65591913
25	0xbe920c03	-0.2852479
26	0xbf082729	-0.53184754
27	0x3d11e8b3	0.03562231
28	0xbcde6c3d	-0.027151221
29	0xbf028a7a	-0.5099255
30	0x3ec1d2bb	0.37856087
31	0x3eb8c680	0.36088943
32	0xbeb0d282	-0.34535605
33	0xbe6e9322	-0.23298314
34	0xbf017c4b	-0.5058028
35	0xbd74f56c	-0.059804365
36	0xbe92862c	-0.2861799
37	0xbe87a151	-0.26490262
38	0xbecebab4	-0.40376818
39	0x3e81ed1e	0.2537622
40	0xbeb4287f	-0.35187146
41	0x3ec33bd8	0.38131595
42	0x3e5fdcfe	0.21861646
43	0xbe7c55d7	-0.2464212
44	0x3ea8868c	0.3291515
45	0x3eb6a281	0.35670856
46	0x3e0c139b	0.13679354
47	0xbdd4f3af	-0.103980415
48	0x3ed6061c	0.41801536
49	0xbe621413	-0.2207797
50	0xbdc656ec	-0.09684548
51	0x3e915211	0.28382924
52	0xbed6d38a	-0.41958266
53	0x3e65401c	0.22387737
54	0xbe5fd700	-0.2185936
55	0x3eb2f4d6	0.3495242
56	0xbebbad4b	-0.3665565
57	0xbe9207f5	-0.28521696
58	0x3efaa529	0.48954132
59	0xbe1efed7	-0.15526901
60	0x3ed68577	0.418987
61	0xbe993a38	-0.2992723
62	0x3cbaedfd	0.02281856
63	0x3f07fc32	0.53119195
64	0x3f81f568	1.0153017
65	0x3f29af45	0.66283065
66	0x3f11872e	0.5684689
67	0x3d43d9f4	0.04781528
68	0x3f73c693	0.95224875
69	0xbe879d73	-0.26487312
70	0xbee42d9a	-0.4456604
71	0x3e8451f3	0.25843772
72	0x3fa18344	1.2618184
73	0x3f559b2c	0.834399
74	0xbdfe05f7	-0.124034815
75	0xbf454b78	-0.7706828
76	0x3e9fdbbe	0.31222337
77	0x3e83f731	0.2577453
78	0xbe4d757f	-0.20064352
79	0x3aaba011	0.0013093968
80	0xbefacad8	-0.48982882
81	0xbef3fc24	-0.47653306
82	0xbec9a056	-0.3938014
83	0xbf822fac	-1.0170798
84	0x3dfac360	0.12244296
85	0xbe0a4564	-0.13503033
86	0x3f112e3f	0.5671119
87	0xbf303ecc	-0.6884582
88	0xbe128c66	-0.1431137
89	0x3fc49817	1.5358914
90	0x3f0e0a4c	0.5548446
91	0x3d961b7d	0.07329462
92	0xbec317fc	-0.38104236
93	0x3e31d9fc	0.1736831
94	0xbeb01c6c	-0.34396684
95	0xbf66f1da	-0.90212786
96	0x3eb531b9	0.35389498
97	0x3f8abc38	1.083869
98	0x3f022673	0.5083992
99	0xbee5e761	-0.4490309
100	0xbe15ea31	-0.14640118
101	0x3f984ef0	1.189909
102	0xbee2a6d9	-0.4426792
103	0xbf3856fb	-0.7200772
104	0xbe5e6b2e	-0.21720573
105	0xbf97883a	-1.1838448
106	0xbf4c7b77	-0.7987589
107	0xbe9a9d7b	-0.30198273
108	0xbe18e88b	-0.14932458
109	0xbf3ad5e1	-0.72982603
110	0xbf5892e2	-0.84599125
111	0x3e6319d7	0.22177826
112	0x3e8a371e	0.26995176
113	0x3f7d113f	0.9885444
114	0xbdcc3cd9	-0.09972543
115	0x3e69f873	0.22848682
116	0x3f3368d7	0.7008185
117	0x3b8d51cd	0.00431273
118	0xbe44036a	-0.19141927
119	0xbe81c140	-0.2534275
120	0x3f34f895	0.70691806
121	0xbf367b43	-0.7128183
122	0x3f0ae9ae	0.54262817
123	0x3f4ee03f	0.8081092
124	0x3f1e74aa	0.61896765
125	0xbdd61105	-0.10452465
126	0x3f8ed7c6	1.1159599
127	0x3e1ad653	0.1512082
128	0x3f019825	0.5062278
129	0xbe84f00c	-0.2596439
130	0xbf7d1b16	-0.98869455
131	0xbf2d662a	-0.67734015
132	0x3ea335cd	0.31876984
133	0x3f88dd1e	1.069248
134	0xbf09b2a0	-0.53788185
135	0xbf244340	-0.64165115
136	0xbeedc4ca	-0.464392
137	0xbdf67f55	-0.120360054
138	0x3f8481ca	1.0352108
139	0x3f3739c6	0.7157253
140	0xbfad95f7	-1.3561391
141	0x3e836ef5	0.2567059
142	0x3fe1995c	1.7624927
143	0x3f1605de	0.586027
144	0x3e821b95	0.25411668
145	0xbdb606f3	-0.08888044
146	0xbf03b43d	-0.51446897
147	0xbe5a3430	-0.2130897
148	0x3e23e480	0.16005135
149	0xbf8da08b	-1.1064619
150	0xbeccfd66	-0.40037078
151	0x3ee9d666	0.45671386
152	0x3d1a396c	0.037652418
153	0x3f835f1f	1.0263404
154	0x3f03f1be	0.51540744
155	0xbeb32e62	-0.34996325
156	0xbed6f9af	-0.41987368
157	0x3f468951	0.7755328
158	0x3eae5f78	0.34057212
159	0x3eb16788	0.346493
160	0x3f1060a8	0.56397486
161	0xbeb649b9	-0.3560312
162	0xbf3ac3b5	-0.72954875
163	0x3ef4a52b	0.47782263
164	0x3f3bd3a4	0.7336981
165	0x3f935740	1.1511002
166	0xbe725174	-0.23663884
167	0x3f873e06	1.0565803
168	0x3f4d69fb	0.8023984
169	0xbdc5d301	-0.096593864
170	0x3f45d561	0.77278715
171	0xbdb0e94d	-0.086382486
172	0xbf67b562	-0.90511143
173	0xbf861b45	-1.0477072
174	0x3e91c900	0.28473663
175	0x3fae2b1f	1.360691
176	0xbe977eb0	-0.29588842
177	0x3f8c59dd	1.0964924
178	0x3d934d6b	0.07192501
179	0xbdf494ec	-0.11942467
180	0xbeb2d0b0	-0.3492484
181	0xbf3cef81	-0.73802954
182	0x3df532fb	0.119726144
183	0xbf7770a3	-0.96656245
184	0x3f4239d2	0.75869477
185	0xbf2087bf	-0.6270713
186	0x3eeae775	0.45879713
187	0xbf34b1be	-0.70583713
188	0x3e8aa55b	0.2707928
189	0xbe17a521	-0.14809085
190	0x3f27d8e5	0.6556533
191	0xbf117376	-0.56816804
192	0x3f5ce7fd	0.86291486
193	0x3f05b73e	0.5223273
194	0x3e4c5aec	0.19956559
195	0x3ee2a667	0.4426758
196	0xbea12b5b	-0.3147839
197	0x3eb2cd7d	0.349224
198	0xbee45598	-0.44596553
199	0xbeb540b8	-0.3540094
200	0x3f345bbb	0.7045247
201	0x3eed7f0e	0.46385998
202	0xbe306346	-0.1722537
203	0xbefcebf6	-0.49398774
204	0x3df323cb	0.11872061
205	0xbf6db182	-0.9284898
206	0x3f905442	1.1275713
207	0x3f8d2f80	1.1030121
208	0xbdbee01d	-0.0932009
209	0xbed213b1	-0.41030648
210	0x3da1811c	0.07885954
211	0xbed21b4f	-0.4103646
212	0xbf447402	-0.76739514
213	0xbeebc396	-0.46047658
214	0x3f22f0e7	0.6364884
215	0x3f0cef83	0.55052966
216	0xbf1692c5	-0.588177
217	0xbe8ae43e	-0.2712726
218	0x3ed966cf	0.4246125
219	0x3f5bee36	0.85910356
220	0x3f4d76cb	0.8025939
221	0xbe07c0b4	-0.13257104
222	0x3da2806c	0.07934651
223	0xbf03cb7a	-0.51482356
224	0x3f0e852c	0.55671954
225	0xbe30c137	-0.17261206
226	0x3e5cfd24	0.2158094
227	0x3f9c0ff3	1.2192367
228	0x3f02a9b0	0.5104017
229	0x3d1403d9	0.036136482
230	0x3f4f064c	0.80868983
231	0xbe256ec6	-0.16155538
232	0x3d7b73f7	0.06138989
233	0x3e41856a	0.1889855
234	0x3f45edc0	0.773159
235	0xbe4a6fbf	-0.1976919
236	0xbef0fbc7	-0.4706709
237	0x3ef6ecf4	0.48227656
238	0xbf7aa04f	-0.9790086
239	0x3df83c00	0.12120819
240	0x3f5ecc0a	0.8703009
241	0x3f3414fb	0.70344514
242	0x3fab3043	1.3374103
243	0xbf6691f0	-0.9006643
244	0xbe62393e	-0.22092149
245	0xbde6e05c	-0.11273262
246	0xbd9dc075	-0.07702724
247	0xbe05945d	-0.13044877
248	0x3f2a9fbb	0.6664998
249	0xbf0cef5e	-0.55052745
250	0xbf3f6f0b	-0.74778813
251	0x3ecfdda4	0.40598786
252	0xbee287f4	-0.4424435
253	0xbe609b7b	-0.21934311
254	0xbf0dd305	-0.55400115
255	0x3f29d53d	0.66341

fc1.bias f4 [12]
0	0x3c75875f	0.014985888
1	0x3dde6876	0.10859768
2	0xbe8e066e	-0.2773928
3	0xbf03a4ae	-0.51423156
4	0xbeb72ce3	-0.35776433
5	0xbea7a196	-0.32740468
6	0xbe901a1c	-0.2814492
7	0xbf3c88b9	-0.7364612
8	0xbec0e42d	-0.37674084
9	0xbe980580	-0.29691696
10	0xbe4e673d	-0.2015657
11	0xbf36bbeb	-0.7138049
