src/src_learner/python3_base_model.pt (torch, 99780 bytes, 11 tensors)

word_embeddings.weight f4 [102, 128]
00000000: 3945 bfbf 0e78 31bf 9d22 1abf 69b5 cebf
00000010: b837 c3bd 43dc efbe 15a4 86bf 2d96 c5bf
00000020: 1df8 54bf 222f 813e dfa8 49bf 9dfc a2be
00000030: bcc1 17be 942c d83f 0c9f c83e b0a1 e23e
00000040: 7dd0 30bf f80d 91bf 0e64 2d3f fbdf 1c3e
00000050: 0977 573f ec3c 483e 0d13 1cbf e584 603f
00000060: 89dc 943f 6856 99be b8e2 0cc0 6303 c1bf
00000070: 1817 5f3c b4f6 2ebf f091 62bf 7338 d4bd
00000080: dfd5 f83f 191b 85bd 6d3d 8a3e 9024 5cbf
00000090: 249d 963e 7fec 033d 6fc7 3a3e c426 f1be
000000a0: d9d8 ccbd 6d5d b23e fcc3 12be e234 a7bd
000000b0: 08d1 1c40 d7f4 7fbf 9344 c03f 84ca 0cbf
000000c0: ed39 69bf 8488 223f 1ae5 063d b59c c4be
000000d0: 99db 3b3f 9100 013f ca9e a73f c40e 0240
000000e0: 5117 ab3d 3a56 6b3f 7bdc 43be a054 19bf
000000f0: 9d04 c73f 5dd4 7abf 174f 57c0 82f7 3fbf
00000100: 73e4 e3bc 9657 8abf 74a1 1abf e292 7ebf
00000110: 1171 cbbd 43ab e7ba 38d8 d23f 7843 5a3d
00000120: fc4b 49bf 4ae5 80be 8b1a 7ebf df48 4abf
00000130: 41f5 0abf 6ef4 02bf dd96 a23e b1c9 76bf
00000140: 44f5 d9be 5a5e 0c3e 0a79 15bf f3d8 483f
00000150: e386 aabf 08cf 03bf 350b 473e 95c1 60be
00000160: 0b47 a13e 6188 e6be 6218 85bf 86fe 3a3f
00000170: aa0e 94bf 8982 15bf 8cca df3e 3897 f23f
00000180: f8b0 323f fd8d 973f b910 593f 4e97 6cbf
00000190: 8e92 b53f 674a 47bf 1042 82bf 5786 9a3f
000001a0: ba4f ad3f 0142 0c3f 984c 0bbe 5623 5d3d
000001b0: 55da 01c0 ac38 2cbf f7d8 cabf c5e3 8fbf
000001c0: 6049 6e3f 69e5 fcbe a0d7 a03f ee4c 473f
000001d0: 705f b83e 5abf 8d3e b0dc 043f 9e33 07bf
000001e0: 8efc 2140 e6ca 89be 2dc5 ea3b 3e41 e03f
000001f0: f201 07c0 0b81 e73f a44e c83d f9d3 bd3e
00000200: 865d 363f 9764 e3bf bd2d b53e ed8c 993f
00000210: 7a22 9bbe 0784 e1bf 2d85 223f 7aea 4dbf
00000220: e938 cebf 0391 efbf 8707 0b3f 3c22 293f
00000230: bfe4 1240 a3c6 2c3f 1f4e db3f c0aa e5bf
00000240: 8a7f aebf 48b4 7bbf 3071 c13f a451 243f
00000250: 5028 f23e 2970 dbbe a226 0d3f 4010 c6bf
00000260: ffa2 043f 352f da3d edd9 893e ff91 a93f
00000270: 8e7d df3f a06f ed3f 9bd4 34bf 4da7 2340
00000280: 0ec7 d53e e8d2 59be 7d07 57bf 950c d7be
00000290: d8c0 1fbf 1430 7abf b3f5 5f3f 79be 7c3f
000002a0: ca80 9e3e f8a5 c23f 1b45 9a3f 4965 e8bf
000002b0: 8392 cebe 898a 75bf 63a5 aabb ff82 a1bd
000002c0: baf9 573f b335 953f 07e5 063f b143 cf3f
000002d0: 26c7 76bf b8ea 103e bd96 27be f368 b7be
000002e0: a673 dc3f 436e 9bbe 709b 743e 3b08 ac3f
000002f0: fe67 d33d 68d8 8c3f b5f0 aebe cd84 723f
00000300: 438a 11bf b46c 563f fe4e e43f 671d 48be
00000310: 8bd1 033f 257a ecbf e9ab 3ac0 883c 11bf
00000320: 5791 0abf 202a 653f fbeb 61bf c824 083f
00000330: 07dc c5bf 8275 31be 5a6e 3a3f d1b8 693d
00000340: facf 673f fdec 853f d845 05bf 8e69 ad3f
00000350: 78d6 703e ed05 f53f 850f eb3f 478a a93f
00000360: fc10 78bf 9f35 a03f e7eb 9a3f ce25 07bf
00000370: cecf 5f3e cd05 13bf 1383 ba3f adae e23f
00000380: 6030 d33f b42f ddbe 0ac4 8abe 7b36 b8bf
00000390: 059f 9f3f 8e0d a33f 802a c83e 7440 c63e
000003a0: 3d7d a3bd 7df6 ae3e 59e6 723f d024 b1bf
000003b0: dcae dc3f 5058 17c0 1ef3 6dbf 0e56 963e
000003c0: 924b 5c3e 283f 703f 4f9c bb3f 1b75 0ebf
000003d0: e3ad 3ebf 4d02 4fbe 102e 6bbe 3e80 ae3a
000003e0: 2a24 c03e dec0 14bf d582 12bf 6c3e 813f
000003f0: b55e d8bd 4700 97bf a7ea b9bd 4328 103f
-1.4943 -0.69323814 -0.60209066 -1.6149112 -0.09532112 -0.46847734 -1.0518824 -1.5436455
-0.8319109 0.25231272 -0.787733 -0.31833354 -0.14819998 1.6888604 0.39183843 0.44263983
-0.6906813 -1.1332388 0.67730796 0.15319817 0.8416601 0.1955449 -0.6096657 0.8770278
1.1629802 -0.29948735 -2.2013378 -1.5079159 0.013616346 -0.6834519 -0.8850393 -0.10362329
1.9440268 -0.06499309 0.2699999 -0.8599329 0.29416764 0.032207962 0.1824014 -0.47099888
-0.10002298 0.34836903 -0.14332575 -0.081643835 2.4502583 -0.9998297 1.5020927 -0.54996514
-0.9110401 0.63489556 0.032933332 -0.38400808 0.73381954 0.5039149 1.3095334 2.0321512
0.083540566 0.91928446 -0.19127075 -0.5989475 1.5548283 -0.9798029 -3.3642023 -0.7498704
-0.027818894 -1.0807979 -0.6040261 -0.99442875 -0.09933675 -0.0017674941 1.6472235 0.053287
-0.7863157 -0.25174934 -0.9925925 -0.7901744 -0.5428048 -0.5115422 0.31755725 -0.96401507
-0.42569935 0.13707867 -0.58387816 0.7845604 -1.3322414 -0.5148778 0.19437869 -0.21948846
0.31499514 -0.45025924 -1.0398066 0.7304462 -1.1566975 -0.58402306 0.43709219 1.8952398
0.6980128 1.1840206 0.8479114 -0.9241837 1.418535 -0.77847904 -1.0176411 1.2072247
1.3539956 0.54788214 -0.13603437 0.053988777 -2.028951 -0.67273974 -1.5847462 -1.1241385
0.9308071 -0.49393776 1.2565804 0.7785176 0.36010313 0.27685052 0.5189924 -0.52813137
2.5310397 -0.26912612 0.0071646185 1.751991 -2.1094937 1.8086256 0.097806245 0.37075785
0.71236455 -1.7765073 0.35386458 1.1996132 -0.3029974 -1.7618417 0.6348446 -0.8043591
-1.6111118 -1.8716129 0.5430836 0.6606786 2.2952116 0.67490596 1.7133216 -1.7942734
-1.3632672 -0.9832196 1.5112667 0.64187074 0.4729638 -0.4285901 0.55137074 -1.5473709
0.5181121 0.10653535 0.26924077 1.324768 1.7460191 1.854969 -0.7063691 2.5570862
0.4175343 -0.2127186 -0.839958 -0.42001787 -0.6240363 -0.9772961 0.8748428 0.9872814
0.30957633 1.52069 1.2052339 -1.815591 -0.40346155 -0.9591451 -0.005207704 -0.07886314
0.8436543 1.1657013 0.5269322 1.6192533 -0.96397626 0.14152038 -0.16366096 -0.35822257
1.7222793 -0.3035756 0.2388742 1.3440012 0.10322569 1.1003542 -0.3416802 0.9473389
-0.56851596 0.8375962 1.7836607 -0.19542466 0.5149161 -1.8474776 -2.9167426 -0.5673299
-0.5412802 0.895174 -0.882507 0.53181124 -1.5457772 -0.17329982 0.72824633 0.05706102
0.9055172 1.0462948 -0.520597 1.3547838 0.23519313 1.9142433 1.8364111 1.3245324
-0.96900916 1.2516364 1.2103242 -0.5279206 0.21856615 -0.57430726 1.4571251 1.7709557
1.6499138 -0.43200457 -0.2710269 -1.4391626 1.2470404 1.2738512 0.39094925 0.3872105
-0.07982872 0.3417243 0.9488273 -1.3839359 1.7240863 -2.3647652 -0.9294909 0.2936253
0.21513203 0.9384637 1.4657077 -0.5564744 -0.7448408 -0.20215721 -0.2296679 0.0013313366
0.3752759 -0.5810679 -0.57230884 1.0097175 -0.10564939 -1.179696 -0.090779595 0.56311435

rnn.weight_ih_l0 f4 [32, 128]
00000000: 2ea0 8cbc 979c afbc 7391 c9bd b2f7 31be
00000010: 0d91 893d 7268 22be 2bb3 37be 3d18 d63b
00000020: d56a 9bbc 721c 8e3b b5d9 0d3d 8363 723e
00000030: 0bfc 9f3c 5b72 0d3e b345 b8bd ab9b be3d
00000040: 0ef1 35be b3e9 f23d 7f1a db3d c45c 163e
00000050: 5917 053e e017 113d bbc8 aabd 4ce1 be3d
00000060: 1810 a43d 961d 243d 315f c63c d344 22be
00000070: bd99 35be a571 bfbd 941d 763d 426a 34be
00000080: 0a0c 33be 5b15 a83d 8582 eabd eef3 223d
00000090: 565c d33d 29bb 03be f999 9b3c 0210 dc3d
000000a0: 23f7 44be 71bf 0a3e 7d60 85be 8dbd 683c
000000b0: 7f31 d13d 233e d23d 9c5d 7e3c 9210 45bd
000000c0: ccf4 4c3e f422 80be 58a1 043e 1b69 3dbe
000000d0: bf80 3c3e 4460 8bbd f632 08be aa72 9c3c
000000e0: 42b2 5e3e d595 3cbd 0387 dfbb 4705 243e
000000f0: 7088 043e 07c8 423d fd4a adbd f868 113e
00000100: 36f2 053e 38eb 96bc f570 1fbe 59c9 dc3d
00000110: b3da 83be c746 cb3d 81ba 52be d42e 5bbc
00000120: 547b a3bb f859 8dbd e879 b4bd 19e2 90bc
00000130: 3fcd e33d d423 e6ba e955 163e d0d6 85bd
00000140: 11c3 3cbe 2227 90bc 1a18 25be 40b7 e5bc
00000150: e27c 9c3d 416c cfbd 154e 3d3e 17c6 323e
00000160: a764 fc3d 306a d93d 3c70 bfbd 5a89 613e
00000170: 14cb 913d cad8 e73c 5cfa 0d3d a924 2fbc
00000180: d52f 26bd a5dd 1cbe 8817 523d b253 13be
00000190: 1ddb 033a af25 e5bd 3145 b5bd f744 23be
000001a0: d79d 7b3c f08a 003e eaa8 863d ce3e 6d3d
000001b0: 2ed6 363c e8a8 613e 79a9 4cbd aeee 88bd
000001c0: 9f0e 3bbe c94f a93d 8d52 30be 2399 623d
000001d0: f5ba 1dbe b002 da3d e433 693d fd8d 1c3e
000001e0: 18a4 debd e6eb 7b3d a026 9ebd 551c 423e
000001f0: d38e d2bd 4710 033e d5ad c13d 554d 0fbe
00000200: df09 a0bd d7a7 3c3c f49c 96bd 5d21 293e
00000210: 0b64 e63d d742 14be 5397 9c3d 5651 f4bc
00000220: 7ef1 2dbc c1f3 193e d0db 093d c1de 973e
00000230: fef2 023d cc65 84be ca22 1dbe 4f6c dc3b
00000240: 8ce6 2f3d b912 1d3e affd ca3d 83e6 9abd
00000250: c0ec 9fbd 27cf 333e e9a7 02bd 9674 633d
00000260: a952 35be b8f4 1cbe 489b 863c 6f26 09bd
00000270: e633 e7bd 634a b2bd b206 7a3e aa7e 0a3d
00000280: 349f 7dbd 49a6 e3bd 2d01 4bbe aaaa a9bd
00000290: 21f1 4dbd e3fb 413e 2364 033d 3601 f63c
000002a0: fe81 e4bc 2bde 0a3e b257 4d3e 85ea 19be
000002b0: 7c6a febd 2fc4 7c3d 4993 c23d 7390 00bd
000002c0: 97f5 67bd a88a afbd cc1e 433d 7d5b 25bd
000002d0: a6e7 48bd 2fcf 0a3c 43f9 9cbd 8d2e f9bd
000002e0: 5ee4 b3bd 1bca dc3c e3a7 413e 1aae 603e
000002f0: cf14 c33c b2f0 f63d c356 913d 7492 ac3d
00000300: 9f4b dd3d e138 90bd e2d6 3c3e 2f49 813d
00000310: f34e c93d 60a5 f5bd 8589 c73d 6f9d f73d
00000320: 0a43 67bd 8bf9 64be 025d 643d dd62 173e
00000330: d485 11bc 0adc 083e 7d17 c3b9 6790 2f3e
00000340: 2e0f df3d 6643 173c 919e e3bd 4f41 d8bd
00000350: a0e3 b03d bf3f b9bd 3db6 eabc f086 d8bc
00000360: 7fa9 13be 46d1 363e f4e4 5d3e 71a4 2f3e
00000370: 006e 653e f81c 1e3e 33d3 e33d 2555 dfbc
00000380: 68e9 703e 1262 5ebb 2efe b93d a22e a13d
00000390: 04cd 303c f1f7 fdbd a80e 4f3e 19b8 2bbe
000003a0: 88ef b7bd 7e63 123e a911 e7bb b6be 73bd
000003b0: ba38 eebd dc6e b83d be42 963d 450b 85bd
000003c0: 0443 473d 0ab1 a73d ba9b 74bd fca8 6a3d
000003d0: 990a bc3c 3bc3 343e 094d 15bc 67d1 133e
000003e0: eb58 6e3d 2fe4 b9bd 6ed4 aa3d ce36 193e
000003f0: 776b 44be 32f5 8a3e 7aa1 9dbd 07f6 34be
-0.017166223 -0.021436973 -0.09842195 -0.17379645 0.06717119 -0.15860155 -0.17939441 0.006533651
-0.01897184 0.004336887 0.03463145 0.23670773 0.019529363 0.13813154 -0.08997669 0.09307035
-0.17767736 0.11860981 0.10698413 0.14683825 0.12997188 0.03542316 -0.083390675 0.09320316
0.08010882 0.040067278 0.024215313 -0.15846567 -0.17734428 -0.09347848 0.0600868 -0.17618659
-0.17485061 0.08207198 -0.11450676 0.03978341 0.10320346 -0.12864365 0.018994318 0.10745241
-0.192349 0.13549592 -0.26050177 0.014205349 0.10214519 0.10265758 0.015525248 -0.048111506
0.20015258 -0.25026667 0.12952173 -0.18497126 0.18408488 -0.068054706 -0.1330069 0.019097645
0.21747687 -0.04604133 -0.0068215146 0.16017638 0.12942672 0.047554042 -0.084615685 0.14200199
0.13080677 -0.018422708 -0.15570433 0.107805915 -0.25752792 0.09925609 -0.20578958 -0.013377864
-0.004989067 -0.06901926 -0.08812314 -0.017685937 0.11123132 -0.0017558285 0.1468121 -0.06535113
-0.18433787 -0.017596785 -0.16122475 -0.028041482 0.07641007 -0.1012807 0.18486817 0.17458378
0.123238854 0.10615957 -0.09347579 0.22025052 0.07118812 0.028301615 0.03466259 -0.010689893
-0.04057296 -0.15318926 0.051291972 -0.14387396 0.0005029904 -0.11188828 -0.08851088 -0.15944277
0.015357456 0.12553 0.065751866 0.057921223 0.011159463 0.22037089 -0.04996631 -0.066861495
-0.18267296 0.08267171 -0.1721899 0.055321824 -0.1540335 0.10645044 0.056934252 0.15288539
-0.10871142 0.061504267 -0.07722211 0.1895612 -0.10281148 0.12799178 0.09456984 -0.13994344
-0.07814383 0.0115146255 -0.07354155 0.16516633 0.112495504 -0.14478622 0.0764605 -0.02982394
-0.010616658 0.15034391 0.033656895 0.29662135 0.031970017 -0.25858915 -0.15345302 0.0067267786
0.042944476 0.15339173 0.099116676 -0.07563498 -0.07808828 0.17559491 -0.031898413 0.055531107
-0.17707314 -0.15327728 0.016431466 -0.03348392 -0.11289196 -0.087055944 0.24416617 0.033812203
-0.061919406 -0.11115701 -0.19824667 -0.08284505 -0.050278787 0.18943743 0.03207792 0.030029874
-0.027894016 0.13561313 0.20052984 -0.15030868 -0.12422654 0.061710533 0.09500749 -0.031387758
-0.056630697 -0.085713685 0.047636792 -0.040370453 -0.049049042 0.008472248 -0.076647304 -0.12167082
-0.08783792 0.02695184 0.189117 0.21941414 0.023813633 0.12057628 0.070966266 0.08426371
0.10805439 -0.07042099 0.18441346 0.06312787 0.098295115 -0.119944334 0.09743027 0.12090575
-0.056460418 -0.22360818 0.05575276 0.14783807 -0.008882005 0.13365188 -0.00037210798 0.17144929
0.10891567 0.009232378 -0.111142285 -0.105593316 0.08637166 -0.09045362 -0.028651351 -0.02643153
-0.14420126 0.17853269 0.2166937 0.17152573 0.22405243 0.15440738 0.111242674 -0.02726228
0.23526537 -0.0033932966 0.09081684 0.07870223 0.010791067 -0.12400807 0.20220435 -0.16769446
-0.08981234 0.14295766 -0.007051666 -0.059508048 -0.116319135 0.0900552 0.07336949 -0.0649629
0.048647895 0.081880644 -0.059718825 0.057290062 0.022954272 0.176526 -0.009112605 0.1443535
0.058190268 -0.09076726 0.08341299 0.14962313 -0.1918162 0.27140194 -0.07696815 -0.17671977

rnn.weight_hh_l0 f4 [32, 32]
00000000: 6516 6ebe 15f2 623e 4507 b53e 2d64 b83d
00000010: 9561 563d 57d3 94bd 535d 8dbe d0fd 7a3e
00000020: 18e9 fd3d cdde 593e abb3 47be f1c7 483e
00000030: cec4 ce3d dbd9 a33d e886 29be d172 6b3e
00000040: 3d1b af3e 7c11 cabc db7e 083c 03ad 393d
00000050: e0af 513e 8821 123e 448d 8cbd 58b7 893d
00000060: fd4c 223e 3d5e 953d c6ef ce3e 2898 bebe
00000070: 30a8 cfbe ff82 913e 89e1 29be 0ea0 a6bc
00000080: 1114 8d3e b842 4a3c e122 b03c e97d 123e
00000090: 35c8 72bc c51b 003e 24ea 903c 9ed2 df3e
000000a0: 201d 74be 7ea1 a43b fe1b af3d 2758 1fbb
000000b0: ad27 93bd e7a2 193e 3f92 ec3d 2a14 6a3e
000000c0: 0160 81be abd3 04be 768b 553e 21ed 99be
000000d0: f315 60be 43bd 2f3e eb32 ab3d ae41 103e
000000e0: 4faf 5c3d 01bd 79bb d732 95be a5d2 913e
000000f0: 1215 b23d bd41 743d 6e6e 0cbe a799 4c3d
00000100: 7bb6 6abc ed49 47bd c8f5 d4bd a4c9 713d
00000110: a264 203e 97c0 863b 0f8b de3d be38 8ebd
00000120: 0ad4 6b3c e6da d7be d91a 7abd 13d9 04bf
00000130: 665a 523d bddb e13b 564b 00be 3d12 0fbe
00000140: 82bd 97be b8d9 71be 0a33 8abe 31a7 8b3e
00000150: 2e08 06bf 6148 313d 380a 0d3d 9340 8b3d
00000160: 477d 69be 0341 0dbe 1a72 a4be 203a 1cbd
00000170: 666a afbe 0b4f 4dbe a7fe 623e f553 583d
00000180: 912a 13be 7cb3 debc 07b3 7c3e ccc9 9f3e
00000190: 1374 d1bd d0be 583e e090 35bd 37a1 d43e
000001a0: 311f bbbe 6dda 1ebc 9fb9 f23d 28d2 73bc
000001b0: f0cc ffbd 6fc4 353e 3b99 edbc 90af ed3e
000001c0: c01d 06bf 819f 49bd 43f4 043e f19a ddbd
000001d0: c27b fc3d 840f 85be 1a81 173e fb30 4fbe
000001e0: c273 8b3d f8eb 663d 24fe 63be 846c 89bc
000001f0: abd6 a2bd e302 26be 077a 9ebd 911d df3d
00000200: 22ee 363d 8b71 083d 3a72 75be 4369 283e
00000210: d747 933c 919a ee3d 9b48 34be 6e33 8abd
00000220: ecfb e03c 9ee0 b7bb 9340 f6bd f116 e9ba
00000230: dff6 88bd e03e b03d af12 1e3e 4190 d6bd
00000240: ddff b9bb e514 dd3d b6d1 e5bd cd91 eebc
00000250: cf7c 8c3c 9910 033d b03c a73d 9f19 e63d
00000260: 36be 863d 8fab 51be e340 89be 7a0b 07be
00000270: 7620 57be 4c7b ab3d 9dad 833d 440c d83d
00000280: 5c9a 9b3d 144c 05be cdad 96bd 6abe c03e
00000290: 4880 8a3d f412 3c3b 11a5 633c f7f4 7f3e
000002a0: b87c 86be 34e2 ffbd e83b 3f3e 997a 713e
000002b0: 560d 20be 3a5d 403e 17a9 bdbd 0a55 223b
000002c0: 45bb 9dbe b3ca ce3d bed3 ef3d 491f 8abe
000002d0: b2ae b83d 1e99 eebd 7b7d 9b3d 8c20 8bbd
000002e0: be8a 8dbd 93af 31be be88 95be 296e d83e
000002f0: b56b ff3d 205d 8abe bae7 66bd 3661 b0bd
00000300: d008 e93e 2535 853d 85d4 ecbd d2df ab3e
00000310: 434f bd3b 3499 073d ff9d 803e f750 0c3f
00000320: 88d3 3bbe 0248 373e 366c 3d3e 6759 e3bd
00000330: 4d2d 15bd a734 c4bd 86d0 123e e417 2b3e
00000340: 01f0 60be 9913 a8bd b38f 523e 31bb 8cbe
00000350: e51a f93d e21e f8bd 13e2 18bd 1b3a 9cbd
00000360: ea0a 37bd 66df c33d 6fe5 b5be bb24 f43e
00000370: 533a 553e 5dde 16be 194a 093e 5482 693d
00000380: 44bd acbe 8443 5b3e a50d 953e 1a08 45bd
00000390: be7a 863e f537 173e 043f 123e ea78 2c3d
000003a0: d164 ddbe 981d cabd e4d0 6c3c 8e8d 36be
000003b0: 53aa 76be 1178 e93d 120e b63d ffd2 3ebd
000003c0: b8d0 76be fe31 623e cc02 163d d487 0bbe
000003d0: 499f 77be 75d7 67be 7f31 75be 80dc 63be
000003e0: ee85 bc3d 7f6a 1cbc ae69 aabe c455 77be
000003f0: af41 69be 88ff 89be d27a 093d 7356 a3be
-0.2325073 0.2216266 0.3535711 0.09003482 0.052339155 -0.072668724 -0.27610263 0.24510884
0.12397975 0.21276398 -0.19502132 0.19607522 0.10096131 0.08000537 -0.16555369 0.22993018
0.3420047 -0.02466654 0.008331026 0.045331012 0.20477247 0.14270604 -0.06862882 0.06724423
0.15849681 0.07293365 0.40417308 -0.3722546 -0.40558004 0.28420255 -0.16589941 -0.020339992
0.27554372 0.012345009 0.021501007 0.14305843 -0.014818241 0.12510593 0.017689772 0.43715376
-0.23839235 0.005024134 0.08550261 -0.0024314018 -0.07185302 0.15003549 0.11551332 0.22859254
-0.25268558 -0.1297137 0.20853981 -0.30063727 -0.21883373 0.17162041 0.08359321 0.14087555
0.053878125 -0.003810704 -0.2914035 0.28481022 0.08695425 0.059633005 -0.13714 0.04995122
-0.014325733 -0.048654485 -0.103984416 0.05903019 0.15663388 0.004112314 0.10866367 -0.069444165
0.014393816 -0.42159194 -0.06106076 -0.5189373 0.051355742 0.00689265 -0.12528738 -0.13971801
-0.2963677 -0.2361821 -0.26992065 0.27275994 -0.5235623 0.043281917 0.034433573 0.06799426
-0.22801696 -0.13794331 -0.32118303 -0.03814137 -0.34260863 -0.20049684 0.22167455 0.052814443
-0.14371707 -0.027185194 0.24677669 0.31208646 -0.102272175 0.21166539 -0.044327617 0.41529247
-0.36547235 -0.009695631 0.11851811 -0.014881648 -0.124902606 0.17750715 -0.02900373 0.46423006
-0.52389145 -0.04922438 0.12983803 -0.10820568 0.123282924 -0.259884 0.14795342 -0.20233528
0.068091884 0.05637738 -0.22264916 -0.016775377 -0.07951101 -0.16212039 -0.077381186 0.10894311
0.044660695 0.033311408 -0.23969355 0.16446404 0.017978592 0.11650575 -0.17605822 -0.06748091
0.027463876 -0.0056114933 -0.12024035 -0.0017783326 -0.06687712 0.086057425 0.15436815 -0.10476733
-0.0056762532 0.10795001 -0.1122164 -0.029122258 0.017149357 0.03199825 0.08165872 0.112353556
0.065792486 -0.204756 -0.26807317 -0.13187972 -0.21008477 0.083731264 0.064295985 0.105492145
0.07597801 -0.13017303 -0.073573686 0.37645274 0.06762749 0.002869782 0.013894335 0.2499579
-0.26267028 -0.12494317 0.18675196 0.23581924 -0.15630087 0.18785563 -0.09260767 0.0024769926
-0.30806938 0.100972556 0.117103085 -0.26976994 0.090176955 -0.116502985 0.07592293 -0.06793317
-0.069112286 -0.17352132 -0.29205889 0.42271546 0.12471715 -0.27024174 -0.056373335 -0.086122915
0.45514536 0.06504277 -0.115639724 0.335692 0.005777271 0.03310509 0.2512054 0.5481104
-0.18342412 0.17898563 0.1849831 -0.111010365 -0.036420155 -0.09580355 0.14337358 0.16708332
-0.21966554 -0.08206863 0.2056263 -0.27486566 0.12163333 -0.121152654 -0.037324976 -0.0762827
-0.044688143 0.09564094 -0.35526606 0.47684273 0.2082303 -0.14733262 0.13407172 0.057009056
-0.33738148 0.21412474 0.29111972 -0.04810343 0.2626552 0.1476744 0.14281851 0.0421075
-0.4324098 -0.09868926 0.0144541 -0.17827436 -0.24088411 0.11399854 0.088894024 -0.04658794
-0.24103057 0.22089383 0.03662376 -0.13626033 -0.24181856 -0.22640784 -0.23944663 -0.22252083
0.092052326 -0.009546875 -0.33283752 -0.2415381 -0.22778963 -0.26952767 0.033564396 -0.31901893

rnn.bias_ih_l0 f4 [32]
00000000: 4365 4e3e 504d bcbd ae30 d23d d8e8 adbd
00000010: e8ee cfbb dc33 ecbd 8f3d 16be b5f0 a2bd
00000020: fe8c fb3d cae2 26be 8aea c03a 5e30 59bc
00000030: ed1f 273d 0a8c 7cbe 3006 81be 9947 9dbe
00000040: 820c d13b 0d5c f3bd e875 babd fe80 533e
00000050: d44b 003e 6b01 ea3d 7a7a e43c 3bc4 1d3e
00000060: 8cf1 0dba ed18 733d 8ac9 4fbe d374 88bd
00000070: 3e05 72be a3a0 06be 7e75 d6bd 98fa 293d
0.20155816 -0.09194434 0.10263191 -0.08491677 -0.0063456185 -0.11533329 -0.1467192 -0.079560675
0.122827515 -0.1629745 0.0014718336 -0.013256161 0.04080193 -0.24662796 -0.25200033 -0.30718687
0.006379665 -0.11882792 -0.0910452 0.20654675 0.12528926 0.11426052 0.027890433 0.15406887
-0.00054147164 0.059349943 -0.20291725 -0.066629075 -0.23634812 -0.13147216 -0.104716286 0.04149875

rnn.bias_hh_l0 f4 [32]
00000000: c2fb 6fbd 1690 f2bd ed59 6a3e 7840 0cbd
00000010: d179 d8bc 6383 f1bd 8c30 3cbe cd58 41bc
00000020: 13ec a6bc a5a9 4fbe ddb4 803d ec12 6b3d
00000030: 4f44 943d ef0f 73be 6b48 c03c e927 a9be
00000040: 9c2d eebc d0b8 01be b7b3 b0bd 8315 aa3d
00000050: c4c7 723b 60ba 39bb 50d6 873d 9902 d9bd
00000060: d74e 0cbe f740 893c 5c6e 42bd b64e 723c
00000070: 9cf5 a0bd a185 a6bd 7e7f 82bd 5f41 2cbe
-0.058589704 -0.118438885 0.22885866 -0.03424117 -0.026425274 -0.11792638 -0.18377894 -0.011800957
-0.02037624 -0.20279558 0.06284497 0.057391092 0.07239591 -0.23736547 0.023472032 -0.33038262
-0.029074483 -0.12668157 -0.08628028 0.08304884 0.003704534 -0.0028339848 0.06632674 -0.105961986
-0.1370195 0.01675461 -0.04746853 0.014789274 -0.07859346 -0.081309564 -0.063719735 -0.16821812

rnn.weight_ih_l0_reverse f4 [32, 128]
00000000: ea54 2f3e 1adf 5f3d 672a b0bd 0fc9 49bd
00000010: 3a94 133e f6ca 013d b459 ebbb 66ec dd3d
00000020: 2f57 c0bd e3fd cdbb 63be 633d 019e 093e
00000030: beac d73d a17a 393e 3e15 dc3d 0349 8ebd
00000040: 10dd 013e 0189 a8bc 83fb f93d 0ab4 863d
00000050: 1ed9 0f3d d944 563e ea68 cc3d 2aef 61bc
00000060: 9441 b43c fcd3 98bd 0c42 133e c045 a8bd
00000070: 00d3 193e a823 1b3c 08e3 863e ba2c a43b
00000080: ee4d 53be 7897 6437 026b 20be 6364 c0bd
00000090: 8689 07be 214f 3b3e a39a 803a e585 66bc
000000a0: 06f1 c8bd b38f 3d3d 3000 013e 89d9 bfbb
000000b0: 824d 65be a6db dbbd f572 9c3d 0181 9dbc
000000c0: c139 1a3e c714 3e3d 5302 b13d bd03 48be
000000d0: 1343 65bb 73a5 f33c 4479 72be 7a01 32be
000000e0: b8ff 3f3e ab9e b33d 7868 25be 64de 9e3d
000000f0: f403 f13d 0072 253d 1d94 473e 218e 5f3e
00000100: 336b 163e 803a 5b3d 3a26 6f3e 63ee bc3c
00000110: de26 da3d cf40 503d 5c14 d5bd ac09 03be
00000120: 5eba ffbc b75e 2b3e 4bda 93bd c0a8 633e
00000130: 2baf ec3d 884d 24be a669 373e 3d9c 70bc
00000140: 164b a03d 0804 2fbd 63ed 6fbe ce62 0abe
00000150: 3d46 8abe 3239 2abc 88e2 6c3d 3854 393e
00000160: e029 d0bd 1427 883e 742e 8fbc f77e 473e
00000170: 4873 6e3d 336c 763e 79d6 72bb 19a8 273e
00000180: 9320 7fbd 71ad 86bc 6a26 d93d a8f0 263e
00000190: 033f 30be 8f9b a53d 8174 4c3d fbba 10be
000001a0: 9284 a9bd 3130 5cbe 26a2 863d ca72 46be
000001b0: 492c e1bd e178 643c c691 2c3c 1b76 ffbd
000001c0: e9fb e5bd 1b32 3abe d431 003d 59af 97bd
000001d0: 3fbf 32be 86ae dc3d 94d2 e23d 317d 293e
000001e0: 9cde 1fbe 75b3 133e 79be 7bbd 97c0 0fbd
000001f0: 6963 3f3e a04d 2d3a 2643 1d3e a3c8 e1bc
00000200: c061 5cbd 42b4 ddbd c128 8abe 78c8 18bd
00000210: 163d 34be 4b20 923d 68ab 3c3e fccb 653d
00000220: 2314 eb3d 62dc a2bd 6bfe 51bc 6499 883e
00000230: 9901 02bd ca13 79be e7a2 c4bd 29ff 5c3d
00000240: 93c2 5dbe ae34 39bd 4fee 77be 712a c8bd
00000250: 71eb 18be 1bab 833d d746 85bd 8d17 5fbe
00000260: d2d6 ba3d e14e 093e 57e0 0b3d 517e a5bb
00000270: 260d 1e3e 708b d2bc 5f40 0f3e 4e82 cfbd
00000280: 6c1c 523d a45c dabc f07b aabe f240 0c3e
00000290: 889c 5c3e c404 073e 8e3b f43c 1696 2b3e
000002a0: 743f e13d 4bb8 f5bd 9eaa 333e 9756 a5bd
000002b0: 7c79 be3d 91ee d1bd 14d9 f13c 451c 04be
000002c0: 383e 9d3d 5eea efbd 8c50 8abd d4c8 2bbe
000002d0: c46c fb3d c544 bd3d f676 66be b94d 0e3e
000002e0: 6e73 783e 6df6 9b3d 79eb a9bc 81b8 8ebb
000002f0: 4001 fe3b a47e 00be cc4a dabd 873e cd3c
00000300: d12d 0ebe a39b a03d cb06 18bc 8271 bdbd
00000310: 528d 7dbd 0331 143e 18d0 25be 998e a1be
00000320: b246 6ebd 10c5 de3d 524b 51bd 0375 e93d
00000330: 169f f8bb 3809 e53d 8755 863c 085b c6bd
00000340: 9bb0 b1bc 0812 6fbe 3e9f 10be d600 383e
00000350: bd5d 40be af25 043e 38f2 4c3c 1564 91bc
00000360: 4805 643d c936 41bd 476c fd3d 8783 06be
00000370: e9ea 0d3d 91a1 363e a02a a73d 7ce5 8f3e
00000380: be5f 01bd 7531 2abe 79e2 00be 71e8 1c3e
00000390: d360 14be e061 093d d73e 343d 1ab0 40bd
000003a0: 2e6e 05be 2cc5 7b3e 3197 f63c d6a7 5cbe
000003b0: d46a ebbc d187 67bd 7603 0b3e 3d96 97bd
000003c0: 4ff6 bdbd 4530 aabd e0ff 45be aa73 423e
000003d0: 616e dc3d 0300 ad3e 21d6 a3bd 9422 34bd
000003e0: a934 e1bc 4eae d43c 9844 39bb de9f c03d
000003f0: 250c b23d e93e b03d a1c2 333c 5db9 dcbd
0.17122236 0.054656126 -0.086018376 -0.04926401 0.14412013 0.0316877 -0.0071823243 0.10836105
-0.09391629 -0.006286369 0.05560149 0.1343918 0.10530995 0.18113185 0.10746239 -0.0694752
0.12681985 -0.020573141 0.12206175 0.065773085 0.03511917 0.20924701 0.09980948 -0.013789931
0.022003926 -0.07462308 0.14380664 -0.08216429 0.15021896 0.00946895 0.26345086 0.0050102146
-0.20635197 1.3625126e-05 -0.1566582 -0.09394147 -0.13236055 0.18291904 0.000981171 -0.014070009
-0.098115966 0.04627962 0.12597728 -0.0058547896 -0.22392848 -0.10735254 0.07639114 -0.019226553
0.15061094 0.046406534 0.086430214 -0.19532676 -0.0034982606 0.029741978 -0.23679072 -0.17383376
0.18749893 0.08770498 -0.16153133 0.077572614 0.11768332 0.040391922 0.19490094 0.21831562
0.14689331 0.053522587 0.23354426 0.02306289 0.106519446 0.050843056 -0.10404274 -0.12796658
-0.031216796 0.1673535 -0.072193705 0.22232342 0.11556848 -0.16045201 0.17911395 -0.014685688
0.078268215 -0.042728454 -0.234304 -0.13514253 -0.27006713 -0.010389613 0.057833225 0.18098533
-0.10164237 0.26592314 -0.017478205 0.19482027 0.05821541 0.24064712 -0.0037054105 0.16372718
-0.062286925 -0.016440125 0.1060303 0.1630274 -0.17211537 0.08086311 0.049915794 -0.14133827
-0.08277239 -0.21502759 0.06573896 -0.19379726 -0.10994775 0.013944835 0.010532802 -0.12473699
-0.11229689 -0.18183176 0.03129752 -0.07406492 -0.17455767 0.10775475 0.11075321 0.16551663
-0.15612262 0.14423926 -0.061460946 -0.035095777 0.18690266 0.00066109933 0.15357646 -0.027561491
-0.05380416 -0.10825397 -0.26984218 -0.037300557 -0.17601427 0.07135066 0.18424761 0.056102738
0.1147845 -0.07952191 -0.012817006 0.26679528 -0.031739805 -0.24323955 -0.09601384 0.053954277
-0.21656255 -0.045216255 -0.24212001 -0.0977372 -0.14933564 0.0642912 -0.06507652 -0.21786328
0.09123005 0.13408996 0.034149494 -0.0050504585 0.15434703 -0.025701255 0.139894 -0.101322755
0.051296636 -0.026655503 -0.33297682 0.1369665 0.21544087 0.13185412 0.029813554 0.16756472
0.10998431 -0.11998042 0.17545554 -0.08073156 0.09300515 -0.10250581 0.029522456 -0.12901409
0.07677883 -0.11714624 -0.06753644 -0.16775829 0.12276605 0.09241632 -0.22506317 0.13896836
0.24262783 0.07615361 -0.020742165 -0.0043554907 0.007751614 -0.1254831 -0.106587976 0.02505423
-0.13884665 0.07842185 -0.009278963 -0.092501655 -0.06190235 0.14471821 -0.16192663 -0.31554106
-0.05817289 0.108774304 -0.05109722 0.11399271 -0.007587324 0.11183399 0.016398204 -0.096853316
-0.021690657 -0.23346722 -0.14123246 0.17969069 -0.18785758 0.12905 0.012508921 -0.017747918
0.0556691 -0.047171388 0.12374168 -0.13136111 0.034647856 0.1783507 0.08162427 0.2810477
-0.031585447 -0.16620429 -0.12586392 0.15323044 -0.1449006 0.033540606 0.04400524 -0.047042944
-0.13030311 0.24586934 0.03010139 -0.215484 -0.028737463 -0.05652601 0.13575539 -0.074017026
-0.09275495 -0.08309988 -0.1933589 0.18989435 0.107632406 0.3378907 -0.07999826 -0.04397829
-0.02749093 0.025962021 -0.0028269645 0.09405492 0.08693723 0.08605749 0.010971696 -0.10777543

rnn.weight_hh_l0_reverse f4 [32, 32]
00000000: ed6b 04be 7354 c53c 6a0b c9bd d8a1 3f3e
00000010: 8b5b 4e3d 1db6 c3bd 3306 33be cfd5 0f3e
00000020: bc10 a73d 2dd5 563e 863d 1bbe d035 783d
00000030: 623c e7ba f6e6 a53a f75a 62be 7383 323e
00000040: c7be 403e 79c3 aabb dbec a23e 7b57 a03b
00000050: 4f93 bdbd 9e3e 183d 34f9 bf3d 78de f7bd
00000060: a152 6fbd 8055 a83e 32c5 093e 4b3d ce3d
00000070: e2ff 3f3b ecc4 93bb ba1f 40be c1b5 653e
00000080: 4b86 84bd a083 afbd 10dc 893c 11eb 523e
00000090: d437 37bc 9dc5 293e 7efb 52bd 7b8b 033e
000000a0: 3a96 57bd 9fbc d7bd 70e9 113d 7df9 8e3e
000000b0: 01da 653c da74 30bc f3c9 0fbe 8182 8b39
000000c0: 37e2 143d e9bc 0abe 8845 413e 3f1e dabd
000000d0: 3c5d ecbd 63f3 353c 4a9c 62bd 3e8f 66be
000000e0: bd1b 4d3d 2c6d c03e 28a0 103e 917a 723e
000000f0: ad2c 16bd 5bdc 213e 063f c8bd b89e c7bd
00000100: 550c 7cbe f254 8e3e cb06 3dbd f04d 763d
00000110: a1a7 3d3e 7cd2 533e b584 96bd 684c 1c3e
00000120: c63b 21bd 386f c3bd 1084 1c3e 4ba4 b03c
00000130: f5ad 2e3e e993 fdbd f265 17be 4840 143e
00000140: c83a 8f3e 95db 58bd a17a 6f3c d1fc 9fbd
00000150: 4f14 bb3d 65cb 91be 210b 903b 91fb d33d
00000160: 73b7 33be ec1e d6bd 4827 e13d 8ddf 8dbe
00000170: 00bb 98bd 4e1a d93a 840a 8dbe 8c9d 35bd
00000180: d0bf b4bb 735c f43d 2188 0d3e c24a 473e
00000190: 089b 83be 0f99 913e 79d5 743d daee 0a3d
000001a0: 3bfb 9e3c 679c 53bc 10c0 2e3e 9553 50bc
000001b0: 4abe ab3d cbea cabd edd4 b4bd 7079 14bd
000001c0: 6873 2fbc 8cd4 143e 5b6f 273e 9a41 1fbe
000001d0: 1bab 093d 20d5 dbbd 0ffa 553e 9980 8e3e
000001e0: 47d0 eb3c 7418 2b3c 28c1 35be 92dd 96be
000001f0: 76a4 0cbe 9d67 253e 55f6 a33e a57e 873e
00000200: 3bb6 ad3d cdcf 8b3e 44e0 4bbe 7034 6cbd
00000210: 625a 873e 72e9 10bd 59d1 e83d e086 89be
00000220: 6a21 5dbd 89e6 ad3d 13b7 e93e 1ba7 37bc
00000230: 80bf 373e 743c 80bd 2a5a 813e 6529 36bc
00000240: c640 1e3d 2bd2 23be fd01 cbbd f0fd d7bd
00000250: 70f7 913e de6b 7cbe 0f1c fbbc f90e 2c3e
00000260: 742d ddbc f6e5 fcbd 8e4e 96bd 49ea 79be
00000270: 380a 3d3c fb5b 98bd da73 883d 2db4 f1bd
00000280: 92c6 60bd c2c8 403d 07a8 803d 348e 1a3e
00000290: 69ea cdbd 1b98 08be 55e8 323d fb5b 95bd
000002a0: f6e5 193e 3c57 0abe fc99 e13d d0b2 9dbd
000002b0: 2601 3c3e 50e1 7bbd a5ae a43d 348a 58bd
000002c0: 0f94 a63d 1ea4 0c3d d18d a7bd c5ef 1e3e
000002d0: e016 31bd 2946 50be ca2a 6fbd 6ac6 7a3e
000002e0: 8da8 c6bd ed26 343c ab0e bb3d 6c58 4cbe
000002f0: f7f2 07bd e6fb d9bd da77 fe3c e4ac 84bd
00000300: 32d0 a9be 965a 473e e432 6a3d 74f8 e13d
00000310: ad33 17be e144 873d 268f 2f3d a595 3a3e
00000320: c9f2 933e 10e7 863d b951 80be db74 853e
00000330: 2ae9 533b 3582 ce3c 8bd9 c2be 01f2 b23e
00000340: 7458 fcbc 17d4 cdbd 1224 bb3e 230b b73d
00000350: 5b34 a83d 1a7c 60be bd27 3b3d 639c 6ebc
00000360: d4cf b9bc b0cd 893e 196f 1bbe 3a70 ecbd
00000370: 43c8 8abe 59d8 a33e cb63 c23d b9f2 9e3e
00000380: 31d5 9b3e 9b04 2abe 4651 ac3e bbc4 6f3d
00000390: c894 8bbe 7c95 66bc fc1a 943d bae0 85be
000003a0: e21f 36bc 36d9 f03c f228 ccbd c88f d1bc
000003b0: 2a3e b2bc 9bae 723c ee0f 74be 4e46 733d
000003c0: ce4f 87be b422 1b3e 5ec7 3a3e ccb8 383e
000003d0: f242 6cbe 71f5 1fbd 43bd d73d f462 9abe
000003e0: 9197 9fbd b254 4cbd 562b 8cbd d6c4 f13d
000003f0: 9d3b 18be 78e2 e43c 77ee ad3e ff0e 4ebe
-0.12931795 0.02408812 -0.0981663 0.18714082 0.05038027 -0.0955622 -0.17482834 0.14046405
0.08157489 0.20979758 -0.15160188 0.060598195 -0.0017641897 0.0012657333 -0.22105013 0.17432956
0.18822776 -0.0052112904 0.3182133 0.004893241 -0.092566125 0.03716909 0.093737036 -0.121029794
-0.05842841 0.3287773 0.1345413 0.100702845 0.0029296805 -0.004509559 -0.18762103 0.22432615
-0.06470927 -0.08570027 0.016828567 0.20597483 -0.011182744 0.1657929 -0.051509373 0.12846176
-0.0526335 -0.105340235 0.035623014 0.2792472 0.014029027 -0.010770047 -0.14041881 0.0002660938
0.036348548 -0.13548626 0.1887418 -0.106503 -0.115412205 0.011105391 -0.05532483 -0.2251558
0.05007528 0.37583292 0.14123595 0.23679568 -0.0366637 0.15806715 -0.09777646 -0.0974707
-0.2461408 0.27799183 -0.046149056 0.06013292 0.18520977 0.20685762 -0.073495306 0.15263522
-0.039363645 -0.09542698 0.15284753 0.021562716 0.17058547 -0.12381727 -0.14784983 0.14477646
0.27974534 -0.052943785 0.014616639 -0.07811893 0.09134733 -0.2847549 0.004395858 0.10350717
-0.17550449 -0.10455117 0.109938204 -0.27709618 -0.074575424 0.0016563626 -0.27547085 -0.0443397
-0.00551603 0.11931696 0.1382146 0.19462112 -0.25704217 0.28437087 0.059773896 0.033919193
0.019406905 -0.012915707 0.17065454 -0.01271524 0.08385904 -0.099080645 -0.08829675 -0.036248624
-0.010708667 0.14534205 0.16351072 -0.15552369 0.033610445 -0.1073401 0.20896171 0.27832487
0.028785838 0.010442842 -0.17749465 -0.2946592 -0.13734612 0.16152807 0.32023874 0.2646381
0.08482023 0.27306977 -0.1990977 -0.057667196 0.26436144 -0.03537888 0.11368055 -0.26860714
-0.053986944 0.08491237 0.45647487 -0.011209275 0.17944145 -0.062615305 0.25264102 -0.011118268
0.03863599 -0.15998141 -0.099124886 -0.105464816 0.28509092 -0.24650523 -0.030653028 0.16802587
-0.026999213 -0.12348549 -0.07339202 -0.24405779 0.011538081 -0.07439419 0.06662722 -0.11801944
-0.05487687 0.047066458 0.06282049 0.15093309 -0.10054476 -0.13339274 0.0436786 -0.072929345
0.1502913 -0.1350984 0.11015698 -0.077001214 0.18359813 -0.06149417 0.08041123 -0.052866176
0.08133709 0.0343362 -0.08181346 0.15521152 -0.043234706 -0.20339264 -0.058390416 0.24489751
-0.09700117 0.010995609 0.09133657 -0.19955605 -0.033190694 -0.10643749 0.031063009 -0.06478289
-0.33166653 0.1946815 0.05717744 0.11033717 -0.14765806 0.066049345 0.042861126 0.18221147
0.28896168 0.065870404 -0.2506235 0.26065716 0.0032335022 0.025208572 -0.38056597 0.3495026
-0.030803896 -0.100502186 0.36550957 0.08937671 0.08213111 -0.21922341 0.045692194 -0.014563653
-0.022682108 0.2691474 -0.15179099 -0.11544843 -0.27105913 0.32000998 0.0949169 0.31044558
0.3043609 -0.1660332 0.33655757 0.058537226 -0.2726195 -0.014073726 0.07231709 -0.26148015
-0.011116 0.02940045 -0.09968747 -0.025581256 -0.021758158 0.014812137 -0.23834202 0.05939322
-0.26428074 0.15149957 0.18240115 0.18039244 -0.23072413 -0.03905243 0.10534146 -0.3015362
-0.07792581 -0.04988546 -0.06844203 0.118051216 -0.1486649 0.02794002 0.33970997 -0.20122908

rnn.bias_ih_l0_reverse f4 [32]
00000000: 9c47 393d 9f7a 35be 62c4 dd3d 8658 95be
00000010: 3915 773d dd8a 8dbd 8c77 c0bd 7a4f 70be
00000020: 0265 71be 2061 893d 9395 793d b2a9 1fbc
00000030: d6f5 b83e f767 1ebe 9b87 0cbd 6777 13be
00000040: a8e5 87bd f800 36be 8710 bcbe 2936 083e
00000050: c991 09bd aa59 263e 5f5c 93be 294b 873e
00000060: 4f78 ad3d e8c8 dfbe b967 553e 507e be3d
00000070: 0257 863e b54c 38be d0c9 8a3c fd9a af3d
0.045234308 -0.17722557 0.10828473 -0.291691 0.060322974 -0.06911252 -0.09397802 -0.23467818
-0.23573688 0.06707978 0.06093366 -0.009745048 0.36125058 -0.15469347 -0.03430901 -0.14401017
-0.066356 -0.17773807 -0.3673136 0.1330191 -0.033586297 0.16245142 -0.2878141 0.2642453
0.08470213 -0.43707967 0.20840348 0.09301436 0.26238257 -0.17998011 0.016941935 0.085744835

rnn.bias_hh_l0_reverse f4 [32]
00000000: 05d3 473d 7b9c 77be 2192 553d 0200 8cbe
00000010: 4289 f03d 2097 e1bd d2ae 7ebe 5197 c1bd
00000020: 374e a8be 38a2 713c 5e9a c73d eb52 963b
00000030: 68ef 773e 0eb0 413d 33c0 6f3c dd35 3dbd
00000040: ec38 4f3d 7eaf c2bd e7b0 c5be e93c 7e3e
00000050: 9091 1cbd aa04 283e 3359 0bbe f43d 853d
00000060: 923a 03bd 4eee 0cbe 1433 b23d e7c6 873d
00000070: 191a dd3d 8f19 f8bc 4d12 a33e 0ef9 09bd
0.04878523 -0.24180786 0.052141313 -0.27343756 0.1174493 -0.11015153 -0.24871376 -0.094526894
-0.32872173 0.014748149 0.0974624 0.0045875213 0.2421242 0.04728704 0.014633226 -0.046193946
0.050591394 -0.09506129 -0.38611528 0.24827923 -0.038224757 0.16408029 -0.13608246 0.06505957
-0.03203828 -0.13762781 0.08701149 0.066297345 0.10795993 -0.030285625 0.318499 -0.033684783

fc1.weight f4 [12, 64]
00000000: fbbe 8dbd 5ab5 19bf 0e11 ad3e b36b 16bf
00000010: be0a 2abe 77b6 03bf 7d04 ebbe 432e 273d
00000020: 42cd d9bd d8e8 03bf d726 92bd 489c 7d3e
00000030: 1e63 2f3e 8742 51be 4e5b 8dbe c0a0 d6bd
00000040: 4ad4 cebd 1a99 18bf a12c 893e 1532 453e
00000050: 559e c83e eef9 053f 43ac 27bf 2019 263f
00000060: 5ac3 273f fabd 91be 2500 08bf 8058 143d
00000070: cf44 e3bc 7863 02bf c384 c13e ad13 b93e
00000080: 6584 b0be 7060 6ebe 9955 01bf 2e85 72bd
00000090: 2fd4 92be 4853 87be c66c cebe ad37 823e
000000a0: 79da b3be bced c23e f040 5f3e 8db9 7bbe
000000b0: 70d4 a83e 5e54 b63e 8e77 0b3e 9dbb d3bd
000000c0: 04b8 d53e 0178 61be c71e c5bd f003 913e
000000d0: 7f21 d7be 17a4 643e b83a 5fbe c4a6 b23e
000000e0: 2b5f bbbe ff55 92be 20f3 fa3e 8b62 1ebe
000000f0: 84d2 d63e 26ec 98be 70ce bf3c 3523 083f
00000100: 54ef 813f 87a2 293f c394 113f 6409 433d
00000110: 0ccb 733f b28c 87be 8148 e4be 6a5b 843e
00000120: 1881 a13f 7599 553f 6b68 febd b842 45bf
00000130: 92f5 9f3e bbe1 833e 9da9 4dbe dd58 903a
00000140: 8ae4 fabe a014 f4be 9aba c9be e728 82bf
00000150: 13b6 fa3d 2520 0abe fe20 113f 1331 30bf
00000160: 7f56 12be b49b c43f b8fd 0d3f 6fc2 953d
00000170: 3833 c3be 02ac 313e 4b01 b0be 54f9 66bf
00000180: f21a b53e 08b6 8a3f 2b1b 023f e102 e6be
00000190: 5adb 15be 3848 983f 64c0 e2be 9763 38bf
000001a0: 409d 5ebe 3682 97bf c078 4cbf aeb6 9abe
000001b0: 0ab7 18be 23cb 3abf 5a86 58bf 78f8 623e
000001c0: 3f4b 8a3e f90a 7d3f b0aa ccbd eb2b 6a3e
000001d0: 755c 333f 80f8 933b c535 44be 8aa8 81be
000001e0: c6ef 343f 7286 36bf aff5 0a3f d5db 4e3f
000001f0: ee80 1e3f db74 d6bd 73d7 8e3f f1ff 1a3e
00000200: 1881 013f 031f 85be 5029 7dbf a37b 2dbf
00000210: 4505 a33e cde3 883f ecbe 09bf 4232 24bf
00000220: bcf3 edbe c238 f7bd 9e77 843f 5741 373f
00000230: 6e9f adbf 15a0 833e 818e e13f 26ed 153f
00000240: f220 823e fbae b6bd f5cc 03bf 60d1 59be
00000250: 6e30 243e 0e9b 8dbf ba25 cdbe 2906 ea3e
00000260: c67f 1b3d de52 833f 90d9 033f e45b b3be
00000270: 68e5 d6be 5771 463f ca8a ae3e ec4f b13e
00000280: 514b 103f 8840 b6be a3cb 3abf 4d74 f43e
00000290: 9ce6 3b3f e34a 933f 1d81 72be 743b 873f
000002a0: 7c5b 4d3f be1f c5bd 7aea 453f cfa9 b1bd
000002b0: 90cc 67bf 4c0f 86bf 69f9 913e 221f ae3f
000002c0: f650 97be 864d 8c3f 3a88 923d 00d4 f3bd
000002d0: 14a0 b2be 34d7 3cbf 2574 f43d 1a5f 77bf
000002e0: c623 423f 0e6f 20bf beb6 ea3e 4eca 34bf
000002f0: a987 8a3e a4e8 17be 92c0 273f 908b 11bf
00000300: f1e3 5c3f fab2 053f 8554 4c3e 659f e23e
00000310: 7b34 a1be 71d0 b23e 8058 e4be 363c b5be
00000320: 8657 343f d776 ed3e ef6f 30be 9dea fcbe
00000330: c70e f33d f0ac 6dbf 7352 903f 192d 8d3f
00000340: 1edf bebd 5b1a d2be ff5a a13d c111 d2be
00000350: 4371 44bf 16c1 ebbe c5ed 223f f1f3 0c3f
00000360: 938f 16bf a0ed 8abe b25d d93e 5cea 5b3f
00000370: ba77 4d3f 8fd2 07be 349d a23d c1cc 03bf
00000380: bb81 0e3f f6bf 30be c7f9 5c3e 9d0d 9c3f
00000390: 74ac 023f 34b7 133d e904 4f3f d870 25be
000003a0: f656 7b3d c994 413e 1bf1 453f c381 4abe
000003b0: c203 f1be cff5 f63e ce9b 7abf 7418 f83d
000003c0: 0dd0 5e3f 4610 343f e02d ab3f 698d 66bf
000003d0: 7427 62be 86bb e6bd cbe3 9dbd 9e8a 05be
000003e0: 0b9c 2a3f bcea 0cbf 8573 3fbf 46d4 cf3e
000003f0: 6d8b e2be a0a4 60be 82d7 0dbf d5d0 293f
-0.06921192 -0.60042346 0.33802074 -0.58758086 -0.1660566 -0.51450294 -0.45901862 0.040815603
-0.10634853 -0.51527166 -0.07136314 0.24766648 0.17127654 -0.20435534 -0.27608722 -0.104798794
-0.10099085 -0.59608614 0.26791862 0.19257386 0.39183298 0.5233449 -0.65497226 0.6488209
0.6553246 -0.28465253 -0.5312522 0.036217213 -0.027742771 -0.5093303 0.37796602 0.36147824
-0.3447601 -0.23278975 -0.50521237 -0.05920904 -0.28677508 -0.26430726 -0.40317363 0.25433102
-0.3512762 0.38072002 0.21802115 -0.24582501 0.32974577 0.35611242 0.13619825 -0.10338519
0.41741955 -0.22018434 -0.09625011 0.28323317 -0.42017743 0.2232822 -0.21799743 0.34892857
-0.36596045 -0.28581235 0.49013615 -0.15467279 0.41957486 -0.29867667 0.023413867 0.5317872
1.0151162 0.6626362 0.5686762 0.047616377 0.952317 -0.2647453 -0.44586566 0.25850993
1.2617521 0.8343728 -0.1242226 -0.7705493 0.31242043 0.25758156 -0.20084234 0.0011012811
-0.49002486 -0.47671986 -0.39400178 -1.0168732 0.12241759 -0.13488825 0.5669097 -0.6882488
-0.14290808 1.5360017 0.5546527 0.07312476 -0.38125014 0.17350772 -0.34375986 -0.90224195
0.3537212 1.0836802 0.50822705 -0.4492407 -0.14634457 1.189704 -0.44287407 -0.7202696
-0.21739674 -1.1836612 -0.7987175 -0.302175 -0.14913574 -0.7296621 -0.84580004 0.22165096
0.27010533 0.9884487 -0.099934936 0.22868316 0.70062953 0.0045157075 -0.19161136 -0.25323898
0.70678365 -0.712989 0.54281133 0.8080419 0.6191548 -0.10471507 1.11595 0.15136696
0.50587606 -0.26000223 -0.9889116 -0.6776678 0.31839958 1.0694519 -0.5380695 -0.6413919
-0.46475017 -0.120713726 1.0349004 0.71584076 -1.3564279 0.2570807 1.7621614 0.58564985
0.2541576 -0.089200936 -0.51484615 -0.21271276 0.160341 -1.1062944 -0.40067846 0.45707825
0.03796365 1.0259664 0.5150385 -0.35031044 -0.41971898 0.7751669 0.34090263 0.34631288
0.56364924 -0.35596108 -0.72966975 0.4774498 0.73398757 1.1507229 -0.23682065 1.0565019
0.8021772 -0.09625195 0.7731091 -0.086749665 -0.9054651 -1.0473418 0.28510597 1.3603251
-0.29553956 1.0961158 0.071548894 -0.1190567 -0.34887755 -0.73765874 0.11936215 -0.9662949
0.75835836 -0.62669456 0.45842546 -0.7062119 0.27056625 -0.14834839 0.65528214 -0.5685358
0.8628531 0.5222622 0.19954117 0.44262233 -0.31485352 0.34924653 -0.4459877 -0.353975
0.7044605 0.4637973 -0.172302 -0.49397746 0.11868053 -0.92842007 1.1275162 1.1029388
-0.093199 -0.41035733 0.07878684 -0.4102917 -0.76735324 -0.4604575 0.6364406 0.55059725
-0.58812827 -0.27134418 0.42454296 0.8590448 0.80260813 -0.13263915 0.0794014 -0.51484305
0.55666703 -0.17260727 0.21579657 1.2191654 0.5104439 0.036063388 0.8086687 -0.16156328
0.06136223 0.18904413 0.7732102 -0.19776063 -0.4707318 0.48234412 -0.9789399 0.12114039
0.8703621 0.7033733 1.3373375 -0.90059525 -0.22085363 -0.11266236 -0.07709464 -0.1304116
0.6664435 -0.55045676 -0.74785644 0.4059164 -0.44246998 -0.219378 -0.55406964 0.6633428

fc1.bias f4 [12]
00000000: 2ac6 6b3c 2fd7 de3d f5d4 8dbe e09f 03bf
00000010: e7fb b6be cb76 a7be 8508 90be cf81 3cbf
00000020: 9a99 c0be feb7 97be 5ccb 4dbe ef96 36bf
0.014390508 0.10880887 -0.27701536 -0.51415825 -0.3573906 -0.3270782 -0.281315 -0.7363557
-0.3761719 -0.29632562 -0.20097107 -0.71324056
