src/src_learner/python3_finetuning_model.pt (torch, 99780 bytes, 11 tensors)

word_embeddings.weight f4 [102, 128]
00000000: ba46 c3bf 310f 40bf 4b6b 27bf 9903 cebf
00000010: 7324 cdbd cef3 1bbf 5bd2 7abf def6 cdbf
00000020: 1c4f 36bf 7381 9b3e 12fe 46bf bebe 80be
00000030: e09a 63be 55f3 d73f 4ae8 693e ec6d ef3e
00000040: c96c 32bf d593 94bf 3615 333f 0edc 4b3e
00000050: 049e 5d3f 0445 7a3e 8fb4 29bf c1ab 4e3f
00000060: df03 8d3f 9428 34be 38b7 0fc0 8925 b9bf
00000070: f67d 7a3d 8024 1ebf 4e4e 4cbf 3cc8 06be
00000080: 678e f03f d4b9 93bd 9e8e 213e 2401 46bf
00000090: 78d5 4b3e d632 3b3d bda0 1c3e 2c8c f3be
000000a0: 5d5e e3bd 65e1 953e 29a2 21be 02d3 ebbc
000000b0: e8da 1640 84c7 84bf fc92 c93f ab3d 21bf
000000c0: 8b69 6dbf 658e 0b3f f2bd 873d b9c3 dfbe
000000d0: cb39 433f b80d e23e 4223 953f 2efc 0040
000000e0: dab5 0c3e 054b 703f 1277 3ebe 1507 25bf
000000f0: 0206 c53f 4b9d 5ebf 9f31 55c0 8e74 3fbf
00000100: 8aea d0bc 7ffc 82bf 979f 18bf 3bb5 80bf
00000110: 2ea9 57be 4051 f7bb dd32 d63f fa74 293c
00000120: 8136 34bf 51b6 3dbe 4309 7fbf 25cd 54bf
00000130: 140b ecbe 9061 0fbf f688 ca3e 8376 7bbf
00000140: 1ba9 01bf 0c57 cc3d cd6a 27bf 4750 3b3f
00000150: f599 b7bf 4935 00bf 99c0 2f3e 3dd5 23be
00000160: 525f 823e 4680 00bf 0b46 85bf dd75 3b3f
00000170: 0230 86bf d116 f1be d30f 953e 66cf fe3f
00000180: 7b54 293f 514f 983f 5e08 513f afdc 69bf
00000190: 744c b13f 3a58 50bf a875 6dbf d054 8e3f
000001a0: 05e8 aa3f adb1 1a3f 71d9 d3bd 9cd8 1abe
000001b0: 8788 06c0 c2b9 1ebf ac36 bdbf d313 91bf
000001c0: 1db1 5f3f 296d 0fbf 9694 a43f 5e1b 513f
000001d0: 3d3b 523e 0237 9c3e c922 093f 48c4 dcbe
000001e0: 8ab8 2340 f1f6 6ebe 35ba 5cbc 4829 ee3f
000001f0: f47d fdbf f737 e63f 9882 d03d 4415 ae3e
00000200: 865d 363f 9764 e3bf bd2d b53e ed8c 993f
00000210: 7a22 9bbe 0784 e1bf 2d85 223f 7aea 4dbf
00000220: e938 cebf 0391 efbf 8707 0b3f 3c22 293f
00000230: bfe4 1240 a3c6 2c3f 1f4e db3f c0aa e5bf
00000240: 8a7f aebf 48b4 7bbf 3071 c13f a451 243f
00000250: 5028 f23e 2970 dbbe a226 0d3f 4010 c6bf
00000260: ffa2 043f 352f da3d edd9 893e ff91 a93f
00000270: 8e7d df3f a06f ed3f 9bd4 34bf 4da7 2340
00000280: 0ec7 d53e e8d2 59be 7d07 57bf 950c d7be
00000290: d8c0 1fbf 1430 7abf b3f5 5f3f 79be 7c3f
000002a0: ca80 9e3e f8a5 c23f 1b45 9a3f 4965 e8bf
000002b0: 8392 cebe 8a8a 75bf 63a5 aabb ff82 a1bd
000002c0: baf9 573f b335 953f 07e5 063f b143 cf3f
000002d0: 26c7 76bf b8ea 103e bd96 27be f368 b7be
000002e0: a673 dc3f 436e 9bbe 709b 743e 3b08 ac3f
000002f0: fe67 d33d 68d8 8c3f b5f0 aebe cd84 723f
00000300: 438a 11bf b46c 563f fe4e e43f 671d 48be
00000310: 8bd1 033f 257a ecbf e9ab 3ac0 883c 11bf
00000320: 5791 0abf 202a 653f fbeb 61bf c824 083f
00000330: 07dc c5bf 8275 31be 5a6e 3a3f d1b8 693d
00000340: facf 673f fdec 853f d845 05bf 8e69 ad3f
00000350: 78d6 703e ed05 f53f 850f eb3f 478a a93f
00000360: fc10 78bf 9f35 a03f e7eb 9a3f ce25 07bf
00000370: cecf 5f3e cd05 13bf 1383 ba3f adae e23f
00000380: 6030 d33f b42f ddbe 0ac4 8abe 7b36 b8bf
00000390: 059f 9f3f 8e0d a33f 802a c83e 7440 c63e
000003a0: 3d7d a3bd 7df6 ae3e 59e6 723f d024 b1bf
000003b0: dcae dc3f 5058 17c0 1ef3 6dbf 0e56 963e
000003c0: 924b 5c3e 283f 703f 4f9c bb3f 1b75 0ebf
000003d0: e3ad 3ebf 4d02 4fbe 102e 6bbe 3e80 ae3a
000003e0: 2a24 c03e dec0 14bf d582 12bf 6c3e 813f
000003f0: b55e d8bd 4700 97bf a7ea b9bd 4328 103f
-1.5255959 -0.7502318 -0.6539809 -1.6094848 -0.10016718 -0.6091889 -0.97977227 -1.6090963
-0.7121446 0.303722 -0.7773143 -0.25145525 -0.22227049 1.6871134 0.22842517 0.4676355
-0.6969724 -1.1607615 0.6995424 0.19908163 0.8656924 0.2444039 -0.66291136 0.80730826
1.1016806 -0.17593604 -2.2455578 -1.446458 0.061155282 -0.61774445 -0.79806983 -0.13162321
1.8793458 -0.07213178 0.1577706 -0.7734549 0.1990565 0.045702778 0.15295692 -0.4756788
-0.11101983 0.29273525 -0.15784515 -0.02878714 2.357111 -1.0373387 1.5747981 -0.6298472
-0.9273917 0.5451415 0.06628026 -0.43704012 0.7626006 0.44151092 1.1651385 2.0153918
0.13741246 0.9386447 -0.18600109 -0.6446393 1.5392458 -0.8695876 -3.3311536 -0.74787223
-0.025502462 -1.0233306 -0.59618515 -1.0055307 -0.2106063 -0.0075475276 1.6734272 0.010342831
-0.70395666 -0.1852658 -0.9962351 -0.83125526 -0.46102202 -0.56008244 0.39557618 -0.9822771
-0.5064866 0.099775404 -0.6539734 0.7316937 -1.4343859 -0.50081307 0.17163314 -0.15999313
0.2546335 -0.5019573 -1.0412 0.7322672 -1.0483401 -0.4708772 0.29113635 1.9907043
0.6614453 1.1899205 0.8165339 -0.9135236 1.3851457 -0.81384623 -0.92757654 1.1119633
1.3352057 0.6042736 -0.10344208 -0.15121692 -2.102083 -0.62002194 -1.478231 -1.1334175
0.8737963 -0.5602594 1.2857845 0.81682384 0.2053041 0.30510718 0.535687 -0.431185
2.5581384 -0.23336388 -0.01347213 1.8606348 -1.9804063 1.7985829 0.10181159 0.340006
0.71236455 -1.7765073 0.35386458 1.1996132 -0.3029974 -1.7618417 0.6348446 -0.8043591
-1.6111118 -1.8716129 0.5430836 0.6606786 2.2952116 0.67490596 1.7133216 -1.7942734
-1.3632672 -0.9832196 1.5112667 0.64187074 0.4729638 -0.4285901 0.55137074 -1.5473709
0.5181121 0.10653535 0.26924077 1.324768 1.7460191 1.854969 -0.7063691 2.5570862
0.4175343 -0.2127186 -0.839958 -0.42001787 -0.6240363 -0.9772961 0.8748428 0.9872814
0.30957633 1.52069 1.2052339 -1.815591 -0.40346155 -0.9591452 -0.005207704 -0.07886314
0.8436543 1.1657013 0.5269322 1.6192533 -0.96397626 0.14152038 -0.16366096 -0.35822257
1.7222793 -0.3035756 0.2388742 1.3440012 0.10322569 1.1003542 -0.3416802 0.9473389
-0.56851596 0.8375962 1.7836607 -0.19542466 0.5149161 -1.8474776 -2.9167426 -0.5673299
-0.5412802 0.895174 -0.882507 0.53181124 -1.5457772 -0.17329982 0.72824633 0.05706102
0.9055172 1.0462948 -0.520597 1.3547838 0.23519313 1.9142433 1.8364111 1.3245324
-0.96900916 1.2516364 1.2103242 -0.5279206 0.21856615 -0.57430726 1.4571251 1.7709557
1.6499138 -0.43200457 -0.2710269 -1.4391626 1.2470404 1.2738512 0.39094925 0.3872105
-0.07982872 0.3417243 0.9488273 -1.3839359 1.7240863 -2.3647652 -0.9294909 0.2936253
0.21513203 0.9384637 1.4657077 -0.5564744 -0.7448408 -0.20215721 -0.2296679 0.0013313366
0.3752759 -0.5810679 -0.57230884 1.0097175 -0.10564939 -1.179696 -0.090779595 0.56311435

rnn.weight_ih_l0 f4 [32, 128]
00000000: e4b5 17be 84ba b0bd fa4b e2bc aff1 c6bd
00000010: 7fa3 39bc 2fb7 0dbe 3d4c 1abe 6972 503d
00000020: a73d bd3b 8c8b 823d 30e3 ff3d 3c8b fa3d
00000030: 2364 3f3b 0246 c13d c02f 853d eb4a 963d
00000040: da4e eebd f3ed 1c3e dbe2 8e3d 3d78 113e
00000050: 7165 713d 3c5f a5bd 1072 05be 0c7e 1f3e
00000060: 1731 113e 026a d9bc aea5 c23c d027 34be
00000070: 83ba dfbd 87ae 1fbe 7c1c a6bd b2fd b5bd
00000080: 7649 85bd 5b3e 423d abeb 673d cf02 99bd
00000090: f95d cb3d b59a 08be 90a1 763b b011 a23d
000000a0: c6a8 23be ce45 9cbc 0edb 2abe 682b 963c
000000b0: b5b0 133e ffde 1c3e cd3d 753d 070b acbd
000000c0: 21f2 0a3e d96a 33be 52db e03d 22f5 b1bd
000000d0: fa06 b63d 4ba6 2a3c aeae 10be 0f3c ec3d
000000e0: cb7b 1a3e 0cad c9bc e454 99bd 82a7 243e
000000f0: 9718 123e 583f 43bd ba11 dcbd b250 f9bb
00000100: 96e7 0b3e c264 f9bd 79bd f4bd d1ba d93d
00000110: fdca 1dbe b0ce d03d df3d ddbd b3a1 dc3c
00000120: 42b2 67bd 6e8d ff3c 775d 90bd b0a1 673d
00000130: f1fd e73d 5e1b dfbd 4c18 183e 9a09 fa3b
00000140: 9557 6ebd aa33 a03d b543 a6bd 932f dbbb
00000150: 0a01 163e ebaa 00be d6f0 233e cb10 1e3e
00000160: 5461 583d e072 8a3d 2177 02be 51ea 253e
00000170: 7eb4 fcba 3be2 dfbc 1a12 8a3d 8177 edbd
00000180: e7e8 b5bd 9d6f 01be a972 f0bc 0108 a3bd
00000190: 13de 9e3d b26d 1ebe 5d3d b1bd 331d 2cbe
000001a0: 62a3 d7bc 2efd 123e 4a2c a53d 56cd 033e
000001b0: afae 733d b151 333e 64cd bebd aac9 a9bd
000001c0: d629 10be 979a 1b3e 1f87 31be 6845 243b
000001d0: 8037 acbd a72c a73d 9e5d 993d ddf3 bd3d
000001e0: b10e 87b9 0d14 a03d adde 1bbe 4156 053e
000001f0: 2751 48bd b026 21bd b5a3 fa3c 4aa6 94bd
00000200: c532 a2bd 21d7 80bc 3d24 c2bc 00ee 173e
00000210: a0c9 b93d 8098 e8bd c87b 1f3e 98cc bcbd
00000220: 2c95 4fbd 43d7 203e 55ca 0f3e 0efa 0c3e
00000230: 8893 a63d 2e67 19be d902 f0bd 8f7b a8bd
00000240: e530 4b3d d281 213e 42bb be3d 11fe f13c
00000250: 9422 f5bd 13c0 f13d 1ca0 1039 6132 703d
00000260: 0f51 adbd 3f9f 16be be5b 21be ac3a 5abd
00000270: 3975 06be 01d1 1cbe 714e 323e 1176 8f3d
00000280: 3126 c0bc c74b 20be d57d 00be cbd3 2abe
00000290: 158b 34bd 34b5 003e 139f bebc bbc0 203d
000002a0: c598 54bc 3d88 db3d d71a 2d3e 2759 93bd
000002b0: 2657 0bbe 2b5e d43d c39c ef3d 4146 663c
000002c0: e1c1 a2bd 62d5 2abd d2f5 cc3d f653 583d
000002d0: 42cb 7bbd d402 4e3d b592 623d aad3 4fbd
000002e0: ad9c cfbd 6e54 313d aa12 323d 1ea0 2f3e
000002f0: 2bd7 eebc 20f6 d53c ce49 203d 5a84 a23d
00000300: 210b aa3d aa6a fcbd 6abd 193e 09f7 0d3d
00000310: f8b4 343e 1d89 0bbe a440 213e c083 043e
00000320: 4d41 8abd 960b 27be 57fa eb3c 3b2b dd3d
00000330: fbf1 b8bd 4958 963d 0954 e33c 60b9 193e
00000340: 295c 303e 077f a43d 43a6 fcbc 5b4c 72bd
00000350: a649 ff3d b376 c3bd 2792 86bd 0ad4 d3bd
00000360: 387f 34be ccee 223e 6f2e e83d 6747 943d
00000370: 7a9a 053e fc0a 013e ec07 fa3d bee8 ebbd
00000380: 7131 ec3d 823c 4dbc 74b8 2d3e b14e 1f3e
00000390: 05d3 213d 730b c3bd 0c6f 2a3e 474b 33be
000003a0: 0d7d 9bbd 7f1d 573d 17a2 a73c 472d 09be
000003b0: 7b7e d3bd bc44 0d3d fba7 0bbd 5c09 12be
000003c0: 55fc d13d 5e6e 053e 2c04 8cbc 075b b73d
000003d0: bb30 163d 9303 c93d 2896 923a 2b6b 5b3d
000003e0: f6a4 fb3d db13 61bd 9f22 023e f4b0 4a3d
000003f0: fd84 12be 9ddb 0f3e 1bbb 8dbd 2f27 31be
-0.1481548 -0.08629325 -0.02762412 -0.09714066 -0.011330484 -0.1383941 -0.15068145 0.05089036
0.005775172 0.06374273 0.124945045 0.12233588 0.0029203973 0.09437181 0.06503248 0.07338508
-0.116361335 0.15325145 0.06976863 0.14206024 0.058934633 -0.08074805 -0.13031793 0.15575427
0.14178883 -0.026539806 0.023760643 -0.17593312 -0.10924246 -0.1559392 -0.08110902 -0.08886279
-0.06508152 0.047422748 0.056621235 -0.07471239 0.09930033 -0.13340266 0.003763292 0.0791353
-0.1598235 -0.019076254 -0.16685125 0.018331245 0.14422877 0.15319441 0.05987339 -0.08400541
0.13568927 -0.17521228 0.10979332 -0.086893335 0.088880494 0.010415624 -0.14129135 0.11534893
0.15086286 -0.024618648 -0.07486895 0.16079524 0.14267193 -0.04766783 -0.107455686 -0.0076084966
0.13662562 -0.12177421 -0.119502015 0.106313355 -0.15409465 0.101956725 -0.108028166 0.026932573
-0.056566484 0.031195369 -0.07049077 0.05655068 0.11327732 -0.10893892 0.14853019 0.007630539
-0.058188993 0.07822354 -0.08118383 -0.006689021 0.14648834 -0.125652 0.1600984 0.15436094
0.052827194 0.06760192 -0.12740757 0.16202666 -0.0019279865 -0.027329555 0.06741734 -0.11595059
-0.08882313 -0.12640233 -0.02935155 -0.07960511 0.07757201 -0.15471533 -0.08654282 -0.16808014
-0.026323024 0.14354393 0.08065088 0.12871298 0.059492763 0.17511632 -0.09316519 -0.082904175
-0.14078459 0.1519569 -0.17336701 0.0025065783 -0.08409023 0.08162814 0.07488559 0.09275029
-0.00025760152 0.078163244 -0.15221663 0.13021185 -0.048905518 -0.039343536 0.03059564 -0.072582796
-0.0791984 -0.015727581 -0.02369892 0.14836884 0.0907166 -0.11357212 0.15574563 -0.09218711
-0.05067937 0.15707116 0.14042027 0.13767263 0.08133608 -0.14980766 -0.11719293 -0.08226692
0.049607176 0.15772179 0.0931306 0.029540094 -0.11969486 0.118042134 0.00013792556 0.058641795
-0.08462726 -0.14709185 -0.15757653 -0.05327861 -0.13130654 -0.15314104 0.17412736 0.07004941
-0.023455711 -0.15653907 -0.12548001 -0.16682355 -0.04407795 0.12569124 -0.023269212 0.039246302
-0.012975876 0.10719345 0.1690477 -0.07194739 -0.13607463 0.103695236 0.11699822 0.014054836
-0.07947136 -0.041707404 0.10007824 0.052814446 -0.06147314 0.050295666 0.055315692 -0.050738968
-0.101373054 0.04329341 0.04347483 0.17150924 -0.029155334 0.026118338 0.039132886 0.079354
0.08302904 -0.12325032 0.15013662 0.03465942 0.17647159 -0.13626523 0.15747315 0.12940884
-0.067507364 -0.16313013 0.028805895 0.10799261 -0.09030529 0.07341058 0.027750032 0.15012121
0.17222656 0.08032041 -0.030840999 -0.05915485 0.12465219 -0.095441245 -0.06570845 -0.103431776
-0.17626655 0.15911406 0.113369815 0.072401814 0.1304721 0.12601846 0.12208542 -0.115190014
0.11532868 -0.012526633 0.16964895 0.15557362 0.039507885 -0.09523668 0.16643924 -0.17509185
-0.07592211 0.052518364 0.020463033 -0.13396178 -0.103268586 0.03448938 -0.034095746 -0.14261383
0.10253207 0.13030383 -0.017091833 0.08952909 0.036667567 0.09815135 0.0011183666 0.053569
0.12287323 -0.054950576 0.1270852 0.049485162 -0.14308544 0.1404862 -0.06920453 -0.17300104

rnn.weight_hh_l0 f4 [32, 32]
00000000: 6baa f73c dc90 d43d 0b95 313e 293e a23d
00000010: 3f80 e0bd 4d1f 7a3d 2de1 233c 6335 1f3e
00000020: cd25 dc3d 732d 943a 099c 923c bbe2 9f3d
00000030: 5b76 343e cce2 d23d 5610 0a3d e465 d03d
00000040: 97d4 de3d 9fb9 013e ee75 5bbc 5828 883d
00000050: 8e73 7bbc 6778 0b3e 1233 9dbd 0540 c93c
00000060: 07ca 99bd 68b1 b3bc 522e 903d 1f3a 5a3c
00000070: d4f8 33be d717 db3c 7e66 9dbd 8d9a e73b
00000080: 9117 6e3d 12ce 47bc 71ce b13d ba4f 26be
00000090: f949 bf3c 8e47 113e bed9 033c 6c36 173e
000000a0: 6674 88bd 3974 5c3d 10a5 13be 87df c7bc
000000b0: 5820 debd 5972 a33d f361 9b3d 2d21 fbbc
000000c0: a264 d0bd de0a b6bd 9855 d03d 54bd 67bd
000000d0: 3066 32be b021 013e 1308 af3c 1d3b ed3d
000000e0: 4a07 963d 2211 bcbc d42e 19be b7e7 23bc
000000f0: a13c 32bc 3a07 4a3d db91 2dbe 6287 6dbc
00000100: 1181 12be 8dfb bcbd f132 2abe a2ca 053e
00000110: 42be 1c3e 66e4 acbd 0d31 98bd 8d2b c63d
00000120: ace2 93bb 1dd9 1abd bba1 d6bc c19f 29be
00000130: dacb f5bd 6844 f13d 2b50 f4bd 1ae3 cc3d
00000140: eab2 92bd fb26 f8bd f9e7 abbd 6e30 e03d
00000150: 87d3 2bbe bd85 923d 6341 4a3d 0d23 733d
00000160: 174e 1dbe 0da5 05be a66f 08bd 0599 81bd
00000170: f2f2 72bd 8e3b 6f3d 9ed1 ac3d 2f4f 0e3e
00000180: 9f09 b5bd 7569 c6bd f7a8 273e 7db8 8fbc
00000190: 3684 4dbd 3146 cc3d bbb8 05be e70a 923d
000001a0: 00d5 94bd ea8b 79bb 5574 95bd c94f 0abe
000001b0: d302 babc ba2b 143d 8243 aabd a35e cb3c
000001c0: 061d 1bbe 35d8 f2bd 5732 953d 5bdd 0b3e
000001d0: a57d bd3d 175a eebd 82a1 f23d 0c0f eabd
000001e0: e726 a83d b93e fa3c d69d 2dbd 7b57 1abe
000001f0: daf8 1bbe e65e 31be e464 dcbc 28c3 103e
00000200: 05ca 833d d780 123e 6d29 1dbe 1cce f23d
00000210: b76b 08bd 9413 b13d b072 06be 9077 f9bd
00000220: 922d 113e 810a ee3d 5b07 ecbd 59ff 0dbe
00000230: 909d 4cbd f6e8 313e 1338 153e 868a 9abd
00000240: 1341 c63c 7a75 c63d c872 0dbe 1c45 15bd
00000250: 1d72 0a3e b350 9e3d 12e8 963d fc89 1e3e
00000260: af43 9e3d a571 34be 37c1 d3bd 6ba5 89bd
00000270: 5abf 18be 7849 e83d e742 bf3b 8ff3 1c3e
00000280: 2658 97bc 5fb6 493d 9f9b 2ebd 8c0a 243e
00000290: d8bd f93d 5031 2ebd 5bc4 bd3a df35 0bbd
000002a0: b10e b1bd d6eb 30be 80e2 b63d a738 e83d
000002b0: 4be8 fdbd 2efd f83d 254e 08be 90ec 18be
000002c0: d15a 143d 8972 c93c e065 77bd ec47 cbbc
000002d0: c61c e73c bbf7 cebd 6c96 0f3e 6589 dabd
000002e0: 0559 26bd 3a63 31be 2f61 5bbd de52 a83c
000002f0: d626 8bbd 64ed 13be eec9 62bd 1a59 d1bd
00000300: bad1 2d3e c9aa 323e ad26 96bb b42a 91bd
00000310: 0882 d03d 5731 03bd b352 103e 5981 d83d
00000320: df90 073e e380 273e d5be 39bd 4af5 23be
00000330: c2d2 36bd 90e5 2cbe eb6a b53d ab02 21bd
00000340: 97e6 e23d ee15 05be 4a44 6e3d a055 463d
00000350: 72c5 1e3e 2238 00be ca2e 2f3d ea29 c2bd
00000360: 0670 2abd 220b 0d3e 8d5e 8bbd 878d be3d
00000370: 0b84 263d 48d2 383b 6481 173e 9ada d33c
00000380: 08f4 fabd eba7 253e ac47 fa3d c321 8bbd
00000390: 0769 f63d 0efc f5bc 5702 573d 2d9b 5d3c
000003a0: 8fe1 16be 0df0 2d3e c476 073e b603 21be
000003b0: f839 30be fd1d 2f3e f0af 953d 41d7 debc
000003c0: a772 7abd 5b8e 0f3e 0cfb e93d db63 33be
000003d0: f58a 8bbd 258a b4bd d43a 25be 28cf d3bc
000003e0: 6107 893d 4b3d 2dbd ff8c fbbd 548c 0dbd
000003f0: 54e9 23bd 6f44 d7bd cdb6 323d cfd3 16be
0.030232629 0.10379192 0.17342012 0.07922012 -0.10961961 0.061065007 0.010002417 0.15547709
0.107493974 0.0011305049 0.017896669 0.07806917 0.17623274 0.10297164 0.033706985 0.10175684
0.10880392 0.12668465 -0.013394816 0.0664832 -0.015347375 0.13620149 -0.076757565 0.02456666
-0.07509237 -0.02193518 0.07040085 0.013319521 -0.17575389 0.026744766 -0.076855645 0.0070679844
0.058127943 -0.012195127 0.08681954 -0.16241351 0.023350703 0.14187452 0.008047519 0.14766854
-0.06662826 0.053821776 -0.14418435 -0.024398578 -0.10846013 0.079807945 0.07587042 -0.030655468
-0.10175444 -0.088887915 0.10172576 -0.05657704 -0.17421794 0.12610507 0.021366155 0.115835406
0.07325609 -0.022957388 -0.1495927 -0.010003976 -0.010878713 0.049323298 -0.1695017 -0.01449761
-0.14307047 -0.09227667 -0.16620995 0.1306558 0.15306953 -0.08442001 -0.07431231 0.096762754
-0.0045131054 -0.03780471 -0.026200166 -0.16564848 -0.12001772 0.117806256 -0.11929353 0.10004254
-0.071630314 -0.1211681 -0.08393855 0.10946737 -0.1677991 0.07154415 0.049378764 0.0593596
-0.1536182 -0.13051243 -0.0333096 -0.06328014 -0.059313722 0.058406405 0.08438419 0.13897394
-0.08839726 -0.09688083 0.16373049 -0.017544026 -0.050174914 0.099743254 -0.1305875 0.07130986
-0.07267189 -0.003807778 -0.07297579 -0.13506998 -0.022706425 0.036174513 -0.08313657 0.0248254
-0.1514779 -0.118576445 0.07284992 0.13658659 0.092524804 -0.11638277 0.118472114 -0.11428651
0.08210545 0.030547487 -0.042386852 -0.15072434 -0.15231648 -0.17321357 -0.026903577 0.14136946
0.064350165 0.14306961 -0.15347834 0.118557185 -0.03330585 0.08646312 -0.13129687 -0.12181008
0.1417754 0.11623097 -0.115248404 -0.13866939 -0.04995495 0.17374024 0.14572172 -0.075459525
0.024200952 0.096903756 -0.13813317 -0.03644286 0.13520093 0.07730236 0.07368483 0.15482324
0.07727753 -0.17621477 -0.10339587 -0.06721004 -0.14916745 0.11342138 0.005836833 0.15327285
-0.01847465 0.04924619 -0.04262888 0.16019648 0.12194413 -0.042527497 0.0014478074 -0.033986922
-0.0864538 -0.17277464 0.0892992 0.113389306 -0.12397822 0.12157665 -0.1331106 -0.14933991
0.03621942 0.024590747 -0.06039989 -0.024814568 0.028211962 -0.101058446 0.14022225 -0.10670737
-0.04061224 -0.17323008 -0.05355948 0.020547327 -0.06794517 -0.14446026 -0.055368356 -0.10222073
0.16974536 0.17447962 -0.004582247 -0.07088223 0.101810515 -0.032029476 0.14094047 0.10571546
0.13238858 0.1635776 -0.045348007 -0.16011539 -0.044634588 -0.16884446 0.088582836 -0.039309185
0.11079138 -0.12996647 0.058170594 0.048421502 0.15505007 -0.12521413 0.04276923 -0.09480651
-0.04161074 0.13773778 -0.068051435 0.09304338 0.04065327 0.002820151 0.14795452 0.025861073
-0.122535765 0.16177337 0.122207016 -0.06793549 0.12031751 -0.030027416 0.052492466 0.013525766
-0.14734481 0.16986103 0.13228899 -0.15724072 -0.17209613 0.17101283 0.07308948 -0.02720225
-0.061144497 0.14019148 0.114248365 -0.1751856 -0.06813613 -0.088154115 -0.16135722 -0.025855616
0.066908605 -0.04229478 -0.12282752 -0.034557655 -0.04001744 -0.105110995 0.043631364 -0.14729236

rnn.bias_ih_l0 f4 [32]
00000000: d12e 333e 7030 a83b 8e6d d73c e03b 80bc
00000010: 39a5 97bc 088f 96bd b893 63bd b5dc c3bd
00000020: 0f0e dabc 6c49 c7bd a271 cc3d 6ba4 8cbd
00000030: 2c5e b2bc 0023 2bbe 7066 11be 0f15 0fbd
00000040: 0074 aa3d 6191 2cbc 4e11 d6bb 9864 f93d
00000050: 71d2 a63d cda1 ab3d 42f5 993d f89c d03d
00000060: 0b0e 22bd 26a1 8c3d b9b0 fcbd 25c8 95bd
00000070: 9e0a 1fbe 9090 80bd a4df 29be 1b4e 323d
0.17498328 0.0051327273 0.026297357 -0.01565355 -0.018511401 -0.073515 -0.055560797 -0.09563581
-0.026618032 -0.09730801 0.09982611 -0.06867298 -0.02177342 -0.1671257 -0.14199233 -0.034932192
0.083229065 -0.010532708 -0.0065328246 0.1217739 0.08145607 0.083804704 0.07517482 0.101861894
-0.039564174 0.06866674 -0.12338395 -0.07313565 -0.15531394 -0.06277573 -0.16589218 0.04353152

rnn.bias_hh_l0 f4 [32]
00000000: 8066 aebd 12fd aebc 9e2e 1c3e 4e73 0f3d
00000010: 7d11 1ebd c1de 9bbd b5af bdbd 9862 e4bc
00000020: e1e5 2dbe c16b 0cbe 6811 253e b663 013b
00000030: 8fe6 203c 20a6 21be 63af 083e 4d17 6ebd
00000040: 10b0 433d 109f 96bc b9ba e7ba ed8c e1ba
00000050: be5c 24bd fd5a 08bd 5cad e83d 15f8 21be
00000060: 9244 34be c792 d53c d869 033d 6cb4 073c
00000070: 6a83 1f3b 2eb0 4ebc 2bcb ffbd 3f2a 2abe
-0.08515644 -0.021360908 0.15252158 0.035022072 -0.038590897 -0.07610846 -0.09262029 -0.027879044
-0.16982223 -0.1371298 0.16119921 0.001974327 0.009820594 -0.15786028 0.13348155 -0.05812769
0.04777533 -0.018386394 -0.0017679549 -0.0017208137 -0.04012751 -0.0332899 0.11361191 -0.15817292
-0.17604282 0.026070965 0.032083362 0.008282762 0.0024339803 -0.012615247 -0.12489923 -0.16617678

rnn.weight_ih_l0_reverse f4 [32, 128]
00000000: a6fb 513d c45d bc3d 751c bcbd b107 d6bd
00000010: dad5 053e 6644 963d 3d7d c1bd 742d a63d
00000020: 18a7 15be 6fa6 833d f62b b73c 33e8 ef3c
00000030: 85a8 853d 02ab 233e 601d 123e 098f bbbd
00000040: 1c18 0e3e c75f 8bbd 0f82 f53d f507 1b3c
00000050: 7ea9 a3bc 8a04 353e 0b42 a73d 8fed 693d
00000060: 09cc 803c c453 d5bd bd2e c33d 1c64 07be
00000070: 0de6 073e e765 15bd e5e2 e93d 709c e9bc
00000080: 59a5 8cbd 8828 8ebc d03b fdbd ad31 d8bd
00000090: d717 09be 0467 323e 6bcc fd3c 0e56 2fbd
000000a0: 8250 08be 0f49 88bd 6061 883d 7c19 debd
000000b0: efd8 0bbe 27f9 09be 1b9e b73d 55b3 aebd
000000c0: 4ec7 1e3d 18c1 f23d 3fdf 633d 2b04 1fbe
000000d0: 1b39 81bd 3b3e cd3c eabe 14be 49ac 9dbd
000000e0: 2eea f53d f44d 123e 119a 28be db97 6f3c
000000f0: 69c0 e53d dcd0 83bc 46c8 143e 36e8 973d
00000100: 93f8 213e 4e65 f2bc b1fa 313e fdf6 6e3b
00000110: b26a 273e 8049 06bd edcf 88bd 6425 25be
00000120: 981d 9fbb b20e 123e 1849 28be c8be 2a3e
00000130: 97a6 353d 41f4 31be cb4b 103e dccb 80bc
00000140: 4ba6 283e 5ffd f73c 7756 20be 1694 d4bd
00000150: 8c4c 28be 1f1e 04be c024 783d 6707 273e
00000160: f497 a8bd d90d 343e a693 e4bc 03a3 003e
00000170: 684b e5bb 14bc 233e c21a 683d 7e62 1c3e
00000180: 25ae 92bd 4881 c33c 2dd6 a23d b4d0 d33c
00000190: 055e 04be f377 833d ba11 b8bc 1dd2 71bd
000001a0: be7b cabc 48ad 2fbe 1616 333d c70e 32bd
000001b0: ee92 e4bd 4a8b 95bc 9b59 67bd 05ff 14be
000001c0: d858 1cbe 3f16 25be 92cf c13d 5135 abbd
000001d0: 6f70 73bd 78f1 c53d 2a63 a13d 007d 133e
000001e0: 59d7 95bd c3d3 e23d b2f5 01be 3e49 cebd
000001f0: e34c 0f3e d11f e4bc 5cb2 193e 7a8c 0a3b
00000200: 3fc0 28bd 7d0c 05be 2a45 1fbe a23a 0e3e
00000210: f2e5 14be 8f9c e13d 4229 a63d 2d03 323c
00000220: d907 eb3d 7b35 a5bd 0ab8 04bc f6e0 fa3d
00000230: 85c0 6ebd 30c8 0abe 1a86 9bbd 8aa8 d63c
00000240: 5422 e5bd 7ec9 ddbd de3f 28be cd4a e3bc
00000250: 03d3 abbd e221 6a3d 2df6 80bd 735d 2abe
00000260: ef59 ff3d d160 053e 7c24 30be 6776 77bb
00000270: ebb7 e73d 971a bc3c 4d8a 8abd eacf 9dbd
00000280: 437f 343e ba8f 8ebc e6a8 8dbd 1d73 4c3d
00000290: cbd8 0d3e 327f 313e dc68 813d face cb3c
000002a0: 738d 273e 7617 1dbe a708 283e f512 79bd
000002b0: c230 933d f966 80bd 1c5a 64bc c8f8 29be
000002c0: 1ce9 d1bc e6bb e2bd eadc 85bd 890e 01be
000002d0: d631 a93d cfa9 2d3e bb35 d4bd 4394 e53d
000002e0: 9ab6 653d 4594 1d3e 020e a0bd 9707 59bd
000002f0: c49c a93d baea 09be 1688 e1bd 3282 743d
00000300: bd26 a4bd 1acb 4d3d d3cf 4e3d 82fc 34be
00000310: a059 5bbd 087d b83c 9d43 a3bd 2573 2dbe
00000320: 9768 a5bd efca 343e 1e30 93bd 4736 b63d
00000330: 8396 1ebd b72d cbbb efa3 f93d dfa3 06be
00000340: 39db 20bd 0eb1 1abe 2ce9 b0bd 0d20 d73d
00000350: 980a 18be b47b c13d 28e0 9bbb 29e0 013c
00000360: 7f61 0e3d e70a 513c e016 243e de56 1fbe
00000370: 3dcd fcbc c567 023e 0e14 bf3d e600 1c3e
00000380: f914 efbd cc67 d5bd 7840 54bd c48d 2b3e
00000390: c073 0ebe 2e06 2ebd 99c5 77bb e649 12bd
000003a0: bade a6bd 5978 293e 68f9 03bd 8626 59bd
000003b0: faad a53d 350d f1ba 73bb a43c 2728 06bd
000003c0: 51c8 c93c cbd2 5dbd 2a77 1fbe aa46 2f3e
000003d0: 871d f73d f7fe 2d3e 4573 01be 02de afbd
000003e0: 1ae8 a33d 4635 533c 0c19 443b 4c72 c43d
000003f0: d28e fd3d f0cc c03b 3046 e235 5e16 a3bd
0.05126538 0.09197572 -0.09185115 -0.10450686 0.13069859 0.07337265 -0.094477154 0.08114138
-0.14614522 0.06428229 0.02235983 0.029285526 0.06526283 0.15983203 0.14269018 -0.09158141
0.13876384 -0.068053775 0.11987697 0.009462346 -0.019978281 0.17677513 0.081668936 0.05711132
0.015722292 -0.10416368 0.09530399 -0.13221782 0.13271351 -0.036474135 0.1142023 -0.028516978
-0.06867475 -0.017353311 -0.12364924 -0.1055635 -0.13388 0.1742211 0.030981263 -0.042806678
-0.13311961 -0.0665456 0.06659198 -0.108447045 -0.13656972 -0.1347395 0.08965703 -0.085302986
0.03876429 0.11853236 0.055632826 -0.15528934 -0.0630972 0.025054088 -0.14525953 -0.076988764
0.12007557 0.1428755 -0.16465022 0.0146236075 0.1121834 -0.016090803 0.14529523 0.074173376
0.1581748 -0.029589321 0.17380787 0.0036463134 0.16349295 -0.03278494 -0.06680284 -0.16127545
-0.004855823 0.14263418 -0.16434133 0.1667434 0.044348326 -0.17378332 0.14091413 -0.015722208
0.16469686 0.030272184 -0.15657984 -0.10379808 -0.1643545 -0.12902115 0.060581923 0.16311418
-0.08232108 0.17583407 -0.027902436 0.12562184 -0.0069975145 0.15989715 0.056666143 0.15271947
-0.07162122 0.023865357 0.07951007 0.025856353 -0.1292649 0.06419363 -0.02246939 -0.05903827
-0.024717208 -0.17155945 0.043722235 -0.043471124 -0.11160837 -0.018254895 -0.05648194 -0.14550407
-0.15268266 -0.16121767 0.09463419 -0.08359779 -0.059433397 0.09665197 0.07880242 0.14403152
-0.07316465 0.110755466 -0.12691382 -0.100725636 0.13994174 -0.027847202 0.15009445 0.002114086
-0.041198965 -0.12993045 -0.15553728 0.13889554 -0.14540842 0.11016189 0.08113338 0.010865015
0.11476106 -0.08066841 -0.008100519 0.12249939 -0.05828907 -0.13552928 -0.07593937 0.026203413
-0.11188188 -0.10829447 -0.16430613 -0.027745629 -0.08389857 0.05716122 -0.06296954 -0.1663721
0.12468325 0.13025214 -0.17201418 -0.0037759782 0.113143764 0.022961898 -0.0676466 -0.07705672
0.17626671 -0.017402519 -0.069169804 0.049914468 0.13852231 0.17333677 0.063188285 0.024878968
0.16362552 -0.15340981 0.1640955 -0.060809094 0.07187034 -0.062696405 -0.013937499 -0.16598809
-0.02562385 -0.11070995 -0.06536277 -0.12603201 0.082614586 0.16959308 -0.10361811 0.11209919
0.056082346 0.15388592 -0.07815172 -0.052985754 0.08281854 -0.13468447 -0.110122845 0.059694476
-0.08015201 0.05024252 0.050491165 -0.17674449 -0.05355227 0.022520557 -0.079718806 -0.16938455
-0.080765896 0.17655538 -0.07186912 0.08897071 -0.038717758 -0.006200518 0.12189471 -0.1314845
-0.039271567 -0.15106604 -0.08638224 0.1050416 -0.14847791 0.094474226 -0.004756946 0.007926979
0.03476095 0.012758947 0.16024351 -0.15560481 -0.030859584 0.12734897 0.09329997 0.15234718
-0.11673922 -0.10420188 -0.051819295 0.16753298 -0.13911343 -0.042486362 -0.0037806986 -0.035715006
-0.081479505 0.16549815 -0.032220274 -0.053015254 0.08089824 -0.0018390777 0.020108914 -0.032753136
0.024631651 -0.054156106 -0.15572801 0.171168 0.12066179 0.16991793 -0.12641628 -0.085872665
0.08003254 0.012891119 0.0029922156 0.09592113 0.123807564 0.0058838055 1.6858739e-06 -0.079632506

rnn.weight_hh_l0_reverse f4 [32, 32]
00000000: ed22 433d 79bb 8bbc ea5b ae3d db75 913d
00000010: 214d 853d 5fd6 27be 585b 6dbd f6ab 35bd
00000020: 91b9 213d e5b0 f73d 16c0 bebc a814 94bd
00000030: efa2 0cbe 33c0 ddbd 7f1b eabc 6d29 cb3c
00000040: 9cad 693d 316d 093e f768 223e f0bc a3bc
00000050: b519 e6bc efbc 173d ba33 6cbd e04d 6f3c
00000060: fa84 813d 86be 183e 54f2 613d 651b 303e
00000070: 0163 1ebd b00e efbd 68f8 91bd 1836 e53d
00000080: 7ce3 d13d c02a 04be e5c4 6ebd 3993 b73d
00000090: 9367 23bd a330 e73d 69b3 9fbc 5d40 713d
000000a0: 013d dcbd 7927 38bd 3ee0 2b3e bb1e 1d3e
000000b0: 4aeb 5fbd 289b cabd 2896 fb3c 39f6 79bd
000000c0: b344 9a3d 394f babd 4809 5f3d bb39 b0bd
000000d0: 1982 f8bd 375a b63c 0df9 21be 1d8d 78bd
000000e0: 251a cb3d cc6a 263e 0fba 193e 6e90 fe3d
000000f0: 7199 f4bd 10a2 173d 92f6 003d 8b94 98bd
00000100: 3f1a 23be 32ab 333e 1c80 0f3e 164b d23c
00000110: 8240 2b3e 81ee f43d a701 0ebe bad5 c53c
00000120: 98c3 cabd b16d ebbd 242c 003c 8e39 083d
00000130: aeaf a73d 0eb3 c5bd 50d1 09be 7e1b 843d
00000140: d1fb c63d 5228 4b3d 4d66 3bbd d4a9 7e3c
00000150: 018f 80bc bc4d 2dbe 42e1 933b 273b c63c
00000160: 27c6 00be 2be9 f6bd a0c6 0c3e d788 05be
00000170: 85ec 82bd f3b9 b93c 34d4 d8bd f4b6 d2bd
00000180: 8d73 9b3d 8bde 2cbc cb48 1f3e 00fc cd3d
00000190: 5aad 09be fca7 1c3e 633f 19bd adce 073e
000001a0: 4480 b2bd 9767 1c3d 26dc 003e 1174 65bc
000001b0: eefd 2c3e 3b07 a5bd b70a e8bc 2ec9 13be
000001c0: 1e23 e0bd c7a8 ce3d 81d2 bebd 7b9f 90bd
000001d0: a98c 26bd 4b25 863d 319c ff3d 4db1 0e3e
000001e0: 7036 d03d 726c 2a3e 15c5 b3bd f8f3 abbd
000001f0: 4766 72ba b082 e03d a788 d83d 28e9 343e
00000200: 3b12 0f3d 2f98 013e a5c9 1bbe 4a80 e9bc
00000210: d619 0d3e 3f3a 20be b08c 183d f7ec 15be
00000220: b293 0dbe a9a2 d23d af2c fa3d ba83 1d3e
00000230: b6e7 153e ccd9 ea3c 0f51 0c3e 2eba ddbd
00000240: c5df 19bd a25b d5bd f090 1dbe 58ef 76ba
00000250: 4fe5 1b3e 5008 88bd 8323 563c 226c 113d
00000260: 61bd abbc 4ec8 c73d 4b59 313c 72ad 233e
00000270: 1d01 083e 44be 5dbc 4b82 2c3e 3372 e5bd
00000280: 61c8 3dbd b794 823d 399d 823d 1db4 f43d
00000290: 5ed0 27be 838f 2ebe 03f2 8c3d f9a2 a73c
000002a0: 151d 293e 5401 b0bd b410 07bd 0afc 4e3d
000002b0: 8c9e 013e 43aa 8cbd e735 013d 02f2 20bd
000002c0: 520a 633d 4e97 9fbc bc67 1fbe 58e4 2b3e
000002d0: 0d87 a1bd f9e7 07be 5817 2bbc ab69 0d3e
000002e0: e93c 87bd 02c6 153e 1108 f63d 739a 86bd
000002f0: 4c66 33bd f6f3 2bbc 3984 083c 71b3 61bd
00000300: 5347 33be fe9e dc3d 25f2 f13d 0f6c c1bd
00000310: 1646 08be 94a6 44bd f32f 573c 6050 fb3c
00000320: ccdb 2d3e 7995 553d d649 08be 750d 9c3d
00000330: 003b 4a3c e7e3 a1bd fe94 febd e8c0 2e3e
00000340: 34f8 eebd d500 7ebd 6148 273e 2d92 083e
00000350: a185 023e 0404 b4bd 84d2 fbbd 0729 1f3e
00000360: 1852 6f3d 989f 053e 5dae fdbd 16f6 aebc
00000370: c73b 2ebe 8264 113e 7aca 953d 86c6 0a3e
00000380: 1476 313e b319 0fbe 0dc3 333e 8bf6 debb
00000390: 5981 f6bd ec0f 0ebe a0b6 da3d 4158 a0bd
000003a0: b57d 07bb 23ec cd3d c2d1 f23d a76a 0abe
000003b0: 4627 133e 80db 033e e559 0bbe 7a39 f6bd
000003c0: f428 c0bd f96e 91bd 9297 163d a381 053e
000003d0: 87bf 2cbe 06fc 51bd 35cc 903d 1b1c 21be
000003e0: 0f84 2abe 2596 943c 07f7 8ebd 98fc a8bd
000003f0: 3b58 90bd 51e5 9fbd 0fb4 f43d 1ed9 31be
0.04764073 -0.017057167 0.08513625 0.07102557 0.06508852 -0.1639037 -0.05794844 -0.044353448
0.03948361 0.12094287 -0.023284953 -0.07230502 -0.13734029 -0.10827675 -0.028577564 0.024800027
0.057050332 0.1342056 0.15860353 -0.019987553 -0.02808843 0.037045415 -0.057666518 0.014605969
0.063241914 0.14916429 0.055162743 0.1719795 -0.038668636 -0.11672723 -0.07127458 0.11191958
0.10248467 -0.12906933 -0.058293242 0.08963627 -0.039893698 0.112885736 -0.01949473 0.058899272
-0.10753823 -0.04495952 0.1678476 0.15343754 -0.05466775 -0.09892875 0.030711249 -0.06102583
0.075326346 -0.09097142 0.05445221 -0.08604761 -0.12134189 0.022259815 -0.15817662 -0.06068145
0.09917096 0.16251677 0.15012382 0.124298915 -0.11943329 0.03701979 0.031485148 -0.07450207
-0.15927981 0.17545775 0.14013714 0.02567057 0.16723827 0.119595535 -0.13867818 0.024149764
-0.09900588 -0.11495531 0.007823024 0.033258013 0.08187805 -0.096532926 -0.13458753 0.06450556
0.09715999 0.049599 -0.04575186 0.01554342 -0.01569319 -0.16924185 0.004512937 0.024198128
-0.12575589 -0.12056192 0.13747644 -0.13040482 -0.06392769 0.022671675 -0.105873495 -0.10288802
0.07590399 -0.010551105 0.15555112 0.10057831 -0.13445035 0.15298456 -0.037413966 0.13262434
-0.08715871 0.03818473 0.1258398 -0.014004723 0.16893741 -0.0805802 -0.028325422 -0.14432213
-0.10944198 0.100907855 -0.09317494 -0.070616685 -0.040661488 0.06550082 0.12480963 0.13934822
0.10166633 0.16642931 -0.08777825 -0.08396143 -0.0009246808 0.10962427 0.10572939 0.17667067
0.034929495 0.1265571 -0.1521364 -0.028503556 0.13779387 -0.15647219 0.037243545 -0.14641176
-0.13825873 0.10284931 0.12215554 0.15382281 0.14639172 0.028668307 0.13702796 -0.108265266
-0.03756692 -0.10417868 -0.1538732 -0.000941982 0.15224193 -0.066422105 0.01306999 0.035503514
-0.020964326 0.09755002 0.010824512 0.15984133 0.13281675 -0.013534132 0.16846578 -0.112034224
-0.046333674 0.06376021 0.06377644 0.119484164 -0.1638808 -0.17046933 0.068820976 0.020463454
0.16515 -0.08594003 -0.032974914 0.050533332 0.12658137 -0.06868412 0.031545546 -0.039293297
0.055429764 -0.019481327 -0.15566915 0.16786325 -0.07887087 -0.13272084 -0.010442577 0.1380984
-0.066034146 0.14626315 0.12013257 -0.065724276 -0.04379873 -0.010495177 0.008332306 -0.05510277
-0.17507677 0.10772513 0.118137635 -0.09444439 -0.13307986 -0.048010424 0.013133991 0.030677974
0.16978377 0.0521445 -0.13309416 0.07619754 0.012343168 -0.07904797 -0.12430762 0.17065775
-0.11668435 -0.062012512 0.16336204 0.13337012 0.12746288 -0.087898284 -0.12296012 0.15542994
0.0584279 0.13049161 -0.12386773 -0.021357577 -0.17014991 0.14198497 0.0731401 0.13552293
0.173302 -0.13974647 0.17554875 -0.0068042926 -0.1203639 -0.13873261 0.10679364 -0.07829333
-0.0020674292 0.10054805 0.118564144 -0.13517247 0.1437045 0.12876701 -0.13608511 -0.120226815
-0.09382811 -0.071012445 0.036765642 0.13037734 -0.16869937 -0.05126574 0.070701994 -0.15733378
-0.16651939 0.018138 -0.069807105 -0.082513034 -0.070480786 -0.078074105 0.11948406 -0.1736798

rnn.bias_ih_l0_reverse f4 [32]
00000000: 140d c43d d117 debd 9ac0 343e edf9 6ebd
00000010: 51b5 db3d 6d80 03bd 705c 0d3e 50c6 09be
00000020: 1a10 82bd a019 043d 7d7b e13d af7c 203e
00000030: 7413 103e 729f 2ebe de72 98bd 4e23 99bd
00000040: e75e 29be 4ee9 17be 0eb5 e1bd d7ee 9bbd
00000050: 93d1 a73d 507b 6e3d 7ad8 bdbd 0630 133e
00000060: c2e6 303e dec9 1dbe c4b4 483d 67ad 923d
00000070: 7c9c 0a3e 4e73 0fbd fbae 1cbe 37c6 23bc
0.09572807 -0.10844386 0.17651597 -0.058343817 0.10727943 -0.0321049 0.13804793 -0.13454556
-0.063507274 0.032251 0.11009882 0.15672563 0.14069921 -0.17053011 -0.07443784 -0.07477437
-0.16540109 -0.14835092 -0.110208616 -0.076139145 0.0819427 0.05822307 -0.09269805 0.14373788
0.17275527 -0.15409037 0.049000517 0.0716198 0.13536257 -0.035022072 -0.15301125 -0.009995989

rnn.bias_hh_l0_reverse f4 [32]
00000000: 2253 cb3d 712d 31be 2e85 f63d 7f35 24bd
00000010: 195a 283e c4cc 95bd ccb7 88bc 27bb b73b
00000020: 5742 20be 867f a4bc 3725 163e 082a 2f3e
00000030: e4a4 b03c 7ed5 003d 8bdc d0bc c8bc bc3c
00000040: 1477 46bd 0080 86bd 5d1b 04be fe3b 203d
00000050: 6551 9e3d 8c27 753d d4d1 713d c415 63bd
00000060: 9d6d 653d 97d7 143e f841 94bd 79ec 373d
00000070: 0919 9cbc a0da ea3d f21a 183e bd87 04be
0.09927966 -0.17302491 0.12037121 -0.04009008 0.1644062 -0.073144466 -0.016689204 0.005607027
-0.15650307 -0.02008034 0.14662634 0.17105877 0.021563001 0.031453602 -0.025495788 0.023039237
-0.048453405 -0.06567383 -0.12901063 0.039119713 0.077303685 0.059852168 0.059038 -0.05544068
0.05601274 0.14535366 -0.07239145 0.044903252 -0.019054906 0.11467481 0.14854029 -0.12942405

fc1.weight f4 [12, 64]
00000000: a04a 5abd 4434 ddbd d8a7 993d 1e7a 91bd
00000010: 843f b5bd 5458 bcbd e07d 96bc 5c4a 4a3d
00000020: c81e c03c b497 5abd 9686 81bd a082 0c3c
00000030: 20e3 83bc 7ab5 a2bd d66f bcbd f0a2 2fbc
00000040: f02d 38bd 0803 d0bd 5e17 a13d f8f9 ce3d
00000050: e4fb 9e3d 58e9 913d 3648 c0bd e089 163d
00000060: 58aa fa3d 205e d4bd 86a7 bdbd c47e 5a3d
00000070: 801c 643d 0eb7 8dbd 3a4a f83d 2ced f33d
00000080: 1080 aabd 6019 56bc 6824 a2bd b880 d93c
00000090: 3c65 dabd 9814 b5bd 86d0 eabd e07c b73b
000000a0: 5073 e8bd d449 4e3d 30bb 0abc ecc8 d0bd
000000b0: 923e 823d 422f ab3d 4016 4a3d 2274 f9bd
000000c0: 161c e23d b0a4 3abd 4027 9d3c 4811 bf3c
000000d0: 12a5 a8bd 8c1f 853d 0038 0f3c a230 d43d
000000e0: 0881 d0bd 9231 eebd fee4 ff3d 68bd 35bd
000000f0: 0e21 a73d 5e79 abbd 30ba b9bc 944d fa3d
00000100: bab6 e33d b86d d83d 80db 283c d082 ec3c
00000110: 00a1 443d 241c 75bd b830 b8bd bea5 a13d
00000120: 02f2 b53d 2860 fc3d d067 96bd 0cfe debd
00000130: 301a f53d bcd1 453d aca6 19bd 5047 27bc
00000140: da10 b3bd 7a0c d3bd 30af cbbc 1a83 a8bd
00000150: b09c 033c 8062 aabc 7ccd 1a3d d67f d0bd
00000160: 30e7 d93c 60d4 cb3d d09e 87bd d681 ed3d
00000170: 1242 c2bd 60af 563d 023d c73d e824 d2bc
00000180: ec81 96bd dcce 4e3d 848d 993d 404e cbbb
00000190: 84c3 84bd a263 c53d be6b cbbd 5caf b1bd
000001a0: 7aae 80bd 30df 70bd 4cc6 a1bd 88aa 04bd
000001b0: 9051 973d 4e17 dfbd 00a0 413a c040 6fbb
000001c0: c222 903d e07d 7c3d 3833 90bc f473 293d
000001d0: 383c 00bd 087f de3c 2815 cfbc 004f 293d
000001e0: a8af 2e3d 4069 33bd 3859 e93d 0664 db3d
000001f0: 1896 a53c c820 ffbc a86e c03d 4674 af3d
00000200: 5414 af3d 5072 f43d 0057 27bc b0ee 64bd
00000210: 56b4 85bd 604a 933c 2242 febd ccee e7bd
00000220: 207d bc3c ea92 90bd c0f0 813c 80fd 41bb
00000230: 7cac d2bd 20e1 dd3c 94e6 9d3d 7a47 fe3d
00000240: d4c6 25bd c4ab be3d ea12 d1bd 4c6e a33d
00000250: 8893 9abd 465b 89bd 10d4 563c 18c4 ec3c
00000260: e071 e0bc 649f 203d 8c8d 6fbd 2cb8 32bd
00000270: 0076 eebc 8e9e f43d 360e f23d 7ee2 b5bd
00000280: 486d 1dbd 2077 da3b 803e 9bba 0065 debb
00000290: 401e 133c 9a65 f23d 00cc ffbd 6efa df3d
000002a0: 24e3 61bd 5cad bbbd 9465 d23d 8621 87bd
000002b0: aaad bbbd 38f6 d2bd 3034 fd3d 7a87 e73d
000002c0: 1800 873d b49b e43d 32e2 c7bd 6885 d9bd
000002d0: e4c4 d23d 8654 96bd 4648 d43d 0ce7 60bd
000002e0: 80bd 18bd b68f cabd 1c54 bb3d 4223 a1bd
000002f0: 0068 5d3d d615 b7bd 1ea9 b23d f8e9 cdbc
00000300: 00dc f739 c8f2 013d e8be 2d3d 983c d03d
00000310: f81a cbbc cc82 3bbd c0e6 8abd 203a 833c
00000320: 40dd af3b 1a07 9d3d 1a41 ffbd a4f4 76bd
00000330: b6de d23d a097 e5bd 1c08 ac3d aaa3 943d
00000340: 601a 333c 24d5 3dbd c894 fb3c a06e c7bd
00000350: aacc adbd c0eb 83bd d030 3f3c e8f4 883d
00000360: e4f8 c2bd dcfd eebd 4014 b93b 848d a73d
00000370: c29c e93d c0e8 2f3d 7ed9 8f3d d0cf a7bd
00000380: 5896 143d 582d 393d 08e9 903c 6284 a83d
00000390: 52e1 87bd 58fa 59bd e214 ee3d dc41 f9bd
000003a0: 0c91 54bd c826 3fbd 94d2 873d 8040 db3b
000003b0: 00aa e23a 3859 babc eed5 90bd f6f9 863d
000003c0: 50b2 933d 9014 b9bc 5a45 e13d 2090 083c
000003d0: 80b1 51bd 20f3 c33b c81a fbbc d65f da3d
000003e0: ccaf 973d 383e 3f3d 9051 c3bc 4087 9e3d
000003f0: f04f ec3c c0f9 e9bc 467f dcbd 7809 b23c
-0.053293824 -0.108009845 0.07502717 -0.0710337 -0.08850005 -0.09196535 -0.018370569 0.04938732
0.023452178 -0.05336733 -0.06324498 0.008576065 -0.016099513 -0.0794477 -0.092010185 -0.01072
-0.044965684 -0.10156828 0.07865785 0.101062715 0.07762888 0.07124585 -0.09388773 0.03675258
0.12239522 -0.103695154 -0.09260468 0.05334355 0.055691242 -0.069196805 0.121235326 0.11910471
-0.08325207 -0.013067573 -0.079171 0.026550636 -0.1066384 -0.088418186 -0.11465554 0.005599603
-0.11350119 0.050363377 -0.008467481 -0.10194573 0.063595906 0.08358623 0.049337626 -0.12180354
0.11040513 -0.045567214 0.019183755 0.02332367 -0.0823461 0.06500158 0.008741379 0.103608385
-0.10180861 -0.116305485 0.12494849 -0.044370085 0.081606016 -0.08372758 -0.022671789 0.12221828
0.11118837 0.10567802 0.010306239 0.02887097 0.048005104 -0.05984129 -0.08993667 0.07892941
0.0888405 0.12323028 -0.073440194 -0.10888299 0.119678855 0.04829572 -0.037512466 -0.010209873
-0.087434486 -0.10305114 -0.02486381 -0.08228131 0.008032963 -0.020798922 0.03779362 -0.10180633
0.026599497 0.09952617 -0.06622088 0.1159703 -0.09485258 0.052413344 0.09728433 -0.025652364
-0.073489994 0.050490245 0.07497695 -0.0062043965 -0.06482604 0.09638144 -0.099326596 -0.08676025
-0.06283279 -0.0588066 -0.0789915 -0.032389194 0.07388604 -0.10893117 0.00073862076 -0.00365071
0.070378795 0.06164348 -0.017602548 0.041370347 -0.03130743 0.027160183 -0.025278643 0.041335106
0.042647988 -0.043801546 0.1139397 0.10712437 0.020213172 -0.031143561 0.09396106 0.08567099
0.08548799 0.11935866 -0.0102136135 -0.055891693 -0.06528537 0.0179798 -0.124149576 -0.11324844
0.023008883 -0.07059272 0.015861869 -0.002960056 -0.10286805 0.027084887 0.07709995 0.12415977
-0.04047282 0.093101054 -0.10208686 0.07980022 -0.075476706 -0.06706862 0.013112083 0.028902099
-0.02739805 0.039214507 -0.0584846 -0.04363267 -0.029109001 0.119443044 0.11819117 -0.088810906
-0.038434297 0.006667033 -0.0011844188 -0.0067869425 0.00897938 0.11835785 -0.12490082 0.109364375
-0.05514826 -0.09163925 0.10273281 -0.06598191 -0.09163983 -0.10300869 0.123634696 0.11305137
0.06591815 0.111625105 -0.0975994 -0.10621148 0.1029146 -0.0734034 0.103653476 -0.054907843
-0.037290096 -0.09890692 0.09146902 -0.07868053 0.05405426 -0.08939712 0.08723663 -0.025135979
0.00047275424 0.031725675 0.04241839 0.10167807 -0.024793133 -0.045779034 -0.06782293 0.016018927
0.005366951 0.0766737 -0.12463589 -0.0602919 0.10296385 -0.11210561 0.08399984 0.07257779
0.010931581 -0.046345845 0.030710593 -0.09737897 -0.08486302 -0.0644145 0.011669353 0.06687337
-0.09520128 -0.116695136 0.005648166 0.08181289 0.11406852 0.042946577 0.07023905 -0.08193934
0.03627619 0.04520926 0.017689243 0.08228375 -0.06634773 -0.053217262 0.11625077 -0.12170765
-0.05189614 -0.046667844 0.066319615 0.0066910386 0.0017293096 -0.022747621 -0.07072054 0.06590645
0.07211745 -0.022592813 0.10999556 0.008335143 -0.051194668 0.0059799105 -0.030652419 0.106628105
0.074065775 0.046690196 -0.023842603 0.07740641 0.02884671 -0.028561473 -0.10766463 0.02173303

fc1.bias f4 [12]
00000000: 4efc cdbd 7886 b33c a883 46bd 6013 883b
00000010: 6054 493c f42d f8bd 5823 6a3d 4ea6 993d
00000020: 0c20 b1bd 900f 95bd c870 b0bc e8fa c63c
-0.10057889 0.021914706 -0.0484654 0.0041527003 0.012288183 -0.1211814 0.057162613 0.07502423
-0.086486906 -0.07278359 -0.021538153 0.024289563
