src/src_learner/python3_base_model.pt (torch, 99780 bytes, 11 tensors)

word_embeddings.weight f4 [102, 128]
00000000: 8843 bfbf 5687 31bf 900d 1abf 88ac cebf
00000010: e5f9 c2bd 48e4 efbe 5baf 86bf d189 c5bf
00000020: 2e07 55bf 5d37 813e 2aab 49bf a622 a3be
00000030: f26e 17be 4538 d83f 89b8 c83e 4371 e23e
00000040: 28ca 30bf d216 91bf 7578 2d3f 7f94 1c3e
00000050: d98e 573f 860d 483e 450b 1cbf 0a8d 603f
00000060: 55d1 943f 4368 99be 38e8 0cc0 a708 c1bf
00000070: 7ed4 633c e9e1 2ebf 97a4 62bf e8e0 d3bd
00000080: 97d3 f83f ca5a 85bd 0266 8a3e 0d2a 5cbf
00000090: c792 963e c690 023d 3c73 3a3e 3731 f1be
000000a0: 8088 ccbd d48a b23e 2fb7 12be d38a a7bd
000000b0: 9dd2 1c40 ec01 80bf ce3d c03f c5b4 0cbf
000000c0: 302c 69bf 5199 223f ac4f 063d 5891 c4be
000000d0: e6d9 3b3f 47fa 003f 6eab a73f f10b 0240
000000e0: ba67 aa3d 994c 6b3f c0f4 43be f666 19bf
000000f0: 8a03 c73f 0fdd 7abf 6f4b 57c0 4ff6 3fbf
00000100: e3a2 e1bc b461 8abf bfa4 1abf 3c82 7ebf
00000110: 979e cbbd 9504 09bb a2d9 d23f 71f0 5a3d
00000120: 2a3c 49bf 35de 80be a518 7ebf 9030 4abf
00000130: d2e7 0abf 64f8 02bf aabe a23e 5db7 76bf
00000140: cd10 dabe ffb2 0c3e c178 15bf 6adb 483f
00000150: 827c aabf 37d8 03bf 97dc 463e 20b9 60be
00000160: b454 a13e 3e5a e6be ad18 85bf 2217 3b3f
00000170: 5716 94bf af87 15bf b0c8 df3e ee8b f23f
00000180: 6da0 323f df8d 973f d629 593f 58a1 6cbf
00000190: 5b96 b53f de36 47bf 5c44 82bf 7390 9a3f
000001a0: f659 ad3f b02e 0c3f 1215 0bbe 3485 5e3d
000001b0: 1ddf 01c0 6738 2cbf 55e3 cabf 36dd 8fbf
000001c0: 975f 6e3f 74d6 fcbe 63db a03f 373b 473f
000001d0: 9c7a b83e 7da9 8d3e 84cd 043f 5148 07bf
000001e0: c6ff 2140 dceb 89be c335 e33b 5340 e03f
000001f0: 0900 07c0 5980 e73f 481e c83d 0ea8 bd3e
00000200: 865d 363f 9764 e3bf bd2d b53e ed8c 993f
00000210: 7a22 9bbe 0784 e1bf 2d85 223f 7aea 4dbf
00000220: e938 cebf 0391 efbf 8707 0b3f 3c22 293f
00000230: bfe4 1240 a3c6 2c3f 1f4e db3f c0aa e5bf
00000240: 8a7f aebf 48b4 7bbf 3071 c13f a451 243f
00000250: 5028 f23e 2970 dbbe a226 0d3f 4010 c6bf
00000260: ffa2 043f 352f da3d edd9 893e ff91 a93f
00000270: 8e7d df3f a06f ed3f 9bd4 34bf 4da7 2340
00000280: 0ec7 d53e e8d2 59be 7d07 57bf 950c d7be
00000290: d8c0 1fbf 1430 7abf b3f5 5f3f 79be 7c3f
000002a0: ca80 9e3e f8a5 c23f 1b45 9a3f 4965 e8bf
000002b0: 8392 cebe 898a 75bf 63a5 aabb ff82 a1bd
000002c0: baf9 573f b335 953f 07e5 063f b143 cf3f
000002d0: 26c7 76bf b8ea 103e bd96 27be f368 b7be
000002e0: a673 dc3f 436e 9bbe 709b 743e 3b08 ac3f
000002f0: fe67 d33d 68d8 8c3f b5f0 aebe cd84 723f
00000300: 438a 11bf b46c 563f fe4e e43f 671d 48be
00000310: 8bd1 033f 257a ecbf e9ab 3ac0 883c 11bf
00000320: 5791 0abf 202a 653f fbeb 61bf c824 083f
00000330: 07dc c5bf 8275 31be 5a6e 3a3f d1b8 693d
00000340: facf 673f fdec 853f d845 05bf 8e69 ad3f
00000350: 78d6 703e ed05 f53f 850f eb3f 478a a93f
00000360: fc10 78bf 9f35 a03f e7eb 9a3f ce25 07bf
00000370: cecf 5f3e cd05 13bf 1383 ba3f adae e23f
00000380: 6030 d33f b42f ddbe 0ac4 8abe 7b36 b8bf
00000390: 059f 9f3f 8e0d a33f 802a c83e 7440 c63e
000003a0: 3d7d a3bd 7df6 ae3e 59e6 723f d024 b1bf
000003b0: dcae dc3f 5058 17c0 1ef3 6dbf 0e56 963e
000003c0: 924b 5c3e 283f 703f 4f9c bb3f 1b75 0ebf
000003d0: e3ad 3ebf 4d02 4fbe 102e 6bbe 3e80 ae3a
000003e0: 2a24 c03e dec0 14bf d582 12bf 6c3e 813f
000003f0: b55e d8bd 4700 97bf a7ea b9bd 4328 103f
-1.4942484 -0.6934713 -0.60176945 -1.6146402 -0.0952032 -0.46853852 -1.0522264 -1.5432683
-0.8321408 0.2523755 -0.787768 -0.31862372 -0.14788416 1.6892172 0.3920329 0.44227037
-0.69058466 -1.1335089 0.6776193 0.15291022 0.84202343 0.19536409 -0.60954696 0.8771521
1.1626383 -0.29962358 -2.2016735 -1.5080765 0.013905643 -0.6831346 -0.88532394 -0.10345632
1.9439572 -0.06511457 0.2703095 -0.86001664 0.29408857 0.031876348 0.18208021 -0.4710786
-0.09986973 0.34871542 -0.14327691 -0.081807755 2.4503548 -1.0000587 1.5018861 -0.5496333
-0.9108305 0.6351519 0.032790825 -0.38392138 0.7337936 0.5038189 1.3099191 2.0319788
0.083205655 0.91913754 -0.19136333 -0.5992273 1.5547955 -0.9799356 -3.363979 -0.7498521
-0.02754349 -1.0811067 -0.6040763 -0.9941747 -0.09942358 -0.0020907272 1.6472666 0.05345196
-0.7860743 -0.2516953 -0.99256355 -0.7898035 -0.5425998 -0.51160264 0.3178609 -0.9637354
-0.42590943 0.13740157 -0.5838738 0.784598 -1.3319247 -0.5150179 0.19420086 -0.2194562
0.31509936 -0.44990724 -1.0398155 0.7308217 -1.1569318 -0.5841016 0.437078 1.8948953
0.6977604 1.1840171 0.8482946 -0.9243369 1.418651 -0.77818096 -1.0177112 1.2075332
1.3543079 0.5475874 -0.13582256 0.05432625 -2.0292428 -0.67273563 -1.5850626 -1.1239383
0.9311461 -0.49382365 1.2566952 0.7782473 0.36031044 0.27668372 0.5187609 -0.5284472
2.5312362 -0.2693776 0.006933899 1.751963 -2.1093771 1.8086044 0.09771401 0.37042278
0.71236455 -1.7765073 0.35386458 1.1996132 -0.3029974 -1.7618417 0.6348446 -0.8043591
-1.6111118 -1.8716129 0.5430836 0.6606786 2.2952116 0.67490596 1.7133216 -1.7942734
-1.3632672 -0.9832196 1.5112667 0.64187074 0.4729638 -0.4285901 0.55137074 -1.5473709
0.5181121 0.10653535 0.26924077 1.324768 1.7460191 1.854969 -0.7063691 2.5570862
0.4175343 -0.2127186 -0.839958 -0.42001787 -0.6240363 -0.9772961 0.8748428 0.9872814
0.30957633 1.52069 1.2052339 -1.815591 -0.40346155 -0.9591451 -0.005207704 -0.07886314
0.8436543 1.1657013 0.5269322 1.6192533 -0.96397626 0.14152038 -0.16366096 -0.35822257
1.7222793 -0.3035756 0.2388742 1.3440012 0.10322569 1.1003542 -0.3416802 0.9473389
-0.56851596 0.8375962 1.7836607 -0.19542466 0.5149161 -1.8474776 -2.9167426 -0.5673299
-0.5412802 0.895174 -0.882507 0.53181124 -1.5457772 -0.17329982 0.72824633 0.05706102
0.9055172 1.0462948 -0.520597 1.3547838 0.23519313 1.9142433 1.8364111 1.3245324
-0.96900916 1.2516364 1.2103242 -0.5279206 0.21856615 -0.57430726 1.4571251 1.7709557
1.6499138 -0.43200457 -0.2710269 -1.4391626 1.2470404 1.2738512 0.39094925 0.3872105
-0.07982872 0.3417243 0.9488273 -1.3839359 1.7240863 -2.3647652 -0.9294909 0.2936253
0.21513203 0.9384637 1.4657077 -0.5564744 -0.7448408 -0.20215721 -0.2296679 0.0013313366
0.3752759 -0.5810679 -0.57230884 1.0097175 -0.10564939 -1.179696 -0.090779595 0.56311435

rnn.weight_ih_l0 f4 [32, 128]
00000000: ccfe 02bd 9a3d 5bbc a5a6 c7bd 6852 3abe
00000010: 024c 473d c6aa 32be 2927 2bbe 9ef7 3fbc
00000020: a71b c1bc 747d 9c3c 4049 193d 6732 803e
00000030: 7e6e 5b3c 3513 083e 5016 97bd ab4e a43d
00000040: b28e 39be 490b 033e e633 de3d 7cf7 183e
00000050: 4c93 ff3d d552 ab3c 7b06 91bd 0b65 bf3d
00000060: d9cb ac3d ed29 1b3d 6303 7a3b 269d 18be
00000070: 266c 2cbe 59fa c3bd 35dc 2e3d 0aeb 31be
00000080: d8b1 28be b7ef bf3d 8dfd c8bd 3d17 213d
00000090: 1fcf be3d d7e5 0dbe 982c cb3b ca0b cc3d
000000a0: f212 48be d94a fc3d a9e5 76be 33f3 8239
000000b0: 5668 d43d 3791 d73d 2ad5 a33c d2df 33bd
000000c0: ce69 5c3e f93c 71be 3b64 fe3d ff99 31be
000000d0: 2fe7 2e3e 7afb 85bd 087d 07be f782 213d
000000e0: 088b 613e 830f 68bd 0200 7a3b 90ef 283e
000000f0: fd0c 033e 02f0 4d3d daf2 8dbd 919a 183e
00000100: 63b0 013e d5a1 a8bc 797b 1bbe 0c29 df3d
00000110: 3eee 81be a885 e03d 7d8c 3fbe 42ce 763b
00000120: fb2e 17bc 7b57 5ebd ff05 a6bd c2cd f4bc
00000130: a3d3 b93d 4831 71bc 136b 273e 85fe 52bd
00000140: 0890 2fbe 6508 2cbb 779a 24be 0dea d3bc
00000150: 890c b03d 72c7 c1bd f569 333e 3cc5 2b3e
00000160: 5690 de3d 7c38 ed3d 8d77 d1bd 4a1d 563e
00000170: e536 563d 0580 a43c c21f 433d 32e5 0abd
00000180: 88e1 e7bc 65a1 13be 0414 163d 6326 0abe
00000190: 8ee9 333c 3a5e dabd 00ba d1bd 2667 32be
000001a0: ca8e a03b 9db4 de3d d4bd 5e3d 1490 9a3d
000001b0: 6530 483c b9f2 543e 7e58 77bd 4a3d b4bd
000001c0: 8b74 2ebe ea26 c33d d9a0 1ebe b350 1e3d
000001d0: 7bdb 18be 55e0 c43d bf3b 733d c31a 183e
000001e0: a546 b5bd 3de6 433d 428c bbbd 0291 2f3e
000001f0: 6a53 d4bd 5122 ff3d 89a5 d53d 0389 13be
00000200: 1e24 bfbd 1c5c 293b 95e8 75bd c474 293e
00000210: ed5f e03d 3981 0cbe 2c59 8a3d d3fa 04bd
00000220: c6de cfbc 9448 223e 39b1 9e3c abfa 943e
00000230: 493a a23c 45df 7dbe 090a 26be 3c50 0cbc
00000240: 1b0d 433d 9161 2e3e 5c09 ce3d 7e06 92bd
00000250: 253d 9abd 1b99 263e 249e 55bc b8c1 573d
00000260: 5a86 2cbe 551a 17be 3a3e 853c db94 26bd
00000270: 5e2a ffbd 5bcd c3bd 1bb6 7d3e 704b 4a3d
00000280: 16c9 7abd c75e d7bd db28 42be 7dcc bbbd
00000290: 2516 8cbd 4bbb 3b3e 5f5b c93c bf4f b23c
000002a0: 6667 4bbc b96f 143e 20d0 4e3e ed0c 14be
000002b0: 9b07 ffbd f1ec 973d 299b be3d b5b9 eabc
000002c0: 5f40 8bbd 9a5c cdbd 18cc 893d f4f4 0dbd
000002d0: d52d 61bd a966 a43c 685c 9bbd c93c fbbd
000002e0: 8193 a9bd 8db0 243d 0773 3d3e e7ff 6c3e
000002f0: bba5 bc3c 032c d33d 0182 903d f708 8e3d
00000300: 721c d13d a273 b3bd c337 2e3e 1bde 383d
00000310: 2c15 e53d 3080 00be 2250 ce3d b06a ee3d
00000320: b78c 8ebd 24a5 5bbe 22b1 2e3d 7f07 1c3e
00000330: 4a84 22bc 2b90 1b3e 734e d93a b3ff 363e
00000340: d3a7 023e 3440 993c e996 debd 1bf1 c8bd
00000350: 6aba 9f3d 9d55 d7bd 614b 01bd 5150 2ebd
00000360: 117f 0cbe f12c 303e 366d 503e 6379 333e
00000370: d09d 5c3e 798b 113e c22c fb3d 3336 43bd
00000380: edb4 7b3e f277 82bb d169 cc3d 0200 8c3d
00000390: 7de0 ae3b 19e4 edbd 95b9 423e 8d95 18be
000003a0: 7cba acbd 5e33 163e 6d3c 4fbc 9e0f 65bd
000003b0: acfd fbbd 8ae6 c43d b9a6 8c3d ff6f 95bd
000003c0: 4fbb 6d3d cb16 8a3d aada 37bd e90a 443d
000003d0: 4ba3 a73c 42bf 2f3e 6428 9cbc a4cf 183e
000003e0: 822d 713d ba6e b8bd 3144 a13d 7197 0e3e
000003f0: b645 43be aba1 853e e21b 9abd 8148 26be
-0.031981274 -0.013381386 -0.09748582 -0.18195498 0.04865647 -0.17447957 -0.16714157 -0.011716751
-0.023572756 0.01910279 0.037423372 0.25038454 0.013393043 0.13288577 -0.07377303 0.08022817
-0.1812084 0.12797274 0.108497426 0.14938158 0.124792665 0.02091352 -0.07081314 0.09345444
0.08437318 0.03788178 0.0038148991 -0.14903697 -0.1683813 -0.095692344 0.042690475 -0.17374817
-0.16474092 0.09371894 -0.09813986 0.039328802 0.09316849 -0.13857208 0.0062003843 0.09963186
-0.19538477 0.123189636 -0.24111046 0.0002497673 0.10371463 0.105257444 0.019999105 -0.043914624
0.21524736 -0.23558415 0.12421461 -0.17343901 0.17080377 -0.06542106 -0.1323129 0.03943154
0.22025692 -0.056655418 0.0038146977 0.16497636 0.12797923 0.050277717 -0.06931086 0.14902712
0.12664942 -0.02058498 -0.1518382 0.10896501 -0.25377077 0.10962993 -0.18705936 0.003765956
-0.00922751 -0.054282647 -0.081066124 -0.02988327 0.090735696 -0.014721222 0.1634944 -0.05151226
-0.17144787 -0.002625012 -0.16074549 -0.02586844 0.08596141 -0.09461869 0.17520888 0.16774458
0.10867374 0.11583039 -0.102278806 0.2090961 0.052298445 0.020080576 0.04763771 -0.033909984
-0.028305784 -0.14417036 0.036640182 -0.13491206 0.010980977 -0.106625035 -0.10240555 -0.1742216
0.0048998343 0.10874293 0.054380253 0.07547012 0.012218569 0.20795716 -0.060387127 -0.088007525
-0.17036645 0.09528907 -0.15491046 0.03865118 -0.14927475 0.096131004 0.05938315 0.14853959
-0.08851365 0.047826994 -0.091576114 0.1714516 -0.103674725 0.12457717 0.10431964 -0.14407735
-0.09333061 0.0025842255 -0.06003626 0.16548449 0.109557964 -0.1372117 0.067552894 -0.032465767
-0.025374781 0.15847999 0.019371616 0.29097494 0.019803183 -0.24792202 -0.16214766 -0.008564051
0.04761992 0.17029406 0.10060379 -0.071301445 -0.07531194 0.16269343 -0.013038192 0.05267498
-0.16848126 -0.14756139 0.016265023 -0.040669303 -0.12459253 -0.09560653 0.24776499 0.04938835
-0.061226927 -0.10516124 -0.18960898 -0.091698624 -0.06840161 0.18333165 0.024579702 0.021766542
-0.012414789 0.14495744 0.20196581 -0.14458056 -0.124526225 0.0741824 0.09306938 -0.028653005
-0.06799387 -0.10027428 0.06728381 -0.034657434 -0.05497535 0.020068483 -0.075859845 -0.12267453
-0.08280087 0.040207434 0.1850091 0.23144494 0.023028245 0.10311129 0.07056046 0.06935304
0.10210504 -0.087622896 0.17013459 0.04513369 0.11185679 -0.125489 0.10073878 0.11641443
-0.06960433 -0.21449715 0.042649396 0.15237235 -0.0099192355 0.15191714 0.0016579166 0.17870979
0.12759332 0.018707372 -0.108686276 -0.09811612 0.077992275 -0.10514376 -0.031566028 -0.042557064
-0.13720347 0.17204644 0.2035416 0.17526774 0.21544576 0.14213361 0.12264396 -0.04765911
0.24580736 -0.0039815838 0.099811204 0.06835939 0.0053368197 -0.11615772 0.19016106 -0.14900799
-0.084340066 0.14668033 -0.012648684 -0.055923097 -0.123042434 0.09614284 0.06867737 -0.07296752
0.05803996 0.06742629 -0.04488627 0.047861967 0.020463606 0.17162803 -0.019062229 0.14922959
0.05888129 -0.090054944 0.078743346 0.13924958 -0.19069561 0.26099905 -0.075248495 -0.16238596

rnn.weight_hh_l0 f4 [32, 32]
00000000: a582 6abe ece9 6b3e f18c a93e 5c9e b73d
00000010: 13c0 823d e63b a0bd 9716 8ebe 2e1e 7b3e
00000020: 875b ed3d 9eb0 6f3e c09d 59be 9675 523e
00000030: 77ef ad3d 8254 c13d 6930 27be d584 773e
00000040: 47a2 ba3e 1bd7 31bc 91e0 4b3c 4058 2d3d
00000050: 3a17 633e 5fc1 1d3e 496e 8ebd 60fe 863d
00000060: 793a 243e 7871 a33d 05f1 d83e 6b53 c8be
00000070: d66a cfbe c8ab 9a3e 5529 2bbe 1945 2ebb
00000080: b405 8c3e e0bb e83b b2a3 f53c 8eef 163e
00000090: 86b3 6abc 8d22 f23d 4766 0b3c 97b9 e13e
000000a0: dfc5 64be 7cac 13ba 69fc b43d f385 503b
000000b0: 63ca 90bd aa20 0c3e 3152 ef3d 5692 653e
000000c0: af24 88be d349 08be d764 453e 39f6 98be
000000d0: 0744 5fbe 8664 353e d2a2 ab3d c507 0d3e
000000e0: 48c1 2c3d 48d4 21bc 8490 93be 79c2 953e
000000f0: 8ab1 be3d e4bb 4e3d 23e2 10be 33b2 1c3d
00000100: 532f 00bd d35b 46bd 5af2 c0bd 1657 923d
00000110: 664e 163e abd0 4f3c 192a f53d 81f3 86bd
00000120: 1fbb ac3c 76b5 ddbe 60a6 53bd d2e9 03bf
00000130: c90f 2d3d 163c 9a3a 7d7c eebd 0759 05be
00000140: 66b0 a0be 580b 67be 4f79 88be 687a 893e
00000150: 2ce0 09bf f312 103d f609 203d 093d 823d
00000160: ce9e 6fbe b34e 12be 97c2 a5be 3574 d4bc
00000170: 1b64 aabe d272 4ebe a122 5d3e e6d8 3e3d
00000180: d352 16be 846b 14bd e009 8a3e ee3b a23e
00000190: bf2b d4bd b0b5 5b3e af6b 67bd 00e0 d23e
000001a0: ff3f b0be 9477 fabc 72e7 053e 6ba1 0dbd
000001b0: 826b debd 8836 203e 2d12 ffbc 1790 e43e
000001c0: 7f8e 0bbf 39c2 72bd ede2 e53d 6c58 e1bd
000001d0: d341 d93d cb29 8bbe 98cf 1d3e 5194 59be
000001e0: 00a3 7b3d 00fb 8f3d bb0d 72be 07de 453b
000001f0: 25b9 acbd 99c2 39be 38c2 a9bd 4d6c b03d
00000200: 8dd5 143d 5155 373d 611f 6bbe 2834 313e
00000210: e659 093d e627 013e ece3 31be 07eb 67bd
00000220: f7a8 383d 4fdb 69bc b977 e3bd 6b8d 92bc
00000230: 9f23 80bd 130b 923d 2f15 263e 2d99 e0bd
00000240: 8b56 c5bc 2575 df3d f49a 01be 31dd 1cbd
00000250: 61b1 9f3a 7af6 a93c 84c7 c03d 09bc cb3d
00000260: 8ed8 613d cbac 47be 327e 88be 76a1 02be
00000270: 3143 58be 970e a53d 5438 633d 39f8 b03d
00000280: 62be 9a3d ea5a 14be c8c3 51bd cc3a c43e
00000290: 3a70 ac3d 3ed3 b63b e992 173b 663a 853e
000002a0: fdb6 77be dacb 17be 1f32 4b3e d01f 603e
000002b0: 3f5b 0fbe 5e7b 2f3e 0ebe c5bd ad74 97bc
000002c0: dd8b a9be 07a5 bc3d 9975 c73d f41f 8abe
000002d0: 1082 a23d ecf2 f8bd 8323 b33d 93ba 89bd
000002e0: 68ca 97bd d516 26be 5b73 9fbe 75cd e23e
000002f0: 5761 ee3d 2005 96be e844 7bbd fc13 dabd
00000300: af32 ec3e 377c 543d be15 bfbd f748 b33e
00000310: 4b68 cd3c 277f 0a3d 9633 723e e330 103f
00000320: e676 26be 2ea4 233e f847 4e3e 3b7d 01be
00000330: a695 cabc 61ce edbd e668 0d3e a8f7 183e
00000340: c0f7 76be 57fa c6bd 4b16 3d3e 443c 90be
00000350: 5a29 e23d b8d8 0abe 7021 9fbc 6202 b0bd
00000360: 04d2 5dbd 2d45 e93d ccb2 bdbe ecc1 fd3e
00000370: 205a 4a3e d0c2 28be 0395 003e b5e9 113d
00000380: df3f aabe 7bc1 4d3e 5eab a03e f21d 36bd
00000390: 0cfa 893e 970c 183e ab85 083e 0262 3f3d
000003a0: 4c97 d4be 9e1f efbd a76b cb3c 1295 4dbe
000003b0: f57f 69be d180 c13d e67f a93d f600 7ebd
000003c0: c086 86be e748 583e 252f 913c aaa3 0cbe
000003d0: 0062 84be 3340 70be d2af 6ebe 16f1 68be
000003e0: d0bc b33d 0eec 353c 6dfb b3be 90b5 6bbe
000003f0: bc11 73be 80f8 92be 0509 033d 8f2b aebe
-0.229014 0.23038453 0.33115342 0.089657515 0.063842915 -0.07823925 -0.2775161 0.24523231
0.11589723 0.23407218 -0.21251583 0.20552668 0.0849294 0.09439947 -0.16327061 0.24171765
0.36451933 -0.010854508 0.0124436775 0.04232049 0.22176829 0.15405796 -0.06954629 0.06591487
0.1603793 0.07980627 0.42371383 -0.39126143 -0.40511197 0.30209184 -0.16714986 -0.0026591478
0.273481 0.0071024746 0.029985283 0.1473982 -0.014325028 0.11822996 0.008508272 0.44086906
-0.22341107 -0.0005633307 0.08837206 0.0031818121 -0.07069852 0.13684335 0.11685599 0.22419104
-0.26590487 -0.13309412 0.19276749 -0.29875353 -0.21803294 0.17714128 0.08380665 0.13772495
0.042176515 -0.009877272 -0.28821194 0.29249933 0.09311207 0.050472155 -0.14148764 0.03825588
-0.031295132 -0.048427414 -0.09421225 0.071455166 0.14678344 0.012684028 0.1197092 -0.065894134
0.02108532 -0.43302506 -0.05167234 -0.51528656 0.042251382 0.0011767175 -0.11644838 -0.13022242
-0.3138458 -0.22562921 -0.2665505 0.268512 -0.53857684 0.03517432 0.039072 0.06359298
-0.23400423 -0.14287834 -0.32375023 -0.025934318 -0.332795 -0.20160988 0.21595241 0.04659357
-0.14680032 -0.036235347 0.2696066 0.31686348 -0.103599064 0.21456027 -0.05649918 0.41186523
-0.34423825 -0.030574597 0.1307657 -0.03457777 -0.10860349 0.15645802 -0.031136597 0.44641182
-0.54514307 -0.059267256 0.11224923 -0.11003193 0.10608258 -0.27180323 0.15411222 -0.21247984
0.061434746 0.07030296 -0.2363805 0.0030192153 -0.08433751 -0.1814064 -0.082889974 0.08614407
0.03633647 0.0447591 -0.22961189 0.17305052 0.033533 0.12612876 -0.17372102 -0.056620624
0.045083012 -0.014273479 -0.1110682 -0.017889699 -0.06256794 0.071310185 0.16219018 -0.10966716
-0.024089118 0.109110154 -0.12656766 -0.038296882 0.00121836 0.020747412 0.094130546 0.09947974
0.055138163 -0.19499509 -0.2665878 -0.12756905 -0.21119381 0.080594234 0.05547364 0.08641095
0.07555844 -0.14487806 -0.051212102 0.38326108 0.08419843 0.0055793812 0.0023128337 0.26021117
-0.24190898 -0.14823857 0.19843338 0.21887136 -0.13999651 0.17136905 -0.09655391 -0.018488253
-0.3311452 0.09211164 0.09739227 -0.26977503 0.07934964 -0.12155709 0.08747008 -0.06725039
-0.07411653 -0.16219647 -0.31142697 0.44297376 0.1163966 -0.29300785 -0.06134501 -0.10648343
0.4613242 0.051876273 -0.09330319 0.35016605 0.025074145 0.03381267 0.23652491 0.56324595
-0.16256294 0.15980598 0.20144641 -0.12645428 -0.024729561 -0.11611629 0.13809547 0.14938223
-0.24117947 -0.09715717 0.18465535 -0.2817098 0.110430434 -0.13559234 -0.019425124 -0.085942045
-0.054155365 0.11390147 -0.37050474 0.49562013 0.19760942 -0.16480565 0.12556843 0.03562327
-0.33251855 0.20093338 0.31380743 -0.04446215 0.26948583 0.14848553 0.1333224 0.046724327
-0.4152168 -0.116759524 0.024831606 -0.20076397 -0.22802718 0.09448398 0.08276348 -0.062012635
-0.2627468 0.2112156 0.017722676 -0.13734308 -0.25856018 -0.2346199 -0.23309258 -0.22748217
0.087762475 0.011103643 -0.3515276 -0.2301848 -0.23737234 -0.28705215 0.031991024 -0.34017608

rnn.bias_ih_l0 f4 [32]
00000000: b493 373e 972c 9bbd 0a82 f83d 2bc6 7cbd
00000010: 0472 693c 4e03 bebd 3b3b febd 3713 62bd
00000020: 8718 e13d fbad 3ebe 47e2 d03c bd1a 04bd
00000030: e19c 963c d3fe 85be 68f1 6abe b167 91be
00000040: ecd3 73bc 7495 c5bd 81c0 98bd 1c91 3c3e
00000050: 1bd0 d63d 74ad be3d f7ac 4d3d 9cdf 063e
00000060: c84a c1bc a55e a53d 5869 67be e181 2fbd
00000070: 1181 5abe c9c9 18be 286d 00be e185 963c
0.17927438 -0.07576864 0.12134178 -0.061712425 0.014248375 -0.09277974 -0.12413641 -0.055194106
0.10991006 -0.18621056 0.025498522 -0.032252062 0.018385353 -0.26170978 -0.22943652 -0.28399423
-0.014882069 -0.096476465 -0.07458592 0.1841473 0.10488912 0.09310427 0.05021378 0.13171238
-0.023595229 0.08074693 -0.22598779 -0.04284847 -0.21338297 -0.14920725 -0.1254164 0.018374385

rnn.bias_hh_l0 f4 [32]
00000000: eaa0 a5bd 5d6f d1bd 9482 7d3e ebd3 34bc
00000010: 4b14 bfbb d552 c3bd 9910 25be e6df 4d3c
00000020: 035f 08bd d674 67be c0e9 b13d 4544 1d3d
00000030: 23b7 4c3d c640 81be 1490 3c3d 0148 9dbe
00000040: 5c2d 4ebd 09ab d5bd 50fe 8ebd 706b 783d
00000050: 31c5 88bc 2e87 c4bc 308e b53d ef65 03be
00000060: 43ea 23be df44 1c3d c576 90bd 73fb 1d3d
00000070: 5eda 63bd f4d7 cabd 52e4 acbd 52ef 43be
-0.080873325 -0.10226319 0.24756843 -0.011036853 -0.0058312765 -0.09537283 -0.16119613 0.012565589
-0.033293735 -0.22603163 0.086871624 0.038395185 0.04997934 -0.2524473 0.04603584 -0.30718997
-0.050336227 -0.10433013 -0.069821 0.060649335 -0.01669559 -0.02399024 0.08865011 -0.12831853
-0.16007333 0.038151618 -0.070539035 0.03856988 -0.055628173 -0.09904471 -0.08441986 -0.19134262

rnn.weight_ih_l0_reverse f4 [32, 128]
00000000: 8b5f 2a3e eec1 803d 2675 83bd bbc8 1dbd
00000010: 51a6 203e ce55 153d c78f 15bc ccef d83d
00000020: 1b45 eebd e824 843c 732e 783d aacc e63d
00000030: f68f b63d 392c 4e3e dacd eb3d 7d03 b9bd
00000040: d4ea 143e b866 ef3a c995 133e 2182 8b3d
00000050: 0292 f63c 949c 423e 5421 d73d c26d 363b
00000060: 7009 ef3c 7b9b afbd 39dc 143e bbb6 d5bd
00000070: 54ef 123e 281e eb3c e9ad 783e ce4e 2cbc
00000080: 40ff 59be 3afd 83bc 12ee 23be a1dd e5bd
00000090: dd10 08be b216 303e 2a36 b6bb 683a 38bc
000000a0: 43d4 abbd ea2a 523d 8134 ed3d 7d86 bb3a
000000b0: f458 5ebe 8cdc b9bd 8dd4 b23d 9d2c 84bc
000000c0: 9ed7 123e 5b66 4a3d fb1c 933d 4972 3fbe
000000d0: 8bc7 1c3c 0320 423d 247f 62be 2120 3ebe
000000e0: 04b2 383e d897 e33d a3d6 34be 7214 b83d
000000f0: 5b45 0b3e 11dd 793d a83a 513e 86c2 503e
00000100: 210f 193e 63d9 153d 21b1 683e ddfb 4a3c
00000110: c7fe ff3d ba38 243d 8e0d cbbd 98ac e8bd
00000120: 9029 28bd 08bb 3f3e 7b56 b9bd 8390 5f3e
00000130: f232 d13d 20b5 2dbe f6c3 403e 5e12 a1bc
00000140: b888 cb3d a5d3 aebc 2724 5dbe 73f5 08be
00000150: 2515 8dbe d998 02bd 02a2 9e3d 8359 273e
00000160: 712d cfbd a100 8a3e dc37 15bd 3592 473e
00000170: 05db 763d 4257 6b3e fde4 793c cd62 123e
00000180: 7afd 8abd 8ace 9e3b 289b fd3d a984 2a3e
00000190: bf9f 41be ca0e 9e3d d705 eb3c 6cb2 f8bd
000001a0: 0707 c6bd 6565 67be f269 a33d b4df 42be
000001b0: e0be 05be 7f0c 0a3c 901e e8bb 58f1 0cbe
000001c0: f59b f4bd 2d7d 44be 8e05 1c3d 6d86 b6bd
000001d0: f621 2cbe b127 ee3d f79e cf3d 0d60 133e
000001e0: a475 18be d1ce 063e 4e74 6fbd 7e2d 42bd
000001f0: 6503 2a3e db53 74bc 85d6 183e c41b 1bbd
00000200: 18ca 97bd 11e3 fabd 3d2c 82be 8cc8 afbc
00000210: cf7a 4cbe a7f5 b73d 8743 3b3e cb5e 563d
00000220: c1fa cf3d 91e0 c7bd 7126 0cbd 177b 7c3e
00000230: 8564 27bd 0f15 67be 10ba edbd 049f 023d
00000240: f928 4fbe f07c eebc 02f0 85be c50c dfbd
00000250: 2bb7 02be 07c2 303d f8f5 4dbd 909d 69be
00000260: 050f d93d a60e 173e daa4 553c 55b7 ce3b
00000270: 037b 2f3e 23fe 1ebd 8b99 023e 7196 b8bd
00000280: ee2a 973d d399 06bc daff 9dbe ad97 013e
00000290: 61f2 423e 9cf4 f33d a919 7f3c 5533 263e
000002a0: 97fe fa3d c046 11be b38d 383e 3e0e b9bd
000002b0: 3287 c43d ac5f a5bd 56f1 1f3d 63c8 dbbd
000002c0: 365e b53d d497 f1bd 6743 aabd 6e17 18be
000002d0: 7a61 e83d 61bc d93d 9e60 50be e806 223e
000002e0: 9d1d 853e 4b00 ab3d 711a c0bc 6e3e 91bb
000002f0: 3c51 d93c 986f 0dbe f202 b0bd fd0c 743c
00000300: 375a 14be ad45 7f3d 6caf d0bc 2323 babd
00000310: 7ff3 30bd 8a44 0b3e e74c 14be 8c31 99be
00000320: d25f 98bd fd3b f43d 9039 31bd 141a c23d
00000330: c424 edbc 21fe bc3d a503 333c 0850 9abd
00000340: ce5c 58ba 77aa 58be ccb3 eebd f58a 363e
00000350: eb3c 3cbe 0a02 e73d 140a f73b ece0 04bd
00000360: d0d8 453d e6dd 1fbd 444f d73d 4628 0cbe
00000370: e33a 3f3c 0b51 223e e16d a83d bb5d 853e
00000380: 345b 0fbc b0b1 2cbe d36e 06be 6f91 173e
00000390: cff2 02be 8da0 2e3d 89ed 053d a6a3 64bd
000003a0: 4a84 1dbe 58e9 753e 3f83 143c ae3f 66be
000003b0: 5762 10bc d9c3 28bd 5246 0d3e 6969 cbbd
000003c0: 0a43 9fbd 7477 b1bd 4764 30be de44 2f3e
000003d0: cd66 c43d 2814 ad3e 0a8d c5bd 859f 7cbd
000003e0: a5c6 2bbc 336b 2c3c f478 6fbc ae6e 8e3d
000003f0: 9e06 be3d 59bf 833d 1dcc c33c f42a 05be
0.16638009 0.06286989 -0.06418829 -0.03852151 0.15688445 0.036458783 -0.0091285175 0.105926126
-0.116342746 0.01613088 0.060591172 0.11269505 0.08914177 0.20134057 0.115138724 -0.090338685
0.14542705 0.0018264866 0.14412607 0.068119295 0.030098919 0.19005042 0.10504404 0.0027836417
0.029179305 -0.085745774 0.14537133 -0.10435244 0.14349109 0.028700903 0.24285091 -0.010516835
-0.21288776 -0.016111959 -0.16008785 -0.11223913 -0.13287683 0.17196158 -0.005560656 -0.011244394
-0.08390095 0.051310457 0.1158228 0.0014307048 -0.2171362 -0.09075269 0.08731947 -0.016134555
0.14340064 0.04941402 0.07183262 -0.1869594 0.009569059 0.04739381 -0.22118813 -0.18566944
0.18036658 0.11112946 -0.17660002 0.08988275 0.13600676 0.06100184 0.20432532 0.20386705
0.14947177 0.03658427 0.2272382 0.01238915 0.12499767 0.04009316 -0.09914695 -0.11361045
-0.041055262 0.1872369 -0.09049698 0.2183247 0.10214795 -0.16963625 0.18824753 -0.019662078
0.099381864 -0.021341154 -0.21595822 -0.13374881 -0.27555194 -0.031884048 0.07745744 0.1634274
-0.10116089 0.26953605 -0.036430225 0.19489367 0.060267467 0.22982505 0.015252349 0.14295502
-0.06786628 0.0048463987 0.12383109 0.16652168 -0.18908595 0.077176645 0.028689308 -0.12143406
-0.09669309 -0.22597273 0.07979192 -0.19030648 -0.13061094 0.008425831 -0.0070837215 -0.1376394
-0.11943809 -0.19188376 0.038091235 -0.089123584 -0.1680983 0.11628664 0.10137742 0.14392109
-0.14888626 0.13164832 -0.058460526 -0.047406666 0.16602857 -0.014912571 0.14925583 -0.037868276
-0.07411593 -0.12250341 -0.25424376 -0.021457933 -0.19968723 0.08982401 0.18287478 0.052336495
0.101552494 -0.097596295 -0.034216348 0.2465633 -0.040867347 -0.22566627 -0.11607754 0.03188993
-0.20230474 -0.02911231 -0.26159674 -0.108911075 -0.12765186 0.04315379 -0.050283402 -0.22814012
0.10598568 0.14751682 0.013039792 0.006308476 0.17136769 -0.038816582 0.12753884 -0.090130694
0.07381235 -0.0082153855 -0.30859262 0.12655516 0.19037773 0.1191189 0.015570083 0.16230519
0.122555904 -0.14187145 0.18022804 -0.090359196 0.09596099 -0.080748886 0.039048515 -0.1073158
0.0885586 -0.11796537 -0.08313637 -0.14852688 0.11346717 0.106316335 -0.20349357 0.15822947
0.25999156 0.08349665 -0.023450108 -0.004432491 0.026527993 -0.13812101 -0.08594312 0.014895675
-0.14487539 0.062322307 -0.025474273 -0.09088733 -0.043200966 0.13600364 -0.14482461 -0.29920614
-0.07440151 0.11925504 -0.043267787 0.0947763 -0.028948195 0.09228159 0.010926162 -0.07534796
-0.0008253575 -0.21158777 -0.11655387 0.17826445 -0.18382613 0.11279686 0.007539043 -0.032441065
0.04830247 -0.03902998 0.105131656 -0.13687238 0.0116717545 0.15851228 0.08224083 0.26048073
-0.008749772 -0.16864657 -0.13128214 0.14801572 -0.12787937 0.042633582 0.032697234 -0.05582013
-0.15382496 0.24014795 0.009064495 -0.2248523 -0.008812509 -0.0412024 0.13796356 -0.09932215
-0.077764586 -0.08665362 -0.17225753 0.17116114 0.0958992 0.3380444 -0.09646042 -0.061675567
-0.010484372 0.010523605 -0.01461624 0.06954704 0.09278606 0.06432981 0.02390104 -0.13004667

rnn.weight_hh_l0_reverse f4 [32, 32]
00000000: 8aa7 eabd e045 d43c 317b acbd d2dd 3c3e
00000010: 6de8 523d 5038 9ebd 7dcf 45be b0f7 143e
00000020: a40b 8c3d f3f8 463e 9250 27be 8ec8 373d
00000030: cef8 603c 2b7d d7ba 69dd 6dbe 5d50 2d3e
00000040: 2c18 2d3e a74f 4a3c dea8 9e3e 3a05 e23b
00000050: 950d cdbd d5f2 303d 7009 a13d a998 05be
00000060: 5f79 5bbd bea0 9e3e 37eb 193e 220a ed3d
00000070: a08c c93c 436b 62bc cdfa 2dbe 4e26 773e
00000080: aeaf 4dbd 969a 80bd de39 1d3d 3faa 6b3e
00000090: ed22 fdbb 7925 2f3e c8b0 ecbc 559e 143e
000000a0: 7b6e f5bc a6a6 02be 298b 073d 55e0 993e
000000b0: 7229 fdbb 2104 b9bc 988a 1ebe a022 c93c
000000c0: 03f4 bf3c 7de5 16be d495 593e 06f1 04be
000000d0: 0811 c2bd 91a7 61bc b949 0ebd 6b61 7ebe
000000e0: 5a9a 8d3d 2bb9 cb3e 8718 f23d 831d 6a3e
000000f0: 298f 65bd 7912 373e 0f55 efbd 93a3 e1bd
00000100: dce7 82be 461d 943e cb13 0dbd a685 9d3d
00000110: 3660 533e 42f0 673e e5ff 90bd 17bf 1a3e
00000120: 9b8f c4bc c1c3 dabd efc4 0e3e 8b87 973c
00000130: 30e9 2b3e 52e6 0dbe c91b 1fbe 0f94 233e
00000140: 2fed 903e 1943 fdbc b982 e23c 0bdb b5bd
00000150: 065b cc3d 12c2 9cbe f670 a13b 26f7 e13d
00000160: 3254 2dbe fd1b c9bd 2e79 e63d b68d 8fbe
00000170: 7784 8dbd 34eb 1c3c ce61 8fbe 07f9 0ebd
00000180: 5c07 8dbc a30a c83d ed8b f13d 1d1b 313e
00000190: c5f4 81be 9a23 913e 2d8b 203d fce8 663c
000001a0: ff95 b1ba 802d 923b 3d4f 453e a783 14bd
000001b0: 4ecd d43d 3e2f a5bd f7e8 afbd 843b 61bd
000001c0: ec4b 0d3c 4f18 0e3e 0056 103e 8b60 0abe
000001d0: 0e1c 443c 9798 b1bd 7010 403e dba6 983e
000001e0: 3a58 ef3b fc64 67bc d385 1dbe 367e 9bbe
000001f0: 3ff5 ecbd 2ad2 0d3e 4566 b03e a977 913e
00000200: 0e1b 963d 5797 813e 5909 50be d982 a3bd
00000210: 1612 8d3e a2f3 b3bc 7c25 bb3d da6a 94be
00000220: 9ea0 9abd e6ef cf3d 80bd eb3e 12b1 0ebd
00000230: 6c00 4f3e b4b1 29bd 0ab2 793e 6ed6 81bc
00000240: 5321 5f3d 8e43 13be aa52 f8bd c8a5 a6bd
00000250: ad19 883e 7438 66be 95b5 5ebd ec7c 443e
00000260: f3ea 48bd 8315 16be 785e 51bd e8ce 71be
00000270: 40a2 0b3d d8e7 c7bd bcc5 b53d 5a33 c4bd
00000280: c07a 72bd 6c6e 1f3d 40a8 4f3d 05e8 083e
00000290: 6d64 b9bd 54d3 0ebe afe4 c43c 155b acbd
000002a0: b5f9 0a3e 97dc 01be e2b3 ff3d b2a7 c5bd
000002b0: 236f 4d3e b1de 2cbd e8cf d33d fa1d 64bd
000002c0: 8fc1 cb3d aef1 973c b25e ccbd a1c8 303e
000002d0: 3bcf 64bd 9158 48be 2856 98bd 3863 843e
000002e0: 69e2 ccbd 2cbf 0ebc 2834 d83d 0d72 59be
000002f0: 32f9 7cbc 1857 febd 089f 4a3d 31fd 60bd
00000300: 2d62 abbe 6e58 373e 1c83 4c3d 22ce c43d
00000310: f613 0cbe b691 9c3d bbcb a53c 599b 303e
00000320: 8888 873e e896 a63d 61d0 80be 6939 743e
00000330: 98c6 c03c 14b8 303d 4615 c1be 23a5 b33e
00000340: d431 02bd e5eb b7bd 874d b13e d495 e73d
00000350: b1c3 803d 2436 52be b463 c13c 0521 edba
00000360: b145 2abd 0551 7b3e 46c5 01be c22b d7bd
00000370: 074a 80be b699 993e eb40 e63d 7a41 aa3e
00000380: 8056 9a3e 0988 3cbe 7175 a93e 465b 293d
00000390: 4460 90be d24c 20bc 0986 6a3d 9edb 81be
000003a0: c8f5 ddbc 531d 373d fa94 dbbd 340e 2dbd
000003b0: 8c0e c7bb 57c3 dc3c 5777 6ebe 7724 363d
000003c0: e1a7 8bbe 57c9 243e d227 253e c219 483e
000003d0: 4dea 74be aebe 97bc 5b0e b43d dbac 8ebe
000003e0: 2265 b2bd 4031 88bd da44 60bd ef31 0b3e
000003f0: 8d60 06be 220e 533c 61c5 b53e 876f 4fbe
-0.11457737 0.025912225 -0.084219344 0.18443993 0.05149119 -0.077255845 -0.19317432 0.1454761
0.06838158 0.19430904 -0.16339329 0.044869 0.013731195 -0.0016440501 -0.23228993 0.16925187
0.16903752 0.012348092 0.3098821 0.0068975957 -0.10012356 0.043200333 0.07863128 -0.13046516
-0.053582545 0.30982012 0.15031134 0.11574198 0.024603188 -0.0138195185 -0.16990204 0.24135706
-0.05021637 -0.06279485 0.038385265 0.23014162 -0.0077251107 0.17104138 -0.02889289 0.14513524
-0.029959908 -0.12758884 0.033091698 0.30053964 -0.007725888 -0.022584977 -0.15482557 0.024552643
0.023431784 -0.1473598 0.21248561 -0.12982568 -0.09475905 -0.013772861 -0.034738276 -0.2484185
0.06914206 0.3978971 0.118210845 0.2286282 -0.05604473 0.1787814 -0.116861455 -0.110175274
-0.2556752 0.28928584 -0.034442704 0.07691507 0.2064217 0.22650245 -0.07080058 0.15111957
-0.023994258 -0.10681868 0.13942312 0.01849725 0.16788173 -0.13857391 -0.15537943 0.15974449
0.28305957 -0.030915784 0.027650224 -0.0887967 0.09978299 -0.30616814 0.004926796 0.11033468
-0.16926649 -0.098197915 0.11253582 -0.28037804 -0.06910031 0.009577561 -0.28004307 -0.03490546
-0.017215423 0.09767654 0.11794267 0.17295499 -0.25382057 0.28347474 0.03919523 0.014093634
-0.0013548731 0.0044609904 0.19268508 -0.036258366 0.10390721 -0.08065651 -0.085893564 -0.0549884
0.008624058 0.1387646 0.14095306 -0.1351339 0.011969579 -0.08671682 0.1875627 0.298148
0.0073042186 -0.014123198 -0.15383081 -0.3036973 -0.115702145 0.13849702 0.34453025 0.28411606
0.07329379 0.25310776 -0.20316066 -0.079839416 0.2755286 -0.02196676 0.09138009 -0.2898777
-0.075501665 0.10153179 0.46043015 -0.034836836 0.20215005 -0.041429237 0.24384323 -0.015849318
0.05447514 -0.14381239 -0.12125142 -0.08137089 0.2658209 -0.22482473 -0.05437239 0.19188279
-0.04905219 -0.14656644 -0.051115483 -0.23614085 0.03409028 -0.097610176 0.088756055 -0.09580107
-0.059199095 0.038923666 0.050697565 0.13369758 -0.09052358 -0.13947803 0.024034826 -0.0841581
0.13571818 -0.12681805 0.12485482 -0.09651126 0.20061927 -0.042204563 0.10342389 -0.05569265
0.09949028 0.018547859 -0.09978999 0.17264034 -0.055861693 -0.19565035 -0.07438308 0.25856948
-0.10004122 -0.008712571 0.10556823 -0.21234913 -0.015440272 -0.124189556 0.04946807 -0.054928962
-0.3347334 0.17904827 0.049929723 0.09609629 -0.1367949 0.0764498 0.020238748 0.1724676
0.26471353 0.08134252 -0.2515898 0.23850025 0.023532197 0.0431443 -0.37711543 0.35086927
-0.0317858 -0.0898054 0.3462946 0.11307874 0.06287325 -0.20528466 0.023607112 -0.0018091506
-0.04157037 0.24542625 -0.1267291 -0.10506393 -0.25056478 0.30000085 0.11242851 0.3325308
0.3014412 -0.18411268 0.33097413 0.04134681 -0.28198445 -0.00978394 0.057256732 -0.25362867
-0.027094737 0.0447057 -0.107217744 -0.042249873 -0.006074732 0.026948614 -0.23287712 0.04446837
-0.2727652 0.1609243 0.16128471 0.19541076 -0.23917504 -0.01852354 0.087918006 -0.27866253
-0.08710696 -0.06650019 -0.054753162 0.13593267 -0.13122769 0.0128817875 0.3550215 -0.20257388

rnn.bias_ih_l0_reverse f4 [32]
00000000: 2969 733d 5ab8 4dbe b620 e13d 4e84 89be
00000010: c8d4 a73d aff9 4fbd 1714 91bd 3997 59be
00000020: 25ff 58be c7dd ae3d 929f ae3d 4aea 0c3c
00000030: 2891 b93e 218f 09be 86b6 9cbc dbb3 fdbd
00000040: c630 acbd 33a9 29be 069f b0be 54a9 e33d
00000050: c98a 26bd e418 0f3e c2bd 87be a08f 803e
00000060: ddb5 813d 1e6c e0be 0cec 3f3e 5810 923d
00000070: f095 743e 0a17 24be 4860 1c3d 66ee a13d
0.05942646 -0.20089856 0.10992567 -0.26858753 0.08194882 -0.050775226 -0.0708391 -0.21249093
-0.2119108 0.085383944 0.08526529 0.008600781 0.36243558 -0.13433506 -0.019130003 -0.1238782
-0.0840774 -0.1656845 -0.34496325 0.11116281 -0.0406597 0.13974339 -0.2651196 0.25109577
0.06333516 -0.43832487 0.18742388 0.071320236 0.23885322 -0.16024414 0.03817776 0.07906799

rnn.bias_hh_l0_reverse f4 [32]
00000000: 47fa 803d 17ed 87be d34a 5c3d ca2b 80be
00000010: b269 0e3e 1b09 bcbd 1bfd 66be d726 94bd
00000020: 4b1b 9cbe cb61 073d 296f f93d b1de bb3c
00000030: 1c26 793e b689 8a3d d638 f43c f97f d5bc
00000040: a5a2 063d 0700 aabd 663f babe 6ddb 673e
00000050: 8f8a 39bd e4c3 103e e737 e8bd 779f 543d
00000060: 71bf 5abd a834 0ebe a33b 873d edb1 363d
00000070: f5e9 ac3d 57d8 2cbc c1f1 ad3e 4052 25bd
0.062977366 -0.26548073 0.053782295 -0.25033408 0.13907507 -0.09181424 -0.2255749 -0.072339706
-0.30489573 0.033052247 0.12179405 0.022933336 0.24330944 0.067645475 0.029812258 -0.026061999
0.032869954 -0.083007865 -0.36376494 0.22642298 -0.045298155 0.14137226 -0.113387875 0.05190989
-0.05340523 -0.13887274 0.06603172 0.044603277 0.08443061 -0.010549626 0.33973506 -0.040361643

fc1.weight f4 [12, 64]
00000000: 5023 48bd c3a7 13bf d273 a03e 7010 12bf
00000010: 235a 15be 69d6 fbbe 3de7 dfbe 45a4 4b3d
00000020: 5b59 debd 417b fbbe e5fc 75bd 1337 663e
00000030: d754 173e ad40 38be f58c 81be 2ff4 a9bd
00000040: 9d0b 9cbd 62ca 12bf 0829 863e 56cb 2e3e
00000050: 82fb c73e cc15 013f 2009 22bf 8f2d 203f
00000060: 0c29 223f 8be9 85be 96dd 01bf 71ab f03c
00000070: 8ff3 febb db8a f8be e44a b63e 4338 b53e
00000080: 00ff a5be 074a 55be e3aa f6be c9a4 11bd
00000090: 1f4b 87be d3d5 76be a957 c2be 75e4 883e
000000a0: 9198 a7be f7ca b63e faa9 463e dea7 63be
000000b0: 83c7 9b3e 2218 aa3e 9825 e63d e539 a5bd
000000c0: 5aaf c93e 4e1f 4abe 0f93 94bd 61e3 843e
000000d0: 9d0c cabe 1b61 4c3e f014 47be 5b92 a63e
000000e0: 6569 afbe 311e 85be 99ca ed3e 3336 09be
000000f0: 41e7 c93e 2fe9 8cbe 7556 bbba e794 013f
00000100: bbe4 7d3f 4c05 253f db1f 0b3f 0965 0b3d
00000110: c2c0 6d3f 16d0 88be d12a dcbe 47b0 7f3e
00000120: 3985 9e3f c3c9 533f b543 04be 4af5 3ebf
00000130: c143 943e 0e2f 8a3e 5b62 39be fded ab3c
00000140: 738e eebe a02d e9be 0dc5 bcbe 2044 7fbf
00000150: 11d4 ed3d 9985 f9bd 4a18 0b3f 963a 2bbf
00000160: d907 01be a75b c13f 2a71 083f f2bb 9d3d
00000170: 0f5e b9be 64cb 243e 7760 abbe 4877 60bf
00000180: 8304 a93e f067 883f 13a5 f73e 5f2e d9be
00000190: a573 2fbe 082e 953f 8009 d6be 8945 32bf
000001a0: 0d62 47be 6589 94bf f22c 46bf 6a16 8ebe
000001b0: 3de4 31be ad62 36bf abce 55bf c108 6f3e
000001c0: 2167 963e eaa0 763f fe53 99bd a06c 503e
000001d0: 4f92 303f 3de1 5bbc 54c0 2abe 972c 88be
000001e0: 506f 303f 1519 30bf 89c9 043f dfc2 483f
000001f0: 9029 183f 4b1e a5bd 56ab 8b3f cf8c 0f3e
00000200: 85b7 003f ef0c 7fbe 3469 77bf 07af 2abf
00000210: b34f ad3e 1711 863f dd60 0cbf 5613 21bf
00000220: 7b44 f1be d333 ffbd 558a 813f b257 313f
00000230: 68bf aabf bf51 743e 0cc7 de3f 025b 113f
00000240: 5ee6 7d3e 3ff8 e0bd fc9c 05bf 60fd 57be
00000250: 9d56 393e a9c6 8abf 3351 cebe 55d2 e33e
00000260: 5a4a 733d 9e09 833f ae1f 053f 9ff8 bbbe
00000270: c0ed debe 8ee6 463f ef3a ab3e d3fc ae3e
00000280: 183d 0e3f a670 b5be 3b81 37bf c94d ed3e
00000290: 41eb 363f 1445 913f b4fc 80be df6f 843f
000002a0: cdf3 483f bfd2 b2bd abf6 413f c4ca b8bd
000002b0: 05a5 63bf cac7 83bf b076 853e c3ac ac3f
000002c0: a575 95be aca8 8a3f 214f 843d 7bbd d1bd
000002d0: c2f2 b7be 618b 39bf 82f2 d03d dd44 73bf
000002e0: 44d6 3f3f 5c8c 23bf 54df ed3e 3901 30bf
000002f0: c62a 8e3e ee23 1ebe c467 293f 3103 0ebf
00000300: e964 603f bdb1 063f 746d 5f3e 61f5 e43e
00000310: a5af 9dbe 165a b63e f047 e3be 1e11 b1be
00000320: f85d 393f b071 e43e 9efc 1fbe 7647 01bf
00000330: 7baf 053e 4ee1 6cbf 0a17 903f 9031 8d3f
00000340: fd42 e7bd 4506 d6be f0ec 7a3d c5b6 d3be
00000350: 66d3 47bf d94a f0be 3535 253f 9c01 0b3f
00000360: 1d8a 17bf d6a4 82be 8344 d43e 6c3e 5f3f
00000370: 2a4e 493f 8890 00be b61b a73d 6e77 07bf
00000380: 41af 0a3f 9763 45be a1d1 5c3e 7f78 993f
00000390: 9814 053f 4556 633d 4f8f 493f 9fa6 2bbe
000003a0: d99f 323d f729 393e 70ff 423f 1670 60be
000003b0: e311 e6be ccc2 fa3e 1f4e 7abf 415f d83d
000003c0: 3afd 5c3f c6c3 383f 8b6d a83f b821 61bf
000003d0: e67c 77be b50a c2bd 17f0 c6bd c14a ecbd
000003e0: 3ad5 273f ef8f 12bf 0dd5 39bf 1450 d33e
000003f0: f090 d7be 4b0a 76be 9d5f 08bf 3f36 2f3f
-0.0488618 -0.5767786 0.31338364 -0.5705633 -0.14585166 -0.4918702 -0.43731108 0.049717207
-0.10856887 -0.49117473 -0.060055632 0.22481947 0.14778458 -0.17993422 -0.25302854 -0.082985274
-0.076194026 -0.5734006 0.2620318 0.17069754 0.39059073 0.50423884 -0.63295174 0.62569517
0.6334388 -0.26154742 -0.5072874 0.029378625 -0.0077804993 -0.48543438 0.35604012 0.35394487
-0.32421112 -0.2082902 -0.4817725 -0.035557542 -0.264245 -0.24105005 -0.37957504 0.267368
-0.32733586 0.35701725 0.19400778 -0.22232005 0.30425653 0.33221537 0.11237639 -0.08067683
0.39391595 -0.19738504 -0.07254612 0.25954726 -0.39462748 0.19958918 -0.19441581 0.32533535
-0.34260097 -0.25999597 0.46443632 -0.13399582 0.39434245 -0.27521655 -0.0014292734 0.5061783
0.9917714 0.6446121 0.5434548 0.0340319 0.9287225 -0.26721257 -0.43001416 0.24969588
1.2384406 0.8272974 -0.12916453 -0.7459303 0.28957942 0.26989025 -0.18103926 0.020987505
-0.46593055 -0.45542622 -0.36869088 -0.99713326 0.11612714 -0.12183685 0.5433394 -0.6688627
-0.1260065 1.5106095 0.53297675 0.07701863 -0.36204574 0.16093212 -0.33472034 -0.8768201
0.33011255 1.0656719 0.4836813 -0.4241819 -0.17133959 1.1654673 -0.41804123 -0.6963735
-0.19470997 -1.160443 -0.7741233 -0.27751476 -0.17372222 -0.7124432 -0.83518475 0.23343183
0.29375556 0.96339285 -0.07486723 0.20353937 0.6897325 -0.0134204 -0.1667493 -0.2659652
0.6891985 -0.6878827 0.5187002 0.7842235 0.5943842 -0.080624186 1.0911663 0.14018558
0.5028003 -0.24907278 -0.966449 -0.6667332 0.33849868 1.0473965 -0.548353 -0.6292013
-0.4712256 -0.124610566 1.012034 0.6927444 -1.3339663 0.23859309 1.7404494 0.5677949
0.2479491 -0.10984849 -0.52192664 -0.21092749 0.18099447 -1.0841876 -0.40296325 0.44496408
0.05939708 1.023731 0.52001464 -0.3671312 -0.43540764 0.7769555 0.334434 0.34177265
0.5556197 -0.35437506 -0.71681565 0.46348408 0.7145272 1.1349206 -0.25192797 1.034664
0.7849701 -0.08731603 0.7576701 -0.090230495 -0.88923675 -1.0295346 0.26067114 1.3490223
-0.29191318 1.0832725 0.06460405 -0.10241219 -0.35927397 -0.724783 0.10202505 -0.9502695
0.7493632 -0.63886046 0.46459448 -0.68751866 0.2776701 -0.15443394 0.6617396 -0.5547362
0.87653977 0.5261496 0.21819097 0.4471846 -0.3079807 0.35615605 -0.4439082 -0.34583372
0.7240901 0.44617987 -0.1562371 -0.50499666 0.13055222 -0.9253129 1.1257031 1.103075
-0.11292074 -0.41801658 0.061261117 -0.4135038 -0.78056943 -0.46932104 0.6453431 0.5429933
-0.5919512 -0.25516385 0.4145852 0.87204623 0.78634894 -0.12555134 0.08159582 -0.5291661
0.54173666 -0.19276272 0.21564342 1.1989897 0.5198455 0.055502195 0.78734297 -0.1676278
0.043609474 0.18082415 0.76171017 -0.21917757 -0.4493552 0.48976743 -0.97775453 0.10565043
0.86323893 0.72173727 1.315843 -0.87942076 -0.24168739 -0.094746985 -0.09713762 -0.11537696
0.6555973 -0.57250875 -0.72590715 0.41272032 -0.42102766 -0.24027364 -0.53270894 0.6844215

fc1.bias f4 [12]
00000000: 4e8f 1abc bed7 ab3d 192f 89be 58ff fbbe
00000010: 746d aabe 23c0 9bbe 6c97 87be f87d 36bf
00000020: 9550 b6be 7022 8cbe d639 39be 3640 3cbf
-0.009433581 0.08390759 -0.26793745 -0.4921825 -0.3328663 -0.30420026 -0.26482713 -0.71285963
-0.35608354 -0.27370024 -0.18088469 -0.7353548
