src/src_learner/python3_finetuning_model.pt (torch, 99780 bytes, 11 tensors)

word_embeddings.weight f4 [102, 128]
00000000: 2c40 c3bf 4d1c 40bf 6778 27bf 270a cebf
00000010: 4f8d cdbd b2e6 1bbf 77df 7abf 50f0 cdbf
00000020: 0042 36bf 3d67 9b3e 2e0b 47bf f4d8 80be
00000030: 7266 63be e3f9 d73f b81c 6a3e 2288 ef3e
00000040: ad5f 32bf 639a 94bf 1a08 333f a0a7 4b3e
00000050: 20ab 5d3f 9610 7a3e 73a7 29bf ddb8 4e3f
00000060: 51fd 8c3f 025d 34be f2b3 0fc0 fb1e b9bf
00000070: 40ac 793d 6417 1ebf 6a5b 4cbf aafc 06be
00000080: d987 f03f f850 93bd 0cc3 213e 400e 46bf
00000090: e609 4c3e 1e61 3a3d 4f6c 1c3e 62a6 f3be
000000a0: 81f5 e2bd 9bfb 953e 97d6 21be 942f eabc
000000b0: 2ede 1640 12ce 84bf 6e8c c93f c74a 21bf
000000c0: 6f5c 6dbf 819b 0b3f 1655 873d efdd dfbe
000000d0: e746 433f b70d e23e b41c 953f e8f8 0040
000000e0: 6c81 0c3e 2158 703f 80ab 3ebe f9f9 24bf
000000f0: 900c c53f 67aa 5ebf e534 55c0 aa81 3fbf
00000100: 2a47 cfbc f1f5 82bf b3ac 18bf c9bb 80bf
00000110: 9cdd 57be 8ac3 f0bb 6b39 d63f 1e2e 263c
00000120: 9d43 34bf bfea 3dbe 27fc 7ebf 09c0 54bf
00000130: 4a25 ecbe 7454 0fbf c06e ca3e 6769 7bbf
00000140: ff9b 01bf e6bf cc3d b15d 27bf 635d 3b3f
00000150: 6793 b7bf 2d28 00bf 2b8c 2f3e cfa0 23be
00000160: 8879 823e 628d 00bf 994c 85bf c168 3b3f
00000170: 9036 86bf 0731 f1be 9df5 943e f4d5 fe3f
00000180: 5f47 293f df55 983f 42fb 503f cbe9 69bf
00000190: e645 b13f 1e4b 50bf c482 6dbf 5e5b 8e3f
000001a0: 93ee aa3f 91a4 1a3f 4b42 d4bd 2ea4 1abe
000001b0: 4185 06c0 a6ac 1ebf 3a3d bdbf 450d 91bf
000001c0: 01a4 5f3f 457a 0fbf 249b a43f 420e 513f
000001d0: ab6f 523e cc1c 9c3e ad15 093f 7ede dcbe
000001e0: 44b5 2340 5f2b 6fbe 5973 59bc d62f ee3f
000001f0: 8284 fdbf 6931 e63f bc19 d03d 7a2f ae3e
00000200: 865d 363f 9764 e3bf bd2d b53e ed8c 993f
00000210: 7a22 9bbe 0784 e1bf 2d85 223f 7aea 4dbf
00000220: e938 cebf 0391 efbf 8707 0b3f 3c22 293f
00000230: bfe4 1240 a3c6 2c3f 1f4e db3f c0aa e5bf
00000240: 8a7f aebf 48b4 7bbf 3071 c13f a451 243f
00000250: 5028 f23e 2970 dbbe a226 0d3f 4010 c6bf
00000260: ffa2 043f 352f da3d edd9 893e ff91 a93f
00000270: 8e7d df3f a06f ed3f 9bd4 34bf 4da7 2340
00000280: 0ec7 d53e e8d2 59be 7d07 57bf 950c d7be
00000290: d8c0 1fbf 1430 7abf b3f5 5f3f 79be 7c3f
000002a0: ca80 9e3e f8a5 c23f 1b45 9a3f 4965 e8bf
000002b0: 8392 cebe 8a8a 75bf 63a5 aabb ff82 a1bd
000002c0: baf9 573f b335 953f 07e5 063f b143 cf3f
000002d0: 26c7 76bf b8ea 103e bd96 27be f368 b7be
000002e0: a673 dc3f 436e 9bbe 709b 743e 3b08 ac3f
000002f0: fe67 d33d 68d8 8c3f b5f0 aebe cd84 723f
00000300: 438a 11bf b46c 563f fe4e e43f 671d 48be
00000310: 8bd1 033f 257a ecbf e9ab 3ac0 883c 11bf
00000320: 5791 0abf 202a 653f fbeb 61bf c824 083f
00000330: 07dc c5bf 8275 31be 5a6e 3a3f d1b8 693d
00000340: facf 673f fdec 853f d845 05bf 8e69 ad3f
00000350: 78d6 703e ed05 f53f 850f eb3f 478a a93f
00000360: fc10 78bf 9f35 a03f e7eb 9a3f ce25 07bf
00000370: cecf 5f3e cd05 13bf 1383 ba3f adae e23f
00000380: 6030 d33f b42f ddbe 0ac4 8abe 7b36 b8bf
00000390: 059f 9f3f 8e0d a33f 802a c83e 7440 c63e
000003a0: 3d7d a3bd 7df6 ae3e 59e6 723f d024 b1bf
000003b0: dcae dc3f 5058 17c0 1ef3 6dbf 0e56 963e
000003c0: 924b 5c3e 283f 703f 4f9c bb3f 1b75 0ebf
000003d0: e3ad 3ebf 4d02 4fbe 102e 6bbe 3e80 ae3a
000003e0: 2a24 c03e dec0 14bf d582 12bf 6c3e 813f
000003f0: b55e d8bd 4700 97bf a7ea b9bd 4328 103f
-1.5253959 -0.75043184 -0.65418094 -1.6096848 -0.10036718 -0.6089889 -0.9799723 -1.6088963
-0.7119446 0.30352202 -0.77751434 -0.25165522 -0.22207049 1.6873134 0.22862518 0.4678355
-0.6967724 -1.1609615 0.69934237 0.19888163 0.8658924 0.2442039 -0.6627113 0.8075083
1.1014806 -0.17613605 -2.245358 -1.446258 0.060955286 -0.6175444 -0.79826987 -0.13182321
1.8791457 -0.07193178 0.1579706 -0.77365494 0.19925651 0.045502774 0.15275691 -0.47587878
-0.110819824 0.29293522 -0.15804516 -0.02858714 2.3573108 -1.0375388 1.5745981 -0.63004726
-0.9271917 0.54534155 0.06608026 -0.4372401 0.76280063 0.4415109 1.1649384 2.015192
0.13721246 0.93884474 -0.1862011 -0.6444393 1.5394459 -0.86978763 -3.3313534 -0.74807227
-0.025302488 -1.0231305 -0.5963852 -1.0057307 -0.21080631 -0.007347529 1.6736273 0.010142831
-0.7041567 -0.1854658 -0.99603504 -0.8310552 -0.461222 -0.5598824 0.3953762 -0.98207706
-0.50628656 0.09997539 -0.65377337 0.7318937 -1.4341859 -0.50061303 0.17143314 -0.15979312
0.25483346 -0.50215733 -1.0414001 0.73206717 -1.0485401 -0.47107717 0.29093638 1.9909043
0.6612453 1.1901206 0.8163339 -0.91372365 1.3849456 -0.8136462 -0.9277766 1.1121633
1.3354057 0.6040736 -0.10364207 -0.15101692 -2.1018832 -0.6198219 -1.478431 -1.1332175
0.87359625 -0.56045943 1.2859845 0.8166238 0.2055041 0.3049072 0.535487 -0.43138498
2.5579386 -0.23356389 -0.01327213 1.8608348 -1.9806063 1.7983829 0.101611584 0.34020597
0.71236455 -1.7765073 0.35386458 1.1996132 -0.3029974 -1.7618417 0.6348446 -0.8043591
-1.6111118 -1.8716129 0.5430836 0.6606786 2.2952116 0.67490596 1.7133216 -1.7942734
-1.3632672 -0.9832196 1.5112667 0.64187074 0.4729638 -0.4285901 0.55137074 -1.5473709
0.5181121 0.10653535 0.26924077 1.324768 1.7460191 1.854969 -0.7063691 2.5570862
0.4175343 -0.2127186 -0.839958 -0.42001787 -0.6240363 -0.9772961 0.8748428 0.9872814
0.30957633 1.52069 1.2052339 -1.815591 -0.40346155 -0.9591452 -0.005207704 -0.07886314
0.8436543 1.1657013 0.5269322 1.6192533 -0.96397626 0.14152038 -0.16366096 -0.35822257
1.7222793 -0.3035756 0.2388742 1.3440012 0.10322569 1.1003542 -0.3416802 0.9473389
-0.56851596 0.8375962 1.7836607 -0.19542466 0.5149161 -1.8474776 -2.9167426 -0.5673299
-0.5412802 0.895174 -0.882507 0.53181124 -1.5457772 -0.17329982 0.72824633 0.05706102
0.9055172 1.0462948 -0.520597 1.3547838 0.23519313 1.9142433 1.8364111 1.3245324
-0.96900916 1.2516364 1.2103242 -0.5279206 0.21856615 -0.57430726 1.4571251 1.7709557
1.6499138 -0.43200457 -0.2710269 -1.4391626 1.2470404 1.2738512 0.39094925 0.3872105
-0.07982872 0.3417243 0.9488273 -1.3839359 1.7240863 -2.3647652 -0.9294909 0.2936253
0.21513203 0.9384637 1.4657077 -0.5564744 -0.7448408 -0.20215721 -0.2296679 0.0013313366
0.3752759 -0.5810679 -0.57230884 1.0097175 -0.10564939 -1.179696 -0.090779595 0.56311435

rnn.weight_ih_l0 f4 [32, 128]
00000000: 7681 17be 6023 b1bd 68ef e3bc 8b5a c7bd
00000010: 5bea 3cbc 9deb 0dbe cf17 1abe b1a0 4f3d
00000020: 5fcb c33b 68f4 823d 0626 003e 18f4 fa3d
00000030: 8f7f 4c3b deae c13d e4c6 843d c7b3 963d
00000040: b6b7 eebd 85b9 1c3e ff79 8e3d cf43 113e
00000050: 2937 723d 60f6 a4bd a23d 05be 7ab2 1f3e
00000060: a9fc 103e 94c6 d7bc 4002 c13c 3e5c 34be
00000070: 5f23 e0bd 197a 1fbe a0b3 a5bd d694 b5bd
00000080: 9ae0 84bd a36c 413d 63bd 683d f399 98bd
00000090: 1df5 ca3d 4766 08be 80de 813b 8c7a a23d
000000a0: 34dd 23be 60a2 9abc 7c0f 2bbe d6ce 973c
000000b0: 477c 133e 91aa 1c3e 156c 743d e173 acbd
000000c0: b3bd 0a3e 6b36 33be 2e44 e13d fe5d b2bd
000000d0: d66f b63d 6f5f 273c 1ce3 10be eba4 ec3d
000000e0: 39b0 1a3e 7a50 cbbc 08ec 98bd f0db 243e
000000f0: 054d 123e 0e11 44bd dea8 dbbd fac2 f2bb
00000100: 28b3 0b3e e6fb f8bd 5526 f5bd ad23 da3d
00000110: 6bff 1dbe 8c37 d13d 03d5 dcbd 45fe da3c
00000120: e183 68bd 00ea fd3c 9bf4 8fbd 6673 683d
00000130: cd66 e83d 82b2 debd dee3 173e e27b f33b
00000140: 4d29 6fbd 869c a03d 91ac a6bd dba1 d4bb
00000150: 9ccc 153e 7d76 00be 68bc 233e 3945 1e3e
00000160: 0c33 593d 040a 8a3d b342 02be e3b5 253e
00000170: 9c7d e2ba cd3e debc 3ea9 893d a50e edbd
00000180: 0b80 b5bd 2f3b 01be 1716 f2bc dd70 a3bd
00000190: 3775 9e3d 4439 1ebe 81d4 b0bd a151 2cbe
000001a0: d046 d9bc 9c31 133e 6ec3 a43d e898 033e
000001b0: 6780 743d 1f86 333e 8864 bebd d060 a9bd
000001c0: 68f5 0fbe 2966 1b3e 8dbb 31be d860 313b
000001d0: 5ca0 acbd 8395 a73d c2f4 983d b95c be3d
000001e0: e099 71b8 31ab 9f3d 1b13 1cbe af8a 053e
000001f0: df22 49bd f854 20bd 2347 fc3c 260f 95bd
00000200: e9c9 a1bd 6667 7ebc abc7 c3bc 6e22 183e
00000210: c460 b93d 5c01 e9bd 36b0 1f3e bc63 bcbd
00000220: 74c3 4ebd b10b 213e c3fe 0f3e 7c2e 0d3e
00000230: ac2a a63d 9c9b 19be fd99 efbd b312 a8bd
00000240: 2d5f 4a3d 40b6 213e 6652 be3d a35a f03c
00000250: b8b9 f4bd ef28 f23d ed2d 82b8 ab60 6f3d
00000260: ebb9 adbd d16a 16be 5027 21be f468 59bd
00000270: a7a9 06be 939c 1cbe df82 323e 350d 8f3d
00000280: 9fc9 c1bc 5917 20be 43b2 00be 3908 2bbe
00000290: cd5c 35bd a2e9 003e a5fb bcbc 03ef 1f3d
000002a0: a1df 57bc 19f1 db3d 454f 2d3e 4bf0 92bd
000002b0: b822 0bbe 4ff5 d33d 9f05 f03d 65ff 623c
000002c0: 0559 a2bd aa03 2abd f68c cc3d ad25 593d
000002d0: f89c 7cbd 8cd4 4e3d fdc0 613d 62a5 50bd
000002e0: d133 cfbd b682 303d f440 313d 8cd4 2f3e
000002f0: bd33 edbc 8e99 d73c 861b 213d 36ed a23d
00000300: 45a2 a93d ce01 fcbd d8f1 193e c1c8 0e3d
00000310: 66e9 343e af54 0bbe 360c 213e 524f 043e
00000320: 29aa 8abd 0440 27be c59d ed3c 1794 dd3d
00000330: 1f89 b8bd 25c1 963d 9bb0 e13c ceed 193e
00000340: bb27 303e e3e7 a43d b149 febc 121e 73bd
00000350: 82b2 ff3d d70d c3bd 03fb 86bd 2e6b d3bd
00000360: a6b3 34be 3a23 233e 4b97 e83d 8bde 933d
00000370: e8ce 053e 6a3f 013e 109f f93d 9a51 ecbd
00000380: 95c8 eb3d 5e83 50bc 0684 2d3e 1f83 1f3e
00000390: 4d01 213d 4f74 c3bd 7aa3 2a3e b57f 33be
000003a0: e9e5 9bbd c74b 563d a9fe a53c d9f8 08be
000003b0: 9f15 d3bd 7416 0e3d 43d6 0abd eed4 11be
000003c0: 7993 d13d cca2 053e 9aa7 8dbc e3c3 b73d
000003d0: 035f 153d 6f6c c93d 8cbe 703a e33c 5c3d
000003e0: 1a3c fb3d 93e5 61bd 31ee 013e ac82 4b3d
000003f0: 8f50 12be 2fa7 0f3e f723 8ebd c1f2 30be
-0.14795479 -0.08649325 -0.027824119 -0.097340666 -0.011530484 -0.1385941 -0.15048145 0.050690357
0.0059751715 0.06394273 0.12514505 0.122535884 0.003120396 0.094571814 0.06483248 0.073585086
-0.11656134 0.15305145 0.06956863 0.14186023 0.059134636 -0.08054805 -0.13011792 0.15595427
0.14158882 -0.026339807 0.023560643 -0.17613313 -0.109442465 -0.1557392 -0.080909014 -0.08866279
-0.06488152 0.047222745 0.05682124 -0.074512385 0.09910033 -0.13320266 0.0039632916 0.0793353
-0.16002351 -0.018876255 -0.16705126 0.018531244 0.14402877 0.15299441 0.059673388 -0.0842054
0.13548927 -0.17501228 0.10999332 -0.08709334 0.0890805 0.010215624 -0.14149135 0.11554893
0.15106286 -0.024818648 -0.074668944 0.16099524 0.14287193 -0.047867827 -0.10725568 -0.007408497
0.13642561 -0.12157421 -0.11970202 0.10651336 -0.15429465 0.10215673 -0.10782816 0.026732573
-0.056766395 0.030995369 -0.07029077 0.056750678 0.11347733 -0.108738914 0.14833018 0.0074305395
-0.058388997 0.078423545 -0.08138383 -0.0064890212 0.14628834 -0.125452 0.1598984 0.15456094
0.053027198 0.067401916 -0.12720756 0.16182666 -0.0017279866 -0.027129555 0.067217335 -0.11575059
-0.08862313 -0.12620233 -0.029551549 -0.07980511 0.07737201 -0.15451533 -0.08634282 -0.16828014
-0.026523024 0.14374393 0.08045088 0.12851298 0.059692767 0.17531632 -0.092965186 -0.08270419
-0.14058459 0.1517569 -0.17356701 0.002706578 -0.084290236 0.08182814 0.07468559 0.09295029
-5.7602185e-05 0.07796324 -0.15241663 0.13041185 -0.04910552 -0.039143533 0.03079564 -0.0727828
-0.078998394 -0.015527582 -0.02389892 0.14856884 0.0905166 -0.113772124 0.15594563 -0.0919871
-0.050479367 0.15727116 0.14062028 0.13787264 0.08113608 -0.15000767 -0.11699293 -0.082066916
0.049407173 0.15792179 0.0929306 0.029340094 -0.119494855 0.11824214 -6.2074374e-05 0.0584418
-0.08482727 -0.14689185 -0.15737653 -0.053078607 -0.13150655 -0.15294103 0.17432736 0.06984941
-0.02365571 -0.15633906 -0.12568001 -0.16702355 -0.044277955 0.12589124 -0.023069212 0.0390463
-0.013175876 0.10739345 0.1692477 -0.071747385 -0.13587463 0.10349523 0.11719822 0.013854836
-0.079271354 -0.0415074 0.09987824 0.053014446 -0.061673135 0.05049567 0.05511569 -0.05093897
-0.10117305 0.043093406 0.043274835 0.17170924 -0.028955335 0.026318338 0.03933289 0.07955401
0.082829036 -0.12305032 0.15033662 0.034859423 0.1766716 -0.13606523 0.15727314 0.12920883
-0.06770737 -0.16333014 0.029005894 0.108192615 -0.09010529 0.07361058 0.027550032 0.15032122
0.17202656 0.080520414 -0.031040998 -0.05935485 0.124852195 -0.09524124 -0.065908454 -0.10323177
-0.17646655 0.15931407 0.11356982 0.07220181 0.1306721 0.12621847 0.12188542 -0.11539002
0.11512867 -0.012726633 0.16944894 0.15577362 0.03930788 -0.095436685 0.16663924 -0.17529185
-0.07612211 0.05231836 0.020263033 -0.13376178 -0.10306858 0.03468938 -0.033895742 -0.14241382
0.10233206 0.13050383 -0.017291833 0.08972909 0.036467563 0.09835135 0.0009183667 0.053769004
0.12267323 -0.05515058 0.12688519 0.049685165 -0.14288543 0.14028619 -0.069404535 -0.17280103

rnn.weight_hh_l0 f4 [32, 32]
00000000: fd06 f63c 0028 d43d 9d60 313e 4dd5 a13d
00000010: 1be9 e0bd 03f1 7a3d 519a 203c d169 1f3e
00000020: f1bc db3d 26ed 733a 9bf8 903c 974b a03d
00000030: ed41 343e f079 d23d a03e 093d c0ce d03d
00000040: bb6b de3d 3185 013e 122f 58bc 3491 883d
00000050: b22c 78bc d5ac 0b3e ee9b 9dbd 73e3 ca3c
00000060: e332 9abd fa0d b2bc 2e97 903d fb80 5d3c
00000070: 422d 34be 6974 d93c 5acf 9dbd d50c e13b
00000080: d945 6d3d ee14 4bbc 9565 b13d 2884 26be
00000090: 67ed c03c 2013 113e e292 003c da6a 173e
000000a0: 42dd 88bd 4f74 5c3d 7ed9 13be 193c c6bc
000000b0: 7cb7 ddbd 7d09 a33d 17f9 9a3d bf7d f9bc
000000c0: 7ecd d0bd ba73 b6bd 74be d03d 0c8f 68bd
000000d0: c231 32be 42ed 003e 81ab b03c f9a3 ed3d
000000e0: 2670 963d b46d babc 66fa 18be dba0 20bc
000000f0: c5f5 2ebc f2d8 4a3d 49c6 2dbe 3ece 70bc
00000100: a34c 12be b192 bcbd 83fe 29be 10ff 053e
00000110: b0f2 1c3e 424d adbd 31c8 97bd b1c2 c53d
00000120: f654 8dbb d3aa 1bbd 4dfe d4bc 2fd4 29be
00000130: b634 f6bd 44ad f13d 4fe7 f3bd 3e7a cc3d
00000140: 0e4a 92bd 1fbe f7bd d550 acbd 4a99 e03d
00000150: f507 2cbe 99ee 923d ad6f 493d 5751 723d
00000160: a919 1dbe 7bd9 05be 5c41 09bd 2930 81bd
00000170: a8c4 73bd d869 6e3d c468 ac3d 9d83 0e3e
00000180: c9a0 b4bd 51d2 c6bd 8974 273e eb5b 91bc
00000190: 80b2 4cbd 55dd cb3d 29ed 05be c373 923d
000001a0: dc3d 95bd ad53 83bb 31dd 95bd 5b1b 0abe
000001b0: 41a6 bbbc 025a 133d 5eac aabd 1102 cd3c
000001c0: 7451 1bbe 1141 f3bd 339b 953d c911 0c3e
000001d0: 81e6 bd3d f3c2 eebd a638 f23d 30a6 e9bd
000001e0: c38f a83d 27e2 fb3c 1ecc 2cbd 0d23 1abe
000001f0: 482d 1cbe 5493 31be 5208 debc ba8e 103e
00000200: 2961 833d 45b5 123e fff4 1cbe 4065 f23d
00000210: 6f3d 09bd b8aa b03d 1ea7 06be b40e f9bd
00000220: 24f9 103e a5a1 ed3d 3770 ecbd ebca 0dbe
00000230: d8cb 4bbd 88b4 313e a503 153e aa21 9abd
00000240: a59d c43c 9e0c c63d 5a3e 0dbe d416 16bd
00000250: 8ba6 0a3e 8fb9 9e3d 367f 963d 6abe 1e3e
00000260: 8bac 9e3d 373d 34be 5b58 d3bd 8f3c 89bd
00000270: ec8a 18be 54b2 e83d 2fb5 b83b fd27 1d3e
00000280: 94fb 98bc a7e4 483d 556d 2fbd 1ed6 233e
00000290: fc54 f93d 985f 2dbd 798d a33a 2764 0abd
000002a0: 8d77 b1bd 68b7 30be 5c4b b73d 83a1 e83d
000002b0: 6f7f fdbd 5294 f83d 9182 08be 22b8 18be
000002c0: 892c 153d 1bcf c73c 2894 76bd 5aeb ccbc
000002d0: 34c0 e83c 9660 cfbd daca 0f3e 8920 dabd
000002e0: 4f87 25bd cc2e 31be 778f 5abd 70af a63c
000002f0: b28f 8bbd f6b8 13be 36f8 61bd f6c1 d1bd
00000300: 2806 2e3e 37df 323e 63b4 9cbb d8c1 90bd
00000310: e4ea d03d 0d03 04bd 2187 103e 7d18 d83d
00000320: 715c 073e 754c 273e 1fed 38bd dcc0 23be
00000330: 78a4 37bd fc19 2dbe c7d3 b53d f530 20bd
00000340: 734f e33d 5c4a 05be 9472 6d3d 5627 473d
00000350: 0491 1e3e 906c 00be 145d 2e3d c692 c2bd
00000360: 509e 29bd b4d6 0c3e 69c7 8bbd 63f6 be3d
00000370: 54b2 253d d8b6 2b3b f64c 173e 2c37 d23c
00000380: 2c8b fabd 59dc 253e d2de f93d e7b8 8abd
00000390: 2b00 f63d a058 f4bc 0fd4 573d 5154 5a3c
000003a0: 21ad 16be 9fbb 2d3e 32ab 073e 2438 21be
000003b0: 656e 30be 6b52 2f3e 1647 953d af7a e0bc
000003c0: f1a0 79bd c9c2 0f3e 3092 e93d 6d2f 33be
000003d0: d1f3 8bbd 4921 b4bd 426f 25be 9672 d5bc
000003e0: 3b70 893d 030f 2ebd dbf5 fbbd 0a5e 0ebd
000003f0: 0abb 24bd 4bad d7bd 8588 333d 619f 16be
0.03003263 0.10359192 0.17322011 0.07902012 -0.10981961 0.061265003 0.009802417 0.1556771
0.10729397 0.0009305052 0.01769667 0.078269176 0.17603274 0.10277164 0.03350699 0.101956844
0.10860392 0.12648465 -0.013194816 0.0666832 -0.015147375 0.13640149 -0.07695757 0.02476666
-0.07529237 -0.02173518 0.07060085 0.013519521 -0.1759539 0.026544767 -0.07705565 0.006867985
0.05792794 -0.012395127 0.08661953 -0.16261351 0.023550702 0.14167452 0.00784752 0.14786854
-0.066828266 0.053821858 -0.14438435 -0.024198579 -0.108260125 0.07960794 0.07567041 -0.030455468
-0.101954445 -0.08908792 0.10192576 -0.056777045 -0.17401794 0.12590507 0.021566154 0.11603541
0.07345609 -0.022757389 -0.1493927 -0.009803976 -0.010678713 0.0495233 -0.16970171 -0.0146976095
-0.14287047 -0.09207667 -0.16600995 0.1308558 0.15326953 -0.084620014 -0.0741123 0.09656275
-0.0043131066 -0.038004708 -0.026000166 -0.16584848 -0.120217726 0.11800626 -0.11909353 0.09984253
-0.07143031 -0.120968096 -0.08413855 0.109667376 -0.1679991 0.07174415 0.049178768 0.059159603
-0.1534182 -0.13071243 -0.033509597 -0.06308014 -0.059513718 0.05820641 0.0841842 0.13917394
-0.0881973 -0.097080834 0.16353048 -0.017744025 -0.04997492 0.09954325 -0.1307875 0.07150986
-0.07287189 -0.0040077777 -0.073175795 -0.13486998 -0.022906424 0.03597451 -0.08333658 0.0250254
-0.1516779 -0.11877645 0.073049925 0.1367866 0.09272481 -0.11658277 0.11827211 -0.11408651
0.08230545 0.030747486 -0.04218685 -0.15052433 -0.15251648 -0.17341357 -0.027103577 0.14116946
0.06415016 0.14326961 -0.15327834 0.11835718 -0.033505853 0.08626312 -0.13149688 -0.121610075
0.1415754 0.11603097 -0.11544841 -0.13846938 -0.049754947 0.17354023 0.14552172 -0.07525952
0.024000952 0.09670375 -0.13793316 -0.036642864 0.13540094 0.07750236 0.07348482 0.15502325
0.07747754 -0.17601477 -0.10319587 -0.06701004 -0.14896744 0.113621384 0.005636833 0.15347286
-0.01867465 0.049046185 -0.042828877 0.15999648 0.121744126 -0.042327493 0.0012478075 -0.03378692
-0.086653806 -0.17257464 0.089499205 0.11358931 -0.12377822 0.12137665 -0.13331057 -0.14913991
0.036419425 0.024390748 -0.060199887 -0.025014568 0.028411962 -0.10125844 0.14042225 -0.10650737
-0.040412243 -0.17303008 -0.053359475 0.020347327 -0.06814517 -0.14426026 -0.055168353 -0.10242073
0.16994536 0.17467962 -0.004782246 -0.07068223 0.10201052 -0.032229472 0.14114048 0.10551546
0.13218857 0.1633776 -0.04514801 -0.15991539 -0.044834584 -0.16904444 0.08878284 -0.03910919
0.11099138 -0.13016647 0.0579706 0.048621498 0.15485007 -0.12541413 0.042569235 -0.09500651
-0.041410744 0.13753778 -0.06825144 0.09324338 0.04045327 0.0026201513 0.14775452 0.025661074
-0.12233576 0.16197337 0.12200703 -0.067735486 0.12011751 -0.029827416 0.05269247 0.013325767
-0.14714481 0.16966103 0.132489 -0.15744072 -0.17229612 0.17121284 0.07288949 -0.02740225
-0.0609445 0.14039148 0.11404836 -0.1749856 -0.06833614 -0.08795411 -0.16155723 -0.026055615
0.067108594 -0.042494785 -0.123027526 -0.03475765 -0.040217437 -0.105311 0.043831367 -0.14709236

rnn.bias_ih_l0 f4 [32]
00000000: 63fa 323e b8a2 a13b fc10 d93c 4edf 81bc
00000010: a748 99bc e4f7 96bd 02c2 62bd d973 c3bd
00000020: a16a d8bc 48b2 c7bd c608 cc3d 8f3b 8cbd
00000030: beba b0bc 6e57 2bbe de9a 11be c7e6 0fbd
00000040: 240b aa3d 3dd8 2fbc 9683 cfbb 74cd f93d
00000050: 4d3b a73d a90a ac3d 668c 993d d405 d13d
00000060: 533c 21bd 4a38 8c3d 9519 fdbd 495f 95bd
00000070: 0c3f 1fbe 6cf9 80bd 36ab 29be d31f 333d
0.17478327 0.0049327277 0.026497357 -0.01585355 -0.018711401 -0.073715 -0.0553608 -0.095435806
-0.026418032 -0.09750801 0.09962611 -0.068472974 -0.02157342 -0.1673257 -0.14219233 -0.035132196
0.08302906 -0.010732708 -0.006332825 0.1219739 0.081656076 0.08400471 0.07497482 0.1020619
-0.03936417 0.06846674 -0.12358395 -0.07293565 -0.15551394 -0.062975734 -0.16569218 0.04373152

rnn.bias_hh_l0 f4 [32]
00000000: 5ccf aebd 80a0 b0bc 0c63 1c3e 96a1 0e3d
00000010: 35e3 1ebd 9d47 9cbd d946 bdbd 2abf e2bc
00000020: 73b1 2dbe 2fa0 0cbe fadc 243e 267f 0e3b
00000030: 6b2d 243c 8eda 21be f57a 083e 05e9 6ebd
00000040: 58de 423d 7e42 98bc d783 cdba 0b56 c7ba
00000050: 068b 23bd 4589 07bd 8044 e83d a7c3 21be
00000060: 2410 34be 59ef d33c 2098 023d 48fb 0a3c
00000070: fe67 123b 0af7 51bc 4f62 ffbd d1f5 29be
-0.085356444 -0.021560907 0.15272158 0.03482207 -0.0387909 -0.07630847 -0.09242029 -0.027679045
-0.16962223 -0.1373298 0.16099921 0.0021743267 0.010020594 -0.15806028 0.13328154 -0.058327693
0.047575325 -0.018586393 -0.001567955 -0.0015208138 -0.039927505 -0.033089895 0.1134119 -0.15797292
-0.17584282 0.025870966 0.03188336 0.008482762 0.0022339816 -0.012815246 -0.12469923 -0.16597678

rnn.weight_ih_l0_reverse f4 [32, 128]
00000000: 5ecd 523d a0c6 bc3d 5185 bcbd 8d70 d6bd
00000010: 6ca1 053e 8adb 953d 6114 c1bd 98c4 a53d
00000020: aa72 15be 4b0f 843d 64cf b83c a18b f13c
00000030: a93f 853d 9476 233e f2e8 113e 2d26 bbbd
00000040: 8a4c 0e3e ebf6 8abd 3319 f53d 19c1 173c
00000050: 1006 a2bc f838 353e e7aa a73d 45bf 6a3d
00000060: 3651 7e3c e8ea d4bd 9997 c33d ae2f 07be
00000070: 9fb1 073e 2f94 14bd c14b ea3d 02f9 e7bc
00000080: 350e 8dbd 1a85 8cbc f4d2 fcbd d1c8 d7bd
00000090: 454c 09be 729b 323e d96f ff3c 5884 2ebd
000000a0: 141c 08be 33e0 87bd 84f8 873d a0b0 ddbd
000000b0: 5d0d 0cbe 952d 0abe 3f35 b73d 311c afbd
000000c0: 0499 1f3d f429 f33d f5b0 643d 9938 1fbe
000000d0: 3fd0 80bd a9e1 ce3c 58f3 14be 2515 9ebd
000000e0: 0a53 f63d 8619 123e a365 28be b7de 723c
000000f0: 4529 e63d 6e2d 82bc b4fc 143e 5b7f 973d
00000100: 25c4 213e e0c1 f0bc 43c6 313e 8ddb 613b
00000110: 209f 273e c877 05bd 1167 88bd d259 25be
00000120: e08f 98bb 44da 113e aa14 28be 5a8a 2a3e
00000130: 4f78 363d af28 32be 5d17 103e e250 7ebc
00000140: b9da 283e cda0 f93c e58a 20be f2fc d4bd
00000150: fa80 28be b1e9 03be 0853 773d d53b 273e
00000160: 182f a8bd 6bd9 333e 38f0 e2bc 956e 003e
00000170: b0bd debb 82f0 233e 0a49 673d ec96 1c3e
00000180: 4945 92bd dadd c13c 516d a23d 2274 d53c
00000190: 7392 04be cfe0 833d 4c6e b6bc d5a3 72bd
000001a0: 2c1f ccbc b6e1 2fbe 6044 323d 7fe0 32bd
000001b0: 122a e4bd dce7 93bc e387 66bd 5e33 15be
000001c0: 468d 1cbe ad4a 25be b666 c13d 2d9e abbd
000001d0: 2742 74bd 545a c63d 4efa a03d 6eb1 133e
000001e0: 7d6e 95bd e76a e23d 44c1 01be 62e0 cdbd
000001f0: 7518 0f3e 3dc3 e5bc cae6 193e 13e2 fa3a
00000200: 89ee 27bd eb40 05be 9879 1fbe 106f 0e3e
00000210: 84b1 14be b333 e13d 66c0 a53d 094a 353c
00000220: b570 eb3d 579e a5bd e6fe 07bc d249 fb3d
00000230: ceee 6dbd 9efc 0abe 3e1d 9bbd f84b d83c
00000240: 308b e5bd 5a32 debd 4c74 28be 5fa7 e1bc
00000250: df3b acbd 98f3 6a3d 095f 81bd 0529 2abe
00000260: cbc2 ff3d 632c 053e 0ef0 2fbe f75a 6abb
00000270: c520 e83d d31a bc3c 7121 8abd 0e67 9dbd
00000280: d54a 343e 2833 90bc 0a40 8dbd d344 4d3d
00000290: 5da4 0d3e c44a 313e 0000 813d 6672 cd3c
000002a0: 0559 273e 08e3 1cbe 153d 283e 3f41 78bd
000002b0: e6c7 923d d5cf 80bd f8a0 67bc 5ac4 29be
000002c0: ae45 d0bc c224 e3bd 0e74 85bd 1bda 00be
000002d0: fac8 a83d 6175 2d3e 979e d4bd 1ffd e53d
000002e0: 5088 663d d75f 1d3e 26a5 9fbd 4dd9 59bd
000002f0: a005 aa3d 281f 0abe 3a1f e1bd ea53 753d
00000300: 978f a4bd d29c 4e3d 8aa1 4f3d 14c8 34be
00000310: 562b 5cbd 7420 ba3c c1da a2bd b73e 2dbe
00000320: 73d1 a5bd 5dff 343e 42c7 92bd 239f b63d
00000330: cdc4 1dbd ff9f c4bb 153b f93d 4dd8 06be
00000340: f1ac 21bd 7ce5 1abe 0852 b1bd e988 d73d
00000350: 2ad6 17be 90e4 c13d e06d a2bb 0527 053c
00000360: 3533 0f3d 0fc4 4d3c 4e4b 243e 7022 1fbe
00000370: cf29 fbbc 339c 023e 32ab be3d 78cc 1b3e
00000380: d57d efbd a8d0 d5bd ca6e 53bd 32c2 2b3e
00000390: 2ea8 0ebe e4d7 2ebd 29aa 6abb 9e1b 13bd
000003a0: 9647 a7bd c7ac 293e 1fcb 04bd ce54 58bd
000003b0: d616 a63d 73d6 d6ba e15e a63c 7156 05bd
000003c0: bf6b cb3c 1501 5dbd 98ab 1fbe 187b 2f3e
000003d0: adb4 f63d 89ca 2d3e d73e 01be de46 b0bd
000003e0: 3e7f a33d b7ee 4f3c 9cfd 363b 7009 c43d
000003f0: aef7 fd3d a85a c73b 72f2 4fb9 82ad a2bd
0.051465385 0.09217572 -0.092051156 -0.10470686 0.13049859 0.073172644 -0.09427715 0.08094138
-0.14594522 0.064482294 0.022559829 0.029485526 0.06506283 0.15963203 0.14249018 -0.09138141
0.13896385 -0.06785377 0.11967697 0.009262347 -0.019778281 0.17697513 0.08186894 0.057311315
0.015522292 -0.10396367 0.09550399 -0.13201782 0.13251351 -0.03627413 0.1144023 -0.028316978
-0.068874754 -0.017153312 -0.123449236 -0.105363496 -0.13408001 0.1744211 0.031181263 -0.04260668
-0.13291961 -0.066345595 0.066391975 -0.10824704 -0.13676973 -0.1349395 0.08945703 -0.08550299
0.038964286 0.11873236 0.055832822 -0.15548934 -0.0628972 0.025254088 -0.14545953 -0.07718877
0.12027557 0.14267549 -0.16445021 0.014823607 0.1123834 -0.015890803 0.14549524 0.07397338
0.1579748 -0.029389322 0.17360787 0.0034463138 0.16369295 -0.032584935 -0.06660283 -0.16147545
-0.004655823 0.14243418 -0.16414133 0.1665434 0.04454833 -0.17398332 0.14071412 -0.015522214
0.16489686 0.030472184 -0.15677984 -0.10399808 -0.1645545 -0.12882115 0.06038192 0.16331418
-0.082121074 0.17563407 -0.027702436 0.12542184 -0.006797515 0.16009715 0.05646614 0.15291947
-0.07142121 0.023665357 0.07931007 0.026056353 -0.12946491 0.06439363 -0.02226939 -0.059238274
-0.024917208 -0.17175946 0.04352224 -0.043671127 -0.11140837 -0.018054895 -0.056281935 -0.14570376
-0.15288267 -0.16141768 0.09443419 -0.08379779 -0.0596334 0.096851975 0.07860242 0.14423153
-0.072964646 0.11055546 -0.12671381 -0.10052563 0.13974173 -0.028047198 0.15029445 0.0019140862
-0.04099897 -0.13013045 -0.15573728 0.13909554 -0.14520842 0.10996189 0.08093338 0.011065015
0.114961065 -0.080868416 -0.008300519 0.122699395 -0.05808907 -0.13572928 -0.07573937 0.026403412
-0.112081885 -0.108494475 -0.16450614 -0.02754563 -0.08409857 0.057361215 -0.06316955 -0.1661721
0.12488326 0.13005213 -0.17181417 -0.0035759786 0.11334375 0.02296201 -0.0674466 -0.07685672
0.17606671 -0.017602518 -0.0689698 0.050114464 0.13832231 0.17313677 0.06298828 0.025078963
0.16342552 -0.1532098 0.16429551 -0.0606091 0.07167034 -0.06289641 -0.014137499 -0.16578808
-0.02542385 -0.11090995 -0.06516276 -0.125832 0.08241458 0.16939308 -0.10381811 0.1122992
0.05628234 0.15368591 -0.077951714 -0.05318575 0.08301854 -0.13488448 -0.10992284 0.05989448
-0.080352 0.050442524 0.050691165 -0.17654449 -0.053752266 0.022720553 -0.0795188 -0.16918455
-0.0809659 0.17675538 -0.07166912 0.08917072 -0.038517762 -0.0060005183 0.12169472 -0.1316845
-0.03947157 -0.15126604 -0.08658224 0.105241604 -0.14827791 0.09467423 -0.004956946 0.008126979
0.034960944 0.012558951 0.16044351 -0.1554048 -0.030659584 0.12754898 0.09309997 0.15214717
-0.116939224 -0.10440189 -0.05161933 0.16773298 -0.13931343 -0.042686358 -0.003580699 -0.03591501
-0.08167951 0.16569816 -0.032420274 -0.05281525 0.08109824 -0.0016390815 0.020308914 -0.03255314
0.02483165 -0.05395611 -0.15592802 0.171368 0.1204618 0.16971792 -0.12621628 -0.08607267
0.07983254 0.012691191 0.002792216 0.095721126 0.12400757 0.006083805 -0.00019831376 -0.0794325

rnn.weight_hh_l0_reverse f4 [32, 32]
00000000: a5f4 433d e75e 8dbc c6c4 ae3d b7de 913d
00000010: 45e4 843d cd0a 28be 102d 6ebd ae7d 36bd
00000020: d9e7 203d 0948 f73d 8463 c0bc 847d 94bd
00000030: 5dd7 0cbe 5757 ddbd e3be ebbc ff85 c93c
00000040: e4db 683d c338 093e 8934 223e 8219 a2bc
00000050: 23bd e7bc 37eb 163d 7205 6dbd 0407 6c3c
00000060: d6ed 813d 188a 183e 0cc4 623d f7e6 2f3e
00000070: b934 1fbd d4a5 eebd 4461 92bd f49e e53d
00000080: a07a d13d 52f6 03be 9b96 6fbd 5d2a b73d
00000090: db95 22bd 7f99 e73d d756 a1bc 1312 723d
000000a0: 25d4 dbbd 2ff9 38bd d0ab 2b3e 2953 1d3e
000000b0: 9419 5fbd 0404 cbbd baf2 f93c 8224 79bd
000000c0: d7db 993d 5de6 b9bd 9237 5e3d 97a2 b0bd
000000d0: 3d19 f8bd c9b6 b43c 9fc4 21be d35e 79bd
000000e0: 0183 cb3d 3a9f 263e a185 193e 4af9 fe3d
000000f0: 9530 f4bd 5ad0 163d da24 003d af2b 98bd
00000100: ad4e 23be a0df 333e 1c80 0f3e 84ee d33c
00000110: f074 2b3e a585 f43d 1536 0ebe 4c32 c43c
00000120: 742c cbbd 8dd6 ebbd 90ca f93b d867 073d
00000130: d246 a73d ea1b c6bd be05 0abe 5a84 843d
00000140: f592 c63d 08fa 4b3d 0538 3cbd 56f8 803c
00000150: 26d7 7dbc 2a82 2dbe f96e 9a3b b997 c43c
00000160: b991 00be 0752 f7bd 3292 0c3e 6954 05be
00000170: a983 82bd 615d bb3c 103d d9bd 184e d2bd
00000180: 69dc 9b3d 5e25 30bc 397d 1f3e da64 ce3d
00000190: c8e1 09be 8e73 1c3e ad6d 18bd 3f9a 073e
000001a0: 6817 b2bd 4d39 1d3d 9410 013e ebba 68bc
000001b0: 80c9 2c3e 5f9e a4bd 4967 e6bc 9cfd 13be
000001c0: 42ba dfbd eb3f ce3d a569 bebd 9f36 90bd
000001d0: 5f5e 27bd 278e 863d 5533 ff3d bbe5 0e3e
000001e0: 94cd cf3d 0438 2a3e ef2d b4bd d45c acbd
000001f0: 026a 93ba 8ceb e03d 83f1 d83d bab4 343e
00000200: 8340 0e3d 9dcc 013e 3795 1bbe dcdc e7bc
00000210: 68e5 0c3e ad6e 20be f8ba 173d 6521 16be
00000220: 445f 0dbe cd39 d23d d3c3 f93d 4c4f 1d3e
00000230: 48b3 153e 5e36 e93c a11c 0c3e 0a23 debd
00000240: 7db1 1abd 7ec4 d5bd 825c 1dbe 8aae 95ba
00000250: e2b0 1b3e 2c71 88bd 5f6a 593c 6a9a 103d
00000260: cf60 adbc 2a31 c83d 27a0 343c 0479 233e
00000270: 8b35 083e 6877 5abc dd4d 2c3e 5709 e5bd
00000280: 199a 3ebd 93fd 823d 5d34 823d 424b f43d
00000290: f09b 27be f1c3 2ebe 2789 8c3d 8bff a53c
000002a0: 8351 293e 306a b0bd 6ce2 07bd 542a 4e3d
000002b0: 1e6a 013e 1f13 8dbd 2f64 003d b8c3 21bd
000002c0: 9a38 623d e0f3 9dbc 2a9c 1fbe c618 2c3e
000002d0: 311e a1bd 671c 08be 7cd0 27bc 3d35 0d3e
000002e0: 0dd4 86bd 9891 153e 359f f53d 9731 86bd
000002f0: 9494 32bd 1aad 28bc 5d3d 053c b9e1 60bd
00000300: e512 33be 2236 dc3d 015b f23d 3303 c1bd
00000310: 847a 08be ddd4 43bd 17e9 533c cef3 fc3c
00000320: 3a10 2e3e c1c3 543d 447e 08be 99a4 9b3d
00000330: 24f4 463c 0b7b a1bd dafd febd 7a8c 2e3e
00000340: 1061 efbd 8bd2 7ebd f313 273e bf5d 083e
00000350: 3351 023e 289b b3bd 603b fcbd 99f4 1e3e
00000360: d023 703d 2a6b 053e 8145 fdbd 8499 b0bc
00000370: 3570 2ebe f098 113e 5633 963d f4fa 0a3e
00000380: 82aa 313e 214e 0fbe 7bf7 333e 4384 e5bb
00000390: 35ea f6bd 7edb 0dbe c44d da3d 65ef 9fbd
000003a0: 8dc4 f4ba ff54 ce3d 9e3a f33d 159f 0abe
000003b0: 4727 133e ee0f 043e 538e 0bbe 56a2 f6bd
000003c0: 18c0 bfbd 1e06 91bd dcc5 153d 354d 053e
000003d0: f5f3 2cbe 4e2a 51bd 5963 903d ade7 20be
000003e0: a14f 2abe b7f2 923c 2b8e 8ebd bc93 a8bd
000003f0: 17c1 90bd 757c 9fbd eb1c f53d 8c0d 32be
0.047840733 -0.017257167 0.08533625 0.071225576 0.064888515 -0.1641037 -0.058148444 -0.04455345
0.039283607 0.120742865 -0.023484953 -0.07250503 -0.1375403 -0.108076744 -0.028777545 0.024600027
0.05685033 0.13400559 0.15840353 -0.019787554 -0.02828843 0.036845412 -0.05786652 0.0144059695
0.06344192 0.14896429 0.055362746 0.1717795 -0.03886864 -0.11652723 -0.07147458 0.112119585
0.10228467 -0.12886932 -0.058493238 0.08943627 -0.039693695 0.11308574 -0.019694729 0.05909927
-0.10733823 -0.045159515 0.1676476 0.15363754 -0.054467753 -0.09912875 0.030511249 -0.060825832
0.07512634 -0.090771414 0.054252215 -0.086247616 -0.12114189 0.022059815 -0.15797661 -0.060881447
0.099370964 0.16271678 0.14992382 0.12449892 -0.11923329 0.036819793 0.031285144 -0.07430207
-0.15947981 0.17565775 0.14013714 0.025870569 0.16743827 0.11939553 -0.13887818 0.023949765
-0.09920588 -0.11515532 0.0076230243 0.033058017 0.08167805 -0.09673293 -0.13478753 0.064705566
0.096959986 0.049798995 -0.045951862 0.015743416 -0.01549319 -0.16944185 0.004712936 0.023998128
-0.12555589 -0.12076192 0.13727644 -0.13020481 -0.063727684 0.022871675 -0.1060735 -0.102688015
0.07610399 -0.0107510965 0.15575112 0.1007783 -0.13465035 0.15278456 -0.03721397 0.13242434
-0.08695871 0.038384724 0.1260398 -0.014204721 0.16873741 -0.080380194 -0.028125422 -0.14452213
-0.10924198 0.10070785 -0.09297494 -0.07041668 -0.040861484 0.06570082 0.12460963 0.13954823
0.10146633 0.16622931 -0.08797824 -0.08416143 -0.0011246803 0.10982427 0.1059294 0.17647067
0.034729492 0.1267571 -0.1519364 -0.028303556 0.13759387 -0.1566722 0.03704354 -0.14661177
-0.13805872 0.10264931 0.12195554 0.1536228 0.14619172 0.028468307 0.13682796 -0.10846527
-0.037766922 -0.104378685 -0.1536732 -0.0011419815 0.15204194 -0.06662211 0.01326999 0.03530351
-0.021164326 0.09775002 0.011024511 0.15964133 0.13301675 -0.013334133 0.16826577 -0.11183422
-0.046533678 0.06396022 0.06357644 0.11928417 -0.16368079 -0.17066933 0.06862097 0.020263454
0.16535 -0.08614004 -0.033174917 0.050333336 0.12638137 -0.06888413 0.031345543 -0.039493293
0.05522976 -0.019281328 -0.15586916 0.16806325 -0.07867087 -0.13292085 -0.010242578 0.1378984
-0.06583414 0.14606321 0.11993257 -0.06552427 -0.043598726 -0.010295177 0.008132306 -0.054902766
-0.17487676 0.107525125 0.11833764 -0.09424438 -0.13327986 -0.047810424 0.012933991 0.030877974
0.16998377 0.051944498 -0.13329417 0.07599754 0.012143169 -0.07884797 -0.12450762 0.17045775
-0.11688435 -0.06221251 0.16316204 0.13317011 0.12726288 -0.08769828 -0.123160124 0.15522994
0.058627903 0.13029161 -0.123667724 -0.021557577 -0.17034991 0.14218497 0.0733401 0.13572294
0.173502 -0.13994648 0.17574875 -0.007004292 -0.1205639 -0.13853261 0.10659364 -0.07809333
-0.0018674299 0.100748055 0.11876415 -0.13537247 0.14370452 0.12896702 -0.13628511 -0.12042682
-0.09362811 -0.07081245 0.036565647 0.13017733 -0.16889937 -0.051065736 0.07050199 -0.15713377
-0.16631939 0.017938001 -0.0696071 -0.08231303 -0.07068079 -0.0778741 0.11968406 -0.1738798

rnn.bias_ih_l0_reverse f4 [32]
00000000: 38a4 c33d ad80 debd 2c8c 343e 3728 6ebd
00000010: 754c db3d 2552 04bd 0228 0d3e e291 09be
00000020: f678 82bd 58eb 043d a112 e13d 4148 203e
00000030: e247 103e 046b 2ebe 020a 98bd 2a8c 99bd
00000040: 792a 29be bc1d 18be e51d e2bd fb85 9bbd
00000050: b768 a73d 084d 6f3d 5641 bebd 7464 133e
00000060: 54b2 303e 4cfe 1dbe 7c86 493d 8b44 923d
00000070: ead0 0a3e 0645 10bd 69e3 1cbe 5b7f 20bc
0.095528066 -0.10864387 0.17631596 -0.05814382 0.107079424 -0.0323049 0.13784793 -0.13434556
-0.06370728 0.032451004 0.10989881 0.15652563 0.14089921 -0.1703301 -0.07423784 -0.07497437
-0.16520108 -0.14855093 -0.11040858 -0.07593914 0.0817427 0.058423072 -0.092898056 0.14393789
0.17255527 -0.15429038 0.04920052 0.0714198 0.13556257 -0.035222076 -0.15321125 -0.009795989

rnn.bias_hh_l0_reverse f4 [32]
00000000: 46ea ca3d df61 31be 521c f63d c963 23bd
00000010: ab25 283e a035 96bd 3a5b 8abc df48 be3b
00000020: c576 20be 18dc a2bc c9f0 153e 9af5 2e3e
00000030: 5248 b23c 36a7 013d 1d39 cfbc 5a19 bb3c
00000040: 5ca5 45bd dce8 86bd c94f 04be b60d 213d
00000050: 89e8 9d3d 44f9 753d 1c00 713d 0c44 62bd
00000060: e59b 643d 29a3 143e 1cd9 93bd c11a 373d
00000070: 9b75 9abc c471 ea3d 84e6 173e 4f53 04be
0.09907965 -0.17322491 0.120171204 -0.039890084 0.16420619 -0.07334447 -0.016889203 0.0058070268
-0.15670307 -0.01988034 0.14642633 0.17085877 0.021763 0.031653605 -0.025295788 0.022839237
-0.048253402 -0.06587383 -0.1292106 0.039319716 0.07710368 0.06005217 0.058837995 -0.055240676
0.055812735 0.14515366 -0.07219145 0.04470325 -0.018854907 0.1144748 0.14834028 -0.12922405

fc1.weight f4 [12, 64]
00000000: e878 59bd 68cb dcbd b410 9a3d 4211 91bd
00000010: a8d6 b4bd 78ef bbbd 72da 94bc a478 493d
00000020: 36c2 c13c fcc5 59bd ba1d 81bd c43b 093c
00000030: b23f 82bc 9e4c a2bd fa06 bcbd cce9 32bc
00000040: a8ff 38bd 2c9a cfbd 82ae a03d d462 cf3d
00000050: 0893 9e3d 7c80 913d 5adf bfbd 28b8 153d
00000060: 7c41 fa3d fcc6 d4bd 6210 bebd 0cad 593d
00000070: c84a 633d ea1f 8ebd 16b3 f83d 5084 f33d
00000080: ece8 aabd 3c60 59bc 448d a2bd 4add d73c
00000090: 60fc d9bd bcab b4bd aa67 eabd 980a be3b
000000a0: 2cdc e8bd 8c1b 4f3d 5474 07bc 1060 d0bd
000000b0: 6ea7 823d 1e98 ab3d 8844 493d 460b f9bd
000000c0: f284 e23d f8d2 39bd aeca 9e3c da6d bd3c
000000d0: 363c a8bd 6888 853d dc7e 123c 7e99 d43d
000000e0: 2c18 d0bd b6c8 edbd 227c ff3d b0eb 34bd
000000f0: 32b8 a63d 3ae2 abbd c216 b8bc b8e4 f93d
00000100: 961f e43d 94d6 d83d a494 253c 3e26 ee3c
00000110: b872 453d dced 75bd dcc7 b7bd e23c a13d
00000120: 2689 b53d 4cf7 fb3d f4fe 95bd 3095 debd
00000130: 54b1 f43d 74a3 463d f4d4 18bd 7400 24bc
00000140: fea7 b2bd 5675 d3bd 9e52 cdbc 3e1a a8bd
00000150: 7ce3 063c ee05 acbc c4fb 193d b2e8 d0bd
00000160: 9e8a db3c 846b cb3d ac07 88bd b2ea ed3d
00000170: eeaa c2bd a8dd 553d 26d4 c63d 56c8 d3bc
00000180: 1019 96bd 94a0 4f3d 60f6 993d f8db d1bb
00000190: 602c 85bd 7ecc c53d e202 cbbd 3818 b2bd
000001a0: 9e45 80bd e8b0 71bd 705d a1bd 407c 05bd
000001b0: b4e8 963d 72ae debd 3a32 0d3a 325c 7cbb
000001c0: e6b9 8f3d 984f 7d3d ca8f 8ebc ac45 2a3d
000001d0: 02d5 febc 9adb dc3c ba71 cdbc 487d 283d
000001e0: 6081 2f3d f83a 34bd 5cf0 e83d 2afb da3d
000001f0: 8639 a73c 5a7d fdbc 84d7 c03d 6a0b af3d
00000200: 78ab ae3d 7409 f43d dc9d 2abc 68c0 65bd
00000210: 321d 86bd f2a6 913c feaa febd f085 e7bd
00000220: b2d9 ba3c 0e2a 90bd 524d 803c 0ee2 34bb
00000230: 5815 d3bd b23d dc3c b87d 9d3d 56b0 fe3d
00000240: 8a98 26bd e842 be3d 0eaa d0bd 7005 a33d
00000250: ac2a 9abd 22c4 89bd 348d 533c 8667 ee3c
00000260: 4e15 e2bc 1c71 213d d4bb 6ebd e489 33bd
00000270: 92d2 ecbc 6a07 f53d 5aa5 f13d 5a4b b6bd
00000280: 929b 1cbd 68e9 d33b 9e07 81ba 48d7 d7bb
00000290: 64d7 0f3c befc f13d 6e1a 00be 9291 df3d
000002a0: dab4 62bd 3816 bcbd b8fc d13d 628a 87bd
000002b0: 8616 bcbd 5c8d d2bd 0c9d fd3d 9e1e e73d
000002c0: 3c97 863d d832 e43d 0e4b c8bd 44ee d9bd
000002d0: 085c d23d 62bd 96bd 6adf d33d c2b8 61bd
000002e0: 388f 19bd 92f8 cabd f8bc bb3d 1e8c a1bd
000002f0: 4896 5c3d faac b6bd 4240 b23d 8a46 ccbc
00000300: 7800 8f39 1021 013d 9e90 2e3d bcd3 cf3d
00000310: 66be ccbc 16b1 3abd 9c4f 8bbd 8edd 843c
00000320: 884f a93b 3e9e 9c3d f6a9 ffbd ec22 76bd
00000330: da75 d23d 7c00 e6bd 1b08 ac3d 860c 953d
00000340: 3c61 363c dca6 3ebd 3638 fd3c 7cd7 c7bd
00000350: ce63 adbd e882 83bd f4e9 3b3c c45d 893d
00000360: 0890 c2bd 0095 eebd f8a1 bf3b a824 a73d
00000370: 9e05 ea3d 78ba 303d a270 8f3d ac38 a8bd
00000380: a2c4 133d 10ff 393d 768c 923c 3eed a83d
00000390: 2e4a 88bd 10cc 5abd 06ac ed3d b8aa f9bd
000003a0: 54bf 53bd 80f8 3fbd b869 873d c8b2 d43b
000003b0: 1e73 c83a a6fc bbbc 126d 90bd 1a91 863d
000003c0: 7449 933d feb7 babc 7edc e03d 4449 053c
000003d0: 3883 52bd 6865 bd3b 36be fcbc b2c8 da3d
000003e0: f046 973d 806c 3e3d 22ae c1bc 641e 9e3d
000003f0: 82ac ea3c 5256 e8bc 22e8 dcbd e6ac b33c
-0.05309382 -0.10780984 0.07522717 -0.0708337 -0.08830005 -0.091765344 -0.01817057 0.049187317
0.023652177 -0.05316733 -0.06304498 0.008376066 -0.015899513 -0.0792477 -0.09181018 -0.010919999
-0.045165688 -0.10136828 0.07845785 0.10126272 0.07742888 0.071045846 -0.09368773 0.03655258
0.122195214 -0.10389516 -0.092804685 0.053143546 0.05549124 -0.06939681 0.12143533 0.11890471
-0.083452076 -0.013267573 -0.079371005 0.026350636 -0.1064384 -0.08821818 -0.114455536 0.0057996027
-0.113701195 0.05056338 -0.008267481 -0.101745725 0.06379591 0.083786234 0.049137622 -0.12160353
0.110605136 -0.04536721 0.019383755 0.02312367 -0.08214609 0.06520158 0.008941378 0.10380839
-0.101608604 -0.11610548 0.12474848 -0.04417008 0.08140601 -0.08392759 -0.02247179 0.12201828
0.11138837 0.105878025 0.0101062395 0.02907097 0.048205107 -0.060041294 -0.08973667 0.078729406
0.088640496 0.123030275 -0.07324019 -0.10868299 0.11947885 0.048495725 -0.037312463 -0.010009874
-0.08723448 -0.103251144 -0.025063809 -0.0820813 0.008232947 -0.020998921 0.037593618 -0.10200633
0.026799496 0.09932616 -0.06642088 0.1161703 -0.095052585 0.05221334 0.09708433 -0.025852364
-0.07328999 0.05069025 0.075176954 -0.006404396 -0.065026045 0.096581444 -0.09912659 -0.086960256
-0.062632784 -0.0590066 -0.0787915 -0.032589197 0.07368603 -0.108731166 0.00053862075 -0.00385071
0.07017879 0.061843485 -0.017402548 0.04157035 -0.03110743 0.026960183 -0.025078643 0.041135103
0.04284799 -0.04400155 0.1137397 0.10692437 0.020413171 -0.030943561 0.09416106 0.08547099
0.08528799 0.119158655 -0.010413613 -0.056091696 -0.06548537 0.017779801 -0.12434958 -0.113048434
0.022808883 -0.07039271 0.01566187 -0.002760056 -0.10306805 0.026884887 0.076899946 0.12435977
-0.040672816 0.09290105 -0.10188685 0.079600215 -0.0752767 -0.067268625 0.012912083 0.029102098
-0.02759805 0.03941451 -0.058284596 -0.043832675 -0.028909001 0.11964305 0.117991164 -0.08901091
-0.0382343 0.006467033 -0.0009844189 -0.006586943 0.0087793805 0.11815785 -0.12510082 0.10916437
-0.055348255 -0.091839254 0.102532804 -0.06618191 -0.091839835 -0.102808684 0.1238347 0.11285137
0.065718144 0.1114251 -0.097799405 -0.10641149 0.1027146 -0.07360341 0.10345347 -0.05510784
-0.0374901 -0.09910692 0.09166902 -0.07888053 0.053854257 -0.089197114 0.087036625 -0.02493598
0.00027275435 0.03152567 0.042618386 0.10147807 -0.024993133 -0.04557904 -0.06802294 0.016218927
0.0051669516 0.0764737 -0.12483589 -0.060091898 0.10276385 -0.11230561 0.083999835 0.07277779
0.011131581 -0.04654585 0.030910593 -0.09757897 -0.08466302 -0.06421453 0.011469353 0.067073375
-0.09500128 -0.11649513 0.0058481656 0.081612885 0.11426853 0.04314658 0.07003905 -0.08213934
0.036076196 0.045409262 0.017889243 0.08248375 -0.06654774 -0.053417265 0.116050765 -0.12190765
-0.051696137 -0.046867847 0.06611961 0.006491039 0.0015293097 -0.02294762 -0.070520535 0.06570645
0.071917444 -0.022792812 0.109795555 0.008135144 -0.05139467 0.005779911 -0.030852418 0.10682811
0.07386577 0.046490192 -0.023642603 0.0772064 0.028646711 -0.028361473 -0.10786463 0.02193303

fc1.bias f4 [12]
00000000: 7293 cdbd e629 b53c 6055 47bd a885 813b
00000010: 840d 463c d096 f8bd 10f5 6a3d 723d 993d
00000020: e888 b1bd 6c78 95bd 3614 b2bc 7a57 c53c
-0.100378886 0.022114705 -0.048665404 0.0039527006 0.012088183 -0.1213814 0.057362616 0.07482423
-0.08668691 -0.07298359 -0.021738153 0.024089564
