src/src_learner/python3_finetuning_model.pt (torch, 100551 bytes, 11 tensors)

word_embeddings.weight f4 [102, 128]
0	0xbfbf3853	-1.4939064
1	0xbf318156	-0.69337976
2	0xbf1a3b0b	-0.6024634
3	0xbfced3bb	-1.6158365
4	0xbdc3f02d	-0.09567294
5	0xbeeffddb	-0.46873364
6	0xbf868cf9	-1.0511771
7	0xbfc5b310	-1.544527
8	0xbf54eacf	-0.8317079
9	0x3e817722	0.25286204
10	0xbf49b402	-0.78790295
11	0xbea2c01d	-0.31787196
12	0xbe187c90	-0.14891267
13	0x3fd8281b	1.6887239
14	0x3ec8a0c1	0.39185145
15	0x3ee2e18e	0.4431271
16	0xbf30f092	-0.6911708
17	0xbf90fcc4	-1.1327138
18	0x3f2d548c	0.67707133
19	0x3e1d7053	0.1537488
20	0x3f5762a7	0.84134907
21	0x3e48f4f1	0.19624688
22	0xbf1c3726	-0.6102165
23	0x3f607410	0.876771
24	0x3f94e3db	1.1632036
25	0xbe992bc6	-0.2991621
26	0xc00cd801	-2.2006838
27	0xbfc10c0f	-1.5081805
28	0x3c53b7b7	0.012922219
29	0xbf2f09d3	-0.68374366
30	0xbf625c90	-0.8842249
31	0xbdd4d5d6	-0.103923485
32	0x3ff8c0d4	1.9433846
33	0xbd85d48d	-0.065346815
34	0x3e8a6422	0.2702952
35	0xbf5befce	-0.8591279
36	0x3e96efc8	0.29479814
37	0x3d045f8f	0.032317694
38	0x3e3b7f25	0.1831022
39	0xbef112d6	-0.47084683
40	0xbdcd08c8	-0.100114405
41	0x3eb2288a	0.34796554
42	0xbe134309	-0.1438104
43	0xbda63e9f	-0.08117413
44	0x401cc9b4	2.449811
45	0xbf7fee13	-0.9997265
46	0x3fc05031	1.5024472
47	0xbf0cf2a6	-0.5505775
48	0xbf6937ba	-0.91100657
49	0x3f225def	0.6342458
50	0x3d066d1d	0.032818902
51	0xbec4c8ff	-0.38434598
52	0x3f3bec0e	0.73407066
53	0x3f00f738	0.50377226
54	0x3fa78232	1.3086607
55	0x40020d36	2.0320563
56	0x3dac49ae	0.08412491
57	0x3f6b4cb6	0.91913927
58	0xbe437e65	-0.19091184
59	0xbf19547c	-0.5989454
60	0x3fc70790	1.5549183
61	0xbf7ab40a	-0.9793097
62	0xc0575c09	-3.3649924
63	0xbf3fe20d	-0.749543
64	0xbce6ea22	-0.028187815
65	0xbf8a4be4	-1.080441
66	0xbf1aa141	-0.60402304
67	0xbf7e9c17	-0.99456924
68	0xbdcc6ca0	-0.09981656
69	0xba72630d	-0.0009246327
70	0x3fd2c848	1.6467371
71	0x3d59b125	0.053147454
72	0xbf494222	-0.78616536
73	0xbe80f37c	-0.25185764
74	0xbf7df503	-0.99201983
75	0xbf4a6a89	-0.7906881
76	0xbf0adc1c	-0.5424211
77	0xbf02d50e	-0.51106346
78	0x3ea25429	0.31704834
79	0xbf76d82e	-0.96423614
80	0xbed9c0bf	-0.42529866
81	0x3e0c0c61	0.13676597
82	0xbf15a11a	-0.58448946
83	0x3f48abab	0.78386945
84	0xbfaa892d	-1.3323113
85	0xbf03c905	-0.51478606
86	0x3e47158a	0.1944181
87	0xbe607639	-0.21920098
88	0x3ea150b0	0.31506872
89	0xbee6e902	-0.45099646
90	0xbf851784	-1.0397801
91	0x3f3ae9ee	0.730132
92	0xbf940023	-1.1562542
93	0xbf15468e	-0.5831078
94	0x3ee00b51	0.43758634
95	0x3ff2b639	1.896186
96	0x3f32be7b	0.698219
97	0x3f9798da	1.1843522
98	0x3f590237	0.84769005
99	0xbf6c9f7a	-0.9243084
100	0x3fb57b79	1.4178306
101	0xbf474a24	-0.77847505
102	0xbf82403f	-1.0175856
103	0x3f9a82e8	1.20712
104	0x3fad5115	1.3540369
105	0x3f0c5dc4	0.54830575
106	0xbe0b731c	-0.1361813
107	0x3d5c1f4e	0.053740792
108	0xc001ddd2	-2.0291638
109	0xbf2c2823	-0.67248744
110	0xbfcacf6f	-1.5844554
111	0xbf8fd64a	-1.1237271
112	0x3f6e1657	0.9300284
113	0xbefd5159	-0.49476126
114	0x3fa0cc72	1.2562392
115	0x3f4752ce	0.77860725
116	0x3eb809c8	0.35944963
117	0x3e8da5b7	0.27665493
118	0x3f04ff89	0.51952416
119	0xbf07029c	-0.52738357
120	0x4021f7b4	2.5307436
121	0xbe89918b	-0.26868853
122	0x3bf1ee7b	0.0073831654
123	0x3fe05f2f	1.7529048
124	0xc006fbb3	-2.1091125
125	0x3fe78f9d	1.8090702
126	0x3dc8426b	0.09778293
127	0x3ebe2dc6	0.37144297
128	0x3f365d86	0.71236455
129	0xbfe36497	-1.7765073
130	0x3eb52dbd	0.35386458
131	0x3f998ced	1.1996132
132	0xbe9b227a	-0.3029974
133	0xbfe18407	-1.7618417
134	0x3f22852d	0.6348446
135	0xbf4dea7a	-0.8043591
136	0xbfce38e9	-1.6111118
137	0xbfef9103	-1.8716129
138	0x3f0b0787	0.5430836
139	0x3f29223c	0.6606786
140	0x4012e4bf	2.2952116
141	0x3f2cc6a3	0.67490596
142	0x3fdb4e1f	1.7133216
143	0xbfe5aac0	-1.7942734
144	0xbfae7f8a	-1.3632672
145	0xbf7bb448	-0.9832196
146	0x3fc17130	1.5112667
147	0x3f2451a4	0.64187074
148	0x3ef22850	0.4729638
149	0xbedb7029	-0.4285901
150	0x3f0d26a2	0.55137074
151	0xbfc61040	-1.5473709
152	0x3f04a2ff	0.5181121
153	0x3dda2f35	0.10653535
154	0x3e89d9ed	0.26924077
155	0x3fa991ff	1.324768
156	0x3fdf7d8e	1.7460191
157	0x3fed6fa0	1.854969
158	0xbf34d49b	-0.7063691
159	0x4023a74d	2.5570862
160	0x3ed5c70e	0.4175343
161	0xbe59d2e8	-0.2127186
162	0xbf57077d	-0.839958
163	0xbed70c95	-0.42001787
164	0xbf1fc0d8	-0.6240363
165	0xbf7a3014	-0.9772961
166	0x3f5ff5b3	0.8748428
167	0x3f7cbe79	0.9872814
168	0x3e9e80ca	0.30957633
169	0x3fc2a5f8	1.52069
170	0x3f9a451b	1.2052339
171	0xbfe86549	-1.815591
172	0xbece9283	-0.40346155
173	0xbf758a89	-0.9591451
174	0xbbaaa563	-0.005207704
175	0xbda182ff	-0.07886314
176	0x3f57f9ba	0.8436543
177	0x3f9535b3	1.1657013
178	0x3f06e507	0.5269322
179	0x3fcf43b1	1.6192533
180	0xbf76c726	-0.96397626
181	0x3e10eab8	0.14152038
182	0xbe2796bd	-0.16366096
183	0xbeb768f3	-0.35822257
184	0x3fdc73a6	1.7222793
185	0xbe9b6e43	-0.3035756
186	0x3e749b70	0.2388742
187	0x3fac083b	1.3440012
188	0x3dd367fe	0.10322569
189	0x3f8cd868	1.1003542
190	0xbeaef0b5	-0.3416802
191	0x3f7284cd	0.9473389
192	0xbf118a43	-0.56851596
193	0x3f566cb4	0.8375962
194	0x3fe44efe	1.7836607
195	0xbe481d67	-0.19542466
196	0x3f03d18b	0.5149161
197	0xbfec7a25	-1.8474776
198	0xc03aabe9	-2.9167426
199	0xbf113c88	-0.5673299
200	0xbf0a9157	-0.5412802
201	0x3f652a20	0.895174
202	0xbf61ebfb	-0.882507
203	0x3f0824c8	0.53181124
204	0xbfc5dc07	-1.5457772
205	0xbe317582	-0.17329982
206	0x3f3a6e5a	0.72824633
207	0x3d69b8d1	0.05706102
208	0x3f67cffa	0.9055172
209	0x3f85ecfd	1.0462948
210	0xbf0545d8	-0.520597
211	0x3fad698e	1.3547838
212	0x3e70d678	0.23519313
213	0x3ff505ed	1.9142433
214	0x3feb0f85	1.8364111
215	0x3fa98a47	1.3245324
216	0xbf7810fc	-0.96900916
217	0x3fa0359f	1.2516364
218	0x3f9aebe7	1.2103242
219	0xbf0725ce	-0.5279206
220	0x3e5fcfce	0.21856615
221	0xbf1305cd	-0.57430726
222	0x3fba8313	1.4571251
223	0x3fe2aead	1.7709557
224	0x3fd33060	1.6499138
225	0xbedd2fb4	-0.43200457
226	0xbe8ac40a	-0.2710269
227	0xbfb8367b	-1.4391626
228	0x3f9f9f05	1.2470404
229	0x3fa30d8e	1.2738512
230	0x3ec82a80	0.39094925
231	0x3ec64074	0.3872105
232	0xbda37d3d	-0.07982872
233	0x3eaef67d	0.3417243
234	0x3f72e659	0.9488273
235	0xbfb124d0	-1.3839359
236	0x3fdcaedc	1.7240863
237	0xc0175850	-2.3647652
238	0xbf6df31e	-0.9294909
239	0x3e96560e	0.2936253
240	0x3e5c4b92	0.21513203
241	0x3f703f28	0.9384637
242	0x3fbb9c4f	1.4657077
243	0xbf0e751b	-0.5564744
244	0xbf3eade3	-0.7448408
245	0xbe4f024d	-0.20215721
246	0xbe6b2e10	-0.2296679
247	0x3aae803e	0.0013313366
248	0x3ec0242a	0.3752759
249	0xbf14c0de	-0.5810679
250	0xbf1282d5	-0.57230884
251	0x3f813e6c	1.0097175
252	0xbdd85eb5	-0.10564939
253	0xbf970047	-1.179696
254	0xbdb9eaa7	-0.090779595
255	0x3f102843	0.56311435

rnn.weight_ih_l0 f4 [32, 128]
0	0xbc8f3166	-0.01747961
1	0xbcb0bed3	-0.021575367
2	0xbdc9e3aa	-0.098578766
3	0xbe32b388	-0.17451298
4	0x3d899656	0.067181274
5	0xbe227dad	-0.15868254
6	0xbe37f427	-0.1796423
7	0x3bbefce2	0.005828486
8	0xbc9d36e4	-0.019191213
9	0x3b90e9c8	0.0044224
10	0x3d0d2af4	0.03446479
11	0x3e72623e	0.23670289
12	0x3c9fd39a	0.01951008
13	0x3e0d6b1f	0.13810395
14	0xbdb8d729	-0.090254135
15	0x3dbfa9a7	0.093585305
16	0xbe35a768	-0.17739642
17	0x3df26afa	0.118368104
18	0x3dda9ebf	0.1067481
19	0x3e16c549	0.14723696
20	0x3e05ae8d	0.13054867
21	0x3d12804a	0.035766877
22	0xbdaa39d5	-0.08311812
23	0x3dbf520c	0.09341821
24	0x3da45dba	0.080256894
25	0x3d240fdc	0.040054187
26	0x3cc2ab07	0.023763193
27	0xbe230616	-0.1592029
28	0xbe359885	-0.17733963
29	0xbdbf9e28	-0.09356338
30	0x3d7702da	0.060305454
31	0xbe347b97	-0.17625271
32	0xbe32b7e2	-0.17452958
33	0x3da81aeb	0.08208259
34	0xbde9840d	-0.1140214
35	0x3d22368b	0.039602797
36	0x3dd37f3c	0.103270024
37	0xbe0340b2	-0.12817648
38	0x3c9fb8cd	0.0194973
39	0x3ddbed9b	0.10738679
40	0xbe44fd45	-0.1923724
41	0x3e0a6bac	0.13517636
42	0xbe8583a3	-0.26076993
43	0x3c6852be	0.0141798835
44	0x3dd127fa	0.10212703
45	0x3dd1b9f9	0.102405496
46	0x3c7c031e	0.015381603
47	0xbd4738bf	-0.0486381
48	0x3e4cb5ed	0.19991274
49	0xbe7fb569	-0.24971546
50	0x3e04a710	0.12954354
51	0xbe3df695	-0.18551095
52	0x3e3caa1b	0.18424265
53	0xbd8b3cd6	-0.06798713
54	0xbe07e2f9	-0.13270177
55	0x3c9ffd5b	0.019529989
56	0x3e5f217f	0.21790121
57	0xbd3bcb31	-0.045848075
58	0xbbd5970e	-0.0065182513
59	0x3e244dac	0.16045254
60	0x3e052303	0.13001637
61	0x3d421296	0.047381006
62	0xbdad8763	-0.084730886
63	0x3e113c75	0.14183219
64	0x3e05e04a	0.1307384
65	0xbc990a87	-0.018681778
66	0xbe1f9e41	-0.15587713
67	0x3ddc438e	0.107550725
68	0xbe83e3f7	-0.2575986
69	0x3dcb52a2	0.0992787
70	0xbe52637c	-0.20545763
71	0xbc5b2576	-0.013375631
72	0xbba8bbfd	-0.005149363
73	0xbd8d8841	-0.06910754
74	0xbdb4eaa3	-0.08833816
75	0xbc92b4bf	-0.017908452
76	0x3de46a3a	0.111530736
77	0xbafe58cd	-0.0019405127
78	0x3e166664	0.14687496
79	0xbd872ff5	-0.06600944
80	0xbe3cdc35	-0.18443377
81	0xbc93410c	-0.017975353
82	0xbe2539ee	-0.1613538
83	0xbce45658	-0.027873203
84	0x3d9bf353	0.0761477
85	0xbdcfb9cc	-0.1014286
86	0x3e3d5a2e	0.18491432
87	0x3e32c5e5	0.17458303
88	0x3dfd8a8e	0.12379943
89	0x3dd86773	0.105666064
90	0xbdbf01d9	-0.09326524
91	0x3e61b0e4	0.22040135
92	0x3d923df7	0.07140725
93	0x3ce62e84	0.028098352
94	0x3d0e97e7	0.034812834
95	0xbc21ab67	-0.009867526
96	0xbd23e1be	-0.040010206
97	0xbe1cac5c	-0.15300125
98	0x3d52d9a7	0.0514771
99	0xbe1388c2	-0.14407638
100	0x3a4bca4f	0.0007773982
101	0xbde5895c	-0.1120784
102	0xbdb5b60f	-0.088726155
103	0xbe22fc56	-0.15916571
104	0x3c796ccb	0.015223692
105	0x3e00ad3c	0.12566084
106	0x3d85bcb9	0.065301366
107	0x3d6d0d56	0.057874046
108	0x3c369055	0.01114281
109	0x3e6180ef	0.2202184
110	0xbd4c4625	-0.049871583
111	0xbd8a4360	-0.06751132
112	0xbe3ad646	-0.18245801
113	0x3da8f35e	0.082495436
114	0xbe301385	-0.17194946
115	0x3d64f7a3	0.055900227
116	0xbe1da38c	-0.1539442
117	0x3dda2ecf	0.10653459
118	0x3d67ff96	0.05664023
119	0x3e1cca40	0.15311527
120	0xbdddbef5	-0.10827438
121	0x3d7b7134	0.061387256
122	0xbd9dc8e9	-0.07704336
123	0x3e42bd42	0.19017509
124	0xbdd381fc	-0.10327527
125	0x3e0371e9	0.12836422
126	0x3dc1da0e	0.09465419
127	0xbe0fa4d6	-0.14027724
128	0xbd9f3632	-0.07774009
129	0x3c301de1	0.010749311
130	0xbd980afe	-0.074239716
131	0x3e28de76	0.16491112
132	0x3de47fa4	0.11157158
133	0xbe153655	-0.14571507
134	0x3d9dea25	0.07710675
135	0xbcf3fa53	-0.02978245
136	0xbc239ca6	-0.009986078
137	0x3e19753b	0.14986126
138	0x3d0c94d8	0.034321636
139	0x3e97fdce	0.29685825
140	0x3d0361cc	0.03207569
141	0xbe842060	-0.2580595
142	0xbe1cc45a	-0.15309277
143	0x3be5aa3e	0.00700882
144	0x3d2d6def	0.04234117
145	0x3e1cd9c1	0.15317442
146	0x3dcb26bd	0.09919498
147	0xbd9b3191	-0.075778134
148	0xbd9f346f	-0.07773673
149	0x3e340be4	0.17582661
150	0xbd04f32a	-0.03245846
151	0x3d619af8	0.05507943
152	0xbe349760	-0.1763587
153	0xbe1d46b0	-0.15358996
154	0x3c850251	0.016236456
155	0xbd073f64	-0.03301944
156	0xbde7b8c5	-0.11314539
157	0xbdb3e876	-0.08784573
158	0x3e79d9bd	0.24399467
159	0x3d0c06b2	0.034186073
160	0xbd7c81e1	-0.0616473
161	0xbde4775e	-0.1115558
162	0xbe4ba286	-0.19886217
163	0xbdaa2638	-0.08308071
164	0xbd4c44b9	-0.049870227
165	0x3e41fa53	0.18943147
166	0x3d02ea80	0.031961918
167	0x3cf7c7dc	0.030246668
168	0xbce3dad5	-0.027814308
169	0x3e0b3d53	0.13597612
170	0x3e4d3223	0.20038657
171	0xbe197824	-0.14987236
172	0xbdfcd646	-0.12345557
173	0x3d7d10c2	0.06178356
174	0x3dc4ba9a	0.09605904
175	0xbd0137ae	-0.03154724
176	0xbd67a90d	-0.056557704
177	0xbdaf77d9	-0.08567781
178	0x3d4357b3	0.04769106
179	0xbd2443fb	-0.040103894
180	0xbd4545df	-0.048162337
181	0x3c13c41f	0.009018927
182	0xbd9cbdbb	-0.07653376
183	0xbdf82098	-0.12115592
184	0xbdb339ec	-0.08751282
185	0x3cd86970	0.026417464
186	0x3e419ac2	0.18906692
187	0x3e609042	0.2193003
188	0x3cc1d598	0.02366142
189	0x3df6138e	0.120154485
190	0x3d9033da	0.0704114
191	0x3dad65d9	0.084666915
192	0x3ddbf287	0.10739618
193	0xbd902a25	-0.070392884
194	0x3e3cfe56	0.18456396
195	0x3d81a1ff	0.063297264
196	0x3dca1bd2	0.098685876
197	0xbdf52a16	-0.11970918
198	0x3dc93a89	0.09825618
199	0x3df8a588	0.121409476
200	0xbd6a3f05	-0.057189006
201	0xbe64cfc4	-0.22344881
202	0x3d6372c7	0.055529382
203	0x3e180022	0.148438
204	0xbc14434d	-0.009049249
205	0x3e088a75	0.13334067
206	0xb99bf201	-0.0002974421
207	0x3e2fdc53	0.17173891
208	0x3de01e17	0.10943239
209	0x3c25fe07	0.010131366
210	0xbde4c8cd	-0.11171112
211	0xbdd79383	-0.105261825
212	0x3dafcae2	0.08583619
213	0xbdb8c0b9	-0.09021134
214	0xbcec89d9	-0.028874325
215	0xbcdb1b39	-0.02674638
216	0xbe1432d1	-0.1447251
217	0x3e3690f7	0.17828737
218	0x3e5d1de9	0.21593441
219	0x3e2f137c	0.17097276
220	0x3e64e190	0.2235167
221	0x3e1eabd8	0.1549524
222	0x3de2ef8c	0.11080846
223	0xbcdfe56f	-0.027331082
224	0x3e70a7ef	0.23501562
225	0xbb621b3d	-0.0034501099
226	0x3dba08fc	0.09083745
227	0x3da1d7b6	0.07902472
228	0x3c3df60c	0.011594307
229	0xbdfcdee6	-0.12347202
230	0x3e4f02ea	0.20215955
231	0xbe2bf1d4	-0.16791469
232	0xbdb75807	-0.08952337
233	0x3e12578f	0.14291213
234	0xbbcf7670	-0.0063312575
235	0xbd7688d1	-0.060189072
236	0xbdeec77c	-0.116591424
237	0x3db832d1	0.089940675
238	0x3d94fceb	0.07274803
239	0xbd84ddba	-0.064876035
240	0x3d495f16	0.049162947
241	0x3da81be2	0.08208443
242	0xbd762f50	-0.060103714
243	0x3d6a1161	0.05714548
244	0x3cb87702	0.022517685
245	0x3e345b64	0.17612988
246	0xbc116ec2	-0.008876504
247	0x3e140f76	0.14459023
248	0x3d716c40	0.058941126
249	0xbdb91e91	-0.09039033
250	0x3dab2e86	0.08358483
251	0x3e1a3494	0.1505912
252	0xbe4446ac	-0.19167584
253	0x3e8ad439	0.27115038
254	0xbd9e5009	-0.07730109
255	0xbe34aa37	-0.17643057

rnn.weight_hh_l0 f4 [32, 32]
0	0xbe6e62e0	-0.23279905
1	0x3e6240b5	0.22094996
2	0x3eb4ff68	0.3535111
3	0x3db7e197	0.08978575
4	0x3d5582a0	0.052126527
5	0xbd955915	-0.07292382
6	0xbe8d8001	-0.27636722
7	0x3e7aba36	0.24485096
8	0x3dfe953c	0.12430808
9	0x3e59f869	0.21286167
10	0xbe47ffe1	-0.19531204
11	0x3e49496e	0.19656917
12	0x3dce9d37	0.1008858
13	0x3da3c614	0.07996765
14	0xbe29748e	-0.16548368
15	0x3e6b252f	0.22963403
16	0x3eaec2d8	0.3413303
17	0xbcc934e5	-0.024561355
18	0x3c0a3e2c	0.0084376745
19	0x3d3ab506	0.045582794
20	0x3e5220f2	0.2052038
21	0x3e126cbf	0.14299296
22	0xbd8d27b0	-0.068923354
23	0x3d8a5344	0.06754163
24	0x3e2239f4	0.1584242
25	0x3d94c15f	0.07263445
26	0x3ecec730	0.40386343
27	0xbebeb896	-0.37250203
28	0xbecf9895	-0.40546098
29	0x3e915d26	0.2839138
30	0xbe299973	-0.16562442
31	0xbca63725	-0.020289967
32	0x3e8d22bd	0.27565566
33	0x3c4cfd48	0.012511559
34	0x3cb3dd42	0.02195609
35	0x3e129033	0.1431282
36	0xbc68eefd	-0.0142171355
37	0x3e0023f8	0.12513721
38	0x3c913319	0.01772456
39	0x3edfb4c8	0.43692613
40	0xbe74950a	-0.23884979
41	0x3ba87e9b	0.0051420457
42	0x3dae74fa	0.08518405
43	0xbb3a370f	-0.0028414165
44	0xbd9302dc	-0.0717828
45	0x3e19380e	0.1496279
46	0x3dec1a62	0.115284696
47	0x3e6a8ff6	0.22906479
48	0xbe816876	-0.2527501
49	0xbe04f09b	-0.12982409
50	0x3e55ada4	0.2086702
51	0xbe9a2aa3	-0.30110654
52	0xbe605743	-0.21908288
53	0x3e2f6313	0.17127638
54	0x3dab559c	0.08365938
55	0x3e0fe13c	0.14050764
56	0x3d5da85e	0.054115646
57	0xbb5d27dc	-0.0033745682
58	0xbe952907	-0.29132864
59	0x3e91f49a	0.2850693
60	0x3db09d5f	0.08623766
61	0x3d74ab1e	0.059733503
62	0xbe0c735c	-0.13715881
63	0x3d4ad194	0.049516276
64	0xbc66e6cd	-0.014093113
65	0xbd466285	-0.0484338
66	0xbdd4d0b1	-0.10391367
67	0x3d7117a0	0.05886042
68	0x3e207df8	0.15673053
69	0x3b86c41b	0.004112733
70	0x3dde62cf	0.1085869
71	0xbd8d6caa	-0.06905492
72	0x3c6bcc77	0.01439201
73	0xbed7caed	-0.42147008
74	0xbd7aba06	-0.061212562
75	0xbf04e94e	-0.51918495
76	0x3d529a33	0.051416587
77	0x3beff906	0.007323387
78	0xbe009131	-0.12555386
79	0xbe0f3eaa	-0.13988748
80	0xbe97bd33	-0.29636535
81	0xbe722069	-0.23645176
82	0xbe8a5984	-0.2702142
83	0x3e8b8b09	0.27254513
84	0xbf05f789	-0.52330834
85	0x3d3181b2	0.043336578
86	0x3d0c771b	0.034293275
87	0x3d8ac4b4	0.067757994
88	0xbe693a0c	-0.2277605
89	0xbe0d0468	-0.13771212
90	0xbea4628f	-0.32106444
91	0xbd1d122b	-0.038347404
92	0xbeaf7a1d	-0.34272853
93	0xbe4d14c7	-0.20027457
94	0x3e62c04e	0.22143671
95	0x3d56e85b	0.052467685
96	0xbe13816e	-0.14404842
97	0xbce0187c	-0.027355425
98	0x3e7d1094	0.24713355
99	0x3e9fb3ec	0.31191957
100	0xbdd14d0b	-0.10219773
101	0x3e589bde	0.21153209
102	0xbd3609f1	-0.044443075
103	0x3ed49054	0.41516364
104	0xbebb3986	-0.36567324
105	0xbc24de80	-0.010062814
106	0x3df268ea	0.11836417
107	0xbc766f0b	-0.015041123
108	0xbdff14bf	-0.12455129
109	0x3e3608c1	0.17776777
110	0xbcef435f	-0.02920693
111	0x3eed8058	0.4638698
112	0xbf0635b5	-0.524257
113	0xbd4a8a51	-0.049448315
114	0x3e049913	0.12949018
115	0xbddce024	-0.10784939
116	0x3dfcbebd	0.12341068
117	0xbe84e689	-0.25957134
118	0x3e17536d	0.14777918
119	0xbe4ee349	-0.2020389
120	0x3d8bdda4	0.06829384
121	0x3d6575e5	0.056020636
122	0xbe64616f	-0.22302793
123	0xbc898d72	-0.01679108
124	0xbda32c8d	-0.07967482
125	0xbe262eb3	-0.16228752
126	0xbd9e2256	-0.07721393
127	0x3ddef2d4	0.108861595
128	0x3d35f0f9	0.044419263
129	0x3d08b65b	0.033377033
130	0xbe7516e5	-0.23934515
131	0x3e280b41	0.16410543
132	0x3c959539	0.018259631
133	0x3dedd337	0.11612552
134	0xbe34c3a1	-0.17652752
135	0xbd8ad740	-0.06779337
136	0x3cdfdf2e	0.0273281
137	0xbbbf5cb2	-0.0058399076
138	0xbdf6f990	-0.12059319
139	0xbaf2db3c	-0.0018528472
140	0xbd885dca	-0.06658514
141	0x3daf62ac	0.08563742
142	0x3e1daf95	0.1539901
143	0xbdd71208	-0.10501486
144	0xbbb805e5	-0.005615937
145	0x3ddc7a6f	0.1076554
146	0xbde642fe	-0.112432465
147	0xbcecbcad	-0.028898561
148	0x3c89ad94	0.016806401
149	0x3d043264	0.03227462
150	0x3da678e5	0.081285276
151	0x3de6a965	0.11262778
152	0x3d87848d	0.06617079
153	0xbe521133	-0.20514373
154	0xbe892e3f	-0.26793095
155	0xbe074d07	-0.13212977
156	0xbe578cf1	-0.21049859
157	0x3daab848	0.0833593
158	0x3d84a080	0.064759254
159	0x3dd88935	0.10573045
160	0x3d99e6a9	0.07514698
161	0xbe061be6	-0.1309658
162	0xbd94eb7a	-0.07271476
163	0x3ec05072	0.37561375
164	0x3d8c4e7b	0.068509065
165	0x3b06e78a	0.0020584785
166	0x3c5710a9	0.013126531
167	0x3e7ec825	0.24881037
168	0xbe867017	-0.26257393
169	0xbe00cfa5	-0.1257921
170	0x3e3e5e72	0.18590716
171	0x3e71f519	0.23628654
172	0xbe1f2cf4	-0.15544492
173	0x3e3f80f4	0.18701535
174	0xbdbf736f	-0.09348189
175	0x3ad8bf21	0.0016536453
176	0xbe9e28ca	-0.30890495
177	0x3dcd0c1c	0.10012075
178	0x3dee31b8	0.11630577
179	0xbe89b437	-0.26895306
180	0x3db7f6a9	0.089825936
181	0xbdece99d	-0.11567996
182	0x3d99c18d	0.0750762
183	0xbd89737b	-0.06711479
184	0xbd8bc1bb	-0.068240605
185	0xbe3288ae	-0.17434952
186	0xbe95f8fa	-0.29291517
187	0x3ed81979	0.42206934
188	0x3dfdaed8	0.123868644
189	0xbe8acc87	-0.27109167
190	0xbd63666c	-0.0555176
191	0xbdaec66e	-0.08533941
192	0x3ee91525	0.45523944
193	0x3d851401	0.06497956
194	0xbdecb229	-0.11557419
195	0x3eabd618	0.33561778
196	0x3bc3c498	0.0059743635
197	0x3d075f6d	0.03304999
198	0x3e809106	0.25110644
199	0x3f0c478f	0.5479669
200	0xbe3c3737	-0.18380438
201	0x3e3742bf	0.17896555
202	0x3e3d53cc	0.18488997
203	0xbde42f76	-0.11141865
204	0xbd14f187	-0.03636315
205	0xbdc400a9	-0.095704384
206	0x3e12a717	0.14321552
207	0x3e2b28db	0.16714804
208	0xbe60e70c	-0.21963137
209	0xbda85bcc	-0.08220634
210	0x3e528c4f	0.20561336
211	0xbe8cc288	-0.27492166
212	0x3df9f73f	0.122053616
213	0xbdf834b2	-0.12119426
214	0xbd1945d4	-0.03742011
215	0xbd9c407c	-0.07629487
216	0xbd366433	-0.04452915
217	0x3dc40197	0.09570616
218	0xbeb5e8ac	-0.35529077
219	0x3ef43719	0.47698286
220	0x3e550a22	0.20804647
221	0xbe16f4bf	-0.147418
222	0x3e0965fb	0.13417809
223	0x3d6823c8	0.05667475
224	0xbeaca5bb	-0.33720192
225	0x3e5b66d7	0.21425949
226	0x3e94f908	0.29096246
227	0xbd444cdd	-0.047924865
228	0x3e8634d4	0.2621218
229	0x3e1760f6	0.14783081
230	0x3e125d2b	0.14293353
231	0x3d2f1e3b	0.04275344
232	0xbedd84a9	-0.43265274
233	0xbdc9d1fe	-0.09854506
234	0x3c6fc1b2	0.014633583
235	0xbe36b542	-0.17842582
236	0xbe76d21f	-0.24103592
237	0x3dea0d8c	0.11428365
238	0x3db66404	0.08905795
239	0xbd3e2099	-0.046417806
240	0xbe76a1b6	-0.24085125
241	0x3e62568b	0.22103326
242	0x3d1667f8	0.036720246
243	0xbe0bb159	-0.13641872
244	0xbe773c6b	-0.24144141
245	0xbe68079e	-0.22659156
246	0xbe750190	-0.23926377
247	0xbe640786	-0.22268495
248	0x3dbc3180	0.09189129
249	0xbc1973f4	-0.009366024
250	0xbeaa55d4	-0.33268607
251	0xbe77469c	-0.24148029
252	0xbe691f1a	-0.2276577
253	0xbe89e6ee	-0.26933998
254	0x3d08b37c	0.033374295
255	0xbea36b2a	-0.31917697

rnn.bias_ih_l0 f4 [32]
0	0x3e4e2bd4	0.20133907
1	0xbdbbd243	-0.091709636
2	0x3dd1dd6c	0.10247311
3	0xbdaafce1	-0.08349014
4	0xbbbea48e	-0.0058179563
5	0xbde99bcc	-0.11406669
6	0xbe156823	-0.14590506
7	0xbda53057	-0.08065861
8	0x3dfafe9c	0.12255594
9	0xbe264924	-0.16238838
10	0x3a955173	0.0011392072
11	0xbc62a5c5	-0.013833468
12	0x3d250859	0.040291164
13	0xbe7c6f18	-0.24651754
14	0xbe80d184	-0.25159848
15	0xbe9d4e55	-0.30723825
16	0x3be555b1	0.0069987406
17	0xbdf2c5fa	-0.11854167
18	0xbdba278d	-0.09089575
19	0x3e531353	0.2061284
20	0x3dfdf2c0	0.123998165
21	0x3de897a5	0.11357049
22	0x3cef95d4	0.029246248
23	0x3e1d0a6d	0.15336008
24	0xba9887f9	-0.0011637203
25	0x3d744d7d	0.05964421
26	0xbe4f6044	-0.20251566
27	0xbd872cfd	-0.06600378
28	0xbe71dd49	-0.2361957
29	0xbe067f04	-0.1313439
30	0xbdd7932b	-0.10526117
31	0x3d278bdb	0.04090486

rnn.bias_hh_l0 f4 [32]
0	0xbd70e17a	-0.05880878
1	0xbdf21509	-0.118204184
2	0x3e6a3048	0.2286998
3	0xbd06688c	-0.032814547
4	0xbcd4273a	-0.025897611
5	0xbdeeeb53	-0.11665978
6	0xbe3b5b20	-0.1829648
7	0xbc5355eb	-0.012898902
8	0xbca92593	-0.0206478
9	0xbe4f0fff	-0.20220946
10	0x3d800678	0.06251234
11	0x3d68b591	0.05681378
12	0x3d933884	0.07188514
13	0xbe72f2fd	-0.23725505
14	0x3cc39339	0.023873912
15	0xbea92ea5	-0.330434
16	0xbce91b54	-0.028455414
17	0xbe016dc5	-0.1263953
18	0xbdb0655c	-0.08613083
19	0x3da93a32	0.08263053
20	0x3b1e2ab8	0.002413435
21	0xbb66f2f6	-0.003524003
22	0x3d8a9d2b	0.06768259
23	0xbdda7633	-0.10667076
24	0xbe0cf1f6	-0.13764176
25	0x3c8baa17	0.017048879
26	0xbd40c944	-0.04706694
27	0x3c7c8d56	0.0154145565
28	0xbda0a5b5	-0.07844106
29	0xbda64262	-0.0811813
30	0xbd839d2b	-0.06426462
31	0xbe2cdd0f	-0.16881202

rnn.weight_ih_l0_reverse f4 [32, 128]
0	0x3e2f5af1	0.17124535
1	0x3d604ec1	0.054762606
2	0xbdb15aaa	-0.08659871
3	0xbd496b68	-0.049174696
4	0x3e134ce0	0.14384794
5	0x3d012025	0.031524796
6	0xbbeb7388	-0.0071854033
7	0x3ddeb7f6	0.108749315
8	0xbdbf5d52	-0.09343971
9	0xbbcd41a2	-0.0062639276
10	0x3d632f09	0.055464778
11	0x3e09c4a2	0.13453916
12	0x3dd75636	0.1051449
13	0x3e39c50a	0.1814157
14	0x3ddd6d24	0.108118325
15	0xbd8e765a	-0.069561675
16	0x3e01a1ca	0.12659374
17	0xbca90378	-0.020631537
18	0x3dfad57f	0.122477524
19	0x3d871fc2	0.06597854
20	0x3d0f5af2	0.03499884
21	0x3e568938	0.20950782
22	0x3dca7f00	0.098875046
23	0xbc65f292	-0.014034884
24	0x3cb7fd1d	0.022459561
25	0xbd99b3a9	-0.075049706
26	0x3e12a999	0.14322509
27	0xbda764a7	-0.08173495
28	0x3e19f161	0.15033485
29	0x3c176fb1	0.009242938
30	0x3e868e99	0.26280668
31	0x3ba87185	0.0051404857
32	0xbe539a5d	-0.20664354
33	0x39853658	0.00025408226
34	0xbe20ef50	-0.1571629
35	0xbdc223af	-0.09479462
36	0xbe0770de	-0.13226649
37	0x3e3ada53	0.18247347
38	0x3a1581b0	0.0005703224
39	0xbc6b391d	-0.014356879
40	0xbdc8e673	-0.0980958
41	0x3d3df351	0.046374623
42	0x3e01026a	0.12598577
43	0xbbc2cb3d	-0.005944638
44	0xbe646037	-0.22302328
45	0xbddb4a39	-0.10707516
46	0x3d9e22e2	0.07721497
47	0xbca0069a	-0.019534398
48	0x3e1ac441	0.15113927
49	0x3d3fc21e	0.046815984
50	0x3db112e8	0.08646184
51	0xbe47b48f	-0.19502471
52	0xbb420378	-0.0029604118
53	0x3cf7f4c2	0.030268077
54	0xbe7209ce	-0.23636553
55	0xbe31ee89	-0.1737615
56	0x3e4036f8	0.18770969
57	0x3db43814	0.087997586
58	0xbe260fb8	-0.16216934
59	0x3d9e2c82	0.07723333
60	0x3df1a8a6	0.11799745
61	0x3d251d2f	0.040311035
62	0x3e46b2ab	0.19404094
63	0x3e5f8f55	0.2183202
64	0x3e162954	0.14664203
65	0x3d5ae44f	0.05344039
66	0x3e6fa8cd	0.23404236
67	0x3cbeda6b	0.02329751
68	0x3ddb2477	0.107003145
69	0x3d50b91c	0.050957784
70	0xbdd49b67	-0.10381203
71	0xbe02cbbf	-0.12773035
72	0xbd0189c0	-0.03162551
73	0x3e2b9634	0.16756517
74	0xbd9548e4	-0.072892934
75	0x3e64033c	0.22266859
76	0x3dec1be3	0.115287565
77	0xbe24f215	-0.16107972
78	0x3e37cf26	0.17950115
79	0xbc7214b7	-0.014775447
80	0x3da09943	0.07841732
81	0xbd2f09bc	-0.042733893
82	0xbe6fab52	-0.23405197
83	0xbe09df52	-0.13464096
84	0xbe8a175c	-0.26970947
85	0xbc265f96	-0.010154625
86	0x3d6c75db	0.057729583
87	0x3e3944b3	0.18092613
88	0xbdd131cd	-0.10214577
89	0x3e884c27	0.266206
90	0xbc969979	-0.018383728
91	0x3e477460	0.19477987
92	0x3d6e86a1	0.05823386
93	0x3e76c86d	0.24099894
94	0xbb8ba80f	-0.0042619775
95	0x3e278c18	0.16362035
96	0xbd80484a	-0.06263788
97	0xbc8a4280	-0.016877413
98	0x3dda4d97	0.1065933
99	0x3e276036	0.16345295
100	0xbe2f916e	-0.17145321
101	0x3da4dd3f	0.08050012
102	0x3d4bcd03	0.04975606
103	0xbe10fe2f	-0.14159463
104	0xbda8bbbd	-0.08238933
105	0xbe5c5325	-0.21516092
106	0x3d85fe8e	0.06542693
107	0xbe4626a2	-0.19350675
108	0xbde2a0be	-0.110658154
109	0x3c5b0dfb	0.013370032
110	0x3c29e6cc	0.010369968
111	0xbdff82f9	-0.12476153
112	0xbde5d3e9	-0.11222059
113	0xbe399705	-0.18124016
114	0x3cfcc14c	0.03085389
115	0xbd9740be	-0.073853955
116	0xbe331de1	-0.17491867
117	0x3ddca006	0.107727095
118	0x3de3d8b6	0.11125319
119	0x3e28f090	0.16498017
120	0xbe1f373f	-0.15548418
121	0x3e136749	0.14394869
122	0xbd7b5748	-0.061362535
123	0xbd0e6e2f	-0.034773048
124	0x3e3fc16e	0.18726131
125	0x39af4fa7	0.00033437947
126	0x3e1cd1ef	0.15314458
127	0xbcdf2852	-0.027240906
128	0xbd5cfa3f	-0.05394959
129	0xbdde1408	-0.108436644
130	0xbe8a36f6	-0.26995057
131	0xbd17ec70	-0.03709072
132	0xbe345dc2	-0.17613891
133	0x3d91d4b5	0.07120649
134	0x3e3c97c2	0.18417266
135	0x3d66a8cd	0.056313325
136	0x3deb14c7	0.11478572
137	0xbda305ec	-0.07960114
138	0xbc501594	-0.012700457
139	0x3e88ae48	0.26695466
140	0xbd01f59a	-0.031728365
141	0xbe78db2f	-0.24302362
142	0xbdc4833e	-0.09595345
143	0x3d5d272a	0.053992428
144	0xbe5dee90	-0.21673036
145	0xbd39fd72	-0.04540772
146	0xbe77d27a	-0.24201384
147	0xbdc81d08	-0.09771162
148	0xbe19398c	-0.14963359
149	0x3d82eb50	0.063925385
150	0xbd858788	-0.06519991
151	0xbe5f08ef	-0.21780752
152	0x3dbba007	0.09161382
153	0x3e092058	0.13391244
154	0x3d0ab9be	0.033868544
155	0xbbaa3c1e	-0.005195155
156	0x3e1e0316	0.15430865
157	0xbcd48b06	-0.025945198
158	0x3e0f1808	0.13974011
159	0xbdcf4295	-0.101201214
160	0x3d5174a9	0.051136646
161	0xbcdb42ac	-0.02676519
162	0xbeaa7b8a	-0.33297378
163	0x3e0c1701	0.1368065
164	0x3e5cb300	0.21552658
165	0x3e06eada	0.13175526
166	0x3cf36ffc	0.029716484
167	0x3e2bf026	0.16790828
168	0x3de14b34	0.11000672
169	0xbdf58f1e	-0.11990188
170	0x3e33d49c	0.17561573
171	0xbda54431	-0.08069647
172	0x3dbf3d4b	0.093378626
173	0xbdd206ea	-0.10255225
174	0x3cf40cc2	0.02979124
175	0xbe04291f	-0.12906311
176	0x3d9d36ef	0.076764934
177	0xbdefcef5	-0.11709396
178	0xbd8a3e8f	-0.06750213
179	0xbe2bbc64	-0.16771084
180	0x3dfbbc77	0.12291806
181	0x3dbda932	0.09260787
182	0xbe6648de	-0.22488734
183	0x3e0e9025	0.13922174
184	0x3e786f81	0.24261285
185	0x3d9c2a5a	0.076252654
186	0xbcaa239c	-0.020768933
187	0xbb924ea6	-0.004464942
188	0x3bf76d9d	0.0075509087
189	0xbe00bd15	-0.12572129
190	0xbddb281a	-0.10701008
191	0x3cccc9ac	0.024998508
192	0xbe0e2fb9	-0.13885392
193	0x3da04842	0.07826282
194	0xbc17feb4	-0.009277035
195	0xbdbd84b5	-0.092538275
196	0xbd7d3e39	-0.06182692
197	0x3e1434d2	0.14473274
198	0xbe2586a3	-0.16164641
199	0xbea186cb	-0.3154815
200	0xbd6ef7d1	-0.058341805
201	0x3ddedf15	0.10882393
202	0xbd51faaf	-0.05126446
203	0x3de982ea	0.11401923
204	0xbbfcfbd9	-0.0077204523
205	0x3de4e797	0.11176985
206	0x3c872901	0.016499044
207	0xbdc66f7d	-0.096892335
208	0xbcb1ecfd	-0.02171945
209	0xbe6f03e5	-0.2334133
210	0xbe10c228	-0.14136565
211	0x3e38297a	0.17984572
212	0xbe401ac6	-0.18760213
213	0x3e042a0e	0.12906668
214	0x3c4caf0b	0.012492905
215	0xbc92a94f	-0.017902998
216	0x3d639efd	0.055571545
217	0xbd416792	-0.047217913
218	0x3dfd06ec	0.12354836
219	0xbe06a513	-0.13148908
220	0x3d0cd600	0.034383774
221	0x3e36be61	0.17846061
222	0x3da6f725	0.08152608
223	0x3e8ff524	0.28116715
224	0xbd011b26	-0.03152003
225	0xbe2a7286	-0.1664525
226	0xbe00bb75	-0.12571509
227	0x3e1cd06d	0.15313883
228	0xbe142219	-0.14466132
229	0x3d095461	0.033527736
230	0x3d33de5c	0.04391323
231	0xbd4052c0	-0.046953917
232	0xbe05355e	-0.13008639
233	0x3e7bd10a	0.24591461
234	0x3cf6c1de	0.03012174
235	0xbe5ca383	-0.2154675
236	0xbced76d1	-0.02898732
237	0xbd680e3d	-0.056654204
238	0x3e0ac5d4	0.13552028
239	0xbd970326	-0.073736474
240	0xbdbda8da	-0.092607215
241	0xbdaa1200	-0.083042145
242	0xbe464252	-0.19361237
243	0x3e422311	0.1895869
244	0x3ddc6906	0.10762219
245	0x3eacfd2f	0.33786914
246	0xbda39e94	-0.07989231
247	0xbd34679a	-0.044044115
248	0xbcde6626	-0.027148318
249	0x3cd5a9ed	0.026082003
250	0xbb3a7983	-0.0028453774
251	0x3dc0fdd4	0.09423414
252	0x3db1d513	0.08683219
253	0x3db03719	0.08604259
254	0x3c31cf69	0.010852673
255	0xbddc842d	-0.10767398

rnn.weight_hh_l0_reverse f4 [32, 32]
0	0xbe04b9eb	-0.12961547
1	0x3cc460b2	0.02397189
2	0xbdc943fd	-0.09827421
3	0x3e3f8428	0.18702757
4	0x3d4db48b	0.050221007
5	0xbdc3c038	-0.09558147
6	0xbe332519	-0.1749462
7	0x3e0f845b	0.14015333
8	0x3da6d3d1	0.081458695
9	0x3e56f2b2	0.20991018
10	0xbe1b3f46	-0.15160856
11	0x3d796640	0.06088853
12	0xbad7df77	-0.0016469796
13	0x3ab0fde9	0.0013503405
14	0xbe61d859	-0.22055186
15	0x3e32201f	0.17395066
16	0x3e40dcd6	0.18834242
17	0xbbbb3cb2	-0.0057140226
18	0x3ea2a8ca	0.317694
19	0x3ba432bb	0.0050109304
20	0xbdbcfef4	-0.09228316
21	0x3d1a5cb1	0.037686054
22	0x3dbfbd1e	0.09362243
23	0xbdf8785d	-0.121323325
24	0xbd6fc8cc	-0.058541104
25	0x3ea87b88	0.32906747
26	0x3e09e3cf	0.13465808
27	0x3dce841b	0.10083791
28	0x3b47b523	0.0030472956
29	0xbb8a43e8	-0.004219521
30	0xbe401fd2	-0.18762138
31	0x3e6566a0	0.2240243
32	0xbd83dcb0	-0.06438577
33	0xbdafad30	-0.08577955
34	0x3c8c8111	0.017151387
35	0x3e52ea1b	0.20597117
36	0xbc38037b	-0.011231299
37	0x3e29c92c	0.16580647
38	0xbd51abf1	-0.051189367
39	0x3e031aa2	0.12803128
40	0xbd57e8f2	-0.05271239
41	0xbdd86573	-0.10566225
42	0x3d11d616	0.03560456
43	0x3e8efb9a	0.27926332
44	0x3c609794	0.013708014
45	0xbc35c864	-0.01109514
46	0xbe0f6416	-0.14003024
47	0x3993944b	0.00028148512
48	0x3d139132	0.03602714
49	0xbe0ad198	-0.13556516
50	0x3e4130c3	0.18866257
51	0xbdd9f3d9	-0.106422134
52	0xbdebb4f1	-0.11509121
53	0x3c373de8	0.011184193
54	0xbd62e077	-0.055389848
55	0xbe6693b4	-0.22517282
56	0x3d4e6c4b	0.050396245
57	0x3ec0a41a	0.376252
58	0x3e104bf9	0.14091481
59	0x3e728009	0.23681654
60	0xbd177cc8	-0.036984235
61	0x3e21db3e	0.1580629
62	0xbdc919fd	-0.0981941
63	0xbdc86265	-0.09784392
64	0xbe7bfac4	-0.24607378
65	0x3e8e2d6b	0.27769026
66	0xbd3c8dbc	-0.046033606
67	0x3d74bcbd	0.059750307
68	0x3e3d98ea	0.18515363
69	0x3e539658	0.2066282
70	0xbd9654da	-0.07340403
71	0x3e1b8116	0.15185961
72	0xbd2272ef	-0.03966039
73	0xbdc3a49d	-0.09552882
74	0x3e1cd926	0.1531721
75	0x3cae3ea2	0.0212701
76	0x3e2e9333	0.1704834
77	0xbdfde3b9	-0.1239695
78	0xbe169907	-0.14706813
79	0x3e13cf56	0.14434561
80	0x3e8f2d7f	0.27964398
81	0xbd5a6b4b	-0.05332498
82	0x3c692200	0.014229298
83	0xbd9f5788	-0.07780367
84	0x3dbb49d0	0.09144938
85	0xbe91999c	-0.28437507
86	0x3b865428	0.0040993877
87	0x3dd49332	0.10379638
88	0xbe339d04	-0.17540365
89	0xbdd5e3fe	-0.10443877
90	0x3de0f126	0.109834954
91	0xbe8e06e8	-0.27739644
92	0xbd98ece5	-0.07467059
93	0x3ab2e8c9	0.0013649698
94	0xbe8d0ccc	-0.27548826
95	0xbd390ada	-0.045176364
96	0xbbc4ab1f	-0.0060018445
97	0x3df421f9	0.11920542
98	0x3e0dfe6f	0.1386659
99	0x3e472e19	0.19451179
100	0xbe8390e6	-0.25696486
101	0x3e915833	0.28387603
102	0x3d745be0	0.05965793
103	0x3d08db3f	0.033412214
104	0x3c9ad514	0.018900432
105	0xbc524081	-0.012832762
106	0x3e2e5b7c	0.17027086
107	0xbc520a9b	-0.012819911
108	0x3dabf644	0.08396581
109	0xbdc9deb9	-0.09856934
110	0xbdb49cd2	-0.088189736
111	0xbd1680e4	-0.036744013
112	0xbc2aa80c	-0.010416042
113	0x3e144f78	0.1448344
114	0x3e275099	0.1633934
115	0xbe1f231c	-0.15540737
116	0x3d093bc3	0.03350426
117	0xbddafb39	-0.10692448
118	0x3e55dd54	0.20885211
119	0x3e8ebf39	0.27880266
120	0x3ce7a631	0.028277488
121	0x3c32c758	0.010911785
122	0xbe35b7dc	-0.17745918
123	0xbe96eb02	-0.29476172
124	0xbe0c927f	-0.13727759
125	0x3e254d52	0.16142777
126	0x3ea3b8f2	0.3197704
127	0x3e87744e	0.2645592
128	0x3dacf2d8	0.08444756
129	0x3e8b9a1d	0.27266017
130	0xbe4cbc67	-0.19993745
131	0xbd711df8	-0.05886647
132	0x3e8731a6	0.26405066
133	0xbd15a41e	-0.036533467
134	0x3de7184b	0.112839304
135	0xbe89e59f	-0.26933
136	0xbd5ed5c2	-0.054403074
137	0x3dafa87c	0.08577058
138	0x3ee9ddc0	0.45676994
139	0xbc3e4db1	-0.011615203
140	0x3e389610	0.18025994
141	0xbd7d30f9	-0.061814282
142	0x3e81c2c3	0.25343904
143	0xbc389bc9	-0.011267611
144	0x3d21aa3e	0.039468996
145	0xbe250aff	-0.16117476
146	0xbdcd76b3	-0.10032406
147	0xbdd6b625	-0.1048396
148	0x3e918c19	0.284272
149	0xbe7b3129	-0.24530472
150	0xbcfe7f59	-0.031066583
151	0x3e2c7998	0.1684326
152	0xbce3dbac	-0.027814709
153	0xbdfe8e48	-0.12429482
154	0xbd94a04d	-0.072571374
155	0xbe7a3664	-0.24434811
156	0x3c4b30e7	0.012401796
157	0xbd9931fb	-0.07480236
158	0x3d87f2e9	0.06638128
159	0xbdf01cfe	-0.1172428
160	0xbd6383e9	-0.05554572
161	0x3d3d9a66	0.046289824
162	0x3d7ff96e	0.062493734
163	0x3e19c028	0.15014708
164	0xbdcd34d1	-0.100198396
165	0xbe09c1f3	-0.13452892
166	0x3d2fb795	0.042899687
167	0xbd97cb2e	-0.074118
168	0x3e18b1e7	0.14911614
169	0xbe098d98	-0.1343292
170	0x3de303f2	0.11084737
171	0xbd9f4a3a	-0.077778295
172	0x3e3ccc52	0.18437317
173	0xbd771f82	-0.060332783
174	0x3da64aa2	0.08119704
175	0xbd58e2bf	-0.052950617
176	0x3da819e1	0.08208061
177	0x3d07cf33	0.033156585
178	0xbda9297e	-0.08259867
179	0x3e1fbc14	0.1559909
180	0xbd344354	-0.04400952
181	0xbe4f16ea	-0.20223585
182	0xbd7258ff	-0.059166905
183	0x3e7bfa09	0.246071
184	0xbdc91114	-0.098177105
185	0x3c2ec860	0.01066789
186	0x3dbbdb12	0.09172644
187	0xbe4d23a9	-0.20033135
188	0xbd04d376	-0.032428227
189	0xbddb9297	-0.10721319
190	0x3cf76936	0.030201536
191	0xbd835ab1	-0.064137824
192	0xbea9ac69	-0.3313935
193	0x3e47391a	0.19455376
194	0x3d6b51e1	0.057451133
195	0x3de21c92	0.110406056
196	0xbe175340	-0.14777851
197	0x3d876db8	0.06612724
198	0x3d30ac7c	0.043133244
199	0x3e3a2b32	0.1818054
200	0x3e93e210	0.2888341
201	0x3d865710	0.065595746
202	0xbe806082	-0.2507363
203	0x3e85833d	0.2607669
204	0x3b420e2c	0.0029610498
205	0x3ccc457a	0.024935473
206	0xbec2b29d	-0.38026896
207	0x3eb2ffbc	0.34960735
208	0xbcfe9473	-0.031076645
209	0xbdce15e2	-0.100627676
210	0x3ebb13c6	0.36538523
211	0x3db74e4b	0.0895048
212	0x3da8c32b	0.0824035
213	0xbe605b80	-0.21909904
214	0x3d3ac563	0.0455984
215	0xbc706f3d	-0.014674959
216	0xbcb79488	-0.022409692
217	0x3e8a1145	0.269663
218	0xbe1bb686	-0.15206346
219	0xbdec33ac	-0.11533293
220	0xbe8aebf5	-0.27133146
221	0x3ea3e07e	0.3200721
222	0x3dc157b4	0.09440556
223	0x3e9ece00	0.3101654
224	0x3e9bec69	0.30453804
225	0xbe29e2c7	-0.16590415
226	0x3eac820f	0.33692977
227	0x3d6fec65	0.058575053
228	0xbe8b8085	-0.2724649
229	0xbc675513	-0.014119404
230	0x3d946194	0.07245174
231	0xbe85ee7e	-0.26158518
232	0xbc33b4a4	-0.010968361
233	0x3cef089d	0.029178912
234	0xbdcc6375	-0.099799074
235	0xbcd10209	-0.025513666
236	0xbcb37b08	-0.021909252
237	0x3c70cd98	0.014697455
238	0xbe73f4b4	-0.23823816
239	0x3d734aca	0.059397496
240	0xbe87803e	-0.2646503
241	0x3e1b2f3c	0.15154737
242	0x3e3ae465	0.18251188
243	0x3e389801	0.18026735
244	0xbe6c1b13	-0.23057203
245	0xbd210480	-0.039310932
246	0x3dd80265	0.10547332
247	0xbe9a6e65	-0.3016235
248	0xbd9f4939	-0.07777638
249	0xbd4af51d	-0.049550164
250	0xbd8c9173	-0.0686368
251	0x3df189b7	0.11793845
252	0xbe18725c	-0.14887375
253	0x3ce4b194	0.027916707
254	0x3eadc1d1	0.33936933
255	0xbe4e29af	-0.20133089

rnn.bias_ih_l0_reverse f4 [32]
0	0x3d3b673b	0.045752745
1	0xbe354528	-0.17702162
2	0x3dde9d03	0.10869791
3	0xbe9548fc	-0.29157245
4	0x3d7ef4ee	0.062245302
5	0xbd8b8fdd	-0.06814549
6	0xbdc0364e	-0.09385358
7	0xbe7080b8	-0.23486602
8	0xbe711f5d	-0.2354712
9	0x3d879886	0.066208884
10	0x3d7adf77	0.06124827
11	0xbc21a8c7	-0.0098669
12	0x3eb8e258	0.36110187
13	0xbe1e4f73	-0.15459995
14	0xbd0d3d14	-0.034482077
15	0xbe129e35	-0.14318164
16	0xbd89bd6c	-0.067255825
17	0xbe354135	-0.17700656
18	0xbebc0f0a	-0.36730224
19	0x3e08292a	0.13296953
20	0xbd08c944	-0.033395067
21	0x3e2562aa	0.16150919
22	0xbe934411	-0.28762868
23	0x3e8737d9	0.26409796
24	0x3dada8ae	0.08479439
25	0xbedfcf37	-0.4371278
26	0x3e54e8a2	0.20791867
27	0x3dbd5f25	0.09246663
28	0x3e86073f	0.26177403
29	0xbe37f40e	-0.17964193
30	0x3c8be3b3	0.017076349
31	0x3dad7385	0.08469299

rnn.bias_hh_l0_reverse f4 [32]
0	0x3d49f2a4	0.049303666
1	0xbe776704	-0.24160391
2	0x3d57436a	0.052554525
3	0xbe8bf078	-0.273319
4	0x3df4791b	0.119371615
5	0xbddf9c20	-0.1091845
6	0xbe7e8e33	-0.24858932
7	0xbdc1f9c3	-0.094714664
8	0xbea82b65	-0.32845607
9	0x3c635d68	0.01387725
10	0x3dc83f51	0.09777702
11	0x3b9254c2	0.0044656703
12	0x3e77c86b	0.24197547
13	0x3d421215	0.047380526
14	0x3c6cea4f	0.01446016
15	0xbd39d112	-0.0453654
16	0x3d4b8967	0.049691584
17	0xbdc12ff5	-0.09432975
18	0xbec5af6a	-0.38610393
19	0x3e7e2fea	0.24822965
20	0xbd1bc90b	-0.038033526
21	0x3e270daa	0.16313806
22	0xbe0b2896	-0.13589701
23	0x3d84f0b5	0.06491224
24	0xbd02d9d7	-0.03194603
25	0xbe0cfaee	-0.13767597
26	0x3db134e3	0.086526655
27	0x3d86a7bc	0.065749615
28	0x3ddbdb1a	0.1073515
29	0xbcf55466	-0.02994747
30	0x3ea323e9	0.31863335
31	0xbd0e47f7	-0.0347366

fc1.weight f4 [12, 64]
0	0xbd8ba795	-0.06819073
1	0xbf196e14	-0.5993359
2	0x3eacb72c	0.337335
3	0xbf1624bc	-0.586498
4	0xbe28f5f4	-0.16500074
5	0xbf0391f6	-0.51394594
6	0xbeea75e5	-0.4579307
7	0x3d224e05	0.039625186
8	0xbdd79f48	-0.10528427
9	0xbf03a2b3	-0.51420134
10	0xbd8ff981	-0.07030011
11	0x3e7e497c	0.2483272
12	0x3e2ebc87	0.17064105
13	0xbe525c47	-0.20543014
14	0xbe8ccd59	-0.27500418
15	0xbdd46576	-0.10370915
16	0xbdcd69ed	-0.10029969
17	0xbf1851f3	-0.59500045
18	0x3e89bb10	0.2690053
19	0x3e4414fc	0.1914863
20	0x3ec8107b	0.39075074
21	0x3f05b406	0.5222782
22	0xbf2764fe	-0.65388477
23	0x3f25d1be	0.64773166
24	0x3f277c6b	0.6542422
25	0xbe912ffe	-0.28356928
26	0xbf07b919	-0.5301681
27	0x3d18b7d3	0.037284683
28	0xbcdda97a	-0.027058352
29	0xbf021c21	-0.5082417
30	0x3ec0f61a	0.3768776
31	0x3eb99dd1	0.36253217
32	0xbeafcc40	-0.34335518
33	0xbe6dac93	-0.23210363
34	0xbf018188	-0.50588274
35	0xbd6e157d	-0.05812596
36	0xbe9396c9	-0.28825977
37	0xbe86c65a	-0.26323205
38	0xbecdaa12	-0.40168816
39	0x3e82c3f5	0.25540128
40	0xbeb31b5a	-0.34981805
41	0x3ec2843c	0.37991512
42	0x3e5f79af	0.21823762
43	0xbe7a341e	-0.24433944
44	0x3ea8486a	0.32867748
45	0x3eb5918d	0.3546261
46	0x3e0a5b1a	0.13511315
47	0xbdd18f0c	-0.10232362
48	0x3ed60d4c	0.4180702
49	0xbe606219	-0.21912421
50	0xbdc2e5d0	-0.095164895
51	0x3e905b58	0.2819469
52	0xbed69554	-0.41910803
53	0x3e6512fe	0.22370526
54	0xbe5db8ec	-0.21652573
55	0x3eb1e934	0.34748232
56	0xbeba9ea7	-0.36449167
57	0xbe92e4ce	-0.2869019
58	0x3efa76e0	0.4891882
59	0xbe1cdcec	-0.1531865
60	0x3ed65ea5	0.41869083
61	0xbe982bea	-0.29721004
62	0x3cc8ac55	0.024496237
63	0x3f086757	0.53282684
64	0x3f81fa02	1.0154421
65	0x3f29765b	0.6619622
66	0x3f11c07c	0.5693433
67	0x3d42cafc	0.047556862
68	0x3f73a936	0.9518007
69	0xbe87c392	-0.26516396
70	0xbee4911c	-0.4464196
71	0x3e848325	0.25881305
72	0x3fa16f09	1.261201
73	0x3f5571fe	0.83377063
74	0xbdfe3e80	-0.12414265
75	0xbf456485	-0.77106506
76	0x3ea04da0	0.31309223
77	0x3e839ed9	0.2570713
78	0xbe4e0874	-0.20120412
79	0x39d8ecc7	0.00041375143
80	0xbefae67e	-0.49003977
81	0xbef46d64	-0.47739708
82	0xbec99354	-0.39370215
83	0xbf8212a7	-1.0161942
84	0x3dfab58c	0.122416586
85	0xbe097537	-0.1342362
86	0x3f10ffec	0.56640506
87	0xbf300532	-0.6875793
88	0xbe11af8b	-0.1422712
89	0x3fc48aab	1.5354818
90	0x3f0dd206	0.55398595
91	0x3d966467	0.07343369
92	0xbec38d1c	-0.38193595
93	0x3e30fc7d	0.17283817
94	0xbeafa81f	-0.34307954
95	0xbf66e4da	-0.9019295
96	0x3eb4d619	0.35319594
97	0x3f8aa655	1.083201
98	0x3f01f9fd	0.50772077
99	0xbee659d2	-0.44990402
100	0xbe159235	-0.14606555
101	0x3f9833a7	1.1890763
102	0xbee31020	-0.4434824
103	0xbf38504b	-0.7199752
104	0xbe5f13b4	-0.2178486
105	0xbf976c72	-1.182997
106	0xbf4c9cb8	-0.79926634
107	0xbe9aefd6	-0.30261105
108	0xbe182a31	-0.14859845
109	0xbf3aa4be	-0.72907627
110	0xbf589c4b	-0.84613484
111	0x3e628dbe	0.22124383
112	0x3e8a8c41	0.2706013
113	0x3f7d02c7	0.9883236
114	0xbdce1407	-0.10062414
115	0x3e6ab2a7	0.22919713
116	0x3f333a08	0.70010424
117	0x3baa0f09	0.0051897806
118	0xbe44adaa	-0.19206873
119	0xbe817160	-0.2528181
120	0x3f34ccdc	0.7062509
121	0xbf36a4e0	-0.7134533
122	0x3f0b15df	0.5433025
123	0x3f4efcc5	0.80854446
124	0x3f1ea3b6	0.61968553
125	0xbdd73d4a	-0.10509737
126	0x3f8ee452	1.1163428
127	0x3e1b35d0	0.15157247
128	0x3f017795	0.5057309
129	0xbe8532cc	-0.26015317
130	0xbf7d3037	-0.98901695
131	0xbf2d84c6	-0.6778072
132	0x3ea2f142	0.3182469
133	0x3f88e72a	1.0695546
134	0xbf09c4a9	-0.53815705
135	0xbf242a8f	-0.6412744
136	0xbeee07d3	-0.46490344
137	0xbdf7888d	-0.12086592
138	0x3f84732a	1.0347645
139	0x3f37445a	0.7158867
140	0xbfada394	-1.3565545
141	0x3e83b41f	0.2572336
142	0x3fe189d0	1.7620182
143	0x3f15e2e9	0.5854936
144	0x3e822689	0.25420025
145	0xbdb6f993	-0.08934321
146	0xbf03d724	-0.51500154
147	0xbe59a84a	-0.21255603
148	0x3e24517c	0.16046709
149	0xbf8d9873	-1.1062149
150	0xbecd3750	-0.40081263
151	0x3eea1a2c	0.45723093
152	0x3d1c1159	0.03810248
153	0x3f834dd0	1.0258121
154	0x3f03cf45	0.51488143
155	0xbeb36eda	-0.3504551
156	0xbed6dca9	-0.41965225
157	0x3f466753	0.7750141
158	0x3eae9d7c	0.34104526
159	0x3eb14343	0.3462163
160	0x3f10420c	0.5635078
161	0xbeb638b6	-0.35590142
162	0xbf3aceb4	-0.72971654
163	0x3ef45fae	0.47729248
164	0x3f3bef2c	0.7341182
165	0x3f9345ce	1.1505678
166	0xbe7295bd	-0.23689933
167	0x3f873a33	1.0564636
168	0x3f4d54f8	0.8020778
169	0xbdc4d371	-0.09610642
170	0x3f45f343	0.7732431
171	0xbdb1faaf	-0.08690392
172	0xbf67d607	-0.90560955
173	0xbf860a4f	-1.0471896
174	0x3e920d04	0.28525555
175	0x3fae1a12	1.3601706
176	0xbe973d7b	-0.29539093
177	0x3f8c4873	1.095961
178	0x3d9234e2	0.07138993
179	0xbdf38280	-0.11890125
180	0xbeb28c3c	-0.34872615
181	0xbf3ccce1	-0.7375012
182	0x3df42393	0.11920848
183	0xbf77573e	-0.96617496
184	0x3f421a65	0.75821525
185	0xbf206523	-0.6265432
186	0x3eeaa338	0.4582765
187	0xbf34d428	-0.70636225
188	0x3e8a78e8	0.2704537
189	0xbe18068d	-0.14846249
190	0x3f27b6bd	0.6551321
191	0xbf119566	-0.5686859
192	0x3f5cf657	0.86313385
193	0x3f0599d3	0.5218784
194	0x3e4ca7f2	0.19985941
195	0x3ee2aad6	0.44270962
196	0xbea166d4	-0.31523764
197	0x3eb2b246	0.34901637
198	0xbee479d3	-0.44624195
199	0xbeb52234	-0.35377657
200	0x3f3440f0	0.70411587
201	0x3eed4472	0.46341282
202	0xbe303cc8	-0.17210686
203	0xbefd1761	-0.494319
204	0x3df3b682	0.11900045
205	0xbf6dc0ff	-0.92872614
206	0x3f904f01	1.127411
207	0x3f8d203a	1.102546
208	0xbdbe72d2	-0.09299244
209	0xbed24c0f	-0.41073653
210	0x3da1f7eb	0.07908615
211	0xbed1deb4	-0.40990222
212	0xbf447768	-0.767447
213	0xbeeb9249	-0.46010044
214	0x3f22df62	0.63622105
215	0x3f0d0c83	0.55097216
216	0xbf16798e	-0.5877923
217	0xbe8b1f0d	-0.27172127
218	0x3ed92bcc	0.42416227
219	0x3f5bfdd4	0.85934186
220	0x3f4d6126	0.8022636
221	0xbe0837e2	-0.13302568
222	0x3da365ce	0.07978402
223	0xbf03b88a	-0.5145346
224	0x3f0e6904	0.5562899
225	0xbe310552	-0.17287186
226	0x3e5c9e79	0.21544828
227	0x3f9c00cd	1.2187744
228	0x3f02be4d	0.51071626
229	0x3d1232ad	0.03569286
230	0x3f4eed64	0.8083098
231	0xbe251ddb	-0.1612467
232	0x3d7a0791	0.061042372
233	0x3e41f96d	0.18942805
234	0x3f45dc42	0.7728921
235	0xbe4ade89	-0.19811453
236	0xbef0dafa	-0.47042066
237	0x3ef72883	0.48273095
238	0xbf7aafd8	-0.97924566
239	0x3df7a18e	0.12091361
240	0x3f5ee911	0.8707438
241	0x3f340f34	0.703357
242	0x3fab20eb	1.3369421
243	0xbf6675ee	-0.90023696
244	0xbe627783	-0.22115903
245	0xbde5ed7e	-0.11226939
246	0xbd9e9d4b	-0.07744845
247	0xbe0537c3	-0.13009553
248	0x3f2a8336	0.6660646
249	0xbf0cfe83	-0.55075854
250	0xbf3f609f	-0.7475681
251	0x3ecffbf3	0.4062191
252	0xbee2607d	-0.4421424
253	0xbe60f36e	-0.21967861
254	0xbf0dc3ff	-0.5537719
255	0x3f29d78d	0.6634453

fc1.bias f4 [12]
0	0x3c59f946	0.01330406
1	0x3de0413f	0.10949945
2	0xbe8dc013	-0.27685603
3	0xbf0385f6	-0.51376283
4	0xbeb6e137	-0.357187
5	0xbea73dc2	-0.32664305
6	0xbe8fdced	-0.2809824
7	0xbf3c7ab8	-0.73624754
8	0xbebfe786	-0.37481326
9	0xbe979735	-0.2960755
10	0xbe4b3a15	-0.19846375
11	0xbf3678f2	-0.712783
