initial_training/java_base_model.pt (torch, 103364 bytes, 11 tensors)

word_embeddings.weight f4 [109, 128]
-1.3953388 -0.7971855 -0.67768675 -1.5638613 -0.27250737 -0.65888894 -0.8353082 -1.5392325
-0.7754212 0.3795787 -0.73098475 -0.36991903 -0.3758515 1.7554052 0.28105715 0.57906324
-0.59772915 -1.1105616 0.82484245 0.14717951 0.9192769 0.20484689 -0.7060763 0.71534115
0.9830727 -0.24072789 -2.3043282 -1.5004698 0.085004784 -0.5646484 -0.9473346 -0.17436078
1.9512466 0.009725674 0.12126116 -0.69952124 0.33406785 0.14709117 0.22019005 -0.58914155
-0.015578795 0.16068465 -0.22297876 0.06188154 2.2875 -0.9180834 1.6901761 -0.65367883
-1.0419463 0.7404673 -0.07053815 -0.539946 0.8869838 0.60674894 1.2351416 1.8918138
0.04018463 0.89748275 -0.26978981 -0.70018107 1.5971761 -0.6990056 -3.2978046 -0.8343043
-0.14718871 -1.0826107 -0.7716972 -1.1077309 -0.10208495 -0.02292199 1.672969 -0.03046954
-0.78266513 -0.09628111 -1.1011908 -0.786515 -0.41552758 -0.67321354 0.5336379 -1.0851645
-0.3929444 0.26580098 -0.60707074 0.6847542 -1.3575095 -0.55052614 0.1778292 -0.27366346
0.16827491 -0.4586298 -1.0419325 0.69109446 -1.0215902 -0.5992981 0.47227973 1.9424223
0.6888978 1.3291458 0.88108534 -0.978633 1.4349192 -0.86873573 -1.0341105 1.1642437
1.3463963 0.47280166 -0.16457297 0.01307835 -2.0731535 -0.51764625 -1.6074226 -1.1599206
0.7679416 -0.6666048 1.253851 0.6221666 0.32053465 0.41121924 0.57320595 -0.527125
2.5976794 -0.22609253 -0.07253653 1.9693897 -2.0117443 1.6614269 -0.033171743 0.41849664
0.71236455 -1.7765073 0.35386458 1.1996132 -0.3029974 -1.7618417 0.6348446 -0.8043591
-1.6111118 -1.8716129 0.5430836 0.6606786 2.2952116 0.67490596 1.7133216 -1.7942734
-1.3632672 -0.9832196 1.5112667 0.64187074 0.4729638 -0.4285901 0.55137074 -1.5473709
0.5181121 0.10653535 0.26924077 1.324768 1.7460191 1.854969 -0.7063691 2.5570862
0.4175343 -0.2127186 -0.839958 -0.42001787 -0.6240363 -0.9772961 0.8748428 0.9872814
0.30957633 1.52069 1.2052339 -1.815591 -0.40346155 -0.9591452 -0.005207704 -0.07886314
0.8436543 1.1657013 0.5269322 1.6192533 -0.96397626 0.14152038 -0.16366096 -0.35822257
1.7222793 -0.3035756 0.2388742 1.3440012 0.10322569 1.1003542 -0.3416802 0.9473389
-0.56851596 0.8375962 1.7836607 -0.19542466 0.5149161 -1.8474776 -2.9167426 -0.5673299
-0.5412802 0.895174 -0.882507 0.53181124 -1.5457772 -0.17329982 0.72824633 0.05706102
0.9055172 1.0462948 -0.520597 1.3547838 0.23519313 1.9142433 1.8364111 1.3245324
-0.96900916 1.2516364 1.2103242 -0.5279206 0.21856615 -0.57430726 1.4571251 1.7709557
1.6499138 -0.43200457 -0.2710269 -1.4391626 1.2470404 1.2738512 0.39094925 0.3872105
-0.07982872 0.3417243 0.9488273 -1.3839359 1.7240863 -2.3647652 -0.9294909 0.2936253
0.21513203 0.9384637 1.4657077 -0.5564744 -0.7448408 -0.20215721 -0.2296679 0.0013313366
0.3752759 -0.5810679 -0.57230884 1.0097175 -0.10564939 -1.179696 -0.090779595 0.56311435
00000000: 769a b2bf 5914 4cbf e17c 2dbf 9b2c c8bf
00000010: 1686 8bbe f2ac 28bf c2d6 55bf 9205 c5bf
00000020: 0182 46bf 2458 c23e d121 3bbf 0766 bdbe
00000030: 9c6f c0be 1eb1 e03f b9e6 8f3e 7d3d 143f
00000040: c704 19bf e226 8ebf e028 533f 3ab6 163e
00000050: bb55 6b3f 62c3 513e 6bc1 34bf 9920 373f
00000060: a7aa 7b3f 5f81 76be 1d7a 13c0 650f c0bf
00000070: fd16 ae3d cc8c 10bf 8584 72bf a28b 32be
00000080: 73c2 f93f 6f58 1f3c c557 f83d d313 33bf
00000090: f10a ab3e 119f 163e 8079 613e fbd1 16bf
000000a0: 343e 7fbc 848a 243e 8b54 64be 7f77 7d3d
000000b0: 6666 1240 8407 6bbf b157 d83f 7f57 27bf
000000c0: 7f5e 85bf 448f 3d3f 4e76 90bd e739 0abf
000000d0: 5f11 633f e653 1b3f 1f19 9e3f f426 f23f
000000e0: a398 243d 6ec1 653f e421 8abe 113f 33bf
000000f0: 4470 cc3f 08f2 32bf 3b0f 53c0 f794 55bf
00000100: a3b8 16be fd92 8abf f38d 45bf 20ca 8dbf
00000110: ea11 d1bd e6c6 bbbc d923 d63f 429b f9bc
00000120: be5c 48bf 082f c5bd d2f3 8cbf 0c59 49bf
00000130: 08c0 d4be b957 2cbf 7e9c 083f ace6 8abf
00000140: 0230 c9be 1117 883e fd68 1bbf 0d4c 2f3f
00000150: dfc2 adbf 48ef 0cbf dc18 363e 9e1d 8cbe
00000160: 4250 2c3e 86d1 eabe 0b5e 85bf 91eb 303f
00000170: 78c3 82bf 9a6b 19bf a6ce f13e 4ba1 f83f
00000180: 9b5b 303f 7321 aa3f cf8e 613f b187 7abf
00000190: 6fab b73f 7765 5ebf bc5d 84bf f005 953f
000001a0: b756 ac3f 0f13 f23e d185 28be 9346 563c
000001b0: 8cae 04c0 7784 04bf 06c0 cdbf 4778 94bf
000001c0: d297 443f 9da6 2abf 317e a03f 4f46 1f3f
000001d0: 1e1d a43e 548b d23e a0bd 123f aaf1 06bf
000001e0: 6140 2640 cd84 67be 088e 94bd f614 fc3f
000001f0: 6bc0 00c0 a3a9 d43f 18df 07bd 3145 d63e
00000200: 865d 363f 9764 e3bf bd2d b53e ed8c 993f
00000210: 7a22 9bbe 0784 e1bf 2d85 223f 7aea 4dbf
00000220: e938 cebf 0391 efbf 8707 0b3f 3c22 293f
00000230: bfe4 1240 a3c6 2c3f 1f4e db3f c0aa e5bf
00000240: 8a7f aebf 48b4 7bbf 3071 c13f a451 243f
00000250: 5028 f23e 2970 dbbe a226 0d3f 4010 c6bf
00000260: ffa2 043f 352f da3d edd9 893e ff91 a93f
00000270: 8e7d df3f a06f ed3f 9bd4 34bf 4da7 2340
00000280: 0ec7 d53e e8d2 59be 7d07 57bf 950c d7be
00000290: d8c0 1fbf 1430 7abf b3f5 5f3f 79be 7c3f
000002a0: ca80 9e3e f8a5 c23f 1b45 9a3f 4965 e8bf
000002b0: 8392 cebe 8a8a 75bf 63a5 aabb ff82 a1bd
000002c0: baf9 573f b335 953f 07e5 063f b143 cf3f
000002d0: 26c7 76bf b8ea 103e bd96 27be f368 b7be
000002e0: a673 dc3f 436e 9bbe 709b 743e 3b08 ac3f
000002f0: fe67 d33d 68d8 8c3f b5f0 aebe cd84 723f
00000300: 438a 11bf b46c 563f fe4e e43f 671d 48be
00000310: 8bd1 033f 257a ecbf e9ab 3ac0 883c 11bf
00000320: 5791 0abf 202a 653f fbeb 61bf c824 083f
00000330: 07dc c5bf 8275 31be 5a6e 3a3f d1b8 693d
00000340: facf 673f fdec 853f d845 05bf 8e69 ad3f
00000350: 78d6 703e ed05 f53f 850f eb3f 478a a93f
00000360: fc10 78bf 9f35 a03f e7eb 9a3f ce25 07bf
00000370: cecf 5f3e cd05 13bf 1383 ba3f adae e23f
00000380: 6030 d33f b42f ddbe 0ac4 8abe 7b36 b8bf
00000390: 059f 9f3f 8e0d a33f 802a c83e 7440 c63e
000003a0: 3d7d a3bd 7df6 ae3e 59e6 723f d024 b1bf
000003b0: dcae dc3f 5058 17c0 1ef3 6dbf 0e56 963e
000003c0: 924b 5c3e 283f 703f 4f9c bb3f 1b75 0ebf
000003d0: e3ad 3ebf 4d02 4fbe 102e 6bbe 3e80 ae3a
000003e0: 2a24 c03e dec0 14bf d582 12bf 6c3e 813f
000003f0: b55e d8bd 4700 97bf a7ea b9bd 4328 103f

rnn.weight_ih_l0 f4 [32, 128]
-0.14953154 -0.13628699 -0.065117806 0.15683502 -0.110681504 0.061192174 0.10294214 0.20447825
0.06132144 0.16529626 0.051282607 0.09275997 -0.14465946 0.059921898 0.20952028 -0.01536529
0.056699008 0.14835331 -0.04995146 0.21805198 0.08484546 -0.015677217 0.13629104 0.14350757
-0.16217981 0.14631365 0.019126944 -0.13221094 0.09669691 0.12512179 -0.23554282 -0.07126884
-0.007960495 0.019706523 0.17800777 -0.13516986 -0.14548717 -0.04875761 0.15613541 -0.022186276
-0.05829965 0.23273988 0.066649884 -0.19679216 -0.22090691 -0.1342718 -0.25199383 -0.18791047
-0.15678653 -0.21353109 0.31000468 0.11075859 0.06583675 -0.11394721 0.01931902 0.15526815
0.17005022 0.038603064 0.012429641 -0.14011076 0.042226907 -0.06971462 0.18121247 -0.118398696
-0.14595033 -0.061979234 -0.011026413 -0.12901886 0.045673918 0.13154131 0.18853165 0.0065826345
0.022373661 0.1031101 -0.22257932 0.1086428 -0.06251661 -0.04783043 -0.052746784 -0.068562806
0.07905309 0.2429297 -0.1340319 0.022613024 0.13563755 0.23609005 -0.23280923 -0.00553982
-0.031030778 -0.16681677 -0.068057485 0.061708022 -0.00894548 -0.17196359 -0.06275981 0.054846678
0.029697761 -0.091842085 -0.1106324 0.3058722 0.09025325 -0.19728836 -0.14370364 -0.0882805
0.097323105 -0.03713104 -0.07528031 0.09433399 -0.043199036 0.16746435 -0.08317455 -0.14843704
-0.090852074 0.0034526794 0.023154465 -0.011980962 0.11815114 0.071965545 -0.16536999 -0.04232847
0.008312468 0.13844112 -0.16549128 -0.022128595 -0.007597173 0.08989086 0.052853458 -0.15041165
0.054146532 -0.1268485 -0.037950095 -0.13212283 0.090092644 0.07830989 0.029978322 -0.01699696
0.039419625 -0.19058399 -0.006511088 0.114958666 0.16975245 0.11939123 -0.108009405 0.1547742
0.103559494 -0.18472084 0.058793485 0.02129792 0.19867094 -0.20288862 0.14868431 0.21535698
0.08459932 -0.0519948 0.06517508 0.11086475 -0.10379515 0.10343038 0.028849343 0.052402005
-0.09305364 -0.036429167 -0.06058204 0.112226665 0.1465719 -0.22218868 0.05788814 -0.039088193
0.0070339967 0.047925923 -0.016629856 0.036572803 0.053297624 -0.015016793 0.13086316 -0.15728135
0.21903399 0.03754668 0.072637305 -0.053688545 -0.1406831 -0.079101235 0.042661518 -0.0835416
-0.15464891 0.039246254 0.15161444 0.15456836 0.048436645 -0.16906525 0.16943355 0.09951238
0.19268048 -0.10104522 -0.019890398 0.09344297 0.10948695 -0.12269614 -0.098228686 -0.006737088
0.14021495 -0.013647218 0.10333388 0.22094724 -0.00044868095 -0.144092 -0.024645662 0.14418466
0.013916958 -0.17951691 -0.029655075 -0.28067777 -0.19218978 -0.14628543 -0.0658817 0.13289385
0.17551574 -0.05598557 0.0022605795 0.12846033 0.050410576 -0.06597658 -0.019233715 -0.14628412
0.048165098 0.040416952 0.16438632 0.24950452 0.10466535 0.13726124 -0.036861073 0.03207358
-0.06699493 0.17555109 0.08119572 -0.28297782 0.06009609 -0.071905926 0.009528559 -0.14309157
0.0013064014 -0.14558525 0.064078175 0.08746314 0.043352965 -0.058040805 0.0043987976 -0.22111213
-0.092447594 -0.056059908 0.13185623 0.06900572 -0.020156825 0.16842984 -0.019545259 0.16084467
00000000: cc1e 19be d18e 0bbe 7c5c 85bd 5c99 203e
00000010: fcac e2bd a5a4 7a3d 54d3 d23d bf62 513e
00000020: 312c 7b3d 6c43 293e b60d 523d f0f8 bd3d
00000030: 9c21 14be aa70 753d 7c8c 563e b3be 7bbc
00000040: 383d 683d eee9 173e e799 4cbd 0549 5f3e
00000050: 75c3 ad3d 826d 80bc e18f 0b3e a6f3 123e
00000060: 7712 26be 3fd3 153e 1cb0 9c3c 4e62 07be
00000070: 0809 c63d ed1f 003e 2332 71be 66f5 91bd
00000080: bc6c 02bc 936f a13c ab47 363e f869 0abe
00000090: 97fa 14be 0fb6 47bd f6e1 1f3e febf b5bc
000000a0: 9dcb 6ebd 5d53 6e3e bc7f 883d e283 49be
000000b0: 6c35 62be 8c7e 09be 5605 81be 9a6b 40be
000000c0: a68c 20be e5a7 5abe efb8 9e3e 66d5 e23d
000000d0: 6bd5 863d 285d e9bd ec42 9e3c 9dfe 1e3e
000000e0: a521 2e3e 3f1e 1e3d b1a5 4b3c 3279 0fbe
000000f0: 1ff6 2c3d 8ac6 8ebd c38f 393e 047b f2bd
00000100: 0174 15be f0dd 7dbd 21a8 34bc 851d 04be
00000110: 9314 3b3d c4b2 063e 710e 413e 24b3 d73b
00000120: f848 b73c 632b d33d d5eb 63be 1e80 de3d
00000130: b508 80bd d7e9 43bd 030d 58bd a86a 8cbd
00000140: 96e6 a13d 90c2 783e a93f 09be f33e b93c
00000150: 92e4 0a3e 97c1 713e 8b65 6ebe 6187 b5bb
00000160: 4234 febc 04d2 2abe b961 8bbd 8dc1 7c3d
00000170: 1090 12bc 3917 30be 3788 80bd e9a6 603d
00000180: b848 f33c b417 bcbd 3d93 e2bd 489b 9c3e
00000190: b2d6 b83d f605 4abe 0c27 13be 68cc b4bd
000001a0: 5651 c73d b816 18bd 902c 9abd 2e32 c13d
000001b0: 79f1 30bd c67b 2b3e 6b57 aabd e1ff 17be
000001c0: a710 babd 5946 623b 6fae bd3c cc4b 44bc
000001d0: 3af9 f13d ac62 933d c056 29be 9e60 2dbd
000001e0: 0531 083c 82c3 0d3e 8c76 29be 0747 b5bc
000001f0: b5f1 f8bb b318 b83d de7c 583d 8305 1abe
00000200: c1c8 5d3d 93e4 01be 8f71 1bbd 354b 07be
00000210: 7e82 b83d f060 a03d 1995 f53c 353d 8bbc
00000220: 7976 213d 7328 43be f75a d5bb 736f eb3d
00000230: 96d3 2d3e 6483 f43d 0934 ddbd 217d 1e3e
00000240: 0017 d43d 7627 3dbe 70d1 703d fa78 ae3c
00000250: 6570 4b3e 09c2 4fbe b340 183e 8a86 5c3e
00000260: 6942 ad3d 80f8 54bd 837a 853d 0f0d e33d
00000270: 8d92 d4bd 4fd3 d33d 7555 ec3c 7ca3 563d
00000280: e892 bebd c036 15bd e024 78bd 18d7 e53d
00000290: f216 163e 6e85 63be 1d1c 6d3d f11a 20bd
000002a0: 717d e63b f94d 443d 563b 88bc 5dcd 153d
000002b0: 9c4e 5a3d ff08 76bc fe00 063e 5d0e 21be
000002c0: 724a 603e 8cca 193d dec2 943d 85e8 5bbd
000002d0: 3b0f 10be d4ff a1bd d8bd 2e3d dc17 abbd
000002e0: 495c 1ebe aec0 203d d140 1b3e 2b47 1e3e
000002f0: 8165 463d 711f 2dbe fd7f 2d3e 26cd cb3d
00000300: 084e 453e ccf0 cebd 30f1 a2bc 075f bf3d
00000310: b23a e03d 1d48 fbbd 1f2c c9bd cac2 dcbb
00000320: 8294 0f3e 9598 5fbc b7a0 d33d fe3f 623e
00000330: f03c ebb9 da8c 13be b3e5 c9bc 25a5 133e
00000340: f403 643c 48d3 37be 33ef f2bc ffb4 8fbe
00000350: 66cd 44be d9cb 15be fcec 86bd 5315 083e
00000360: 66ba 333e 2051 65bd 3b26 143b 1b8b 033e
00000370: 527b 4e3d bb1e 87bd 0690 9dbc 81cb 15be
00000380: c448 453d 3f8c 253d e354 283e 1d7e 7f3e
00000390: c95a d63d 368e 0c3e a3fb 16bd 965f 033d
000003a0: a334 89bd aac3 333e f149 a63d 78e2 90be
000003b0: 5127 763d 6a43 93bd ac1d 1c3c 9986 12be
000003c0: 8f3b ab3a 4d14 15be 6b3b 833d e01f b33d
000003d0: e192 313d 32bc 6dbd ca23 903b 386b 62be
000003e0: 2a55 bdbd 139f 65bd 5205 073e df52 8d3d
000003f0: ed1f a5bc df78 2c3e 611d a0bc 77b4 243e

rnn.weight_hh_l0 f4 [32, 32]
-0.1641401 0.17073128 0.055544917 0.1909347 0.06516784 -0.13408685 0.22969452 0.03357973
-0.13532814 0.022296406 0.22913009 0.01280473 0.038281843 0.31943208 -0.18522106 0.01085706
-0.048952494 -0.18066615 -0.034912344 -0.026316786 -0.13840681 0.13873813 -0.23017816 0.050469834
0.07955837 0.07771062 -0.086544074 0.16825366 0.11231277 0.13392386 -0.07164583 -0.13763332
0.059781842 0.102964856 -0.047338042 -0.124048375 -0.0523255 -0.03316536 -0.01754592 0.15667884
-0.18306045 0.15730837 -0.23974322 -0.1747076 0.02635908 0.21749757 -0.004892456 0.22698773
0.34324557 -0.04383266 -0.24996716 -0.09830775 0.24976653 -0.10218822 0.03708461 -0.05295503
0.22882198 -0.018479485 -0.093137965 -0.18353865 -0.21959876 -0.036667045 0.06045469 0.3138455
-0.055850536 -0.057323225 0.073289216 -0.087078236 0.022364408 0.025534779 -0.07071302 -0.30980375
0.183079 0.18302613 -0.16476208 -0.011052786 0.127118 -0.3543165 -0.28674987 0.2273547
-0.28595445 0.036338154 0.15843828 -0.102495216 0.084597304 0.23243378 -0.30661395 0.25960636
-0.079512425 0.4265164 0.27323234 0.19109288 -0.35837176 -0.1477628 0.043808166 -0.2707611
0.3563865 -0.3370766 0.07321018 0.048979577 -0.008487445 0.3385715 -0.0758666 -0.13709532
-0.09277522 0.2631863 0.14965746 0.09192061 -0.29279816 0.12696685 -0.13168189 -0.018411519
-0.11907848 -0.1632552 0.033102036 -0.0329709 0.070398904 -0.08198655 0.24775574 0.1886309
-0.26587647 0.30895057 0.31854895 0.20572801 -0.00976625 0.07227747 -0.15612146 -0.056325033
0.30163166 -0.042013723 0.29096556 -0.070823915 0.12046846 0.010012798 -0.2339652 -0.23045836
-0.0067597656 -0.2141014 0.010003005 -0.0024059725 0.033495188 -0.27092922 -0.15398557 -0.06761884
0.014510079 0.08794284 0.17762901 0.09723976 0.15683006 0.26395 0.174462 0.1881889
-0.23448074 0.097059555 -0.057731148 -0.051815793 -0.2742094 -0.1627628 -0.14087392 -0.23862216
-0.33298987 -0.18723996 0.30424556 -0.106953435 -0.0012504092 -0.14684793 0.042162616 0.3234431
-0.30598032 -0.17306103 0.3377177 0.012031267 -0.1950477 0.017840093 0.25257626 -0.20341158
0.13842669 -0.069539554 -0.076918766 0.41584805 -0.15524329 -0.17962053 0.39096975 -0.12993158
-0.3730908 -0.22671404 -0.16846724 -0.040053383 0.0964206 0.086826876 -0.27101773 0.029094702
0.30908084 0.17078343 -0.14959155 -0.1377252 -0.057374254 0.098013826 -0.10368892 0.014311793
-0.027517056 0.23722187 0.05957852 -0.076834545 0.22462147 0.21069683 0.21527904 -0.106628574
-0.012349949 -0.2721143 0.20061855 -0.39987382 -0.21733326 0.44080785 -0.09649028 -0.18415664
0.074436896 -0.20724064 -0.05794166 -0.33337915 0.24455708 0.015637161 -0.05245838 -0.06500422
-0.050241165 -0.11701234 -0.102606654 -0.17787583 -0.025427757 0.27309945 -0.111994535 -0.019876868
-0.13342565 -0.03878686 0.15521613 0.04190843 -0.042976316 -0.20425281 0.083575495 -0.21167734
0.023708958 0.12914835 0.20425913 -0.24206136 -0.06816575 0.052737862 -0.16873726 -0.18484966
0.076146536 0.109096795 -0.22833905 -0.087081224 -0.08724471 -0.22367004 0.05782117 0.15020844
00000000: 5814 28be 2ed4 2e3e 1183 633d 6384 433e
00000010: b776 853d 104e 09be 0a35 6b3e e68a 093d
00000020: 7693 0abe f4a6 b63c 14a1 6a3e eeca 513c
00000030: 6ccd 1c3d 9a8c a33e 97aa 3dbe cfe1 313c
00000040: 6982 48bd 8c00 39be 3f00 0fbd 4d96 d7bc
00000050: 84ba 0dbe 5e11 0e3e d3b3 6bbe 75b9 4e3d
00000060: 80ef a23d bf26 9f3d 053e b1bd b04a 2c3e
00000070: 3d04 e63d 5623 093e 0dbb 92bd c0ef 0cbe
00000080: cedd 743d 3ddf d23d 89e5 41bd 130d febd
00000090: 4353 56bd 67d8 07bd 76bc 8fbc 6b70 203e
000000a0: 3374 3bbe 7215 213e 3f7f 75be 8de6 32be
000000b0: ffee d73c afb7 5e3e e550 a0bb 796f 683e
000000c0: e2bd af3e e089 33bd 64f7 7fbe 9355 c9bd
000000d0: ccc2 7f3e 0f48 d1bd 08e6 173d 60e7 58bd
000000e0: 4f50 6a3e 4a62 97bc 1ebf bebd 8ef1 3bbe
000000f0: 7fde 60be 2f30 16bd 569f 773d 5bb0 a03e
00000100: 88c3 64bd c2cb 6abd a818 963d 1356 b2bd
00000110: 9035 b73c 502e d13c fdd1 90bd 999e 9ebe
00000120: 1079 3b3e 346b 3b3e 64b7 28be bf16 35bc
00000130: 392b 023e f968 b5be e1d0 92be accf 683e
00000140: 9f68 92be 51d7 143d a53d 223e 03e9 d1bd
00000150: 5a41 ad3d 1f03 6e3e 81fc 9cbe 20eb 843e
00000160: 69d7 a2bd 5c60 da3e 1ce5 8b3e daad 433e
00000170: 817c b7be 224f 17be 3170 333d 33a1 8abe
00000180: 4b78 b63e 4e95 acbe 38ef 953d cf9e 483d
00000190: ed0e 0bbc 3e59 ad3e f35f 9bbd b762 0cbe
000001a0: ef00 bebd 5bc0 863e ce3f 193e df40 bc3d
000001b0: a4e9 95be 9903 023e 9ed7 06be c1d3 96bc
000001c0: 6bdf f3bd 5f2c 27be 0096 073d 7f0c 07bd
000001d0: 4d2d 903d 90e8 a7bd aeb3 7d3e 7528 413e
000001e0: f620 88be c52e 9e3e d918 a33e 5daa 523e
000001f0: 9f02 20bc 3606 943d 4ede 1fbe 14b5 66bd
00000200: 776f 9a3e 9516 2cbd 70f9 943e 210c 91bd
00000210: 2bb8 f63d b80c 243c 9394 6fbe 47fd 6bbe
00000220: 0681 ddbb 663d 5bbe a5e3 233c 85ad 1dbb
00000230: 4032 093d 3cb7 8abe 65ae 1dbe bf7b 8abd
00000240: afbb 6d3c 601b b43d 61e4 353e a425 c73d
00000250: 0f98 203e 7424 873e 2ba6 323e 97b4 403e
00000260: b81b 70be 29c7 c63d 7f77 6cbd cc3c 54bd
00000270: 2d65 8cbe 4bab 26be 4141 10be 5e59 74be
00000280: a67d aabe d5bb 3fbe 13c6 9b3e 670a dbbd
00000290: c5e4 a3ba 4e5f 16be b5b2 2c3d 569a a53e
000002a0: 74a9 9cbe e936 31be 56e9 ac3e cb1e 453c
000002b0: 96ba 47be 6325 923c ad51 813e 204b 50be
000002c0: babf 0d3e c16a 8ebd 9687 9dbd 09ea d43e
000002d0: 19f8 1ebe 72ee 37be 302d c83e c90c 05be
000002e0: c205 bfbe ba27 68be ad82 2cbe 040f 24bd
000002f0: 2a78 c53d 4ad2 b13d d6c2 8abe 0358 ee3c
00000300: d83f 9e3e dae1 2e3e 872e 19be d607 0dbe
00000310: 4401 6bbd 79bb c83d db5a d4bd 037c 6a3c
00000320: 736b e1bc 4aea 723e 9b08 743d 6e5b 9dbd
00000330: 2c03 663e e9c0 573e 1c72 5c3e 1560 dabd
00000340: 7157 4abc 9152 8bbe f36e 4d3e 43bc ccbe
00000350: 9c8c 5ebe 91b1 e13e b29c c5bd 8f93 3cbe
00000360: 5f72 983d e436 54be 3c54 6dbd acb0 aabe
00000370: 2c6d 7a3e 8119 803c 99de 56bd ef20 85bd
00000380: aec9 4dbd 2aa4 efbd 7023 d2bd 1525 36be
00000390: df4d d0bc b1d3 8b3e 645d e5bd d0d4 a2bc
000003a0: bca0 08be f8de 1ebd faf0 1e3e 2da8 2b3d
000003b0: ef07 30bd a627 51be a129 ab3d f2c1 58be
000003c0: 4a39 c23c 773f 043e 4e29 513e efde 77be
000003d0: 7c9a 8bbd a803 583d 76c9 2cbe 3b49 3dbe
000003e0: b7f2 9b3d 246e df3d b6d1 69be a457 b2bd
000003f0: 5bad b2bd c209 65be e4d5 6c3d 3ed0 193e

rnn.bias_ih_l0 f4 [32]
-0.078269534 -0.19130458 -0.08159653 -0.044689476 0.21525188 0.17691135 -0.22427382 0.06263511
-0.03205879 -0.055474926 0.0153215835 -0.007227183 -0.09141619 0.11656298 0.1534099 0.048354335
-0.063858815 0.13893493 0.21674138 0.08607814 0.06636122 -0.09935016 0.055784203 0.081584096
-0.12633495 0.010117291 0.10483942 0.010092666 -0.21653225 -0.08483124 -0.07664124 0.013817466
00000000: c74b a0bd 59e5 43be 151c a7bd 500c 37bd
00000010: fd6a 5c3e 4028 353e 09a8 65be d646 803d
00000020: 1450 03bd ad39 63bd 6107 7b3c 01d2 ecbb
00000030: 6938 bbbd 92b8 ee3d 7c17 1d3e 320f 463d
00000040: 69c8 82bd f544 0e3e 74f1 5d3e bc49 b03d
00000050: 64e8 873d 1978 cbbd fa7d 643d 9015 a73d
00000060: f35d 01be fec2 253c 0db6 d63d b65b 253c
00000070: a1ba 5dbe 00bc adbd 15f6 9cbd a762 623c

rnn.bias_hh_l0 f4 [32]
0.07987694 -0.18496294 -0.112674974 -0.1576928 -0.09033993 -0.0076012104 -0.21424612 -0.028617408
-0.0016321098 -0.10793972 0.024213074 -0.0037243834 -0.10511333 0.1737863 0.149176 0.033631105
-0.10955609 -0.027796991 0.12722027 -0.05456572 0.094004475 -0.24228127 -0.070681535 -0.025612216
-0.103801906 0.041101355 -0.16383047 -0.10574789 -0.015030406 0.030728726 -0.08811466 0.012117266
00000000: 8596 a33d ed66 3dbe 23c2 e6bd 397a 21be
00000010: 2404 b9bd 9313 f9bb 5663 5bbe 0e6f eabc
00000020: 84ec d5ba 800f ddbd 7f5a c63c c914 74bb
00000030: a845 d7bd 09f5 313e 98c1 183e c5c0 093d
00000040: f15e e0bd 84b6 e3bc 0846 023e 4e80 5fbd
00000050: 6b85 c03d 9518 78be 7bc1 90bd b6d0 d1bc
00000060: 1896 d4bd e559 283d 2dc3 27be 5a92 d8bd
00000070: 1842 76bc cfba fb3c 7575 b4bd 7f87 463c

rnn.weight_ih_l0_reverse f4 [32, 128]
0.09094652 -0.07283692 0.006251467 0.03227117 -0.017146043 -0.007925242 0.017385295 -0.021998296
-0.058390684 -0.12916473 0.063454345 -0.13378763 -0.06423134 -0.11878815 0.16249022 0.12257639
0.025499327 -0.021477168 0.052353993 -0.028713837 0.12056787 0.057532087 -0.013267009 -0.08036552
-0.020608764 -0.2236033 0.07713127 0.12595485 0.05338068 -0.09747538 -0.09465461 -0.101844735
0.14898773 0.07012008 -0.14945576 -0.2846814 -0.01102981 0.06141958 -0.067479484 -0.14780678
0.0120321475 -0.032734398 0.014228786 0.032348186 -0.00887796 0.16141264 0.020897469 -0.018730102
-0.17998195 -0.09358888 0.10543173 -0.15631877 0.19768271 -0.09552035 0.087532595 -0.20968199
-0.26323196 -0.0307253 0.017095327 0.10465323 -0.047830965 0.031854156 -0.16614453 0.005276527
-0.037476424 0.022792062 -0.11347831 0.011324637 -0.0836801 -0.14487955 0.103885636 0.04169443
0.018794946 -0.12178109 0.061374236 -0.10168482 -0.069825724 0.03899998 0.14569274 -0.13885686
-0.11732752 0.086964205 -0.10959908 -0.16103882 -0.05399825 0.074666716 -0.06539462 -0.008183481
0.21122625 -0.0554453 0.08742733 -0.1929387 0.08542116 -0.085101545 0.007979919 0.09773385
-0.022465093 0.012399217 -0.019262021 0.03337276 0.099944346 -0.15115167 0.07137422 0.09898072
0.10286286 -0.00021756014 0.08529645 -0.14111643 -0.060414154 0.18667983 -0.24666812 -0.049219906
0.0834965 -0.094018675 -0.045822736 0.042117927 0.14635502 0.18273239 0.19692105 -0.020439355
-0.07853348 0.024041621 -0.100503996 0.057346508 0.08842838 -0.15798858 -0.24659698 0.02203067
-0.014091205 0.07327357 -0.07208303 0.021238241 0.11431778 -0.090187475 -0.0033351278 -0.000681464
0.23138517 -0.13294844 -0.11407759 0.07109253 -0.1393124 0.15351059 0.07654359 0.02976368
-0.08376983 0.1709516 -0.082417205 0.13612038 -0.20950548 0.016983572 -0.04428081 -0.074017756
0.09603792 -0.1311661 0.14460942 0.025772022 -0.17810223 -0.024193628 0.09590918 -0.11638761
0.05651209 -0.14165689 -0.011482047 0.06323353 -0.11851252 0.11002241 -0.11432891 -0.025078507
-0.20737933 0.04921171 -0.03993525 0.028337242 -0.10895443 -0.019747328 -0.12057336 0.14965063
-0.28109944 -0.08676218 0.099496156 -0.11526399 -0.104109965 -0.1695342 -0.0025736091 0.2053756
0.299451 0.00054678536 0.22445862 -0.12859584 0.024153903 -0.17444761 -0.12134388 -0.08174581
0.1443455 0.2986344 0.15627976 0.11811152 -0.2551766 0.06343001 -0.123416804 0.118067294
-0.14348106 0.034322537 -0.027199151 -0.1633978 0.08573298 -0.23394644 0.012064 0.02736442
-0.09320851 -0.096454225 -0.05849611 -0.005906574 -0.055450488 -0.049774636 0.09233911 -0.01905627
-0.07010364 0.04341934 0.02930092 -0.00052926334 -0.124431156 0.09604522 -0.14889461 0.012710833
0.0071234275 -0.22446948 -0.18311201 0.010278171 0.12580085 -0.0978434 0.13820168 0.009126155
0.055762548 0.20217955 0.15835202 -0.0771211 -0.1547124 -0.23300362 0.15874186 0.16863355
0.09414642 0.13211024 0.16387294 0.1243004 0.06726516 0.04634457 0.034360785 0.16877265
-0.0604158 -0.0033857012 0.04600557 -0.022478186 0.09592502 0.046730023 0.23836961 0.12484724
00000000: 2b42 ba3d 862b 95bd 1bd9 cc3b c62e 043d
00000010: dc75 8cbc e0d8 01bc 9b6b 8e3c c535 b4bc
00000020: 122b 6fbd c243 04be 5af4 813d a0ff 08be
00000030: b98b 83bd 3447 f3bd d663 263e 5509 fb3d
00000040: f7e3 d03c e3f0 afbc 2471 563d 4839 ebbc
00000050: 4aec f63d c4a6 6b3d de5d 59bc ae96 a4bd
00000060: b6d3 a8bc 43f8 64be 00f7 9d3d 4ffa 003e
00000070: b3a5 5a3d 2ca1 c7bd 47da c1bd f993 d0bd
00000080: 3d90 183e 1e9b 8f3d ee0a 19be c3c1 91be
00000090: 60b6 34bc 1993 7b3d af32 8abd a95a 17be
000000a0: 7c22 453c 8114 06bd db1f 693c 887f 043d
000000b0: dd74 11bc 5b49 253e 2b31 ab3c df6f 99bc
000000c0: 304d 38be 87ab bfbd 97ec d73d 0712 20be
000000d0: 566d 4a3e 2ca0 c3bd 4a44 b33d e0b6 56be
000000e0: 57c6 86be a0b3 fbbc 800b 8c3c 6f54 d63d
000000f0: 67ea 43bd 8179 023d cb21 2abe b7e6 ac3b
00000100: e180 19bd 6bb6 ba3c 5167 e8bd f88a 393c
00000110: 7960 abbd 4e5b 14be fec1 d43d c7c7 2a3d
00000120: dcf7 993c 5d68 f9bd 8d63 7b3d 2240 d0bd
00000130: ca00 8fbd 71be 1f3d 7a30 153e 7e30 0ebe
00000140: 6949 f0bd 4a1a b23d 7c75 e0bd 5ce7 24be
00000150: 452d 5dbd ddea 983d 9ded 85bd 0214 06bc
00000160: b24b 583e 9c1a 63bd 1a0d b33d b991 45be
00000170: 4af1 ae3d b849 aebd 35be 023c af28 c83d
00000180: b708 b8bc 1626 4b3c 63cb 9dbc e0b1 083d
00000190: 9faf cc3d 81c7 1abe a62c 923d 67b6 ca3d
000001a0: c3a9 d23d db20 64b9 e8af ae3d d380 10be
000001b0: d574 77bd ff28 3f3e 9196 7cbe d09a 49bd
000001c0: 3700 ab3d dd8c c0bd 9fb0 3bbd d983 2c3d
000001d0: 17de 153e 331e 3b3e aca5 493e 6f70 a7bc
000001e0: 29d6 a0bd eff2 c43c 0ad5 cdbd 2ce4 6a3d
000001f0: f019 b53d c2c7 21be eb83 7cbe aa79 b43c
00000200: ccde 66bc 7410 963d 45a0 93bd d2fb ad3c
00000210: 711f ea3d 36b4 b8bd 2992 5abb 46a4 32ba
00000220: 3cf0 6c3e a323 08be 83a1 e9bd f698 913d
00000230: e9a7 0ebe e131 1d3e e3c2 9c3d f6d2 f33c
00000240: 848f abbd f00d 2f3e 5aca a8bd 2463 0b3e
00000250: 9b88 56be 2221 8b3c cb5f 35bd 9f96 97bd
00000260: 87af c43d 6850 06be 7e14 143e d91f d33c
00000270: 6e60 36be b731 c6bc 086c c43d a15c eebd
00000280: 3979 673d 810e 11be 321f 3cbc 9580 813d
00000290: b1b6 f2bd 6e53 e13d 4725 eabd 7171 cdbc
000002a0: 3f5b 54be 3892 493d 2593 23bd 8123 e83c
000002b0: 8023 dfbd 26c5 a1bc 2aef f6bd 043e 193e
000002c0: 44ec 8fbe 5fb0 b1bd a4c4 cb3d 870f ecbd
000002d0: 9b37 d5bd 609a 2dbe ffa9 28bb fb4d 523e
000002e0: a451 993e 2556 0f3a 7bd8 653e a1ae 03be
000002f0: 68de c53c 65a2 32be 2483 f8bd 596a a7bd
00000300: 4fcf 133e 9ce6 983e cd07 203e 74e4 f13d
00000310: 82a6 82be 98e7 813d f3c1 fcbd 44cd f13d
00000320: b3ec 12be ca95 0c3d c1d0 debc c151 27be
00000330: c694 af3d a88f 6fbe 15a8 453c 592b e03c
00000340: 1ae4 bebd cb89 c5bd 9e99 6fbd ef8b c1bb
00000350: 0d20 63bd 7de0 4bbd 4a1c bd3d e51b 9cbc
00000360: 7f92 8fbd 7ad8 313d 7c08 f03c 43be 0aba
00000370: c3d5 febd 5bb3 c43d d477 18be 1941 503c
00000380: a46b e93b 54db 65be b781 3bbe c665 283c
00000390: f0d1 003e 1f62 c8bd be84 0d3e de85 153c
000003a0: 4567 643d 2808 4f3e 0827 223e abf1 9dbd
000003b0: ed6c 1ebe 8098 6ebe 3a8d 223e 46ae 2c3e
000003c0: d7cf c03d e847 073e 4fce 273e 3591 fe3d
000003d0: 51c2 893d ced3 3d3d e5bd 0c3d bdd2 2c3e
000003e0: 8f76 77bd a4e2 5dbb 5670 3c3d 2c24 b8bc
000003f0: 5674 c43d fb67 3f3d 2a17 743e e9af ff3d

rnn.weight_hh_l0_reverse f4 [32, 32]
0.14995797 -0.1261678 -0.39510792 0.18361874 0.13752264 -0.14222221 -0.36825514 -0.30429393
-0.25363576 -0.03324395 0.01841792 -0.09080903 0.13648255 -0.109201305 0.17777282 0.027502514
-0.24507007 0.22046095 0.27064592 0.013871263 -0.015347597 0.22556731 -0.017656967 0.25075212
0.025637168 0.043235607 0.0770177 0.08689955 0.39756957 0.2242222 -0.11539582 0.07201983
0.06716722 0.28987026 0.11385242 0.16966356 -0.06744337 0.038676493 -0.034388017 0.23031181
0.14359343 -0.18510257 0.1005699 0.11725859 0.0556669 0.058688752 -0.17601188 -0.33241978
0.2422793 -0.07142552 -0.20536469 0.057483546 -0.1240004 -0.3306051 0.032320876 -0.2584984
-0.015925558 -0.14626414 0.19634666 0.32357502 0.0008915376 0.11259984 -0.14191288 0.036110993
0.1539265 -0.013259709 0.057442084 0.04610964 -0.11420408 -0.060731694 -0.2492555 -0.17009282
-0.25185665 0.16799009 0.083088316 -0.19738069 -0.15673883 -0.15748309 -0.12678197 -0.03482301
0.098915406 0.06777423 -0.22307304 -0.1472408 0.18702464 0.07020843 -0.05946205 -0.023038238
-0.09856848 0.19304092 -0.110790975 -0.047569897 0.07704047 -0.08519609 0.0907266 -0.020492574
-0.09092508 -0.18597539 0.3085513 0.28421143 0.16246167 -0.09525661 0.16302831 0.07119869
-0.044173397 0.073358335 -0.057062805 0.2522629 -0.047165323 0.1420219 -0.12713598 -0.040190596
-0.15514049 0.2523707 -0.30308813 -0.2980114 0.033109315 -0.21980965 -0.037062515 0.08850917
-0.02335875 -0.20999548 0.031453006 0.1651211 0.16759785 -0.054958306 -0.080348976 -0.023042653
0.06212941 -0.133819 0.5031809 0.122084096 0.063639626 -0.08920237 0.30957454 -0.038803354
0.09979866 -0.066225134 0.13528734 0.29592565 0.046161458 -0.27545387 -0.1942212 -0.102869585
-0.07420941 -0.16662331 -0.14917785 -0.26273718 0.08454008 -0.023514714 -0.1151037 0.082402535
0.2666083 -0.5352963 0.060282223 0.087702364 -0.0014346989 -0.15919127 -0.29773405 -0.042878177
0.04019535 -0.05651677 0.1213545 -0.09172194 0.27664346 -0.09476202 0.04442924 0.07356296
0.119623594 0.03467075 -0.016716788 0.17198513 -0.058565177 0.17623612 -0.051997103 -0.20721366
0.1765834 -0.19715619 -0.35187465 0.014085117 0.02081317 -0.14808203 0.18844841 -0.27266556
-0.019652873 0.24876139 0.1822823 0.19760196 -0.237556 0.23054603 -0.014306457 -0.33587155
-0.16153108 -0.112166 -0.05179362 -0.015592418 -0.07571842 -0.28255537 0.22150332 -0.05851503
-0.062656805 -0.2375292 -0.08097788 -0.030099737 -0.1153331 -0.046033703 -0.16326238 0.020680444
-0.17412028 -0.17340972 0.2619639 0.11617228 0.06458041 0.1811292 -0.13987301 0.065797
0.332382 -0.3621044 -0.24466823 0.08059335 0.0973695 -0.01460784 0.24420017 0.23410326
-0.19688204 -0.03411178 -0.14057359 0.05325348 -0.22366646 -0.055040736 -0.09621423 -0.05313883
-0.20422123 0.045585576 0.016680518 -0.15673096 -0.03286486 -0.018707305 0.0014621309 -0.23115475
0.19967347 -0.09088486 0.019474134 0.0034502046 0.017520206 -0.012923595 0.07779285 0.050138436
-0.1419616 -0.06594731 0.20758867 -0.10819503 0.04525175 -0.18521152 -0.10432924 0.27483332
00000000: 958e 193e 2232 01be 964b cabe 8d06 3c3e
00000010: bcd2 0c3e b3a2 11be f08b bcbe 6acc 9bbe
00000020: 8cdc 81be cf2a 08bd 2ee1 963c 16fa b9bd
00000030: 15c2 0b3e efa4 dfbd 140a 363e f44c e13c
00000040: a6f3 7abe 84c0 613e 1a92 8a3e 4b44 633c
00000050: 7d74 7bbc 1efb 663e 58a5 90bc 9562 803e
00000060: 0a05 d23c d217 313d 75bb 9d3d 64f8 b13d
00000070: 3d8e cb3e 819a 653e a554 ecbd 227f 933d
00000080: f88e 893d e069 943e 752b e93d 49bc 2d3e
00000090: c01f 8abd 3e6b 1e3d 73da 0cbd dcd6 6b3e
000000a0: 280a 133e 878b 3dbe 97f7 cd3d 4625 f03d
000000b0: fa02 643d 9e63 703d 753c 34be ed32 aabe
000000c0: 1118 783e 8b47 92bd 1f4b 52be de73 6b3d
000000d0: ecf3 fdbd 1245 a9be e562 043d e759 84be
000000e0: 5176 82bc 44c6 15be 190f 493e a0ab a53e
000000f0: 13b6 693a bf9a e63d 9c51 11be 1fe9 133d
00000100: e99e 1d3e 403f 59bc 6448 6b3d 76dd 3c3d
00000110: d4e3 e9bd ccc1 78bd d53c 7fbe d02c 2ebe
00000120: 5bf3 80be 9805 2c3e 352a aa3d 2a1e 4abe
00000130: 2580 20be 3f43 21be 22d3 01be 93a2 0ebd
00000140: 2994 ca3d 37cd 8a3d 426d 64be 4bc6 16be
00000150: 6383 3f3e 70c9 8f3d 7b8e 73bd b0ba bcbc
00000160: 45de c9bd 85ac 453e 61e6 e2bd a7d8 42bd
00000170: 65c7 9d3d 4a7b aebd dece b93d 0be0 a7bc
00000180: ee36 babd 5570 3ebe 70fa 9d3e 2984 913e
00000190: 5a5c 263e e615 c3bd e5f0 263e 9ed0 913d
000001a0: 2aef 34bd e53c 963d b0ba 69bd 9a28 813e
000001b0: 6d30 41bd 306e 113e ef2f 02be e59e 24bd
000001c0: 26dd 1ebe bb36 813e 5e2e 9bbe f394 98be
000001d0: a29d 073d c815 61be ddce 17bd 4c44 b53d
000001e0: d95a bfbc 0e09 57be ded4 003d 8115 293e
000001f0: c59e 2b3e f61b 61bd 018e a4bd f2c3 bcbc
00000200: 697b 7e3d d907 09be 77d0 003f 3a07 fa3d
00000210: 7e55 823d bbaf b6bd 8e80 9e3e 44f0 1ebd
00000220: 3d63 cc3d 0ba1 87bd c488 0a3e 9183 973e
00000230: cc13 3d3d 4a08 8dbe ece1 46be 4aad d2bd
00000240: 1afb 97bd 4d9f 2abe 14c2 18be 7d85 86be
00000250: 5923 ad3d eea1 c0bc 7dbb ebbd a9c2 a83d
00000260: e280 883e 2e09 09bf 7eea 763d 4c9d b33d
00000270: 820c bcba 0903 23be 9970 98be 07a1 2fbd
00000280: e1a3 243d 217e 67bd b588 f83d b6d8 bbbd
00000290: 36a4 8d3e 9712 c2bd 6ffb 353d 2da8 963d
000002a0: 37fd f43d eb02 0e3d a5f1 88bc df1c 303e
000002b0: 0ae2 6fbd 3e77 343e eafa 54bd d12f 54be
000002c0: 47d2 343e 50e3 49be ea28 b4be 43c5 663c
000002d0: 6280 aa3c d1a2 17be 9ff8 403e d29a 8bbe
000002e0: 10ff a0bc 4ebb 7e3e 36a8 3a3e 2b58 4a3e
000002f0: e141 73be 4214 6c3e a165 6abc 5bf7 abbe
00000300: 6768 25be 4ab7 e5bd 8c25 54bd 5777 7fbc
00000310: 4212 9bbd 19ab 90be c4d1 623e 75ad 6fbd
00000320: 3652 80bd db3a 73be bbd7 a5bd b993 f6bc
00000330: c333 ecbd d68d 3cbd 412e 27be 096a a93c
00000340: 964c 32be 5192 31be 2220 863e bbeb ed3d
00000350: bc42 843d ef79 393e df3a 0fbe 94c0 863d
00000360: f92d aa3e bf65 b9be 4f8a 7abe 200e a53d
00000370: a969 c73d b955 6fbc 9c0f 7a3e c4b8 6f3e
00000380: 729b 49be cbb8 0bbd 86f2 0fbe 5220 5a3d
00000390: d208 65be 6572 61bd f70b c5bd 1aa8 59bd
000003a0: 5f1f 51be f1b7 3a3d 95a5 883c 157e 20be
000003b0: 4e9d 06bd 1040 99bc f9a4 bf3a d5b3 6cbe
000003c0: 3477 4c3e d721 babd 3888 9f3c d41c 623b
000003d0: 8986 8f3c 7cbd 53bc dc51 9f3d f65d 4d3d
000003e0: 625e 11be 620f 87bd 2092 543e 5b95 ddbd
000003f0: e659 393d 17a8 3dbe 92aa d5bd f4b6 8c3e

rnn.bias_ih_l0_reverse f4 [32]
0.07350626 0.10023285 0.004620134 -0.2666506 -0.20703453 0.09067294 0.055590294 0.0022460201
-0.16468902 -0.20283885 0.17855108 -0.009374436 0.28472745 -0.015959205 0.10517544 0.09182436
-0.22790234 -0.084759 0.005811225 0.074823126 -0.06617792 0.111092746 -0.031607617 0.007056382
0.062083133 -0.043518066 0.034451205 -0.21867219 0.08602511 -0.2638305 0.015296237 0.068909615
00000000: 738a 963d e146 cd3d 7e64 973b 6d86 88be
00000010: dc00 54be bcb2 b93d a6b2 633d f731 133b
00000020: 3da4 28be fdb4 4fbe 18d6 363e 3c97 19bc
00000030: ccc7 913e e1bc 82bc 3966 d73d 690e bc3d
00000040: 3b5f 69be 2096 adbd 176c be3b de3c 993d
00000050: 4a88 87bd 9884 e33d fd76 01bd 3939 e73b
00000060: e24a 7e3d 0040 32bd b51c 0d3d 9aeb 5fbe
00000070: ef2d b03d cb14 87be 119d 7a3c 7c20 8d3d

rnn.bias_hh_l0_reverse f4 [32]
0.13291036 -0.16777393 -0.13079806 -0.070489846 -0.0113477865 -0.1513607 -0.1090676 -0.057803757
0.08632516 0.010517404 -0.032269724 -0.059187267 -0.03199417 -0.24364896 -0.12729646 0.052205056
-0.013807394 0.13281779 0.024872817 0.094324045 0.04350571 0.22839177 -0.17745127 -0.0069488077
0.050292224 -0.033409584 0.0075493436 0.045339376 -0.12751105 -0.088302486 0.16612826 0.21347496
00000000: a719 083e eecc 2bbe edef 05be fb5c 90bd
00000010: 11ec 39bc 4dfe 1abe d55e dfbd a2c3 6cbd
00000020: 3fcb b03d 3151 2c3c 422d 04bd 596e 72bd
00000030: 520c 03bd 1d7f 79be 015a 02be f8d4 553d
00000040: 6838 62bc 6301 083e 14c2 cb3c f72c c13d
00000050: 0b33 323d 88df 693e c9b5 35be d3b2 e3bb
00000060: 38ff 4d3d 7dd8 08bd 7c60 f73b c8b5 393d
00000070: 4292 02be efd7 b4bd 871d 2a3e 2e99 5a3e

fc1.weight f4 [12, 64]
-0.0428171 -0.25875854 0.27504626 0.35770357 0.2449675 0.10366629 -0.24435304 0.28034043
0.14272167 0.3135795 0.18855919 0.27067566 0.41825372 -0.18810575 -0.3883294 -0.33398512
-0.17659682 0.24032918 -0.1584965 0.15193142 0.59428394 -0.48414984 0.4233938 -0.43715292
-0.10594393 -0.08843098 0.31326744 0.43746656 -0.6556856 -0.42055 0.50906175 0.41987145
0.3921813 -0.3733702 -0.045022026 -0.36908993 -0.5222178 -0.27418593 0.05936771 -0.28450742
-0.37574494 0.34536082 0.5161209 -0.25273696 0.42716646 -0.15811506 0.23219505 -0.0076020276
-0.13622743 0.46956602 -0.06277568 0.19560067 0.439204 0.05701766 -0.32491055 0.25135094
-0.19582877 0.14630695 -0.1306822 -0.28526676 0.30396226 -0.34679064 0.2943015 0.3848085
-0.7179605 -0.29545307 -0.7551911 -0.8088427 -0.15764774 0.5045606 -0.20561272 -0.044381123
-0.7896165 -0.86772996 -0.10527247 0.19776231 -0.9874635 0.379425 0.420176 0.31083074
0.6035088 0.48440412 0.7297385 0.26885512 -0.7375209 -0.27456427 -0.28443268 0.050640233
0.30585364 0.2801992 -0.2499515 -0.58951354 0.0695403 -0.2700651 -0.62885517 0.5073162
0.0930925 0.5789774 0.49356586 -0.45560524 -0.464638 -0.58129275 -0.2374923 0.9145971
-0.05643394 -0.6066272 0.27860415 -0.4210045 0.27144355 -0.5146583 -0.35271913 -0.60104567
-0.33608395 -0.58373266 -0.5934429 0.003941797 -0.8659042 0.7638162 -0.11619904 0.38012087
-0.09513544 0.44742185 -0.6472635 -0.20591432 -0.4579023 -0.2548695 0.61516327 0.25949427
0.52716833 0.02527119 0.60008967 -0.61359507 0.2739531 0.111289255 0.0461425 -0.20790263
-0.56421256 0.13135304 -0.47836486 -0.83684033 -0.5632254 0.02153528 0.3077274 -0.06124868
0.2947558 -0.12932432 0.024938572 0.588328 -0.15226363 -0.3418769 -0.54234815 0.28658924
0.17514074 0.21871114 0.2891319 -0.66674846 0.23545052 -0.2592129 -0.3720577 0.236895
-0.048843365 -0.24450277 0.45808977 -0.0105513735 0.41422105 0.5430581 -0.06945036 0.606588
0.3639163 0.2342124 -0.050865002 0.59177524 0.0042546354 0.06583306 -0.20595162 0.6704034
-0.19706544 0.062034316 0.17028359 0.018058695 0.38191193 -0.016036911 0.6348964 0.30225512
0.89937884 -0.5527876 0.5973764 -0.24795046 -0.13924296 0.4516437 0.30407858 0.23684545
-0.5523116 0.6947941 0.24282713 0.13469154 -0.11456682 0.3353096 0.029852776 0.64448035
-0.36420962 -0.33766446 0.22634517 -0.0799635 -0.46840593 -0.28968155 -0.09546129 0.5688934
-0.2900948 0.08625662 0.14095241 0.06673201 -0.28363127 0.50026715 -0.43834725 0.3008665
0.5009112 0.0033345146 0.251988 0.19678974 -0.11632866 0.57277733 0.12588196 -0.35540923
0.09835507 -0.26886532 0.50693804 0.47838444 0.44869846 -0.23942682 -0.17002201 0.6664766
0.52900887 0.0053929603 -0.5201535 0.45050114 0.0848394 0.45199203 -0.12429364 0.5142378
-0.1758922 0.16982959 0.027098611 -0.30440387 -0.23955816 -0.18751575 -0.013424991 0.030798791
0.16317822 -0.48819822 -0.06467993 0.1839285 0.15527278 0.3915427 0.14597908 -0.34730235
00000000: fc60 2fbd 007c 84be ddd2 8c3e ec24 b73e
00000010: c3d8 7a3e fe4e d43d af37 7abe c888 8f3e
00000020: a125 123e 7e8d a03e a915 413e 0096 8a3e
00000030: 5a25 d63e cb9e 40be 1cd3 c6be 1900 abbe
00000040: ccd5 34be da18 763e e84c 22be e993 1b3e
00000050: fe22 183f 7de2 f7be 12c7 d83e 82d2 dfbe
00000060: 22f9 d8bd 4d1b b5bd 9764 a03e 9efb df3e
00000070: 03db 27bf 5452 d7be df51 023f 64f9 d63e
00000080: fdcb c83e 612a bfbe 0469 38bd 5bf9 bcbe
00000090: 11b0 05bf 1962 8cbe 8e2b 733d f5aa 91be
000000a0: a461 c0be 22d3 b03e 8020 043f bd66 81be
000000b0: 90b5 da3e eae8 21be 8ac4 6d3e 6e1a f9bb
000000c0: 347f 0bbe f56a f03e 8990 80bd 8b4b 483e
000000d0: 59df e03e 5a8b 693d ad5a a6be 12b1 803e
000000e0: 5687 48be 7dd1 153e 8ed1 05be 7c0e 92be
000000f0: f1a0 9b3e 8b8e b1be b0ae 963e 9f05 c53e
00000100: 42cc 37bf a045 97be 3454 41bf 5110 4fbf
00000110: 696e 21be e22a 013f 248c 52be fbc8 35bd
00000120: 4f24 4abf 8d23 5ebf 1899 d7bd 3482 4a3e
00000130: 68ca 7cbf fe43 c23e 4f21 d73e 3525 9f3e
00000140: 8d7f 1a3f d103 f83e 24d0 3a3f 61a7 893e
00000150: 2bce 3cbf b093 8cbe 29a1 91be 226c 4f3d
00000160: d998 9c3e 4576 8f3e 49f3 7fbe 5cea 16bf
00000170: 256b 8e3d f945 8abe a7fc 20bf 79df 013f
00000180: 48a7 be3d dd37 143f aab4 fc3e 1745 e9be
00000190: 08e5 edbe 9acf 14bf 2e31 73be 0923 6a3f
000001a0: 4627 67bd ec4b 1bbf 34a5 8e3e e78d d7be
000001b0: a6fa 8a3e a5c0 03bf 9a97 b4be 21de 19bf
000001c0: 3213 acbe 816f 15bf e0eb 17bf 312a 813b
000001d0: e6ab 5dbf 7589 433f c3f9 edbd 349f c23e
000001e0: 5fd6 c2bd 7a14 e53e 10b3 25bf 34db 52be
000001f0: 2c72 eabe 417e 82be 577b 1d3f 6fdc 843e
00000200: 81f4 063f 8705 cf3c 7a9f 193f 9114 1dbf
00000210: 9543 8c3e 9feb e33d ebff 3c3d 6de4 54be
00000220: 3c70 10bf 6981 063e 3dec f4be 2b3b 56bf
00000230: 8a2f 10bf c16a b03c 728e 9d3e e5df 7abd
00000240: 3bea 963e 986d 04be fa4b cc3c aa9c 163f
00000250: ffea 1bbe 7d0a afbe 54d7 0abf d3bb 923e
00000260: 1858 333e d0f5 5f3e 1909 943e 07b0 2abf
00000270: f119 713e 8eb7 84be 597e bebe 9a94 723e
00000280: fb0f 48bd ef5e 7abe be8a ea3e abdf 2cbc
00000290: c814 d43e db05 0b3f fe3b 8ebd 5a49 1b3f
000002a0: 3d53 ba3e 60d5 6f3e d257 50bd 957e 173f
000002b0: 786a 8b3b 7cd3 863d fbe4 52be 8f9f 2b3f
000002c0: 86cb 49be b217 7e3d d25e 2e3e d4ef 933c
000002d0: f689 c33e d75f 83bc 9288 223f 2fc1 9a3e
000002e0: b13d 663f 7d83 0dbf a9ed 183f bae6 7dbe
000002f0: b595 0ebe d83d e73e 30b0 9b3e 9d87 723e
00000300: 4b64 0dbf 07de 313f ada7 783e 94ec 093e
00000310: 02a2 eabd b3ad ab3e cf8d f43c aafc 243f
00000320: af79 babe 5be2 acbe 07c7 673e e7c3 a3bd
00000330: e7d2 efbe 2451 94be 3581 c3bd ffa2 113f
00000340: 4e87 94be 50a7 b03d d455 103e cbaa 883d
00000350: 1e38 91be 8211 003f 0d6f e0be 2d0b 9a3e
00000360: b73b 003f df87 5a3b 9204 813e 4083 493e
00000370: b83d eebd 89a1 123f 33e7 003e 33f8 b5be
00000380: 626e c93d b7a8 89be b1c6 013f ceee f43e
00000390: cebb e53e 4e2c 75be 401a 2ebe 369e 2a3f
000003a0: 206d 073f 6eb7 b03b c828 05bf 16a8 e63e
000003b0: 48c0 ad3d 806b e73e aa8d febd 17a5 033f
000003c0: 161d 34be cfe7 2d3e e8fd dd3c d3da 9bbe
000003d0: bc4e 75be 2104 40be 7ef4 5bbc bf4d fc3c
000003e0: 3118 273e 1ef5 f9be e976 84bd c157 3c3e
000003f0: d4ff 1e3e 4978 c83e 8a7b 153e 9dd1 b1be

fc1.bias f4 [12]
0.039628167 0.10328136 -0.30218744 -0.29751348 -0.16123757 0.027963057 -0.18878134 -0.3593506
0.06327034 -0.23606399 -0.0056520607 0.013910051
00000000: 2551 223d 2d85 d33d 50b8 9abe b053 98be
00000010: 761b 25be c812 e53c e54f 41be cdfc b7be
00000020: e193 813d c2ba 71be ec34 b9bb fce6 633c
