initial_training/java_base_model.pt (torch, 103364 bytes, 11 tensors)

word_embeddings.weight f4 [109, 128]
00000000: 4d83 adbf 74da 5ebf 11c9 14bf 7118 d3bf
00000010: 6f34 99be ea65 29bf 8f17 61bf be43 bfbf
00000020: be87 58bf 1dd1 983e 3927 29bf 43a4 d2be
00000030: b708 c6be bc9b dc3f ca32 523e c1db f63e
00000040: cd26 0abf cb21 95bf 58ab 4e3f 1f3a f43d
00000050: 6920 613f 673a 043e 00ec 30bf c34b 223f
00000060: 1ec3 693f 3f8f 56be 9131 15c0 000e cabf
00000070: d52f 0a3e 4728 1cbf 7f42 84bf 6c90 f4bd
00000080: 4f9c ee3f a651 853c 73f6 25bc 4337 2ebf
00000090: 84f0 e63e 159e df3d cca4 0b3e cd17 0fbf
000000a0: f61c f0bb 72f3 013e cebb 9cbe 3db8 243d
000000b0: ce82 1640 27a8 54bf fc8e d73f 2870 1bbf
000000c0: e805 84bf efe4 523f d5fa 32be 8916 23bf
000000d0: fe11 503f 7448 2d3f 8446 9f3f b131 ec3f
000000e0: 9ac9 1c3c f264 693f cdc8 c3be aa10 27bf
000000f0: fb1f c43f 395e 19bf eb23 5ac0 5d0f 49bf
00000100: 62ae e4bd 40dc 8fbf 225f 3ebf ecb0 91bf
00000110: 9f35 5ebd 7aca 33bd 6e8f d03f 7815 f4bd
00000120: 85a0 42bf 32ea cabd b601 87bf 0d2d 6bbf
00000130: c84c bdbe c46e 24bf fab9 103f 56ef 8ebf
00000140: 64d5 82be e82b 8c3e 05d6 fabe 98b9 433f
00000150: 4b20 b3bf a01b f2be ce5d 303e 0ebc 9ebe
00000160: 2a92 343e 325a d1be 35be 8dbf b991 283f
00000170: 4418 80bf 21db 14bf 134d 153f 42f2 fe3f
00000180: 8645 243f 50a1 a63f 664b 683f 7f6d 6bbf
00000190: 772e c03f c66b 50bf 550e 92bf 3370 8e3f
000001a0: 6dd8 b23f 7961 b63e 52b5 64be 55ca 0d3d
000001b0: 1149 09c0 4512 ffbe 60c9 d4bf 643b 8cbf
000001c0: 8656 563f 7db8 0dbf 819c 9f3f aafa 1b3f
000001d0: 0689 9d3e 1d65 b73e fd25 003f ebe6 15bf
000001e0: 20d5 2540 deed 3bbe 9d0b 97bd 1826 fd3f
000001f0: 07e1 f4bf 5ad0 d03f 4572 cfbc 984e d73e
00000200: 865d 363f 9764 e3bf bd2d b53e ed8c 993f
00000210: 7a22 9bbe 0784 e1bf 2d85 223f 7aea 4dbf
00000220: e938 cebf 0391 efbf 8707 0b3f 3c22 293f
00000230: bfe4 1240 a3c6 2c3f 1f4e db3f c0aa e5bf
00000240: 8a7f aebf 48b4 7bbf 3071 c13f a451 243f
00000250: 5028 f23e 2970 dbbe a226 0d3f 4010 c6bf
00000260: ffa2 043f 352f da3d edd9 893e ff91 a93f
00000270: 8e7d df3f a06f ed3f 9bd4 34bf 4da7 2340
00000280: 0ec7 d53e e8d2 59be 7d07 57bf 950c d7be
00000290: d8c0 1fbf 1430 7abf b3f5 5f3f 79be 7c3f
000002a0: ca80 9e3e f8a5 c23f 1b45 9a3f 4965 e8bf
000002b0: 8392 cebe 8a8a 75bf 63a5 aabb ff82 a1bd
000002c0: baf9 573f b335 953f 07e5 063f b143 cf3f
000002d0: 26c7 76bf b8ea 103e bd96 27be f368 b7be
000002e0: a673 dc3f 436e 9bbe 709b 743e 3b08 ac3f
000002f0: fe67 d33d 68d8 8c3f b5f0 aebe cd84 723f
00000300: 438a 11bf b46c 563f fe4e e43f 671d 48be
00000310: 8bd1 033f 257a ecbf e9ab 3ac0 883c 11bf
00000320: 5791 0abf 202a 653f fbeb 61bf c824 083f
00000330: 07dc c5bf 8275 31be 5a6e 3a3f d1b8 693d
00000340: facf 673f fdec 853f d845 05bf 8e69 ad3f
00000350: 78d6 703e ed05 f53f 850f eb3f 478a a93f
00000360: fc10 78bf 9f35 a03f e7eb 9a3f ce25 07bf
00000370: cecf 5f3e cd05 13bf 1383 ba3f adae e23f
00000380: 6030 d33f b42f ddbe 0ac4 8abe 7b36 b8bf
00000390: 059f 9f3f 8e0d a33f 802a c83e 7440 c63e
000003a0: 3d7d a3bd 7df6 ae3e 59e6 723f d024 b1bf
000003b0: dcae dc3f 5058 17c0 1ef3 6dbf 0e56 963e
000003c0: 924b 5c3e 283f 703f 4f9c bb3f 1b75 0ebf
000003d0: e3ad 3ebf 4d02 4fbe 102e 6bbe 3e80 ae3a
000003e0: 2a24 c03e dec0 14bf d582 12bf 6c3e 813f
000003f0: b55e d8bd 4700 97bf a7ea b9bd 4328 103f
-1.3555695 -0.87052083 -0.58119303 -1.6491834 -0.29922816 -0.66171134 -0.8792657 -1.4942548
-0.84582126 0.2984704 -0.66075474 -0.41140947 -0.38678524 1.7235026 0.20527187 0.48214534
-0.53965455 -1.1650938 0.807302 0.11925148 0.8794008 0.12912904 -0.6911011 0.63396853
0.9131335 -0.20953082 -2.3311503 -1.5785522 0.13494809 -0.6099896 -1.0332793 -0.11941609
1.8641452 0.016274285 -0.010129559 -0.6805307 0.45105374 0.10918824 0.13637084 -0.5589569
-0.007327671 0.12690523 -0.30612034 0.040214766 2.3517337 -0.8306908 1.684051 -0.6071801
-1.0314302 0.82380575 -0.17478497 -0.6370626 0.81277454 0.6768868 1.2443395 1.8452665
0.00956955 0.91169655 -0.38239136 -0.652598 1.532226 -0.599094 -3.4084423 -0.7853907
-0.111660734 -1.123909 -0.7436391 -1.1382117 -0.054250356 -0.04389427 1.6293771 -0.11918157
-0.76026183 -0.099079505 -1.0547397 -0.9186562 -0.36972642 -0.64231515 0.5653378 -1.116679
-0.2555343 0.27377248 -0.4899141 0.7645507 -1.399423 -0.472867 0.17223284 -0.3100285
0.17633882 -0.40889126 -1.1073672 0.65847355 -1.0007405 -0.58146864 0.5832073 1.9917681
0.64168584 1.3017979 0.9074005 -0.9196395 1.501418 -0.8141445 -1.1410624 1.112799
1.3972298 0.3562124 -0.22334793 0.034616787 -2.1450846 -0.49818626 -1.6623955 -1.0955625
0.83725774 -0.5535963 1.2469636 0.6092936 0.30768603 0.3581933 0.50057966 -0.5855548
2.591133 -0.18352458 -0.07375262 1.977725 -1.9131173 1.6313584 -0.025323043 0.4205215
0.71236455 -1.7765073 0.35386458 1.1996132 -0.3029974 -1.7618417 0.6348446 -0.8043591
-1.6111118 -1.8716129 0.5430836 0.6606786 2.2952116 0.67490596 1.7133216 -1.7942734
-1.3632672 -0.9832196 1.5112667 0.64187074 0.4729638 -0.4285901 0.55137074 -1.5473709
0.5181121 0.10653535 0.26924077 1.324768 1.7460191 1.854969 -0.7063691 2.5570862
0.4175343 -0.2127186 -0.839958 -0.42001787 -0.6240363 -0.9772961 0.8748428 0.9872814
0.30957633 1.52069 1.2052339 -1.815591 -0.40346155 -0.9591452 -0.005207704 -0.07886314
0.8436543 1.1657013 0.5269322 1.6192533 -0.96397626 0.14152038 -0.16366096 -0.35822257
1.7222793 -0.3035756 0.2388742 1.3440012 0.10322569 1.1003542 -0.3416802 0.9473389
-0.56851596 0.8375962 1.7836607 -0.19542466 0.5149161 -1.8474776 -2.9167426 -0.5673299
-0.5412802 0.895174 -0.882507 0.53181124 -1.5457772 -0.17329982 0.72824633 0.05706102
0.9055172 1.0462948 -0.520597 1.3547838 0.23519313 1.9142433 1.8364111 1.3245324
-0.96900916 1.2516364 1.2103242 -0.5279206 0.21856615 -0.57430726 1.4571251 1.7709557
1.6499138 -0.43200457 -0.2710269 -1.4391626 1.2470404 1.2738512 0.39094925 0.3872105
-0.07982872 0.3417243 0.9488273 -1.3839359 1.7240863 -2.3647652 -0.9294909 0.2936253
0.21513203 0.9384637 1.4657077 -0.5564744 -0.7448408 -0.20215721 -0.2296679 0.0013313366
0.3752759 -0.5810679 -0.57230884 1.0097175 -0.10564939 -1.179696 -0.090779595 0.56311435

rnn.weight_ih_l0 f4 [32, 128]
00000000: 24a3 12be aaf6 0dbe a87d 92bd 0e24 4e3e
00000010: e891 d7bd 6637 0f3d 1dab e33d 3641 533e
00000020: 564e 6d3d c4d1 2c3e 2a12 6f3d 4b06 d03d
00000030: 7b9c 05be b139 893d 16b6 4e3e 6386 4d3b
00000040: 4ee1 693c 83dc 393e 5a97 63bd f126 623e
00000050: 9b97 ab3d 71d6 0abd b782 e03d 957e 3c3e
00000060: 62b3 51be 0b30 303e 8e1c b23a f84a 0abe
00000070: ae57 bf3d 672f 023e 5ed3 61be 57cc 83bd
00000080: 9b24 113b f0dc 0bbc 085e 273e 1d20 05be
00000090: 77a2 11be 5ef0 60bd 5e87 243e e058 8b3c
000000a0: 4494 c0bc 6301 863e f579 973d 1143 35be
000000b0: 2452 4fbe 6471 28be d034 a1be de19 37be
000000c0: 5e2b 21be 215b 5abe 5f2a a13e a6e7 073e
000000d0: 8eaa c43d bb8b 05be 88a0 b6bc 99d3 ed3d
000000e0: 66de 3d3e c0c4 8e3d 5179 da3c 4eb3 2ebe
000000f0: 25ed 6f3d b993 83bd ce99 f33d 6c37 d4bd
00000100: 78bc fdbd 9739 83bd 2a3f fabc cfc7 d0bd
00000110: 7064 7a3d 5060 233e bd2b 643e 549f e3bb
00000120: 6a51 ac3c 3ec8 bf3d 2dbc 54be daa7 073e
00000130: ac90 67bd fead 9abd 186f 4abd cf7d a3bd
00000140: c0c0 ac3d cd96 733e 559c 0cbe 382b 523c
00000150: 7816 163e 3331 6b3e f608 5ebe 15f6 4f3c
00000160: 16c1 00bd 518e 2dbe 1c07 97bd 6c4f 963d
00000170: 8614 013c 8c35 46be cd6d 61bd 4084 7d3d
00000180: 184d f73b 0068 a3bd ff7a 12be 2e69 943e
00000190: 4513 d73d 44f1 4cbe f875 0bbe 90c8 a4bd
000001a0: 795b fd3d 49bd 0bbd bd36 afbd 0bf6 dd3d
000001b0: 8a5c 7abc fc57 193e abc8 5abd d26a ecbd
000001c0: 9296 97bd 30aa 93bc e581 dd3c 3546 933c
000001d0: 40ae 073e a65d bc3d c856 45be 9f0d c6bd
000001e0: 9d1e 203b ca24 023e bf6c 28be fd71 71bc
000001f0: 593a 8ebc 8b5d 943d e880 483d 0fe7 f8bd
00000200: 5c61 0d3d 7289 0bbe 4157 35bd 394e febd
00000210: 7e48 cd3d 74e6 cf3d 3323 a23c 4ae2 7fba
00000220: 3042 1c3d a027 62be 1eb8 fb3c 03f4 dd3d
00000230: ff54 1c3e d725 e23d e637 ddbd 9a4f 1e3e
00000240: c622 c23d 2343 2fbe b654 9d3d 4c41 343c
00000250: 6fee 433e 7321 4ebe cdfe 0f3e 4d91 643e
00000260: 9231 cd3d cf9b 65bd 526b 8a3d e375 0b3e
00000270: 7392 d5bd 64ed d23d c7b6 153d e55a 413d
00000280: d7e1 ccbd 8720 24bd 7850 59bd a111 f83d
00000290: 0c15 1a3e 5cb7 6fbe b379 653d f4db 00bd
000002a0: 2e00 8cbc 8ff6 633d 4994 9cbc e014 153d
000002b0: dce9 2e3d dfd5 34bc a184 0e3e eb02 21be
000002c0: 6a47 653e c835 c73c 0b16 863d 8c3e 4cbd
000002d0: f2db 0fbe 6be6 b4bd 8dd8 683d 0fae bfbd
000002e0: 9fe1 28be c32f 083d 3711 0c3e 74c8 153e
000002f0: 8481 0d3d 8df1 47be 6ad8 243e 1a06 d83d
00000300: 0342 4a3e 4476 9ebd 1fb3 843c 1111 b33d
00000310: ee11 c03d b641 0abe 51c6 e9bd 3f05 baba
00000320: 9640 153e b561 bcbc b279 cc3d d52a 523e
00000330: 5ace 083b 893a 17be 846d 20bd d333 0e3e
00000340: e933 b33c 6471 24be d967 cebc b211 8abe
00000350: 0d47 4bbe 6eb3 1cbe 5478 a1bd 69ea 043e
00000360: ba28 3f3e 573f 8cbd 76f7 ba3a 331d 043e
00000370: adaf 503d 43ef a0bd 5071 72bc 78a3 0dbe
00000380: 0007 933c c88b c23c ebc8 2b3e a739 873e
00000390: cbd1 d83d a9e3 eb3d 682c 43bd 55f6 dc3c
000003a0: f5e5 85bd 247a 2d3e 43ec 983d bb8e 8fbe
000003b0: e467 7f3d 5fcd 41bd ec1b 5c3c e06b 04be
000003c0: a8f1 e2bb 18aa 1abe 8481 853d 1554 b43d
000003d0: 9ff5 603d 76f4 8abd b298 8b3b c3ce 5fbe
000003e0: 6a3a aabd 2dbe 8cbd ca0f f23d 6c5d 923d
000003f0: 9433 03bc 4697 2c3e 8f07 85bc e0ed 173e
-0.14320046 -0.13863626 -0.07152873 0.20130941 -0.10525876 0.03496494 0.11116622 0.20630345
0.057936035 0.16876894 0.058366932 0.1015745 -0.13047974 0.06700457 0.20186648 0.0031360618
0.014274908 0.18150525 -0.055564262 0.22085167 0.08378526 -0.033895914 0.10962432 0.18407662
-0.20478585 0.17205827 0.0013588832 -0.13505161 0.093428954 0.12713395 -0.22053286 -0.06435459
0.0022147063 -0.008536562 0.16344464 -0.13000531 -0.14222132 -0.054916732 0.16067263 0.017010152
-0.023508199 0.26172933 0.07396308 -0.17701365 -0.20246178 -0.16449505 -0.31485605 -0.17880961
-0.157392 -0.21323825 0.3147764 0.1327196 0.09602843 -0.13041584 -0.022293344 0.11612625
0.1854187 0.06971121 0.026669176 -0.17060587 0.058575768 -0.0642466 0.1189457 -0.103621334
-0.12389463 -0.06407469 -0.030547697 -0.101943605 0.06113094 0.15954709 0.2228231 -0.0069464836
0.021034915 0.09364365 -0.20774908 0.13247624 -0.056534454 -0.075527176 -0.049422354 -0.079829805
0.08435202 0.23787995 -0.13731511 0.012827687 0.14657009 0.22967987 -0.21683106 0.012692948
-0.03143414 -0.1694882 -0.07374403 0.07339367 0.007878428 -0.19356364 -0.055036355 0.0618937
0.007547032 -0.07978821 -0.14304732 0.28986496 0.10501722 -0.2001391 -0.1361922 -0.08046067
0.12370963 -0.034116063 -0.085553624 0.108379446 -0.015280852 0.1497497 -0.05341403 -0.11543812
-0.07401766 -0.018025488 0.027039478 0.017977813 0.13250065 0.091975495 -0.19271386 -0.09670567
0.002443231 0.12709346 -0.16447733 -0.01473665 -0.017361807 0.072444044 0.04895106 -0.12153446
0.034516677 -0.1362665 -0.044272665 -0.124172635 0.100235924 0.10151377 0.019792175 -0.0009761198
0.03814906 -0.22085428 0.030727442 0.10837557 0.15266798 0.110423736 -0.108016774 0.15460053
0.09479289 -0.17115454 0.07682173 0.011001896 0.19133924 -0.20129947 0.14062043 0.22321053
0.100192204 -0.056056794 0.06758751 0.13619189 -0.104283236 0.10299185 0.036551263 0.047205824
-0.10004013 -0.040070083 -0.053055257 0.121127374 0.15047091 -0.2340979 0.056024265 -0.031459764
-0.01708993 0.05565506 -0.019113677 0.03639686 0.042703494 -0.011037319 0.13917781 -0.1572377
0.22390524 0.024317637 0.06547173 -0.049864337 -0.14048746 -0.08833011 0.056847144 -0.09359371
-0.16492318 0.033248674 0.13678442 0.14627248 0.034547344 -0.19525738 0.1609818 0.10548039
0.19751744 -0.07737401 0.016198693 0.087434895 0.0937842 -0.13501629 -0.11414779 -0.0014192237
0.14575419 -0.02299581 0.09984149 0.20524152 0.0020874948 -0.14768423 -0.039166942 0.13886957
0.021875339 -0.1605888 -0.025196003 -0.26966625 -0.19851322 -0.15302822 -0.07884279 0.12980045
0.1866788 -0.068480186 0.0014264423 0.12901764 0.050948787 -0.078581356 -0.014797524 -0.1383189
0.017947674 0.023748294 0.16775863 0.26411173 0.1058689 0.11518032 -0.04764977 0.026972929
-0.065380014 0.16941124 0.07466938 -0.28038582 0.062354937 -0.047314998 0.0134343915 -0.12931776
-0.0069257803 -0.15103948 0.06518844 0.088051 0.054921743 -0.067849085 0.004260146 -0.21856217
-0.08311923 -0.06872211 0.11819418 0.07146725 -0.008007903 0.16854581 -0.016238956 0.14836836

rnn.weight_hh_l0 f4 [32, 32]
00000000: 2199 44be d2e2 383e 9235 10bb 60a9 343e
00000010: 0e4b c73c d9a9 dbbd 482f 6d3e da6a 3f3d
00000020: 07dc 28be 600a 8c3c 26ce 5d3e 732e 813b
00000030: f637 413c 3dc9 ba3e d3b8 2dbe 163e 743c
00000040: f047 afbd 95f0 37be ffa3 12bd eb84 36bc
00000050: ecf3 f3bd 1307 ff3d c7e7 95be 3876 3e3d
00000060: b7de 0f3e 0aa3 9d3d bcd8 d1bd 1de4 0d3e
00000070: aa40 d93d f87a 143e c1a4 bdbd eed3 d2bd
00000080: 7b56 863d c736 fa3d 1fe4 863c 592f 3fbe
00000090: 960e 2abd 460d b3bd dd92 acbb 5ebd 273e
000000a0: 258b 38be 6879 053e f766 96be af26 43be
000000b0: b1e1 dc3c c149 343e 0f9d 873d ff40 893e
000000c0: 3015 c33e acb2 29bd 3223 b7be b315 b5bd
000000d0: 6550 a33e d554 8cbd 1741 d63c cda8 06bd
000000e0: c52e 643e 2da9 87bc dde6 7fbd 6517 4dbe
000000f0: 9b57 7abe b12d c3bc c212 603d 6af3 a03e
00000100: 6023 4fbd 25c3 70bd df2e 4f3c 2aef a6bd
00000110: b385 f13c 055c 1b3d 778b 83bd 5fa8 b9be
00000120: c51d 413e 9ffc 3e3e 9176 30be 7e61 dcb9
00000130: 1868 2a3e 0f24 c0be c351 a1be a35e 6b3e
00000140: aea1 7dbe 6609 3fbb 758e 4e3e d7d3 14be
00000150: 09cd c23c d100 7d3e 0bb9 abbe c8e1 8d3e
00000160: 3263 d5bd 797f de3e b78d 833e 5082 553e
00000170: bb58 a9be ca94 30be e11c 3a3b d327 9abe
00000180: f221 c23e d009 d8be bd6a 9f3d d51f 763d
00000190: e590 0dbd e9e8 b03e af6e 88bd 7e91 e9bd
000001a0: ad74 95bd 2dd0 883e 6ec9 553e 563a 1e3e
000001b0: f2aa 89be 7bbf 043e 698b 19be bdb5 e2bb
000001c0: 6e7e 20be 7593 10be c1d0 8a3c a184 29bd
000001d0: 4bb1 ae3d 8c3a babd f62f 743e d67c 423e
000001e0: dd75 9fbe c134 a83e 2958 b53e ca28 763e
000001f0: 2bfd bbbb f765 bc3d 70fd 25be 5457 97bd
00000200: 4573 af3e 7c90 0ebd 08db 993e bb61 d6bd
00000210: f268 fa3d eb65 7cbc 7903 89be f5ca a6be
00000220: 76f6 1b3d e0c7 6cbe 0898 3abd 0c7a adbc
00000230: a8dc 023e 86f8 a7be f3e2 1bbe 9ae1 a2bc
00000240: 19b1 bc3c 0134 013d 0251 3c3e bdb4 033d
00000250: 1cf2 ee3d a5cb 993e 66df 2d3e 89c6 783e
00000260: 1823 95be ec02 ea3d 5d26 e3bd 5cb9 5bbd
00000270: b1ec 88be ed8a 40be 27cf 1bbe ce56 92be
00000280: ca08 b4be 9bfc 4fbe b9cb a53e 2ad3 f5bd
00000290: 2b0b b1bc a1f6 32be 75e0 d83c 5083 c93e
000002a0: 712c 9dbe cf70 51be 3c7a ca3e 685e 863d
000002b0: aa7b 59be 489a 123c ca90 6e3e 4e70 5fbe
000002c0: c1a1 8d3d ed0f cfbd c7db 99bd 03c1 ee3e
000002d0: 77d7 2abe 2759 45be 277b cb3e e337 efbd
000002e0: d0fb b4be d02d 81be 2274 46be 46de 1ebd
000002f0: d165 873d d024 ed3d 25d1 88be 7e6b df3c
00000300: 9d75 9c3e f5f4 513e ca15 08be 5c89 0abe
00000310: ea86 67bd c3b8 da3d 2a6c 0bbe 4e53 303c
00000320: ce76 e4bc e575 8a3e b209 983d f366 97bd
00000330: c17d 7f3e 67d6 8b3e 08d6 503e 74f6 f2bd
00000340: 4989 43bc 436f 6abe 4e8e 5b3e c635 c7be
00000350: cc10 75be c96c df3e 1277 f8bd 3a9f 5fbe
00000360: 3ac0 a63d 2134 6fbe 5c79 2fbd b7c8 b6be
00000370: 3fad 783e bb60 9e3b 7da5 82bc fbe6 2a3b
00000380: 4cbb 00bc 10ed abbd a0b8 25be 2007 45be
00000390: 0f32 18be af7b bd3e 1de8 0abe 4dd9 ddbb
000003a0: e618 14be 4e83 a9bb 217d 4f3e 753b fa3c
000003b0: b2bd abbc b7e3 cfbd d4e7 9a3d a0cf 7cbe
000003c0: 7b94 dbbb a37f b23d 2403 8e3e 629b 8abe
000003d0: f793 34be 5079 463d eafc 95be 302b 71be
000003e0: a028 e73d d2e0 ec3d 53ab 81be b2db 70be
000003f0: 4eda 46bd 8bd7 48be 9189 153d 86c7 553e
-0.19199039 0.18055275 -0.0022004587 0.17642736 0.024327781 -0.10725755 0.23162568 0.04673276
-0.16490184 0.017094791 0.2166067 0.0039423048 0.011793127 0.36481658 -0.16965036 0.014907381
-0.08558643 -0.17962869 -0.03580093 -0.011140089 -0.11911759 0.12452521 -0.29278395 0.04649946
0.14049803 0.07697113 -0.10246417 0.1385655 0.10608037 0.14500034 -0.0925994 -0.10294329
0.065594636 0.12217479 0.016466198 -0.18670405 -0.041517816 -0.08742766 -0.005266531 0.16380832
-0.1802183 0.13034594 -0.2937543 -0.19057725 0.026963087 0.1760626 0.066217534 0.268074
0.38102102 -0.04143016 -0.3576904 -0.088420294 0.31897274 -0.06852118 0.026154084 -0.032875825
0.22283466 -0.016560161 -0.062476028 -0.20028456 -0.24447481 -0.023825498 0.05470539 0.3143571
-0.050570846 -0.058779854 0.012645452 -0.08151086 0.029482698 0.037929554 -0.06423085 -0.3626127
0.18859012 0.18651055 -0.1723273 -0.00042034307 0.16641271 -0.3752751 -0.31507692 0.2298532
-0.24768707 -0.002914989 0.2017153 -0.14533935 0.023779409 0.24707343 -0.33539614 0.2771132
-0.10419311 0.4345663 0.25694057 0.20850492 -0.33075508 -0.17244259 0.002839856 -0.30108508
0.37916523 -0.42194986 0.077840306 0.06008895 -0.03456201 0.34552696 -0.06661736 -0.114047036
-0.07297645 0.26721326 0.2087762 0.15451941 -0.26888233 0.12963669 -0.14994587 -0.0069186375
-0.15673229 -0.1411875 0.016945245 -0.04138625 0.0852991 -0.09093198 0.2384642 0.18992934
-0.3114461 0.32852748 0.35418823 0.24038997 -0.005736967 0.09199136 -0.1620996 -0.073897034
0.3426763 -0.03480576 0.3004992 -0.10467859 0.12227048 -0.0154051585 -0.26760462 -0.3257672
0.03807684 -0.23123121 -0.045555145 -0.02117636 0.12779486 -0.32806796 -0.15223293 -0.019882966
0.023033665 0.031543735 0.18390277 0.032154787 0.116672724 0.3003818 0.16979751 0.24294485
-0.29128337 0.114263386 -0.110913016 -0.05364357 -0.2674308 -0.18802996 -0.15215741 -0.28581852
-0.35162956 -0.20311205 0.3238199 -0.12003167 -0.02161177 -0.17476894 0.026474217 0.39357996
-0.3069797 -0.2045319 0.39546382 0.06560975 -0.2123858 0.008947916 0.2329742 -0.21820185
0.06915618 -0.101104595 -0.07512622 0.4663163 -0.16683756 -0.1927229 0.39742395 -0.116805814
-0.35348368 -0.25230265 -0.19380239 -0.038786195 0.06611217 0.11579287 -0.26722065 0.027272936
0.30558482 0.205036 -0.13289562 -0.13528961 -0.05652515 0.10679772 -0.1361548 0.010762049
-0.027888682 0.2704307 0.07423724 -0.07392683 0.24950315 0.27312014 0.20394146 -0.118634135
-0.011934587 -0.22894005 0.21441004 -0.38908213 -0.23932189 0.43637684 -0.12132086 -0.21838084
0.08142133 -0.2335973 -0.042840347 -0.35700008 0.24284838 0.0048333085 -0.015948052 0.0026077616
-0.007857155 -0.083948255 -0.1618371 -0.19240999 -0.14862846 0.37008426 -0.13565107 -0.006770289
-0.14462623 -0.0051731234 0.20262577 0.03054593 -0.020964477 -0.10150855 0.07563749 -0.24688578
-0.00670105 0.08715751 0.2773677 -0.27071673 -0.17634569 0.048455536 -0.2929452 -0.23551631
0.112870455 0.115663186 -0.25326023 -0.23521307 -0.048548035 -0.19613473 0.036508147 0.20876893

rnn.bias_ih_l0 f4 [32]
00000000: bb16 adbd d0d1 4bbe 3587 9cbd ebc1 54bd
00000010: a0ea 5f3e 5b88 363e 1710 6cbe f5e4 593d
00000020: 9f3c 5cbc ad45 08bd dc10 333d 3834 bbbc
00000030: 0c93 c5bd 6ba2 e53d d373 183e 2274 393d
00000040: c590 96bd 37be 153e 1866 5b3e 0650 c23d
00000050: ff06 6a3d 9452 ccbd f9a1 4b3d 664e b93d
00000060: e2e6 02be b201 853a 6a53 e13d de8b 3a3c
00000070: 7824 5ebe 6e5f c4bd 8919 92bd 3002 0f3c
-0.08451601 -0.19904256 -0.07642976 -0.051942747 0.21866846 0.17825453 -0.23053013 0.053196866
-0.013442188 -0.033269573 0.04371725 -0.022852048 -0.096471876 0.112126194 0.14887933 0.04527677
-0.07351831 0.14623342 0.21425664 0.094879195 0.05713558 -0.09976688 0.049715016 0.090481564
-0.12783387 0.00101476 0.11002238 0.011385886 -0.21693599 -0.09588514 -0.07133777 0.008728549

rnn.bias_hh_l0 f4 [32]
00000000: 8ecb 963d 6653 45be 592d dcbd 8ee7 28be
00000010: 0104 b2bd f413 cdbb 64cb 61be 8ce0 1bbd
00000020: 4123 8b3c 6f95 afbd 797c 573d a082 9ebc
00000030: 41a0 e1bd da69 2d3e fa1d 143e c44b fa3c
00000040: 6227 f4bd 4eee a7bc 1875 ff3d 1174 3bbd
00000050: 76a0 ad3d f085 78be 412f 9dbd e7ed 88bc
00000060: fea7 d7bd d110 033d 5874 22be 7aec d5bd
00000070: 92dd 7cbc c42e a13c f298 a9bd c74e e63b
0.07363044 -0.19270095 -0.10750837 -0.16494581 -0.0869217 -0.006258482 -0.22050244 -0.03805594
0.016984584 -0.08573424 0.05260894 -0.019349396 -0.11016894 0.1693491 0.1446456 0.030553706
-0.11921574 -0.020499375 0.12473506 -0.045764986 0.08477871 -0.24269843 -0.076750286 -0.016715003
-0.10530089 0.03199846 -0.15864694 -0.10445495 -0.015433686 0.01967562 -0.08281125 0.007028434

rnn.weight_ih_l0_reverse f4 [32, 128]
00000000: 1266 dc3d 89a0 7ebd 1f90 393c 474b 203d
00000010: 8e6b 81bc f726 bdbc fcd3 053d 58ba ddbd
00000020: 7e75 7ebd 9fb4 f3bd 1fb3 833d c0e2 16be
00000030: 25f0 8bbd 4b57 b8bd 11a4 2f3e 2602 ea3d
00000040: 97ef a03d 595a 37bc 1c23 433d 816f 57bc
00000050: 1802 f53d c8e1 693d c5ad 31bc 79b5 99bd
00000060: 1b0e 9dbc d715 6abe 5aff 343d e406 f43d
00000070: f616 513d eaff adbd 2a81 28be f934 d5bd
00000080: 1645 183e 7d31 9f3d a31d 27be 32f6 96be
00000090: 6869 82bc ec3d 473d 56fd 8fbd d237 14be
000000a0: 2399 b63c 10ad 55bd 8212 9d3c eeb6 793d
000000b0: 3651 1e3c 52ee 203e 129d 9c3c 5712 3cbc
000000c0: d313 3abe 222e b6bd a2f0 f63d 17de 25be
000000d0: 1e0c 533e ca38 dcbd 8edf c63d 5dd1 3bbe
000000e0: bcc7 83be b0de 6dbc e8da c63c de1b df3d
000000f0: 032c 8abd 7399 6f3d 8ce8 2dbe 6b58 9e3b
00000100: 5067 1fbd 8b39 b73b 4dce eebd 3f8b 20bc
00000110: c111 cfbd 4d7b 15be 2286 eb3d 3648 273d
00000120: 915a 283c 1930 a2bd 327a 613d d8b4 cabd
00000130: 8b30 8cbd 8e74 1c3d 850a 113e 0feb 18be
00000140: 3382 f5bd 2af2 b03d 8f5d e3bd 4b1d 20be
00000150: ece9 74bd b8cf 4b3d 7e72 8abd 7476 85bc
00000160: ce09 413e 0270 6abd fe47 ab3d b748 45be
00000170: a50b ab3d 35e3 bbbd 4272 b53c d7a0 9f3d
00000180: 72b2 1bbc daa5 e73c 3944 d6bc aa14 033d
00000190: 7195 993d bf73 1bbe bd84 813d 4507 c93d
000001a0: 5b97 d73d 1f74 93ba 84e6 ba3d e6ce 08be
000001b0: 97c1 62bd 389b 563e a0b8 81be 5ba6 5bbd
000001c0: 8db0 aa3d 53bd b4bd 69ec 27bd 8378 2c3d
000001d0: 2162 1a3e abb1 423e 9fbc 5b3e 6ad5 a7bc
000001e0: 7fad 9ebd a0dd c33c b393 d1bd c8b7 723d
000001f0: 9418 b03d 22a8 28be 508f 82be f364 fcbb
00000200: 62c6 03bc f50c 823d b521 89bd dd67 c23b
00000210: dad9 0a3e e609 e1bd 1a1b 83ba e239 9dbc
00000220: cf98 803e 26e3 d5bd d05c f3bd 410e 963d
00000230: 9a3a 05be 6c7e 1c3e 6d7a 863d 1923 0c3d
00000240: 5c2f 9dbd 9f76 313e 9345 a9bd 1d1d 1c3e
00000250: 6d88 47be 7c0e 613c c522 3cbd 42cc 9fbd
00000260: 2d0c af3d d50a f6bd a2f8 113e 7f68 0d3d
00000270: 6bda 2abe 35d2 97bc 8091 a83d 2b2f e8bd
00000280: 6abd 633d 05b1 1ebe 70af bbbc 7d7b 7a3d
00000290: ccc2 f7bd 1d24 d63d 426b 14be 6dba e5bc
000002a0: ec68 39be 7ce0 ad3d dde9 0fbd 68c0 9f3c
000002b0: 8b33 dfbd e5d8 4bbc c660 fcbd c0c5 3a3e
000002c0: 17d0 8bbe f044 abbd a602 f53d bed7 debd
000002d0: d647 e9bd e4ca 25be 0551 47bc 3d3b 7c3e
000002e0: 0982 9e3e 477e be3c 249c 6e3e 52fe 0cbe
000002f0: b2ae 6f3c 5d0a 34be 8654 ebbd 5c04 9dbd
00000300: 41ab 113e bc32 9f3e d5bd 1e3e 4c67 bb3d
00000310: edb9 87be 9d48 7c3d ed47 f6bd 293d d03d
00000320: 740c 08be 53bd b53c da2f 26bd a425 28be
00000330: bc95 ae3d 429d 5cbe d0a0 6a3c 12be 103d
00000340: 8622 c9bd 3025 dcbd e3bc 45bd ad4d 093c
00000350: 0057 28bd 06db f1bc 9908 cf3d ba9a 35bd
00000360: 9079 1cbd 0074 883d ee0a 733c f0b0 ccbc
00000370: 3a20 00be b25f ca3d 04e4 23be 6186 b53c
00000380: f72b 9f3c 683a 62be 33a1 36be 5885 2b3c
00000390: 83fb fb3d 9f0f d3bd 085e 103e 48ea a33c
000003a0: fea9 5a3d bd93 543e f5ea 403e 6a21 96bd
000003b0: 4560 24be e1ce 87be e682 283e 5b91 1e3e
000003c0: 2139 a43d cfbd 063e f675 3a3e 49ce 013e
000003d0: c77d 5a3d eaad 313d 0ed4 1a3d 2684 343e
000003e0: 0152 5dbd 6481 23bc 37e8 713d 85ce c7bc
000003f0: 8e31 d03d 5283 613d b438 7f3e f20d d93d
0.10761656 -0.062164817 0.011325865 0.03913429 -0.015798356 -0.023089869 0.032672867 -0.10826558
-0.062123768 -0.11899685 0.06430649 -0.14734936 -0.06832913 -0.09001025 0.1715243 0.11426191
0.07858198 -0.011190974 0.047640905 -0.013149143 0.1196329 0.057100087 -0.010844653 -0.07505316
-0.019171765 -0.22859894 0.044188835 0.11915377 0.051047288 -0.08496077 -0.16455522 -0.10410494
0.14870104 0.07773111 -0.163199 -0.29484707 -0.015919402 0.048643038 -0.07030742 -0.14474419
0.022289818 -0.052167 0.019173864 0.06096547 0.009662917 0.15715912 0.019117866 -0.011478982
-0.18171625 -0.08895518 0.12057616 -0.16198002 0.20610091 -0.10753019 0.097106084 -0.18341585
-0.25738323 -0.014518425 0.024274305 0.10893987 -0.06746676 0.05849595 -0.16983241 0.0048323176
-0.038916886 0.0055915765 -0.116604425 -0.009798824 -0.10110808 -0.14597817 0.11500193 0.04084035
0.010275499 -0.0791933 0.055048175 -0.098977745 -0.06845196 0.038197093 0.14164169 -0.14933418
-0.11987724 0.08639939 -0.11101829 -0.15636174 -0.059793398 0.049758643 -0.06760119 -0.016291834
0.18851396 -0.057235725 0.08363341 -0.1926602 0.083518304 -0.09174196 0.022149209 0.0779435
-0.009502994 0.028277326 -0.026155578 0.03200213 0.07499207 -0.15180872 0.06324146 0.0981584
0.10526916 -0.0011249817 0.091259986 -0.13360175 -0.055360403 0.20957649 -0.2533617 -0.053625446
0.08334456 -0.08825173 -0.040996943 0.042107116 0.15076496 0.19013087 0.21458672 -0.020487506
-0.077479355 0.02390939 -0.102332495 0.0592573 0.08598438 -0.16470388 -0.25499964 -0.007702464
-0.008042904 0.063501276 -0.06695882 0.0059327916 0.13559666 -0.10988216 -0.0010002584 -0.01919264
0.25116584 -0.10443716 -0.11882937 0.073269375 -0.13010636 0.15282601 0.065663196 0.03421316
-0.07675049 0.17330407 -0.08265223 0.15245481 -0.19485636 0.0137363635 -0.045931596 -0.07802631
0.08547244 -0.12013785 0.14255002 0.034523483 -0.16684882 -0.018532852 0.08230877 -0.113371216
0.05560056 -0.15497215 -0.022910804 0.061152924 -0.120977014 0.10456107 -0.1449404 -0.028042996
-0.18106431 0.084900826 -0.03513514 0.019500926 -0.10898503 -0.012441848 -0.123231456 0.18239498
-0.27307197 -0.08362758 0.11963396 -0.10880993 -0.11390655 -0.16190678 -0.012165313 0.24631973
0.30958584 0.023253573 0.2330175 -0.1376889 0.014629053 -0.17582078 -0.11490731 -0.07666847
0.14225484 0.31093395 0.15502103 0.09150562 -0.26509038 0.061592687 -0.120254375 0.101679154
-0.13286 0.022185003 -0.04057298 -0.16420609 0.08524653 -0.21544364 0.014320567 0.035337515
-0.09821038 -0.107492805 -0.04827584 0.008380336 -0.041098595 -0.029523384 0.10109062 -0.044337012
-0.03820187 0.0666275 0.014834149 -0.024986714 -0.12512293 0.09881534 -0.1600495 0.022158803
0.019430144 -0.22092593 -0.1783493 0.010468803 0.123038314 -0.10305714 0.1409837 0.020009175
0.053384773 0.20759483 0.18839629 -0.07330592 -0.16052349 -0.26525024 0.16456184 0.15485136
0.08018709 0.13158344 0.18209061 0.12676348 0.053342607 0.043378748 0.037799887 0.17628536
-0.054033283 -0.00997958 0.059059348 -0.024390468 0.10165702 0.055056877 0.24923974 0.10598363

rnn.weight_hh_l0_reverse f4 [32, 32]
00000000: 1dee 143e 530d babd 3eca d7be a40b 443e
00000010: 21bb 1a3e a645 21be ed7b ddbe 3a04 b4be
00000020: 2a4b 99be fa2d 7ebd 3fb1 4a3b eef3 e3bd
00000030: 0bf4 073e 4e73 b0bd f681 383e f6d3 2a3c
00000040: d482 99be 63f1 303e 9f60 9d3e 6797 883d
00000050: 1b85 14bd faca 533e c1e0 4fbc 3ef3 8e3e
00000060: 70a6 853b 9d29 e33c a865 773d 65e3 973d
00000070: 91bd d63e 9dbf 753e af33 0bbe 1c7d d83d
00000080: 9621 733d bf97 9a3e 9b50 ce3d f29f 1a3e
00000090: be4e 9ebd 9b04 533d 696b 3bbd e99e 713e
000000a0: 12d5 2d3e 0ddf 24be 85ba cf3d 4281 db3d
000000b0: b98d 5b3d c49f 923d 6fd5 3dbe 817c b1be
000000c0: 2b70 823e cf7b 9cbd b101 66be f53b 3c3d
000000d0: 84c7 10be 6e90 a7be f211 253d d886 8dbe
000000e0: 4df9 8a3a 32ec 09be 9337 5a3e 9681 b13e
000000f0: 7d55 a0bc 00b4 ed3d 94a7 0fbe 963d 033d
00000100: 8081 283e 8451 b83c 8822 983d de11 e23c
00000110: 1e13 26be a93c 983a 964f b5be cb5d 20be
00000120: bd59 66be 8381 333e ed3c c33d cb49 18be
00000130: 72d4 30be 16be 2fbe 9d22 07be 08d9 13bc
00000140: 9fe3 e53d e441 013d 93f6 6ebe 70aa 1fbe
00000150: df6c 543e 8a20 9f3d faab 2bbd 6ca6 9bbc
00000160: 9e9a bcbd 45d4 473e 84e9 93bd fbc2 82bc
00000170: 46eb d13d 15d9 a8bd fb3d aabb 09e4 dbbd
00000180: 6a8d adbd 030b 53be 9ca9 ab3e 4e95 a43e
00000190: c489 3c3e 06f5 08be 1cd7 393e 8c5d a23d
000001a0: 6896 8dbd 532a bc3d 78e6 8ebd c7a2 8a3e
000001b0: af82 0fbd 04ea f83d 7e16 ffbd 0181 4ebc
000001c0: 6601 3ebe 1038 883e 33ab 93be c845 b0be
000001d0: 5fea 4a3d 857a 78be c7eb 2cbd 61e6 e33d
000001e0: 07f0 a8ba 68ed 85be 0acb 263d ec76 303e
000001f0: 96d7 3d3e cdf8 4bbd 7f30 c6bd de44 a6bc
00000200: fcc3 953d acc9 2fbe 1347 0a3f c0f4 3b3e
00000210: ead2 8e3d 9d34 cabd 98c9 a63e 472d b33b
00000220: f3a3 0e3e 4931 bbbd c87c 1c3e 2e61 8a3e
00000230: a136 4d3d 060c aabe 32ef 77be 0ce0 27bd
00000240: 99a2 94bd 50c2 19be 395c 1fbe 6cb9 a2be
00000250: 33a5 a13d 00fa 5b3c 5773 fcbd 1183 d13d
00000260: 5bae 943e 3f12 18bf 0f16 a83d d1eb ae3d
00000270: ee17 af39 b304 41be f671 9dbe 5920 4abd
00000280: 7ff5 4d3d fbc9 66bd 9282 c53d b9cf f6bd
00000290: 790d 823e 5fe4 b0bd 32bb b63d e9a8 293c
000002a0: f87b 223e c119 7d3d 4867 b9bb 6023 d33d
000002b0: 4941 1bbd 450f 713e 8ebf 77bc 6b8d 91be
000002c0: c513 633e 4b2a 1dbe 569e c3be 7742 c13c
000002d0: 9329 893c c93f 1abe 1b0b 413e e5b7 89be
000002e0: 136b f7bc caaf 973e 6009 693e 1d4a 543e
000002f0: 71ab 6bbe f7f5 503e 885a 88bc 64dc a7be
00000300: 93a7 31be ba5f 1ebe d1a8 c5bd 3b1a 1e3c
00000310: 47f9 83bd 79b0 95be 5464 8b3e e6d4 a0bd
00000320: b92b e5bd 2fb2 7ebe 2670 a4bd ea6b ddbc
00000330: 6665 d6bd 02ca 82bd e521 2fbe 50dc 01bb
00000340: 6b4c 5bbe c864 1cbe 6eec a03e a0b7 df3d
00000350: 82e0 853d 0633 353e deb1 15be cd39 883d
00000360: bd4c b53e 1fd7 debe c805 97be 2688 863d
00000370: 2740 f13d 86e2 0b3c be61 9b3e 0aec 963e
00000380: 4b80 2bbe adef 40bd c6b9 39be c20d c73d
00000390: 7b52 46be ae29 adbd a63e c9bd 404b 8abd
000003a0: 2040 38be f5b3 6b3d f861 64bb 2463 dabd
000003b0: 90cb 22bd 55d6 71bb 2042 863c 23b5 41be
000003c0: fd3e 4b3e 502d 96bd 8bfe ae3d c92c 1e3d
000003d0: 0a6b 343d 2eba 25bd 58a4 703d e3b4 af3d
000003e0: 6699 1fbe 8660 fcbd ed20 7d3e b6e2 04be
000003f0: 0ece bd3d 978b 39be 4b95 d7bd 165d 823e
0.14543958 -0.09084573 -0.42146486 0.19145066 0.15110447 -0.15749225 -0.4325861 -0.35159475
-0.29940158 -0.062055565 0.00309284 -0.1113051 0.13276689 -0.086157426 0.18018326 0.010426512
-0.29982626 0.17279582 0.3073778 0.06669503 -0.03625975 0.20682898 -0.012687863 0.27919954
0.004078679 0.027729804 0.06039968 0.07416419 0.41941503 0.23998876 -0.13593934 0.10570738
0.059358202 0.30193898 0.10073968 0.15100077 -0.07729863 0.051518064 -0.04575673 0.23595776
0.16975811 -0.16100712 0.10142998 0.10718013 0.053601954 0.07159379 -0.1853845 -0.346653
0.25476202 -0.07640802 -0.22461583 0.045955617 -0.14138609 -0.3272738 0.040300317 -0.2764194
0.0010602862 -0.13469008 0.21310262 0.3466918 -0.019572014 0.11606598 -0.1402877 0.032041155
0.1645565 0.022499807 0.07428461 0.02759641 -0.1621823 0.0011614758 -0.35412282 -0.15660779
-0.2249517 0.17529874 0.09533105 -0.148719 -0.17268541 -0.17162356 -0.13196798 -0.009023912
0.11225056 0.03155698 -0.23336248 -0.1559236 0.20744656 0.07769878 -0.041912057 -0.019000255
-0.092091784 0.19514568 -0.07222274 -0.015962115 0.10249953 -0.0824453 -0.005195377 -0.10736854
-0.08474238 -0.2060967 0.3352784 0.3214516 0.18411928 -0.13374719 0.18148464 0.07927999
-0.06913453 0.0918776 -0.06977552 0.27077314 -0.03503674 0.1215401 -0.12455462 -0.012603999
-0.18555221 0.26605272 -0.28841552 -0.3442824 0.04953992 -0.24265487 -0.042217042 0.11127926
-0.0012888917 -0.2615769 0.040720977 0.17232865 0.18539271 -0.04979782 -0.09677219 -0.02029651
0.07312772 -0.17166775 0.540147 0.18355083 0.069738224 -0.098733164 0.3257568 0.005468044
0.13929729 -0.0914026 0.15281975 0.27027267 0.050100926 -0.33212298 -0.2421234 -0.040985152
-0.072575755 -0.1501553 -0.15562524 -0.3178209 0.078928374 0.013426304 -0.12326687 0.10230077
0.29039273 -0.5940284 0.08207332 0.08541072 0.0003339643 -0.18849449 -0.30751008 -0.049347255
0.05028295 -0.056344967 0.09644045 -0.12051339 0.25400904 -0.08637308 0.089224234 0.010355213
0.15867603 0.06179214 -0.005658064 0.103094816 -0.037904058 0.23540981 -0.015121354 -0.28428206
0.2217551 -0.15348165 -0.38206738 0.023591263 0.016743457 -0.15063395 0.18851893 -0.26898113
-0.030202424 0.29626304 0.22757483 0.20731397 -0.23014618 0.20406328 -0.016644731 -0.32785332
-0.1734908 -0.15466204 -0.0965134 0.0096498085 -0.0644403 -0.292362 0.27224982 -0.07853107
-0.1118998 -0.24872659 -0.08029203 -0.027028996 -0.10468559 -0.06386186 -0.17102773 -0.0019815154
-0.2141587 -0.1527282 0.31430382 0.109236956 0.06536962 0.17695245 -0.14618632 0.066516496
0.3541011 -0.435235 -0.29496598 0.06568937 0.11779814 0.008537894 0.3034801 0.2947696
-0.16748159 -0.047103573 -0.18137273 0.09719421 -0.19367401 -0.084552154 -0.09826402 -0.06752634
-0.17993212 0.057544667 -0.0034848433 -0.10663441 -0.039744914 -0.0036901433 0.016388953 -0.18916754
0.19848247 -0.073328614 0.08544644 0.03861693 0.044047393 -0.040460758 0.05875048 0.08579423
-0.1558586 -0.12323098 0.24719591 -0.12977108 0.092678174 -0.18119656 -0.10526522 0.25461644

rnn.bias_ih_l0_reverse f4 [32]
00000000: 5a9d ca3d 02f2 c23d fb9f 15b9 9e9f 86be
00000010: 83c0 5bbe 9613 d83d 7516 443d 6e65 533c
00000020: feb8 22be b1b5 4fbe fbf0 573e b1b7 92bc
00000030: d725 953e 766b 8dbc fb1f d83d 6ee2 b23d
00000040: 6f61 7fbe 7930 9cbd 19a6 393c 008b a93d
00000050: 1d1a 6bbd 86cd fc3d 48bb 2abd a341 923c
00000060: 6b0a 823d 7c5f 36bd 0fea 0b3d 36a5 6bbe
00000070: ba0e 8d3d cc32 8cbe a60a b03c f65d 963d
0.09893294 0.095188156 -0.00014269345 -0.26293653 -0.21460156 0.10550611 0.04787298 0.012902601
-0.15890881 -0.20284154 0.2108802 -0.017909857 0.29130432 -0.017263155 0.10552975 0.08734594
-0.24939512 -0.07626433 0.011331105 0.08278465 -0.05739795 0.12343888 -0.04168251 0.017853564
0.06349643 -0.044524655 0.034158763 -0.23012242 0.068875745 -0.27382505 0.021489453 0.073421404

rnn.bias_hh_l0_reverse f4 [32]
00000000: 5423 223e ecf6 30be fbcf 0abe f9c2 88bd
00000010: a0f1 9abc c0cd 0bbe 092d efbd 311d 41bd
00000020: 99a2 bc3d 8b43 2c3c 7667 7b38 6ab2 8abd
00000030: 5d31 d0bc c1d4 7abe 0efd 01be e77b 433d
00000040: 0996 10bd 73b4 103e 29fa f83c 187b d13d
00000050: 052a 563d 0784 763e d506 40be 4334 7c3b
00000060: 6bc9 533d 02f8 0cbd e8cd ed3b 7dcd 0a3d
00000070: ef21 14be 374f c9bd ee74 303e a237 5f3e
0.15833789 -0.17281693 -0.13555901 -0.06677813 -0.018914044 -0.13652706 -0.11678512 -0.04714698
0.092107005 0.01051415 5.993942e-05 -0.06772311 -0.025414163 -0.24495222 -0.12694189 0.047725584
-0.035299335 0.14131336 0.030392723 0.102285564 0.052286167 0.24073802 -0.18752606 0.00384833
0.05170576 -0.034416206 0.007257212 0.033887375 -0.1446607 -0.09829562 0.17232105 0.21798566

fc1.weight f4 [12, 64]
00000000: 3dd0 5cbd f0fb 8bbe 09e1 aa3e 0b36 c53e
00000010: a834 a53e 01e6 f73c 0554 20be 0a0f ae3e
00000020: 5cb1 1f3e eafa ac3e 1de2 593e 630f 903e
00000030: 7bc4 db3e ac66 3cbe b737 dbbe 7601 b4be
00000040: 47f5 28be 1871 253e 5532 5abe 6bc3 363e
00000050: 7271 2e3f 493e fdbe 62cf ee3e 2c55 f3be
00000060: 9769 bbbd bff5 33be d2f8 913e 333a 033f
00000070: 1051 2abf d6a2 d0be 14d0 ef3e 7f6b ea3e
00000080: 8871 d53e bd46 f0be 81fa 2dbd 4f75 cebe
00000090: f519 12bf 0e3b b5be 1052 c03d a6a4 99be
000000a0: 88e6 cbbe 296d c53e 0308 133f 15ca a5be
000000b0: 194f ff3e 1f8f 2abe fa86 703e 639b 6ebc
000000c0: 0196 2dbe 3241 0e3f ddd9 a5bd 5d1b 523e
000000d0: 7bb8 e93e d019 9a3d f888 b1be 3f76 883e
000000e0: f198 4dbe 11b4 133e 1fa1 1abe 0081 a9be
000000f0: 8efe a53e ed82 d0be f818 ae3e 0624 e53e
00000100: c1e4 65bf fede 80be 1e82 80bf 96bc 98bf
00000110: 4ff6 8cbe 3f32 243f bacd 60be cea5 453d
00000120: 5188 8ebf c8f6 9fbf 62fb 4bbd 5f77 343e
00000130: 5df1 b3bf feb1 ea3e 7507 183f 3f45 df3e
00000140: 8f0c 393f 999c 203f f14d 683f 58bb cf3e
00000150: 314c 68bf 3b97 8fbe baf3 8abe a490 853d
00000160: 8591 b93e d7d3 913e 5294 c2be b689 7dbf
00000170: d281 8a3e 3b0a c5be 2db6 84bf 7cf1 193f
00000180: 10db 363e 6ece 463f b03e 333f c4b6 f6be
00000190: 8f73 1fbf 4b8d 4bbf 28a6 a1be 94fa ba3f
000001a0: 955c 8dbe 225d 2dbf 2f21 c43e d269 03bf
000001b0: 6482 c03e 4ff7 0dbf 3121 19bf 2fa3 41bf
000001c0: b323 a9be 3a84 35bf 048e 4ebf e0ae f4bd
000001d0: 1d4e 99bf c184 853f 34d7 49be 3ea1 e53e
000001e0: c53f 27bd 0934 193f 3015 46bf 3841 23be
000001f0: ab51 09bf fb36 74be e19a 773f b7c8 af3e
00000200: f71e 563f ba9a cfbb cae6 823f 083e 7cbf
00000210: 58c0 023f b07e 823e cbc5 69bb de74 d3be
00000220: 3e41 86bf 19dd d93d 9264 61bf 00bf 9cbf
00000230: b3f4 80bf 9abd 5d3d dd11 e43e 6013 c43d
00000240: b71e d33e 4463 6abd a984 763e 4d64 643f
00000250: 3f36 a0be 795c d7be effe 62bf ce97 e63e
00000260: 1583 543e cb92 b13e 37e9 e13e 7193 88bf
00000270: 52c2 833e d727 9dbe 24e3 fdbe 4c58 a73e
00000280: 303f a73b 86ab f3be 6925 163f 1005 98bc
00000290: cf17 283f 071c 3f3f 662c 8dbd 3ef3 923f
000002a0: 0b29 043f 1558 a63e 99d1 09be 90fb 903f
000002b0: a2ee bb3a 5392 da3d 4256 dabe 6836 903f
000002c0: 6dc1 76be e285 583e 8a2d 263e 2baa 53bd
000002d0: aa2e da3e 9520 923c f031 8e3f 4eb1 b93e
000002e0: ff33 c13f 33e7 72bf 06c7 363f 2ae7 8dbe
000002f0: 6bb4 23be 4e2e 3f3f b8b9 0d3f cac5 4a3e
00000300: 5a3c 45bf b60a 933f 063e e23e 1711 573d
00000310: da00 9bbe 43fd 3d3f ee96 4b3e 75aa 723f
00000320: 34e6 3fbf 0779 29bf db77 a63e 3446 5bbe
00000330: 81dd 4fbf bb78 c8be b7ea c2bd 0d6d 6e3f
00000340: 68f9 02bf 4178 203d e00c 703e 7ce8 a1bd
00000350: 6449 e8be 4f4d 3d3f 2fa7 23bf 6850 ec3e
00000360: f0ed 303f 419e 8f3e 6ad4 b63e 0db2 7a3e
00000370: 19ef 9bbd 48fd 823f 3fb5 2f3e d0b9 e7be
00000380: 90b8 b23d 3591 e9be 5a50 313f e31f 623f
00000390: 4232 3a3f 9f41 cdbe e0a6 4cbe 1ab5 963f
000003a0: 3bbc 343f f9ab d03d 60ca 58bf 28fe 4a3f
000003b0: 79f6 9f3d eb1e 373f 551b 32be b9e8 2c3f
000003c0: edab 64be 18da 913e cc7f 5fbd 11f1 36bf
000003d0: d66b c2be f772 6abe a7a5 52bd fb71 59bd
000003e0: 61a9 9a3e 1e60 3bbf 6f49 c9bb 8ee2 043f
000003f0: 94b2 7e3e ddf6 363f d1d2 843e 5237 0abf
-0.05390953 -0.2734065 0.33374813 0.38517794 0.32266736 0.030261042 -0.15657051 0.3399585
0.15595001 0.33785182 0.21277662 0.2813674 0.4292334 -0.18398541 -0.42815945 -0.35157365
-0.16499816 0.16156423 -0.21308263 0.17847984 0.68141854 -0.49461582 0.46642596 -0.47525918
-0.09150999 -0.17574213 0.28510147 0.5126068 -0.6652994 -0.40749234 0.4683844 0.45785138
0.4168818 -0.4692897 -0.042475227 -0.40323874 -0.5707086 -0.35396618 0.09390652 -0.3000843
-0.3982432 0.38559845 0.574341 -0.3238074 0.49865034 -0.16656159 0.2348899 -0.014563414
-0.16951753 0.5556823 -0.08098195 0.20518251 0.4564856 0.075244546 -0.3467481 0.26652715
-0.20077874 0.14424159 -0.15100525 -0.33106232 0.32420772 -0.40724888 0.34003425 0.44754046
-0.89802176 -0.2517013 -1.0039709 -1.1932552 -0.2753167 0.6413917 -0.21953478 0.048253827
-1.113535 -1.2497187 -0.049800284 0.17623661 -1.4058033 0.45838922 0.5938638 0.43607518
0.7228479 0.6273895 0.9074393 0.4057262 -0.9074126 -0.28045067 -0.27139074 0.06521729
0.36243835 0.28481933 -0.38003784 -0.99038255 0.2705217 -0.38484368 -1.0368096 0.601341
0.17857003 0.77658737 0.7001753 -0.48186314 -0.62285703 -0.7951247 -0.3157208 1.460772
-0.27609697 -0.67720234 0.38306567 -0.51333344 0.3759948 -0.5545549 -0.5981627 -0.75639623
-0.3303505 -0.70904887 -0.8068545 -0.11947417 -1.1976963 1.0431138 -0.19711 0.4484958
-0.0408323 0.59845024 -0.7737608 -0.15942848 -0.5364024 -0.23849098 0.967207 0.3433282
0.83641 -0.0063355835 1.0226681 -0.9853215 0.51074743 0.2548728 -0.0035670872 -0.413001
-1.048866 0.10637874 -0.88044083 -1.2245789 -1.0074676 0.054135896 0.4454488 0.09574008
0.4123437 -0.057223573 0.24074043 0.89215547 -0.31291386 -0.4206274 -0.8867025 0.45037693
0.20753129 0.34682307 0.4412324 -1.0669996 0.25734192 -0.30694458 -0.49587357 0.32684553
0.005103968 -0.475918 0.58650833 -0.018557101 0.6566133 0.7465214 -0.06893234 1.1480482
0.51625127 0.32489076 -0.13458861 1.1326771 0.0014338086 0.106724404 -0.42643934 1.1266603
-0.24097224 0.21144822 0.1622831 -0.051675957 0.42613727 0.017837802 1.110899 0.36268085
1.5093993 -0.9488403 0.71397436 -0.27715427 -0.15986793 0.7468003 0.5536151 0.19802013
-0.77045214 1.1487644 0.44187945 0.052506533 -0.30274087 0.7421457 0.19881794 0.94791347
-0.7496064 -0.662003 0.32513317 -0.21413499 -0.81197363 -0.3915461 -0.095174246 0.9313515
-0.51161814 0.039177183 0.23442411 -0.07905671 -0.45368493 0.7394609 -0.63926977 0.46155095
0.69113064 0.28050426 0.35708934 0.24481983 -0.07613964 1.0233545 0.17158984 -0.4525895
0.08726609 -0.45618597 0.6926323 0.88329905 0.7273294 -0.40089127 -0.19985533 1.1774018
0.70599717 0.10189051 -0.846838 0.7929406 0.07810683 0.7153155 -0.17393239 0.67542607
-0.2233121 0.28486705 -0.054565236 -0.7146159 -0.37972897 -0.22895418 -0.05142751 -0.053087216
0.3020735 -0.7319354 -0.006142787 0.51908195 0.2487281 0.71470433 0.2594209 -0.5399066

fc1.bias f4 [12]
00000000: 1050 763d 1105 bd3d e0dc 03bf c0c4 10bf
00000010: e740 9fbe fb27 62bb 9733 47be 5953 eabe
00000020: e00f f13c 994f 91be 4c49 91bc 929c 4ebd
0.060134947 0.09229482 -0.51508904 -0.56550217 -0.31104204 -0.0034508693 -0.19453274 -0.45766714
0.029426515 -0.2838104 -0.017735146 -0.050442286
