initial_training/kotlin_base_model.pt (torch, 138692 bytes, 11 tensors)

word_embeddings.weight f4 [178, 128]
00000000: a943 b6bf ba0c 13bf b1cd 43bf c389 ccbf
00000010: a90f c73c f815 21bf 71f0 8dbf 6a35 ddbf
00000020: 31f3 34bf 4b8f 983e 2092 05bf 1200 f9bc
00000030: 691f 98be 0ec2 ea3f 24c7 c33e 4cb9 f63e
00000040: 3a2c 2bbf 974c 80bf 91cb 373f cef9 6c3e
00000050: 6fb9 6e3f 2c45 703e b970 e5be 6846 433f
00000060: 4135 9c3f d288 bcbd 99aa 0bc0 8777 acbf
00000070: 2dfa 60bd f343 01bf 34f2 6abf b6e1 babc
00000080: a7b6 f13f 72a1 56be bdc4 c9bd d6b3 28bf
00000090: be08 4b3e 7684 78bd 9df6 29bd 4876 e4be
000000a0: 0e66 22be 6ee3 e73e edda 7bbd ffee 633e
000000b0: 29fe 1540 b209 88bf 62ce ca3f 7ed9 47bf
000000c0: d160 4ebf face 113f 5382 b2bd 6fd4 1bbf
000000d0: 2cfb 4b3f 2021 953e 2e21 873f 4933 0d40
000000e0: f6fe 0a3e cffa 6b3f 0b0b 6cbe 9b21 e3be
000000f0: 4da9 d23f 2a3a 4abf 5d77 4ac0 eef8 4bbf
00000100: 5f2a 6a3d f690 6bbf 5344 18bf ba68 73bf
00000110: 2e9e c9be f141 a3bd 84a8 e13f 9365 ecbd
00000120: f4c4 5dbf 145c 3fbe 45c2 78bf 8e64 4abf
00000130: 49f5 f5be 22c0 f7be c532 f23e 0abf 70bf
00000140: 1415 e6be 7908 5ebd 66af 43bf 2d67 4f3f
00000150: 5748 b8bf 1898 b7be 0112 0f3d a42a 81be
00000160: b4b4 bc3e 8250 15bf 5ddd 8abf ad42 563f
00000170: b277 78bf 29fd 9bbe c50a e23d b82e fc3f
00000180: 7aa1 2c3f 2f0c 983f d3ba 6d3f ceb3 68bf
00000190: 3165 c63f 4c9c 4abf b1fd 42bf 3618 8c3f
000001a0: b4fa af3f 233c 103f 432d 8a3d 0e98 51be
000001b0: 17a6 05c0 7630 29bf ece0 bcbf b2a0 75bf
000001c0: b77c 4c3f 5819 3bbf b812 af3f e133 3a3f
000001d0: cffb a13e 4a50 ce3e c051 233f 62e7 bebe
000001e0: 36e2 1d40 fd74 1d3b fefd 03be 8102 0440
000001f0: 59cc 04c0 2faf e63f 8017 d73d 0d8f 5c3e
00000200: 865d 363f 9764 e3bf bd2d b53e ed8c 993f
00000210: 7a22 9bbe 0784 e1bf 2d85 223f 7aea 4dbf
00000220: e938 cebf 0391 efbf 8707 0b3f 3c22 293f
00000230: bfe4 1240 a3c6 2c3f 1f4e db3f c0aa e5bf
00000240: 8a7f aebf 48b4 7bbf 3071 c13f a451 243f
00000250: 5028 f23e 2970 dbbe a226 0d3f 4010 c6bf
00000260: ffa2 043f 352f da3d edd9 893e ff91 a93f
00000270: 8e7d df3f a06f ed3f 9bd4 34bf 4da7 2340
00000280: 0ec7 d53e e8d2 59be 7d07 57bf 950c d7be
00000290: d8c0 1fbf 1430 7abf b3f5 5f3f 79be 7c3f
000002a0: ca80 9e3e f8a5 c23f 1b45 9a3f 4965 e8bf
000002b0: 8392 cebe 8a8a 75bf 63a5 aabb ff82 a1bd
000002c0: baf9 573f b335 953f 07e5 063f b143 cf3f
000002d0: 26c7 76bf b8ea 103e bd96 27be f368 b7be
000002e0: a673 dc3f 436e 9bbe 709b 743e 3b08 ac3f
000002f0: fe67 d33d 68d8 8c3f b5f0 aebe cd84 723f
00000300: 438a 11bf b46c 563f fe4e e43f 671d 48be
00000310: 8bd1 033f 257a ecbf e9ab 3ac0 883c 11bf
00000320: 5791 0abf 202a 653f fbeb 61bf c824 083f
00000330: 07dc c5bf 8275 31be 5a6e 3a3f d1b8 693d
00000340: facf 673f fdec 853f d845 05bf 8e69 ad3f
00000350: 78d6 703e ed05 f53f 850f eb3f 478a a93f
00000360: fc10 78bf 9f35 a03f e7eb 9a3f ce25 07bf
00000370: cecf 5f3e cd05 13bf 1383 ba3f adae e23f
00000380: 6030 d33f b42f ddbe 0ac4 8abe 7b36 b8bf
00000390: 059f 9f3f 8e0d a33f 802a c83e 7440 c63e
000003a0: 3d7d a3bd 7df6 ae3e 59e6 723f d024 b1bf
000003b0: dcae dc3f 5058 17c0 1ef3 6dbf 0e56 963e
000003c0: 924b 5c3e 283f 703f 4f9c bb3f 1b75 0ebf
000003d0: e3ad 3ebf 4d02 4fbe 102e 6bbe 3e80 ae3a
000003e0: 2a24 c03e dec0 14bf d582 12bf 6c3e 813f
000003f0: b55e d8bd 4700 97bf a7ea b9bd 4328 103f
-1.4239398 -0.57441294 -0.76485735 -1.5979542 0.02429946 -0.62924147 -1.1089002 -1.7281926
-0.7068358 0.29796824 -0.52176094 -0.030395541 -0.29711464 1.8340471 0.3823787 0.48188245
-0.6686436 -1.0023373 0.7179499 0.23142168 0.932517 0.23463887 -0.44812563 0.76279306
1.2203752 -0.09205784 -2.1822875 -1.3473977 -0.054926086 -0.5049431 -0.9177582 -0.022812705
1.8883866 -0.20960024 -0.09851978 -0.6589941 0.19827554 -0.0606732 -0.041494954 -0.4462149
-0.15859243 0.45290703 -0.06148808 0.22259139 2.3436377 -1.0627959 1.5844233 -0.7806624
-0.8061648 0.56956446 -0.087162636 -0.6087102 0.7968013 0.29126835 1.0557001 2.2062552
0.13573822 0.9217958 -0.23051088 -0.44361576 1.6457916 -0.78995 -3.1635354 -0.7967671
0.057169314 -0.9201807 -0.59479254 -0.95081675 -0.39378494 -0.07971562 1.7629552 -0.11542811
-0.8662865 -0.18687469 -0.9717143 -0.79059684 -0.480387 -0.48388773 0.4730436 -0.940415
-0.44937956 -0.0542073 -0.7643951 0.8101681 -1.4397076 -0.35858226 0.03492928 -0.25227845
0.36856616 -0.5832597 -1.0848805 0.8369549 -0.9705764 -0.30466583 0.110372104 1.9701757
0.67433894 1.1878718 0.92863196 -0.9089936 1.5499631 -0.7914474 -0.7616835 1.0944889
1.3748384 0.5634176 0.06746914 -0.2046816 -2.0882623 -0.6608957 -1.4756141 -0.95948327
0.798778 -0.73085546 1.3677588 0.7273541 0.31637427 0.4029563 0.63796616 -0.37285906
2.4669318 0.002402603 -0.12889859 2.0626528 -2.0749724 1.8022212 0.10502529 0.21538945
0.71236455 -1.7765073 0.35386458 1.1996132 -0.3029974 -1.7618417 0.6348446 -0.8043591
-1.6111118 -1.8716129 0.5430836 0.6606786 2.2952116 0.67490596 1.7133216 -1.7942734
-1.3632672 -0.9832196 1.5112667 0.64187074 0.4729638 -0.4285901 0.55137074 -1.5473709
0.5181121 0.10653535 0.26924077 1.324768 1.7460191 1.854969 -0.7063691 2.5570862
0.4175343 -0.2127186 -0.839958 -0.42001787 -0.6240363 -0.9772961 0.8748428 0.9872814
0.30957633 1.52069 1.2052339 -1.815591 -0.40346155 -0.9591452 -0.005207704 -0.07886314
0.8436543 1.1657013 0.5269322 1.6192533 -0.96397626 0.14152038 -0.16366096 -0.35822257
1.7222793 -0.3035756 0.2388742 1.3440012 0.10322569 1.1003542 -0.3416802 0.9473389
-0.56851596 0.8375962 1.7836607 -0.19542466 0.5149161 -1.8474776 -2.9167426 -0.5673299
-0.5412802 0.895174 -0.882507 0.53181124 -1.5457772 -0.17329982 0.72824633 0.05706102
0.9055172 1.0462948 -0.520597 1.3547838 0.23519313 1.9142433 1.8364111 1.3245324
-0.96900916 1.2516364 1.2103242 -0.5279206 0.21856615 -0.57430726 1.4571251 1.7709557
1.6499138 -0.43200457 -0.2710269 -1.4391626 1.2470404 1.2738512 0.39094925 0.3872105
-0.07982872 0.3417243 0.9488273 -1.3839359 1.7240863 -2.3647652 -0.9294909 0.2936253
0.21513203 0.9384637 1.4657077 -0.5564744 -0.7448408 -0.20215721 -0.2296679 0.0013313366
0.3752759 -0.5810679 -0.57230884 1.0097175 -0.10564939 -1.179696 -0.090779595 0.56311435

rnn.weight_ih_l0 f4 [32, 128]
00000000: 3cda 5f3c c952 0fbe e8d2 b7bd c596 babd
00000010: 44a6 a3bd 3cc7 65bd a764 4a3e 2474 c73c
00000020: 99da 86bd ddde 233e 1d37 04bd 2c3b 8a3d
00000030: 0992 f73d 75f9 363c 9164 c1bd abfb 28bd
00000040: c8af 40bc a448 bdbc 4801 80be 5763 0dbd
00000050: d9ce 45be 5084 88bd e02f f9bd 61a1 8bbd
00000060: 2be4 cc3d 84bc 93bd ad00 163e f5c3 b7bd
00000070: e252 333e 0afd 60be e1d8 90bc 1cf7 0dbd
00000080: de7b 013e 0680 473e 5205 1b3d 0c09 49be
00000090: 87ba b73d 04f5 f5bd b157 9bbd e905 a1bc
000000a0: f5bb d03d 47cf 5fbe 2210 183e aeff 57be
000000b0: 54f7 2a3d 2324 a4bd 6e00 143e 8223 08bd
000000c0: 2fa5 f53d e16f 6abd cdbd 74bd 142a 58bd
000000d0: 51d0 5dbd 5d62 d43d 6ff6 fbbd 4f4c d33c
000000e0: f686 8f3d 6ae1 3b3e 0d44 473a 2e59 e33b
000000f0: 6534 5abc 7469 393d 63e4 3abe 7e7d 04be
00000100: ccaa 6cbd 8780 41bd 0cb1 fabd 5424 443e
00000110: 2820 4fbe 85ea 3e3d c486 023e d053 303c
00000120: d58b 06bb e6e8 f83d 92bf b6bc 59bd 753b
00000130: b530 1fbd 04f5 b7bc 2bee f13d 2caf 2cbe
00000140: 1a91 66be f234 c43d 0fea 0bbd cb41 c2bc
00000150: 02a7 23be 2064 003e ef79 803d f710 f73d
00000160: 1f92 b6bd 4d4f fc3d 6e4c 8c3d 674c eabd
00000170: 1115 0abe 9ec5 26be 4ea0 51be e2ba 34bd
00000180: 7125 1ebe 109f d73d 17f6 8a3e ac34 583d
00000190: 241e 723c 018e fc3d 91c5 1d3b d695 a43d
000001a0: f8aa 16bb 8cc5 bfbb 0570 873c 2d50 643e
000001b0: adb5 b63c eb86 32bc 249b b7bd 7667 163e
000001c0: 5eab 63bd 9469 083d f141 04bd 1306 83bc
000001d0: 867f 883e 4019 61bc d236 20bd 2ce9 f33d
000001e0: a321 9b3d 0fe8 96bd 7569 1f3c 9de9 643d
000001f0: 8e04 f9bd d11a 43be bb68 07be 8b85 52bc
00000200: e3c1 7dbd 5b52 8c3d 1e1f 4abe f67e 6d3c
00000210: 24b1 d43d e64a 0abe 6d46 503d b590 1fbe
00000220: 2686 c1bd 07f4 0ebd 56a4 5bbe d567 12be
00000230: 0d7b 0ebe 1f7b 403d 6af4 5ebd 667c 40be
00000240: 3edf d43d 1d90 94bd 08f9 88bd 968a e03d
00000250: 87d5 b53b 61d3 80bd 38fc 473d 7e4f 043e
00000260: 7cf8 d6bc fe43 31be 27b6 1c3e 900f 15be
00000270: 12d3 5fbb a33b d0bc 4a36 5f3d f044 753d
00000280: b986 6f3c a6ff ed3d fa3b a03d fb59 bdba
00000290: 44e9 2fbe 72cd c43d c1f8 ccbd 5283 42be
000002a0: 6098 90bd cb54 aa3d 5bdd 4e3e f18f 2f3e
000002b0: a3db 1cbd 632f dcbd 903b 373e c3cf e43d
000002c0: 781c 2abe dd10 e8bc 9701 02be 1c87 8ebe
000002d0: cab0 9a3c c660 22bd 8e71 cd3d 0135 ea3d
000002e0: 0437 223e c3d2 dabd 9b5b 84bd 49bf 03bd
000002f0: 9a39 323e 5173 d2bd 2339 c33d ed78 21bd
00000300: 2260 2bbe ab91 d33d c338 a0bc b3b8 05be
00000310: bc0f 1abd 98e5 003e 19ce 51bd bf03 19bb
00000320: 344c 013e 3299 0f3d d672 54be f460 493e
00000330: d562 60bd a4b9 593d 8aba a6bd 2bb5 a83d
00000340: 11a8 373e 933f a03d 93ac 87bd a114 f9bc
00000350: f3a8 403e c977 94bd d5d6 febd 4bca 15bd
00000360: 2549 9e3c 5c9e 473e 7c55 ff3c c29f 9c3d
00000370: b25a a6bc 7691 203d aa6b 6b3d 6445 ee3d
00000380: be01 bd3d d9d5 e73d c4ad fb3d c4d1 3c3c
00000390: 14d7 38bc fd40 90be 791d 4abc 37b7 353d
000003a0: 3aaf fdbd 8072 153e cd2f cebd 8263 293e
000003b0: 252c 323c 83a3 953d 73ab b93d 57dd 0f3e
000003c0: 32e7 b4bd cdc8 003d 2fb8 0c3d 28e4 c33d
000003d0: 572a e9bd f3ac 0b3e 7185 e9bb ded4 0e3e
000003e0: 8157 eebd 8a26 a03d f6ee 75bd d7d6 393d
000003f0: 4e36 23be ea9d 8bbd 54a8 523d 7c6b 373e
0.013662871 -0.13996424 -0.08975774 -0.09110788 -0.07990697 -0.056098208 0.19764958 0.024347372
-0.06584663 0.16002984 -0.032279123 0.067495674 0.12088401 0.011167874 -0.0944301 -0.041255634
-0.0117606595 -0.023105927 -0.25000978 -0.034518566 -0.19317187 -0.066658616 -0.121673346 -0.0681789
0.10004457 -0.07213691 0.14648695 -0.08972923 0.17512086 -0.21971527 -0.01768154 -0.03465949
0.12644908 0.19482431 0.03784687 -0.19632357 0.08971124 -0.12009624 -0.07585085 -0.019656138
0.101921 -0.21856414 0.14849904 -0.21093628 0.041739777 -0.08014705 0.14453289 -0.033236988
0.11994397 -0.057235602 -0.05975132 -0.052774504 -0.054153744 0.10370324 -0.12302863 0.025793223
0.07008164 0.18347707 0.0007601388 0.0069381213 -0.013318156 0.045266584 -0.18251185 -0.12938496
-0.057780072 -0.047241714 -0.122408 0.19154483 -0.2022711 0.046610374 0.12746722 0.01076217
-0.0020530124 0.12153797 -0.022308145 0.0037496893 -0.03886481 -0.0224557 0.11813005 -0.16863698
-0.2251629 0.09580411 -0.034158763 -0.023713013 -0.15981677 0.12538195 0.06273257 0.12063783
-0.08914589 0.12319813 0.06850515 -0.11440354 -0.13484599 -0.16286322 -0.20471308 -0.044123538
-0.1544397 0.10528386 0.27140877 0.052784607 0.014777694 0.123317726 0.0024074058 0.080363914
-0.002299009 -0.005852407 0.016532907 0.2229621 0.022303427 -0.010896425 -0.089651376 0.14687905
-0.05558335 0.033303812 -0.03228945 -0.015994107 0.26659793 -0.01373893 -0.03911478 0.119097084
0.07574775 -0.073684804 0.009729733 0.055886853 -0.12159072 -0.19053198 -0.13223545 -0.012849222
-0.061952483 0.068516456 -0.19738433 0.014495602 0.103853494 -0.13505134 0.050848413 -0.15582545
-0.09449415 -0.03490069 -0.21449408 -0.14297421 -0.13914128 0.046992417 -0.05443231 -0.18797454
0.103941426 -0.0725405 -0.06688124 0.10963933 0.005549136 -0.06290317 0.04882452 0.12920949
-0.026241533 -0.17311093 0.1530386 -0.14556718 -0.0034152907 -0.025419062 0.054495133 0.059880197
0.014619523 0.11621027 0.078239396 -0.0014446372 -0.17178828 0.09609498 -0.100083835 -0.18995407
-0.07060313 0.08316954 0.20201628 0.17144753 -0.0382954 -0.10751226 0.17893815 0.1117244
-0.16612422 -0.028328354 -0.12695919 -0.27837455 0.018883128 -0.03964307 0.100314245 0.11435891
0.158413 -0.10684731 -0.06462785 -0.032164846 0.17404786 -0.10275901 0.09532382 -0.039421964
-0.1673589 0.10330518 -0.019558316 -0.13058738 -0.03761266 0.12587583 -0.05122194 -0.002334818
0.12626725 0.035058208 -0.20746931 0.19665891 -0.054781754 0.053155556 -0.08141048 0.0823768
0.17935206 0.07824626 -0.06624713 -0.030405344 0.18814449 -0.0724941 -0.1244332 -0.036569875
0.019321987 0.19494003 0.031168692 0.07647659 -0.020306919 0.039201222 0.057475723 0.11634329
0.09228848 0.11320085 0.122890025 0.011524621 -0.011281747 -0.28174582 -0.012336128 0.04436418
-0.123869374 0.1459446 -0.10067711 0.16541865 0.010874783 0.07306578 0.090659045 0.14049278
-0.088331595 0.0314415 0.03435534 0.09565002 -0.11385029 0.13640194 -0.007126503 0.1394839
-0.11637784 0.07819851 -0.060042344 0.045370903 -0.15938684 -0.06817229 0.05143006 0.17912096

rnn.weight_hh_l0 f4 [32, 32]
00000000: 4c0c 103e c4e5 863c 6136 043d 4147 c1bd
00000010: 2dd2 1abe e4d5 61be 0655 06bf e123 2fbd
00000020: 99f4 693e e661 f03d 9861 25be 6f53 473d
00000030: a4a5 643e 38b4 42be 79c0 0bbe b6ef 66be
00000040: 5fe8 6c3e 63b0 8dbe 1504 be3d 6458 f83d
00000050: fcce 2fbe 6f17 a9be 429b 763e 19d8 1cbe
00000060: 0caf 4abe d00e 023e 5a40 b5be 8f7b 133e
00000070: 8e4b 9dbd 35ea 0abd 4f68 ddbd 87d1 8bbe
00000080: ace3 46be b966 73bd 0a3a e23d 8bfa 8e3c
00000090: 3986 cebd 595c 8dbe d69e 6d3c 2d08 e4bd
000000a0: db90 1c3e 417e fd3d e4f6 83be 6ad0 28be
000000b0: c33a 243e 93d6 44bb 90ca 96be ebf1 603d
000000c0: d96b 24be 4031 933d e5c8 f23d f438 8f3e
000000d0: 8e8e 1f3e 43e2 133e 1485 04bd 684c 033e
000000e0: ab94 103e 13ac 43be 5eb8 8d3c bc79 a23e
000000f0: 85ff 94be a9bf 823e 5d4e b2be 6567 453e
00000100: f1ff 373e 792b 503e 99e6 163e c437 27be
00000110: 0d14 cabc d17d 26bd 51ca dd3e 1556 423d
00000120: a8ae d93c c8d7 dfbd 7f59 dc3e a33e 06be
00000130: e2cb a93e 8e53 203e 5894 b43d e647 6d3d
00000140: acc5 c83a 2e87 b33c 634e 7b3d 157c 41bd
00000150: 3535 473c b274 a8bd 5fd1 0fbd ca6a 38bd
00000160: de23 bfbc fa1d 10be df3c 773e dfcb 82bd
00000170: fef3 b23d 9122 ac3d 2d23 483e 78a0 be3e
00000180: 9277 dbbd e582 1e3e e7da 4bbc 868b 19be
00000190: 98fd 8abe ffa2 3ebe 8423 24be 4179 663d
000001a0: f909 e2be 9108 f5bd c0a7 7d3e ce46 2ebe
000001b0: c27c 113e c406 70be 075c 333e d11b 2d3e
000001c0: 1c10 4f3d d1d8 d1be cf08 e93e 9c7c 433e
000001d0: 3cc3 a3bb dbed 31be 3ecb 8f3d 41b7 9cbd
000001e0: 4927 443e 3e41 d9bd faca 5bbe 9cee 24be
000001f0: dfbf 9bbc 45b9 b4bd 7e30 e0bc 6fba ddbd
00000200: 2c56 34be 1e38 3c3e 2d5b 793e 4ce7 1abe
00000210: 424f 8c3c 3445 a2bd c44a 96bd 6fb9 0f3e
00000220: c4c3 3a3e 02b0 213e 4130 8fbd d46d f9bd
00000230: 0f4b a83d a14f 173e 71e1 56be 9ef1 08be
00000240: 1c65 583d c86c c4b9 5660 763e 8526 48bd
00000250: da43 17be 8dfc a2bc cc66 393e 1cbf 123d
00000260: 384c 803c 19af a5bd fd56 22be cf2a 53bd
00000270: 2760 4abd 7c77 853e 4f74 50bc bb1d 333e
00000280: 14ba 0bbd a933 1dbe b0ed ee3d 8668 533e
00000290: 05a0 dfbd 9181 8f3e 03d7 bbbe 75f9 943e
000002a0: 802c 7a3e 773f 97bd 62c6 30be 264f 8e3d
000002b0: 698b d73d eb83 36be dad0 3d3e 5c70 9e3d
000002c0: 5b27 a6bd d841 49be dcb4 dfbd cfbf 95bb
000002d0: 3e42 40bd e562 9ebe 0047 b43d f477 6fbe
000002e0: 8431 98bc f9e2 23bd f1e9 20be a11f 2c3e
000002f0: a9a2 493e 67b2 b6bc a38c 23be 84ab 62be
00000300: 613c d3be 4d9b 303e e482 0abe c4b9 46be
00000310: 1815 cb3c c18f 6bbe 32df d5bb ab7a 3e3e
00000320: 6e76 aebe c29c e8bd 661a bdbe 1c86 5ebe
00000330: c855 8b3d 8f36 d73e 1940 c13c 9f2d 8c3d
00000340: 4018 15be dfc9 9a3d 2062 9c3d bdf0 5cbc
00000350: a71a edbc d1fa c3be bc56 85bd 3c3b a4bc
00000360: 1ab0 1ebe 63e2 f83d c00d 313d c1dc 29be
00000370: 262d 18be 36fa 053d 2939 b53d 6570 093e
00000380: 7f82 50be 6a89 10bd fe62 943e df2a 173e
00000390: bd03 273e 460b e4bb ea20 c63c 92c2 603d
000003a0: 4009 fdbd 8103 e73c 11dd c0be 1be3 1abe
000003b0: 40f6 abbe e86e fd3e 3b78 82be c312 2fbd
000003c0: 1f42 693e 6608 103d 46f8 d0bb 1031 6b3b
000003d0: baed dabd 1746 c43d ee13 12be 1b08 843e
000003e0: 1626 49be 0468 8fbd 37bc 103d 11ee 853d
000003f0: 36bb 813d 37a9 4d3c 7cd7 b4bd 765a ef3c
0.14067191 0.016466983 0.032278422 -0.09437419 -0.15119238 -0.22054249 -0.52473485 -0.042758826
0.22847213 0.11737423 -0.1615051 0.048663553 0.22328812 -0.1901406 -0.13647641 -0.2255238
0.23135518 -0.27673635 0.09278122 0.12126234 -0.17168802 -0.3302569 0.24082664 -0.1531681
-0.19793338 0.12700963 -0.3540066 0.14402603 -0.076804265 -0.033914763 -0.10810911 -0.27308294
-0.19422787 -0.059424136 0.11046226 0.017453453 -0.10084195 -0.27609518 0.0145032015 -0.11134372
0.15289633 0.12377597 -0.257743 -0.16485754 0.16038041 -0.0030035123 -0.29451418 0.05491821
-0.16056766 0.07187128 0.11854724 0.2797314 0.15581724 0.14441781 -0.032353476 0.12822115
0.14119212 -0.1910861 0.017299827 0.317335 -0.29101196 0.2553685 -0.3482541 0.19277723
0.17968728 0.20329084 0.14736404 -0.16329867 -0.024667764 -0.04064733 0.43318418 0.047445375
0.02657254 -0.10929829 0.4303703 -0.13109832 0.33163363 0.15656874 0.08817357 0.057929896
0.00153177 0.021915045 0.061354052 -0.047237474 0.012158682 -0.08225383 -0.03511178 -0.045023717
-0.023332532 -0.14073935 0.24144314 -0.063865416 0.08737944 0.084050305 0.19544668 0.37231803
-0.107161656 0.1547962 -0.012442327 -0.1499463 -0.27146602 -0.18616866 -0.16029173 0.05626798
-0.44148234 -0.119645245 0.24771023 -0.17019197 0.14207748 -0.23440081 0.17515574 0.16905142
0.050552472 -0.4098573 0.45514533 0.19090503 -0.004997639 -0.17375891 0.07021187 -0.076521404
0.19155611 -0.10608147 -0.21464148 -0.16106647 -0.01901239 -0.088244 -0.027366873 -0.10826575
-0.17610997 0.18380782 0.24351187 -0.15127295 0.017127637 -0.07923356 -0.07338479 0.14035581
0.18238741 0.15789798 -0.069916256 -0.12179151 0.08217441 0.1477647 -0.20984437 -0.1337342
0.0528308 -0.00037465082 0.24060187 -0.04886486 -0.14771977 -0.019895816 0.1810562 0.035826787
0.015661344 -0.08090038 -0.15853496 -0.051554497 -0.049408104 0.26067722 -0.012723043 0.1749181
-0.034113005 -0.15351738 0.11666429 0.20645341 -0.10919193 0.2802854 -0.36687478 0.2909657
0.24431038 -0.07385152 -0.17263177 0.0694869 0.10524637 -0.1782376 0.18536702 0.077362746
-0.08112975 -0.19654024 -0.10923168 -0.0045699845 -0.046938173 -0.30934826 0.08802605 -0.23385602
-0.018578298 -0.04001138 -0.15714242 0.1680894 0.19690956 -0.022301866 -0.15971617 -0.2213574
-0.41257003 0.17246743 -0.13526493 -0.19406801 0.024790332 -0.23004057 -0.006526851 0.18601482
-0.3407473 -0.11358024 -0.36934203 -0.21730846 0.06803471 0.42033812 0.023590134 0.06844639
-0.14560032 0.07558035 0.07635903 -0.013485131 -0.028943373 -0.38277295 -0.06510684 -0.020047776
-0.15496865 0.12152555 0.043226004 -0.16588117 -0.14860973 0.032709323 0.08848793 0.13421781
-0.2036228 -0.0352873 0.28981775 0.14762448 0.1631002 -0.0069593517 0.024185617 0.054873057
-0.1235528 0.028199913 -0.3766866 -0.15125696 -0.3358631 0.49498677 -0.25482354 -0.042742502
0.2277913 0.03516426 -0.0063772528 0.0035887398 -0.10689874 0.09583681 -0.14265415 0.25787434
-0.19643435 -0.07002261 0.035335746 0.06539548 0.06334536 0.012552551 -0.08830163 0.02921794

rnn.bias_ih_l0 f4 [32]
00000000: d6f6 c13c 0d10 e23d d36e 3a3e 3a00 b83d
00000010: 34b7 ed3d d553 eabd 9764 993d 88c3 043a
00000020: 8381 173e 75c8 0c3e fbc4 e9bd 9f9d 48be
00000030: 73cc b63d 42ab 05be 696a b4bd 32d1 0dbe
00000040: 214d afbc b204 f43b f045 b53d ca8e d23c
00000050: 161a 4a3d 67fb e4bd 6ae5 4b3e 32c5 823d
00000060: 1d72 83bd 1d07 3cbe 045b c1bb e807 103e
00000070: b459 06be d10e bbbd 947e 35be a496 883d
0.02367727 0.11038218 0.18206339 0.08984418 0.11607209 -0.11441771 0.07489889 0.0005064537
0.14795499 0.13748343 -0.11414524 -0.19591378 0.08925714 -0.13053611 -0.088093586 -0.13849333
-0.021399083 0.007446849 0.0885123 0.025702853 0.049341284 -0.11180764 0.19911733 0.06385268
-0.0641825 -0.18362089 -0.0059007425 0.14065516 -0.13120157 -0.091336854 -0.17724067 0.066693574

rnn.bias_hh_l0 f4 [32]
00000000: 0a2e acbd 999a eb3d 1be0 253e 5298 653e
00000010: d810 853d dc5f 3bbd e3dc ed3d 8776 253d
00000020: 320c 90bd 4f4d c9bd b433 243e 2001 d7bd
00000030: 8c0b 08bd d956 003a 7064 05be 6bf0 823d
00000040: 159c 99bc 85d1 7b3d 170d 353e 5550 e23d
00000050: 3ebe 94bd f3da 303d 4417 68b9 46bb 3abe
00000060: ed88 17bc e137 b3bd 7d1e 343c fdca 723e
00000070: d7cc 18bd 480a 4d3e 6e7b 8bbe 6d0f 903d
-0.08407219 0.115040965 0.1619877 0.22421387 0.06497353 -0.045745715 0.116143964 0.04039624
-0.07033576 -0.098291986 0.16035348 -0.104982615 -0.033214137 0.0004895754 -0.13026595 0.06393512
-0.018751184 0.06147911 0.17680775 0.11050478 -0.07262848 0.043177556 -0.00022133911 -0.18235502
-0.009248954 -0.087508924 0.010993597 0.23710246 -0.037304725 0.20023453 -0.27242607 0.07034192

rnn.weight_ih_l0_reverse f4 [32, 128]
00000000: 77be 373e 57f7 7a3d 32bf b1bd 11aa 203d
00000010: f4e2 d03d 1e2d a13d f481 3c3e 1580 c0bd
00000020: 6347 893d b492 873d 0c81 abbd 9a30 41bd
00000030: 5741 ec3d 267b 403e d42f 523d 277a d8bc
00000040: e435 0dbc e7de 96bc 68fd 2c3e 4346 123e
00000050: eaa5 013e 9c27 4cbe 04d6 83bc 9cca 6a3d
00000060: 1339 dfbc af0c 293e 2edc 063e 9f29 a73d
00000070: 62e5 48bd 2f0c c33b 67fb 3a3c 28b4 093e
00000080: 1906 e3bd 3beb 6abe fcd7 81bd 9dad 603e
00000090: 36a1 4bbc 9bfb a5bd a55f 0fbe e2a7 a3bd
000000a0: 6a08 dd3d 4226 2f3e 29cc 913d e5ea 41bd
000000b0: 93ac 0bbc a3e1 6b3e 2b0b b23d b916 20be
000000c0: 1cf3 533e 4a83 9ebd 900d 9bbc b618 cdbc
000000d0: 4e53 523e 111a eebd b937 b1bd 9227 843d
000000e0: 1cb2 1e3e 9405 913d b66f 67be 9016 92bd
000000f0: 2595 673d 5469 debd 58c0 703d 3d78 833d
00000100: 59f0 a73d 2a62 013b a49c a1bd 9cbc 77bd
00000110: 2b72 5cbd d7d7 adbc 9c94 0abe 6db5 eabc
00000120: 8236 a3bd 6a6a a03d 4a48 e0bd 324f d43d
00000130: 4b06 283e 0a49 fa3d 2a55 a1bd 0fee 3c3d
00000140: 8650 b739 447e 0cbd 0229 f8bd 878d 47bd
00000150: 2e72 b4bd e8a7 dc3d 687d d73d c6c5 60be
00000160: a82e c6bb ed37 02be 98d1 e1bd fff4 3ebd
00000170: bf1c 51bc 02e4 243d 3b93 c7bd 9b09 203e
00000180: 9a68 da3d f905 f33a 4d7e d23d b1d9 34bd
00000190: 4c9e 8abd a5d6 503e 1f1c 17be e22e 0abc
000001a0: 90f5 00be 2678 2f3e 7bce 1b3d 9d5f 48bd
000001b0: 4af4 3b3e e76e f23c 3773 293d b9e4 38be
000001c0: b688 d03d 6e3e 04be 72da 0c3d 1143 853c
000001d0: 17ef 05bd 372f c7bd 96a1 f13d d041 b93c
000001e0: 8d83 fabc f608 ac3c 783f 22be 2a03 143d
000001f0: 573b 0ebd a0d6 73bc a5b8 d5bd 4cfa 80bd
00000200: 996e 16bd 0b01 f83d 87cd 123e 2516 2d3e
00000210: 8038 133e 152d 133e 9105 0cbe c8b5 cbbb
00000220: b8ca dabd 9c4e fabc ff2c 77bd 763a 103e
00000230: fb88 9cbd fbf4 00be e18d bebc 8b6b 8e3b
00000240: 15ea 3f3e 196d 3dbd 628e 05bc 0dcd 2f3e
00000250: 98db e53c 1d13 e63d 1c50 6f3c 4080 a33d
00000260: c3f5 fcbc 6210 68bc 08cf a63d cbae 9d3e
00000270: c914 a23d 403e 13be 08b4 5cbc 5382 143d
00000280: ac4d d1bc 0ef7 86bd 6b7d c23a 4a37 c63c
00000290: d6cb 1fbd 4338 00be 1f0f 8fbd 0de6 083e
000002a0: dc81 16be 1a91 cebd 3acf aebd 83aa 853d
000002b0: a2ea 94bd d624 c23d e5d2 193e bf87 71bd
000002c0: 9e0f 0fbe ee39 4ebd 0892 4cbe bbaf a9bd
000002d0: d4a6 f53b f8ae d0bd 65df 3dbd 50b0 9ebc
000002e0: 30bc ea3d e110 e43d 6403 f33c 8c6f 013e
000002f0: 6050 d4bd 1001 f13d a47e d9bd 0446 f43d
00000300: 54d5 47bd 00f2 ef3d 1944 f0bc 81e3 183e
00000310: abcd f5bd 43ac cabd 875e 2c3e 68de 5abd
00000320: 9c9b 353c bd84 16bd 2605 46bd f6a4 2abe
00000330: 6e03 8fbc fe03 cd3d f83f 1abd f211 7bbd
00000340: 82ad 993d 9062 1f3b cd77 b2bd 071a ce3d
00000350: d55c 193e 9104 a03d 6f42 0fbe dd77 5fbd
00000360: 267a 88bc 4d89 0e3d 7c57 b13d 60e7 8f3d
00000370: 27cc 3abe b35a adbd 4f95 04be d1df 903d
00000380: f05d 373d f5c0 1d3e b6cb 82be 145c 403e
00000390: c662 16be f703 b03d e7b3 913d 82e7 8d3d
000003a0: bf38 44bd 58b0 093e 5719 983d b93b 2e3d
000003b0: ffe0 133e a52c 443e aa78 08be c383 293d
000003c0: 870c 10bd 05a7 fa3d 0077 be3d 7e19 24be
000003d0: 096a b3bd e07a 4bbe 15e8 10bd dc99 643e
000003e0: 3c33 403e 1aa8 87be 682f 18be 23a2 843d
000003f0: 8550 aabd 608d d23d 4d9f bebc 212e 853e
0.1794375 0.061271038 -0.08679046 0.039224688 0.10199538 0.078699335 0.18408948 -0.0939943
0.06703069 0.06619778 -0.08374223 -0.04716549 0.115359 0.18796977 0.051315144 -0.026425434
-0.008618806 -0.018416835 0.16893542 0.14284615 0.12660947 -0.19936985 -0.016093262 0.05732213
-0.027248895 0.16508745 0.1316993 0.081622355 -0.04904688 0.00595238 0.011412478 0.1344763
-0.110851474 -0.22941296 -0.06340024 0.21941228 -0.012428572 -0.081046306 -0.14001329 -0.079910055
0.107926205 0.17104438 0.071190186 -0.047343154 -0.008525032 0.23035292 0.08693536 -0.15633668
0.20698208 -0.07739885 -0.018927366 -0.025036197 0.2053959 -0.116260655 -0.086532064 0.0645286
0.15497631 0.07081142 -0.22601208 -0.0713321 0.05653872 -0.108599335 0.058777183 0.06419418
0.082001396 0.0019742348 -0.07891205 -0.060482606 -0.053819817 -0.021221085 -0.13533252 -0.028650964
-0.07969381 0.07832797 -0.10951288 0.10366668 0.1640865 0.12220962 -0.07877572 0.046125468
0.00034964475 -0.034300104 -0.121171966 -0.048718955 -0.088108405 0.10774213 0.10521966 -0.21950445
-0.0060480423 -0.12716646 -0.11026305 -0.046620365 -0.012763201 0.040256508 -0.09744879 0.15628664
0.106644824 0.0018541209 0.10277996 -0.04415292 -0.06768474 0.2039438 -0.14756821 -0.008434029
-0.12593675 0.17135677 0.038038712 -0.04891931 0.18354908 0.029593898 0.041369643 -0.18056001
0.101823255 -0.1291444 0.034388013 0.016267331 -0.032698717 -0.097258024 0.11798398 0.02261439
-0.030580306 0.021000367 -0.15844524 0.03613583 -0.03472456 -0.014882714 -0.10435609 -0.0629774
-0.036726568 0.12109574 0.14336215 0.16902979 0.14377022 0.14372666 -0.13673998 -0.0062167384
-0.10683197 -0.030555062 -0.060345646 0.14084801 -0.076433145 -0.12593453 -0.023261013 0.004346316
0.18741639 -0.04624662 -0.0081516225 0.17168064 0.028058812 0.11234114 0.014606502 0.07983446
-0.030878907 -0.014164062 0.08144957 0.3079742 0.07914121 -0.14379215 -0.013470657 0.0362571
-0.025549732 -0.06590091 0.0014838403 0.024196286 -0.039012752 -0.12521462 -0.06985306 0.13369007
-0.14697975 -0.1008627 -0.08535619 0.06526663 -0.07271315 0.09479682 0.15021856 -0.05896735
-0.13970801 -0.050348215 -0.19977582 -0.08285471 0.007496694 -0.10189623 -0.046355624 -0.019371182
0.11461675 0.11136032 0.029664703 0.12640208 -0.10366893 0.11767781 -0.10619858 0.11927417
-0.04878743 0.1171608 -0.029329346 0.14930536 -0.12002119 -0.098961376 0.16832934 -0.05343476
0.011084463 -0.036747683 -0.048344754 -0.1666449 -0.01745769 0.10010527 -0.03765866 -0.06129641
0.07503797 0.0024320222 -0.087142564 0.10063558 0.14976819 0.07813371 -0.13990186 -0.05455767
-0.016659807 0.03479891 0.086592644 0.07026553 -0.1824194 -0.08464565 -0.12947582 0.070739396
0.04476732 0.15405639 -0.25546044 0.18785125 -0.14686117 0.08594506 0.07114392 0.06928922
-0.04790568 0.13446176 0.07426708 0.042537425 0.14441298 0.19157656 -0.1332728 0.041385423
-0.035168197 0.12238888 0.09300041 -0.1602535 -0.08760459 -0.19871092 -0.03537758 0.22324318
0.18769544 -0.2649544 -0.14861834 0.064762376 -0.08316139 0.102808714 -0.02326932 0.26011756

rnn.weight_hh_l0_reverse f4 [32, 32]
00000000: c2fb 583e 5438 983e 3b90 393d 58c8 c23d
00000010: 916c 5abc fba8 ab3d 7a99 82bd dfeb 8e3e
00000020: 1360 e23d 5db1 34be f744 87bc efe8 aa3c
00000030: 2fa8 663c 0387 483d 60b2 663e 5539 7f3e
00000040: f3fc a3bc 12e9 833a f9ad 82bd d4c3 1f3e
00000050: ebfd 843d 57b2 b8be f436 13be cd36 6d3d
00000060: 0b04 133e 619c 16be 602f 97bd 525e 663c
00000070: f1c8 51bd 883e bd3e 3ed2 49be 9002 6c3e
00000080: adbc 29be a5e7 08be 58bd e4bd e3d1 1b3e
00000090: 6d35 0c3e 022c bd3d b4da 603e 1fe4 f0bd
000000a0: 007d d23d 9315 3d3d 9c2a 8dbe 3108 863d
000000b0: 0c04 21be 2787 f0bd 4a6c 99be a3a8 513e
000000c0: d8a7 8b3e 3d20 753d 1d15 4fbe 8dc2 b4be
000000d0: d91a 7ebd 2371 e93d 99f3 dcbd 0e30 ec3d
000000e0: 72b9 543d bda2 1a3c be6d 933e 52a3 1cbe
000000f0: 9c07 15be 3c16 a0be d50f 39be 8e6a 5fbe
00000100: 677d c23e decc 71be 65e5 a93e f6c6 48be
00000110: ffe7 07be a5c7 5cbd 90a8 6dbe e77e 063b
00000120: 1976 703d 76a3 aa3c 812f 5e3e 3e41 953d
00000130: bb93 ae3d 5fc5 c53d e12b 503e 53db d03d
00000140: f702 b73d 3f90 dbbd f3e1 713e 7b70 413d
00000150: eaf4 6e3d fc03 053e 17af c8bd 95c2 35be
00000160: 17eb 83bd 3aea 283e 69a5 91be 4fa1 8a3c
00000170: 5859 803e 2e90 103e 966a 37bd 7b8a 123e
00000180: f493 62be 9891 9ebd 2495 cc3d 29f4 2bbe
00000190: a187 043e 6010 d2bd 1935 b33d f474 07be
000001a0: 36bf 39be 1e92 49be 7a70 523e 82f8 c63d
000001b0: 0568 25be b02e 84be a756 1c3e edf3 0a3d
000001c0: f8c4 083e ed78 12bd d243 553e 7ca2 06bf
000001d0: 44ac 9dbc 1a89 ec3c 61c5 403e 97bf e13c
000001e0: dc48 153e 12a5 d63d bcba 133d 9f26 91bd
000001f0: 0b2e dcbd 6aa3 dfbd 3497 ea3d d89c b03c
00000200: 35a0 623e d21d 703b a531 41bd d2f4 703e
00000210: 21a8 71bc 3fb0 4fbd f29f 22be a871 e7bd
00000220: be47 5abe c71c 46bd 567a 7f3d 14fc 3d3e
00000230: e22d 523e 6806 32bb 5877 1b3e 394e 15bd
00000240: 5258 78be 74b4 39be 6923 243e 21d8 b53e
00000250: 5c88 a53d f35a 933e 445b c3be 2003 083e
00000260: c2db 21be fb74 323e 229a 40bd 8063 d9bd
00000270: 713e 983e e405 953d 4362 1b3e 64d0 24bd
00000280: 9d81 623e 5212 993e 1162 f2bd 1502 4abe
00000290: aabb 313e 793c 9f3c e115 673c 7f72 63bd
000002a0: 126e 5e3e 3aee c0bd c24f 55be d311 8f3d
000002b0: bc7a 8a3e acce ee3d 951b a03d f90f 21be
000002c0: fca0 b53d bdcd 873e 06fc 863e fc64 37be
000002d0: b8f5 743c 20db a0bc 70f0 a8bd 0bd5 8d3e
000002e0: 7faa 103e 68fa b6bd 7caf babe e210 2dbe
000002f0: 165d 6d3d 68c0 abbe 8a39 9f3a 9ed1 ca3d
00000300: f1af a2bd 14ec 61be 54bf 54bd 73a5 5f3e
00000310: 6527 cabd e510 72be 0cb6 45be ebea 8abd
00000320: c1a8 e13d b9d1 2b3d 0a1d 7c3e 6686 123d
00000330: d7e8 ffbe a875 9dbe 8e17 323e 3c20 053e
00000340: 46b3 9b3e 1ca2 4ebe 8079 a3bd 0b1f 01be
00000350: e0ba 56bd cbaa bf3d 981d 013e f195 d1bd
00000360: 95c1 81bc ef37 6b3e 534b 543e 6c34 e5bb
00000370: 9600 b3be 62c0 28bd bc85 c83d a6cb 61be
00000380: d13c a2be 9567 053e 8320 67be e041 533e
00000390: be83 d43d e02f fe3d 8463 3f3e 5f49 f83b
000003a0: 1ccb 613e e7f1 08be b52d 7abe 0e2b 1cbe
000003b0: bb1a 93be eec8 42be 3fde 0b3d 5d88 c6bd
000003c0: 7399 de3d 54c0 093e 7ab8 09be 996f 8abe
000003d0: a04a 20bc 0034 e1bd b2e6 e43d b525 7b3d
000003e0: 970c 183e 2863 16be bd7a 453e ae40 9bbd
000003f0: eef5 41be fe7c 8a3b ddb0 b83c aeed 5bbd
0.21189788 0.29730475 0.045303565 0.09510869 -0.013331548 0.0838184 -0.063769296 0.2791433
0.11053481 -0.17645784 -0.016512377 0.020863025 0.014078184 0.048956882 0.22528982 0.24924214
-0.020018077 0.0010063967 -0.06380839 0.15602046 0.064937435 -0.36073563 -0.14376432 0.05791359
0.14357011 -0.14708091 -0.07382083 0.014060574 -0.051217023 0.3696177 -0.19709107 0.23047853
-0.1657588 -0.13369615 -0.11168927 0.15216784 0.13692255 0.092369094 0.21958429 -0.11762261
0.10277748 0.046163153 -0.2757157 0.06544531 -0.157242 -0.11744528 -0.2996543 0.20474486
0.27276492 0.059845198 -0.20222898 -0.3530468 -0.062037323 0.11398532 -0.1078865 0.11532603
0.051934667 0.009438214 0.28794664 -0.15296677 -0.14553684 -0.31266963 -0.18072446 -0.21817991
0.379863 -0.23613307 0.33182827 -0.19607148 -0.13272093 -0.053901333 -0.23208833 0.0020522417
0.058706377 0.020829897 0.21697809 0.072878346 0.08524271 0.09656786 0.20329238 0.10198083
0.089361124 -0.10720872 0.23621349 0.04722641 0.058339037 0.12989801 -0.09799021 -0.17750008
-0.06441324 0.164956 -0.2844651 0.016922621 0.25068164 0.141175 -0.044779383 0.14310639
-0.22126752 -0.077426136 0.09989384 -0.16792358 0.12942363 -0.102570295 0.08750362 -0.13228208
-0.18139347 -0.19684646 0.20550719 0.09715368 -0.16152962 -0.2581687 0.1526743 0.033924032
0.13356388 -0.035759855 0.20826653 -0.5259168 -0.019247182 0.028873969 0.18825294 0.027557177
0.14578575 0.104807034 0.036066756 -0.070874445 -0.107509695 -0.10919841 0.11454621 0.021559164
0.22131427 0.0036638868 -0.047166485 0.23530892 -0.014749558 -0.05070519 -0.15881327 -0.11300975
-0.2131643 -0.048367288 0.062372528 0.18553191 0.20525315 -0.0027164463 0.15182245 -0.036451552
-0.24252442 -0.18135244 0.16029133 0.35516456 0.08082649 0.28780326 -0.38155568 0.13282442
-0.15806487 0.17427437 -0.047021993 -0.10614681 0.2973514 0.07276514 0.15174203 -0.0402378
0.22119756 0.2989679 -0.11835111 -0.19727357 0.17356744 0.019438015 0.014104337 -0.055529114
0.21721676 -0.09420438 -0.20831206 0.069858216 0.27046764 0.11660513 0.07817761 -0.1572875
0.08868596 0.26524153 0.26364154 -0.17909616 0.014951162 -0.019635737 -0.08248985 0.277016
0.14127539 -0.0893448 -0.3646201 -0.16900972 0.0579501 -0.33545232 0.0012147885 0.099032626
-0.079437144 -0.22062713 -0.051940277 0.21840458 -0.09870795 -0.23639257 -0.19307727 -0.06783088
0.110185154 0.041948054 0.24620453 0.035772704 -0.4998233 -0.30753827 0.17391798 0.13000578
0.30410212 -0.20179027 -0.07982159 -0.12609498 -0.05242431 0.09358748 0.12608945 -0.10233677
-0.015839377 0.22970556 0.20731859 -0.0069947746 -0.34961385 -0.041199096 0.09791133 -0.22050342
-0.31687024 0.13027795 -0.22570996 0.20630598 0.1037669 0.12411475 0.18690306 0.007577106
0.22050136 -0.13373528 -0.24431498 -0.15250799 -0.2873133 -0.19021961 0.034147497 -0.09693978
0.10869112 0.13452274 -0.13449278 -0.27038267 -0.009783417 -0.10996246 0.11176814 0.061315257
0.14848553 -0.14686263 0.19285102 -0.07580696 -0.18941471 0.004226326 0.022545272 -0.053693466

rnn.bias_ih_l0_reverse f4 [32]
00000000: 5d37 473d 5513 b53d 0c77 f1bc 2b40 26be
00000010: 1b62 253d b53b 2bbe a686 74be c702 b9bd
00000020: de49 67be de24 4bbe 60cb 2ebe 123b f63d
00000030: a3ad 273d d592 c1bd e51c 3f3d c29e 293d
00000040: 2e32 0a3e 2f00 62bd b43b 14bd 2165 d5bd
00000050: 7843 e53d 6b07 813d a741 bb3d f214 123d
00000060: 605c d3bc b8be 35bd 6d31 bb3c 08bb 89bd
00000070: cea5 08be ad9b 2b3e 2be7 03bd 6902 243e
0.048636783 0.08841578 -0.029475711 -0.16235416 0.040376764 -0.16721995 -0.2387949 -0.09033733
-0.22586772 -0.19838282 -0.17069769 0.120229855 0.040937077 -0.09451834 0.046658415 0.04141117
0.13495705 -0.055175956 -0.03618975 -0.104196794 0.11194509 0.06300243 0.091433816 0.035664506
-0.025800884 -0.044371337 0.022850716 -0.067251265 -0.133445 0.16758604 -0.03220288 0.16016544

rnn.bias_hh_l0_reverse f4 [32]
00000000: 4962 333e 3e5e 92bb 2dbb c63d b0ba 993d
00000010: f8d3 aabd 8794 d93d e169 9abd 80ee 893d
00000020: 0a00 37bd 0a3b eebd d2d0 13be 03d5 a93b
00000030: b37c fbbc 4bca 163e 21fb 48bd c274 033e
00000040: b812 823e a4b3 3a3d 1e5f 383e 409f dbbd
00000050: 90a6 31be d341 163d d61f 73be a2c4 c43c
00000060: 7dfa bd3c b515 7f3d b40c 0abe c6b5 bfbc
00000070: 2b0b 3f3e ed99 443e 6184 263e 1778 9f3d
0.17517962 -0.004466801 0.0970367 0.07506311 -0.08341211 0.106240325 -0.07539726 0.067349434
-0.04467777 -0.116323546 -0.14435127 0.0051828637 -0.03069911 0.14725606 -0.04906762 0.12837508
0.25404906 0.045581475 0.18005034 -0.10723734 -0.17348695 0.03668387 -0.23742613 0.024019543
0.023190731 0.06227656 -0.13481408 -0.023402106 0.18656604 0.19199343 0.16261436 0.07786577

fc1.weight f4 [12, 64]
00000000: 2169 ebbe 0fbd 09bd 5674 e73e f8fd c43e
00000010: 85c3 6b3e cb57 6bbe c1fa 8d3e dc85 88be
00000020: ac2a 57be f112 913e e079 01be 57d7 6d3e
00000030: f61e 363e 0e4f 8abe 57dc 71be c09d 7dbe
00000040: 8bd3 353e 707d 863e ea94 6d3e 7dda 723e
00000050: 39d9 9d3e 0e4b 8dbe dadd 323e 1276 8b3e
00000060: f94f 673e b659 66be 5a8d 01be ef1e ac3e
00000070: cd5f b1be b346 d73e 8c74 b3be f2f8 3f3d
00000080: 2f0e 613e 5c9c eabe 7eea 943e cbdc 7fbe
00000090: ab03 8b3e 5093 84be 0f2e 80be 561e aebe
000000a0: 5780 b3be f856 7dbe 8e71 ff3d b8e0 ad3e
000000b0: 595f adbc 9349 033e 9b24 4f3e ea82 82be
000000c0: c358 9b3e 009f c8be b8a9 0f3e 699b eb3d
000000d0: 03b4 e3be c697 e7bd b554 69be 6c9c 2dbe
000000e0: 7a5c b8be fec9 653e b618 19be 432e a43e
000000f0: f87d 113e 126c 3d3e be50 923e 2e19 42be
00000100: 26ce ad3e 76ac e9bc 3b87 5ebd 41ab ffbd
00000110: 5eb7 fa3d 76cd 4f3e 8614 e9be d3a4 cc3e
00000120: 152f e2bd 27f0 11bf 7d86 b43e 79ea ddbe
00000130: ae46 e5be b1ce bebe d431 163d 1929 aebc
00000140: 7ad5 85be 0b43 033e d620 4f3e fbea 993d
00000150: ea63 9fbe 2414 363e a897 0bbf 73d4 5cbe
00000160: 2048 d63e 24e2 a5be 24d1 c3be 1db6 a73e
00000170: 6885 8e3e e5e2 593d 9ac5 a1be 3d5d 113e
00000180: 5247 d9be 83e1 453c 6b9f 653e 6182 fb3e
00000190: 73d7 35be 3623 17bf c967 aa3e b95e 173d
000001a0: afb8 8bbd 068c 923e 3b4c 09bf 037d 17be
000001b0: 7cdf 2bbf 2287 e23e 17ee ef3e 72c4 043f
000001c0: 7085 febe eae0 503d fb4f 3ebe 2f94 ba3e
000001d0: 10f2 803e ae75 863e 230b b0be 7208 2c3f
000001e0: b938 e73e 5470 21bf 82bd 0abe 17ae 27bf
000001f0: bfbf 08bf 3d74 3b3d 2d41 b43d 4186 7ebd
00000200: 6bca ee3e 6143 04bf 96af 73be 0b8f 1e3d
00000210: fef5 02bf 7228 363c abb9 19bf 3dba a6bc
00000220: 055e 493f 0f63 d4bd 7b26 18bf cb9a 34bf
00000230: 0330 02be e0d7 af3e 85c6 80bd 70d3 493e
00000240: c28a d53e 2b27 60be ff26 1abf 0e34 c4bd
00000250: 4db5 12bf 0d6d c83e 4f7a 003e 7760 e139
00000260: 1770 a5ba d099 a13e dd30 cdbd 67bb 433d
00000270: 264b c5be 795f 2dbf cf84 013f 1e3d 51be
00000280: de07 0abe 7a66 dd3e 864f 5abb a0b0 8d3e
00000290: a659 79be 938a 1f3f 2527 d23d 699c 0b3e
000002a0: 018c cf3d 80d5 b3be 14d0 f6be 007b c8bb
000002b0: 5f04 d63d d70b 25be 9ebf 7abe 9455 f53e
000002c0: d803 c03e 5aa7 8e3e 002c fbbe 890b 813e
000002d0: 3b12 abbe b9b2 123f 2d05 7d3c 6ae1 98be
000002e0: fe45 24bf 3330 49bf f627 b13e ab4d f2be
000002f0: 4282 3abf c4fc e2be 6ab3 f13d ea9f 1f3f
00000300: 7f71 e4be 40c2 aebe 163d 14bf e357 d73e
00000310: df68 41bf bc00 213e 9ec9 c03e bbb3 01bf
00000320: b7f7 62be 1d1e aebe b9c6 ebbe 05f9 f4be
00000330: e36f 22bf 503f 0dbe 828f 2b3f 6f74 f63e
00000340: 5384 d3be 7804 a5be 0a89 d73d 397f 733e
00000350: e0c3 be3e 8701 8e3e 3081 2a3e 4b10 37bf
00000360: cc44 b2be c706 033f fb55 0d3f 0d13 403e
00000370: e556 ecbd 8f4a d5be a8d7 1abb 5dbe 84be
00000380: fd95 153f 43e6 473e 8050 523d fbab 383e
00000390: 43f2 c5be 281b 17be 4e20 b7bd 8bab b2bd
000003a0: c311 04be f4a5 a2be 1626 e6be 06b8 b2be
000003b0: bac1 c1be 2630 48be 31c5 13be ecaa 9f3e
000003c0: d679 d03e 8363 063e 256a 923e 0cc4 603e
000003d0: 93af c83e c4cd 433f 059c 53be fcaa 2a3e
000003e0: 881f 4bbe 9f33 c7be e551 ec3e 39cc 2cbf
000003f0: 845b 143e 44dd c03e 117b 02bf 0ee2 293f
-0.45978644 -0.033627566 0.45205945 0.38475013 0.23023804 -0.22982709 0.27730373 -0.26664627
-0.21012372 0.28334764 -0.12644148 0.23226677 0.17785248 -0.2701344 -0.23619209 -0.24767208
0.17756478 0.26267576 0.23201337 0.23716159 0.3082979 -0.27596325 0.17467442 0.27238518
0.22589101 -0.2249516 -0.12651578 0.3361735 -0.34643403 0.42046127 -0.35049856 0.046868272
0.21978067 -0.45822418 0.29085153 -0.2498657 0.27151236 -0.2589364 -0.2503514 -0.3400752
-0.35058853 -0.24740207 0.12472831 0.3396051 -0.02116363 0.12821035 0.20228808 -0.25490505
0.30341157 -0.39183807 0.14029586 0.115042515 -0.44473276 -0.11308245 -0.2278622 -0.16954201
-0.36008054 0.22440335 -0.14950833 0.32066545 0.1420821 0.18498257 0.28577226 -0.18954918
0.3394634 -0.028524619 -0.054328185 -0.12483836 0.12242006 0.20293221 -0.4552347 0.399695
-0.110441364 -0.5700707 0.35258856 -0.4334295 -0.44780487 -0.37267068 0.036668614 -0.021259831
-0.26139432 0.12818544 0.2022737 0.07515522 -0.31130916 0.1778112 -0.54528284 -0.21565418
0.41851902 -0.32399094 -0.382455 0.3275613 0.27836156 0.0531949 -0.3159607 0.14195724
-0.42437226 0.012077692 0.22424094 0.4912291 -0.17757969 -0.590381 0.33282307 0.03695557
-0.06822335 0.28622454 -0.53631943 -0.14793782 -0.67137885 0.44243723 0.46861336 0.5186225
-0.4971118 0.050995745 -0.18585198 0.3644118 0.2518468 0.26261657 -0.34383497 0.67200387
0.45160463 -0.63062024 -0.13548854 -0.65500015 -0.5341758 0.04576515 0.08801494 -0.062139753
0.46638808 -0.5166531 -0.2379745 0.038710635 -0.51156604 0.011118041 -0.6004893 -0.020352477
0.7865909 -0.103704564 -0.59433717 -0.70548695 -0.12713628 0.34344387 -0.062878646 0.19709563
0.41707426 -0.21889941 -0.60215753 -0.09580241 -0.57307893 0.391457 0.12546657 0.00042987216
-0.0012621906 0.31562662 -0.100190856 0.047786143 -0.38533896 -0.67723805 0.50593275 -0.2043347
-0.13479564 0.43242246 -0.003331156 0.27673817 -0.24350604 0.6232082 0.102613725 0.13633884
0.101341255 -0.35123825 -0.48205626 -0.0061181784 0.104500525 -0.16117798 -0.24487159 0.47916853
0.37502933 0.27862054 -0.49057007 0.25204113 -0.33412346 0.5730396 0.0154431285 -0.29859477
-0.641693 -0.7858917 0.346008 -0.4732488 -0.7285501 -0.4433347 0.11801799 0.62353384
-0.4461784 -0.34132576 -0.5790571 0.4205924 -0.75550646 0.15722936 0.37653822 -0.5066487
-0.22164808 -0.3400735 -0.4605005 -0.47846237 -0.63451976 -0.13793683 0.6701585 0.48135707
-0.41311893 -0.32229972 0.10524185 0.23779 0.37258816 0.2773554 0.16650844 -0.71509236
-0.34818113 0.51182216 0.5520932 0.18757267 -0.11540011 -0.41658446 -0.0023627076 -0.25926486
0.5843199 0.19521432 0.051346302 0.18034355 -0.38661394 -0.14756453 -0.089417085 -0.087241255
-0.128974 -0.31767237 -0.44950932 -0.34906024 -0.37843114 -0.19549617 -0.14430691 0.3118509
0.40717953 0.13123898 0.28596607 0.21949786 0.39196452 0.7648585 -0.20664985 0.16666788
-0.19836247 -0.3890657 0.4615623 -0.6749912 0.14488035 0.37668812 -0.50969034 0.6636056

fc1.bias f4 [12]
00000000: 8f3b c13b b453 8dbd d77a fbbe 14dc 4dbe
00000010: 712c 30bf 6d06 28be 07ba 09be a743 a7bd
00000020: d555 8dbd 82f0 21be 2421 76bd a6e7 3abd
0.0058969925 -0.06900731 -0.49117157 -0.20103484 -0.6881781 -0.16408701 -0.1344987 -0.081672005
-0.06901137 -0.15814403 -0.0600902 -0.045631073
