initial_training/python3_base_model.pt (torch, 100551 bytes, 11 tensors)

word_embeddings.weight f4 [102, 128]
000000 f4 4a c9 bf ac a1 30 bf 67 ce 17 bf 1d 35 cc bf
       -1.5725999 -0.6899669 -0.5929932 -1.5953709
000010 81 8a fe bd 9d 71 00 bf 18 d2 8c bf fa 7f c5 bf
       -0.12428761 -0.5017336 -1.1001616 -1.542968
000020 b6 48 49 bf e1 71 8c 3e 9f 5e 3d bf 73 6e 96 be
       -0.78626573 0.27430633 -0.73972505 -0.2938114
000030 ce 72 25 be 10 7a db 3f 7c de cf 3e 29 6e e8 3e
       -0.16157076 1.7146626 0.4059943 0.45396546
000040 8c e9 28 bf c6 40 8a bf 30 8f 31 3f 0a 6f 54 3e
       -0.65981364 -1.0801017 0.6935911 0.20745483
000050 72 32 5a 3f 07 13 36 3e a6 5d 1f bf 0f 7e 5a 3f
       0.85233223 0.17780696 -0.6225227 0.853486
000060 5a 99 92 3f 55 84 8b be a5 57 0b c0 9f 74 be bf
       1.1453049 -0.272494 -2.1772244 -1.487934
000070 88 d0 38 3d 1b 03 36 bf 47 15 6b bf aa 58 53 bd
       0.045120746 -0.7109849 -0.9182934 -0.05159823
000080 69 35 fa 3f 2c 8a 27 bd 88 3c 8a 3e db f7 55 bf
       1.954755 -0.040903255 0.26999307 -0.8358132
000090 47 cf 8c 3e f6 4b 5b 3d 05 f2 bb 3d 4f 47 f6 be
       0.2750189 0.05353924 0.09177021 -0.4810128
0000a0 37 b9 a6 bd 8f ce a4 3e bc 9f 0e be 77 13 ac bd
       -0.08140796 0.32188842 -0.13928121 -0.0840215
0000b0 ec 48 1d 40 84 51 6f bf 3b 8f c4 3f c6 1c 0f bf
       2.4575758 -0.9348376 1.535621 -0.5590328
0000c0 d1 16 6b bf cc 2a 1b 3f dd f4 39 3d 35 37 c9 be
       -0.9183169 0.6061218 0.045399535 -0.39299932
0000d0 b3 d1 32 3f 12 51 01 3f 30 b9 a0 3f b6 44 03 40
       0.69851226 0.5051433 1.2556515 2.0510688
0000e0 6a fe 86 3d 0e 00 5b 3f d1 5e 4f be f3 61 1d bf
       0.065914944 0.8554696 -0.20251013 -0.61477584
0000f0 76 4d c8 3f d8 7f 6f bf 16 94 5a c0 62 76 4a bf
       1.5648639 -0.9355445 -3.4152884 -0.7908689
000100 7b 71 81 bc af 19 8b bf cd 69 1a bf bf 36 7a bf
       -0.015801182 -1.0867213 -0.6031769 -0.97739786
000110 bb 27 da bd b4 5c 94 bc 90 46 d9 3f 7e 86 c9 3c
       -0.10652109 -0.01811061 1.6974659 0.024600264
000120 4b 49 52 bf e9 21 3b be c2 b7 7f bf 37 44 5d bf
       -0.82143086 -0.18274654 -0.9988977 -0.8643221
000130 4d ea 08 bf 66 6a f4 be e1 e3 9d 3e 92 5f 79 bf
       -0.53482515 -0.47737426 0.3083792 -0.97411454
000140 b1 c0 d4 be 10 b0 1a 3e 61 3c 10 bf 2a 57 50 3f
       -0.41553262 0.15106225 -0.5634213 0.81383
000150 52 53 ab bf 84 b1 01 bf ec a1 49 3e c8 db 7d be
       -1.3384802 -0.5066149 0.19690675 -0.24790871
000160 17 d6 96 3e ba 99 e3 be 33 4a 85 bf 2e 7d 30 3f
       0.29460213 -0.44453222 -1.0413269 0.6894101
000170 fb 31 97 bf 0e e7 1a bf 50 d8 cd 3e 46 8e ed 3f
       -1.1812128 -0.6050881 0.40204096 1.8559043
000180 1b 4b 2f 3f 1b b3 99 3f e4 12 59 3f 2c a0 6d bf
       0.68473977 1.2007784 0.8479445 -0.9282253
000190 a6 26 b5 3f 95 60 48 bf 36 56 81 bf 0d f7 9a 3f
       1.415242 -0.7827237 -1.0104434 1.2106644
0001a0 3d c8 ad 3f 4b eb 10 3f 37 b1 ec bd 2c 2b cb bc
       1.3576733 0.5660903 -0.115572385 -0.02480086
0001b0 aa fc ff bf 67 d9 27 bf a2 2f cc bf d3 f0 8b bf
       -1.9998982 -0.65566105 -1.5952036 -1.0932869
0001c0 37 19 6d 3f cf 12 07 bf f5 63 a6 3f 9e 1c 4c 3f
       0.926166 -0.52763075 1.2999254 0.79731166
0001d0 dc 6c 9c 3e 14 70 83 3e 3b e9 01 3f 90 30 09 bf
       0.30551803 0.25671446 0.50746506 -0.53589725
0001e0 5c fd 21 40 c2 f3 8b be 99 c0 88 3c e6 0c e1 3f
       2.5310888 -0.2733441 0.0166934 1.7582061
0001f0 48 9c 04 c0 fb 29 e1 3f 38 c5 ec 3d 6e 19 bc 3e
       -2.0720387 1.7590936 0.11561054 0.3673815
000200 86 5d 36 3f 97 64 e3 bf bd 2d b5 3e ed 8c 99 3f
       0.71236455 -1.7765073 0.35386458 1.1996132
000210 7a 22 9b be 07 84 e1 bf 2d 85 22 3f 7a ea 4d bf
       -0.3029974 -1.7618417 0.6348446 -0.8043591
000220 e9 38 ce bf 03 91 ef bf 87 07 0b 3f 3c 22 29 3f
       -1.6111118 -1.8716129 0.5430836 0.6606786
000230 bf e4 12 40 a3 c6 2c 3f 1f 4e db 3f c0 aa e5 bf
       2.2952116 0.67490596 1.7133216 -1.7942734
000240 8a 7f ae bf 48 b4 7b bf 30 71 c1 3f a4 51 24 3f
       -1.3632672 -0.9832196 1.5112667 0.64187074
000250 50 28 f2 3e 29 70 db be a2 26 0d 3f 40 10 c6 bf
       0.4729638 -0.4285901 0.55137074 -1.5473709
000260 ff a2 04 3f 35 2f da 3d ed d9 89 3e ff 91 a9 3f
       0.5181121 0.10653535 0.26924077 1.324768
000270 8e 7d df 3f a0 6f ed 3f 9b d4 34 bf 4d a7 23 40
       1.7460191 1.854969 -0.7063691 2.5570862
000280 0e c7 d5 3e e8 d2 59 be 7d 07 57 bf 95 0c d7 be
       0.4175343 -0.2127186 -0.839958 -0.42001787
000290 d8 c0 1f bf 14 30 7a bf b3 f5 5f 3f 79 be 7c 3f
       -0.6240363 -0.9772961 0.8748428 0.9872814
0002a0 ca 80 9e 3e f8 a5 c2 3f 1b 45 9a 3f 49 65 e8 bf
       0.30957633 1.52069 1.2052339 -1.815591
0002b0 83 92 ce be 89 8a 75 bf 63 a5 aa bb ff 82 a1 bd
       -0.40346155 -0.9591451 -0.005207704 -0.07886314
0002c0 ba f9 57 3f b3 35 95 3f 07 e5 06 3f b1 43 cf 3f
       0.8436543 1.1657013 0.5269322 1.6192533
0002d0 26 c7 76 bf b8 ea 10 3e bd 96 27 be f3 68 b7 be
       -0.96397626 0.14152038 -0.16366096 -0.35822257
0002e0 a6 73 dc 3f 43 6e 9b be 70 9b 74 3e 3b 08 ac 3f
       1.7222793 -0.3035756 0.2388742 1.3440012
0002f0 fe 67 d3 3d 68 d8 8c 3f b5 f0 ae be cd 84 72 3f
       0.10322569 1.1003542 -0.3416802 0.9473389
000300 43 8a 11 bf b4 6c 56 3f fe 4e e4 3f 67 1d 48 be
       -0.56851596 0.8375962 1.7836607 -0.19542466
000310 8b d1 03 3f 25 7a ec bf e9 ab 3a c0 88 3c 11 bf
       0.5149161 -1.8474776 -2.9167426 -0.5673299
000320 57 91 0a bf 20 2a 65 3f fb eb 61 bf c8 24 08 3f
       -0.5412802 0.895174 -0.882507 0.53181124
000330 07 dc c5 bf 82 75 31 be 5a 6e 3a 3f d1 b8 69 3d
       -1.5457772 -0.17329982 0.72824633 0.05706102
000340 fa cf 67 3f fd ec 85 3f d8 45 05 bf 8e 69 ad 3f
       0.9055172 1.0462948 -0.520597 1.3547838
000350 78 d6 70 3e ed 05 f5 3f 85 0f eb 3f 47 8a a9 3f
       0.23519313 1.9142433 1.8364111 1.3245324
000360 fc 10 78 bf 9f 35 a0 3f e7 eb 9a 3f ce 25 07 bf
       -0.96900916 1.2516364 1.2103242 -0.5279206
000370 ce cf 5f 3e cd 05 13 bf 13 83 ba 3f ad ae e2 3f
       0.21856615 -0.57430726 1.4571251 1.7709557
000380 60 30 d3 3f b4 2f dd be 0a c4 8a be 7b 36 b8 bf
       1.6499138 -0.43200457 -0.2710269 -1.4391626
000390 05 9f 9f 3f 8e 0d a3 3f 80 2a c8 3e 74 40 c6 3e
       1.2470404 1.2738512 0.39094925 0.3872105
0003a0 3d 7d a3 bd 7d f6 ae 3e 59 e6 72 3f d0 24 b1 bf
       -0.07982872 0.3417243 0.9488273 -1.3839359
0003b0 dc ae dc 3f 50 58 17 c0 1e f3 6d bf 0e 56 96 3e
       1.7240863 -2.3647652 -0.9294909 0.2936253
0003c0 92 4b 5c 3e 28 3f 70 3f 4f 9c bb 3f 1b 75 0e bf
       0.21513203 0.9384637 1.4657077 -0.5564744
0003d0 e3 ad 3e bf 4d 02 4f be 10 2e 6b be 3e 80 ae 3a
       -0.7448408 -0.20215721 -0.2296679 0.0013313366
0003e0 2a 24 c0 3e de c0 14 bf d5 82 12 bf 6c 3e 81 3f
       0.3752759 -0.5810679 -0.57230884 1.0097175
0003f0 b5 5e d8 bd 47 00 97 bf a7 ea b9 bd 43 28 10 3f
       -0.10564939 -1.179696 -0.090779595 0.56311435

rnn.weight_ih_l0 f4 [32, 128]
000000 d3 46 f0 bc 0a 25 0f bd 20 6a ea bd d9 89 5b be
       -0.029330647 -0.034947433 -0.11446023 -0.21439303
000010 2d 9d ee 3c 83 8e 22 be 65 63 39 be d1 b2 a1 bc
       0.029127682 -0.15874676 -0.18104322 -0.019738587
000020 00 5f d7 ba 7d 96 0c bc c1 a5 79 3d 9f 68 6c 3e
       -0.001643151 -0.008580801 0.06094909 0.23086785
000030 e7 26 4d 3b c4 4f 2b 3e b8 30 df bd b8 d3 cb 3d
       0.0031303705 0.16729647 -0.10897964 0.099524915
000040 35 ae 2f be 59 61 05 3e ac 6c 9e 3d 24 ec 2c 3e
       -0.17156298 0.13025416 0.07735571 0.16886955
000050 7c fc c8 3d 73 fe 15 3c 58 ca af bd bf 27 9e 3d
       0.098137826 0.009154904 -0.08583516 0.07722425
000060 00 c3 c3 3d a0 59 e8 3c ce 00 5d bc 78 70 44 be
       0.09558678 0.028363049 -0.013488961 -0.19183528
000070 fc 9b 4d be e7 a6 f2 bd 77 fb 92 3d c4 0a 25 be
       -0.20079035 -0.1184824 0.07176869 -0.16117388
000080 ae 22 1f be 06 4e 81 3d 15 7a 4d bd 55 35 f9 3c
       -0.15540573 0.0631371 -0.050165255 0.030420939
000090 1e fa 08 3e 09 14 d1 bd 8e b1 d3 3c f7 37 03 3e
       0.13376662 -0.102088995 0.0258415 0.12814318
0000a0 df ac 5a be 17 d9 de 3d 6f 28 82 be 15 5b 08 bc
       -0.21355008 0.1088125 -0.25421473 -0.008322497
0000b0 5e 9c e0 3d 80 ec e1 3d af 05 cb 3c 70 11 8c bd
       0.10967325 0.11031437 0.024782984 -0.068392634
0000c0 47 54 36 3e 55 c9 71 be 57 9e ff 3d 33 67 43 be
       0.17805587 -0.23611958 0.12481373 -0.19082336
0000d0 04 0e 4c 3e b4 21 49 bd fd e3 e1 bd 79 10 1d 3e
       0.19927222 -0.049104407 -0.110298134 0.15338315
0000e0 e5 86 53 3e 52 f5 83 bd 3f 6e 54 3c aa 5f 3d 3e
       0.20656927 -0.064432755 0.012965738 0.18493524
0000f0 9b 7d 00 3e 22 ae b0 3c 3d 6e d0 bd f5 a7 2a 3e
       0.12547915 0.021567408 -0.10177276 0.16665633
000100 2b 04 fd 3d e1 48 b8 bc 3f 67 1b be 0c 3a ce 3d
       0.123543106 -0.022495689 -0.15176104 0.10069665
000110 e9 32 73 be 17 81 eb 3d 09 cc 35 be b9 42 ab bc
       -0.2374989 0.11499231 -0.17753614 -0.02090584
000120 0b 0a 31 bd 13 20 76 bd d0 78 c0 bd 72 61 b7 b8
       -0.04322247 -0.060089182 -0.09398043 -8.7442706e-05
000130 b1 95 aa 3d 9f b6 db bc ca 29 17 3e dc 2e 62 bd
       0.083293326 -0.026820479 0.14762035 -0.05522047
000140 e0 1e 0e be f8 e6 45 bb 8a 70 1e be 55 19 9e 3b
       -0.13878965 -0.0030197483 -0.15472618 0.004824797
000150 78 d8 01 3e c4 6c de bd 77 f8 34 3e 13 77 39 3e
       0.12680233 -0.10860589 0.17672907 0.1811183
000160 b9 34 e0 3d 61 0d bf 3d d2 88 a3 bd 75 17 64 3e
       0.10947556 0.09328724 -0.07985081 0.22274573
000170 ef 25 82 3d b5 16 aa 3c 7e 11 56 3c d1 49 e2 ba
       0.063548915 0.02076278 0.013065694 -0.0017264431
000180 45 c0 3e bd bd 4d 08 be 28 76 0a 3d 9d 63 da bd
       -0.04657008 -0.13310905 0.03380409 -0.10663531
000190 c9 5b 6d 3c 93 6a f6 bd 79 06 b4 bd ff 9a 18 be
       0.014487215 -0.12032046 -0.08790297 -0.14902876
0001a0 3a d0 68 bc ce 59 2f 3e 8e ee a5 3d 58 32 22 3d
       -0.014209801 0.17124102 0.08102141 0.039598793
0001b0 45 4b e4 3b 4b 6e 48 3e cb 5b dd bc 46 87 b6 bd
       0.0069669806 0.19573323 -0.02702131 -0.0891252
0001c0 e5 79 4c be 28 91 d6 3d 60 84 3c be de 2b 6e 3d
       -0.19968374 0.10476905 -0.18409872 0.058147304
0001d0 3f 69 2b be d2 89 d5 3d 36 d5 4a 3d 21 a5 33 3e
       -0.16739367 0.10426678 0.04951974 0.1754346
0001e0 f2 93 bf bd 97 67 a1 3d 05 c9 dc bd d7 a8 4d 3e
       -0.0935439 0.07881086 -0.10780529 0.20083939
0001f0 0a 90 f2 bd c0 e6 d0 3d 90 d4 a6 3d 44 25 dc bd
       -0.118438795 0.10200262 0.08146012 -0.10749295
000200 37 30 60 bd 1c ab a3 3a 14 63 87 bd 16 92 36 3e
       -0.05473348 0.0012486908 -0.066106945 0.17829165
000210 45 4e eb 3d de 7a 14 be 32 d1 a7 3d d1 58 19 bd
       0.11489538 -0.14499995 0.08194198 -0.037438218
000220 e3 26 d7 ba bd 61 0e 3e d8 8e d3 3c 0c 57 90 3e
       -0.0016414787 0.13904472 0.02582495 0.28191411
000230 6b a7 4a 3d aa 4e 8c be 78 dc 17 be fb a1 c2 3c
       0.04947607 -0.27403766 -0.14830196 0.023758879
000240 5a 70 18 3d 2b bb 10 3e 68 3a d6 3d 05 7d bb bd
       0.03721652 0.14133899 0.10460359 -0.09154705
000250 3a 00 8f bd 5c d1 24 3e 2d f2 f5 bc 18 50 5e 3d
       -0.06982465 0.1609549 -0.030022705 0.054275602
000260 e3 df 2a be c2 80 27 be 78 f0 84 3a 04 42 a5 bc
       -0.16686969 -0.16357711 0.0010142466 -0.02017308
000270 18 9a ea bd be 74 b2 bd 5a 34 7e 3e 8d 21 4d 3d
       -0.11455172 -0.08713673 0.24824658 0.050080825
000280 b9 9f e2 bc 5d 64 f4 bd 92 2a 35 be 20 1c af bd
       -0.027664052 -0.11933205 -0.1769202 -0.08550286
000290 13 8b 4c bd cf cc 42 3e ff 1a 11 3d 70 2e 25 3d
       -0.04993732 0.19023441 0.035426136 0.04032749
0002a0 a2 c4 ee bc 2f a1 09 3e 16 88 42 3e 57 ee 13 be
       -0.029146496 0.13440393 0.18997225 -0.14446388
0002b0 6e 17 07 be 5c 07 84 3d 84 4a f4 3d 95 06 a7 bc
       -0.13192531 0.06446716 0.11928275 -0.02038888
0002c0 e7 ad 67 bd c0 35 b1 bd 11 1d 63 3d d8 5e 27 bd
       -0.05656233 -0.0865283 0.05544764 -0.040861934
0002d0 11 10 57 bd f3 4c 65 3c 53 8a 9f bd a3 57 f8 bd
       -0.052505556 0.013995397 -0.07790055 -0.121260904
0002e0 b1 17 b6 bd 91 a5 27 3d 4b a0 4f 3e 19 52 5f 3e
       -0.088912375 0.04092938 0.2027599 0.21808662
0002f0 80 a7 bf ba 0d 44 00 3e 6d cc 4e 3d 53 8a c6 3d
       -0.0014622062 0.1252596 0.050487924 0.09694352
000300 5d 94 dc 3d 78 2d 52 bd 24 08 46 3e 4a db 83 3d
       0.107704856 -0.051312894 0.19339043 0.064383104
000310 a8 76 fd 3d 20 05 e1 bd ac 3c be 3d 85 4d eb 3d
       0.123761475 -0.10987306 0.09288916 0.11489395
000320 27 d9 67 bd 75 a3 6a be ef 06 63 3d 0a d0 10 3e
       -0.056603577 -0.22913916 0.055426534 0.1414186
000330 6e 0e b9 bc 8b a4 fa 3d f7 8c 09 3b f1 5e 31 3e
       -0.022589888 0.12238415 0.0020988563 0.17321374
000340 ed 51 d5 3d 37 33 2b 3c 58 4d d1 bd f1 7f e3 bd
       0.10416017 0.010449222 -0.1021983 -0.11108387
000350 85 0f bb 3d 3d 30 a2 bd 05 23 80 bd 9c cc d8 bc
       0.091338195 -0.07919357 -0.062566794 -0.026464753
000360 0d 2b 2e be fc 6f 29 3e dc ee 53 3e 30 69 45 3e
       -0.1700861 0.16546625 0.20696586 0.19278407
000370 5a 64 62 3e 6d 96 1a 3e 4e 15 d8 3d a7 58 1a bd
       0.22108594 0.15096445 0.105509385 -0.0376822
000380 88 27 4b 3e 2a 80 4c 3c 43 c5 b3 3d e9 41 ca 3d
       0.19839299 0.012481729 0.08777859 0.098758526
000390 88 27 a2 3b 80 f4 fd bd 23 ec 5a 3e a3 de 37 be
       0.00494856 -0.1240015 0.21379142 -0.17956023
0003a0 99 e5 d6 bd 67 d6 0a 3e 49 06 81 3c 00 14 77 bd
       -0.10493011 0.1355835 0.015750067 -0.060321808
0003b0 a9 65 83 bd 5e 84 8c 3d da ff 4c 3d 13 83 99 bd
       -0.064158745 0.068611845 0.050048687 -0.074957035
0003c0 99 7d 3a 3d a4 51 a4 3d 80 39 7e bd aa 1b 47 3d
       0.045529936 0.08023384 -0.062066555 0.048610367
0003d0 7f e7 c3 38 7e 1c 2c 3e 2a 4d d3 3b b5 55 30 3e
       9.341444e-05 0.16807744 0.0064484077 0.17220195
0003e0 0a 7a a4 3d 6e 1f a6 bd df a1 72 3d f2 fa 1b 3e
       0.080310896 -0.081114635 0.059236404 0.15232447
0003f0 d2 04 49 be a0 d1 87 3e f7 82 a9 bd 5a 98 25 be
       -0.19630745 0.2652712 -0.08276933 -0.16171399

rnn.weight_hh_l0 f4 [32, 32]
000000 c3 af 3c be 89 71 82 3e 8e 41 b5 3e 45 8d 09 3e
       -0.18426423 0.25477245 0.35401577 0.13432796
000010 5a a3 68 3d 2a 0e c9 bd dc 37 67 be ff 0e 6d 3e
       0.05679641 -0.09817155 -0.22579902 0.23150252
000020 a4 77 0e 3e 8a 51 f4 3d de 26 f3 bd 5f 57 78 3e
       0.13912827 0.11929615 -0.11872648 0.2425208
000030 ea aa 90 3c 09 69 1e 3d 2f 28 13 be 5e bd 63 3e
       0.017659623 0.038674388 -0.14370798 0.22240207
000040 c7 ab 4c 3e d2 dd 94 3c f4 93 4a bd 8f 99 35 3c
       0.19987403 0.018172178 -0.049457505 0.0110839745
000050 04 65 89 3e 06 66 e4 3d 7d 5e d3 3b 50 1f f7 bb
       0.2683488 0.11152272 0.006450473 -0.0075415745
000060 13 0a 2c 3e e4 32 90 3d a7 ae 96 3e 5e e9 7e be
       0.16800718 0.070409566 0.29430124 -0.2489371
000070 a9 0a be be bb ba a2 3e 8c 6b 7b be 53 be eb bd
       -0.37117508 0.3178309 -0.24552745 -0.11510911
000080 d3 4f 79 3e f9 71 9e bd bb 87 1f 3d cc a7 3e 3e
       0.24346857 -0.07736582 0.038947802 0.18618697
000090 01 c2 db bc 28 95 3d 3e 82 16 03 3d 74 ac cd 3e
       -0.026825907 0.1851393 0.032003887 0.40170634
0000a0 2f 92 5b be 67 da b4 3b 67 d7 c5 3b 2e b5 b7 3c
       -0.21442483 0.0055191997 0.006037641 0.02242526
0000b0 26 77 f7 bd bf cd 18 3e 81 cd d0 3d 92 f1 12 3e
       -0.12083273 0.14922236 0.10195447 0.14349964
0000c0 60 30 8a be b3 d2 7e bd 13 6f 57 3e 12 e9 96 be
       -0.26990032 -0.062212657 0.21038465 -0.29474694
0000d0 9e 43 3a be 18 3c 07 3e 1b cc 0c 3d 90 67 eb 3d
       -0.18189856 0.13206518 0.034374338 0.11494362
0000e0 42 90 1e 3d 56 57 73 bc bf 91 9f be c8 e6 8a 3e
       0.038711794 -0.0148523655 -0.31165883 0.27129197
0000f0 36 a1 0d 3e 6e 0b f0 3c be 6a 10 be be 44 cc 3c
       0.13831028 0.029302325 -0.14103219 0.024935123
000100 be b8 d6 3d 93 d8 88 bd 50 d4 18 be d9 d9 d5 3d
       0.104844555 -0.06681933 -0.14924741 0.10441942
000110 d5 fe 0e 3e 6f ea 13 bd d4 fc 22 3d d3 fc eb 3c
       0.13964398 -0.036112245 0.039791897 0.02880708
000120 9e 09 17 3d a0 96 c5 be 10 58 f7 bd 5b 6c ef be
       0.036874406 -0.3859148 -0.120773435 -0.46762356
000130 a8 82 b7 3d 22 5f 0f 3e 3a 06 0a be 0d 9e e8 bd
       0.089604676 0.14001134 -0.13478938 -0.11358271
000140 a7 3d 35 be 0b 77 83 be dd 01 53 be 0c 30 53 3e
       -0.176993 -0.2567676 -0.2060618 0.20623797
000150 34 a3 f9 be 45 dd b2 3d 2a f4 f7 bc cb 62 bd 3d
       -0.48757327 0.0873361 -0.030267794 0.09247359
000160 16 a3 72 be 48 8a e0 bd eb 10 96 be 0f 5d d1 bd
       -0.23695025 -0.10963875 -0.29309782 -0.10222828
000170 c8 0a 9a be be e2 10 be 4b cd 71 3e 07 1f c1 3d
       -0.3008635 -0.14148995 0.2361347 0.09429746
000180 5a 84 84 bd 1e d1 da bc a4 7f 8a 3e 6f 17 b9 3e
       -0.064705566 -0.026711043 0.27050507 0.3615069
000190 00 0c c1 bd ab dc 4e 3e 16 5d 70 bd 59 de c6 3e
       -0.09426117 0.20201366 -0.058682524 0.38841513
0001a0 a3 58 b3 be 28 41 0a 3d 6a 86 44 3d 8e 2e d2 bc
       -0.35028562 0.033753544 0.04797975 -0.025656965
0001b0 8e 30 ed bd a9 30 16 3e 76 77 ca bc 87 f8 d1 3e
       -0.11581527 0.14667 -0.024715167 0.41009924
0001c0 62 fc ed be ac e4 0b bd 04 1d d7 3d 11 4d b0 bd
       -0.46481615 -0.034153625 0.10503581 -0.08608449
0001d0 eb 5f 0f 3e 3a 4e 7c be 3e bd 0d 3e cb e9 68 be
       0.14001434 -0.24639216 0.13841721 -0.22745435
0001e0 d7 d8 8d 3d af 4f 94 3d fe 28 84 be aa a6 0e bd
       0.069261245 0.07241761 -0.25812525 -0.034826912
0001f0 f9 f2 28 bd e1 f6 2e be ba 52 ac bd dc 94 f9 3d
       -0.04124734 -0.17086364 -0.08414216 0.12186596
000200 60 37 e2 3c 44 5e bb 3c 71 07 51 be 0d 77 0a 3e
       0.027614295 0.022872098 -0.20412995 0.13521977
000210 76 59 5b 3d ae 9a e7 3d 96 f6 2d be de b7 d5 bd
       0.053552113 0.113088 -0.16988596 -0.104354605
000220 e7 da 73 3d d4 8c 75 bd 7e a0 23 be 7c 2c 19 bd
       0.059534933 -0.059948757 -0.15979192 -0.03739594
000230 8b e8 3b bd 91 0c 0d 3d 9e 90 17 3e 60 19 f3 bd
       -0.045876067 0.034435812 0.14801261 -0.11870074
000240 3a 67 41 bc 45 4a c6 3d 82 54 7a bd 09 71 ff 3c
       -0.011804396 0.096821345 -0.06111575 0.031181829
000250 cb f1 0d bc 4a 30 5e 3d c7 00 6e 3d 72 d8 21 3e
       -0.008663605 0.05424527 0.05810621 0.15805224
000260 1e 19 88 3d d6 ba 51 be 02 0e 83 be 96 d1 34 be
       0.06645416 -0.20481429 -0.25596625 -0.17658076
000270 be d5 47 be 35 10 a0 3d e6 52 ba 3d 26 70 bd 3d
       -0.1951513 0.07815591 0.09097843 0.09249906
000280 0a 51 4f be a2 3c f9 bd cd d8 99 bd 62 55 a9 3e
       -0.20245758 -0.12169768 -0.075120546 0.33072954
000290 db bc 82 3d 56 49 1a 3d 02 d6 26 3c 02 83 ed 3d
       0.063836776 0.037667595 0.010182859 0.115972534
0002a0 35 f5 52 be fc 35 53 bd bd 2f ed 3d 3b 57 98 3e
       -0.20601352 -0.051565155 0.11581371 0.29754052
0002b0 85 fe 49 be eb 78 1a 3e 5b d8 6c bd 8f 14 c2 bd
       -0.19725998 0.15085189 -0.05782352 -0.094765775
0002c0 8d b9 53 be 93 3e 35 3e 75 7f 37 3e 34 9e 00 be
       -0.20676251 0.17699651 0.17919715 -0.1256035
0002d0 1d 82 94 3d e6 2c 3c be 59 f4 11 3e c1 8c 08 be
       0.0725138 -0.18376502 0.14253367 -0.13334943
0002e0 93 0f c5 bd db 82 44 be fb b1 86 be ac e4 6a 3e
       -0.09622111 -0.19190542 -0.26307663 0.22938794
0002f0 2c ac 49 3e db ca 34 be 6b d1 b2 bd 41 f7 6a bd
       0.19694585 -0.17655508 -0.087313496 -0.057364706
000300 6d ea e5 3e 7d 39 9b 3d 79 77 ee bd 81 69 82 3e
       0.44905415 0.075793244 -0.11643881 0.25471118
000310 d9 74 f6 3c fb 4f cf 3d 92 e9 90 3e 88 cc 00 3f
       0.030085014 0.10122677 0.283032 0.5031209
000320 2f c5 42 be 32 ab 0e 3e 3e 0e 2d 3e 58 8b 0e be
       -0.19020532 0.13932493 0.16899964 -0.13920343
000330 54 be de 3a 38 87 80 bc 6f 2b 2e 3e f7 a3 36 3e
       0.0016993978 -0.015689477 0.17008756 0.17835985
000340 21 dd 37 be 57 66 92 bd c9 a9 3d 3e 19 74 9d be
       -0.17955448 -0.07148426 0.18521799 -0.30752638
000350 ad aa c2 3d e3 67 13 be 02 78 59 bd 24 75 0e be
       0.0950521 -0.14395098 -0.053092964 -0.13911873
000360 fb b4 87 bd 50 25 c5 3d 51 a9 ce be fd 6b ed 3e
       -0.06626316 0.096262574 -0.40363553 0.4637145
000370 26 a5 91 3e 68 91 17 be 48 49 dc 3d a0 3c 7a 3d
       0.2844631 -0.14801562 0.10756165 0.061092973
000380 85 2f 9b be a1 81 6f 3e 60 43 8a 3e ef a5 b9 bd
       -0.30309692 0.23389293 0.27004528 -0.090648524
000390 30 36 93 3e 18 d1 c1 3d 07 fc da 3d bb 0b ce 3d
       0.2875228 0.094637096 0.10692602 0.10060831
0003a0 e8 54 86 be b4 4c 3a be cd 7a e1 bd 30 91 24 be
       -0.26236653 -0.18193322 -0.110097505 -0.1607101
0003b0 59 3d 63 be 35 56 b6 3d 8f f7 99 3d 1b 4c 13 be
       -0.22191371 0.089031614 0.07517921 -0.143845
0003c0 21 9f 3f be 89 65 5b 3e cb 43 96 3c 2f 3d b7 bd
       -0.18713047 0.21425451 0.018342873 -0.08947217
0003d0 1c d8 97 be db ad 4e be 1d dd 41 be 1b fe 81 be
       -0.29657066 -0.20183508 -0.18932004 -0.2538918
0003e0 a3 2d 9c 3c 49 37 3b 3c 20 40 a4 be 02 38 ab be
       0.01906473 0.011426755 -0.32080173 -0.33441168
0003f0 3e 26 90 be 03 1b 45 be e4 4e 6c 3c 29 a7 ac be
       -0.28154176 -0.19248585 0.014423106 -0.33721283

rnn.bias_ih_l0 f4 [32]
000000 99 2c 22 3e c7 1e 96 bd ba cf b2 3d 7a 9d a3 bd
       0.15837325 -0.07330089 0.08731027 -0.07989021
000010 8f a3 25 3c ba 59 cb bd 8b cc 1f be 0c 93 7a bd
       0.010109796 -0.09929223 -0.1560537 -0.06117539
000020 3d 02 da 3d c6 0e 2a be b3 cb 81 bd 5d 35 db bb
       0.10644958 -0.16607198 -0.06337681 -0.006689711
000030 23 0b 0d 3d 30 cd 35 be 00 ec 56 be 40 94 3c be
       0.03443445 -0.17754054 -0.20988464 -0.18415928
000040 b2 f2 99 3a 24 7f d4 bd 21 97 a4 bc 00 5f 3c 3e
       0.0011745302 -0.10375813 -0.020091595 0.18395615
000050 10 bf d2 3d a7 81 ca 3d db 04 28 3c f8 aa 1c 3e
       0.102903485 0.098880105 0.010255064 0.15299594
000060 74 37 6b bc 65 ea 4d 3d fe 2e 4c be 64 68 af bd
       -0.014356483 0.050272364 -0.19939801 -0.08564833
000070 24 9f 7c be 70 11 18 be 1e 82 d8 bd 4b 0c e3 3c
       -0.24670082 -0.14850402 -0.10571693 0.027715823

rnn.bias_hh_l0 f4 [32]
000000 aa 6a d0 bd fb 60 cc bd ef a6 5a 3e 4f 51 ef bc
       -0.101765946 -0.09979435 0.21352743 -0.029213576
000010 27 57 23 bc 75 a9 d0 bd 65 bf 45 be 25 ab d7 3b
       -0.009969509 -0.10188571 -0.19311292 0.0065816813
000020 b9 8a 16 bd d4 d5 52 be c9 45 03 bb 25 fc 82 3d
       -0.03675339 -0.20589381 -0.002003061 0.06395749
000030 fc 39 87 3d 50 50 2c be a4 52 86 3d e1 54 54 be
       0.066028565 -0.16827512 0.06558731 -0.20735504
000040 8a 68 0c bd c2 94 e4 bd 5c 1c 7b bc b6 a6 77 3d
       -0.034279384 -0.11161186 -0.015326586 0.060461722
000050 47 03 99 bc 23 39 95 bc a2 72 47 3d df 36 db bd
       -0.01867832 -0.018215721 0.048693307 -0.10703825
000060 63 74 1a be 1a 8d fb 3b d5 f0 33 bd 9c 97 8a bb
       -0.1508346 0.0076767327 -0.043930847 -0.004229499
000070 1f 2b b6 bd 30 69 c9 bd e6 8e 84 bd 40 5c 3a be
       -0.088949434 -0.09834516 -0.06472568 -0.18199253

rnn.weight_ih_l0_reverse f4 [32, 128]
000000 10 99 15 3e 2a be 6b 3d e3 89 a6 bd 28 c4 86 bd
       0.1460917 0.0575544 -0.081317686 -0.065803826
000010 2b 6f 04 3e 3b f7 b0 3c cd 24 7d 3c b0 f1 a4 3d
       0.12933032 0.021602264 0.0154506685 0.08053911
000020 7c fb bf bd 03 6b 35 3b 71 89 76 3d cc f8 0b 3e
       -0.09374139 0.0027682192 0.060189668 0.13669127
000030 f4 30 d7 3d 46 6d 42 3e 8b b3 02 3e 2a a0 9e bd
       0.10507384 0.18986997 0.12763803 -0.077453926
000040 28 dc 06 3e 1c 8f 88 bc f8 44 a8 3d 61 eb 27 3d
       0.1316992 -0.016669802 0.0821628 0.04099596
000050 b9 d3 aa bc 05 ee 7f 3e 41 24 b7 3d 2c b3 02 bd
       -0.02085291 0.24993141 0.08942462 -0.031909153
000060 6e 14 af 3b b5 63 87 bd da a4 1e 3e 4a f1 aa bd
       0.0053430116 -0.066108145 0.15492573 -0.083468035
000070 94 72 22 3e c6 92 f3 bb 5f 20 84 3e 1e 72 8a 3b
       0.1586402 -0.0074332682 0.25805947 0.0042250296
000080 f5 ca 23 be 9c 6f 49 bb 50 9a 19 be 96 95 ce bd
       -0.1599539 -0.003073669 -0.15000272 -0.10087125
000090 9f 43 21 be 16 9c 37 3e 81 89 19 3c 5d b3 30 3c
       -0.15748452 0.17930636 0.009371162 0.010784951
0000a0 03 f0 90 bd ed 55 83 bc 7e 49 c7 3d 19 23 9b bc
       -0.070770286 -0.016032184 0.097308144 -0.018937634
0000b0 68 c3 4f be 9f ac 07 be 1f e8 81 3d d0 8f 93 bc
       -0.20289385 -0.13249443 0.06343102 -0.018012911
0000c0 c3 7b 03 3e f9 e3 85 3d 60 b1 bd 3d e9 ea 2e be
       0.1284018 0.06537623 0.09262347 -0.17081799
0000d0 da 9a 90 bb be 88 2f 3d 63 8e 95 be 8e 3e 10 be
       -0.004412991 0.042855017 -0.29210195 -0.14086363
0000e0 8f c4 50 3e f9 48 36 3e 92 10 d1 bd e5 34 a9 3d
       0.20387481 0.17801274 -0.10208239 0.08262042
0000f0 9b d5 d3 3d d5 4e 70 3d 0e c2 45 3e 5f 11 36 3e
       0.103434764 0.05866893 0.19312307 0.17780064
000100 5e ce 09 3e aa cc ae 3d 51 00 51 3e 47 d2 1b 3d
       0.13457629 0.0853513 0.20410277 0.038042333
000110 96 7d 23 3e 68 81 a7 3d 86 cf af bd 9a b6 10 be
       0.15965876 0.08178979 -0.08584504 -0.14132157
000120 2f e3 03 bd e6 65 36 3e e0 a6 c7 bd 38 38 73 3e
       -0.03219908 0.17812309 -0.09748626 0.23751915
000130 a3 64 df 3d 6c 74 3f be f2 02 f0 3d 13 9d b0 3b
       0.10907867 -0.18696755 0.11719312 0.0053898185
000140 ac 0d b1 3d 44 5e 9d bc b5 ac 6b be 52 0a 2e be
       0.08645186 -0.019209988 -0.23015101 -0.16996124
000150 a5 af 80 be e3 1d 4d bc f9 57 71 3d 5f 0a 1e 3e
       -0.25134006 -0.012519333 0.058921788 0.15433644
000160 c5 72 f3 bd 7d 58 6b 3e 05 e8 1b 3c 04 86 72 3e
       -0.11887125 0.22982974 0.009515767 0.23683935
000170 15 5f 9a 3d ab 08 6f 3e 48 74 ad bb a2 cc 19 3e
       0.07537667 0.2334315 -0.005293403 0.15019467
000180 f2 48 63 bd a5 1c f3 3b 44 24 34 3d 2e b6 e2 3d
       -0.055489488 0.007419186 0.043979898 0.11069904
000190 ce 6d 1f be cb 92 e5 3d 24 5d 5f 3d 0d 5f 0b be
       -0.15569231 0.11209639 0.054532185 -0.13610478
0001a0 31 64 83 bd 11 0f 2a be 4e 16 84 3d dc 22 f1 bd
       -0.06415594 -0.1660731 0.06449567 -0.11774227
0001b0 c2 67 77 bd 34 37 fa 3c 5c 5e ee 3c da 61 e1 bd
       -0.060401686 0.030543901 0.029097728 -0.11004992
0001c0 78 f6 02 be fb e0 28 be 2a 49 17 3d 84 d7 83 bd
       -0.12789333 -0.16492073 0.03693501 -0.06437591
0001d0 c1 ef 29 be 31 68 00 3e 30 2e a5 3d 1f 8f 43 3e
       -0.16595365 0.12539746 0.0806545 0.19097565
0001e0 0d 9d 02 be 39 7a 15 3e 9b c3 0d be 7f f6 10 be
       -0.12755223 0.14597405 -0.13844149 -0.14156531
0001f0 11 a2 41 3e c3 f3 28 bc a2 f3 21 3e a7 ef f9 bb
       0.1890948 -0.010312024 0.15815595 -0.0076274457
000200 a2 84 d4 bc 5a 4c bf bd c3 8f 76 be fb 2b 02 3c
       -0.02594215 -0.09340735 -0.24078278 0.007945056
000210 06 24 46 be d4 ab cb 3c 84 a7 3a 3e 5b fd 82 3d
       -0.1934968 0.024862207 0.18227965 0.0639598
000220 a2 2b de 3d ee 40 96 bd 15 4d a2 3c 3e fc 40 3e
       0.10848166 -0.07336603 0.019812146 0.18846223
000230 6e 00 e8 bc a8 da 43 be cb b0 ce bd 0d 83 35 3d
       -0.028320517 -0.1912638 -0.10092314 0.044314433
000240 31 42 55 be f8 50 f3 bc 55 f7 50 be f6 7f 6e bd
       -0.20826031 -0.029701695 -0.2040685 -0.0582275
000250 f2 89 fe bd 1b 88 76 3d 1e ff e6 bc f0 0c 37 be
       -0.12428655 0.060188394 -0.028197821 -0.17876029
000260 2f 1d 04 3e 3a ff 13 3e a8 7c 90 bc 5c 7a 0e 3c
       0.12901758 0.1445283 -0.017637566 0.008696165
000270 ae 0d 08 3e 1e 6e de bc d3 af d5 3d e3 e8 a6 bd
       0.13286468 -0.027152117 0.104339264 -0.08149888
000280 50 c0 05 3d a9 aa 80 bd 12 de 83 be 67 1f d9 3d
       0.032654107 -0.06282551 -0.25755364 0.10601693
000290 1c 02 5f 3e ba e4 0b 3e 32 63 b6 3a 10 1f 05 3e
       0.21778148 0.13661471 0.001391506 0.1300013
0002a0 78 41 0c 3e e7 65 e4 bd 79 ad 32 3e 43 12 ad bd
       0.1369685 -0.11152249 0.17448987 -0.08450749
0002b0 bc 0b d3 3d db 6b e8 bd d3 2a 36 3a f1 e1 07 be
       0.103049725 -0.11348697 0.00069491303 -0.13269784
0002c0 f5 fd 4a 3d db f3 d1 bd f3 1f 87 bd fb a6 0c be
       0.0495586 -0.1025159 -0.06597891 -0.13735573
0002d0 42 f7 0a 3e af cd 26 3e 21 ea 2b be 72 e4 b3 3d
       0.13570884 0.162894 -0.16788532 0.08783807
0002e0 19 49 1b 3e 2e d4 ae 3d 2f 70 c0 bd e3 73 47 bd
       0.15164603 0.08536564 -0.09396397 -0.048694503
0002f0 61 d4 84 3c 78 d6 1b be e5 cf a7 bd 13 54 ec 3c
       0.016214551 -0.15218532 -0.081939496 0.028848683
000300 70 e1 00 be 6c 7f 66 3d 6d df 98 bb 1a 8c a6 bd
       -0.12585998 0.056273863 -0.0046653063 -0.08132191
000310 79 38 2f bd c0 e3 86 3d f1 92 17 be 9a 32 7a be
       -0.042778466 0.065864086 -0.14802147 -0.24433365
000320 89 70 fc bd 22 85 eb 3d 58 e2 50 bd f0 a0 c3 3d
       -0.12326152 0.115000024 -0.05099711 0.09552181
000330 9a b4 90 bc e7 0a 96 3d cb 7e 88 3d d5 a5 14 be
       -0.017664243 0.07326298 0.06664809 -0.14516385
000340 50 a2 13 bd db b7 66 be 0d ba 29 be 5c 54 23 3e
       -0.036043465 -0.22531073 -0.16574879 0.1595015
000350 36 30 55 be 68 5f e5 3d c0 f6 ea 3c 07 4c 90 bd
       -0.20819172 0.11199838 0.028682113 -0.07045751
000360 2f 03 af 3d 46 5c 1a bd b2 2e 13 3e 4a e5 1a be
       0.08545529 -0.037685655 0.14373282 -0.1512653
000370 56 e9 1a bc b8 9f 62 3e eb 3f ac 3d 4a fb 59 3e
       -0.009455046 0.2213124 0.08410629 0.21287265
000380 d6 a2 01 be 1c 77 42 be be 29 9b bd e5 39 41 3e
       -0.12659773 -0.18990749 -0.07576321 0.18869741
000390 59 4b 09 be a4 54 af 3c ff 4d 4b 3d dc 1f f7 bc
       -0.13407649 0.021402664 0.04963493 -0.030166559
0003a0 7c 38 ae bd 1d 8c 53 3e f1 b7 83 3d 37 09 46 be
       -0.08506867 0.20658918 0.064315684 -0.19339453
0003b0 d1 b3 03 3d 9b 7d 08 bc d0 81 e5 3d fd 27 48 bb
       0.03215391 -0.008330728 0.112064004 -0.0030541413
0003c0 3d 8c 52 bd 85 3f a4 bd 8f 16 30 be e0 b0 1c 3e
       -0.051403273 -0.08019928 -0.17196105 0.15301847
0003d0 52 7e bc 3d 8a 1c 97 3e a6 31 ea bd 55 29 8f bd
       0.09203781 0.2951396 -0.11435251 -0.06990305
0003e0 29 c0 4b bc 5c ed 63 3c 75 c8 1a ba c5 45 0f 3e
       -0.012435951 0.013911571 -0.0005904504 0.13991459
0003f0 ed 77 d7 3d 7a b1 49 3d b9 8c 21 bd ec 63 af bd
       0.10520921 0.04924152 -0.039440844 -0.085639805

rnn.weight_hh_l0_reverse f4 [32, 32]
000000 04 d2 a6 bd 16 f9 a3 3d f1 88 61 bd 2a e1 2d 3e
       -0.08145526 0.08006494 -0.055062238 0.16980425
000010 2e 27 a9 3d e6 0a ac bd 3c 53 f3 bd c4 bd b8 3d
       0.08259426 -0.08400516 -0.1188111 0.0902057
000020 cb ea be 3d b3 f5 1f 3e db 3f 9b bd 07 a5 3c 3d
       0.09322127 0.1562107 -0.07580539 0.04605582
000030 b3 66 00 bd 3a 55 21 bd 24 42 3b be 30 00 21 3e
       -0.03134794 -0.03938792 -0.1828695 0.15722728
000040 15 da 21 3e 43 c8 9d bb ed fa a1 3e 9a 9c 2c bd
       0.15805848 -0.004815133 0.31636754 -0.042141534
000050 c3 ee 71 bd c1 18 15 bb 34 d2 bf 3d 77 31 f7 bd
       -0.05906559 -0.002275035 0.09366265 -0.120699815
000060 d1 6f c3 bc e4 d0 9c 3e 45 63 bf 3d 28 5c 83 3d
       -0.02385703 0.3062812 0.09345106 0.06414062
000070 06 08 33 bd 53 55 50 bd 29 5f 1c be 11 d2 62 3e
       -0.043708824 -0.05086262 -0.15270676 0.22150446
000080 5e 97 1e bc e7 1a 2c be b4 8b 0c 3e 9c 4c e5 3d
       -0.009679643 -0.16807137 0.13725168 0.11196253
000090 32 7a 95 3d 3f e8 af 3d a0 cd 97 bd 3f d7 f2 bb
       0.072986975 0.08589219 -0.07412267 -0.0074109132
0000a0 de a5 a2 bd 20 5a ed bd 54 6a c3 3d 9b 2c 8b 3e
       -0.07941793 -0.115894556 0.09541765 0.2718247
0000b0 fe 0f 4b bd 57 c4 92 bd a6 b3 ca bc 4a da 7c bd
       -0.0495758 -0.07166355 -0.024743866 -0.061731614
0000c0 9c 37 0f be c1 bd 17 be f0 c5 93 3d f0 fb 8f bd
       -0.13986057 -0.14818479 0.07215488 -0.07030475
0000d0 9f 78 34 be 5a 05 ba 3d 1c 38 82 bd 20 e2 87 be
       -0.17624138 0.09083052 -0.06358358 -0.26539707
0000e0 a5 ce a6 3d af ea ce 3e bf aa 02 3e 64 fb 5c 3e
       0.08144883 0.40413424 0.12760447 0.21580273
0000f0 7a fe 63 3c 86 10 b2 3e 25 ef 09 be ee fc 8f be
       0.013915652 0.3477823 -0.13470133 -0.28122658
000100 3d 82 67 be 3a e4 ae 3e db 49 19 bd c2 35 dd 3d
       -0.22608276 0.34158498 -0.03742395 0.10801269
000110 d8 01 3d 3e e9 84 54 3e 73 b5 a0 bd 38 b0 25 3e
       0.18457735 0.20753826 -0.07847109 0.16180503
000120 d2 27 17 bd 1b cb 05 be 0b 50 42 3e 6c 2b 69 3d
       -0.03690321 -0.1306576 0.18975846 0.056926176
000130 e9 ba 69 3e ed 47 04 be 1e d3 46 be 8d 4e ec 3d
       0.22825207 -0.12918063 -0.19416472 0.1153842
000140 79 47 8f 3e b5 fb ae bd eb 8b ac ba 7c 46 88 bd
       0.27984217 -0.08544103 -0.0013164257 -0.06654069
000150 be 7a d3 3d 44 3a 85 be 64 7e 83 3d dc 8e 4b 3d
       0.103261456 -0.26021016 0.064205915 0.04969679
000160 45 21 1d be ce 27 73 bd de ba 04 3e 4b e2 4b be
       -0.15344723 -0.059364133 0.12961909 -0.19910543
000170 46 6d af bd 39 6f 7d bc 89 db 6d be 21 67 d0 bb
       -0.08565764 -0.015468412 -0.23228277 -0.00635995
000180 fc c4 5b 3d fb 2c ae 3d 22 ef 06 3e ca 89 5e 3e
       0.053654656 0.08504673 0.1317716 0.2173225
000190 a9 e2 fd bd dd e8 a3 3e 0c 84 3f 3d e9 81 90 3c
       -0.123967476 0.32013598 0.04675679 0.017640071
0001a0 88 0c b0 3c 18 39 37 bc 54 ef ba 3d a1 53 c1 bc
       0.02149035 -0.011183046 0.091276795 -0.023599448
0001b0 42 e1 09 3e d6 4e df bd fa 73 d5 bd 05 9f 5d bd
       0.13464835 -0.10903709 -0.104225114 -0.05410673
0001c0 09 12 3b bd 12 4a 25 3e 22 ba ae 3d 57 c6 10 be
       -0.045671497 0.16141537 0.08531596 -0.1413816
0001d0 ff dc ab 3c cb 58 35 be f4 da 11 3e 0d 42 8e 3e
       0.020979403 -0.17709653 0.1424368 0.27784768
0001e0 25 00 0f 3d e4 03 33 3b 7d 26 1c be 91 03 8b be
       0.034912247 0.0027315551 -0.15249057 -0.27151158
0001f0 cb e8 2a be 7a a0 01 3e f3 9c 90 3e 58 9f 9e 3e
       -0.16690366 0.12658873 0.28244743 0.30980945
000200 81 37 fa 3d fc df 7a 3e 3e 29 54 be 54 12 5c bb
       0.12217618 0.24499506 -0.20718858 -0.003358026
000210 ce fd a4 3e db 29 f5 bc 0c 81 c5 3d 86 a1 42 be
       0.32224888 -0.029927185 0.09643754 -0.19006929
000220 b3 4c a5 bd 11 27 a9 3d 67 1f f9 3e 4f db b5 3c
       -0.0807127 0.082594045 0.4865677 0.022199301
000230 9e b9 73 3e 4f f4 17 bc 41 b5 63 3e 9f 7e ac bd
       0.23801276 -0.009274556 0.22237112 -0.084225886
000240 51 5a 13 3d 6d 5d 3e be 63 e2 22 be 4f 3f 9d bd
       0.035974804 -0.18590327 -0.15906672 -0.07678091
000250 52 0a 8f 3e 22 5b 62 be 1e 11 5f bc fa 65 0c 3e
       0.2793756 -0.22105077 -0.013614921 0.13710776
000260 9c 52 03 bd 7c 30 99 bd 20 f4 66 bd 2e 2f 7e bd
       -0.032061204 -0.07479951 -0.05638516 -0.062056713
000270 07 4f 13 3d 4a df 55 bd 8c 1a ab 3d 15 6e b9 bd
       0.03596404 -0.0522149 0.08354673 -0.090541996
000280 0b 5a a2 3b 3a b6 94 3d 7e 00 be 3d 97 09 f8 3d
       0.0049545816 0.072613195 0.092774376 0.12111204
000290 1e 89 8c bd 1e f7 fd bd c1 8a 95 3d 34 31 71 bd
       -0.068620905 -0.124006495 0.07301856 -0.058884814
0002a0 7e c7 40 3e 8e 35 23 be 3e 4c 27 3d 1e 19 8d bd
       0.188261 -0.15938398 0.040844195 -0.06889556
0002b0 52 31 fa 3d a8 e9 df bd d7 7d a8 3d 2a 24 a6 bd
       0.12216438 -0.10933238 0.08227127 -0.081123665
0002c0 bc a8 67 3c a8 43 84 3d 8b a0 1f be 34 dc f8 3d
       0.0141393505 0.06458217 -0.15588586 0.121513754
0002d0 16 d7 81 bc c1 35 49 be a6 97 b8 bd 5b 17 55 3e
       -0.015849631 -0.19649412 -0.090133 0.2080969
0002e0 b5 d7 4a bd ba 24 a5 3c 69 a6 7e 3d 93 be 49 be
       -0.04952212 0.020159114 0.06217042 -0.19701605
0002f0 05 42 94 bd 5e e6 4e bd 5e 6f 4e 3d 36 17 8c bd
       -0.07239155 -0.050512664 0.050399177 -0.06840365
000300 e8 99 8a be c5 a2 78 3e 7f 82 c0 3d 2a 65 3b 3d
       -0.27070546 0.24280842 0.0939989 0.045750774
000310 d5 78 9a bd f3 7e 76 3d 71 03 c2 3d 85 ea e6 3d
       -0.07542578 0.060179662 0.09473313 0.112752
000320 d7 d3 9c 3e ce 07 53 3d e9 2e 66 be f5 99 64 3e
       0.3063037 0.051521115 -0.22478832 0.22324355
000330 c9 3d 89 bc 08 ca 95 bc 90 96 a3 be dd 9d b4 3e
       -0.016753094 -0.018284813 -0.31950808 0.3527669
000340 e2 9f a8 bd 47 07 9e bd b8 f4 b6 3e 0e c5 dc 3c
       -0.0823362 -0.07716232 0.3573358 0.026949432
000350 75 1a f3 3d f0 d9 77 be da ba 00 3d 4e ca 9c 3c
       0.11870281 -0.2420423 0.031428196 0.019139435
000360 44 f5 1b 3d 0e 26 5e 3e ea 18 42 be df b0 23 be
       0.0380757 0.21694204 -0.18954816 -0.1598544
000370 63 85 a2 be d3 82 8d 3e b5 95 0f 3e 2f e4 8b 3e
       -0.3174239 0.27638873 0.14021952 0.27322528
000380 ff aa a4 3e 07 b1 55 be 47 c6 94 3e 0b 46 17 bc
       0.3216171 -0.20868312 0.29057524 -0.009233008
000390 73 6c 26 be ed 84 dc bd 00 9f 9a 3d 4c 4b 4f be
       -0.16252308 -0.10767541 0.07549858 -0.20243567
0003a0 38 38 3c bc 33 27 a1 3d cb 4e cd bd e6 30 a9 bd
       -0.011488013 0.07868805 -0.10024794 -0.0826128
0003b0 8c cc 84 bc 4b 29 38 3d 7f 98 37 be 8f 68 c9 bc
       -0.016210817 0.044961255 -0.17929266 -0.02458599
0003c0 98 7a 60 be 35 87 ee 3d ae ea 6f 3d 05 08 2b 3e
       -0.21921766 0.116468824 0.058573417 0.16702278
0003d0 da 39 4f be 8e e9 39 bd 79 37 cd 3d 7a 4b 6b be
       -0.20236912 -0.04538875 0.10020346 -0.22978011
0003e0 19 70 c4 bd de 97 0c be 58 3f b4 bd f6 00 91 bc
       -0.095916934 -0.13729808 -0.08801144 -0.017700654
0003f0 77 bb c2 bd 8d 68 ad bc 85 c3 a2 3e 20 a0 30 be
       -0.09508412 -0.021168018 0.31789795 -0.17248583

rnn.bias_ih_l0_reverse f4 [32]
000000 3d be 05 3d 55 01 e7 bd 00 74 ec 3d ba d9 97 be
       0.03265213 -0.11279551 0.11545563 -0.296583
000010 20 0d 55 3d 1b e1 ba bd 02 19 2d bd 17 96 0c be
       0.05201447 -0.09124967 -0.042260177 -0.1372913
000020 4b b5 5a be a7 37 74 3d 96 cb 9c 3d 5c 34 dc 3b
       -0.2135822 0.059623387 0.076560184 0.006720109
000030 79 93 a0 3e d9 d6 35 be d5 fd fd bc 13 30 2a be
       0.31362513 -0.17757739 -0.031004826 -0.16619901
000040 9a d3 7d bd 10 38 1d be 9e dd a3 be 86 b9 01 3e
       -0.061969377 -0.15353417 -0.32005018 0.12668428
000050 13 5d 8a 3a df 76 2f 3e e4 9b 97 be 80 c3 80 3e
       0.0010556303 0.1713519 -0.29611123 0.25149155
000060 71 02 dd 3d a3 85 c9 be 82 03 52 3e df a4 53 3d
       0.10791481 -0.3935977 0.2050915 0.051670905
000070 77 2e 81 3e 49 a1 15 be 8d 12 19 3c bc 37 be 3d
       0.25230762 -0.14612307 0.009342802 0.09287974

rnn.bias_hh_l0_reverse f4 [32]
000000 5c 4a 14 3d d5 a2 35 be 34 ef 72 3d 51 81 8e be
       0.036203727 -0.17737897 0.059310153 -0.27833036
000010 52 86 df 3d 9c 76 07 be d4 b9 49 be ab a3 3b 3b
       0.109142914 -0.1322884 -0.19699794 0.002863149
000020 40 f8 9c be e5 f7 ee 3b 7e 9a e7 3d 03 78 ac 3c
       -0.3065815 0.007292735 0.11308764 0.02105332
000030 3a 29 47 3e 8d e3 c7 3c d4 ef 92 3c 76 0e 8c bd
       0.1944932 0.024400497 0.017936625 -0.06838696
000040 9f 2f 61 3d d8 1c 91 bd f1 7d ad be e4 bf 77 3e
       0.054977056 -0.0708558 -0.33885148 0.24194294
000050 3f d2 6a bb f5 21 31 3e 90 d9 13 be 99 40 56 3d
       -0.0035830883 0.1729811 -0.14438462 0.0523077
000060 19 9f 10 bc e3 d3 c0 bd 10 6b ab 3d 42 6e cc 3c
       -0.008826994 -0.09415414 0.0837003 0.024954919
000070 0e 7a c8 3d 16 28 6a 3b 7f 2d 9f 3e 7c 7d d9 bc
       0.09788905 0.003572946 0.31089398 -0.026549093

fc1.weight f4 [12, 64]
000000 72 b5 89 bd 26 3d 24 bf 84 43 9d 3e 4f d6 10 bf
       -0.06724061 -0.64155805 0.30715573 -0.5657701
000010 08 f1 38 be f8 c1 c0 be cd 6f de be 69 64 19 3e
       -0.18060696 -0.37647986 -0.43444672 0.1497971
000020 77 c8 97 bd d7 7e f9 be 0f 11 86 bd 3e 02 96 3e
       -0.074112825 -0.48729584 -0.065462224 0.29298586
000030 6f ad 18 3e af 84 2a be 5f 6e 87 be c2 36 01 be
       0.1490991 -0.16652177 -0.26451394 -0.12618545
000040 98 67 cf bd e6 c2 18 bf 1d b5 81 3e 60 f7 66 3e
       -0.10127181 -0.5967239 0.2533349 0.22555304
000050 b3 3d bb 3e 13 d1 fb 3e 4b 29 12 bf a2 c8 1f 3f
       0.3657051 0.49182948 -0.5709426 0.62415516
000060 b2 eb ef 3e 92 49 99 be b8 f6 fc be 72 32 8c 3c
       0.4685951 -0.29938942 -0.4940698 0.017113898
000070 86 75 af bc a0 4f 12 bf 03 b3 b2 3e 90 47 bc 3e
       -0.021418344 -0.5715275 0.349022 0.36773348
000080 17 79 a9 be 7f 66 52 be 7c 2a e1 be d5 ba 81 bd
       -0.33100197 -0.20546912 -0.43977726 -0.063344635
000090 ca 84 b1 be 67 a9 8e be a3 96 c0 be 09 52 97 3e
       -0.34671623 -0.2786362 -0.37614927 0.29554775
0000a0 8c 73 a4 be 48 67 c0 3e b6 17 a2 3d ce c5 6f be
       -0.32119405 0.37578797 0.07914679 -0.234153
0000b0 e9 54 97 3e c4 32 a3 3e 31 b3 0d 3e 0f d7 10 be
       0.2955697 0.3187467 0.13837887 -0.14144538
0000c0 d1 f9 a7 3e 13 91 6c be f9 36 b8 bd 46 21 84 3e
       0.32807782 -0.23102216 -0.0899486 0.25806636
0000d0 d1 40 bb be f8 00 62 3e 80 61 40 be 78 c2 a7 3e
       -0.36572888 0.22070682 -0.18787193 0.32765555
0000e0 ae 9e b4 be 7a e0 79 be 29 06 e4 3e 7d ea 10 be
       -0.35277313 -0.24402037 0.4453595 -0.1415195
0000f0 7d c3 c3 3e e8 1a 9e be ba 35 23 bd 54 c9 e0 3e
       0.38235083 -0.30879903 -0.03984616 0.439036
000100 c0 a4 49 3f da b1 05 3f 56 f3 f8 3e 77 16 bc bc
       0.78767014 0.52224505 0.4862315 -0.02295993
000110 da aa 86 3f 2e eb e9 bd de 21 cd be f8 71 bf 3e
       1.052089 -0.1142181 -0.400649 0.3739164
000120 6c ac 94 3f 79 cc 35 3f d6 86 04 bf ce 6c 45 bf
       1.1615119 0.71015126 -0.51768243 -0.7711915
000130 a3 13 c5 3e 51 72 fa 3e 0e 1d 64 be 3a ce ad bd
       0.38491544 0.48915341 -0.22276708 -0.084866
000140 1c d3 07 bf 30 a0 94 be fd 5d ae be 55 0c 6f bf
       -0.530565 -0.29028463 -0.34056082 -0.9337819
000150 ec 5e a2 3d 5f 1e 31 be da 47 d1 3e 14 7a 36 bf
       0.07928261 -0.17296742 0.4087513 -0.71280026
000160 30 b4 8b be 9e 8b a7 3f 9c 27 18 3f f1 aa f4 bc
       -0.2728591 1.3089483 0.5943544 -0.029866667
000170 c1 d1 ca be eb 8b 4e 3e 16 0f b9 be bf dd 5d bf
       -0.39613155 0.20170562 -0.36144322 -0.8666648
000180 e7 7f 9f 3e c1 3a 35 3f ec 1f ed 3e 04 df c1 be
       0.3115227 0.70792776 0.46313417 -0.3786546
000190 a3 ab ef bc cb 92 65 3f f9 bd c1 be d6 d1 78 bf
       -0.029256647 0.89677113 -0.3784025 -0.97195184
0001a0 07 0b 74 be dc 52 8d bf de d4 89 bf 35 3d 92 be
       -0.23832332 -1.1040912 -1.0768087 -0.28562322
0001b0 f9 3c e6 3d 4d 6d 19 bf 64 24 33 bf ec fa ce 3d
       0.11242098 -0.59932405 -0.699774 0.10106453
0001c0 96 6b f3 3d bd 62 55 3f 77 2e d4 bd 3c e0 a6 3e
       0.11885755 0.8335379 -0.10360425 0.32592952
0001d0 4b f0 13 3f 04 db 66 bd 0e 1b 89 be a9 84 17 be
       0.5778853 -0.056361213 -0.26778454 -0.147967
0001e0 6f 0b 1a 3f 45 f9 fb be 54 91 db 3e b1 01 3c 3f
       0.60173696 -0.49213615 0.42884314 0.7344008
0001f0 1f 3a b4 3e cb df af be 2e ad 63 3f 71 3d 38 bd
       0.35200593 -0.34350428 0.88936126 -0.04498047
000200 fd a1 14 3e 82 05 86 be 30 44 32 bf e8 d3 0e bf
       0.14514919 -0.26176077 -0.69635296 -0.55792093
000210 3c f3 3e 3e 39 93 75 3f 13 70 f7 be 62 61 ff be
       0.18647474 0.9592777 -0.48327693 -0.49878985
000220 7f df 82 be 49 3e cc 3c f3 6f 52 3f ef fe 12 3f
       -0.2556114 0.024932044 0.8220207 0.5742025
000230 22 5e 95 bf 46 12 d0 3e 71 29 c5 3f 0e 9c 6e 3f
       -1.1669352 0.40638942 1.5403272 0.9320687
000240 d1 86 47 3e c0 08 70 bd 94 43 d8 be d3 27 b3 be
       0.19485022 -0.058602095 -0.42239058 -0.3499132
000250 a6 57 8f 3e ac 09 5e bf fe 04 98 be d9 ee c8 3e
       0.27996558 -0.8673351 -0.2969131 0.39244726
000260 c3 9b 30 be b9 30 74 3f 57 9d aa 3e 03 d2 14 be
       -0.17246918 0.95386845 0.33323166 -0.14533238
000270 0d b3 5b be 5b 50 32 3f b2 97 2b 3e 28 86 20 3e
       -0.21455021 0.6965386 0.16757086 0.15676177
000280 da a4 14 3f ae fe 9d be d6 fa fd be 6d 27 b6 3e
       0.58064044 -0.30858368 -0.49605435 0.35576954
000290 39 a8 25 3f 57 da a6 3f be 00 25 be a8 73 38 3f
       0.6470981 1.3035382 -0.16113564 0.7205148
0002a0 29 26 57 3e 14 63 7a be 98 8b b1 3e bd 90 0b bd
       0.2101065 -0.24451858 0.34676814 -0.03407358
0002b0 43 7f 7d bf 81 3f 60 bf 14 35 14 3e 37 9a 9c 3f
       -0.9902231 -0.875969 0.14473373 1.2234563
0002c0 ef 65 68 be b4 2a 63 3f 56 cf 98 3d 61 87 08 be
       -0.22695135 0.88737035 0.07461421 -0.13332893
0002d0 c5 36 2f be 4b 3d 01 bf 24 9e 80 3d 37 b3 5a bf
       -0.17110737 -0.5048415 0.06280163 -0.8542971
0002e0 06 2c 3e 3f cd c9 1d bf 30 ae 69 3e c5 cc 1c bf
       0.74285924 -0.6163605 0.22820354 -0.61249954
0002f0 3a 65 2c 3e 2d 12 c3 be c6 6c 34 3f fe 9c 09 bf
       0.1683549 -0.38099805 0.70478475 -0.53755176
000300 d4 c6 30 3f e0 90 cd 3e 39 09 06 3e 75 74 b8 3e
       0.6905339 0.40149593 0.13089456 0.3602635
000310 59 be a8 bd b5 65 c6 3e ff ec b8 be 19 a9 cc be
       -0.08239431 0.3874947 -0.36118314 -0.3997276
000320 67 ad 17 3f d4 57 e5 3e 91 86 28 be 81 c9 d9 be
       0.59248966 0.4479357 -0.16457583 -0.42536548
000330 71 ce 30 3e 4c 0a 57 bf 90 2f 8f 3f ff d7 88 3f
       0.17266251 -0.84000087 1.118639 1.0690917
000340 f4 b2 cd bd f1 d4 9a be 3d 77 e0 bd 3e 65 77 be
       -0.10043898 -0.30240586 -0.10960243 -0.24159715
000350 97 1e e0 be d1 b8 ba be 70 ba 14 3f 6a 76 d2 3e
       -0.43773338 -0.3646913 0.5809698 0.41105968
000360 fa f4 36 bf 23 88 b6 bd 76 45 d2 3e f7 4d 37 3f
       -0.71467555 -0.08912685 0.4106862 0.7160334
000370 b1 bd 34 3f 91 46 09 be 8a 15 d0 bb 11 35 16 bf
       0.70601946 -0.13405825 -0.006350224 -0.5867472
000380 6e b7 01 3f 81 6c 6e be 56 cc 69 3e a4 86 80 3f
       0.50670516 -0.23283578 0.22831854 1.0041089
000390 d7 3a 0e 3f 27 fc 3e 3e 74 65 48 3f 57 22 f1 be
       0.5555853 0.18650876 0.78279805 -0.47096512
0003a0 ff ad be 3d bd f7 0a 3e 08 f4 84 3e 67 93 ee bd
       0.09310531 0.13571067 0.2596743 -0.116492085
0003b0 21 e2 1b bf 9c 59 aa 3e 45 94 70 bf 0e e5 7e 3e
       -0.6089192 0.33271492 -0.9397624 0.24892065
0003c0 c3 aa 37 3f 7a f2 fc 3e 4b 6d 8c 3f b3 d1 58 bf
       0.71744937 0.49403745 1.0970854 -0.84694976
0003d0 60 db 8f bd fa 59 ae be 5c 5d e5 bd 0a 56 e8 bd
       -0.07024264 -0.34053022 -0.111994475 -0.11344536
0003e0 8c 9d 13 3f 06 b4 de be f3 80 31 bf f5 35 2f 3e
       0.5766227 -0.43496722 -0.69337386 0.17110427
0003f0 65 16 d6 be 23 1d ac be f8 77 c3 be 81 c4 06 3f
       -0.4181396 -0.3361598 -0.38177466 0.5264359

fc1.bias f4 [12]
000000 c3 25 97 3c 04 ac 02 3e 6b 97 8f be 13 6d 13 bf
       0.018450623 0.12760931 -0.2804521 -0.5758831
000010 e0 fe 8d be f3 93 5d be 90 53 4e be d9 ff 13 bf
       -0.27733517 -0.2163847 -0.20149064 -0.5781227
000020 3d f9 dc be 18 c7 62 be b9 3e 2c be 62 39 c1 be
       -0.43158904 -0.2214626 -0.16820802 -0.37739092
